models/testing_differentconvmixer/testing_differentconvmixer_286.pt (torch_old, 473483 bytes, 17 tensors)

weight f4 [64, 1, 3, 3]
00000000: 2717 83bb 1ec7 98bd 0140 343d 7165 523f
00000010: 6358 03be 2e3b 2bbf 8bcc 68bf 77f5 3f3e
00000020: 82a0 173f 3d0d e13e 6dce 423f 9f4d cd3e
00000030: 5ac5 a0be 17ce 65bf e94a cdbe 1df3 11be
00000040: 84cf 7d3d 3698 0ebc 708a 5cbe 0050 20bf
00000050: 27ac 03bf 5d4e ddbe fbd0 383d f3ba 58be
00000060: 333b fa3e 25f0 fe3e 81f7 0f3f 9ac0 aa3d
00000070: 409c d9be 21b8 b3bd ed16 e3bd 6c85 5b3f
00000080: afc3 6fbe cde4 0dbe 2eec a9be afc1 233e
00000090: 8125 483d ed45 35bf dd54 df3e 45f3 e9bd
000000a0: 352e 563e 2189 5d3e 571a 3e3d 38d4 133f
000000b0: 2c64 21bf 78bd d93e ac55 d13e 1b31 273e
000000c0: 7f62 fcbe b69c 54bf 9903 1dbf b07e e93d
000000d0: 9625 083f bcbe ea3e 22ab 4f3e c182 59be
000000e0: c271 753e be06 873e a649 b1be e30e b9bc
000000f0: 5b38 b2bd 5fcf 4b3e 80bc 5abe 81f8 c33e
00000100: 74db 1bbd d8e3 bfbe 107e 1e3f 540a 4c3d
00000110: 57db 0fbf 1553 e53e 27dd c33c 593a fdbe
00000120: 6d6a 9b3e d7db df3e 1108 613e c62c b7bf
00000130: 2c76 01bf 47c6 133e 69e4 c73d 58f6 d8be
00000140: 52c5 053f c78d 89bd 57fc ef3e 24ea dfbe
00000150: 2283 b7be 07ab 383f 7773 bcbe 0c56 b4be
00000160: 4324 cb3e 4e05 91bd e7df 463e ccdb 8cbe
00000170: 49c2 5a3d 677b 27bf 52e4 6c3f cf35 25be
00000180: 24a7 ca3e 8f3f 12bf c618 813d 524b 69bd
00000190: e624 45be f3fb 7a3e 9807 42bf 90d3 e63e
000001a0: c280 2d3e 580a 463f 614d d3be 54b4 d4be
000001b0: e43d be3e 4619 0a3f 7480 bd3e 2a95 20bd
000001c0: 942f 0c3e d358 e43c 2c38 a6be 5846 3fbf
000001d0: 437d d1be a7eb 6cbe ad50 14bf 6f60 463f
000001e0: 3494 24bd eec6 23bd 1a31 c73c 7430 853e
000001f0: 001c 143f 6e1a 54bf fcf3 403d 108a e9be
00000200: 8074 cc3e 1f16 633d 51eb 5bbf 2b27 4a3f
00000210: 1b6c d4bd 7609 cbbe 76b1 e43e 59a7 bc3e
00000220: 45b3 e6be dd84 ccbe 32b1 ed3d 606d ffbd
00000230: 2249 ebbe 7993 a53e 5a9c b53e c39d c03e
00000240: a65a 873e 035b 803f 5db4 1a3f d3aa f6be
00000250: 806a 4bbf 41b6 b9be 8225 2b3e 18a3 e63d
00000260: 8a37 5ebe 5de8 8dbd 69a8 1f3f dd47 d2be
00000270: 856b b13d d904 8e3d ac96 983d 60b3 9ebe
00000280: cb77 f8bd 339c 0c3e ac8d efbe df33 bb3e
00000290: a170 cc3d 13c3 30bf b89f 0b3f a9e6 7a3d
000002a0: c4d3 3bbe 7ed6 a33e 2310 edbd 1258 80be
000002b0: c597 3b3f 32eb e5be 2c82 79bd 42aa c73e
000002c0: 3519 18bf ef21 533e e462 7abf 907d 573f
000002d0: 89bc e3be 50c0 153d 5f20 ca3e 4dff febe
000002e0: 9ba3 553c b02f 183f 968b fcbe b1ac c7bc
000002f0: b50a 033f 67ea 22bf 72bf cf3e 5c03 bf3e
00000300: bedd dd3d a3a6 e8be e5d2 9c3e d0ae 483f
00000310: a8ca bebe 7c5c 17bf f30e 0fbe 3dbf f0be
00000320: 5bb1 a33e 8f47 963d f031 1d3f 9729 9cbe
00000330: 5fb7 1fbd 184e 8b3d 51e2 d6bc ca5d 0b3f
00000340: eb2d 2cbf e59b 583e 2712 003f 8f75 ebbe
00000350: 5b6e cf3c 5362 9d3e f0dd 9abe 1e7c 413d
00000360: 11e8 f13e ee23 45bf fa71 b03e 0880 533e
00000370: f45a bcbe 1393 0cbf e192 edbd 8c6d fb3c
00000380: 8c78 373e e757 b93e a24c 9dbd c60f 8abe
00000390: 63fd 81be eb5b d1bd 8e6b de3e e1d4 1a3e
000003a0: 7aa2 9fbe db4d 143e 54df 313e f6b7 c93e
000003b0: 3bef 21bf 34bc 1cbf ad92 1abe 035a 5b3f
000003c0: 3d75 b43e 7b63 81be b9d9 46be adb9 e13e
000003d0: 97cb 00bd a05b e5be b786 a63e bfc4 973e
000003e0: 8f36 6dbf 340c 9b3d 2298 163e 6602 b0bd
000003f0: 6bba 823e 3032 0e3f 5992 013f 2834 8a3c
-0.0040005627 -0.074598536 0.04400635 0.8218604 -0.12826686 -0.66887176 -0.9093711 0.18745981
0.5922929 0.43955413 0.7609623 0.40098283 -0.31400567 -0.89767593 -0.40096214 -0.14252897
0.06196548 -0.008703282 -0.21537185 -0.6262207 -0.5143456 -0.4322385 0.045121174 -0.21165065
0.4887329 0.4979259 0.56237036 0.08337517 -0.42502022 -0.08775354 -0.11088357 0.8575046
-0.23414491 -0.13856812 -0.33188003 0.15991853 0.04886389 -0.70809823 0.43619433 -0.11423353
0.20916064 0.21634342 0.04641184 0.57745695 -0.63043475 0.42527366 0.40885675 0.16327326
-0.49293897 -0.8305162 -0.61333615 0.11401117 0.5318235 0.45848644 0.20280126 -0.21241285
0.23969176 0.2637233 -0.34626502 -0.022590106 -0.08702155 0.19903325 -0.2136097 0.3827553
-0.038051084 -0.37478518 0.61911106 0.049814537 -0.5619406 0.4478995 0.023909165 -0.49458578
0.30354634 0.43722412 0.21975733 -1.4310539 -0.5057094 0.14431106 0.09760363 -0.42375445
0.5225421 -0.06716495 0.46872208 -0.43733323 -0.35842234 0.72135967 -0.36806843 -0.352219
0.39676103 -0.0708109 0.1942135 -0.27511442 0.05340794 -0.6542267 0.9253589 -0.16133808
0.39580643 -0.5712823 0.06303553 -0.056956597 -0.19252357 0.24510173 -0.7579284 0.45083284
0.16943648 0.77359533 -0.41269973 -0.4154383 0.37156594 0.53944814 0.37012064 -0.039204754
0.13690025 0.027874386 -0.3246473 -0.7471671 -0.4091588 -0.23136769 -0.579356 0.77490896
-0.0401804 -0.039984636 0.024315406 0.2601353 0.57855225 -0.8285283 0.04710768 -0.45613146
0.39932632 0.05544102 -0.8590594 0.78966016 -0.10372182 -0.39655656 0.44666642 0.36846426
-0.45058647 -0.39945117 0.11606063 -0.124720335 -0.45954233 0.32339075 0.3547085 0.37620363
0.26436347 1.0027775 0.6043146 -0.48177204 -0.7945938 -0.3627186 0.16713527 0.112615764
-0.21700874 -0.069290854 0.6236635 -0.41070452 0.08663086 0.06934518 0.074506134 -0.30996227
-0.12132224 0.1373146 -0.46787775 0.36563012 0.0998242 -0.6904766 0.54540586 0.06125513
-0.18342501 0.31999582 -0.115753435 -0.25067192 0.73278457 -0.44906002 -0.060915157 0.38997084
-0.5941346 0.20618413 -0.97807145 0.8417597 -0.44479778 0.036560357 0.39477822 -0.49804154
0.013039495 0.59447765 -0.49325246 -0.024374338 0.5118821 -0.6363892 0.4057575 0.3730725
0.108333096 -0.45439634 0.3062965 0.7839174 -0.3726399 -0.59125495 -0.13970546 -0.47020903
0.3197125 0.073378675 0.61404324 -0.3050048 -0.038993236 0.068020046 -0.026230963 0.54439986
-0.67257565 0.21153219 0.500277 -0.45988128 0.025321176 0.30739078 -0.3024745 0.047237508
0.47247365 -0.7700795 0.34461957 0.20654309 -0.36788142 -0.5491192 -0.116002806 0.030691884
0.17917079 0.36199877 -0.07680632 -0.2696516 -0.2538863 -0.1022261 0.43441433 0.1512027
-0.31178647 0.14482825 0.17370349 0.39398164 -0.6325566 -0.61224675 -0.15095015 0.8568422
0.35245696 -0.2527121 -0.19418992 0.44086972 -0.03144416 -0.44796467 0.32524654 0.29642293
-0.92661375 0.07570687 0.14706472 -0.085942075 0.2553285 0.5554533 0.50613934 0.016870573

weight f4 [64, 64, 3, 3]
00000000: 2fe1 f93e f59b 95bf 8c4f 44bf 0127 75be
00000010: b848 5cbe ae9f 29bf 4a2e 1f3e 6c6e 72bf
00000020: 029d 26be 7167 53be 675a 31be 704e ba3e
00000030: 64a9 2abb 5f13 913f 9de0 74be f6e3 03be
00000040: 4847 1abf 4925 6ebe 7a69 d23e f65f 813e
00000050: 71f6 4abf 3fd6 803e 8f4a 0dbf 30d7 73bb
00000060: ab2e ccbe c98b 9b3e 71a0 3a3f 2a39 bd3e
00000070: dd5c b5be 81b2 ce3e 9f70 693e 9793 3abf
00000080: 4f3b a63d 19b1 a3bb 7302 783e 16ae 093d
00000090: 42d5 f63e 0dce 4cbf 61cc e73e 583b 75bf
000000a0: 9cac a53e fbf8 c73e 1e07 0abe 6689 363f
000000b0: d435 3cbe f492 1dbf be85 e43e 25fe cd3c
000000c0: ed04 693e 1a02 3b3e 0ef5 62be 1989 0a3f
000000d0: 8670 4f3e 2966 e0be 4fbb bb3e 79e2 0d3f
000000e0: 4b2e 17bf 346d d63b 7e36 96be d66f 7abf
000000f0: 05ed b63e 909f c4be 7884 143f b098 933e
00000100: 27f1 c1be 6613 4bbf db98 cc3d 0cb3 1bbf
00000110: c5c4 51be 4f9f 263d cab7 f8be 2709 313f
00000120: 7071 b7be 3299 abbe 6397 b93e 041b bb3e
00000130: 74af d73d fad4 02be 34f9 6abe 1778 a33e
00000140: 339a 62bb e032 24be 148e 3c3f 4004 8b3e
00000150: b26d 84be 8077 0f3c a6ea c9bd a434 72bd
00000160: 45a8 25bc 3048 48bd 44c4 5f3e 0a9c 08bf
00000170: 6286 223f e206 d2be 1978 70bf c453 b33c
00000180: 4716 213e a3ba 30be d8b5 8d3e 2790 c23e
00000190: 5314 7c3e 33f0 03bf 8867 323f 50a0 9abf
000001a0: 8695 72be d77a d83e 9cbc ee3c 3ca8 383f
000001b0: 5ff1 3dbf 1517 5b3e e1f5 293c e2cc 823e
000001c0: f1e4 aa3d 173d f43e be57 1cbd b1a6 d83e
000001d0: 2d43 833e 1035 37bf 7f58 353f 641c 7c3f
000001e0: 779a 953e 5a27 f83e 9dfb 093f 9a45 66be
000001f0: a8d7 473f fe33 09be 8cb0 4e3f 0843 8dbf
00000200: bea6 193f 5f6b cbbd 5fd8 9d3e 86ec eabe
00000210: af29 64bd 2c2d 1dbf a513 4c3f 679e 8ebe
00000220: ddc7 0f3f beec 18bf 5a08 943e fc19 1c3f
00000230: 76b0 50be 69cf 0fbe c76b 7b3e 427b 53be
00000240: b69b 24bd 5a38 a1be b489 b73d 6fcc 013f
00000250: bdc6 5bbf d8d0 a83d 399e 7a3e 7c98 4ebe
00000260: ada9 ad3e a501 9bbe 24dc 033f 3c21 dbbd
00000270: 4ddd b93e eea6 1cbe d2ff 8cbe 9027 dc3d
00000280: 9500 32be 3f27 2c3e 55dc 033f bcda ec3d
00000290: 7ee4 dc3e f1a8 abbd defa 97bf d50c 96be
000002a0: 4dbf a5bc 64cc f53e 3e31 acbf c47f 2f3f
000002b0: ea32 d83d c004 f93e 0a38 e5be 9d76 fd3e
000002c0: d572 693f b4cb 903e 4809 003f 605e eebe
000002d0: 424c ecbe 2c6a 7cbd b0e7 073e 93de 39bf
000002e0: 0c4c 813e 069f 413f 66e9 693e db49 2e3f
000002f0: 25da 57be acb6 843d 8a0c 2e3d a33e c1be
00000300: 7889 963d 5d85 12bf 706a 513e f96d 54bf
00000310: af61 5a3d abcf 19bf b41c a83d cf0f 78be
00000320: 934b 24bd 8750 6b3c 2eaf 4ebf 116d 013f
00000330: 7fe6 e6be 2935 933e 716a 25be 4b31 35be
00000340: 3028 ee3e d6e3 0fbf 4a37 babd 1eb5 093f
00000350: fc07 40bf 6c72 f13d 9853 e8be 2b1b 263f
00000360: 88de 92bc 447f ac3e 5951 0bbe 194f 9cbe
00000370: 8fb6 663e f9b5 f2bd ec95 913e b833 b7be
00000380: 7970 f43d f9b7 083d 9bdd 933c c791 05be
00000390: 1341 80be 56bd b83d ce5d 583e b0e1 7c3d
000003a0: c0da 843e 2d9d a9be 18b5 16bf a2ce dcbe
000003b0: acb6 efbd 9638 cbbe 6ce0 5e3e b518 a7bf
000003c0: 2edf babe 4916 7fbf 5066 923d f4dd f0be
000003d0: 2fc6 fa3e fc32 cf3e 94e1 31bf 160d 15be
000003e0: 3351 1f3f d6b9 cbbe 1f1c 1a3f c9f9 fbbe
000003f0: 1e1d 693f cf4e 1dbf 6180 c4be a648 823e
0.48804614 -1.1688219 -0.7668388 -0.2394066 -0.21512115 -0.66259277 0.15545002 -0.9469974
-0.16270831 -0.20644929 -0.17319642 0.36387968 -0.0026040906 1.1334037 -0.23913808 -0.12879929
-0.60265017 -0.2325641 0.41096097 0.25268525 -0.7928229 0.25163457 -0.5519189 -0.003720712
-0.39879355 0.30380085 0.72901064 0.36957675 -0.35422412 0.40370563 0.22796868 -0.72881454
0.08116781 -0.004995477 0.24219684 0.033613287 0.48209578 -0.8000191 0.45273116 -0.95793676
0.32358253 0.39057145 -0.13479277 0.71303403 -0.18379909 -0.6155236 0.44633287 0.0251456
0.22755785 0.1826252 -0.22163793 0.54115444 0.20257768 -0.43827942 0.36666343 0.55423695
-0.5905501 0.0065437797 -0.2933845 -0.978269 0.35727707 -0.38402987 0.5801463 0.2882743
-0.37879297 -0.79326475 0.09990092 -0.6082008 -0.20485218 0.040679272 -0.4857772 0.6915459
-0.35828733 -0.33515316 0.3624831 0.3654405 0.10531512 -0.12776557 -0.22946626 0.3192756
-0.0034576773 -0.16035032 0.73654294 0.2715168 -0.2586494 0.008756518 -0.09859209 -0.059132233
-0.010110919 -0.04889697 0.21852213 -0.53363097 0.634863 -0.41020876 -0.93933254 0.021890529
0.15731154 -0.17258696 0.27677798 0.38000605 0.24617128 -0.5153839 0.69689226 -1.2080173
-0.23689851 0.4228122 0.02914267 0.72131705 -0.7419643 0.21395524 0.0103735635 0.25546938
0.08344448 0.47702858 -0.038169615 0.42314675 0.2563719 -0.7156534 0.7083816 0.9848082
0.2921941 0.48467523 0.53899556 -0.22487488 0.7806344 -0.1339874 0.8073814 -1.1036081
0.60020053 -0.09932589 0.3082914 -0.45883578 -0.055703815 -0.6139705 0.79717475 -0.27855226
0.5616434 -0.5973624 0.28912622 0.6097715 -0.20379815 -0.14043964 0.24552833 -0.20652488
-0.04018756 -0.31488305 0.08961812 0.50702566 -0.85850126 0.08242959 0.2447442 -0.20175356
0.33918515 -0.30274692 0.5150778 -0.10699698 0.36301652 -0.15298054 -0.27538925 0.107497334
-0.17383035 0.16811846 0.51508075 0.11565158 0.43143076 -0.083818324 -1.1873434 -0.29306665
-0.02023282 0.480075 -1.3452528 0.6855433 0.10556586 0.48636436 -0.44769317 0.49504557
0.91190845 0.28280413 0.5001416 -0.46556377 -0.4615193 -0.06162469 0.13271976 -0.72605246
0.25253332 0.75633276 0.2284294 0.68081445 -0.2107931 0.064801544 0.042492427 -0.377431
0.07350439 -0.57234746 0.20450759 -0.82980305 0.053315815 -0.600825 0.082086 -0.2422478
-0.040111136 0.014362461 -0.80736053 0.5055705 -0.4509773 0.28751495 -0.16153885 -0.17694585
0.46515036 -0.56207025 -0.09092577 0.5379199 -0.75012183 0.11789402 -0.45376277 0.64885205
-0.017928377 0.33690846 -0.1360525 -0.30529097 0.22530578 -0.11851115 0.28434694 -0.35781646
0.11935515 0.033378575 0.018050006 -0.13043891 -0.25049648 0.09020488 0.21129534 0.06173867
0.25948143 -0.33127728 -0.5887008 -0.43126398 -0.11704764 -0.3969161 0.21765298 -1.3054415
-0.36498398 -0.9964338 0.07148421 -0.47044337 0.48979327 0.40468585 -0.6948483 -0.14555773
0.62233275 -0.3979022 0.6019916 -0.49214008 0.91060054 -0.6144838 -0.38379195 0.2544605

weight f4 [64]
00000000: f2e7 f13e 2d54 963f ae65 c63e c869 053f
00000010: 83cc 0d3f 42dd 103f 4e54 fa3e 288f 073f
00000020: 11e2 093f 3a4f 723f 4498 de3e d577 083f
00000030: 43a8 013f 1470 3c3f b396 123f dc8a 783f
00000040: 51c3 233f f3a7 113f ff2b ee3e a1ed 0c3f
00000050: 8ac8 083f 5a01 643f 042a 003f 2971 073f
00000060: b5f8 343f fe87 5c3f 6186 403f 6ecf 243f
00000070: 078d 253f bda6 2d3f 2669 c53e 35b4 243f
00000080: 7a8a 133f 0eb0 373f d40d 0a3f 9405 903f
00000090: 39a5 243f fd88 543f 675b 003f 2d0a 553f
000000a0: c1cd ed3e 02ce 133f ed5e c13e a041 013f
000000b0: 9bfa 2c3f a1d5 c63e 622e e03e 997f 163f
000000c0: 88e9 213f c112 4c3f 8991 013f 2459 2c3f
000000d0: 71ad e63e d5f1 c53e 5eb8 243f 0616 103f
000000e0: fa2c 1d3f 5903 2c3f 0535 293f 86b5 113f
000000f0: 1bec 4a3f 216f 0e3f 4382 303f 8ae9 1b3f
0.47247273 1.1744438 0.3874945 0.52114534 0.55390185 0.5658761 0.48892444 0.52952814
0.53860575 0.9465214 0.43475544 0.5330785 0.5064737 0.7360852 0.572612 0.9708688
0.63969904 0.56896895 0.4651794 0.5505009 0.53431 0.8906456 0.5006411 0.52907044
0.70691997 0.8614501 0.75205046 0.6437901 0.64668316 0.6783255 0.38556784 0.64337474
0.57633173 0.71753013 0.5392735 1.1251702 0.6431461 0.8302153 0.5013947 0.8321865
0.4644604 0.5773622 0.37767735 0.5049076 0.67569894 0.3883486 0.43785387 0.5878845
0.63246965 0.79716116 0.50612694 0.6732352 0.450542 0.38661066 0.6434382 0.56283605
0.61396754 0.6719261 0.66096526 0.5691761 0.7926652 0.5563832 0.68948764 0.6090323

bias f4 [64]
00000000: 7d7b 7abe 6811 e1bf 9496 b7bd 3633 0b3d
00000010: b440 7abe a8be 82be 3f32 70be c5cd e1be
00000020: 2681 d2bd e90c 52be d9dc ddbe 7383 b0be
00000030: 9cf5 fd3c 340f 68bf d301 c8be 924c 7dbf
00000040: 0adb 85be 0786 2dbd b4df 37bd 86bc 8ebe
00000050: 185c afbe da22 b1be 490d f6bd e3dd 3a3e
00000060: 6548 4bbe 27f2 60bf f498 23be 9058 86be
00000070: 481c 1abf 7dcf 413e 4015 a9bd a468 acbe
00000080: 780c 13be 970e 5ebe e8cb 44be 36b9 dabf
00000090: ad1a abbe e313 cdbe 5508 3fbf 51c2 38be
000000a0: e48f 9dbe 258d a8bd 1865 1dbe 2858 b9bd
000000b0: abbc 5dbe 4eab 4abe e088 4abe d259 9abe
000000c0: eaac bbbe ccc7 c3bf 0937 20be b45b 8cbc
000000d0: d0f8 77be 325d 073e 97ec c1be 5c70 87be
000000e0: 49ab d4be 7527 04bf 7606 c3be 3472 03be
000000f0: 4964 05bf c8a7 d7be 2163 9fbe 0f82 cebe
-0.2446117 -1.7583437 -0.089642674 0.033984385 -0.24438745 -0.25536084 -0.23456667 -0.44102302
-0.10278539 -0.20512737 -0.43332556 -0.34475288 0.031000905 -0.906482 -0.39063892 -0.9894496
-0.26143676 -0.042364147 -0.044891074 -0.27878207 -0.3424995 -0.34596902 -0.12014253 0.18248706
-0.19851835 -0.87869495 -0.15976316 -0.26239443 -0.60199404 0.18926807 -0.08256006 -0.33673584
-0.14360225 -0.21685253 -0.19218409 -1.7087772 -0.3341879 -0.40054235 -0.7462209 -0.18042876
-0.30773842 -0.08230046 -0.15370595 -0.090500176 -0.21654002 -0.1979191 -0.19778776 -0.30146652
-0.3665536 -1.5295348 -0.15645994 -0.017133571 -0.24216008 0.13219145 -0.37875816 -0.2645291
-0.4153693 -0.51622707 -0.38090867 -0.12836534 -0.5210615 -0.42120194 -0.31130317 -0.40333602

running_mean f4 [64]
00000000: 0616 7dbe cd31 0240 16a6 7dbe a4eb a8bd
00000010: 438b b9be c3ac 673f add0 6abe 806e 9f3d
00000020: 9c1b 963d 24df 8abf 8268 e3be cfdc 22bf
00000030: 3a65 31bf e84e aabf 32af d9be 67d0 e4bf
00000040: 4c2d 2cbf 7a58 04bf 7506 21bf dba9 83bd
00000050: c9ce fbbe a744 f1be 22c2 c8be 8abb 1cbf
00000060: a505 1bbf a3fa fdbf a16a 11bf 4b9f d9be
00000070: 2a57 96bf c3a2 aebe 0a1c 8dbe 1b42 a2be
00000080: f0eb acbe 79c6 0ebf 3af7 f2be 701f 2940
00000090: 8c49 73bf d6c5 42bf 7bdf c9bd 73e9 14bf
000000a0: da92 29be 746f 26be df42 0abe 838a 8bbe
000000b0: 5d9c 53bf aa9a c7be df43 9dbd 0d0a fcbe
000000c0: f576 dabe 9a52 89bf 5dde 8ebe 5d9a 1cbf
000000d0: ee4e 22be 0459 99be c2e5 db3f b75d 4cbf
000000e0: 302e d5be 272a a73f 38cc 85be 574f 02bf
000000f0: 870a 7040 9aad 11bf a692 98bf ed47 5e3f
-0.24715433 2.0342896 -0.24770388 -0.0824807 -0.3623906 0.9049799 -0.22931166 0.07784748
0.07329485 -1.0849347 -0.4441567 -0.6361818 -0.69295084 -1.330533 -0.42516476 -1.7876099
-0.6725662 -0.51697505 -0.6290048 -0.06428882 -0.49181202 -0.4712269 -0.39210612 -0.6122366
-0.6055549 -1.9842113 -0.5680333 -0.42504343 -1.174535 -0.34108552 -0.27560455 -0.3169106
-0.33773756 -0.55771595 -0.47454244 2.6425438 -0.950341 -0.76083124 -0.09857079 -0.58168715
-0.16559926 -0.16253453 -0.13502072 -0.27254114 -0.82660466 -0.38985187 -0.07678961 -0.49226418
-0.42668882 -1.0728333 -0.27904025 -0.6117304 -0.15850422 -0.29950726 1.7179492 -0.798305
-0.416368 1.3059739 -0.2613237 -0.50902313 3.7506425 -0.5690552 -1.1919754 0.868285

running_var f4 [64]
00000000: c1e6 8d3e aa3c af3f 4018 f73e 5977 063f
00000010: b291 c93e aab3 ed3e 2c42 a13e 8bdc db3e
00000020: 366f 243f e71e 263f 1af4 533e b7cd 973e
00000030: 2896 d83e c116 093f 9066 e53e e046 8d3f
00000040: b8ef 043f 163b 443f 3fe0 cd3e 94a1 bf3e
00000050: 2396 ae3e 5992 403f 998a 9a3e a222 fd3e
00000060: 525e 223f 5ba3 ba3f bb3d 6c3f afc5 293f
00000070: 4d93 033f 6235 5e3f 67c8 043f 5be6 d63e
00000080: a20a e83e 698e 203f f07b e33e 398a e63f
00000090: 90d6 f13e 0198 1f3f d5f2 ba3d 7d0e 743f
000000a0: 6f37 543e 6d3d f63e 7f28 9b3e 29e0 c43e
000000b0: fc76 803f 9138 933e 3e78 9e3e 6c96 b33e
000000c0: abf3 113f 46c3 b33e e686 a93e f3ee 6e3f
000000d0: 51a5 503e 7291 793e d34d 463f 3c44 4a3f
000000e0: a1ad a53e 604f 6d3f 3aff d93e 00ec e73e
000000f0: dfc3 e33f 208f c03e a76b 943f bc00 153f
0.27715114 1.3690388 0.4826069 0.5252586 0.3936897 0.46426135 0.31495798 0.42941698
0.64232194 0.64890903 0.20698586 0.29649135 0.4230206 0.53550345 0.4480481 1.1037254
0.5192828 0.7665266 0.4021015 0.37427962 0.3409892 0.7522331 0.30183867 0.49440485
0.6342517 1.4581102 0.92281693 0.66317266 0.5139664 0.86800206 0.5186829 0.41972622
0.45320612 0.627173 0.44430494 1.8010932 0.4723401 0.62341315 0.09128348 0.9533461
0.20724271 0.4809374 0.30304334 0.3845227 1.0036311 0.28754094 0.30951113 0.350757
0.5701243 0.3510992 0.33110732 0.9333336 0.20375563 0.24371889 0.774625 0.7901037
0.3235903 0.9269924 0.42577535 0.4529724 1.779415 0.37609196 1.1595353 0.58204246

weight f4 [64, 64, 3, 3]
00000000: ae74 3bbe ec37 f0be 7fc9 5abf 4109 dbbe
00000010: a7de 1fbf 641a b93d 07a0 e53e ced3 d53e
00000020: 03fd 033f 754b a03d d6ce 7d3e 9e80 5dbe
00000030: 9921 47be c10f 26bd 84db 943d 423b a93e
00000040: 174b 8abe 5a6a 823d 5de3 c3be 7d36 623f
00000050: 0727 07bd 0ec2 9dbd 66bb b63e c877 ffbd
00000060: aa4f ad3e de79 29bd 2f36 6a3d 788f fa3e
00000070: fd2c 41be 5594 c23e e8d1 13bf b760 313f
00000080: 4adc 15bf b9b5 873e 5ea1 e33e 0988 08be
00000090: dcc1 f73d 2ecb cf3e c557 f43e 2c47 033d
000000a0: bf74 973c b823 5dbe 8513 39be c782 73bf
000000b0: 2580 51be db67 5ebf bda8 a23e f339 7fbd
000000c0: a584 f03d a5c3 0ebd ee0c 70bf 8d2d b43e
000000d0: b5e8 3ebf 075e 34be a93e 14bf 77cf 59bc
000000e0: 3ee2 d53e 24dd f4bd 63cc e6be c57d 803e
000000f0: 08f9 ccbe fba6 b6bf 19b7 a13d f501 a9be
00000100: adb1 18be a341 86bf 75b2 f23e 7e01 48bf
00000110: 8af3 a73d a912 013e e422 29bd ee8a 4d3f
00000120: 9fb2 243f 28ca c43e 0003 51bf c09c 25be
00000130: e0bb 4cbf f7f7 0d3f 947e 68be b408 d43e
00000140: bc14 9a3e 06dd 67bd 474e ffbc 17b8 873e
00000150: 63e3 babc d994 2f3d 585a d5be 7dff 353e
00000160: 5964 27be c1fc 373f 1ac9 1ebf 8ef3 503e
00000170: d5d0 43ba efb1 d1bc 3a6c c93e 00f9 af3d
00000180: 8568 b1bc bddb eabe f6f1 cb3e 0f89 0c3f
00000190: c3b7 ae3f 8fb3 32bd 4f5a a53e 1d7e 24bf
000001a0: 3a27 01bf 7b30 19bf 7fea d5bf 09d1 08bf
000001b0: 8162 323e ae45 b53e a678 d73d 964d cabe
000001c0: 1397 c8bc 7107 33be 6e39 3b3e fb42 1fbe
000001d0: d6b1 6fbf 1ed0 17bf 3c9a b7be fbdc bcbe
000001e0: 403e c2be b0ca ecbf 62ad 2dbf 5d3f 05be
000001f0: 2036 8a3f 24ea 04bf ab66 173e 84e1 103f
00000200: 8bb2 8abd 38f0 e93e 8734 253e dbc1 ff3e
00000210: dacd 1a3c 2fc4 f73d 5d8a c5be c3c7 6c3d
00000220: 2201 4abf 0c71 09be a59b 633e a613 dd3e
00000230: ca4b dc3d e959 1f3f 6d02 49be 8795 56be
00000240: ee99 16bf aa15 913e a54c be3e 93f1 bc3e
00000250: e386 373f 8e2d 133f 71b5 79bf 5483 84be
00000260: 11db 8fbe 94e4 77bd 3b35 d6bc 7c55 25bf
00000270: 7aba 713c 4e45 3e3d b489 ed3d 9783 04bf
00000280: 96c7 373f fd03 10be ac32 993e 3a65 923e
00000290: cbba 0abd b91b d0be 0431 1c3e e1ec 0fbf
000002a0: bd28 623e d2d7 8bbe 47df d7bc e77b 19be
000002b0: 41ca 5abf a7a3 88be 9106 4b3e 5250 50bf
000002c0: 56fb 40bd 50f5 aabc 23f5 833e 2904 933d
000002d0: 7351 39be d159 35bf 4062 40bf b651 cfbd
000002e0: 8571 303d 3e18 22be 4063 323d 3ba3 8c3e
000002f0: 8a65 0a3f 9118 263f 51a2 903f b6cf e93e
00000300: 630e 1bbf c841 2f3f 6b27 093f 0c67 5c3f
00000310: 20a3 8d3d 5e6d 6d3e 7f23 fa3d 9d37 8bbf
00000320: 3e83 37be 7df2 d5be ddc4 22bf 10c3 b2be
00000330: 5946 b63e 193f a9be 20eb c9bc 553c eabe
00000340: d8ed f5be b003 a1be 2037 8a3d 60d5 ce3f
00000350: 80a7 a9be b869 97bd 0ec0 603f b518 8dbe
00000360: 8ac0 d4be 407a 38bf 1cab 93be d150 273f
00000370: 873c fe3e 1396 883e 7c80 023f ba8b 62be
00000380: ba25 813e a5eb 5bbf 9a1c fcbe 5018 b1be
00000390: 6a8d 1a3e ce0b efbe 384c a2bf c80f 01bc
000003a0: 3da8 14bf 39d4 9d3d 737c aa3e 500a 1e3f
000003b0: 5c53 c1be dd21 663d 0885 033f 6072 dfbe
000003c0: 3571 00bf cdf7 a4be 56f6 abbd 26cf 5ebe
000003d0: 7a80 02bf 760e 55bf 8434 dcbc b285 963e
000003e0: 3151 2dbf 0eb0 aa3d 55c3 4f3f 1cbb 5abe
000003f0: a38e b3be 8013 863e 77de 2dbe 39ed 7cbe
-0.18306229 -0.46917665 -0.8546371 -0.42780498 -0.62449116 0.09038237 0.44848654 0.41763157
0.5155794 0.07826892 0.24785933 -0.21631095 -0.1944641 -0.040542368 0.07268432 0.33053023
-0.27010414 0.06367941 -0.38259402 0.8836439 -0.032996204 -0.077030286 0.3568985 -0.12474018
0.3384984 -0.041375987 0.05718058 0.48937583 -0.18864818 0.38003793 -0.57742167 0.692882
-0.5853926 0.2650583 0.4445905 -0.13333143 0.120975226 0.405847 0.47723213 0.032050297
0.018488286 -0.21595657 -0.18073852 -0.95121425 -0.2045904 -0.8687722 0.31769362 -0.062311124
0.1174405 -0.03485455 -0.9376973 0.35191002 -0.7457383 -0.17613994 -0.5790811 -0.013294092
0.41774172 -0.11956242 -0.4507781 0.25095955 -0.40033746 -1.4269708 0.07896251 -0.33009306
-0.14911528 -1.0488781 0.47401777 -0.78127277 0.08200748 0.12604775 -0.04129304 0.80290115
0.64335054 0.38435483 -0.816452 -0.16173077 -0.79974174 0.5545649 -0.22704536 0.4141289
0.30093944 -0.05660727 -0.031165255 0.26507637 -0.022813505 0.04286656 -0.4167049 0.17773242
-0.16346873 0.71870047 -0.62025607 0.20405409 -0.0007469778 -0.02559754 0.39340383 0.08592415
-0.021656284 -0.45870772 0.3983304 0.54896635 1.364983 -0.04362827 0.32295462 -0.64254934
-0.5045048 -0.598396 -1.6712188 -0.5344396 0.17420389 0.35404724 0.10521059 -0.39512318
-0.0244861 -0.17483307 0.18283626 -0.15552895 -0.9363073 -0.59301937 -0.3585986 -0.36887345
-0.37938118 -1.8499355 -0.67842686 -0.13012452 1.0797768 -0.5191977 0.14785258 0.5659411
-0.067723356 0.45691085 0.16133319 0.49952587 0.009448493 0.12097966 -0.38582125 0.057807695
-0.7890798 -0.1342203 0.22227342 0.43179053 0.10756643 0.62246567 -0.19629832 -0.20955478
-0.5882863 0.2833684 0.3716785 0.36903057 0.71690196 0.57491386 -0.9754248 -0.25881445
-0.28096822 -0.060520723 -0.02614843 -0.64583564 0.014753932 0.046452813 0.115985304 -0.5176329
0.7178892 -0.14064021 0.29921472 0.28592855 -0.033869546 -0.4064615 0.15253073 -0.56220824
0.22085853 -0.27313095 -0.026351584 -0.14988671 -0.85464865 -0.26687357 0.19826724 -0.8137256
-0.047114693 -0.020868927 0.25772962 0.07178528 -0.18097477 -0.70840174 -0.7514992 -0.10123007
0.04307701 -0.1582956 0.043551683 0.27468285 0.54061186 0.64881235 1.1299535 0.45666283
-0.6056883 0.6845975 0.5357577 0.8609474 0.06915879 0.23186252 0.122138016 -1.0876347
-0.17921159 -0.41786566 -0.6358164 -0.34914446 0.35600546 -0.33055952 -0.02464825 -0.45749155
-0.48033023 -0.31448126 0.067487955 1.6158867 -0.33135605 -0.07393211 0.8779305 -0.27557912
-0.41553146 -0.7206154 -0.28841484 0.6535769 0.49655554 0.26676998 0.509773 -0.22123614
0.25224096 -0.8590644 -0.4924057 -0.3458886 0.15093008 -0.46688694 -1.267951 -0.007877298
-0.5806921 0.07706494 0.33298072 0.61734486 -0.3775891 0.05618464 0.51374865 -0.4364195
-0.5017274 -0.32220307 -0.08396594 -0.21758708 -0.5097729 -0.8322519 -0.02688051 0.29398876
-0.67702013 0.08334361 0.8115743 -0.21360439 -0.3506976 0.26186752 -0.16979395 -0.24699868

weight f4 [64]
00000000: 24de eb3e fbf6 a73e bda5 393f f027 d53e
00000010: 0ae4 1a3f a6ed 3a3f 98f5 ef3e fc2e 0a3f
00000020: dceb 113f 806d 0b3f e004 013f 2ec8 bd3e
00000030: ecd8 433f deee 103f 3491 073f 503c 0ebf
00000040: 7e4a 043f 1b45 103f c420 3a3f 5166 e43e
00000050: 5b92 e23e bcf5 d83e c4ab 263f 26bd 3e3f
00000060: e153 f73e 73a6 503f 0804 1f3f a8c5 fabe
00000070: 3a8a e93e d546 003f ad7c f13e 7b5c c73e
00000080: 1638 043f faa0 1c3f 9b7a d33e becd f63e
00000090: cc0f b13e d8b3 ef3e d217 4c3f 13ae 0a3f
000000a0: 2b73 063f c04a 043f c994 143f 8256 f93e
000000b0: a8f2 013f 065a e73e 53ee e73e f8d6 c93e
000000c0: 0dbd de3e 5200 a63f 8b8d 053f 5486 e43e
000000d0: be84 0e3f e248 d03e dd48 263f 644a 583f
000000e0: 87e1 c63e 6488 3c3f a95f 243f b8c8 353f
000000f0: 2eb9 853f 807d c03e cb65 4a3f 02e0 25bf
0.46067917 0.3280562 0.7251852 0.41632032 0.6050421 0.7301887 0.4686706 0.5397794
0.5700052 0.5446396 0.50398064 0.37066787 0.7650287 0.5661448 0.5295594 -0.5556078
0.51676166 0.56355447 0.72706246 0.4460931 0.44252285 0.4237498 0.65105844 0.7450737
0.48306182 0.8150398 0.62115526 -0.48978925 0.4561327 0.5010808 0.47165433 0.38937744
0.5164808 0.6118313 0.41304478 0.48203844 0.34582365 0.46816897 0.79723847 0.54171866
0.5251948 0.5167656 0.5803953 0.48698813 0.5076089 0.4518587 0.45299014 0.3942182
0.4350361 1.2968848 0.521691 0.44633734 0.556713 0.40680605 0.6495493 0.8448851
0.3884394 0.73645616 0.64208466 0.710094 1.0447137 0.3759575 0.79061574 -0.64794934

bias f4 [64]
00000000: e636 ccbd cce1 cf3e 32c7 6dbf b1f5 d1bd
00000010: 5434 fdbe 1b02 bfbe f202 a7be af95 7abe
00000020: 0afe 71be 7aa5 90be 1c44 cfbe bf27 a3bd
00000030: ac87 4fbf 3301 7d3e 2fb1 0ebf 346b 19be
00000040: 7fe0 cdbe f9ac 88be 8830 b4be 6a0b 133d
00000050: b75d dcbe ac9c b13c b0b9 52bf 0c6a f0be
00000060: 8634 7fbe bd4f 80bf 658f 773c aa78 dcbe
00000070: 228f 8fbe 7ff6 d3be d35b d3bd c9c5 2d3d
00000080: e41c 24be ec94 dfbe 8d60 24be c121 08be
00000090: d773 bd3d ba18 2fbd e58b 2fbf d765 83be
000000a0: 8efc 2bbf 2550 1ebe ae57 acbe 1c55 a73e
000000b0: 3669 5fbe de1d 473b d48e b53d e863 3a3e
000000c0: 8054 71be f73e 22c0 6146 9fbe 6551 84be
000000d0: 7d83 dabe b41a a1bd be3c 05bf dbe7 c0be
000000e0: 8538 623e 80ef 3fbf d1ce 33bf 0cbf 3dbf
000000f0: be85 10c0 5f1e 8c3d 9a13 73be 630e 9fbf
-0.099714085 0.40601957 -0.9288207 -0.1025194 -0.49453986 -0.37306294 -0.32619435 -0.24471162
-0.23632064 -0.2825125 -0.4048165 -0.07966565 -0.81066394 0.24707489 -0.5573911 -0.14982301
-0.4021034 -0.26694468 -0.35193276 0.035899557 -0.4304025 0.021681152 -0.82314587 -0.46955907
-0.2492238 -1.0024334 0.0151098715 -0.4306081 -0.2803889 -0.41399 -0.103202485 0.04242495
-0.16026646 -0.43668306 -0.16052456 -0.13294126 0.0925061 -0.04274819 -0.6857284 -0.25663635
-0.6718224 -0.1546026 -0.33660644 0.3268212 -0.21817479 0.0030382792 0.08865133 0.18202174
-0.2356739 -2.535093 -0.31108382 -0.2584335 -0.42678443 -0.07866421 -0.5204581 -0.37676892
0.22091873 -0.74974823 -0.7023745 -0.7411964 -2.258163 0.0684173 -0.23737946 -1.2426265

running_mean f4 [64]
00000000: 1b13 833d ca63 03bf 83d5 6bbf c0c2 15c0
00000010: ff00 36c0 9f3f 903f 664a b1bf 0cf3 3fbf
00000020: 1b31 d43e 09f2 10c0 8c4b 20c0 7c20 afbe
00000030: 2422 0abf 8cb5 993e 2936 1bc0 9376 263f
00000040: 42d8 c63e 0671 6e3f 4ece e5bf aca5 c7bf
00000050: cef4 5ac0 ee54 5c3f c9b2 81be ffc7 153e
00000060: ea23 c0bf e6e4 2c3f 1198 c0be b102 0240
00000070: 812e 05be 593a 17c0 c6b9 44bf fda6 99be
00000080: 40aa 2bc0 f29e f5be 9dee 25bf 8e7e 583f
00000090: 8ee6 27bf e839 b03e 2e13 78bf 1b10 ee3e
000000a0: 6582 89c0 20e3 aebf cd02 b5bf e1ac a640
000000b0: 57e5 90be 36df 0740 028a 913e 4dc2 9cbe
000000c0: 3551 26c0 af3f 8cbf e308 8dc0 9db9 183e
000000d0: 93a7 c83d 5675 b83e 704b e0bf 04be 5f3e
000000e0: c4e2 8040 df05 03bf 5ba3 25c0 78aa d43f
000000f0: 9f6d 6dbf c7f8 1d40 9f5d 1cbf 2225 61be
0.064001285 -0.5132414 -0.9212267 -2.3400116 -2.8438108 1.1269416 -1.385083 -0.74980235
0.41443714 -2.2647727 -2.504611 -0.3420447 -0.53958344 0.30021322 -2.4251807 0.6502468
0.38836867 0.9314121 -1.7953584 -1.5597434 -3.4211917 0.8606709 -0.25331715 0.14627074
-1.501096 0.6753677 -0.37616017 2.0314143 -0.13006021 -2.3629363 -0.7684597 -0.30010214
-2.6822662 -0.47972828 -0.6481722 0.8456811 -0.65586174 0.3441918 -0.96904266 0.46496662
-4.2971673 -1.3663063 -1.414148 5.2086034 -0.28299972 2.1229987 0.28425604 -0.3061699
-2.5987065 -1.0956935 -4.407335 0.14914556 0.09797587 0.3602702 -1.7523022 0.21849829
4.0276814 -0.51180834 -2.5880954 1.6614523 -0.92745394 2.4683092 -0.61080354 -0.21986821

running_var f4 [64]
00000000: c96b 1d41 8967 1a41 1bac de40 e6f8 0341
00000010: 8311 3d41 b634 5841 3fd8 cb40 b36f 2f41
00000020: fba6 0c41 0d56 0a41 f775 d840 97ce f040
00000030: ea18 f440 c9b1 9141 3935 e340 480b 8c41
00000040: 107c 2241 9193 1f41 b348 4541 72c6 2241
00000050: 926c 0041 934d 3241 9cbf f140 b88a 4141
00000060: 83d4 d040 8d37 c940 fd54 ac41 7c86 0041
00000070: 8e4f d540 576b 0441 6f31 2041 9eed 1f41
00000080: ca29 0441 23dc 2241 ace2 fd40 96c7 2641
00000090: beb7 f840 0d6b 0c41 0ac6 3141 87cc 0741
000000a0: 39f6 8640 d817 3741 9599 3341 cc7a 6541
000000b0: 2b0a 0c41 1f13 1841 469b 1741 e783 3241
000000c0: 5e88 fb40 1c5a 4f40 1735 0041 3806 dc40
000000d0: 3353 ef40 310e 1e41 f0df 0341 20ca bf41
000000e0: 547f 2d41 b259 e840 90f1 0941 d10e 0041
000000f0: bfbd 2640 ca01 e540 58a1 c841 930a fe40
9.838815 9.650277 6.958509 8.248266 11.816775 13.512869 6.370147 10.96477
8.790767 8.6460085 6.7644 7.5252185 7.6280413 18.21181 7.100247 17.505508
10.155289 9.973527 12.330249 10.173449 8.026506 11.143939 7.55464 12.096367
6.5259414 6.288031 21.541498 8.032833 6.6659613 8.276206 10.012069 9.995512
8.260202 10.178744 7.93392 10.423727 7.7724295 8.776135 11.110849 8.487433
4.2175565 11.443321 11.224996 14.34248 8.752482 9.504668 9.475409 11.157203
7.8603964 3.2398748 8.012961 6.875759 7.478906 9.878465 8.242172 23.973694
10.843586 7.260949 8.621475 8.003617 2.6053312 7.1564684 25.078781 7.938791

weight f4 [64, 64, 3, 3]
00000000: 90cd dabe 9bd7 debd 9fb0 a9be 0e85 e4be
00000010: ad31 61bd 56cc 893e a520 0b3e fc82 163e
00000020: 4012 453f 605d 68be 3f50 f5bf 8c85 44be
00000030: 53dc aebe da98 dc3c 8192 91be 34d1 18be
00000040: 9204 ce3e 6578 f63c 1665 a53d 2700 a23e
00000050: 34eb 813e 9233 4c3e fa60 ec3d 4142 52bf
00000060: acd6 2e3f 5d49 87be 72bf 963e c077 c6be
00000070: 22b2 3bbf 2157 b7be 287f ca3e dec3 e9be
00000080: fd8b aa3c cffe 7dbc 1b52 c83e 3960 083f
00000090: 6a26 11bd e2e6 cbbe d1b0 35bd 46b0 1dbf
000000a0: f807 adbd 9800 123f ac5d 33bd 6cd3 07bf
000000b0: ee7b e3be 0440 973e 0a69 cfbe 805f c83d
000000c0: 6955 923e 1d45 e8be 86fc 80bd 79a1 e9bd
000000d0: b70b de3e 00ab f7be 1ac4 913e 8986 cebe
000000e0: 0bd0 31be 4b78 a4be dd89 cebe eaa9 e5bd
000000f0: 1ec9 27bf 6597 7cbf 8611 b1be afe4 d7be
00000100: 7653 b73d 3a44 8fbe d4c5 24bf a75d 86bd
00000110: d8c7 a7be 142f 80be 4eee a93e 8903 8fbc
00000120: e399 383c d990 92be 7aae 53bf db18 923e
00000130: e8a9 bdbb d8a1 893e 64eb ad3e db69 263f
00000140: b1bd ddbd db84 f83e 6423 ac3e b255 4a3e
00000150: 25ad 233d 43ba 853f 223a d4bd bc4b b03e
00000160: b08b 24be 9bcf 493e bdff 2fbd 8083 c83e
00000170: 3532 82be 4068 f0bc 9bd5 773e d71e 43bd
00000180: 2e25 383e 408f 01bf aede c6be 5fad 14be
00000190: 534c bbbe 15bb 01bf 4c4b 46be ce68 c8be
000001a0: f4e1 1f3e 389c d33e d4b4 133f 6b11 3dbe
000001b0: 8ece 563e ff43 a7be 5cd0 55be 24d9 11bf
000001c0: 40e2 9ebe 8e4e 97be 412b 8dbe 04d9 27bd
000001d0: f994 253f c550 943e da19 e03e e2e2 ac3c
000001e0: 8e0f 543e 5ee6 e5be ef3f eb3d 5f77 123e
000001f0: 52de e6be 4a9e fa3d e631 b33e ebc1 e2be
00000200: 107c 9e3e 6d54 57be bede 303f 0e12 0ebe
00000210: 5a80 903e 129c 20be 3b0d 2bbe 0e05 d1bd
00000220: 22c6 2ebf d0db 273e 89df f4be f2e6 b0be
00000230: e5a1 ca3e 44ff 67be 9e40 e23e dd30 26bf
00000240: 3eaf 10bf c068 d03e b01b 2bbf 4a0b 46bf
00000250: bce6 16be aa99 f8be 94bb ffbe e448 c9be
00000260: 8e26 b03d 121c c7be 1c50 1fbf a3de 14bf
00000270: 9a67 893e 6c75 a9be 87a7 b23d df80 47bd
00000280: 790f d0bd c2ce 9bbe 9f9e 14bc 9913 37bf
00000290: 59c7 23bf 7d6d 2cbf 7bd1 5dbf 4443 fe3c
000002a0: 4743 8d3e a9b2 6cbf a2dd df3e da53 78bd
000002b0: d172 13be a06c 293d bb76 83bf 11e4 02bf
000002c0: a579 bd3e 9e12 a1be f217 b73e 7de7 6d3e
000002d0: fcab 0a3d 0bd4 543e ceda 063d bb44 523f
000002e0: ef4b 643f 0941 b4be a676 103e 5a9c 0fbf
000002f0: bc20 963e a908 f4be 7aa4 953e 7b71 1d3e
00000300: 1086 81be 9930 063d ffa5 9dbc 7602 d03d
00000310: 5e7b 0b3e bf8c 293d 6b77 b6be f85b 22be
00000320: 21ec d3bd 5c03 6dbe 6e17 1abf 16cb 343f
00000330: 0816 9bbe 1177 913e c92e 9fbe 00a1 2f3b
00000340: 20e1 4fbd 807b 453e d2c9 30bf f46a 10bf
00000350: 50c8 6ebd 4d57 27be 78f1 a03d 5e6a d53d
00000360: 141d 8c3e 2710 ce3d e75b 1a3e f0ff 7a3e
00000370: 2893 bc3f 9ae5 c9bd 5094 c83e 55ff fdbe
00000380: 153b 76bd a1f3 ac3d 7551 31bf ef06 ebbe
00000390: 0a4a c3be 30aa 6cbd 5f86 6c3e db40 61be
000003a0: f311 76be 23a0 bbbe af67 cf3d 58e8 2a3f
000003b0: 683f 003e 1500 a6bd fb48 873f 377a fabe
000003c0: 3698 06be 1796 913e 5297 d33c f3ba 513e
000003d0: fa70 26bf 96cd 83bf f575 f3be fd94 bfbe
000003e0: 3863 b13e 19f8 4e3c 8bfa 7a3e ae62 1fbf
000003f0: e3cf 693e 8688 f6bd 78ed 23be 21f3 3bbe
-0.42734957 -0.10880967 -0.33142564 -0.44632763 -0.054979015 0.26913708 0.13586672 0.14698404
0.7698097 -0.2269187 -1.9165114 -0.19191569 -0.3415247 0.026928354 -0.28432086 -0.14923555
0.40237862 0.030086705 0.08075921 0.3164074 0.25374758 0.19941548 0.11541934 -0.82132345
0.68296313 -0.2642316 0.29442936 -0.38763237 -0.73318684 -0.35808662 0.39550138 -0.45657247
0.020818705 -0.015502646 0.39125142 0.53271824 -0.035437025 -0.39824587 -0.04435808 -0.61597097
-0.084487855 0.57032156 -0.043790504 -0.5305698 -0.44430488 0.29541028 -0.40509826 0.0978384
0.28580788 -0.4536523 -0.06298165 -0.114077516 0.43368313 -0.4837265 0.28469926 -0.40337017
-0.17364518 -0.32123026 -0.40339556 -0.11214049 -0.65541255 -0.9866851 -0.34583682 -0.4216666
0.08951466 -0.2798174 -0.6436436 -0.065608315 -0.32769656 -0.25035918 0.33189625 -0.01745774
0.011267158 -0.28626135 -0.82688105 0.28534588 -0.0057880767 0.2688129 0.3396865 0.6500527
-0.108271964 0.4853886 0.3362075 0.19759253 0.039960045 1.0447468 -0.103626505 0.3443278
-0.16068912 0.19708101 -0.0429685 0.39162827 -0.2542893 -0.029346585 0.24202578 -0.047636833
0.17982933 -0.5060921 -0.38841766 -0.14519261 -0.36581668 -0.5067609 -0.19364661 -0.3914246
0.15613538 0.41330123 0.57697797 -0.18463676 0.20977232 -0.32669064 -0.20880264 -0.56971955
-0.3103199 -0.2955212 -0.27572063 -0.040978447 0.6468044 0.28967872 0.43769723 0.02110428
0.20709059 -0.4490232 0.11486804 0.14303349 -0.45091492 0.122372225 0.34999007 -0.44288573
0.30954027 -0.210283 0.6908988 -0.13874075 0.28222924 -0.15684536 -0.16704266 -0.10206042
-0.68271077 0.16392446 -0.47826794 -0.34551197 0.3957664 -0.2265597 0.44189924 -0.6491831
-0.565174 0.40704918 -0.6683912 -0.77360976 -0.14736456 -0.48554736 -0.49947798 -0.39313424
0.08601104 -0.38888603 -0.6223161 -0.58152217 0.26836854 -0.33097398 0.087233596 -0.048706885
-0.10159201 -0.3043118 -0.009071021 -0.7151428 -0.63976055 -0.67354566 -0.86647767 0.031037934
0.2759039 -0.92460114 0.4372378 -0.060626842 -0.14399268 0.04136336 -1.0270609 -0.5112925
0.3700687 -0.31459516 0.35760456 0.23232837 0.033855423 0.20784013 0.032923512 0.82136124
0.89178365 -0.35205868 0.14107761 -0.5609795 0.2932185 -0.47662857 0.29227048 0.1537532
-0.25297594 0.03276119 -0.019244192 0.101567194 0.1362128 0.04139399 -0.35637984 -0.15855396
-0.103477724 -0.23145813 -0.60192 0.70622385 -0.30290246 0.28411153 -0.31090382 0.0026798844
-0.050751805 0.19285393 -0.69057953 -0.564132 -0.0582965 -0.16341896 0.078585565 0.104206786
0.27365935 0.100616746 0.1507412 0.24511695 1.4732409 -0.09858246 0.39175653 -0.49608865
-0.06011494 0.08444906 -0.6926492 -0.45903727 -0.38142425 -0.05777949 0.23098134 -0.21997397
-0.24030285 -0.36645612 0.10127198 0.6676078 0.12524188 -0.081054844 1.0569147 -0.48921368
-0.13144001 0.28434822 0.025828991 0.20481472 -0.6501614 -1.0297115 -0.47550932 -0.37418357
0.3464601 0.012632393 0.24509637 -0.6225995 0.22833209 -0.120377585 -0.16008556 -0.18354465

weight f4 [64]
00000000: f068 813d 8c9d 51bd af17 743d c5b6 513d
00000010: d4ff 4b3d bb73 343d 03d5 593d 899c 03bd
00000020: 3e07 593d 73ce 813d 1247 373d 7ccc 893d
00000030: 926c 653d d740 7d3d 6dcd 843d 9ddf 7f3d
00000040: 0272 383d 9080 653d dc9c 6a3d 96a9 3c3d
00000050: bfdb 693d 67cd 723d 95e5 9dbd ece8 5f3d
00000060: 91af 723d 749d 873d b1ae 483d d7d2 3abd
00000070: fb3a 393d 5260 0abd 2f5a 8b3d 8581 913d
00000080: 2d51 8f3d 652f 4ebd 0783 443d acfe 5c3d
00000090: 47cf 603d 40bb 7b3d de64 873d ea0d 463d
000000a0: cde5 363d 3bea 4e3d 9062 a63d 7dbd 823d
000000b0: 0f69 8a3d 94ca 753d ac3b b73c a7a3 9a3d
000000c0: 0a0c 833d e88f 843d f9d7 d83d fd3b 873d
000000d0: d687 3c3d 3fdb 7c3d cb13 283d 15dd 813d
000000e0: f0dd 9d3d eb30 683d 1d07 6c3d a036 5f3d
000000f0: 1596 913d 6e01 613d 73c2 6d3d df0b 5f3d
0.06318843 -0.05117564 0.0595929 0.051199693 0.049804524 0.04405568 0.05318166 -0.032131705
0.052985422 0.06338205 0.044745512 0.067284554 0.056011744 0.061829414 0.06484494 0.062469114
0.0450306 0.05603081 0.0572785 0.046060167 0.05709433 0.05927792 -0.07709805 0.05466549
0.059249464 0.06621829 0.048994724 -0.04561123 0.045222264 -0.033783264 0.068043105 0.07104782
0.06997905 -0.050338168 0.04797652 0.05395381 0.054885175 0.061457872 0.06611036 0.048353113
0.04465275 0.05051635 0.08124268 0.06383798 0.067583196 0.060007647 0.022367321 0.075507455
0.06398781 0.064727604 0.105880685 0.06603239 0.04602798 0.061732527 0.0410345 0.06340996
0.07708347 0.056687277 0.05762397 0.054495454 0.07108704 0.054933004 0.05804677 0.05445468

bias f4 [64]
00000000: da9b 93bd c314 61bd 392b 19bd cba2 14bd
00000010: 47f5 03bd 5388 7fbc 4a6c c9bd 5115 cdbd
00000020: 35cf bfbc 0f6d b0bc 6207 07bd 7cf0 9fbd
00000030: 5e3b 52bd 66de c5bc b687 3bbd c563 60bd
00000040: 8f50 0cbd 6f07 55bd bc04 cdbc d105 b5bc
00000050: 1e2d 00bd e529 2cbc 0f85 ccbd b528 9bbc
00000060: 83ff b9bc 2ebd e3bc 4763 8dbc 5dfd 643b
00000070: a6d7 d7bc b7e9 1abb 24c0 f23b 2837 8cbc
00000080: 5893 afbd 6c31 cabc f4a7 15bd 0661 38bd
00000090: 155e 69bc 13e2 6ebd c343 a4bd 9068 10bd
000000a0: f543 a1bc 76eb c8bc c35c cabc 5b2d 30bd
000000b0: 408e d1bd 3b75 16bd fa8e 91bd 4aef 01be
000000c0: cc13 9abd be89 eb3b 7d69 fabd b6fb d23b
000000d0: aa76 14bd ab94 0fbd c534 3ebc 10c2 03bd
000000e0: ec02 3cbc fffa 4abd 305f a93a f629 1bbd
000000f0: a7ab 89bd d707 dfbd 4965 d3bb 2aae 04bd
-0.07207461 -0.05495144 -0.037394736 -0.036288064 -0.032216337 -0.015596467 -0.098351076 -0.100138314
-0.023414234 -0.021536378 -0.032966025 -0.07809541 -0.05132615 -0.0241539 -0.04578372 -0.054782648
-0.034256514 -0.052009042 -0.025026672 -0.0220975 -0.031293027 -0.010508035 -0.099863164 -0.018940309
-0.022704845 -0.027800169 -0.017259253 0.0034941055 -0.026347946 -0.002363784 0.007408159 -0.017116144
-0.085730255 -0.02468177 -0.036537126 -0.045014404 -0.014243622 -0.05832107 -0.08020737 -0.03525597
-0.019685725 -0.024526339 -0.024702435 -0.043012004 -0.1023221 -0.036732893 -0.07107349 -0.12688938
-0.07523307 0.007188051 -0.122271515 0.0064386977 -0.03624598 -0.03505389 -0.011609261 -0.032167494
-0.011475306 -0.049555775 0.0012922045 -0.037881814 -0.06722193 -0.10890167 -0.006451283 -0.03239266

running_mean f4 [64]
00000000: c22e 4bc0 8b0d 24c0 4cb0 c83f 48d8 64c0
00000010: 1fa9 cdbf 50f7 eabf 9566 8bbf 86ba ab40
00000020: 89f1 88c0 f51e 60bf 1250 f3bf 89d3 c2bf
00000030: 9b69 1ec0 950e 9dbf c5d7 c8bf cb2b 36c0
00000040: b50f fbbf 7769 07c0 0fdf 9dbf b403 86c0
00000050: 5b16 edbf 53f4 72bf 2ea7 ca3f cf5d 07c0
00000060: 0a9b 1dc0 050d 10c0 a37a 2ac0 d4f9 4fbf
00000070: 0473 9abd 024b 7b3e 2d1f 43c0 d8f3 fbbf
00000080: 9cbc 0fc0 41ba 3440 d0d8 abbf 4b2c babe
00000090: 91ec 4cc0 7b69 b33d 8269 0ebf a3b9 83bf
000000a0: abb6 4740 a46c 1dbf 0499 1ec0 a2df 223f
000000b0: d9c2 aebf a0e1 c5bf e4b5 fcc0 4cef 55c0
000000c0: 1d7c 483f 26be 2c3e 6647 77c0 763c 773f
000000d0: 178b b7bf 01f3 f7be c298 a7bf 5645 b2bf
000000e0: 9cc8 16c0 af81 dabe 5a8c ef3e 1e55 28c0
000000f0: b643 b3bf b580 d6c0 180b 6740 0759 58c0
-3.1747289 -2.5633266 1.5678802 -3.5757008 -1.6067237 -1.8356724 -1.089068 5.366519
-4.2794843 -0.87547237 -1.900881 -1.5220805 -2.4751956 -1.2270075 -1.5690848 -2.846423
-1.9614168 -2.115812 -1.2333697 -4.187952 -1.8522447 -0.9490406 1.5832269 -2.1151006
-2.4625878 -2.2507946 -2.6637352 -0.8124058 -0.07541469 0.24540332 -3.0487778 -1.968379
-2.2458868 2.823868 -1.3425541 -0.36361918 -3.2019389 0.08760353 -0.5562974 -1.0291027
3.1205242 -0.614939 -2.4780893 0.63622487 -1.3653213 -1.545948 -7.8972034 -3.3427305
0.7831438 0.16869411 -3.8637328 0.9657663 -1.4339322 -0.48427585 -1.3093493 -1.392741
-2.3559942 -0.42677066 0.46786767 -2.6301951 -1.4005039 -6.7032113 3.610052 -3.3804338

running_var f4 [64]
00000000: 1e1f ea40 3d8f 0441 968b de40 8f28 2141
00000010: 8093 d740 7ee3 2541 23e4 0a41 59e1 6c41
00000020: 98f7 3b41 1021 8441 2083 cf40 8057 ba40
00000030: 04c3 0b41 53fc 6541 5607 6041 04fc cb40
00000040: 73ec ba40 fb7d ab40 e946 2341 7105 0341
00000050: b72f 3941 9828 2b41 39c5 af40 fd7f 3441
00000060: b44d 4741 b42d 6e41 b0d3 2f41 f048 2441
00000070: 797f a240 5797 2241 b93a 7341 3aa1 9841
00000080: b518 0641 59cd 2b41 155b 0e41 0521 d440
00000090: 06f2 8241 a96c dd40 f138 c740 2444 a140
000000a0: 2dd3 fd40 b950 2e41 3e5f 7a41 1b8e 0141
000000b0: 8361 db40 aa93 5c41 9326 8841 ce15 0d41
000000c0: 1b4c b440 4259 6541 3f0d c340 4dea 8041
000000d0: 92fd e240 225f 4c41 0e12 d140 a226 1b41
000000e0: 7023 5041 e267 0941 0378 5341 89c6 0e41
000000f0: dc26 ee40 554f 3e41 53ad 2741 f74b 1f41
7.3162985 8.28497 6.9545393 10.072402 6.7367554 10.36804 8.680697 14.8050165
11.747948 16.516144 6.4847565 5.823181 8.735111 14.374103 14.001791 6.3745136
5.8413634 5.3591285 10.204812 8.188828 11.574149 10.697411 5.492825 11.281247
12.4564705 14.886158 10.9891815 10.267807 5.0780606 10.161948 15.201837 19.078724
8.381032 10.737634 8.897237 6.6290307 16.368176 6.919514 6.225701 5.039568
7.9320283 10.894708 15.6482525 8.097194 6.8556533 13.786051 17.018835 8.817823
5.63429 14.334291 6.095367 16.114405 7.0934534 12.773226 6.533454 9.696932
13.008652 8.587862 13.2168 8.9234705 7.4422436 11.894368 10.4798155 9.956046

weight f4 [1, 64, 3, 3]
00000000: ed60 113b f31b 16be 797f 943d b7ab 2abe
00000010: d8b5 cf3e c8f3 1cbe 8e2c 063e e9a1 86be
00000020: f284 d9bc 3319 32bd f187 413e 7cf9 fcbc
00000030: da03 d63d 721f 8fbe 38d4 afbd 27ab 8a3d
00000040: 3c6d 38bc 5f23 c53d 4247 f4bd 31d6 33bd
00000050: 367b 8fbc 9d49 f9bd 194e 273c faf6 58bc
00000060: 0ad2 02bd 999f 80bc 8114 0b3d 1f01 6fbc
00000070: 7aa6 5fbd 58cb 3dbe 9a92 cdbc bf44 8d3e
00000080: 70eb 80bd 8d6e c0bc a0d7 56bd ab1e f13d
00000090: 2abe 9c3b 0203 55be 8a56 db3d b4db 6cbd
000000a0: b47f d13d fdfe 283e fab1 f9bb 1c92 113d
000000b0: 6fc8 e9bd a082 44bd 686c eb3d 4070 043e
000000c0: 77be 873d 900e c0be 63bb 57be 0459 b73d
000000d0: 64c1 23bd ac87 593e 843f 5c3c dcd4 1fbd
000000e0: 5001 3f3e 0c71 af3d 4422 5bbe f964 763d
000000f0: 55ac 273e 95a8 dbbd f060 0bbb ac4a 253e
00000100: b573 193e d4e4 b7bc 3f82 333e be60 02be
00000110: 0ea2 a73c bb56 013d 09cc 7ebd aec7 253e
00000120: 7283 47be ca0e 0c3e 0a52 b6bd d126 243d
00000130: 5d8a a33e da2a 34bd ee51 7fbd c9c9 9cbd
00000140: 665e 52bd c414 7c3d 633e bd3e 12ce 7ebc
00000150: 3e81 aebd 7d0b 79bd f137 ffbc 9e2d dabc
00000160: 481d a7be fb14 d43d 6576 dcbc ccc1 213e
00000170: 4dda d2bd e52f f9bd 76d7 2b3e 0b1e 763d
00000180: 3a6f 16bd e433 39be ee03 013d 5327 1ebc
00000190: 5176 1d3e f075 babd 806f c13d b3a9 a33d
000001a0: f13b 29bd 441c 29bd 4796 b4be ac0a 3f3e
000001b0: 28d9 16be 2be5 88bd 569d 1abe c737 24bd
000001c0: ccde e33d 9900 263e d075 a53d 266c 26bd
000001d0: 9f3e aa3d 7742 1fbe 005c 613e 74ee 393d
000001e0: bfda 193e 793f afbe a5ef 6dbd b88a 383e
000001f0: 86a0 2dbe d91e 0b3e 6f25 82bd 7995 af3d
00000200: 0ab0 6f3d 95cb acbe 06ea babd 6776 503e
00000210: 6fa1 96bb e2c4 cd3d cb79 7c3d dfec 6e3c
00000220: f0f7 333e dbb2 32bd 18f2 3dbe ac0a 7cbd
00000230: 30a5 91bc 918f f83c 2ede 1b3e 1acb d2bd
00000240: 488c c7bd 767d 16be 6228 953d 47e7 fa3d
00000250: 8864 443e b95d e83c cff1 89bc 157e f6bd
00000260: 08ca 6abd b823 223e b522 69be 7535 9c3d
00000270: 8c53 07be 1913 8a3e 29e5 91be d55f 6dbd
00000280: 50f0 123c dd84 8b3d 0fcc 2cbd 08d6 cb3d
00000290: 051e 833d 0a42 fbbd 407e dfbd 084e 433e
000002a0: 8474 df3d 4392 5ebe d089 ea3a 02af aebc
000002b0: b746 853c ff03 73bd 54d9 99bd b225 413e
000002c0: 75f2 a33d 90d4 46bd 92c6 8d3d 6dc1 30bd
000002d0: f381 2a3e 9af2 933d 85cd 0fbe d8cd 943e
000002e0: 919c 8dbe e043 f8bc 0a7a 09bd 3401 69bc
000002f0: a492 41bd 4252 9d3d 4a26 b0bc 9c87 10be
00000300: 6a68 06be 5098 cc3e cf55 35be b1f9 89bc
00000310: 01c2 32be 15a8 303e f274 813c 8b0e c839
00000320: e077 363c 2c5a c1bb fc08 993c b62d 08bd
00000330: 31a3 293d ba58 cabe 40df 023d 1f26 0dbd
00000340: 2ed1 9dbd ec3d 393b 5ab9 5f3e 7eb4 11be
00000350: 360f 19be 093f ea3c ac94 613e 131e a8bd
00000360: 17cf b43d 9f49 06be 97e7 9e3d 6b8a b2bd
00000370: f0c3 ad3e ec79 7dbe 0d0a bebd c166 733e
00000380: 986c 3bbe 90c8 203d 1890 c0bd e263 433d
00000390: 0b97 933e a844 e7be 3bb9 193e ed3a bd3d
000003a0: 70cb dabd 174f 8d3c 916f 5b3e 9aca 383e
000003b0: 0d19 e33b 434a e63c ad65 31be ceea f63c
000003c0: 0a70 03be c268 36be 8b32 ddbc e1af 96bd
000003d0: fe7f 8a3e 5b7a b4bd 06ea cbbd 8130 a93d
000003e0: 932b f1bd 9e26 88bd 9b35 cb3d 9c9a b5bc
000003f0: 2c9e ffbd 4485 3abd f05a 75bd b07a 273e
0.0022183016 -0.146591 0.07250876 -0.16667067 0.40568423 -0.1532737 0.13102934 -0.26295403
-0.026552651 -0.043481063 0.18899514 -0.030880682 0.104499534 -0.27953678 -0.085853994 0.06770926
-0.011256512 0.09625887 -0.11927654 -0.04390544 -0.017514806 -0.12172244 0.010211491 -0.013242478
-0.03193859 -0.015701102 0.0339551 -0.01458767 -0.054602124 -0.185346 -0.02509432 0.27591512
-0.06294906 -0.023490215 -0.05245173 0.117734276 0.0047834115 -0.20801929 0.107098654 -0.057826713
0.102294356 0.1650352 -0.0076200934 0.03553973 -0.11415183 -0.047976136 0.11495286 0.12933445
0.06628125 -0.3751111 -0.21067576 0.08952525 -0.039979354 0.21243161 0.013442878 -0.039021358
0.18652844 0.08566484 -0.2139979 0.06015489 0.16374333 -0.10725514 -0.0021267496 0.16141766
0.14985545 -0.022447981 0.17530154 -0.12732217 0.020463016 0.031576853 -0.0622063 0.16189453
-0.19483736 0.13677517 -0.089023665 0.04007608 0.319415 -0.04398618 -0.062333994 -0.07655675
-0.051359557 0.06154324 0.3696166 -0.015552061 -0.08520745 -0.06080197 -0.031154605 -0.02663308
-0.32639527 0.10355564 -0.026911924 0.15796584 -0.10295544 -0.12167338 0.1678141 0.060087245
-0.036727168 -0.18086201 0.03149789 -0.00965293 0.15377165 -0.09104526 0.09445095 0.07991352
-0.04131693 -0.04128672 -0.35270903 0.18656415 -0.14731276 -0.06684335 -0.15099081 -0.040092256
0.111264795 0.16211165 0.080791116 -0.040630482 0.08312725 -0.15552698 0.22007751 0.045393422
0.15024851 -0.34228113 -0.05808987 0.18021667 -0.16955766 0.13585986 -0.06354796 0.085734315
0.058517493 -0.3374907 -0.09126668 0.20357667 -0.004596881 0.10047318 0.06163959 0.014582842
0.1757505 -0.0436276 -0.18549383 -0.061533615 -0.017778963 0.030341895 0.15221474 -0.10292645
-0.097435534 -0.14696297 0.07283093 0.12251144 0.19178975 0.028365003 -0.016838936 -0.12035767
-0.05732158 0.15833938 -0.22767146 0.076273836 -0.13215464 0.26967695 -0.28495148 -0.05795272
0.008968428 0.06812451 -0.042186793 0.099529326 0.0640221 -0.12268455 -0.10912752 0.19072735
0.109108955 -0.21735482 0.0017893855 -0.021323685 0.016269071 -0.059329983 -0.07512155 0.18862036
0.080052294 -0.04854256 0.0692264 -0.043153215 0.16651134 0.07224007 -0.14043243 0.29063296
-0.27658513 -0.030305803 -0.03356365 -0.014221478 -0.047258988 0.07681705 -0.021502633 -0.14114231
-0.13125768 0.39959955 -0.17708515 -0.016842695 -0.17456819 0.17251618 0.015802834 0.00038157808
0.011136979 -0.005900642 0.018681042 -0.03324672 0.041415397 -0.39520818 0.03195119 -0.034460183
-0.077059135 0.0028265668 0.2184805 -0.14229009 -0.14947209 0.02859451 0.2202937 -0.08208861
0.08828562 -0.13114022 0.07759016 -0.087178074 0.3393855 -0.24753541 -0.09279261 0.23769666
-0.18303144 0.03925377 -0.09402484 0.047702678 0.28826174 -0.45169568 0.15012066 0.09239755
-0.10683334 0.017249627 0.21429278 0.18046036 0.0069304765 0.028111583 -0.17323942 0.03014126
-0.12835708 -0.178134 -0.02700164 -0.07357765 0.27050775 -0.088124 -0.09956746 0.082612045
-0.11775889 -0.06647991 0.09922334 -0.02216845 -0.12481341 -0.04553725 -0.059901178 0.16355395
