models/testing_differentconvmixer/testing_differentconvmixer_286_up.pt (torch_old, 446836 bytes, 29 tensors)

weight f4 [16, 2, 3, 3]
0	0x3ddd2653	0.107983254
1	0x3f28a11f	0.6587085
2	0xbe931af4	-0.287315
3	0x3f950bca	1.1644223
4	0x3fb0c6e2	1.3810694
5	0x3f37bd7d	0.7177351
6	0xbf884c16	-1.064822
7	0xbfa7f204	-1.3120732
8	0xbfa66aa1	-1.300129
9	0xbe1d3cbe	-0.15355203
10	0xbedf108b	-0.4356731
11	0x3e196429	0.14979614
12	0xbeb7bee3	-0.35887823
13	0xbebf0520	-0.37308598
14	0x3b8fea0c	0.0043919142
15	0x3ea28f79	0.31750086
16	0x3e5d1f6b	0.21594016
17	0x3f2ac9cc	0.6671417
18	0xbf7dbcb2	-0.9911605
19	0x3faf9561	1.3717462
20	0x3f3526df	0.7076244
21	0xbf675ff4	-0.9038079
22	0xbf7faead	-0.9987591
23	0x3e488ab1	0.19584157
24	0xbe052b4c	-0.13004798
25	0x3f0bba0f	0.5458078
26	0x3f1c4168	0.610373
27	0x3dc42c42	0.09578754
28	0x3f1936f8	0.598495
29	0x3e4cbb35	0.19993289
30	0x3e0535c1	0.13008787
31	0xbf0349e0	-0.512846
32	0xbea63a1a	-0.32466203
33	0xbd45ad26	-0.04826083
34	0x3e02213b	0.12707989
35	0xbeeea59a	-0.4661072
36	0xbf8e93d0	-1.1138859
37	0xbf59e61b	-0.8511674
38	0xbf6e582c	-0.9310329
39	0x3f497010	0.7868662
40	0x3f122a0c	0.5709541
41	0x3fe55595	1.7916743
42	0x3e855b1b	0.2604607
43	0x3b461bc7	0.003022896
44	0xbdcb1bac	-0.09917387
45	0x3f0fd9a5	0.56191474
46	0x3e8b4020	0.2719736
47	0xbdad8e72	-0.08474435
48	0x3e39f1e6	0.18158683
49	0x3ea9a15c	0.3313092
50	0x3ed221c2	0.4104138
51	0xbf29a7c8	-0.6627164
52	0xbf03779b	-0.5135438
53	0xbf54639e	-0.82964504
54	0x3f216321	0.63041884
55	0xbdcd5a92	-0.100270405
56	0x3f377561	0.7166348
57	0x3eef2ccd	0.46713868
58	0x3f34d49c	0.70636916
59	0xbf46686b	-0.7750308
60	0xbf68730b	-0.9080054
61	0xbc9df30d	-0.019280935
62	0xbe620b6a	-0.22074667
63	0x3ef64154	0.48096716
64	0xbe44b59e	-0.19209906
65	0x3f064417	0.52447647
66	0x3ecf2209	0.40455654
67	0x3dd9edd9	0.10641069
68	0xbe681989	-0.22665991
69	0xbf40c347	-0.7529797
70	0xbf0c42ce	-0.54789436
71	0xbe3821c1	-0.17981626
72	0x3f769f76	0.9633707
73	0x3f72b0f6	0.9480127
74	0x3e936aa6	0.28792304
75	0xbf284679	-0.6573253
76	0x3e86f651	0.263598
77	0xbfa13349	-1.2593776
78	0x3c96cf3c	0.018409364
79	0x3f2c7786	0.6736988
80	0xbf921741	-1.1413347
81	0xbcf703ce	-0.030153181
82	0xbf080226	-0.5312828
83	0x3e5dc632	0.21657637
84	0xbeb28fa9	-0.3487523
85	0x3ec13581	0.37736133
86	0x3ee7bd0c	0.4526142
87	0xbedeef79	-0.43542078
88	0x3da068e6	0.07832508
89	0xbdadc67b	-0.08485123
90	0x3e8ea5e8	0.2786095
91	0xbf31ecb5	-0.6950181
92	0x3f9e890e	1.2385576
93	0x3d8fb954	0.070177704
94	0xbf19509f	-0.59888643
95	0x3fd0f5bf	1.6324996
96	0xbda6ba5f	-0.08141016
97	0xbf8c43b3	-1.095816
98	0x3fa8fa25	1.3201338
99	0x3d0104af	0.031498607
100	0xbe66366b	-0.22481696
101	0x3e005cf8	0.12535465
102	0xbe509bab	-0.20371883
103	0xbe7ca58d	-0.24672528
104	0x3d80a122	0.06280734
105	0x3e2257f9	0.15853871
106	0xbe460391	-0.19337298
107	0xbd85e0e8	-0.06537038
108	0xbc99d302	-0.018777374
109	0xbf214303	-0.62992877
110	0x3e78c7f9	0.24295034
111	0xbf443347	-0.76640743
112	0x3f47cd97	0.7804808
113	0xbd3138e7	-0.043267157
114	0xbedbe3bc	-0.42947185
115	0x3f38258a	0.7193228
116	0xbdf4d443	-0.11954548
117	0xbed39dd6	-0.41331357
118	0xbe074075	-0.13208182
119	0xbd161486	-0.036640666
120	0xbf53dba6	-0.8275703
121	0x3ea95440	0.3307209
122	0x3e31533d	0.17316909
123	0xbd72f0ed	-0.059311796
124	0x3f07f6f7	0.53111213
125	0x3ea597a0	0.32342243
126	0x3e3fce42	0.18731025
127	0x3e9c6bdb	0.30551037
128	0xbee4c22f	-0.446794
129	0xbf4199be	-0.75625217
130	0xbf324b4d	-0.6964615
131	0xbf59d79b	-0.8509461
132	0x3f0ac03a	0.54199564
133	0x3f7e5662	0.9935056
134	0x3f66ab74	0.90105367
135	0xbe951541	-0.29117778
136	0x3f5efe4a	0.87106764
137	0xbf90875a	-1.1291306
138	0xbdf7726f	-0.12082373
139	0x3e9bb625	0.30412403
140	0xbf1b726b	-0.6072146
141	0x3cab770c	0.02093079
142	0x3f08e8df	0.53480333
143	0xbe1a6482	-0.15077403
144	0x3d141849	0.036155973
145	0x3f2d464a	0.6768538
146	0xbf86dadd	-1.0535542
147	0xbe94e9b9	-0.29084566
148	0x3e7ef466	0.24897918
149	0xbf9e5f5f	-1.2372855
150	0x3ed0ff51	0.4081979
151	0x3f9d3f4f	1.2284945
152	0xbe87c36d	-0.26516286
153	0x3e419796	0.18905482
154	0xbed73595	-0.42033067
155	0x3f834b73	1.02574
156	0x3cffef7d	0.031242127
157	0xbf1ca95f	-0.6119594
158	0x3f628bce	0.88494575
159	0xbea0a80b	-0.31378207
160	0xbf8ec21b	-1.1152986
161	0x3f0e989d	0.5570162
162	0xbe0d549b	-0.13801806
163	0xbf0f8d0b	-0.5607459
164	0x3f0d7b80	0.5526657
165	0x3f411337	0.75419945
166	0xbf0d0ccf	-0.5509767
167	0x3f0452f1	0.5168906
168	0xbe8f78b4	-0.28021777
169	0xbf0a5973	-0.5404274
170	0xbda6e0e2	-0.08148362
171	0x3eed0fe2	0.4630118
172	0xbf42180e	-0.75817955
173	0x3e145151	0.14484145
174	0x3eb604cc	0.35550535
175	0xbf97c6e8	-1.1857576
176	0xbda6540e	-0.08121501
177	0x3f2b167f	0.668312
178	0xbeb16dc2	-0.3465405
179	0x3ec92191	0.39283422
180	0xbf7cca1f	-0.9874591
181	0x3f60d78b	0.8782889
182	0x3e3722bd	0.17884345
183	0xbf12650a	-0.57185423
184	0x3fb0c366	1.3809631
185	0xbe39045a	-0.18068066
186	0xbee2b48c	-0.4427837
187	0x3f044146	0.516621
188	0xbee91a0e	-0.4552769
189	0x3ed77cba	0.42087346
190	0x3ca54f52	0.020179424
191	0xbec52ff2	-0.38513142
192	0xbe711300	-0.23542404
193	0x3f02d714	0.51109433
194	0xbebc4dc9	-0.36778095
195	0x3ca46ea0	0.020072281
196	0x3ec85ada	0.39131814
197	0xbf3bdf13	-0.7338726
198	0x3e97bb6c	0.2963518
199	0xbf2bbd85	-0.6708606
200	0x3f425623	0.75912684
201	0xbebb997c	-0.36640537
202	0xbf7a5a6b	-0.97794217
203	0x3ed84d23	0.4224635
204	0x3dd46448	0.1037069
205	0xbf309445	-0.6897624
206	0x3f80627e	1.0030057
207	0x3e0e4dde	0.13896891
208	0x3f56e597	0.83944076
209	0xbeee3e15	-0.4653174
210	0x3d8cedc2	0.06881286
211	0x3f6b3953	0.91884345
212	0xbf1dcd37	-0.6164126
213	0xbdd04200	-0.101688385
214	0x3ecc5481	0.3990822
215	0xbf6290ae	-0.88502014
216	0xbe72eb1d	-0.23722501
217	0xbec2a9f4	-0.3802029
218	0xbdd4b34c	-0.10385761
219	0xbe3b44ef	-0.18288015
220	0xbaa0634e	-0.0012236626
221	0xbe55e8ae	-0.20889542
222	0xbd1a924c	-0.037737176
223	0xbeecf43a	-0.4628008
224	0xbf035192	-0.5129634
225	0x3e001c0f	0.12510704
226	0xbe33b998	-0.17551267
227	0x3edf8561	0.43656448
228	0xbea693a6	-0.32534522
229	0xbce42e54	-0.027854122
230	0x3db2a9c8	0.087237895
231	0xbe20ba33	-0.1569603
232	0xbe803058	-0.25036883
233	0xbd9d2c1f	-0.07674431
234	0x3ef005a4	0.46879303
235	0x3fb0ab67	1.3802308
236	0xbeb79a4a	-0.358599
237	0xbe6ec5dc	-0.23317665
238	0x3f098d6c	0.5373142
239	0xbef1129f	-0.4708452
240	0x3f2367ec	0.6383045
241	0x3f4d9f16	0.8032087
242	0x3ddf60f7	0.109071665
243	0xbe82466a	-0.25444347
244	0x3d289d79	0.041165803
245	0x3e8bc3bc	0.2729777
246	0xbec2a386	-0.38015383
247	0xbea7daed	-0.32784215
248	0x3eec6393	0.4616972
249	0xbe9379b0	-0.28803778
250	0xbe737baf	-0.2377765
251	0x3eb11c66	0.3459198
252	0x3f5b15cd	0.8558014
253	0x3eb308c8	0.34967637
254	0x3e635935	0.22201999
255	0xbf49c193	-0.78810996

weight f4 [32, 16, 3, 3]
0	0x3e801928	0.25019193
1	0xbf1f92bd	-0.6233328
2	0xbea48f00	-0.3214035
3	0xbddf0f14	-0.10891548
4	0xbfd8900d	-1.6918961
5	0xbfc05a86	-1.5027626
6	0x3f192c86	0.5983356
7	0x3f663da6	0.8993782
8	0x3e4e95b9	0.20174302
9	0xbe4e62a9	-0.20154823
10	0xbc17b292	-0.009258883
11	0x3ee49725	0.44646564
12	0x3f1dcb0a	0.6163794
13	0xbf419d68	-0.7563081
14	0x3dfe2647	0.124096446
15	0x3e0a1ee7	0.13488351
16	0x3f357d97	0.7089476
17	0xbf4468dc	-0.767225
18	0xbf2b14af	-0.66828436
19	0xbedafb40	-0.42769814
20	0xbf66c29a	-0.9014069
21	0x3f6d8b9c	0.9279115
22	0xbba0e763	-0.004910396
23	0xbea2f2ef	-0.3182597
24	0x3aace2e3	0.0013190176
25	0xbe8a8552	-0.2705484
26	0x3da3a10c	0.07989702
27	0x3dca4e78	0.09878248
28	0x3ea6dd7b	0.3259085
29	0xbe32a154	-0.17444354
30	0x3d4eb684	0.05046703
31	0x3ebf3057	0.37341568
32	0xbf38190a	-0.71913207
33	0xbed962f8	-0.4245832
34	0xbd94463c	-0.07239959
35	0xbe63503e	-0.22198579
36	0xbdf87d94	-0.12133327
37	0xbeb9cd2c	-0.36289346
38	0xbe32f293	-0.17475347
39	0x3e76c897	0.24099956
40	0x3f901c78	1.1258688
41	0xbe8ace4f	-0.27110526
42	0x3e23173e	0.15926835
43	0xbf60b4ed	-0.8777607
44	0x3dabce38	0.083889425
45	0xbe4598d8	-0.19296587
46	0xbf1f3468	-0.6218934
47	0xbf3e7f49	-0.7441297
48	0xbecc9d1b	-0.39963612
49	0xbe2fa9db	-0.17154638
50	0xbfc70086	-1.5547035
51	0xbe38307f	-0.1798725
52	0x3ef09b1f	0.46993348
53	0x3d513532	0.05107612
54	0xbd0caea0	-0.034346223
55	0x3ea2f346	0.31826228
56	0x3cb08aed	0.02155062
57	0xbe858154	-0.26075232
58	0x3e5ad2bf	0.21369456
59	0x3f195d7d	0.59908277
60	0xbc621653	-0.013799268
61	0xbeb3f0c7	-0.35144636
62	0x3efea5d1	0.49735883
63	0xbf4340b9	-0.76270634
64	0xbe9aab5a	-0.30208856
65	0x3cac96e8	0.021068051
66	0xbeedeb53	-0.464686
67	0x3e87c7e8	0.26519704
68	0x3f8d30b7	1.1030492
69	0x3e381600	0.17977142
70	0x3f667ff6	0.90039
71	0x3dda720b	0.10666283
72	0x3f7de2e2	0.9917432
73	0xbec7b3fd	-0.39004508
74	0xbf06ebae	-0.5270337
75	0x3ed2761a	0.4110573
76	0xbf2345a5	-0.63778144
77	0xbfeff183	-1.8745579
78	0x3e8cb3a4	0.27480805
79	0xbf755f69	-0.9584871
80	0xbe50701c	-0.20355266
81	0xbfb5a16b	-1.4189886
82	0x3ea0e6dc	0.31426132
83	0xbf6f1808	-0.93396044
84	0x3f013bd2	0.50481904
85	0xbec345b5	-0.3813912
86	0xbecbeee5	-0.398307
87	0xbe004a28	-0.12528288
88	0x3ebfe353	0.37478122
89	0xbc580d1a	-0.013186717
90	0x3d7e41e5	0.06207456
91	0x3e89a352	0.26882416
92	0xbe1d0bf4	-0.15336591
93	0xbe56cca3	-0.209765
94	0x3f3840ce	0.71973884
95	0xbf0f9d55	-0.56099445
96	0xbf0ae1a2	-0.5425054
97	0x3eb732c0	0.35780907
98	0xbe392e4a	-0.18084064
99	0xbf344a83	-0.70426196
100	0xbd979c74	-0.07402888
101	0x3f83583d	1.0261303
102	0xbe4fab85	-0.20280273
103	0x3f326211	0.6968089
104	0xbe62efa5	-0.2216173
105	0x3ed47bc7	0.41500685
106	0x3f2b8af2	0.6700889
107	0xbd4e1b1d	-0.050318826
108	0x3ec328a4	0.38116944
109	0x3e31fe78	0.17382228
110	0x3f5901bd	0.8476828
111	0x3f2a3e67	0.6650147
112	0xbe8165d2	-0.25272995
113	0x3f4ffe46	0.81247365
114	0xbabfe112	-0.001463922
115	0xbf3b9b40	-0.7328377
116	0xbe905063	-0.2818633
117	0xbd14673a	-0.036231257
118	0x3e54f24c	0.20795554
119	0xbed6139d	-0.4181184
120	0xbe449b82	-0.19199947
121	0x3f54bc36	0.8309969
122	0xbe7b7f99	-0.24560393
123	0x3edc781d	0.4306039
124	0x3b0b2ab6	0.0021235174
125	0xbd0ced87	-0.03440621
126	0xbf3f700f	-0.7478036
127	0xbea0fd13	-0.3144308
128	0xbf19d7f1	-0.60095125
129	0x3f59dc1c	0.85101485
130	0x3e40165e	0.18758532
131	0x3ed3a5d0	0.41337442
132	0xbed816b2	-0.42204815
133	0xbf0dc440	-0.5537758
134	0x37f58823	2.926967e-05
135	0x3e747c38	0.2387551
136	0x3f11ccfa	0.56953394
137	0x3f2367ae	0.6383008
138	0xbd909cfe	-0.07061194
139	0xbe3ac4d5	-0.18239148
140	0x3d59acd3	0.053143334
141	0xbeb4337f	-0.35195538
142	0xbd320323	-0.043460023
143	0x3f07e6c4	0.53086495
144	0x3cfdba53	0.030972635
145	0xbf49f14e	-0.78883827
146	0xbd2c4f8b	-0.042068046
147	0x3f06cd07	0.52656597
148	0x3f5df8e2	0.8670789
149	0xbce2d7ba	-0.027690757
150	0xbf285fc1	-0.6577111
151	0xbe3c5995	-0.18393548
152	0x3ea8d57d	0.3297538
153	0x3f4db404	0.8035281
154	0xbf5e38a3	-0.8680517
155	0xbf05d908	-0.5228429
156	0x3f18c91a	0.59681857
157	0xbf46ac18	-0.77606344
158	0x3f67b53a	0.90510905
159	0xbf59024d	-0.84769136
160	0xbf2f36ba	-0.6844288
161	0xbf21bdad	-0.6318005
162	0x3caa584b	0.020794054
163	0xbd4b092c	-0.049569294
164	0xbdff3c9c	-0.12462732
165	0xbd577cb1	-0.05260915
166	0x3e8f86e8	0.28032613
167	0xbfebfe9d	-1.8437077
168	0x3f4f7ba6	0.8104805
169	0x3eea95a5	0.45817295
170	0x3db42eec	0.08798012
171	0x3e6d3f14	0.23168594
172	0x3e16f0e4	0.1474033
173	0xbeaa435b	-0.33254513
174	0xbf255cc2	-0.6459466
175	0xbe964cd4	-0.2935549
176	0xbee01c17	-0.4377143
177	0x3f4563f7	0.7710566
178	0xbe331bec	-0.1749112
179	0xbec4ad22	-0.3841334
180	0x3f251efb	0.645004
181	0x3ead34c7	0.33829328
182	0xbefc5723	-0.4928523
183	0xbf47f792	-0.7811214
184	0xbf19a4c0	-0.60017014
185	0xbf258cbe	-0.6466788
186	0x3ed7fbc6	0.42184275
187	0xbf344422	-0.7041646
188	0x3df1cc36	0.11806528
189	0x3f133370	0.5750036
190	0x3f1aca88	0.6046529
191	0x3e2d392b	0.16916339
192	0x3f072171	0.527854
193	0xbe82e8ad	-0.25568143
194	0x3cb09476	0.021555167
195	0xbc65c633	-0.014024305
196	0x3e909cc6	0.2824461
197	0x3e8385f5	0.2568814
198	0xbf727cd2	-0.9472171
199	0x3d501ea7	0.050810482
200	0xbe73b77a	-0.2380046
201	0x3f202433	0.62555236
202	0xbf81d692	-1.0143607
203	0x3cdbb3b3	0.026819086
204	0xbe7f90fa	-0.24957648
205	0x3dd29132	0.102816
206	0x3e883421	0.2660227
207	0x3dab30e5	0.08358935
208	0x3f8bebbf	1.0931319
209	0xbeaf9a80	-0.34297562
210	0xbf78b4a8	-0.9715066
211	0x3f0642cc	0.52445674
212	0x3f9209f2	1.1409285
213	0xbedd1b72	-0.43185002
214	0x3f9be66f	1.2179698
215	0xbc2d9011	-0.01059343
216	0xbeb2d99b	-0.34931645
217	0xc0379f0c	-2.8690825
218	0xbf5b75f3	-0.8572685
219	0x3f8c3c4d	1.0955902
220	0xbfd17dc9	-1.6366512
221	0xbf821c40	-1.0164871
222	0x3ef97278	0.48720145
223	0xc0049db5	-2.0721257
224	0xbcbf93ad	-0.023385847
225	0xbe971ac4	-0.29512608
226	0x3d583886	0.05278828
227	0xbda7a78b	-0.08186253
228	0xbb9f5d8b	-0.004863446
229	0xbefea530	-0.49735403
230	0x3f38dadf	0.7220897
231	0x3f2e1ca8	0.68012476
232	0x3f1cd54b	0.6126296
233	0xbf5ec7bb	-0.87023515
234	0xbd45a16c	-0.048249647
235	0x3e332169	0.17493214
236	0xbc8f42e7	-0.017487956
237	0x3dda22fd	0.10651205
238	0x3dcad772	0.09904374
239	0xbfa715aa	-1.3053486
240	0x3f101ae6	0.56291044
241	0x3d226c82	0.039654262
242	0x3f1ab7e9	0.60436875
243	0x3e120e65	0.14263304
244	0x3ff2f46f	1.8980845
245	0x3d968cec	0.073510975
246	0xbded9c0a	-0.11602028
247	0x3faa8791	1.3322622
248	0xbf873713	-1.0563682
249	0x3f29de9e	0.6635531
250	0x3f81e96d	1.0149361
251	0xbf1a005b	-0.6015679
252	0xbe3d8d69	-0.18510975
253	0x3f36b6f4	0.71372914
254	0xbec2f994	-0.38081038
255	0xbf4216ea	-0.75816214

weight f4 [64, 32, 3, 3]
0	0xbfa9e0c9	-1.3271724
1	0x3c7165e0	0.014733762
2	0xbef71d02	-0.4826432
3	0x3ed63a6e	0.41841453
4	0x3faff13a	1.3745492
5	0xbf2b3648	-0.668797
6	0xbeebeb0c	-0.46077764
7	0xbf23dbab	-0.6400706
8	0x3e1d21f9	0.15344991
9	0xbf323dd1	-0.69625574
10	0x3f41cd7f	0.7570419
11	0x3f8d69bc	1.1047893
12	0x3f3ab9f5	0.7294
13	0xbd27bbaf	-0.040950473
14	0xbe52212e	-0.2052047
15	0xbdbedae6	-0.09319095
16	0xbf2fff75	-0.6874917
17	0xbf9a81d8	-1.2070875
18	0x3dcbf4d1	0.099588044
19	0x3e9edded	0.3102869
20	0xbce802b2	-0.028321598
21	0x3f82e199	1.0225097
22	0x3f06c092	0.5263759
23	0xbf89cf3f	-1.0766371
24	0x3ec48423	0.38382062
25	0xbec9c1b2	-0.3940559
26	0x3ed213a1	0.410306
27	0xbeb878f7	-0.3602979
28	0x3f170521	0.589922
29	0xbf440a6b	-0.76578397
30	0x3e6767a1	0.22598125
31	0xbf9ee34b	-1.2413114
32	0xbeb8456e	-0.3599047
33	0xbeec85d6	-0.4619586
34	0xbfa8d961	-1.3191339
35	0xbf02ecf5	-0.5114282
36	0xbf9c0b96	-1.2191036
37	0xbfa91487	-1.320939
38	0x3df63c8d	0.12023268
39	0x3e9332df	0.2874975
40	0xbf5a670b	-0.8531348
41	0xbeb614c5	-0.3556272
42	0x3e9818ff	0.2970657
43	0xbf1f2d2d	-0.6217831
44	0x3eda1e6c	0.42601335
45	0xbe3d40c6	-0.1848174
46	0x3e57d097	0.21075664
47	0xbf3b0401	-0.73052984
48	0xbe7bc781	-0.24587823
49	0x3f081a04	0.53164697
50	0xbe4e5cdd	-0.20152612
51	0x3d0c654d	0.034276295
52	0xbfa17d81	-1.2616426
53	0xbf8b4d2c	-1.0882926
54	0xbeff4498	-0.4985702
55	0xbe9b9a5d	-0.30391207
56	0xbf9e6bf0	-1.237669
57	0x3edfee16	0.43736333
58	0xbf0802b1	-0.53129107
59	0xbf1bba36	-0.6083101
60	0x3eceb71d	0.4037408
61	0x3f382102	0.71925366
62	0x3e5662b9	0.20936097
63	0xbeb9e3cc	-0.36306608
64	0x3f28cf7e	0.6594161
65	0xbe5d6ccb	-0.21623532
66	0xbebb4eee	-0.36583656
67	0x3dc8f2c1	0.09811927
68	0x3edcc150	0.43116236
69	0x3ef71ab5	0.48262563
70	0x3fa82588	1.3136454
71	0xbe1fd34a	-0.15607944
72	0xbeb7a906	-0.35871142
73	0x3ddf421d	0.10901282
74	0x3e93cfe5	0.28869548
75	0x3e5a577f	0.2132244
76	0x3f5e0b59	0.86736065
77	0xbfe21d22	-1.7665141
78	0x3f3cf868	0.7381654
79	0x3f0643e0	0.5244732
80	0xbf17dbfd	-0.5932005
81	0xbf32fff2	-0.6992179
82	0x3ea3b2f4	0.31972468
83	0xbfc09c3e	-1.5047681
84	0x3f93b8ff	1.1540831
85	0xbdbbbec6	-0.091672465
86	0x3eb1d8e7	0.34735796
87	0x3f0d4501	0.55183417
88	0x3f4100f3	0.75392073
89	0x3d476cd6	0.04868778
90	0xbf2151c9	-0.6301542
91	0xbf857954	-1.0427651
92	0xbefcf16c	-0.4940294
93	0x3e002b6e	0.12516567
94	0x3e3e3b22	0.18577245
95	0x3f67d5af	0.9056043
96	0xbefe8943	-0.49714097
97	0xbe495083	-0.19659619
98	0x3f484dca	0.78243697
99	0x3eb3e0fd	0.3513259
100	0x3e0d5463	0.13801722
101	0xbf5a7117	-0.8532881
102	0xbe289067	-0.16461335
103	0x3f17e2f7	0.59330696
104	0xbf281c54	-0.65668225
105	0x3fa01be2	1.2508509
106	0x3f24aa4b	0.64322346
107	0xbf8af2e2	-1.0855372
108	0xbf5f4799	-0.87218624
109	0xbc9fcfa3	-0.019508189
110	0x3eea0f4e	0.45714802
111	0x3e0dc899	0.13846053
112	0xbf237930	-0.6385679
113	0x3eca8903	0.39557657
114	0x3ba91ac4	0.0051606614
115	0x3f85ab5c	1.044292
116	0x3ef4957e	0.47770303
117	0x3ee1bc79	0.44089106
118	0x3ebd42cd	0.36965027
119	0x3fe573fe	1.7926023
120	0x3ee5073a	0.44732076
121	0xbfb34dc6	-1.400811
122	0xbe7d73ba	-0.24751177
123	0x3f4c2f08	0.79759264
124	0x3e39f257	0.18158852
125	0x3f9184bb	1.1368631
126	0xbdf7bb61	-0.120962866
127	0x3ee83dc5	0.45359626
128	0x3efde4dc	0.49588668
129	0x3e5c6506	0.21522912
130	0xbe96f46f	-0.29483363
131	0x3f4260a2	0.759287
132	0xbf0a3417	-0.5398573
133	0xbcf3e4ba	-0.029772151
134	0x3d7b2a23	0.06131948
135	0xbe52b06b	-0.2057511
136	0xbe2c430c	-0.16822451
137	0x3e9d9877	0.30780384
138	0x3cd1ab2a	0.025594313
139	0x3f0f5443	0.5598795
140	0xbf9f2be3	-1.2435268
141	0xbe967f73	-0.2939411
142	0xbec3a195	-0.38209215
143	0xbf5d94c8	-0.8655515
144	0x3f0eca0b	0.55777043
145	0x3f579ae3	0.84220713
146	0x3e00aff7	0.12567125
147	0x3f211814	0.62927365
148	0xbe99229e	-0.29909223
149	0xbf040845	-0.5157512
150	0x3f2688b7	0.6505236
151	0x3edaa4ec	0.4270395
152	0xbf7bbfec	-0.98339725
153	0x3e909643	0.2823964
154	0xbf2e8fe3	-0.68188304
155	0x3f372374	0.7153847
156	0x3e8527b6	0.2600686
157	0x3f07d083	0.5305254
158	0xbef63795	-0.4808928
159	0xbf16396f	-0.58681387
160	0xbe95c716	-0.29253453
161	0xbd0adf02	-0.033904083
162	0x3cb95792	0.022624765
163	0xbea579d5	-0.32319513
164	0xbf4ac12a	-0.79200995
165	0x3f43f414	0.7654431
166	0xbf16971f	-0.5882434
167	0xbc446b7b	-0.011988516
168	0xbf8a6abc	-1.0813823
169	0x3ea17ada	0.3153904
170	0x3ece7245	0.40321556
171	0xbe7c977e	-0.24667165
172	0x3d9b848b	0.0759364
173	0xbf77b656	-0.967626
174	0x3f38eeed	0.7223957
175	0x3f5276bb	0.8221242
176	0xbf4bbbe2	-0.7958356
177	0x3f02f720	0.5115833
178	0xbed21596	-0.41032094
179	0x3e883769	0.26604775
180	0x3e47ae33	0.19500045
181	0xbed53074	-0.4163853
182	0xbea4b90a	-0.32172424
183	0x3e111499	0.14168014
184	0x3e42ec8a	0.19035545
185	0x3eeb4c0a	0.4595645
186	0xbf52077d	-0.82042676
187	0xbedcd822	-0.43133646
188	0x3e8bc202	0.27296454
189	0x3ecf2d96	0.40464467
190	0xbdcb3dfa	-0.099239305
191	0x3e7648e6	0.24051246
192	0xbf2b506d	-0.66919595
193	0xbe123406	-0.14277658
194	0xbd662e51	-0.056196515
195	0x3e0a2866	0.13491973
196	0xbf30ce34	-0.6906464
197	0xbdfad5e4	-0.12247828
198	0xbe8d699d	-0.2761964
199	0xbfaf63a1	-1.3702279
200	0x3e83c9ea	0.25739986
201	0xbf379161	-0.71706206
202	0xbe1f8257	-0.15577064
203	0xbe13fc22	-0.1445165
204	0x3f9c6f2e	1.2221429
205	0xbfcca289	-1.5987102
206	0xbda39e9b	-0.07989236
207	0xbeae549b	-0.34048924
208	0x3f4b87b7	0.7950396
209	0x3d5ab956	0.053399406
210	0x3ee54f01	0.44786838
211	0xbef3ac72	-0.47592503
212	0x3f1cea9b	0.6129548
213	0xbf73c48e	-0.95221794
214	0xbf478007	-0.7792973
215	0xbeb60179	-0.35548
216	0xbd8824b7	-0.06647628
217	0xbe39eae9	-0.18156017
218	0xbd898f15	-0.06716744
219	0x3e68878d	0.22707959
220	0xbeb1eeeb	-0.34752592
221	0xbedc951a	-0.43082505
222	0x3dca306c	0.09872517
223	0xbf8083ea	-1.0040257
224	0xbfa6a93e	-1.3020399
225	0xbe5a608d	-0.21325894
226	0xbf8b50a8	-1.0883989
227	0xbe389a2c	-0.18027562
228	0xbea54da1	-0.3228579
229	0x3f7566ef	0.9586019
230	0xbcd3c092	-0.02584866
231	0xbe86cc36	-0.26327676
232	0xbd6a20d2	-0.057160206
233	0x3ecfd8d2	0.40595108
234	0xbf9afc40	-1.210823
235	0x3ef22d4e	0.4730019
236	0xbe20671e	-0.15664336
237	0x3f97affb	1.185058
238	0xbe782396	-0.24232325
239	0xbe83d2d7	-0.25746796
240	0xbf284d0c	-0.65742564
241	0xbee98ac0	-0.4561367
242	0x3f82b55a	1.0211594
243	0x3f01a2a8	0.5063882
244	0x3f2b43d8	0.66900396
245	0x3eb4e397	0.35329887
246	0xbead956b	-0.3390306
247	0x3d8159cb	0.06315955
248	0x3f98fdc8	1.1952448
249	0xbe3f5349	-0.18684115
250	0x3d9faf1d	0.07797072
251	0x3d3eedbc	0.04661344
252	0xbe9351f9	-0.28773478
253	0xbe3fb69e	-0.18722007
254	0x3ecdeb5d	0.4021863
255	0xbec6f102	-0.3885575

weight f4 [64]
0	0x3f642f6d	0.89134866
1	0x3f437cb1	0.7636214
2	0x3f56b945	0.8387645
3	0x3f50a2d1	0.8149844
4	0x3f5ca2b9	0.86185795
5	0x3f4e5fe6	0.8061508
6	0x3f498ed9	0.78733593
7	0xbf54c225	-0.8310874
8	0x3f78e8ee	0.9723042
9	0x3f593f4c	0.8486221
10	0x3f41ed09	0.7575231
11	0x3f46df6f	0.7768468
12	0x3f4371c7	0.76345485
13	0x3f4a71bb	0.7907979
14	0x3f3fe0d4	0.74952435
15	0x3f4cf50d	0.8006142
16	0x3f4a6ea4	0.79075074
17	0x3f4d42f5	0.80180293
18	0x3f33bf03	0.70213336
19	0x3f50a2c3	0.81498355
20	0x3f4c5741	0.7982064
21	0x3f58e939	0.8473087
22	0x3f5b3d1a	0.8564011
23	0x3f7a215b	0.97707146
24	0x3f4ba19f	0.7954349
25	0x3f50069f	0.81260103
26	0x3f42b28b	0.76053685
27	0x3f778385	0.9668506
28	0x3f45c6ee	0.7725667
29	0x3f4d75c2	0.8025781
30	0x3f5af701	0.8553315
31	0x3f5e5896	0.8685392
32	0x3f41839a	0.75591433
33	0x3f6e549f	0.9309787
34	0x3f529e36	0.8227266
35	0x3f6c19f9	0.9222713
36	0x3f549231	0.8303557
37	0x3f3c7035	0.73608714
38	0x3f3dc9c9	0.74136025
39	0x3f6967bd	0.9117392
40	0x3f309985	0.6898425
41	0x3f51437a	0.81743586
42	0x3f5a9991	0.85390574
43	0x3f1d6714	0.6148541
44	0x3f5056a9	0.8138223
45	0x3f454350	0.77055836
46	0x3f4a2d73	0.789756
47	0x3f4b16c4	0.7933161
48	0x3f61d4f7	0.88215584
49	0x3f6043dd	0.8760355
50	0x3f6bd02f	0.9211454
51	0x3f59af49	0.8503309
52	0x3f4afae9	0.7928911
53	0x3f471aaa	0.7777506
54	0x3f677145	0.9040721
55	0x3f47ff6b	0.7812411
56	0x3f780913	0.96888846
57	0x3f57df04	0.8432467
58	0x3f805566	1.0026062
59	0x3f5718ba	0.84022105
60	0x3f52a1cb	0.82278126
61	0x3f4bc126	0.79591596
62	0x3f567029	0.8376489
63	0x3f745291	0.95438486

bias f4 [64]
0	0xbf11d121	-0.5695973
1	0xbf37f40a	-0.7185675
2	0xbea274a0	-0.31729603
3	0xbf3aa723	-0.7291128
4	0xbeb75b90	-0.35812044
5	0xbf34f9d1	-0.7069369
6	0xbe4e51e3	-0.20148425
7	0xbf38e8e2	-0.7223035
8	0xbf4e1402	-0.8049928
9	0xbec78044	-0.38965046
10	0xbeeab6c5	-0.45842567
11	0xbe8c3562	-0.27384478
12	0xbf015e3e	-0.5053443
13	0xbf2442df	-0.6416454
14	0xbf281786	-0.65660894
15	0xbedfbbaf	-0.4369788
16	0xbe137152	-0.14398697
17	0xbf033e09	-0.51266533
18	0xbe728450	-0.23683286
19	0xbf049d1d	-0.51802236
20	0xbe9514b3	-0.29117355
21	0xbf2d6f42	-0.6774789
22	0xbeb4ba88	-0.35298562
23	0xbec25690	-0.37956667
24	0xbeb0d8d4	-0.34540427
25	0xbf0cb46b	-0.54962796
26	0xbe7e0161	-0.24805214
27	0xbf18a0a3	-0.5962011
28	0xbf174c65	-0.59100944
29	0xbee39a6e	-0.44453758
30	0xbeabf752	-0.33587128
31	0xbf0dc759	-0.55382305
32	0xbf11821d	-0.5683916
33	0xbf056dd4	-0.5212071
34	0xbf3707f1	-0.7149649
35	0xbe547361	-0.20747139
36	0xbe06bb4c	-0.13157386
37	0xbea9ca1d	-0.33162013
38	0xbe52f723	-0.20602088
39	0xbe69f931	-0.22848965
40	0xbe848d9d	-0.25889292
41	0xbf20fb92	-0.62883866
42	0xbf323dd3	-0.69625586
43	0xbf94a79d	-1.1613652
44	0xbf00da91	-0.50333506
45	0xbed40ab6	-0.41414422
46	0xbef05a24	-0.46943772
47	0xbe827c6b	-0.25485548
48	0xbf1799d1	-0.5921908
49	0xbf04367b	-0.5164563
50	0xbed9e03c	-0.4255389
51	0xbdebf747	-0.11521774
52	0xbed9282c	-0.4241346
53	0xbf165077	-0.5871653
54	0xbed6c138	-0.4194429
55	0xbe84b228	-0.25917172
56	0xbf85f81c	-1.0466342
57	0xbeb9b054	-0.3626734
58	0xbed94929	-0.4243863
59	0xbe192008	-0.14953625
60	0xbef14677	-0.47124073
61	0xbf22924f	-0.635045
62	0xbf6ecace	-0.93278205
63	0xbf247b0f	-0.6425027

running_mean f4 [64]
0	0xc00ab136	-2.167066
1	0xbf91f013	-1.140139
2	0xc061242f	-3.5178335
3	0xc0af38de	-5.475692
4	0xbfea83e1	-1.8321496
5	0xc0609f7e	-3.5097346
6	0x3fe2388c	1.7673507
7	0x409c29fc	4.880125
8	0xc0c0df83	-6.027284
9	0x3fb51d11	1.4149495
10	0xbfb209c5	-1.3909231
11	0xbf978f12	-1.1840537
12	0xbe88a2a2	-0.2668658
13	0xc00f5d42	-2.240067
14	0xbe054958	-0.1301626
15	0x3fd0328b	1.6265424
16	0xc0cc947d	-6.393126
17	0xbf1a849c	-0.60358596
18	0x3ed22677	0.4104497
19	0x3ab6676d	0.0013916321
20	0xbf1d8779	-0.6153484
21	0xbfae445d	-1.3614613
22	0x40880c8b	4.251531
23	0xc0c32200	-6.0979004
24	0xc03ba42d	-2.9318955
25	0xc04709f8	-3.1099834
26	0xbf8f7438	-1.1207342
27	0xbfd3d179	-1.6548301
28	0xc069b745	-3.651811
29	0xbf244bda	-0.6417824
30	0x40227441	2.5383456
31	0xc01d29d4	-2.455678
32	0x40115a55	2.2711384
33	0xc0fdd9ef	-7.932853
34	0xbff66519	-1.9249603
35	0xbd42c437	-0.047550406
36	0x40280b9e	2.625709
37	0x3e0f3478	0.13984859
38	0xbf18502d	-0.5949734
39	0xc0620fbf	-3.532211
40	0x3fdc04c6	1.7188957
41	0xc04addda	-3.1697907
42	0xc085d0b7	-4.181728
43	0xc02d3e61	-2.7069323
44	0xc05fcb5c	-3.496787
45	0xbfce08ef	-1.6096476
46	0xc011f189	-2.2803671
47	0x3f06df05	0.5268405
48	0xbf5fd2d4	-0.87431073
49	0xbfa0090e	-1.2502763
50	0xbf46a048	-0.7758832
51	0xbf5ec780	-0.8702316
52	0xc0298612	-2.648808
53	0xbeede902	-0.46466833
54	0xbe6a5091	-0.22882296
55	0xbfcfca7d	-1.623367
56	0xbf6e7275	-0.931434
57	0xbf382795	-0.719354
58	0xbfcc7ba3	-1.5975231
59	0xbe816143	-0.25269517
60	0xbf5ee329	-0.8706537
61	0xc01625bd	-2.3460534
62	0xc0a05b26	-5.0111265
63	0xbffcd240	-1.9751663

running_var f4 [64]
0	0x41c0d4d8	24.103928
1	0x418c92e2	17.57172
2	0x41ca447f	25.283445
3	0x41bb96ea	23.448689
4	0x41d442a8	26.532547
5	0x419ce62b	19.612387
6	0x41f59e29	30.702227
7	0x420ca3e2	35.16004
8	0x41b5702e	22.679775
9	0x41ab286a	21.394733
10	0x41d08933	26.066992
11	0x41ac55d3	21.541906
12	0x419a1cd9	19.264086
13	0x41700042	15.000063
14	0x419b0e41	19.38196
15	0x41a459e4	20.543892
16	0x41c1bdc7	24.217665
17	0x41eed457	29.853682
18	0x41a7b5eb	20.963827
19	0x41f5c7c6	30.722546
20	0x41a2c76e	20.347378
21	0x41c0356c	24.026085
22	0x423bac29	46.918125
23	0x421166fd	36.350574
24	0x41afe4f1	21.986788
25	0x41a6c478	20.845932
26	0x4185d6ea	16.729939
27	0x41d60cef	26.756315
28	0x41e551ef	28.665007
29	0x41bdccd3	23.725012
30	0x41b432cc	22.524803
31	0x41bdc6e1	23.722109
32	0x419d3898	19.652634
33	0x41df47ec	27.910118
34	0x419de860	19.738464
35	0x41adf7e3	21.746038
36	0x41d915ff	27.13574
37	0x4199c6cb	19.222067
38	0x41a45478	20.541245
39	0x41b6b057	22.836103
40	0x41b67563	22.807318
41	0x41b3e4c2	22.486698
42	0x41c0bc5e	24.091976
43	0x41c7087b	24.87914
44	0x41aeeaf2	21.86472
45	0x4196add5	18.834879
46	0x41efd649	29.979631
47	0x41a60053	20.750158
48	0x41b5c1bd	22.719599
49	0x418894ac	17.072594
50	0x41d0fb2f	26.122648
51	0x41b446fd	22.534662
52	0x41a40ccf	20.506254
53	0x41a0d30d	20.103052
54	0x41c0c479	24.095934
55	0x41bccf86	23.60133
56	0x419fcc7a	19.974842
57	0x41e1117b	28.133535
58	0x41bbceed	23.476038
59	0x41fe310b	31.773947
60	0x41ab3de6	21.405224
61	0x41c2a1f2	24.329075
62	0x41b9cbbb	23.224478
63	0x41b19424	22.197334

weight f4 [64, 32, 4, 4]
0	0xbfc38443	-1.5274738
1	0xbedf0a78	-0.43562675
2	0xbf8b0fb4	-1.0864167
3	0xbef7c4c7	-0.48392317
4	0xbf528380	-0.82231903
5	0xbec8f6a5	-0.39250675
6	0xbe042633	-0.12905197
7	0x3eac2b2d	0.3362669
8	0xbf9fcb95	-1.2484003
9	0x3eca8248	0.39552522
10	0xbf1b416f	-0.6064672
11	0xbf9f3dd9	-1.244075
12	0xbf512d45	-0.817097
13	0xbe08a2b4	-0.13343316
14	0xbe19cfd0	-0.1502068
15	0x3d97e047	0.074158244
16	0xc00efde5	-2.2342465
17	0x3f09a536	0.53767717
18	0x3d359baa	0.044337906
19	0xbfc1c9bc	-1.513969
20	0xbd181385	-0.03712799
21	0x3e7dc47b	0.24781983
22	0x3f55cd60	0.835165
23	0x3e93dd5d	0.28879824
24	0x3ec53db4	0.38523638
25	0x3c71c993	0.014757532
26	0xbe5b7744	-0.21432215
27	0xbd9b258d	-0.075755216
28	0x3f481b4c	0.7816665
29	0xbfba5f72	-1.4560378
30	0xbea918ba	-0.33026677
31	0xbe1cfca4	-0.1533075
32	0xbf8369cf	-1.0266665
33	0xbfb0e588	-1.3820047
34	0xbf55920d	-0.8342598
35	0xbe83d789	-0.25750378
36	0x3ece5133	0.40296325
37	0x3ed14891	0.40875676
38	0x3ee6c007	0.4506838
39	0xbf3a1126	-0.72682416
40	0xbeb53f51	-0.3539987
41	0x3f362b87	0.7116017
42	0x3f5b6e2b	0.8571498
43	0x3df59e30	0.119930625
44	0xbf7522d9	-0.957563
45	0xbec47f27	-0.3837826
46	0x3f21203a	0.629398
47	0xbe8b8547	-0.2725012
48	0xbebae6ec	-0.36504304
49	0xbf205e5d	-0.62643987
50	0xbf519eec	-0.8188312
51	0x3d8d280a	0.068924025
52	0x3cc637ed	0.02419659
53	0xbe56bcbe	-0.20970437
54	0x3ed3fe65	0.41405025
55	0x3f18acc2	0.5963861
56	0xbf2ba37d	-0.6704634
57	0xbdcd9d57	-0.10039776
58	0x3e9d684b	0.30743632
59	0x3e830154	0.2558695
60	0x3e4f7b3c	0.20261854
61	0xbd4391ad	-0.04774635
62	0x3c831090	0.015999109
63	0x3d68e3f0	0.056858003
64	0xbfcf734d	-1.6207062
65	0x3f034d0e	0.5128945
66	0x3f05d247	0.5227398
67	0x3c00fa97	0.007872245
68	0x3d112f25	0.03544535
69	0xbe7bee1e	-0.24602553
70	0xbf84a29f	-1.0362128
71	0xbcc447fb	-0.023960104
72	0x3f5c318d	0.8601311
73	0xbe1b7435	-0.15181048
74	0x3e0f1449	0.13972582
75	0xbf9313c4	-1.1490407
76	0x3f9a75f5	1.2067248
77	0x3f089f72	0.53368294
78	0x3e0458b5	0.12924464
79	0x3ea865ce	0.3289017
80	0xc0073216	-2.112432
81	0x3f128d58	0.57246923
82	0xbe9ce757	-0.30645248
83	0x3e197f3d	0.14989944
84	0xbe98817e	-0.29786295
85	0x3ee688c6	0.45026225
86	0xbf2810ad	-0.65650445
87	0xbf14f541	-0.5818673
88	0xbec0fca4	-0.3769275
89	0x3ed24cc4	0.41074193
90	0xbed3d00c	-0.41369665
91	0xbc5d4ce6	-0.013507104
92	0xbdb0fad1	-0.086415894
93	0xbea68928	-0.32526517
94	0x3f163e33	0.5868866
95	0x3e802cb4	0.25034106
96	0x3dfd8f6c	0.12380871
97	0x3f30113e	0.6877631
98	0x3e5e19b7	0.21689497
99	0x3ed7711f	0.42078492
100	0x3f85a25d	1.0440174
101	0xbeae8dd4	-0.3409258
102	0x3eb14945	0.34626213
103	0x3eed1ccc	0.46311033
104	0xbe90f31f	-0.28310487
105	0x3fa2e703	1.2726749
106	0xbf53e848	-0.8277631
107	0x3f7417a3	0.95348567
108	0x3fb07af9	1.3787528
109	0xbef4b090	-0.47790956
110	0x3f57d53e	0.84309757
111	0x3e94d829	0.29071167
112	0xbed49ee4	-0.41527474
113	0x3f863557	1.0485028
114	0xbe3c9e42	-0.18419746
115	0x3fb703de	1.4298055
116	0xbf4af750	-0.7928362
117	0xbf4f8ffd	-0.81079084
118	0xbe5dcb5b	-0.21659605
119	0x3dce7de7	0.10082608
120	0x3f27398c	0.65322185
121	0x3ef4133d	0.47670928
122	0xbf523642	-0.8211404
123	0x3ed645a2	0.4185
124	0xbf639842	-0.889042
125	0xbe980e45	-0.29698387
126	0x3ee21eae	0.44164032
127	0xbf46c382	-0.7764207
128	0xbf58149e	-0.8440646
129	0xbf95001a	-1.1640656
130	0xbf14b357	-0.5808615
131	0xbdf5c1d5	-0.11999861
132	0xbeb8f2ee	-0.3612284
133	0xbee78d4f	-0.45224997
134	0x3eda9cf5	0.42697874
135	0x3e17eaea	0.14835706
136	0x3f694332	0.91118157
137	0x3e330551	0.17482497
138	0xbf016573	-0.50545424
139	0x3ed0c2d7	0.4077365
140	0xbf2fb1f2	-0.686309
141	0x3f2a26b4	0.66465306
142	0x3f50f7b2	0.81627953
143	0xbe82fa42	-0.25581557
144	0x3f05ca68	0.5226197
145	0x3e80a84e	0.25128406
146	0xbf25f53e	-0.64827335
147	0xbfaa4ba7	-1.3304337
148	0xbf03dc4f	-0.5150804
149	0x3df50d21	0.11965395
150	0xbf275427	-0.6536278
151	0xbf0bfb4c	-0.54680324
152	0x3dfc4770	0.12318313
153	0xbea2dbe2	-0.31808382
154	0x3f1a56a2	0.6028844
155	0x3d9d82e1	0.07690979
156	0x3d08d174	0.033402875
157	0xbf03d938	-0.51503325
158	0x3ec06778	0.3757894
159	0xbf2c991e	-0.6742114
160	0xbf9c257b	-1.2198938
161	0xbeae4da4	-0.3404361
162	0x3f9ee35a	1.2413132
163	0xbea902a8	-0.3300984
164	0xbe81b396	-0.25332326
165	0x3f763a63	0.9618284
166	0x3e522d2a	0.20525041
167	0x3dd46c31	0.103721984
168	0xbebed893	-0.37274608
169	0x3e0d90d9	0.13824786
170	0xbe000895	-0.12503274
171	0xbf19d63a	-0.6009251
172	0xbf1d2a1e	-0.6139239
173	0x3dff0611	0.12452329
174	0xbf81e765	-1.0148741
175	0xbee15631	-0.4401107
176	0xbdce13f4	-0.100623995
177	0xbeab4dfa	-0.3345793
178	0xbf3bd1e0	-0.7336712
179	0x3ed4787a	0.41498166
180	0xbf53c892	-0.8272792
181	0x3f62e4d1	0.88630396
182	0x3e3f8c2f	0.1870582
183	0xbe579837	-0.21054159
184	0xbe8c60e1	-0.27417663
185	0x3e2ba93c	0.16763777
186	0x3ecbf401	0.39834598
187	0xbf1b09e5	-0.6056197
188	0xbf27b4d6	-0.6551031
189	0xbf4aab7a	-0.791679
190	0x3d217d21	0.039425973
191	0x3ee464d0	0.44608164
192	0x3f101963	0.5628874
193	0x3e249934	0.16074067
194	0xbeed0ae9	-0.46297386
195	0xbe1fdd41	-0.15611745
196	0x3ec525c4	0.38505375
197	0xbf4684be	-0.775463
198	0x3dc05142	0.09390499
199	0x3ee3f4b0	0.4452262
200	0xbfa150a6	-1.2602737
201	0xbe6cce11	-0.23125483
202	0xbdf67475	-0.12033931
203	0xbef9624e	-0.48707813
204	0x3f61b37f	0.88164514
205	0xbed54467	-0.4165375
206	0xbeeb7a12	-0.4599157
207	0xbe08e807	-0.13369761
208	0xbef24fd9	-0.47326544
209	0x3faa5466	1.3307006
210	0x3f306d36	0.6891664
211	0xbe954169	-0.29151466
212	0xbe39999f	-0.18125008
213	0x3f799652	0.97494996
214	0xbf1357a0	-0.5755558
215	0x3e9f75d6	0.3114459
216	0x3f8a0fd0	1.0786076
217	0x3f778e93	0.96701926
218	0xbe1c398f	-0.15256332
219	0x3f0fe196	0.5620359
220	0x3f9c6240	1.2217484
221	0x3fb0c369	1.3809634
222	0xbe5e8a81	-0.21732523
223	0x3f1833f1	0.59454256
224	0x3f1eda27	0.62051624
225	0xbee04208	-0.43800378
226	0xbf06f7ad	-0.52721673
227	0x3f30c552	0.69051087
228	0x3eac8552	0.33695465
229	0x3e07d79d	0.13265844
230	0x3d955ab5	0.072926916
231	0xbf160a1c	-0.58609176
232	0x3f4ea411	0.80719095
233	0x3e88c065	0.26709285
234	0x3d22d2b4	0.039751723
235	0x3f4100b6	0.7539171
236	0xbf0c102c	-0.54712176
237	0xbe99f390	-0.30068636
238	0xbdf097dd	-0.117477156
239	0xbf676afc	-0.9039762
240	0xbfa35789	-1.2761089
241	0xbeb6f552	-0.3573404
242	0xbf5914eb	-0.84797543
243	0x3ee935fd	0.45549002
244	0xbf07eebd	-0.5309866
245	0xbd9d98de	-0.07695173
246	0xbea92f93	-0.3304411
247	0x3dce842b	0.10083803
248	0x3f00a460	0.50250816
249	0xbeb45ef1	-0.35228685
250	0x3e59304d	0.21209832
251	0xbdd136f3	-0.10215559
252	0xbf40e1f2	-0.75344765
253	0xbf2079aa	-0.62685645
254	0xbe883564	-0.26603234
255	0x3e76802f	0.24072336

weight f4 [32]
0	0x3f538207	0.8262028
1	0x3f3b6686	0.73203313
2	0x3f4c575d	0.79820806
3	0x3f465217	0.7746901
4	0x3f490417	0.78521866
5	0x3f60e406	0.87847936
6	0x3f3859d5	0.7201207
7	0x3f465c2d	0.774844
8	0x3f3eb3e7	0.7449326
9	0x3f4d2bde	0.8014506
10	0x3f32de93	0.6987087
11	0x3f4f4b26	0.8097404
12	0x3f46e2ae	0.77689636
13	0x3f4a55bf	0.7903709
14	0x3f4b6663	0.79453105
15	0x3f53f3ce	0.8279389
16	0x3f399495	0.72492343
17	0x3f277df5	0.6542657
18	0x3f3486ad	0.70518
19	0x3f728300	0.9473114
20	0x3f1caccc	0.6120117
21	0x3f3fc21d	0.7490557
22	0x3f599fea	0.85009634
23	0x3f46ad5b	0.7760827
24	0x3f5c7ef6	0.86131227
25	0x3f66deaf	0.9018354
26	0x3f5b2783	0.85607165
27	0x3f2fb4ab	0.6863505
28	0x3f5078af	0.8143415
29	0x3f31acee	0.69404495
30	0x3f4d8513	0.8028118
31	0x3f387371	0.7205115

bias f4 [32]
0	0xbe9ca317	-0.30593178
1	0xbf12994a	-0.5726515
2	0xbf062210	-0.52395725
3	0xbeb75ea6	-0.358144
4	0xbef19248	-0.47181916
5	0xbf791833	-0.9730255
6	0xbf3a0b6b	-0.7267367
7	0xbf4aecba	-0.79267466
8	0xbef566e2	-0.47930056
9	0xbd8a8865	-0.067642964
10	0xbf3cff38	-0.7382693
11	0xbf00c834	-0.50305486
12	0xbe45d1a6	-0.19318256
13	0x3ec3bb22	0.38228709
14	0xbf487423	-0.7830221
15	0xbf01c6d6	-0.50694025
16	0xbe96a15a	-0.29419976
17	0x3d6ecdff	0.058301922
18	0xbeeb471f	-0.459527
19	0xbf781ac9	-0.9691587
20	0xbeb85403	-0.36001596
21	0xbeb069c0	-0.3445568
22	0xbf38e6fa	-0.7222744
23	0xbe24ce95	-0.1609443
24	0xbf354313	-0.7080547
25	0xbf12c4e1	-0.57331663
26	0xbf3a75f3	-0.72836226
27	0xbe4f3982	-0.20236781
28	0xbf57e3bc	-0.8433187
29	0xbe9a7464	-0.30166924
30	0xbf210652	-0.6290027
31	0xbed34233	-0.41261443

running_mean f4 [32]
0	0xc00ba2f3	-2.1818206
1	0x3ebd2175	0.36939588
2	0xc02a3eb9	-2.6600783
3	0xc012e7ad	-2.2953904
4	0xbfa42627	-1.2824143
5	0xbfc8e1f4	-1.5693955
6	0xbf56ffb4	-0.8398392
7	0xbfdd13c7	-1.727166
8	0xbf564941	-0.83705527
9	0x3e1967df	0.1498103
10	0xc027bf6d	-2.6210587
11	0xbd8efe40	-0.06982088
12	0xbf246bb6	-0.64226854
13	0x3f5f75a9	0.8728891
14	0xbf31d707	-0.6946873
15	0xc008bfa5	-2.136697
16	0xbe442ce5	-0.19157751
17	0x3ec56a9b	0.38557896
18	0xbfd2382d	-1.6423393
19	0xc00f1efd	-2.2362664
20	0xbf564104	-0.83692956
21	0xbfc47982	-1.5349581
22	0xbfe2d461	-1.7721063
23	0xbed10f56	-0.40832013
24	0xbffb3fe7	-1.9628876
25	0xc0058d59	-2.0867522
26	0xbf90b16d	-1.1304146
27	0x3f665391	0.8997126
28	0xbff2940b	-1.8951429
29	0x3edf681f	0.43634126
30	0xbfb42bdd	-1.4075886
31	0xbfbe785e	-1.4880483

running_var f4 [32]
0	0x418eed9c	17.86602
1	0x416327e4	14.197239
2	0x416eaf43	14.9177885
3	0x417b8df3	15.722156
4	0x415bbaa2	13.733065
5	0x4152c9a9	13.174233
6	0x414a4390	12.641495
7	0x414405d5	12.251424
8	0x41668823	14.4082365
9	0x418f4385	17.907969
10	0x415cab76	13.791861
11	0x414dd17f	12.8636465
12	0x417c6b1a	15.776148
13	0x418eed37	17.865828
14	0x413aef3d	11.683408
15	0x41590df6	13.565908
16	0x41546c81	13.27649
17	0x41635f96	14.210836
18	0x416313f9	14.192376
19	0x4163c009	14.234384
20	0x41438943	12.221011
21	0x416e5cc6	14.89765
22	0x413a6aed	11.651105
23	0x41868b58	16.818039
24	0x418664fb	16.799307
25	0x4165cf4e	14.3631115
26	0x41449e26	12.28861
27	0x416d0055	14.812581
28	0x41636c8b	14.214
29	0x41505be2	13.022432
30	0x414a355b	12.638026
31	0x416e8199	14.90664

weight f4 [32, 32, 4, 4]
0	0xbe0293be	-0.12751672
1	0x3f24575b	0.64195794
2	0x3ee44ad1	0.4458833
3	0xbf58f531	-0.8474913
4	0xbe38227c	-0.17981905
5	0x3f53e375	0.82768947
6	0x3efc35b9	0.49259737
7	0xbdd0e6d9	-0.10200281
8	0xbda41831	-0.08012427
9	0x3e838948	0.25690675
10	0x3ee3f724	0.4452449
11	0xbf26b294	-0.6511624
12	0xbf23d877	-0.64002174
13	0x3cf2c004	0.029632576
14	0x3ebb3563	0.36564168
15	0xbf55d649	-0.835301
16	0x3dfac92c	0.12245402
17	0x3ed6fbc7	0.41988966
18	0x3db0e03d	0.0863652
19	0x3e7243de	0.23658702
20	0xbea5a4b9	-0.32352236
21	0x3f1cb4f7	0.6121363
22	0xbf045cfc	-0.5170438
23	0x3f039f5c	0.5141504
24	0xbf149d49	-0.580525
25	0xbf0fd618	-0.56186056
26	0x3dacb4fa	0.08432956
27	0xbe2e136a	-0.16999593
28	0x3f0a7b4b	0.5409438
29	0xbebfc53e	-0.3745517
30	0x3eadd043	0.33947954
31	0xbea87deb	-0.32908568
32	0x3e5220cb	0.20520322
33	0x3f607068	0.8767152
34	0xbe8b43f7	-0.2720029
35	0x3ed0551e	0.4068994
36	0x3e9e8797	0.30962822
37	0x3edae761	0.42754653
38	0x3ed84bc9	0.4224532
39	0xbe918b8f	-0.28426787
40	0x3d9996ef	0.074994914
41	0x3f66bd17	0.9013228
42	0x3c78a7e1	0.015176744
43	0x3f1fd645	0.62436324
44	0x3e1309d5	0.1435922
45	0x3f0db65a	0.5535637
46	0x3ee15cbd	0.44016066
47	0x3e67a279	0.22620572
48	0x3d38c0cc	0.04510574
49	0x3f64408d	0.89160997
50	0xbfb694eb	-1.4264196
51	0xbeb25d82	-0.34836966
52	0x3f41d8c6	0.75721395
53	0xbe8070e7	-0.25086138
54	0xbd149731	-0.036277
55	0xbf0c0079	-0.5468822
56	0xbd82d719	-0.06388683
57	0x3f3180bf	0.69337076
58	0xbf50171f	-0.8128528
59	0x3ed7ecff	0.42173
60	0x3f8e3620	1.1110268
61	0x3e5194e0	0.20466948
62	0xbd20f5c5	-0.039296884
63	0x3f3fba9b	0.7489411
64	0x3f1197e8	0.56872416
65	0xbe9b838e	-0.30373806
66	0xbf7b6da9	-0.98214203
67	0x3f3c8dd1	0.73653895
68	0xbf3637c8	-0.71178865
69	0xbe1dd01c	-0.15411419
70	0x3de41f06	0.1113873
71	0x3d487093	0.048935484
72	0xbe178383	-0.14796261
73	0xbf27535b	-0.65361565
74	0xbcfe5676	-0.031047087
75	0xbf022898	-0.5084319
76	0xbf17740f	-0.59161466
77	0x3e88d520	0.267251
78	0xbdaaade4	-0.08333948
79	0xbf114430	-0.5674467
80	0xbf2539ba	-0.6454121
81	0x3ec4224f	0.38307425
82	0xbe0fb9d0	-0.14035726
83	0xbea9a025	-0.33129993
84	0x3e85562b	0.26042303
85	0x3f788c28	0.9708886
86	0xbea38407	-0.31936666
87	0x3e9b3b4a	0.3031867
88	0xbf144f7f	-0.579338
89	0x3ca694ba	0.02033459
90	0xbe4eef08	-0.2020837
91	0xbf30eb6b	-0.6910922
92	0x3f909a52	1.1297095
93	0x3d024263	0.031801593
94	0x3e8a17fe	0.2697143
95	0x3e4c716a	0.19965139
96	0xbe189620	-0.14901018
97	0x3eed2fe7	0.4632561
98	0x3ea6583b	0.3248919
99	0xbf1415f2	-0.57845986
100	0x3d5c284b	0.053749364
101	0x3ebf17bf	0.37322804
102	0xbd701161	-0.058610324
103	0xbdd8abf1	-0.1057967
104	0xbe093cfc	-0.1340217
105	0xbe0f3b7c	-0.13987535
106	0xbe70ea0e	-0.23526785
107	0xbf9b02aa	-1.2110188
108	0x3f493162	0.7859098
109	0xbd806403	-0.06269076
110	0xbe8e4e80	-0.27794266
111	0xbfa629ec	-1.2981544
112	0xbf7fb70a	-0.9988867
113	0xbea6a4f0	-0.32547712
114	0xbe96ed55	-0.29477945
115	0x3f3dd114	0.7414715
116	0x3f5f2aeb	0.8717486
117	0x3ec234e0	0.37930965
118	0xbe33421c	-0.17505687
119	0x3f0a7547	0.540852
120	0xbf127bb7	-0.57220024
121	0xbe67712f	-0.2260177
122	0xbec6460e	-0.38725322
123	0x3f31ae87	0.6940693
124	0xbe77ad8a	-0.24187294
125	0xbe4cfbe7	-0.20017968
126	0xbe40c822	-0.18826345
127	0x3ee2a4ba	0.442663
128	0x3ef68841	0.48150828
129	0xbdc3793c	-0.09544608
130	0x3e2109cb	0.15726392
131	0x3df3c25b	0.11902305
132	0xbf4befdb	-0.79662865
133	0xbe1f4fde	-0.1555781
134	0x3df6a37e	0.120429024
135	0xbf9420f6	-1.1572559
136	0xbd9627f4	-0.07331839
137	0x3dd14af3	0.102193736
138	0x3edce2e5	0.43141857
139	0xbea78718	-0.32720256
140	0x3dcbacd2	0.09945072
141	0xbf1d760c	-0.6150825
142	0x3e4e46da	0.20144215
143	0xbecb4d77	-0.39707538
144	0x3ea3aac4	0.3196622
145	0xbfae6ab7	-1.3626317
146	0x3cd7e97e	0.026356455
147	0x3e332a08	0.17496502
148	0x3e9f4b5b	0.3111218
149	0x3e51e526	0.2049757
150	0x3e1c7ce4	0.15282017
151	0x3f31de35	0.69479686
152	0x3eeb4cc2	0.45957
153	0xbd583eb2	-0.052794166
154	0xbedcc39d	-0.4311799
155	0x3dfc2033	0.12310829
156	0x3fb314c5	1.3990713
157	0xbc4697c6	-0.012121147
158	0x3f299c5d	0.66254216
159	0x3fcd7cec	1.6053748
160	0xbf9f0654	-1.2423806
161	0xbe8a9e5a	-0.27073938
162	0x3edd3bd8	0.4320972
163	0xbe378db4	-0.17925149
164	0xbd43d632	-0.047811694
165	0x3de47d95	0.11156765
166	0x3cfa4b15	0.03055338
167	0xbeb9d185	-0.36292663
168	0xbe6fd227	-0.2342001
169	0xbe7284e0	-0.236835
170	0x3e117984	0.14206511
171	0x3d8ea471	0.069649585
172	0x3d9e2226	0.07721357
173	0xbd065e02	-0.032804497
174	0xbd6b9616	-0.05751618
175	0xbf67a4d2	-0.9048587
176	0xbd7ec58c	-0.062200114
177	0xbf11c76f	-0.56944937
178	0xbe7c4d38	-0.24638832
179	0xbf8afdd6	-1.0858715
180	0xbe835d7b	-0.25657257
181	0xbd25452a	-0.040349163
182	0x3f011380	0.5042038
183	0x3b187533	0.0023263216
184	0xbe4123d7	-0.18861328
185	0xbfa50e2d	-1.2894951
186	0x3ec234eb	0.37930998
187	0xbf2d509e	-0.6770114
188	0x3ecb41f6	0.39698762
189	0x3f421cba	0.75825083
190	0x3e805af8	0.25069404
191	0x3dba892e	0.09108196
192	0x3f0023c4	0.50054574
193	0x3f53344e	0.82501686
194	0xbc860f30	-0.016364664
195	0xbe0a1429	-0.13484253
196	0xbf8a7212	-1.0816061
197	0x3e08ae8e	0.13347837
198	0xbeaa1b74	-0.3322407
199	0xbc8819b9	-0.016613828
200	0xbca67d52	-0.02032343
201	0xbd772e54	-0.060346916
202	0xbe7175ad	-0.23580046
203	0xbe9ec8c9	-0.31012562
204	0xbf7989c9	-0.9747587
205	0x3e712505	0.23549278
206	0xbe7a7e0b	-0.24462144
207	0xbecf0b00	-0.4043808
208	0xbe0bdeea	-0.13659254
209	0xbf55dea5	-0.83542854
210	0xbeac7b1e	-0.3368768
211	0xbef794ec	-0.48355806
212	0x3e29ed35	0.16594394
213	0x3b85ebb4	0.004086936
214	0x3efa714c	0.48914564
215	0xbf4332d4	-0.7624943
216	0x3f279e63	0.65476054
217	0x3f1c9ca5	0.6117652
218	0xbe68e89b	-0.22744982
219	0xbf293fc6	-0.66112936
220	0xbe930d59	-0.2872112
221	0x3f882513	1.0636314
222	0xbe374aa8	-0.17899573
223	0x3ec38c7d	0.38193122
224	0x3e6e6733	0.23281555
225	0xbf445911	-0.76698405
226	0xbf895493	-1.0728935
227	0xbeb386f0	-0.35063887
228	0x3f28c4e6	0.65925443
229	0xbe83bea2	-0.2573138
230	0x3ea0409f	0.31299302
231	0x3f3b9dd8	0.73287725
232	0xbe44d8bf	-0.19223307
233	0xbec5295c	-0.38508117
234	0xbe39cf5a	-0.18145505
235	0xbe9703ff	-0.29495236
236	0x3ed8a558	0.42313647
237	0xbcba5316	-0.022744697
238	0xbca1608c	-0.019699357
239	0x3f2b3549	0.6687818
240	0xbd16f24c	-0.036852166
241	0xbd6abc01	-0.0573082
242	0xbef45116	-0.47718114
243	0x3e8a2e61	0.2698851
244	0xbf3e6ef7	-0.7438807
245	0x3f3206c3	0.6954157
246	0xbfbec48b	-1.490373
247	0x3ed50407	0.41604635
248	0xbf3663a2	-0.7124578
249	0xbea6c14a	-0.32569343
250	0xbe90a362	-0.2824965
251	0xbde5125e	-0.11185144
252	0xbe99950a	-0.2999652
253	0xbe89c5ab	-0.2690862
254	0xbea09db9	-0.31370333
255	0xbf127b57	-0.5721945

weight f4 [32]
0	0x3ef0c7ba	0.4702738
1	0x3f259884	0.64685845
2	0x3f04d8db	0.51893395
3	0x3f42fa20	0.7616291
4	0x3eead547	0.45865843
5	0x3f18267a	0.5943371
6	0x3f3c8b1e	0.73649776
7	0x3f3223c3	0.6958582
8	0x3f26fe36	0.65231645
9	0x3f2284e2	0.63484013
10	0x3f617730	0.8807249
11	0x3f32a8e5	0.6978896
12	0x3f70c71d	0.9405382
13	0x3f1d7cf4	0.6151879
14	0x3f16ff19	0.58983
15	0x3f0fd9d2	0.5619174
16	0x3efbe330	0.49196768
17	0x3f1becc6	0.6090816
18	0x3f3a093e	0.7267035
19	0x3f17b2aa	0.59256995
20	0x3f297082	0.661873
21	0x3f6a31a3	0.9148199
22	0x3f40febe	0.75388706
23	0x3f1fe468	0.62457895
24	0x3f260101	0.6484528
25	0x3efac679	0.48979548
26	0x3f3d3759	0.7391258
27	0x3f1fa089	0.6235433
28	0x3f2e5d88	0.6811147
29	0x3f0fb759	0.5613914
30	0x3f20e725	0.628527
31	0x3f3cab2a	0.73698676

bias f4 [32]
0	0xbe045ffc	-0.1292724
1	0xbf4dcafe	-0.80387866
2	0xbf0a014c	-0.5390823
3	0x3e6cdcbf	0.23131083
4	0xbcc45d20	-0.023970187
5	0xbe84b153	-0.25916538
6	0xbf3bbbbb	-0.7333333
7	0x3e7c270c	0.2462427
8	0x3eb17292	0.34657723
9	0xbeab894a	-0.3350318
10	0xbe97f899	-0.29681852
11	0xbf113718	-0.5672469
12	0x3ece9e92	0.40355355
13	0xbd8c36c8	-0.06846386
14	0x3e92d334	0.2867676
15	0xbf194741	-0.5987435
16	0xbe0b1d61	-0.13585426
17	0x3d41acf4	0.04728408
18	0xbf51a552	-0.81892884
19	0x3e68c97f	0.22733115
20	0xbf26abde	-0.65106
21	0x3e3968e5	0.1810642
22	0xbe7d493d	-0.2473497
23	0xbe5623ec	-0.2091214
24	0xbf32aaf9	-0.69792134
25	0xbe617a33	-0.22019272
26	0xbf5c6a78	-0.8609996
27	0xbeb67ac3	-0.35640535
28	0xbe92010b	-0.2851642
29	0xbd9191d3	-0.07107892
30	0x3c830b61	0.015996637
31	0xbe6e7e44	-0.23290354

running_mean f4 [32]
0	0xbda84db6	-0.08217947
1	0xbf30866a	-0.689551
2	0xbf2aa309	-0.6665502
3	0x3f94e218	1.1631498
4	0xbeaf7438	-0.34268355
5	0xbfcfbd40	-1.622963
6	0xbfce832f	-1.6133784
7	0xbecedcd8	-0.40402865
8	0xbf745c02	-0.9545289
9	0xbf0dc628	-0.5538049
10	0xc004e119	-2.0762389
11	0xbebd45bd	-0.3696727
12	0xc0039ead	-2.0565598
13	0xbfc76823	-1.5578655
14	0xbe69b558	-0.22823083
15	0xbfcd5df9	-1.6044303
16	0xbfebbb17	-1.841647
17	0x3e06111c	0.13092464
18	0xc02d6997	-2.7095697
19	0x3dbf8371	0.09351242
20	0x3f78342b	0.969546
21	0xbded8915	-0.11598412
22	0xbd66db44	-0.05636145
23	0xbf1c6a3a	-0.6109959
24	0xc04d1e71	-3.204983
25	0xbfe02586	-1.7511451
26	0xc030b9d6	-2.7613425
27	0xbf5919b3	-0.8480484
28	0x3ee81b6d	0.45333424
29	0x3d7c4139	0.06158564
30	0xbf9475d0	-1.1598454
31	0xbeb03625	-0.3441631

running_var f4 [32]
0	0x40be78a8	5.9522285
1	0x40a2a8b7	5.083095
2	0x4095328b	4.66242
3	0x413d163d	11.817929
4	0x41132ed2	9.198931
5	0x40c6bc22	6.2104654
6	0x40d21496	6.565013
7	0x41342f96	11.261618
8	0x4105ae34	8.35503
9	0x4092af3e	4.583892
10	0x41027166	8.152685
11	0x40d19126	6.5489683
12	0x417f912d	15.972943
13	0x40bbefd2	5.873025
14	0x40b3dafc	5.6204815
15	0x409fc05e	4.9922323
16	0x40a3d5cd	5.1198487
17	0x40a179e3	5.0461287
18	0x40923fb6	4.570277
19	0x4100bc99	8.046044
20	0x40a62bbb	5.192838
21	0x412a8e32	10.659716
22	0x41318e06	11.097174
23	0x40a8b5a6	5.272174
24	0x409e8f77	4.955013
25	0x40a0f4cd	5.029883
26	0x40905eb8	4.5115623
27	0x40c646de	6.196151
28	0x40c0646d	6.012259
29	0x40e1428f	7.039375
30	0x410ceb15	8.807393
31	0x40c81f31	6.2538075
