models/testing_differentconvmixer/testing_differentconvmixer_286_128.pt (torch_old, 473529 bytes, 17 tensors)

weight f4 [64, 1, 3, 3]
0.03651597 0.12586208 -0.11280299 -0.3214831 -0.40602094 0.478868 0.29335222 0.11609024
-0.36504933 0.5266861 -0.15044643 0.26602668 -0.12417786 -1.2105439 0.023315378 0.30746752
-0.08769482 0.51640046 -0.7109026 0.79648644 0.1959156 -0.16648781 -0.5619149 -0.12169762
0.65368134 -0.17529058 -0.1296387 -0.65534586 0.6742745 0.26223746 -0.31146273 0.15488696
-0.037034605 0.75946105 -0.992686 -0.02678153 -0.30164635 -0.14475808 0.45762807 -0.59187436
-0.17275663 0.7812393 -0.2050088 -0.27479017 0.50232255 0.23458931 -0.3320344 0.0871076
-0.3049877 -0.9375835 1.3659827 0.32318047 -0.26859304 0.009918175 0.91246045 -0.14275536
0.07584341 0.30751395 -0.4209578 -0.58162 0.5846447 -0.51795757 -0.16301668 0.09669791
0.0070792446 -0.059632063 -0.08496019 -0.28280312 0.29368657 -0.019487405 0.26310003 -0.24955878
0.6077171 0.28654143 -0.1412269 0.12393961 -0.16527377 -0.5027362 -0.38687143 -0.61358345
0.1135051 0.10402514 0.087779626 -0.21405436 -0.7502846 0.12384238 0.714481 0.64480406
-0.18471973 -0.50286937 0.3110146 0.3533561 -0.7167875 -0.73490834 -0.07738618 0.88882
0.3983515 -0.35992107 -0.15818663 -0.31926522 0.29178664 -0.06683184 0.3942391 0.5895792
-0.5711158 -0.06613781 -0.7133256 0.48521027 0.070785806 0.7474773 -0.7291513 0.046140455
-0.49312449 0.041045103 -0.008653571 -0.6819492 0.73040605 -0.12749246 0.45346242 -0.56500924
-0.17064784 0.4495371 -0.3995316 -0.13382196 0.261891 -0.18921743 0.03530432 -0.20349108
0.26644924 -0.40619242 -0.8829922 -0.4194953 0.45785272 1.223508 0.12038441 -0.027251191
-0.038461477 0.39674377 -0.08139179 -1.2270081 -0.23189671 0.39821884 0.051382806 0.07906272
0.12673692 -0.7049151 0.64722395 -0.04023992 0.19301996 -0.22286938 -0.24966893 0.527375
-0.3884072 -0.25057647 0.31512496 -0.28090742 0.15748689 -0.29142275 0.24516498 0.085413754
-0.15325524 0.060380306 -0.15343204 -0.2528666 -0.041008756 -0.5375889 -0.5997749 -0.54668224
0.6100732 0.8183397 0.44600576 0.15261057 -0.112528756 -0.013413945 0.119684644 -0.62391496
0.38058272 -0.297538 0.71383345 -0.36528602 -0.19666448 -0.23087297 -0.34323645 0.3332692
0.30235535 0.6811035 -0.12606381 -0.20174772 -0.37010843 0.46345228 0.38216066 -0.17472757
-0.2914186 -0.4312757 -0.6680406 -0.17751962 0.041257836 0.7937385 1.1098428 -0.6632238
-0.6525272 -0.30851826 -0.21721554 0.4001002 -0.85055554 0.5691997 0.50432116 0.11598524
-0.1265272 -0.0398829 -0.8418474 0.24337451 0.60444707 0.61253405 0.08176974 -0.7399062
-0.27266896 -0.37928092 0.5760307 0.3135092 -0.53627425 0.07727375 0.41118369 -0.037350878
-0.10427731 -0.14906749 0.25160888 -0.15555719 0.19838178 -0.44919223 0.27475312 -0.09131928
0.1964499 -0.13076083 -1.1274239 -0.7501297 0.1896496 -0.44986027 -0.032589126 0.259163
0.34809518 0.0514805 0.5232218 0.26758826 0.33661857 -0.59655964 0.29537374 -0.06905135
-0.38248137 -0.61389565 -0.20355059 0.76108205 -0.018524133 0.11996169 -0.1044299 0.31074047
00000000: c591 153d fde1 003e 4105 e7bd 6f99 a4be
00000010: fae1 cfbe 302e f53e 4332 963e b8c0 ed3d
00000020: bfe7 babe e6d4 063f a10e 1abe a634 883e
00000030: f650 febd 1af3 9abf e4ff be3c 626c 9d3e
00000040: 5799 b3bd d232 043f b6fd 35bf 89e6 4b3f
00000050: 199e 483e c87b 2abe a8d9 0fbf 9a3c f9bd
00000060: a957 273f 607f 33be 02c0 04be bfc4 27bf
00000070: 419d 2c3f fd43 863e 0b78 9fbe b09a 1e3e
00000080: 99b1 17bd 0a6c 423f ab20 7ebf f064 dbbc
00000090: 6471 9abe 763b 14be 3a4e ea3e 1485 17bf
000000a0: 1de7 30be 4cff 473f d4ed 51be 4cb1 8cbe
000000b0: 3698 003f 2e38 703e 6a00 aabe 7865 b23d
000000c0: 5927 9cbe 7905 70bf 85d8 ae3f e977 a53e
000000d0: 0785 89be d77f 223c 0297 693f 762e 12be
000000e0: ca53 9b3d 7872 9d3e c887 d7be 0ce5 14bf
000000f0: 46ab 153f de98 04bf d8ed 26be 8e09 c63d
00000100: 02f9 e73b c040 74bd 9cff adbd 92cb 90be
00000110: 165e 963e 0da4 9fbc 0cb5 863e 568c 7fbe
00000120: 5993 1b3f 8fb5 923e c99d 10be 0dd4 fd3d
00000130: 873d 29be 52b3 00bf 0314 c6be ce13 1dbf
00000140: 5d75 e83d 220b d53d cec5 b33d 1131 5bbe
00000150: a712 40bf 13a1 fd3d 3ae8 363f e111 253f
00000160: 2b27 3dbe 0cbc 00bf 4e3d 9f3e 17eb b43e
00000170: 637f 37bf f422 3cbf a57c 9ebd b589 633f
00000180: baf4 cb3e 9347 b8be adfb 21be bb76 a3be
00000190: 0f65 953e 22df 88bd b5d9 c93e aaee 163f
000001a0: a534 12bf 4373 87bd 829c 36bf 7b6d f83e
000001b0: 26f8 903d ac5a 3f3f a9a9 3abf c6fd 3c3d
000001c0: d07a fcbe e91e 283d b5c7 0dbc 3994 2ebf
000001d0: e4fb 3a3f 628d 02be 3a2c e83e 72a4 10bf
000001e0: 4fbe 2ebe ba29 e63e 688f ccbe a008 09be
000001f0: 9416 863e 37c2 41be 439b 103d f75f 50be
00000200: 096c 883e 74f8 cfbe c70b 62bf 17c8 d6be
00000210: ac6b ea3e e99b 9c3f 1a8c f63d e43d dfbc
00000220: c889 1dbd 0022 cb3e bdb0 a6bd 9a0e 9dbf
00000230: 5576 6dbe 57e3 cb3e c776 523d a3eb a13d
00000240: 53c7 013e 5175 34bf 78b0 253f 9dd2 24bd
00000250: 06a7 453e df37 64be 36a9 7fbe 0c02 073f
00000260: 4fdd c6be 8f4b 80be 0f58 a13e 19d3 8fbe
00000270: 3e44 213e 5d35 95be 870c 7b3e 68ed ae3d
00000280: f1ee 1cbe 5751 773d 4a1d 1dbe bb77 81be
00000290: ccf8 27bd 6d9f 09bf d98a 19bf 5ef3 0bbf
000002a0: c22d 1c3f b67e 513f de5a e43e f245 1c3e
000002b0: 7a75 e6bd 2ac6 5bbc 391d f53d e4b8 1fbf
000002c0: bddb c23e e756 98be cabd 363f c506 bbbe
000002d0: 6a62 49be f769 6cbe b0bc afbe 43a2 aa3e
000002e0: 52ce 9a3e cd5c 2e3f df16 01be f496 4ebe
000002f0: da7e bdbe 9e49 ed3e 90aa c33e c9eb 32be
00000300: d234 95be 2bd0 dcbe b504 2bbf b4c7 35be
00000310: fafd 283d 7232 4b3f 540f 8e3f 09c9 29bf
00000320: 060c 27bf 1bf6 9dbe c06d 5ebe efd9 cc3e
00000330: 02be 59bf 12b7 113f 311b 013f ab89 ed3d
00000340: 5990 01be 405c 23bd 5083 57bf 2b37 793e
00000350: 0bbd 1a3f 08cf 1c3f e576 a73d 7e6a 3dbf
00000360: 449b 8bbe 1c31 c2be bf76 133f 4784 a03e
00000370: 4549 09bf b341 9e3d ab86 d23e 3cfd 18bd
00000380: 588f d5bd 26a5 18be e1d2 803e 624a 1fbe
00000390: 9824 4b3e 86fc e5be 71ac 8c3e 9a05 bbbd
000003a0: 2a2a 493e 2be6 05be 6d4f 90bf 8008 40bf
000003b0: 8133 423e 1654 e6be 2d7c 05bd 03b1 843e
000003c0: 8839 b23e 37dd 523d ddf1 053f 5401 893e
000003d0: 4559 ac3e 22b8 18bf 3a3b 973e cb6a 8dbd
000003e0: 99d4 c3be 4428 1dbf 916f 50be 46d6 423f
000003f0: ecbf 97bc 79ae f53d 58df d5bd 6019 9f3e

weight f4 [64, 64, 3, 3]
-0.3856451 0.24519262 0.6025942 0.21963929 0.19418348 0.30153844 0.1359474 -0.37802818
0.2822661 -0.47325683 0.7363998 0.60477495 -0.03132307 -0.13817644 0.5291838 -0.15585473
0.47344953 0.17375661 -1.0590103 -0.8626598 0.59760433 0.6738991 -0.47145805 0.4068918
-0.6354973 -0.32019013 -0.81247914 -0.74047995 -0.43289933 0.24913819 -0.5630369 -1.0293195
-0.71067125 0.026132211 0.13941602 -1.1894714 -0.23092847 -0.73337185 0.90471184 0.21656984
0.47396597 0.18207905 0.047922272 0.009083837 0.10593137 -0.64637244 0.38455975 1.4900241
0.713314 0.22815856 1.1747956 -0.35900563 0.2890629 1.1237355 -0.15975685 -0.2583545
-0.77398807 0.018374758 -0.80307174 -1.6649476 -0.20223138 -1.2284806 -0.46797594 0.007536926
0.1633185 0.2571516 -0.12041964 0.3621025 -0.30199677 0.2288066 0.22203961 0.11926186
0.38306463 -0.4808624 -0.40457085 0.34942454 0.3793457 0.17491525 0.8538618 -0.32689992
-0.14235806 -0.49578133 0.6527127 0.5905054 0.4011877 -0.1905948 0.30747494 -0.030108435
0.19430096 0.20747541 -0.8627125 0.6152183 -0.15581037 -0.22883724 -0.008536725 0.3065669
-0.20604119 -0.49559015 -0.4373445 0.2602729 -0.25790805 -0.69409615 -0.51952267 0.4063028
0.06357336 0.039768245 -0.2690596 -0.057052214 0.77507305 -0.37967283 -0.38210747 -0.24263313
0.5453009 0.16924201 0.75043035 -0.031319484 0.1927723 0.20915054 0.32939324 0.8274643
-1.1354024 0.28030238 0.5398385 0.07037137 0.6097349 0.36361372 0.41017857 0.32636067
-0.66650194 -0.36992067 0.05673053 -0.51244557 -0.31551453 -0.13456438 0.05726683 -0.0015154313
0.11354342 0.82268566 0.211858 0.24514082 0.027856968 -0.36025846 0.38793617 0.1432239
-0.31967646 0.19539285 0.08722771 -0.4952221 0.23004237 -0.50252503 -0.41326728 0.4377985
-0.3284041 -0.06990746 0.08657028 0.33959785 0.18297821 0.010338259 0.22495748 0.32627168
-0.14137684 -0.019490309 -0.44927576 -0.07246555 0.7422258 0.59976315 0.27795196 0.16882558
0.81211793 0.64914435 0.70624125 -0.12222772 -0.23863299 0.6972055 -0.09388873 0.17993104
-0.972132 0.0082329735 0.7414686 0.31255165 0.015581173 -0.35679632 -0.008584074 -0.41762167
-0.114691965 0.6737379 0.85462636 0.083749525 0.83254945 -0.94740564 -0.77592695 0.24236707
-0.036985602 0.47784346 -0.76809955 0.02157306 -0.46704447 0.5911141 0.013420953 -0.31445637
0.4176339 0.048704173 -0.9801705 0.479657 0.4375388 -0.19409725 0.7715719 -0.04708575
1.002151 0.08681223 -0.0044993022 -0.6228999 -0.270075 0.06621162 0.5445748 0.40705562
0.24347882 -0.33174226 0.70399857 0.097914204 0.52996653 0.1467291 -0.34721714 -0.11955343
-0.23131467 -0.11611478 -0.18316038 0.19205055 0.24928717 0.12422622 -0.27282417 0.020318307
-0.1055705 -0.028291592 -0.47381324 -0.11636379 -0.51740533 -0.13437195 -0.29659986 -0.5999457
-0.85228676 -0.6178958 -0.188459 0.6668669 -0.37167704 0.047667738 -0.039192203 0.8439101
-0.12625669 0.4520609 0.48730937 0.4666989 0.023135986 0.4771973 0.63466173 0.73871756
00000000: 4673 c5be c613 7b3e 9d43 1a3f 1fe9 603e
00000010: 09d8 463e 3f63 9a3e cc35 0b3e e98c c1be
00000020: 2f85 903e b84e f2be b384 3c3f 88d2 1a3f
00000030: 9f4c 00bd 207e 0dbe 9778 073f 6298 1fbe
00000040: fa67 f23e 41ed 313e a68d 87bf 46d7 5cbf
00000050: 99fc 183f a784 2c3f f362 f1be 1f54 d03e
00000060: f3af 22bf f6ef a3be a2fe 4fbf 1890 3dbf
00000070: fba4 ddbe 151e 7f3e 3023 10bf bec0 83bf
00000080: 8dee 35bf 3813 d63c 13c3 0e3e 9940 98bf
00000090: 8378 6cbe 42be 3bbf 329b 673f 7cc4 5d3e
000000a0: abab f23e ee72 3a3e 254a 443d 60d4 143c
000000b0: 8cf2 d83d aa78 25bf 04e5 c43e 1cb9 be3f
000000c0: bf9b 363f 66a2 693e b45f 963f 96cf b7be
000000d0: 0d00 943e 91d6 8f3f 4d97 23be 0b47 84be
000000e0: 1524 46bf a986 963c 1c96 4dbf 011d d5bf
000000f0: be15 4fbe da3e 9dbf 8b9a efbe 51f8 f63b
00000100: f73c 273e 60a9 833e 929e f6bd 8065 b93e
00000110: 529f 9abe 474c 6a3e 5a5e 633e 903f f43d
00000120: 0c21 c43e 9933 f6be e923 cfbe c6e7 b23e
00000130: 9939 c23e fc1c 333e b096 5a3f 6d5f a7be
00000140: 50c6 11be 0dd7 fdbe 2e18 273f 5d2b 173f
00000150: 7968 cd3e 492b 43be 5b6d 9d3e f7a5 f6bc
00000160: d5f6 463e 6f74 543e bada 5cbf f27e 1d3f
00000170: c18c 1fbe 4f54 6abe 9fdd 0bbc 56f6 9c3e
00000180: 76fc 52be febd fdbe 9eeb dfbe 7d42 853e
00000190: 860c 84be 49b0 31bf 70ff 04bf ec06 d03e
000001a0: c032 823d 07e4 223d 2ec2 89be 95af 69bd
000001b0: 306b 463f 7a64 c2be 97a3 c3be d274 78be
000001c0: d798 0b3f c74d 2d3e 341c 403f dc48 00bd
000001d0: 1a66 453e 8f2b 563e 3ba6 a83e b3d4 533f
000001e0: de54 91bf cb83 8f3e db32 0a3f dd1e 903d
000001f0: 9617 1c3f 942b ba3e ed02 d23e bf18 a73e
00000200: df9f 2abf 3e66 bdbe 465e 683d a22f 03bf
00000210: 1f8b a1be 3fcb 09be a090 6a3d 70a1 c6ba
00000220: 7489 e83d 879b 523f 4ef1 583e 3206 7b3e
00000230: 4c34 e43c cc73 b8be 929f c63e 49a9 123e
00000240: a2ac a3be 1015 483e 71a4 b23d c08d fdbe
00000250: 3a90 6b3e 7ba5 00bf c597 d3be 2027 e03e
00000260: 9524 a8be a42b 8fbd c24b b13d c5df ad3e
00000270: a45e 3b3e cd61 293c 415b 663e 150d a73e
00000280: 17c5 10be 24aa 9fbc 7907 e6be d168 94bd
00000290: 8302 3e3f 148a 193f b84f 8e3e 9de0 2c3e
000002a0: f6e6 4f3f 532e 263f 3acc 343f 8752 fabd
000002b0: 355c 74be 0f7c 323f bc48 c0bd d83f 383e
000002c0: a5dd 78bf 98e3 063c e3d0 3d3f c506 a03e
000002d0: 2d48 7f3c 02ae b6be 37a4 0cbc 82d2 d5be
000002e0: 9fe3 eabd 167a 2c3f cbc8 5a3f df84 ab3d
000002f0: f621 553f 2d89 72bf 26a3 46bf 132f 783e
00000300: 377e 17bd e6a7 f43e 2ca2 44bf fcb9 b03c
00000310: 7420 efbe 4153 173f 8fe3 5b3c 6d00 a1be
00000320: 1cd4 d53e 077e 473d 74ec 7abf 9a95 f53e
00000330: 1605 e03e 6ec1 46be bc85 453f fddc 40bd
00000340: 7c46 803f 9cca b13d e26e 93bb 5e76 1fbf
00000350: 4547 8abe f599 873d 4169 0b3f 9869 d03e
00000360: 8352 793e 1fda a9be 4039 343f 3e87 c83d
00000370: e3ab 073f 2740 163e 72c6 b1be 6ed8 f4bd
00000380: c1dd 6cbe 96cd edbd 658e 3bbe e6a8 443e
00000390: 2345 7f3e 516a fe3d 9caf 8bbe 9472 a63c
000003a0: 5935 d8bd c5c3 e7bc a697 f2be 2450 eebd
000003b0: ad74 04bf cd98 09be f0db 97be 0b96 19bf
000003c0: 772f 5abf 6b2e 1ebf 65fb 40be cab7 2a3f
000003d0: 744c bebe 3f3f 433d 0188 20bd 7e0a 583f
000003e0: 6f49 01be 8774 e73e 9d80 f93e 29f3 ee3e
000003f0: ae87 bd3c 3453 f43e 3179 223f 981c 3d3f

weight f4 [64]
0.5618688 0.7442127 0.53122514 0.43172866 0.61637306 0.8315256 0.5375372 0.52600735
0.96477646 0.5999543 0.51915586 0.33043563 0.5552251 0.6957141 0.7194053 0.6881972
0.69377595 0.4680292 0.70466155 0.68885034 0.54349434 0.79030514 0.6611901 0.5873504
0.8736139 0.8928525 0.95179886 0.63167256 0.74424547 0.61851275 0.5736957 0.80406934
0.8707743 0.7189521 0.6421685 0.39992502 0.6177194 1.4666133 0.52352273 0.63382757
1.0852691 0.53643996 0.59625983 -0.5690673 0.6838162 1.0453322 0.5612812 0.7066264
0.5954578 0.53590876 0.6184219 0.4944278 -0.47015515 0.49174342 0.67771083 0.46193326
0.63070226 0.45930666 0.79559696 0.60136265 0.5455192 0.80291677 0.5944816 0.5776299
00000000: a2d6 0f3f b984 3e3f 5ffe 073f 8a0b dd3e
00000010: a0ca 1d3f ddde 543f 0a9c 093f 6ba8 063f
00000020: 97fb 763f 9b96 193f 66e7 043f dc2e a93e
00000030: 3b23 0e3f 521a 323f f22a 383f b12d 303f
00000040: 4d9b 313f 86a1 ef3e b364 343f 7f58 303f
00000050: 7222 0b3f 7051 4a3f c143 293f 995c 163f
00000060: 29a5 5f3f fb91 643f 17a9 733f 4bb5 213f
00000070: df86 3e3f da56 1e3f b9dd 123f 7dd7 4d3f
00000080: 11eb 5e3f 3f0d 383f 2865 243f f9c2 cc3e
00000090: dc22 1e3f fcb9 bb3f 9605 063f 8642 223f
000000a0: 19ea 8a3f 2154 093f 7ca4 183f 65ae 11bf
000000b0: 940e 2f3f 72cd 853f 20b0 0f3f 78e5 343f
000000c0: ec6f 183f 5131 093f e650 1e3f a425 fd3e
000000d0: 2db8 f0be cbc5 fb3e 757e 2d3f 8482 ec3e
000000e0: b475 213f 3e2a eb3e 3eac 4b3f e7f2 193f
000000f0: 25a7 0b3f f48b 4d3f f22f 183f 8edf 133f

bias f4 [64]
0.13730733 -0.16191499 -0.23954588 -0.6400378 -0.027594311 -2.3644736 -0.025888812 0.17625923
-1.0141784 -0.19970106 0.03320841 -0.1508978 -0.2414847 0.09780302 -0.35767618 -0.43211865
-0.22451536 -0.11578818 -0.36694232 0.32365125 -0.30719042 -1.12783 0.10043579 -0.14142889
-0.72332186 0.28397897 -0.48819357 -0.12803927 0.11124009 0.17439522 -0.32152152 -0.27165747
0.3198831 0.1736588 0.05091782 -0.3584839 -0.16580623 -1.9534434 -0.20726444 0.0022162097
-1.4208252 -0.20481639 0.39028528 -0.50169307 -0.08679672 -1.1202385 0.013624265 -0.5189208
-0.29649866 -0.07201336 -0.24713303 -0.2166614 -0.43197176 -0.31681493 -0.3179395 -0.39061227
-0.34801924 -0.21714182 -0.3688101 -0.7554107 0.004359354 -1.2261474 -0.1541371 -0.8343404
00000000: 4b9a 0c3e 0bcd 25be 844b 75be 84d9 23bf
00000010: 770d e2bc 8953 17c0 c614 d4bc 4d7d 343e
00000020: 99d0 81bf 6f7e 4cbe 8b05 083d f484 1abe
00000030: c447 77be f34c c83d 5521 b7be a83e ddbe
00000040: 5be7 65be 5a22 edbd dddf bbbe 9eb5 a53e
00000050: 1048 9dbe bc5c 90bf 48b1 cd3d bcd2 10be
00000060: 9f2b 39bf b165 913e 82f4 f9be ba1c 03be
00000070: d8d1 e33d a994 323e 789e a4be b016 8bbe
00000080: b8c7 a33e 9dd3 313e 348f 503d 348b b7be
00000090: 1cc9 29be 6f0a fabf 213d 54be d43d 113b
000000a0: 9add b5bf 63bb 51be 79d3 c73e f56e 00bf
000000b0: 7bc2 b1bd fa63 8fbf 4f38 5f3c fed7 04bf
000000c0: acce 97be be7b 93bd 7110 7dbe 7cdc 5dbe
000000d0: 672b ddbe 9135 a2be f7c8 a2be 55fe c7be
000000e0: 942f b2be 6d5a 5ebe add4 bcbe 9862 41bf
000000f0: e9d8 8e3b 66f2 9cbf 1ed6 1dbe 5597 55bf

running_mean f4 [64]
-0.40171048 -0.2472198 -0.10557731 -0.038830236 -0.5887384 1.2191424 0.057820894 -0.09063889
-1.1982522 -0.15557401 -0.067779675 -0.09046438 -0.30859768 -0.093871 0.21973902 -0.07850134
-0.1280078 -0.08146283 0.28306672 -0.5475925 -0.24166492 -1.4509746 -0.08015273 -0.2790237
-0.6450058 -0.7066305 -1.4841001 -0.1687675 -0.18566748 -0.19225466 -0.19542967 -0.1487853
-0.644866 -0.30368352 -0.16542503 -0.119103536 -0.08748508 2.6833782 -0.099435076 -0.33831838
-1.5559065 -0.0748694 -0.09919017 -0.21507925 -0.15267235 1.6288685 -0.1736907 -0.60728157
-0.18193863 -0.10235305 0.08140701 -0.13594246 -0.48990583 -0.19360057 -0.46488625 -0.36965367
-0.20921995 -0.08115782 1.4012119 0.8137324 -0.10595821 -1.0964215 -0.16595022 -0.49528912
00000000: ffac cdbe 3027 7dbe eb38 d8bd 740c 1fbd
00000010: 8fb7 16bf dc0c 9c3f 9ad5 6c3d e2a0 b9bd
00000020: 5460 99bf cb4e 1fbe 12d0 8abd 6445 b9bd
00000030: 8400 9ebe 703f c0bd 4403 613e 4fc5 a0bd
00000040: 7a14 03be fcd5 a6bd 1fee 903e 062f 0cbf
00000050: 0277 77be 89b9 b9bf 1d27 a4bd 32dc 8ebe
00000060: 1a1f 25bf bde5 34bf fef6 bdbf 63d1 2cbe
00000070: 9e1f 3ebe 68de 44be b71e 48be 2c5b 18be
00000080: f015 25bf 687c 9bbe 2e65 29be 8eec f3bd
00000090: 612b b3bd 78bc 2b40 9ea4 cbbd 1138 adbe
000000a0: f227 c7bf 2155 99bd 3724 cbbd bc3d 5cbe
000000b0: 2456 1cbe c37e d03f fadb 31be ce76 1bbf
000000c0: 1f4e 3abe 7a9e d1bd b8b8 a63d 8034 0bbe
000000d0: f0d4 fabe 3a3f 46be 9205 eebe 3f43 bdbe
000000e0: c13d 56be 1236 a6bd e95a b33f c450 503f
000000f0: 9e00 d9bd 8a57 8cbf dbee 29be 8996 fdbe

running_var f4 [64]
0.22264954 0.27139515 0.18901946 0.08085565 0.20541017 0.34111223 0.13447028 0.13989168
0.3711594 0.14140928 0.16472249 0.096557476 0.113322265 0.24974032 0.25629404 0.20878272
0.18660684 0.07533576 0.29151988 0.23470913 0.07299589 0.52773166 0.20478287 0.2228151
0.24343966 0.2877896 0.40074602 0.20893519 0.21719433 0.18523416 0.08697452 0.17039502
0.33604822 0.22925824 0.20435429 0.11055368 0.3309258 1.2454054 0.12323962 0.18008722
0.47347924 0.112786055 0.12782013 0.20896608 0.14206544 0.5622415 0.16846329 0.21780707
0.23729412 0.1213964 0.16398221 0.085823976 0.21503934 0.071827576 0.21719876 0.10438271
0.21897128 0.0807485 0.38239488 0.15700063 0.1788762 0.22367898 0.13025963 0.28192532
00000000: 3efe 633e 4ef4 8a3e 518e 413e a697 a53d
00000010: 0b57 523e 43a6 ae3e 94b2 093e c43f 0f3e
00000020: 9b08 be3e 98cd 103e 03ad 283e edbf c53d
00000030: 8115 e83d edbb 7f3e f938 833e 23cb 553e
00000040: dd15 3f3e a349 9a3d 1842 953e 9757 703e
00000050: df7e 953d 6c19 073f 9ab2 513e a429 643e
00000060: 3f48 793e 2959 933e 952e cd3e 1bf3 553e
00000070: 3168 5e3e 06ae 3d3e b21f b23d 087c 2e3e
00000080: 830e ac3e acc2 6a3e 4042 513e f869 e23d
00000090: 1b6f a93e 7269 9f3f 0e65 fc3d c968 383e
000000a0: df6b f23e 60fc e63d 48e3 023e 34fb 553e
000000b0: 9a79 113e 0fef 0f3f a481 2c3e d108 5f3e
000000c0: 3bfd 723e ad9e f83d f4ea 273e 7bc4 af3d
000000d0: 4633 5c3e 561a 933d 5a69 5e3e 9ac6 d53d
000000e0: 023a 603e 785f a53d 43c9 c33e c6c4 203e
000000f0: 532b 373e 1a0c 653e c862 053e 8458 903e

weight f4 [64, 64, 3, 3]
-0.25760242 0.089062184 -0.34809086 -0.028680628 -0.43133283 0.011566537 -0.29615512 0.6324509
-0.47306472 0.031622965 -0.4315225 -0.073176 0.004643258 0.13250437 0.32617286 0.49930903
0.47685918 0.32497108 -0.31097558 -0.9951719 -0.22868861 0.89642066 0.14332074 0.4637958
0.42948335 0.084001146 0.18860072 0.25450617 -0.88797164 -0.28402373 -0.8211485 -0.8117701
0.54777116 0.051244006 -0.5816444 0.3696291 -0.24156943 -0.44628346 -0.41761756 -0.02567364
0.7916111 0.34763372 0.18302195 -0.570837 -0.66897166 1.014461 0.79611385 0.21172339
0.19801193 -0.4653674 0.052808095 -0.26730204 0.080778286 0.26502547 -0.22855681 0.50312704
0.7851149 -0.020483235 0.006982761 0.03101332 -0.6078536 -0.40015277 -0.14495067 -0.18302545
0.5273761 -0.3147694 -0.38246596 -0.6955956 0.08866384 -0.72168314 -0.123254925 0.15350465
0.094478235 -0.3584129 0.10851605 0.72447497 -0.6959025 0.6307577 -0.4477588 -0.5599349
-0.2297051 0.065930955 -0.25947216 0.2142031 -0.14551228 -0.25142172 -0.5805685 -0.3760359
-0.2983314 -0.22616719 0.5664224 0.37000933 -0.0795786 -0.21525984 0.26171955 -0.5590002
-0.13344185 -0.4545754 -0.748668 -0.6414058 0.24227518 0.11658258 0.20750315 -0.17382339
-0.12792194 0.50487506 -0.5222344 -0.75241435 -0.040761895 -0.34213758 0.025152935 0.18263724
-1.4536638 0.12841529 -0.08659643 -0.7715116 -0.3584554 -0.44801295 -0.3422559 0.28414613
-0.47926766 0.3007868 -0.019845374 0.072205506 0.17273791 0.009950349 0.12266609 0.0704775
0.66384745 0.41271833 0.6123565 0.74365485 -0.53823286 0.82918763 -0.31993714 -0.4115713
0.18306246 -0.9035159 -0.60929954 0.6959247 0.46594226 -0.29617804 -0.17490795 -0.73093635
0.10045428 0.93001366 0.22906949 0.08161038 0.074137844 -0.16311814 -0.28994924 -0.21133226
0.16728505 -0.7791468 0.13092203 -0.19183983 -0.23300558 -0.089306325 -0.13102221 -0.3394705
-0.060205974 -0.30021375 -1.1715363 0.51236457 -0.03391515 1.0808679 0.30594233 0.32669416
0.14199233 -0.35511953 -0.50454915 -0.6326609 0.23427776 -0.48687226 -0.6631627 0.81430995
0.6478117 0.19213948 0.10880492 0.10466591 0.3474065 0.071150094 -0.35352293 -0.21985044
-0.35886714 -0.13154458 -0.30024657 0.31994203 -0.14226697 0.82335037 0.75890404 -0.3930358
0.6589558 0.23737738 0.23544148 1.3143557 0.26762608 -0.23799229 -0.109327696 1.1785237
0.15673497 0.52396554 0.52547306 -0.1546059 -0.13915408 -1.2313391 -0.17104521 -0.027061282
-0.106642365 -0.09922162 -0.2805706 -0.21401727 0.08279175 0.7320655 -0.15717344 0.0013085232
0.26442787 0.5025283 0.12962866 -0.21936655 0.033586327 -0.3678364 -0.15557116 -0.021497142
0.16125996 -0.2889547 -0.08149086 -0.22993043 -0.43469957 1.6988657 0.3253988 -0.05538544
0.37644222 -0.69952244 0.30101663 -0.050027497 -0.2263269 -0.11098769 0.38641715 -0.055667225
0.13307475 0.8764572 0.33113793 -0.038588293 -0.05106762 -0.00031242546 -0.27364963 -0.6143783
0.17107123 -0.41604662 -0.002376371 -0.33714554 -0.99388695 -0.41311863 -0.13862604 0.08083707
00000000: 77e4 83be 3c66 b63d f738 b2be a3f3 eabc
00000010: a8d7 dcbe 9381 3d3c a5a1 97be 4de8 213f
00000020: 8a35 f2be 1587 013d 84f0 dcbe 4cdd 95bd
00000030: 7926 983b 3aaf 073e 2100 a73e 6fa5 ff3e
00000040: e326 f43e 9c62 a63e 3138 9fbe 96c3 7ebf
00000050: 592d 6abe d37b 653f acc2 123e a576 ed3e
00000060: 3ee5 db3e cb08 ac3d 8c20 413e a24e 823e
00000070: 1c52 63bf 8f6b 91be ca36 52bf 2ad0 4fbf
00000080: bb3a 0c3f 3ce5 513d a6e6 14bf 0740 bd3e
00000090: fa5d 77be 447f e4be f8d1 d5be 8751 d2bc
000000a0: 06a7 4a3f 0cfd b13e 1b6a 3b3e 6022 12bf
000000b0: ba41 2bbf dcd9 813f 1ece 4b3f 04ce 583e
000000c0: a4c3 4a3e a344 eebe 4d4d 583d d0db 88be
000000d0: 166f a53d 6bb1 873e cc0a 6abe efcc 003f
000000e0: 4afd 483f 75cc a7bc a5cf e43b a50f fe3c
000000f0: 4b9c 1bbf d3e0 ccbe f36d 14be 066b 3bbe
00000100: 1f02 073f 7429 a1be 94d2 c3be 8e12 32bf
00000110: 6395 b53d 3ac0 38bf 146d fcbd 5330 1d3e
00000120: ce7d c13d e581 b7be aa3d de3d 3177 393f
00000130: ab26 32bf 5679 213f a440 e5be e557 0fbf
00000140: d037 6bbe cf06 873d 89d9 84be 0f58 5b3e
00000150: 2c01 15be 59ba 80be 23a0 14bf c787 c0be
00000160: e5be 98be 5f98 67be 0f01 113f dd71 bd3e
00000170: 1bfa a2bd 136d 5cbe 1b00 863e a31a 0fbf
00000180: fba4 08be 1bbe e8be b5a8 3fbf 2c33 24bf
00000190: fc16 783e d9c2 ee3d b57b 543e c2fe 31be
000001a0: f8fd 02be 7e3f 013f 27b1 05bf 3a9e 40bf
000001b0: f2f5 26bd a82c afbe 870d ce3c 4205 3b3e
000001c0: a811 babf 4c7f 033e 7859 b1bd c981 45bf
000001d0: 7787 b7be f461 e5be 2a3c afbe 9a7b 913e
000001e0: 9262 f5be ba00 9a3e c492 a2bc 7be0 933d
000001f0: 35e2 303e ca06 233c 5c38 fb3d 8256 903d
00000200: e8f1 293f d14f d33e 65c3 1c3f 2a60 3e3f
00000210: a1c9 09bf a445 543f cdce a3be 79b9 d2be
00000220: ba74 3b3e d14c 67bf 0efb 1bbf 1f28 323f
00000230: fc8f ee3e a6a4 97be 121b 33be a51e 3bbf
00000240: f9ba cd3d 6015 6e3f 3191 6a3e 5823 a73d
00000250: 95d5 973d 7108 27be 3a74 94be 7c67 58be
00000260: c64c 2b3e 2a76 47bf 6d10 063e a971 44be
00000270: 0499 6ebe 3ce6 b6bd b02a 06be 14cf adbe
00000280: 8a9a 76bd 9eb5 99be e7f4 95bf 532a 033f
00000290: 9dea 0abd e159 8a3f 79a4 9c3e 7544 a73e
000002a0: 7066 113e 3ad2 b5be 222a 01bf 11f6 21bf
000002b0: 82e6 6f3e 5247 f9be 08c5 29bf 9e76 503f
000002c0: fdd6 253f 36c0 443e 1dd5 de3d 155b d63d
000002d0: 44df b13e 24b7 913d f500 b5be 7920 61be
000002e0: 6fbd b7be 9fb3 06be ebb9 99be 71cf a33e
000002f0: 6fae 11be 17c7 523f 8947 423f fd3b c9be
00000300: 54b1 283f 0e13 733e 9217 713e cf3c a83f
00000310: 4906 893e 40b4 73be 33e7 dfbd ddd9 963f
00000320: 227f 203e 9b22 063f 6785 063f 0251 1ebe
00000330: 687e 0ebe 859c 9dbf 7a26 2fbe 9faf ddbc
00000340: 5067 dabd b434 cbbd f3a6 8fbe 5827 5bbe
00000350: b98e a93d a568 3b3f 13f2 20be c182 ab3a
00000360: 1763 873e b2a5 003f 60bd 043e a0a1 60be
00000370: d191 093d 0d55 bcbe 0c4e 1fbe c61a b0bc
00000380: 5521 253e dff1 93be aee4 a6bd e272 6bbe
00000390: f190 debe 6e74 d93f ac9a a63e d8db 62bd
000003a0: 09bd c03e e713 33bf da1e 9a3e a2e9 4cbd
000003b0: 3dc2 67be 844d e3bd 78d8 c53e 5103 64bd
000003c0: bf44 083e 805f 603f e98a a93e c20e 1ebd
000003d0: 482c 51bd 09cd a3b9 ce1b 8cbe e547 1dbf
000003e0: 4c2d 2f3e 1004 d5be e4bc 1bbb 579e acbe
000003f0: 606f 7ebf 4984 d3be fcf3 0dbe e88d a53d

weight f4 [64]
0.83468074 0.7735017 0.5619479 0.59344584 0.5923932 0.5496393 0.41355753 0.811024
0.5366297 0.6438355 0.7634584 0.5080219 0.5860653 0.6289752 0.3325238 0.56580764
0.45370865 0.63727754 0.51189864 0.70790064 0.5506064 0.61613774 0.7835805 0.6140129
0.6153646 0.59648794 0.51604044 0.7368624 0.4989152 0.93168145 0.85266805 0.4188317
0.5482861 1.5235908 0.6408343 0.37626323 0.6443697 0.6840005 0.650815 0.43440947
0.627548 0.5005396 0.64192766 0.7456368 0.69208217 0.6618687 0.4648605 0.62458974
0.5592854 0.35061622 0.49596408 0.6941642 0.5250509 0.45458776 0.6933672 0.61201745
0.6198216 0.98498464 0.5073284 0.45441726 0.6902472 0.39042526 0.39750025 -0.7169183
00000000: a3ad 553f 3504 463f d1db 0f3f 11ec 173f
00000010: 15a7 173f 29b5 0c3f d0bd d33e 459f 4f3f
00000020: 9060 093f 67d2 243f 0272 433f b90d 023f
00000030: 6008 163f 8504 213f 8f40 aa3e c5d8 103f
00000040: 804c e83e 9f24 233f ca0b 033f fa38 353f
00000050: 8bf4 0c3f 34bb 1d3f bb98 483f f32f 1d3f
00000060: 8988 1d3f 6fb3 183f 3a1b 043f 04a3 3c3f
00000070: d071 ff3e ad82 6e3f 7448 5a3f 1c71 d63e
00000080: 7a5c 0c3f 0605 c33f b70d 243f 93a5 c03e
00000090: 6af5 243f a81a 2f3f d09b 263f eb6a de3e
000000a0: fca6 203f 5d23 003f 5f55 243f 0ee2 3e3f
000000b0: 4c2c 313f 3a70 293f 3202 ee3e 1de5 1f3f
000000c0: 542d 0f3f f883 b33e 01ef fd3e bfb4 313f
000000d0: bc69 063f babf e83e 8380 313f 2dad 1c3f
000000e0: a1ac 1e3f f427 7c3f 46e0 013f 61a9 e83e
000000f0: 0ab4 303f d2e5 c73e 2785 cb3e f587 37bf

bias f4 [64]
-0.95088917 -0.30959532 -0.1532248 0.11060788 -0.006108189 -0.09218018 -0.22690672 -0.0029055097
0.096442506 -1.0852164 -0.3695927 -1.0334119 -0.79896146 0.111449555 -0.03363875 -0.3644331
-0.06749968 -0.3208012 -0.3069409 0.08773206 -0.63071984 -0.5939046 -0.3749968 -0.37054116
-0.39550605 -0.41388163 -0.09148802 -0.29851535 -0.13769044 -0.16298947 -0.14805765 0.23200037
0.06627401 -2.5244982 -0.24537472 -0.22733103 -0.13274045 -0.5265795 -0.10251728 -0.25754398
0.07113879 -0.31038797 -0.76683646 -0.5838991 -0.7140552 -0.34907022 -0.33063266 -0.23633909
-0.4574208 -0.22294219 -0.22626929 0.026270147 0.07682905 -0.47815248 -0.75691074 -0.35334322
-0.19652964 -1.4959111 -0.67075855 -0.3594791 -0.15331015 -0.1698372 -0.16858637 -2.8528533
00000000: 796d 73bf 4783 9ebe f6e6 1cbe 6286 e23d
00000010: 3427 c8bb f6c8 bcbd 3c5a 68be 5d6a 3ebb
00000020: a683 c53d 5fe8 8abf 413b bdbe d746 84bf
00000030: bd88 4cbf aa3f e43d c9c8 09bd fa96 babe
00000040: 463d 8abd 0e40 a4be 5c27 9dbe deac b33d
00000050: db76 21bf 220a 18bf 95ff bfbe 92b7 bdbe
00000060: c57f cabe 4be8 d3be 125e bbbd 01d7 98be
00000070: b9fe 0cbe b6e6 26be 6d9c 17be 8191 6d3e
00000080: abba 873d 6191 21c0 8343 7bbe 77c9 68be
00000090: 1ded 07be eacd 06bf 94f4 d1bd cedc 83be
000000a0: 37b1 913d 2ceb 9ebe 654f 44bf 697a 15bf
000000b0: 52cc 36bf 55b9 b2be af48 a9be e002 72be
000000c0: 0f33 eabe f54a 64be 23b3 67be 7e34 d73c
000000d0: 8d58 9d3d 67d0 f4be e7c4 41bf 67e9 b4be
000000e0: 113f 49be 047a bfbf d5b6 2bbf a50d b8be
000000f0: 56fd 1cbe cee9 2dbe e8a1 2cbe 2695 36c0

running_mean f4 [64]
-3.7354698 8.224157 1.3450127 -3.5105996 -1.3249214 0.042180162 -2.8065298 -1.571103
-0.20313546 -0.4326792 1.273142 0.72568583 -0.23649657 -0.61687094 -0.6018642 -0.7416841
0.0064363847 -2.439066 1.2346226 -2.1216104 -1.3302355 0.37915948 1.530198 -4.245575
-1.0415963 0.45690885 -3.414611 -0.86479974 5.7201977 -2.4066074 -4.4058485 -1.7855005
4.090152 -0.8392261 -1.6374507 -1.1866109 -0.009204199 2.280867 0.5137331 1.1117003
-1.058185 0.3346157 1.9176157 0.44340345 1.6236585 0.3575962 -0.861134 -0.043717373
0.6951538 2.337342 -1.4880627 -0.9794509 3.955126 -3.209746 0.4465216 -0.26699156
2.1514795 -3.064106 -1.1032511 2.001273 -1.6406858 -0.41519883 -0.092343904 2.03565
00000000: f011 6fc0 2696 0341 6029 ac3f aaad 60c0
00000010: 0697 a9bf 1bc5 2c3d 2f9e 33c0 e719 c9bf
00000020: be02 50be 2188 ddbe 51f6 a23f 8cc6 393f
00000030: 282c 72be 41eb 1dbf c613 1abf 02df 3dbf
00000040: 4fe8 d23b a819 1cc0 1d08 9e3f 77c8 07c0
00000050: 2845 aabf 3121 c23e 87dd c33f c0db 87c0
00000060: 0753 85bf f5ef e93e fd88 5ac0 8463 5dbf
00000070: dc0b b740 db05 1ac0 b6fc 8cc0 488b e4bf
00000080: 86e2 8240 86d7 56bf fc97 d1bf dee2 97bf
00000090: 35cd 16bc baf9 1140 0384 033f 324c 8e3f
000000a0: 9b72 87bf c052 ab3e 6e74 f53f c705 e33e
000000b0: 0bd4 cf3f d916 b73e 4773 5cbf fd10 33bd
000000c0: 99f5 313f 0397 1540 d778 bebf 4bbd 7abf
000000d0: c920 7d40 7a6c 4dc0 7b9e e43e 1eb3 88be
000000e0: d7b1 0940 501a 44c0 5537 8dbf db14 0040
000000f0: fe01 d2bf f194 d4be cd1e bdbd 1748 0240

running_var f4 [64]
12.800862 13.27937 8.420877 9.807816 16.429464 8.325035 7.2635174 13.579692
10.503198 15.422992 7.798794 5.903846 10.84556 10.78158 5.361966 6.646497
8.261241 10.13747 7.2038517 12.805112 5.6053576 7.8210945 11.558208 11.173641
9.117707 6.0957437 8.957516 10.815796 6.526591 20.45422 16.93559 10.229459
8.130315 7.7310276 10.696142 5.9340816 11.9137535 6.926286 17.053968 8.174595
14.247513 7.1856303 10.2992525 9.086237 6.4365964 10.672733 6.8582187 9.879134
7.2905483 7.6480384 6.5231767 15.592375 9.411904 6.7464247 6.617677 9.39882
8.594057 24.670822 5.1009808 4.9834905 14.841631 5.797344 8.228112 9.7446575
00000000: 55d0 4c41 4d78 5441 eabb 0641 d0ec 1c41
00000010: 8b6f 8341 5833 0541 bc6e e840 6b46 5941
00000020: 190d 2841 93c4 7641 b88f f940 4eec bc40
00000030: 6a87 2d41 5a81 2c41 3a95 ab40 1ab0 d440
00000040: 0b2e 0441 1433 2241 f485 e640 bde1 4c41
00000050: 175f b340 6846 fa40 6cee 3841 3cc7 3241
00000060: 21e2 1141 5510 c340 fc51 0f41 800d 2d41
00000070: d5d9 d040 3ea2 a341 177c 8741 ddab 2341
00000080: c515 0241 9464 f740 6623 2b41 ffe3 bd40
00000090: bc9e 3e41 23a4 dd40 876e 8841 24cb 0241
000000a0: d0f5 6341 aff0 e540 bdc9 2441 3a61 1141
000000b0: 99f8 cd40 84c3 2a41 8776 db40 ef10 1e41
000000c0: 2c4c e940 bbbc f440 ddbd d040 5e7a 7941
000000d0: 2997 1641 b6e2 d740 03c4 d340 9161 1641
000000e0: 4281 0941 d85d c541 3c3b a340 c178 9f40
000000f0: 5277 6d41 d883 b940 59a6 0341 1eea 1b41

weight f4 [64, 64, 3, 3]
0.40329203 0.038946275 -0.49728203 -0.6830065 -0.5483297 -0.5320356 -0.34305957 -0.02202263
0.6092958 0.85883725 0.856186 0.59182125 0.22976811 -0.3366993 -0.22659245 1.5459832
0.47060958 0.61499864 -0.005423358 -0.5193573 -0.33606932 0.59517866 -0.09516751 0.46064132
0.16626365 -0.23298435 0.24545777 -0.4287176 -0.31261194 0.34710816 0.12952942 0.006921456
-0.090983994 0.053184386 0.9821518 0.24708568 -0.70825744 0.67902833 0.21381743 -0.92177993
0.3305717 0.15084215 -0.3049737 0.01760057 -0.13027574 0.20936826 -0.09859206 -0.032137923
-0.1574442 0.3008234 -0.43867138 -0.6111063 0.054668706 -0.14585151 -0.1749767 0.9084483
0.10887165 -0.121957466 0.5584032 0.0029471808 0.6978331 0.49355298 0.47630045 -0.06901212
-0.32433233 -0.10631044 -0.15507941 -0.12543355 -0.31459957 -0.38721475 -0.09252414 -0.39705315
-0.16621253 -0.6180829 0.3190074 0.24591908 -0.46328342 0.13433509 0.37595865 0.7176442
0.44899684 0.5641478 -0.48020023 -0.28672212 0.50574285 0.01839133 -0.13346972 -0.13714921
-0.7481914 -0.078220814 -0.571829 -0.1740389 0.035450026 0.13468759 -0.22608522 0.11770907
-0.41603658 -0.14191541 -0.24316394 -0.008863171 0.04580135 -0.09526986 0.18389696 0.26787496
0.35098282 -0.16825122 0.30231103 0.1569971 0.056945242 -0.102729395 0.033387445 0.7269738
0.74242264 0.19233504 0.17365117 0.44119534 -0.12429936 -0.56910133 0.117993146 -0.2624494
0.49375343 1.2225035 0.029998736 -0.14585799 0.59626025 0.06803485 0.036907148 0.03602029
0.050246887 0.31313136 0.30034897 -0.13163318 0.44814253 0.2154983 -0.39649045 0.025189066
0.08356235 -0.69644994 -0.39871526 0.5951863 -0.057762414 0.23599902 0.28430846 0.37714434
-0.079013735 0.1190979 0.3835453 -0.6256954 0.5119376 0.45561683 0.40173846 0.14851846
-0.7951703 0.21220377 0.0856349 -0.80536026 0.29802847 0.012268089 -0.08053658 0.7032286
0.04830936 -0.3997025 0.15518959 -0.12030876 0.17913067 0.09615703 0.57422805 0.31072375
0.0033507242 0.20714304 0.24443309 1.0041262 0.24031077 0.63083196 0.69074064 0.5061206
-0.21340606 -0.2929114 -0.13121273 0.022389082 0.25362235 -0.664781 -0.20472765 0.6031968
-0.35602346 0.049055416 -0.90184057 0.46510074 -0.5193756 0.56903267 0.36804307 -0.27557278
0.5692817 -0.26759154 0.32058963 -0.23890586 -0.0724093 -0.062085424 -0.37563527 -0.30602327
-0.3085132 0.03851412 -0.21229513 -0.16245131 -0.19219196 0.18180794 -0.5364618 0.2500626
-0.6617045 0.18108371 -0.091674216 0.100753814 0.1395155 0.39185292 0.6997498 0.34933165
-0.4796394 0.19155842 0.47894362 0.6996128 0.64438266 0.60547453 0.27060065 -0.5120644
-0.62553596 0.3645442 -0.38488683 0.25100824 0.6695041 -1.1478162 0.3964202 0.023032207
-0.17113353 -0.44386506 0.9179099 -0.2696636 0.31803012 0.983581 -0.07485494 -0.008257937
-0.49398118 0.17909451 -0.10224061 0.536793 -0.25100723 0.9077199 -0.17812884 -1.227314
-0.028867157 -0.16845664 -0.74022895 -0.021010404 -0.028760247 -0.031841975 -0.10326774 -0.5745576
00000000: 4b7c ce3e 2186 1f3d c09b febe 84d9 2ebf
00000010: 565f 0cbf 7c33 08bf 81a5 afbe cd68 b4bc
00000020: cffa 1b3f c2dc 5b3f 012f 5b3f 9981 173f
00000030: 5548 6b3e da63 acbe da07 68be c7e2 c53f
00000040: bdf3 f03e 8d70 1d3f 6db6 b1bb 9af4 04bf
00000050: 4711 acbe a15d 183f 2fe7 c2bd 2ed9 eb3e
00000060: 0541 2a3e 7393 6ebe 4859 7b3e e080 dbbe
00000070: ac0e a0be 29b8 b13e 5ca3 043e 62cd e23b
00000080: d155 babd dfd7 593d 4d6e 7b3f 0704 7d3e
00000090: 5c50 35bf cdd4 2d3f f5f2 5a3e c5f9 6bbf
000000a0: b240 a93e 5d76 1a3e 8325 9cbe 122f 903c
000000b0: 0167 05be a264 563e a2ea c9bd 0ea3 03bd
000000c0: 0d39 21be 8605 9a3e 8999 e0be 7671 1cbf
000000d0: 4bec 5f3d 195a 15be 182d 33be 1190 683f
000000e0: 1af8 de3d d6c4 f9bd 83f3 0e3f 7d25 413b
000000f0: 31a5 323f fab2 fc3e a7dd f33e 3a56 8dbd
00000100: e30e a6be 4ab9 d9bd 23cd 1ebe a771 00be
00000110: 3213 a1be 0341 c6be 4c7d bdbd 8d4a cbbe
00000120: 9e33 2abe ae3a 1ebf f054 a33e 36d2 7b3e
00000130: 7c33 edbe 238f 093e a77d c03e 88b7 373f
00000140: eae2 e53e fd6b 103f cedc f5be 3ecd 92be
00000150: 5d78 013f 6aa9 963c 49ac 08be d870 0cbe
00000160: 7989 3fbf 3c32 a0bd 6363 12bf 4137 32be
00000170: 0c34 113d 8beb 093e e282 67be 7411 f13d
00000180: bf02 d5be 4652 11be f8ff 78be d536 11bc
00000190: 329a 3b3d d81c c3bd 7c4f 3c3e e826 893e
000001a0: 05b4 b33e 0c4a 2cbe 83c8 9a3e d9c3 203e
000001b0: 6a3f 693d ca63 d2bd 46c1 083d f41a 3a3f
000001c0: 690f 3e3f 7af3 443e 9dd1 313e 5be4 e13e
000001d0: aa90 febd a0b0 11bf 64a6 f13d c55f 86be
000001e0: 40cd fc3e ff7a 9c3f e9bf f53c cc5b 15be
000001f0: 83a4 183f db55 8b3d f32b 173d 038a 133d
00000200: aecf 4d3d c152 a03e 57c7 993e d9ca 06be
00000210: f072 e53e 96ab 5c3e cc00 cbbe 4d59 ce3c
00000220: bd22 ab3d 8b4a 32bf 6824 ccbe 215e 183f
00000230: 4898 6cbd baa9 713e e190 913e 1019 c13e
00000240: f4d1 a1bd 9ae9 f33d 0d60 c43e 932d 20bf
00000250: 580e 033f 9c46 e93e aab0 cd3e 3915 183e
00000260: 4890 4bbf f24b 593e 5a61 af3d 172c 4ebf
00000270: 3097 983e 1800 493c 5df0 a4bd ca06 343f
00000280: 09e0 453d cea5 ccbe 05ea 1e3e 7064 f6bd
00000290: 086e 373e faed c43d 9c00 133f 2f17 9f3e
000002a0: d397 5b3b 4e1d 543e ab4c 7a3e 3587 803f
000002b0: 0714 763e 347e 213f 61d4 303f 1f91 013f
000002c0: 1e87 5abe 7cf8 95be a15c 06be 4f69 b73c
000002d0: cada 813e 162f 2abf 20a4 51be 1b6b 1a3f
000002e0: b548 b6be 55ee 483d 06df 66bf af21 ee3e
000002f0: cdf5 04bf 20ac 113f 2470 bc3e e017 8dbe
00000300: 72bc 113f c201 89be 5324 a43e bda3 74be
00000310: 544b 94bd 494d 7ebd 4453 c0be 15af 9cbe
00000320: 71f5 9dbe fbc0 1d3d e563 59be a359 26be
00000330: f8cd 44be dc2b 3a3e 8f55 09bf 3508 803e
00000340: 7765 29bf 026e 393e b1bf bbbd 0458 ce3d
00000350: 27dd 0e3e f2a0 c83e ce22 333f 99db b23e
00000360: 4c93 f5be e427 443e 1938 f53e d319 333f
00000370: 43f6 243f 6100 1b3f 2b8c 8a3e a716 03bf
00000380: 2023 20bf 8aa5 ba3e e30f c5be 2784 803e
00000390: 9f64 2b3f a4eb 92bf 97f7 ca3e 0aae bc3c
000003a0: a13d 2fbe 4842 e3be 25fc 6a3f 5911 8abe
000003b0: d8d4 a23e f7cb 7b3f 8c4d 99bd 4c4c 07bc
000003c0: 1aeb fcbe 8d64 373e 8663 d1bd 446b 093f
000003d0: 0584 80be 5560 683f 6867 36be a018 9dbf
000003e0: d17a ecbc e67f 2cbe a57f 3dbf 031e acbc
000003f0: 9c9a ebbc bb6c 02bd 097e d3bd 3516 13bf

weight f4 [64]
-0.1785329 0.000551139 0.14744723 -8.078205e-05 0.20745309 0.1907409 0.11170132 0.174371
0.0014977495 0.0749955 0.28312457 0.17256896 0.0547085 0.11820639 0.21193917 0.27572435
0.12457685 0.14057468 0.1686193 0.0012687778 0.21536496 0.31862214 0.15923853 0.21112251
0.21067339 0.056057833 -0.0004193978 0.24590623 0.22733599 0.13656904 -0.0032089246 -0.21085352
0.17356445 0.1612142 0.12162854 0.06552654 0.18255076 0.06273784 0.07178641 -0.006295235
0.03403983 0.14790912 0.11866656 0.17087579 -0.0029737933 0.066432476 0.023842124 0.05376377
0.22229306 -0.0012449321 -0.20012832 0.003434314 0.00072413683 0.21382785 0.3022001 0.13403374
-0.002633649 0.071058124 -0.00040756603 0.23221806 0.0005733758 0.017351672 0.11084357 -0.00063579157
00000000: 54d1 36be 507a 103a 68fc 163e 8869 a9b8
00000010: 956e 543e 9551 433e a9c3 e43d 508e 323e
00000020: 2250 c43a 3e97 993d b4f5 903e ebb5 303e
00000030: 0516 603d 3116 f23d 9506 593e be2b 8d3e
00000040: 2622 ff3d cff2 0f3e 8aaa 2c3e 1e4d a63a
00000050: a288 5c3e 7122 a33e 6d0f 233e 8030 583e
00000060: c4ba 573e e69c 653d 9fe2 dbb9 d8ce 7b3e
00000070: c4ca 683e c1d8 0b3e d24c 52bb fce9 57be
00000080: e1ba 313e 5615 253e 6218 f93d c732 863d
00000090: 96ee 3a3e b27c 803d c104 933d 4248 cebb
000000a0: 596d 0b3d 7d75 173e 7407 f33d 10fa 2e3e
000000b0: f9e3 42bb c00d 883d 8f50 c33c 6637 5c3d
000000c0: cba0 633e fd2c a3ba 70ee 4cbe 3a12 613b
000000d0: 00d4 3d3a b0f5 5a3e f9b9 9a3e 2440 093e
000000e0: 4c99 2cbb ec86 913d 96ae d5b9 92ca 6d3e
000000f0: 994e 163a 1825 8e3c f401 e33d 40ab 26ba

bias f4 [64]
-0.21447454 -0.2856502 -0.10698328 -0.28981662 -0.03381026 -0.27902523 0.16306725 -0.10070699
-0.32634535 0.16309357 -0.33552158 -0.1662843 0.18395749 -0.060912535 -0.344002 -0.37164256
-0.030402696 -0.031128228 0.13601817 -0.34189755 -0.08824121 -0.3136879 0.007879149 -0.025172368
-0.25433066 -0.46271256 -0.33092827 -0.4384794 -0.27346322 0.19579107 -0.29635546 -0.10812517
-0.009487108 -0.013121414 -0.40704685 -0.38166517 -0.17658767 -0.32472166 0.20786136 -0.30953178
-0.2878 -0.12163959 0.14423478 0.035341006 -0.2774211 0.23953775 -0.28947797 -0.44452408
-0.019243224 -0.32345322 -0.31627923 -0.31768733 -0.32368213 -0.27195078 -0.90250957 0.09086217
-0.3039902 -0.3537241 -0.30169713 -0.31608054 -0.30657312 -0.32179242 -0.36025935 -0.3764817
00000000: 379f 5bbe be40 92be 0d1a dbbd d862 94be
00000010: a17c 0abd 65dc 8ebe 1afb 263e 773f cebd
00000020: bd16 a7be 0002 273e 7cc9 abbe 6e46 2abe
00000030: 5a5f 3c3e 6c7f 79bd 0821 b0be ef47 bebe
00000040: 130f f9bc a000 ffbc 5948 0b3e 320d afbe
00000050: cfb7 b4bd b39b a0be 8c17 013c 4836 cebc
00000060: a137 82be a9e8 ecbe 6e6f a9be 5f80 e0be
00000070: 5f03 8cbe 747d 483e e7bb 97be bb70 ddbd
00000080: d16f 1bbc 33fb 56bc 7268 d0be 9e69 c3be
00000090: 66d3 34be eb41 a6be 9cd9 543e f37a 9ebe
000000a0: 865a 93be 2d1e f9bd 48b2 133e bbc1 103d
000000b0: 230a 8ebe 6249 753e 7536 94be a998 e3be
000000c0: f7a3 9dbc a99b a5be 5aef a1be eaa7 a2be
000000d0: aab9 a5be 223d 8bbe de0a 67bf f215 ba3d
000000e0: 9aa4 9bbe 531b b5be 0c78 9abe 4fd5 a1be
000000f0: 27f7 9cbe fac1 a4be ea73 b8be 36c2 c0be

running_mean f4 [64]
5.230354 -8.900069 -1.1862818 -7.5054154 1.0749216 -3.0030656 0.9741242 -4.2735915
3.9979491 -0.9242685 -1.254553 -2.1755002 -0.6672618 -2.5774465 -2.6062574 0.009005224
-0.73974085 -3.0470107 -3.2400808 6.0820675 -0.7167043 -2.236611 -0.75598174 -1.3070333
-2.6138918 1.6745622 -4.0826197 -1.7055544 -0.93770427 0.14732797 -4.6496887 2.9725344
0.552187 1.2873088 -3.3007016 1.4087567 -0.7845755 -1.6866589 1.9231646 -1.7795047
1.5673641 -0.2255437 1.7292798 1.5486478 -2.2564323 -2.147668 0.7587751 -0.9794447
-1.1148316 -5.9277654 3.4603763 6.841413 4.457146 0.8347029 -3.094141 0.7816443
-4.7000017 -1.7854525 -4.2336783 0.6637004 5.1956067 -3.2583258 -2.9342499 -5.7827816
00000000: 0f5f a740 af66 0ec1 15d8 97bf 5d2c f0c0
00000010: 0897 893f 3a32 40c0 3460 793f 43c1 88c0
00000020: 66de 7f40 dc9c 6cbf 3195 a0bf 653b 0bc0
00000030: abd1 2abf e2f4 24c0 eccc 26c0 a68a 133c
00000040: a85f 3dbf 3902 43c0 7c5d 4fc0 4ca0 c240
00000050: ef79 37bf a224 0fc0 0588 41bf de4c a7bf
00000060: 014a 27c0 0e58 d63f d2a4 82c0 9b4f dabf
00000070: 630d 70bf 25dd 163e 40ca 94c0 013e 3e40
00000080: 215c 0d3f 89c6 a43f b23e 53c0 2452 b43f
00000090: f1d9 48bf 70e4 d7bf 422a f63f cfc6 e3bf
000000a0: 639f c83f edf4 66be 0a59 dd3f 173a c63f
000000b0: 6369 10c0 6473 09c0 163f 423f e3bc 7abf
000000c0: cdb2 8ebf 41b0 bdc0 ce76 5d40 dbec da40
000000d0: f1a0 8e40 17af 553f 6806 46c0 d719 483f
000000e0: 6a66 96c0 b589 e4bf 4b7a 87c0 45e8 293f
000000f0: 6942 a640 6988 50c0 c0ca 3bc0 8c0c b9c0

running_var f4 [64]
15.110104 77.19697 13.779821 50.02999 20.66233 11.832583 7.7630124 8.157649
44.421947 17.126345 6.259192 7.345891 12.364778 10.3835535 5.986058 6.6301327
11.383349 10.526445 13.473605 51.26862 5.9517727 5.826767 14.283376 11.705894
7.32497 27.869547 45.144558 7.68778 8.136128 3.4163077 39.674324 13.497895
8.285399 12.069678 6.1966147 36.253197 10.500981 45.0631 11.918738 37.135365
49.79334 15.841067 15.97135 9.170527 24.663551 10.798545 15.867464 15.29562
19.924486 57.085403 6.928142 52.85138 29.373737 6.1641574 4.494452 12.686384
43.505737 10.684512 48.34627 6.695473 58.672245 16.118486 6.146259 53.60048
00000000: fcc2 7141 d964 9a42 267a 5c41 b61e 4842
00000010: 744c a541 4352 3d41 996a f840 bb85 0241
00000020: 13b0 3142 c102 8941 4d4b c840 8a11 eb40
00000030: 21d6 4541 0923 2641 ca8d bf40 0c2a d440
00000040: 3322 3641 526c 2841 e393 5741 1113 4d42
00000050: ec74 be40 e074 ba40 b588 6441 584b 3b41
00000060: 2766 ea40 d5f4 de41 0794 3442 4b02 f640
00000070: 952d 0241 c9a4 5a40 82b2 1e42 61f7 5741
00000080: ff90 0441 671d 4141 ab4a c640 4603 1142
00000090: 0504 2841 9d40 3442 27b3 3e41 9d8a 1442
000000a0: 612c 4742 0375 7d41 a68a 7f41 7bba 1241
000000b0: f44e c541 d7c6 2c41 22e1 7d41 dcba 7441
000000c0: 5965 9f41 7457 6442 57b3 dd40 d067 5342
000000d0: 6afd ea41 c740 c540 8dd2 8f40 6efb 4a41
000000e0: e005 2e42 c3f3 2a41 9562 4142 5141 d640
000000f0: 61b0 6a42 a9f2 8041 27ae c440 e466 5642

weight f4 [1, 64, 3, 3]
0.10008163 0.041270416 0.45965406 0.008133832 -0.091717 0.17496961 0.0053561195 0.03615846
0.04346064 0.13920088 0.18808907 0.14202257 0.33731216 0.43705568 0.27821338 0.09413118
0.22405761 0.11199407 -0.23139949 0.012695891 -0.18663312 -0.21904631 0.4215635 0.028613389
-0.113840505 0.29937178 0.05248554 0.1594472 0.27759862 0.22080289 0.21041912 0.24134727
0.21594146 0.16919951 0.425171 -0.005369724 -0.03665504 0.14427829 0.298052 -0.07376801
0.030316152 0.11522011 -0.26300344 -0.36311713 -0.030711811 -0.051599976 -0.05078304 0.16030695
-0.084882624 0.29627094 0.45927483 -0.1623579 0.17714149 0.12299382 -0.13893458 -0.0224916
-0.23206338 -0.107923426 0.17331035 -0.08248466 -0.02267568 -0.063695766 -0.34179652 0.09421526
0.149154 0.13706201 -0.054214 -0.59388924 -0.069212474 0.00948237 -0.07472128 0.05945659
0.045946132 0.26500434 0.100540884 0.23225948 0.22014593 0.19225264 0.12451083 0.34731305
0.17821608 -0.12806347 -0.18845324 0.018085353 -0.08853821 -0.063491315 -0.12499557 -0.18600503
-0.041120503 0.003546139 0.09713167 0.056745075 -0.102373116 -0.07337006 -0.61173224 0.060277674
-0.048280206 0.18763164 0.15659627 0.10225405 0.18042332 0.06841572 0.1751888 0.2052212
0.12910831 -0.12536927 -0.24782309 -0.321236 -0.13939334 -0.13606645 -0.058352083 -0.08565229
-0.25158128 0.002455714 0.031344768 -0.15913768 0.015191365 -0.19297029 -0.3421346 -0.08563605
0.3073459 -0.21218994 0.112808466 0.20183294 -0.09500166 0.19891813 -0.13716894 0.24411885
0.048492383 -0.19015537 0.3077157 0.15552066 -0.27966467 0.19875284 0.18260437 0.07101141
0.118919425 -0.26092422 0.10601243 0.25770295 -0.42286888 0.11059078 0.12253592 -0.25394326
0.20609632 -0.15841663 0.0021722426 0.38415003 -0.2777227 -0.006886291 0.030000344 -0.21297124
0.008486138 0.036004603 0.061184358 0.08279333 0.075386316 0.014487049 -0.41206452 0.117581785
0.13892518 -0.3126229 0.03968413 -0.035952386 0.054049313 -0.022857925 -0.5456318 -0.08499395
0.07211364 -0.13265467 0.115921214 0.21448229 0.2987683 0.17376602 0.28298408 0.33788672
0.16666897 0.10691139 0.14658003 -0.010048438 0.05244887 0.02971281 -0.025102397 0.08964552
-0.53014696 -0.115413226 0.088885896 -0.16306247 -0.089612834 -0.005189408 0.05215294 0.034569137
0.069514595 -0.68499804 0.016299045 0.05658681 0.06999985 -0.077646114 -0.11768852 -0.12521824
0.24080135 -0.23329887 -0.18452515 0.29036 -0.06970222 -0.09043693 0.06872813 0.075101115
-0.529093 -0.13512875 0.009133492 -0.14454104 0.07452419 0.06834455 0.15097544 0.122417025
-0.10650308 0.027243055 -0.06849946 -0.27849543 -0.095325 -0.25524837 0.22168033 0.3029039
0.121973574 0.0061110477 0.16469231 0.033485487 0.18965696 0.31032777 0.16071436 -0.04743071
0.18862511 0.1408983 0.1806926 0.22742766 0.22069465 0.1617531 0.22046812 0.28914076
0.22217831 0.12808256 0.13131186 -0.15947074 -0.28955793 -0.15191776 0.33793122 0.56956667
0.31256074 -0.06063319 -0.22427164 0.04592755 -0.019912053 0.2856248 0.15855412 -0.23488396
00000000: 99f7 cc3d 2b0b 293d c757 eb3e c443 053c
00000010: 1fd6 bbbd 3c2b 333e 6382 af3b e51a 143d
00000020: c903 323d ad8a 0e3e 6c9a 403e 5d6e 113e
00000030: 2eb4 ac3e c3c5 df3e fc71 8e3e d9c7 c03d
00000040: 5c6f 653e 265d e53d fdf3 6cbe 6d02 503c
00000050: c11c 3fbe ad4d 60be 2cd7 d73e a066 ea3c
00000060: 3625 e9bd 4247 993e 14fb 563d 2046 233e
00000070: 6821 8e3e 271a 623e 1c78 573e bd23 773e
00000080: c21f 5d3e a342 2d3e 03b0 d93e 82f4 afbb
00000090: 9823 16bd b0bd 133e 469a 983e af13 97bd
000000a0: 9459 f83c 85f8 eb3d 63a8 86be 7dea b9be
000000b0: 5697 fbbc 7f5a 53bd e001 50bd 8127 243e
000000c0: f1d6 adbd d3b0 973e 1226 eb3e 2641 26be
000000d0: 9464 353e 2fe4 fb3d de44 0ebe 4e40 b8bc
000000e0: 06a2 6dbe f506 ddbd 4578 313e b8ed a8bd
000000f0: 59c2 b9bc ed72 82bd f4ff aebe eef3 c03d
00000100: d4bb 183e fc59 0c3e 800f 5ebd 2009 18bf
00000110: 45bf 8dbd f15b 1b3c 7807 99bd c188 733d
00000120: 0332 3c3d a6ae 873e 61e8 cd3d 6ed5 6d3e
00000130: ef6d 613e e0dd 443e 89ff fe3d 04d3 b13e
00000140: 477e 363e 1223 03be e3f9 40be bc27 943c
00000150: 8553 b5bd bc07 82bd adfd ffbd 1a78 3ebe
00000160: f96d 28bd 5766 683b f8ec c63d 866d 683d
00000170: ffa8 d1bd 0b43 96bd 7c9a 1cbf b9e5 763d
00000180: 77c1 45bd 8222 403e c65a 203e 926a d13d
00000190: e4c0 383e 8a1d 8c3d b164 333e 8225 523e
000001a0: f834 043e cd60 00be 56c5 7dbe 0c79 a4be
000001b0: 21bd 0ebe 0155 0bbe 9802 6fbd 786a afbd
000001c0: 43cf 80be 0bf0 203b 5f63 003d fdf4 22be
000001d0: 34e5 783c 019a 45be 442c afbe f461 afbd
000001e0: 715c 9d3e 5248 59be 2008 e73d 4bad 4e3e
000001f0: 3b90 c2bd 32b1 4b3e 0476 0cbe 4bfa 793e
00000200: f39f 463d 17b8 42be ea8c 9d3e cf40 1f3e
00000210: 3530 8fbe dd85 4b3e a4fc 3a3e 6e6e 913d
00000220: 078c f33d dc97 85be 0b1d d93d a4f1 833e
00000230: 4582 d8be 6b7d e23d 1df4 fa3d da04 82be
00000240: ea0a 533e f837 22be 2f5c 0e3b 50af c43e
00000250: ab31 8ebe 65a6 e1bb 48c3 f53c 2215 5abe
00000260: 7109 0b3c 9079 133d 739c 7a3d 8d8f a93d
00000270: 2464 9a3d 165b 6d3c 1ffa d2be b8ce f03d
00000280: 6742 0e3e 1c10 a0be d48b 223d cf42 13bd
00000290: d062 5d3d 8b40 bbbc 87ae 0bbf 4f11 aebd
000002a0: 51b0 933d a0d6 07be 1a68 ed3d 3fa1 5b3e
000002b0: 29f8 983e b8ef 313e 4ae3 903e 7dff ac3e
000002c0: 45ab 2a3e 5cf4 da3d 1319 163e 34a2 24bc
000002d0: a0d4 563d 4768 f33c 8ba3 cdbc 1298 b73d
000002e0: b6b7 07bf c55d ecbd cf09 b63d d9f9 26be
000002f0: ef86 b7bd e90b aabb 529e 553d 5e98 0d3d
00000300: ab5d 8e3d 085c 2fbf 9385 853c 92c7 673d
00000310: 155c 8f3d ed04 9fbd ae06 f1bd 3639 00be
00000320: a194 763e e6e5 6ebe 29f4 3cbe 11aa 943e
00000330: 0ac0 8ebd ff36 b9bd 55c1 8c3d 9dce 993d
00000340: a472 07bf 315f 0abe a4a4 153c 9102 14be
00000350: 23a0 983d 3af8 8b3d 4e99 1a3e c7b5 fa3d
00000360: 491e dabd d42c df3c 7249 8cbd f496 8ebe
00000370: c139 c3bd eaaf 82be 2b00 633e 3816 9b3e
00000380: 48cd f93d 2f3f c83b 1aa5 283e 1428 093d
00000390: 6f35 423e 48e3 9e3e 4e92 243e b446 42bd
000003a0: f126 413e a547 103e 7b07 393e cce2 683e
000003b0: c7fd 613e 9ba2 253e 65c2 613e 420a 943e
000003c0: b682 633e 1328 033e 9e76 063e 4c4c 23be
000003d0: f040 94be 5490 1bbe 5205 ad3e 1fcf 113f
000003e0: f607 a03e 825a 78bd 77a7 65be 871e 3c3d
000003f0: 9a1e a3bc 6a3d 923e 035c 223e 6c85 70be
