models/testing_bigger/testing_bigger_298_up.pt (torch_old, 582331 bytes, 27 tensors)

weight f4 [16, 2, 3, 3]
0.33580992 1.2227643 -1.2969319 0.9112181 1.821925 0.24739902 -1.0198971 -0.4732667
-1.5865235 -0.29361537 -0.30926773 0.29638878 -0.0038790884 0.037295863 0.2507134 -0.082519375
-0.062160067 0.25430906 -0.046386015 -0.24937403 0.32463855 0.13699299 -0.09107208 -0.06330268
0.021154268 -0.5722371 0.066258304 0.65403074 -0.91796845 0.74142015 0.7923886 -1.0440853
0.88455147 -0.08989748 -2.8570712 0.034757886 -0.5012117 -0.21774423 -0.76215714 0.056020785
0.028325245 -0.14102028 0.035490893 0.26434416 -0.19677807 -0.19094169 -0.063641354 -0.21381244
-0.4616251 -0.07821146 0.1859259 -0.041992743 0.053851034 0.33245823 -0.3005117 0.735273
-0.124527976 -0.4839173 0.15427586 -0.82583535 0.23694757 0.9691924 -0.36520934 0.5054027
-0.9419862 0.83576334 0.43120077 -1.2152215 0.565078 0.4075156 -1.1398482 0.83263594
0.5082798 1.0963739 -0.11570592 0.19837518 0.5738391 -0.26010925 0.7711774 1.3392166
0.013732905 -0.21247241 0.12113331 -0.3894128 -0.085776106 0.3178764 0.014272765 -0.34934938
-0.05559454 -0.49470547 -0.27383152 -0.45382056 0.81268716 0.5681968 -0.6227602 0.9282583
0.19035923 -1.409332 0.3189558 -0.15511188 0.50525695 -0.33540174 -0.15304826 -0.015764548
-1.0848848 0.45168263 0.889736 0.04667725 0.28623527 -0.72777957 0.75619066 -0.32628763
-0.3875658 0.95053184 0.4995217 -0.8013466 1.0044994 0.11185703 0.113597125 -0.38554284
0.17728214 0.62928545 -0.14384414 0.12677719 0.27723423 -0.18488687 0.2278423 0.08596389
-0.35326165 -0.103819855 -0.29086885 -0.5912805 0.24125339 0.39164826 -0.11281097 0.507181
0.077412754 -0.14316759 -0.6501434 -1.3469985 -1.4460639 0.59406793 0.35911873 0.31307113
-0.63557494 -0.93966645 0.023892412 -0.16491024 1.7041273 0.6789007 -0.44609892 0.2844017
-0.4079518 -0.7315892 -0.16576184 0.374486 -0.4870991 0.69524443 -0.23559196 -0.46760768
0.4476964 0.123854265 0.47156638 -0.1202772 -0.21196397 0.1801472 -1.1791903 -0.66209674
-0.10100425 0.34067526 2.0080955 0.5899423 -0.19091788 -0.70516986 -0.14337853 -0.24161063
-0.5282448 0.2859651 0.17764659 0.4069057 0.19448383 -0.27593932 0.24961275 0.040415917
0.0027808896 -0.41189036 0.5674243 -0.30784732 -0.31853595 0.68527883 0.52079034 -0.63507
0.78822005 0.7893192 -0.44130448 -0.10551124 -0.061811224 -1.5636493 0.7537024 1.2580651
-0.04871346 -0.33575833 -0.42351395 -0.6329939 -0.13000396 0.16096114 -0.26453128 0.31586584
1.0275196 0.68648934 -0.80703914 -0.30712253 -0.38404244 -0.5556734 -0.32374483 0.056347437
-0.45087615 -0.08949034 -0.45872164 -0.14610252 1.1631209 0.4857937 0.042366717 1.2454188
0.30475274 -0.25059274 -0.3584002 -0.045604452 -0.14717846 -0.29821065 0.13233104 -0.07504701
0.12097199 0.684354 0.2598979 0.17010248 -0.3831208 0.22749613 0.51833445 0.5694218
-0.63891834 -0.4976453 -0.49146035 0.10576839 -1.1417462 0.18996453 -0.111807704 -0.38501197
0.45195878 0.53406626 -0.2898489 0.75740063 -0.164354 0.74997044 0.7872684 -1.3611075
00000000: 47ef ab3e 8a83 9c3f dd01 a6bf 9745 693f
00000010: d734 e93f 2b56 7d3e fd8b 82bf 0350 f2be
00000020: 3413 cbbf c154 96be 5758 9ebe 45c0 973e
00000030: 4e38 7ebb 8cc3 183d 825d 803e ebff a8bd
00000040: 8e9b 7ebd cc34 823e 43ff 3dbd e85b 7fbe
00000050: 0637 a63e e447 0c3e 0084 babd d6a4 81bd
00000060: b74b ad3c 217e 12bf 6fb2 873d 8f6e 273f
00000070: fbff 6abf b6cd 3d3f fbd9 4a3f 96a4 85bf
00000080: f771 623f 2c1c b8bd 41da 36c0 495e 0e3d
00000090: 694f 00bf 58f8 5ebe bb1c 43bf 0d76 653d
000000a0: 580a e83c 9f67 10be e65e 113d 1e58 873e
000000b0: 3180 49be 3886 43be 6656 82bd a6f1 5abe
000000c0: 205a ecbe 542d a0bd 5c63 3e3e 9500 2cbd
000000d0: e792 5c3d f737 aa3e abdc 99be da3a 3c3f
000000e0: 8608 ffbd 02c4 f7be 7efa 1d3e f269 53bf
000000f0: 62a2 723e fe1c 783f b8fc babe 1262 013f
00000100: 0226 71bf 96f4 553f 59c6 dc3e 618c 9bbf
00000110: f4a8 103f e2a5 d03e 8ce6 91bf a127 553f
00000120: a01e 023f fb55 8c3f 3af7 ecbd dd22 4b3e
00000130: 1fe7 123f 0a2d 85be e26b 453f 736b ab3f
00000140: faff 603c 5e92 59be be14 f83d 1d61 c7be
00000150: 62ab afbd b2c0 a23e 51d8 693c ecdd b2be
00000160: 1ab7 63bd 094a fdbe a533 8cbe 2b5b e8be
00000170: 440c 503f 5875 113f 366d 1fbf 56a2 6d3f
00000180: 88ed 423e fe64 b4bf 2d4e a33e a6d5 1ebe
00000190: 8558 013f c7b9 abbe afb8 1cbe a724 81bc
000001a0: 81dd 8abf f242 e73e bdc5 633f a530 3f3d
000001b0: 6e8d 923e c34f 3abf b695 413f 2c0f a7be
000001c0: 066f c6be 0e56 733f 4fc1 ff3e 0d25 4dbf
000001d0: 7093 803f 4c15 e53d 9ca5 e83d df65 c5be
000001e0: 7389 353e da18 213f e14b 13be e1d1 013e
000001f0: a5f1 8d3e fc52 3dbe 7e4f 693e d60d b03d
00000200: b6de b4be 819f d4bd c3ec 94be 295e 17bf
00000210: 210b 773e 1f86 c83e 7009 e7bd 9dd6 013f
00000220: 948a 9e3d 869a 12be cc6f 26bf 726a acbf
00000230: 9f18 b9bf d614 183f 69de b73e dc4a a03e
00000240: 0ab5 22bf fb8d 70bf 05ba c33c 3bde 28be
00000250: d820 da3f 70cc 2d3f 1467 e4be 1a9d 913e
00000260: 0fdf d0be 6e49 3bbf 79bd 29be a1bc bf3e
00000270: 0e65 f9be 8afb 313f 053f 71be 466a efbe
00000280: 7638 e53e 4ea7 fd3d 2671 f13e e553 f6bd
00000290: 150d 59be 8278 383e b5ef 96bf 2c7f 29bf
000002a0: 51db cebd fd6c ae3e a384 0040 7506 173f
000002b0: fa7f 43be 0386 34bf d2d1 12be c768 77be
000002c0: 0d3b 07bf 056a 923e fde8 353e f255 d03e
000002d0: c526 473e eb47 8dbe 7c9a 7f3e 298b 253d
000002e0: 963f 363b 4be3 d2be b842 113f 2a9e 9dbe
000002f0: 2517 a3be 6f6e 2f3f 8452 053f f393 22bf
00000300: cac8 493f d310 4a3f a9f2 e1be 4716 d8bd
00000310: c42d 7dbd a925 c8bf a4f2 403f 4708 a13f
00000320: c487 47bd 84e8 abbe d2d6 d8be e30b 22bf
00000330: c21f 05be ffd2 243e a570 87be 2bb9 a13e
00000340: c385 833f c4bd 2f3f 1e9a 4ebf 2a3f 9dbe
00000350: 36a1 c4be 9d40 0ebf e2c1 a5be 92cc 663d
00000360: 3dd9 e6be b646 b7bd 90dd eabe e69b 15be
00000370: 25e1 943f f4b9 f83e b988 2d3d e269 9f3f
00000380: 8d08 9c3e b14d 80be 3b80 b7be bccb 3abd
00000390: f3b5 16be 11af 98be ca81 073e 3fb2 99bd
000003a0: 2ac0 f73d d331 2f3f 5611 853e 582f 2e3e
000003b0: 6928 c4be bff4 683e 91b1 043f a1c5 113f
000003c0: 2790 23bf 5dcb febe b1a0 fbbe 199d d83d
000003d0: bd24 92bf 1086 423e 70fb e4bd 4a20 c5be
000003e0: 2467 e73e 91b8 083f 1367 94be 02e5 413f
000003f0: 6a4c 28be 10fe 3f3f 6c8a 493f c538 aebf

weight f4 [32, 16, 3, 3]
-1.2334696 -0.99556786 -1.0570747 0.9446134 -0.95167196 -1.7028084 0.95650184 0.9075916
0.899477 -0.66891927 0.3425891 -0.031339683 0.24162777 0.57438654 -0.6874634 -0.114232294
0.144747 -0.16867965 -0.17008202 -0.3454604 0.44275367 -0.4748655 -0.33506504 0.46624807
0.09694151 0.19524929 0.056661244 0.7047152 -0.81317043 -0.21590668 -0.28455412 -0.69723743
1.2871174 -0.5984745 -0.07550335 -0.9428018 -0.47252715 -0.37290332 -0.28816894 -0.5193647
0.0059053986 0.20060512 -0.4910328 -0.2763256 0.28210938 0.4056209 -0.12229883 -0.57314205
0.39595702 0.06208467 -0.22792509 0.11929476 -0.113480225 0.58098483 0.23928805 -0.118283115
-1.0351936 0.17597629 1.1164954 0.11283541 -0.12965949 0.030860713 0.11456787 0.15792912
0.14444576 -0.41661084 -0.045405682 0.7710664 0.5456821 -0.15621834 -0.048619464 -0.8071041
0.20411596 0.3067217 -0.1862563 0.49670455 0.6973865 -0.7879199 -0.0772737 -0.72996414
0.06264695 0.33235773 -0.11669533 -1.3508421 -0.69236857 0.018745568 -0.45148236 0.797593
0.025978034 0.7391467 -0.07837363 0.13737024 -0.13178794 0.2698595 0.34270337 -0.22704567
-0.6211599 -0.5117729 0.2820774 0.28487518 -0.25417227 0.6284231 0.35395864 -0.092183806
0.33125916 -0.2530722 0.8887058 -0.6044458 0.3229218 0.103283815 -0.59696263 0.33073983
0.11096182 0.015169798 -0.51444924 0.039556958 -0.2280542 -0.065108426 0.38279432 -0.30675212
0.5808125 -0.10737182 -0.96195704 0.6970926 0.9217124 -0.14847386 -0.37907165 0.16104935
-0.3597788 -0.016332472 -0.23065002 0.5210843 0.27017832 0.2074829 0.045134053 -0.8904827
-0.9346242 -0.8643334 -0.19058685 -0.40033838 -0.50100493 0.9215848 -0.15311444 0.35392436
-1.5607253 -0.8860954 -0.6127399 0.43880668 -1.7895019 0.32952878 -0.7124181 -0.342597
-1.2317567 -0.019512571 -0.0757178 0.49768776 0.2541901 0.6701723 -0.35788217 0.8610418
-0.930651 0.40673178 -0.55123365 0.18396708 -0.21824731 -0.25922376 -0.60996294 -0.28130707
-1.2490332 0.02387602 -0.10911957 -1.5079927 -1.1032029 -0.61601275 1.2610003 1.7361887
0.28345725 -0.8330739 -0.3685243 0.72587395 -0.15483047 -0.50886434 0.35786068 -0.35450602
-0.98824686 -0.21346574 0.54379827 -0.20602493 0.3353407 -0.85805297 0.051210962 0.6269877
-0.17459603 1.2032164 0.14364927 0.039530683 -1.0865104 0.12291029 -0.9061738 0.16060422
0.24716087 0.45645386 -0.003999398 0.858407 -0.37414607 -0.71870476 -0.1907311 -0.044218194
0.5792119 0.6949783 -1.1816478 -0.33791104 -1.0292317 0.72701675 0.005711479 0.05258069
0.48751 0.5073544 -1.2966778 1.0254188 -0.9822113 -0.5771235 0.6623523 1.090844
-1.5409873 -1.0247192 0.19672498 1.1763738 0.17337658 1.1097951 0.52545005 1.0023816
-1.1048293 0.6283876 -1.7206705 -0.16726655 0.30062923 0.48943803 -0.030861285 0.42199546
-0.81903213 0.4265013 -0.086917065 1.1235777 -0.29603082 0.56645906 -1.8456267 -0.28380376
-0.55253863 0.24418202 0.79158986 0.49534553 0.20953551 -0.3227494 0.014713773 -1.0798874
00000000: 55e2 9dbf 89dd 7ebf 394e 87bf 2fd2 713f
00000010: c6a0 73bf a0f5 d9bf 4edd 743f ec57 683f
00000020: 2044 663f 4b3e 2bbf d767 af3e 0a5e 00bd
00000030: 456d 773e ff0a 133f 9afd 2fbf 9ff2 e9bd
00000040: 8f38 143e 5cba 2cbe fb29 2ebe 30e0 b0be
00000050: 9cb0 e23e 9221 f3be a58d abbe 11b8 ee3e
00000060: 4589 c63d 6eef 473e 9f15 683d 3768 343f
00000070: f02b 50bf a416 5dbe 14b1 91be 277e 32bf
00000080: 43c0 a43f a035 19bf 80a1 9abd 755b 71bf
00000090: 14ef f1be 2fed bebe e18a 93be 16f5 04bf
000000a0: 1382 c13b 6e6b 4d3e a768 fbbe 8d7a 8dbe
000000b0: a470 903e 8bad cf3e cf77 fabd 70b9 12bf
000000c0: e1ba ca3e 7f4c 7e3d 3265 69be d050 f43d
000000d0: 5268 e8bd 6cbb 143f ed07 753e 6b3e f2bd
000000e0: 3981 84bf 2133 343e 52e9 8e3f 4016 e73d
000000f0: 75c5 04be 9bcf fc3c 8fa2 ea3d 2cb8 213e
00000100: 97e9 133e 044e d5be 4ffb 39bd 9c64 453f
00000110: d2b1 0b3f b3f7 1fbe 3425 47bd 609e 4ebf
00000120: c603 513e a00a 9d3e f9b9 3ebe 0f50 fe3e
00000130: ec87 323f 1eb5 49bf ac41 9ebd eede 3abf
00000140: 0b4d 803d cb2a aa3e f6fd eebd 65e8 acbf
00000150: 113f 31bf 4e90 993c b228 e7be 0e2f 4c3f
00000160: e3cf d43c b838 3d3f 5b82 a0bd c9aa 0c3e
00000170: 6bf3 06be 062b 8a3e d176 af3e a97e 68be
00000180: 5604 1fbf 8c03 03bf 736c 903e 29db 913e
00000190: de22 82be 56e0 203f 113a b53e ddca bcbd
000001a0: cd9a a93e ae92 81be 3982 633f f6bc 1abf
000001b0: 0256 a53e 7786 d33d 8bd2 18bf bb56 a93e
000001c0: f33f e33d bf8a 783c f2b2 03bf 7a06 223d
000001d0: 0a87 69be 9157 85bd 9efd c33e 9d0e 9dbe
000001e0: 21b0 143f c2e5 dbbd d142 76bf a974 323f
000001f0: 58f5 6b3f 8809 18be ae15 c2be 1fea 243e
00000200: ed34 b8be adcb 85bc 852f 6cbe c865 053f
00000210: d054 8a3e 6676 543e 7cde 383d adf6 63bf
00000220: 8843 6fbf f444 5dbf 3329 43be 27f9 ccbe
00000230: dc41 00bf fbec 6b3f 08ca 1cbe 9335 b53e
00000240: d9c5 c7bf 26d7 62bf 86dc 1cbf 45ab e03e
00000250: 660e e5bf ffb7 a83e 0861 36bf e068 afbe
00000260: 34aa 9dbf d4d8 9fbc ef11 9bbd eed0 fe3e
00000270: 3425 823e 6990 2b3f 553c b7be 3c6d 5c3f
00000280: 253f 6ebf 263f d03e a61d 0dbf de61 3c3e
00000290: 397c 5fbe fab8 84be 8826 1cbf 7b07 90be
000002a0: 52e0 9fbf a597 c33c 157a dfbd e805 c1bf
000002b0: c135 8dbf 03b3 1dbf 7568 a13f 6e3b de3f
000002c0: 4f21 913e 5544 55bf 38af bcbe e0d2 393f
000002d0: e18b 1ebe ef44 02bf 8439 b73e d081 b5be
000002e0: bffd 7cbf c396 5abe 5d36 0b3f 33f8 52be
000002f0: c7b1 ab3e 5ca9 5bbf 96c2 513d 4482 203f
00000300: 4dc9 32be ff02 9a3f cb18 133e edea 213d
00000310: c612 8bbf 64b8 fb3d 02fb 67bf 6f75 243e
00000320: bd17 7d3e 52b4 e93e 620d 83bb 90c0 5b3f
00000330: 1390 bfbe 09fd 37bf 034f 43be 231e 35bd
00000340: 3b47 143f 19ea 313f 3c40 97bf ad02 adbe
00000350: ddbd 83bf c51d 3a3f 5c27 bb3b d95e 573d
00000360: e99a f93e fae1 013f 8af9 a5bf ec40 833f
00000370: 3372 7bbf 5ebe 13bf ec8f 293f c7a0 8b3f
00000380: 123f c5bf 002a 83bf 4672 493e 6b93 963f
00000390: a189 313e c40d 8e3f e583 063f 0a4e 803f
000003a0: 0c6b 8dbf 02de 203f ee3e dcbf ec47 2bbe
000003b0: 13ec 993e 9f97 fa3e ced0 fcbc ca0f d83e
000003c0: 17ac 51bf 615e da3e 9301 b2bd 65d1 8f3f
000003d0: 5a91 97be 7603 113f 7f3d ecbf ba4e 91be
000003e0: 2c73 0dbf da0a 7a3e a2a5 4a3f ee9d fd3e
000003f0: 7a90 563e 693f a5be 0912 713c c039 8abf

weight f4 [128, 32, 3, 3]
-0.23061435 0.91117275 -0.18121745 0.37918878 0.6068419 -0.089751005 0.07176345 0.12630837
-0.9615735 0.3973789 -0.20329548 0.14239706 0.020123849 0.99149555 0.41485503 -0.24385479
0.43969882 0.3294104 -1.2788266 0.0130768195 0.20088337 -0.23681998 -0.0634137 1.4926596
0.0095498385 0.20514701 0.97010356 0.4993756 -0.36355668 0.5162768 0.19526969 -0.40221712
0.80613124 0.04642095 0.39065024 0.9975701 -0.06770399 -0.5607944 0.4992899 -0.031664632
0.01683325 0.7721683 -0.4616241 -0.6880565 -0.35203296 -0.43851742 1.0026596 -0.47828498
0.43857178 1.1606176 0.16097222 -0.14759806 -0.6023705 -0.44152784 -0.08213173 -2.4454463
0.6179099 -0.043272715 -0.36791474 1.2462696 -0.08343272 -0.5821172 0.41157302 0.17853062
0.7844521 0.29885274 -0.1040427 0.92638636 0.015389427 -0.47679374 0.055612672 -0.94748986
-0.64044464 -1.0635334 0.12213455 -0.029531715 0.17898387 -0.3161038 0.8820702 0.34538803
1.0288926 0.8570013 -0.83900183 -0.6451056 0.40435958 -1.088392 -0.48464614 0.32884595
-0.4554081 -0.30577478 -0.038279165 0.350233 -1.0769004 0.28407803 -0.738408 -0.91645074
-0.28903195 0.28460094 -0.83410454 0.6051543 0.3041597 0.4307475 0.7591567 -0.25394607
0.503542 0.3480072 -0.10822397 0.5378503 -0.4889676 -0.26088238 0.6101441 -0.3798265
0.03359861 -0.4711948 -1.1038285 0.152706 -0.010406338 -0.27359527 -0.18845169 0.11167363
-0.09476848 0.120406084 1.3241407 -0.15776697 0.57543296 0.21378197 0.7555478 0.21491218
-0.04194182 -0.3507025 -0.09465699 -0.39451456 0.046888933 -0.7152223 -0.12802678 -0.12687194
0.30934334 0.54231364 -0.88758796 -0.6273909 -0.5646937 -0.36925805 0.10428169 -0.25036618
-0.25737002 0.04947706 -1.0406559 -0.075506054 0.16884968 -0.3693816 -0.52820355 0.45441106
-0.74018323 0.24550086 0.37044913 0.51740485 -0.202101 0.40903726 -0.7657529 -0.8885388
0.40571925 0.06936468 -1.307128 0.4080088 -1.1011461 0.0033711789 1.162314 0.31060636
-0.2577454 -0.6817781 0.36813068 0.95067686 0.07275735 -0.3563742 -0.2929345 -0.9516021
-0.03150212 -0.3198838 -0.31373343 1.0867529 -0.22782427 0.15146622 0.48733547 -0.01694817
0.4556704 0.3121801 -0.09548541 0.18534382 -0.1357449 -0.2520956 0.73027414 0.15209053
-1.2436463 -0.48886696 0.0037858817 -0.14943838 0.64068013 0.6023677 0.38417023 0.24085894
-0.24199516 -0.48692155 -1.2729908 -0.28592548 0.061685573 0.28214225 -0.92723167 0.4834513
-0.25594506 -0.13141222 -0.8403208 -0.721619 -0.0982437 -0.8606322 1.2818828 -0.63304466
-0.20063372 1.156418 0.2608804 -0.028605023 0.7497425 -0.49828795 -1.2018687 0.22506285
-0.6430527 0.32183966 -0.12359899 1.4057956 -0.15237089 0.114123486 -1.2341956 -0.008825079
0.16509737 0.61877704 0.28952515 0.71501875 0.22044095 0.25678104 -0.22037177 -0.3082173
0.32161316 0.87425923 0.43388253 0.2541299 -0.16338961 0.38163105 0.28692183 -2.443417
-0.44423866 0.694987 -0.9018298 0.50706226 0.35119864 -0.7311331 1.5050828 -0.30617937
00000000: 2b26 6cbe 9e42 693f 1191 39be 0825 c23e
00000010: fe59 1b3f 60cf b7bd b7f8 923d fb56 013e
00000020: ae29 76bf 3f75 cb3e b12c 50be 89d0 113e
00000030: c5da a43c a7d2 7d3f e167 d43e 12b5 79be
00000040: 3420 e13e 7ba8 a83e 97b0 a3bf 2840 563c
00000050: 5fb4 4d3e f080 72be 0bdf 81bd 780f bf3f
00000060: ed76 1c3c 0f12 523e b558 783f 29ae ff3e
00000070: 1a24 babe b72a 043f c7f4 473e 67ef cdbe
00000080: 9e5e 4e3f e523 3e3d 4f03 c83e c160 7f3f
00000090: 64a8 8abd 3990 0fbf eda2 ff3e c6b2 01bd
000000a0: e2e5 893c d2ac 453f fe59 ecbe 7924 30bf
000000b0: aa3d b4be 5b85 e0be 2657 803f c5e1 f4be
000000c0: 7b8c e03e 1e8f 943f e7d5 243e f223 17be
000000d0: f434 1abf f00f e2be ae34 a8bd 3182 1cc0
000000e0: 582f 1e3f bb3e 31bd 525f bcbe c385 9f3f
000000f0: c6de aabd a205 15bf b3b9 d23e bbd0 363e
00000100: dad1 483f 3a03 993e 5714 d5bd a827 6d3f
00000110: ef23 7c3c 4f1e f4be 1dca 633d b28e 72bf
00000120: 2ef4 23bf dd21 88bf ae21 fa3d 7fec f1bc
00000130: 8c47 373e 5bd8 a1be 5acf 613f b3d6 b03e
00000140: c1b2 833f 7064 5b3f d3c8 56bf a425 25bf
00000150: 3808 cf3e 6e50 8bbf 8a23 f8be 7f5e a83e
00000160: 402b e9be 838e 9cbe 9dca 1cbd bd51 b33e
00000170: dfd7 89bf ad72 913e 4f08 3dbf 849c 6abf
00000180: fffb 93be 37b7 913e e087 55bf 64eb 1a3f
00000190: d2ba 9b3e f08a dc3e 1858 423f 3805 82be
000001a0: 21e8 003f 002e b23e 87a4 ddbd 8fb0 093f
000001b0: f659 fabe 6092 85be 6732 1c3f 9e78 c2be
000001c0: b29e 093d 7240 f1be 414a 8dbf f65e 1c3e
000001d0: 587f 2abc ae14 8cbe 7bf9 40be 25b5 e43d
000001e0: fa15 c2bd 7797 f63d 717d a93f aa8d 21be
000001f0: 934f 133f a9e9 5a3e 956b 413f f011 5c3e
00000200: 30cb 2bbd 478f b3be 86db c1bd d0fd c9be
00000210: 9c0e 403d cf18 37bf 7419 03be b8ea 01be
00000220: 4062 9e3e 11d5 0a3f f738 63bf b19c 20bf
00000230: c48f 10bf 640f bdbe a491 d53d ff2f 80be
00000240: 01c6 83be 75a8 4a3d 3634 85bf eba2 9abd
00000250: eee6 2c3e 961f bdbe 5938 07bf 91a8 e83e
00000260: a67c 3dbf 9464 7b3e 82ab bd3e a574 043f
00000270: 91f3 4ebe 556d d13e 6208 44bf 4777 63bf
00000280: 6fba cf3e 120f 8e3d f84f a7bf 88e6 d03e
00000290: 5bf2 8cbf ffee 5c3b b5c6 943f cc07 9f3e
000002a0: 34f7 83be 0289 2ebf a07b bc3e 8f5f 733f
000002b0: ce01 953d ae76 b6be 83fb 95be 329c 73bf
000002c0: 5e08 01bd cfc7 a3be aba1 a0be b81a 8b3f
000002d0: c44a 69be f619 1b3e 0984 f93e e3d6 8abc
000002e0: a14d e93e 12d6 9f3e db8d c3bd c5ca 3d3e
000002f0: b600 0bbe ad12 81be 3ff3 3a3f 9fbd 1b3e
00000300: cd2f 9fbf c54c fabe 8e1c 783b 6006 19be
00000310: 9d03 243f c534 1a3f f6b1 c43e baa3 763e
00000320: 94cd 77be c84d f9be 5df1 a2bf d364 92be
00000330: 03aa 7c3d f374 903e 0e5f 6dbf ee86 f73e
00000340: 3b0b 83be ed90 06be 441f 57bf 06bc 38bf
00000350: fe33 c9bd 6452 5cbf bc14 a43f 370f 22bf
00000360: ed72 4dbe 8105 943f 1e92 853e 1555 eabc
00000370: 20ef 3f3f 991f ffbe d5d6 99bf e076 663e
00000380: 1a9f 24bf 2bc8 a43e 7821 fdbd 1cf1 b33f
00000390: 1d07 1cbe 93b9 e93d 1ffa 9dbf 1097 10bc
000003a0: 490f 293e 2c68 1e3f a43c 943e 780b 373f
000003b0: 46bb 613e ce78 833e 23a9 61be a8ce 9dbe
000003c0: 7baa a43e 74cf 5f3f da25 de3e 501d 823e
000003d0: 9b4f 27be 2565 c33e 6be7 923e f260 1cc0
000003e0: 4073 e3be abea 313f 51de 66bf d5ce 013f
000003f0: 4fd0 b33e 8a2b 3bbf 8ea6 c03f 8bc3 9cbe

weight f4 [128]
0.9253313 0.8598913 0.7593879 0.8057189 0.9255389 0.9027711 0.8760521 0.8720167
0.8119811 0.8620341 0.92786175 0.80638826 0.9420596 0.7705613 0.7510128 0.87278277
0.80699694 0.84988874 0.75163966 0.82389784 0.8818402 0.7976932 0.8643076 0.7341206
1.0029569 0.8380226 0.7642797 0.75342906 0.7625881 0.8752461 1.0526037 0.8469172
0.87039983 0.8105438 0.95969033 0.8835835 0.741895 0.88834506 0.8159945 0.9563488
0.8704851 0.98860216 0.8259613 0.9335025 0.9404189 1.1180921 0.88491863 0.9284852
0.8016037 0.8970992 0.8645749 0.9128057 0.9026456 0.87681377 0.9854291 0.9790674
0.8178208 0.89173794 0.82258743 0.8674619 -0.7676455 0.9142475 0.7394717 0.75817627
0.7732941 0.9017257 0.60511607 0.8179166 0.6877078 0.7594963 0.75108606 0.72937834
0.9994333 0.81731474 0.84796745 0.95292014 0.8471911 0.884359 0.76387185 0.9658384
0.9219249 0.899457 0.8645944 0.837009 0.9082232 0.8088681 0.9213374 0.90954703
0.8797511 0.91157186 0.8099309 0.7971475 0.80553734 0.8055363 1.0302868 0.8194976
0.87372667 0.88504887 0.99127257 0.98464906 0.8385717 0.8540513 0.88154477 0.9242868
0.9644827 0.80861765 0.93394476 0.9262025 0.7793758 0.9218679 0.8268617 0.8371164
0.8501173 0.8338565 0.9014308 0.9764284 0.77216184 0.7617204 0.8034913 0.8635328
0.7715736 0.87905777 0.98406786 0.9150704 0.98004204 0.9624487 0.7751584 0.83237237
00000000: 83e2 6c3f d621 5c3f 3f67 423f 9843 4e3f
00000010: 1ef0 6c3f 021c 673f f344 603f 7d3c 5f3f
00000020: fedd 4f3f 44ae 5c3f 5988 6d3f 766f 4e3f
00000030: d12a 713f 8143 453f 6042 403f b16e 5f3f
00000040: 5a97 4e3f 4f92 593f 756b 403f f8ea 523f
00000050: 48c0 613f 9f35 4c3f 4343 5d3f 54ef 3b3f
00000060: e460 803f a688 563f d6a7 433f bae0 403f
00000070: f938 433f 2110 603f b8bb 863f 91cf 583f
00000080: 86d2 5e3f cc7f 4f3f 44ae 753f 8732 623f
00000090: d5ec 3d3f 956a 633f 04e5 503f 46d3 743f
000000a0: 1dd8 5e3f 0815 7d3f 3372 533f 05fa 6e3f
000000b0: 4bbf 703f a41d 8f3f 078a 623f 35b1 6d3f
000000c0: e635 4d3f 4ba8 653f c854 5d3f a2ad 693f
000000d0: c813 673f de76 603f 1545 7c3f 29a4 7a3f
000000e0: b45c 513f f048 643f 1795 523f fc11 5e3f
000000f0: 6a84 44bf 200c 6a3f 044e 3d3f d717 423f
00000100: 9af6 453f 7fd7 663f e3e8 1a3f fb62 513f
00000110: 9e0d 303f 596e 423f 2d47 403f 8ab8 3a3f
00000120: dcda 7f3f 8a3b 513f 6514 593f 93f2 733f
00000130: 84e1 583f 5a65 623f 1b8d 433f 2f41 773f
00000140: 4503 6c3f d042 663f 0f56 5d3f 3946 563f
00000150: 5181 683f fb11 4f3f c5dc 6b3f 13d8 683f
00000160: 5e37 613f c65c 693f a257 4f3f dc11 4c3f
00000170: b237 4e3f a137 4e3f 70e0 833f 98ca 513f
00000180: 8dac 5f3f 9092 623f 0ac4 7d3f f611 7c3f
00000190: a3ac 563f 1ba3 5a3f ebac 613f 0f9e 6c3f
000001a0: 57e8 763f 9101 4f3f 0117 6f3f 9b1b 6d3f
000001b0: 2c85 473f 89ff 6b3f 35ad 533f 434d 563f
000001c0: 4aa1 593f 9f77 553f 2bc4 663f 36f7 793f
000001d0: 66ac 453f 1c00 433f 9bb1 4d3f 7c10 5d3f
000001e0: d985 453f ee09 613f dfeb 7b3f 0e42 6a3f
000001f0: 09e4 7a3f 0a63 763f c870 463f 5b16 553f

bias f4 [128]
-0.54479116 -0.41393772 -0.2496009 -0.4064797 -0.41221535 -0.47404206 -0.54707867 -0.5496813
-0.43639627 -0.37844446 -0.4935883 -0.5833855 -0.69462824 -0.7130422 -0.30631372 -0.35096923
-0.3259885 -0.3896893 -0.29686013 -0.8395907 -0.6071895 -0.6337216 -0.6371016 -0.26641423
-0.5685642 -0.37742972 -0.49413234 -0.502346 -0.57566756 -0.41465387 -0.8528081 -0.60824525
-0.5264244 -0.646531 -0.6144698 -0.6938539 -0.20125204 -0.45270532 -0.28053865 -0.63042396
-0.5319566 -0.5299151 -0.54086304 -0.51616573 -0.36094517 -1.0100659 -0.60721195 -0.6982763
-0.17082736 -0.50408715 -0.60917753 -0.57811373 -0.4019655 -0.42781955 -1.0280862 -0.2053786
-0.5627259 -0.52711093 -0.46170798 -0.22444493 -0.55890083 -0.43386847 -0.5864762 -0.38339263
-0.6176886 -0.64485705 -0.44008207 -0.4554301 -0.23449813 -0.4901199 -0.4574127 -0.25056693
-0.99475974 -0.7552667 -0.3818291 -0.3525595 -0.47953534 -0.54862314 -0.19354063 -0.43505976
-0.6266198 -0.44337997 -0.28750986 -0.59599143 -0.42853886 -0.37461564 -0.71360993 -0.29717794
-0.39457303 -0.4729055 -0.08508113 -0.37892705 -0.39385298 -0.6197907 -0.83129644 -0.38379088
-0.16691521 -0.42535374 -0.45170772 -0.7899553 -0.29349318 -0.42325944 -0.51962227 -0.50374764
-0.45191795 -0.4856118 -0.6237097 -0.6598807 -0.101102374 -0.6593324 -0.53746253 -0.34151384
-0.5694409 -0.38927475 -0.73633516 -0.66383386 -0.44331846 -0.5055206 -0.5762971 -0.62887317
-0.5406191 -0.5047208 -0.84180844 -0.5660762 -0.6210357 -0.23198533 -0.33834127 -0.53735894
00000000: 6f77 0bbf a5ef d3be 6197 7fbe 1b1e d0be
00000010: e40d d3be a4b5 f2be 590d 0cbf eab7 0cbf
00000020: 556f dfbe 79c3 c1be 9bb7 fcbe c158 15bf
00000030: 28d3 31bf ef89 36bf 27d5 9cbe 3db2 b3be
00000040: f7e7 a6be 5b85 c7be 0dfe 97be 6bef 56bf
00000050: c570 1bbf 943b 22bf 1719 23bf 7267 88be
00000060: 6c8d 11bf 783e c1be eafe fcbe bf99 00bf
00000070: f35e 13bf 834d d4be a251 5abf f6b5 1bbf
00000080: c0c3 06bf 0e83 25bf e54d 1dbf 69a0 31bf
00000090: 0415 4ebe fec8 e7be c3a2 8fbe 7763 21bf
000000a0: 4f2e 08bf 84a8 07bf 0076 0abf 7023 04bf
000000b0: cecd b8be d749 81bf 3e72 1bbf 3cc2 32bf
000000c0: 5eed 2ebe db0b 01bf 0ff3 1bbf 43ff 13bf
000000d0: 6cce cdbe 2a0b dbbe 5498 83bf c54e 52be
000000e0: ce0e 10bf bef0 06bf fd64 ecbe e4d4 65be
000000f0: 2014 0fbf 0224 debe 4e23 16bf 0a4c c4be
00000100: d720 1ebf 5a15 25bf 7052 e1be 222e e9be
00000110: 4720 70be fff0 fabe ff31 eabe 4f4a 80be
00000120: 93a8 7ebf 2959 41bf 1b7f c3be ae82 b4be
00000130: a885 f5be 9172 0cbf 842f 46be 27c0 debe
00000140: 286a 20bf b302 e3be 7e34 93be e592 18bf
00000150: 7269 dbbe 9fcd bfbe 24af 36bf b527 98be
00000160: 7a05 cabe ab20 f2be 043f aebd ba02 c2be
00000170: 19a7 c9be 9aaa 1ebf d8cf 54bf 3d80 c4be
00000180: d2eb 2abe f7c7 d9be 3c46 e7be 833a 4abf
00000190: bd44 96be 76b5 d8be f705 05bf 9bf5 00bf
000001a0: ca61 e7be 1ca2 f8be 70ab 1fbf f1ed 28bf
000001b0: c30e cfbd 02ca 28bf 2597 09bf e7da aebe
000001c0: e1c6 11bf 054f c7be 7680 3cbf 04f1 29bf
000001d0: a3fa e2be cc69 01bf 3588 13bf d5fd 20bf
000001e0: 0366 0abf 6235 01bf c280 57bf 5fea 10bf
000001f0: 32fc 1ebf 908d 6dbe 113b adbe 5b90 09bf

running_mean f4 [128]
-0.8642598 -5.1017437 1.5365309 1.2297862 -5.1003165 -2.8969767 -4.209483 0.22857344
1.2174783 1.7430767 -1.40889 -2.6340322 -3.3525305 -0.8390387 0.88284254 -1.5540417
1.8855889 -2.0804393 0.15916704 -1.438981 3.2487497 -3.353531 -2.7738893 -2.415099
0.8232955 -0.8329428 -2.8600705 1.0633216 0.08160936 -2.0345547 -3.4666789 1.53078
-2.0879533 -1.8755908 1.8299811 5.085884 3.2471123 -3.2496386 0.14965686 -4.7354345
-0.8591922 0.05114689 -1.0774602 -4.7941384 -3.9342215 -3.914642 -3.1851473 -0.8194704
-3.3208852 0.036001023 0.7294209 -1.1759433 -3.865666 0.39374322 -2.208373 -1.389379
0.602648 -3.6009495 -3.066655 -2.4053009 6.7470756 -0.036349714 0.24794637 -3.975052
2.768979 -3.5493855 -1.6637748 -2.6761997 0.95218164 -0.15358737 3.9134452 -2.8339326
-5.94711 1.9721384 -0.8977789 -4.858626 -3.4596474 0.038574707 -1.3115705 -2.065414
0.4574503 -0.5639991 -4.5123367 -2.4997556 -1.6159655 -2.1681943 -0.94020396 -3.3011067
0.91203094 -0.6161874 -1.5411869 0.46648905 -0.14829206 4.2211394 -1.4109714 -4.7530613
-3.225637 -2.247437 1.5264996 -4.7921696 0.5792561 -3.2150795 -1.1465157 -0.4844762
-1.1996763 -0.3157762 -1.0349771 -0.17077771 -0.33898634 1.3412888 0.6221671 2.6295016
-4.6702027 -5.8675246 0.4797835 0.820958 -0.08990773 -1.7158978 -2.153145 -5.1632833
-2.122917 2.1808012 -2.066277 -3.1793656 -3.260576 -6.002798 -0.08024325 1.5532575
00000000: 2140 5dbf 7c41 a3c0 0bad c43f a269 9d3f
00000010: cb35 a3c0 1168 39c0 16b4 86c0 280f 6a3e
00000020: 54d6 9b3f 231d df3f 8256 b4bf fc93 28c0
00000030: dc8f 56c0 3ecb 56bf f801 623f d7ea c6bf
00000040: fa5a f13f eb25 05c0 affc 223e 8830 b8bf
00000050: 84eb 4f40 40a0 56c0 6787 31c0 fb90 1ac0
00000060: 7ec3 523f bd3b 55bf 650b 37c0 ec1a 883f
00000070: cf22 a73d 2536 02c0 11de 5dc0 99f0 c33f
00000080: 07a1 05c0 5c13 f0bf d23c ea3f 90bf a240
00000090: b0d0 4f40 14fa 4fc0 a63f 193e ae88 97c0
000000a0: 05f4 5bbf 677f 513d 37ea 89bf 9569 99c0
000000b0: 49ca 7bc0 7f89 7ac0 74d9 4bc0 d0c8 51bf
000000c0: 6289 54c0 cf75 133d 54bb 3a3f 4f85 96bf
000000d0: 1267 77c0 b698 c93e fc55 0dc0 2cd7 b1bf
000000e0: 2447 1a3f f575 66c0 1344 44c0 73f0 19c0
000000f0: 0be8 d740 70e3 14bd a7e5 7d3e 4167 7ec0
00000100: f436 3140 2229 63c0 93f6 d4bf db46 2bc0
00000110: 2dc2 733f 0246 1dbe e375 7a40 275f 35c0
00000120: ba4e bec0 086f fc3f d7d4 65bf dd79 9bc0
00000130: dd6a 5dc0 8300 1e3d 8be1 a7bf be2f 04c0
00000140: ed36 ea3e 3f62 10bf 1065 90c0 fffb 1fc0
00000150: f5d7 cebf b2c3 0ac0 35b1 70bf 5545 53c0
00000160: dc7a 693f 75be 1dbf 9d45 c5bf a7d7 ee3e
00000170: e0d9 17be 9313 8740 b69a b4bf 1419 98c0
00000180: d670 4ec0 02d6 0fc0 5764 c33f 7459 99c0
00000190: 214a 143f ddc3 4dc0 07c1 92bf 440d f8be
000001a0: fe8e 99bf 6bad a1be 217a 84bf 5ae0 2ebe
000001b0: 9e8f adbe 5aaf ab3f 5846 1f3f c149 2840
000001c0: 4d72 95c0 c3c2 bbc0 2fa6 f53e 4e2a 523f
000001d0: 8b21 b8bd 8aa2 dbbf 21cd 09c0 9e39 a5c0
000001e0: dfdd 07c0 3f92 0b40 e23d 04c0 ba7a 4bc0
000001f0: 47ad 50c0 ec16 c0c0 9356 a4bd 24d1 c63f

running_var f4 [128]
71.598335 51.144978 54.60127 41.89243 45.099926 47.55768 39.101532 38.61707
47.99973 42.32795 58.350502 37.231552 43.83667 53.996155 34.427902 43.277237
45.754044 49.958744 47.741467 50.094444 45.632687 40.099148 38.10483 47.701637
41.65235 40.921185 31.039581 42.828484 37.021614 39.32697 44.30675 47.080338
54.6797 32.678654 43.110516 62.43824 67.58831 46.811607 40.19906 43.52894
41.892727 47.209026 36.159355 42.980778 63.06401 40.64662 34.555508 42.67923
45.590034 39.8818 42.310925 54.373596 47.490738 38.025497 40.35266 44.824116
35.747463 31.996662 37.91489 51.621593 57.98404 47.538696 39.496586 45.073086
46.474327 40.748135 78.51601 41.934856 47.331196 39.271713 40.90218 46.97905
41.486206 65.97379 36.90452 50.638515 37.395668 45.955166 43.272583 50.041855
40.402325 39.669495 53.166824 39.76196 45.90268 37.644382 45.17067 60.85239
37.734833 45.68142 54.501522 47.12351 34.945835 30.332434 37.393982 44.049603
50.93232 57.334972 48.413258 47.277966 52.46539 42.450806 38.640648 44.289623
46.910995 38.427452 41.665966 34.41633 81.85728 50.44554 36.8425 64.5136
44.69513 54.268185 39.336796 39.563805 50.208786 41.94052 36.654564 39.273766
55.414772 42.48558 32.73483 41.390755 45.969044 63.867805 40.234024 42.680355
00000000: 5932 8f42 7594 4c42 b367 5a42 d991 2742
00000010: 5366 3442 103b 3e42 f867 1c42 e177 1a42
00000020: b9ff 3f42 d24f 2942 ea66 6942 1ced 1442
00000030: c058 2f42 10fc 5742 2cb6 0942 e41b 2d42
00000040: 2404 3742 c1d5 4742 43f7 3e42 b660 4842
00000050: df87 3642 8765 2042 596b 1842 7ace 3e42
00000060: 029c 2642 4baf 2342 1051 f841 5e50 2b42
00000070: 2216 1442 d14e 1d42 1d3a 3142 4452 3c42
00000080: 03b8 5a42 f1b6 0242 2b71 2c42 c2c0 7942
00000090: 372d 8742 163f 3b42 d6cb 2042 a21d 2e42
000000a0: 2792 2742 0bd6 3c42 2ea3 1042 51ec 2b42
000000b0: 8c41 7c42 2496 2242 d738 0a42 88b7 2a42
000000c0: 325c 3642 f786 1f42 633e 2942 907e 5942
000000d0: 84f6 3d42 1c1a 1842 2069 2142 e54b 3342
000000e0: 67fd 0e42 2af9 ff41 d9a8 1742 837c 4e42
000000f0: a8ef 6742 a027 3e42 81fc 1d42 d74a 3442
00000100: b6e5 3942 17fe 2242 3208 9d42 4bbd 2742
00000110: 2553 3d42 3c16 1d42 d59b 2342 8cea 3b42
00000120: e0f1 2542 95f2 8342 3a9e 1342 d78d 4a42
00000130: 2a95 1542 17d2 3742 2017 2d42 dc2a 4842
00000140: fb9b 2142 90ad 1e42 d4aa 5442 3f0c 1f42
00000150: 589c 3742 d993 1642 c4ae 3442 d968 7342
00000160: 78f0 1642 c6b9 3642 8f01 5a42 797e 3c42
00000170: 89c8 0b42 d3a8 f241 7093 1542 cb32 3042
00000180: b2ba 4b42 0357 6542 2da7 4142 a31c 3d42
00000190: 8fdc 5142 a0cd 2942 0690 1a42 9328 3142
000001a0: dca4 3b42 b6b5 1942 f3a9 2642 52aa 0942
000001b0: edb6 a342 3cc8 4942 b85e 1342 f706 8142
000001c0: d0c7 3242 9f12 5942 e158 1d42 5641 1e42
000001d0: ccd5 4842 18c3 2742 469e 1242 5618 1d42
000001e0: baa8 5d42 3cf1 2942 77f0 0242 2290 2542
000001f0: 4de0 3742 a278 7f42 a4ef 2042 afb8 2a42

weight f4 [128, 32, 4, 4]
-0.14720565 0.60255843 -0.10616794 -0.68311185 0.390491 -0.0054276683 0.5784666 0.21306506
0.33849692 0.25446066 0.2053784 -0.21951477 -0.06824332 0.037309404 -0.45959336 1.0193645
-1.2032341 0.043201014 -0.13068469 0.31877217 -0.38699025 0.38155568 -0.02989636 -0.09315195
0.4307794 0.47808555 0.25860113 1.2940074 0.47025022 -0.26658186 -0.87821436 -0.5612724
0.06191335 -0.25990057 -0.9129856 0.52274543 0.7706978 0.3278235 -0.037629142 -1.7064079
-0.6087799 -0.24394436 -0.46411398 -0.978716 -0.32511383 0.7113161 -0.06318387 -0.1418472
-1.7351679 -0.4070615 -0.26558354 0.36954188 -1.258904 -0.16124795 0.027920784 0.3615347
-1.3160543 -0.2748313 0.15055515 0.25818852 0.22997898 -0.58848375 0.45089623 0.5551985
0.9296611 -0.051029745 -0.54804355 -0.46128172 0.022436526 0.14808276 1.5436864 0.38131812
-0.034165323 -0.5787669 1.3836462 -1.2843225 0.7961816 -0.27366787 0.33664784 -0.9815801
-0.8601882 -0.3050456 -0.6921561 0.68135643 -0.2474123 0.2341501 0.5619894 -0.8532953
0.3081027 0.54446083 0.720875 0.13113612 0.58627814 0.7915594 0.16706929 0.20318355
0.24799117 0.5651053 0.19109808 -0.89842206 -0.2187848 0.11780452 0.68071705 -0.92345065
-0.50956804 0.2441415 -0.6264944 -0.44610417 -0.09152796 0.20655939 -0.045205362 -0.40527955
0.41075253 1.5971509 0.4270007 -0.017059721 0.29663664 -0.3274234 0.7370099 0.53505814
0.5746382 0.6418629 -0.34035936 -0.51681465 0.94948125 0.658297 0.6686384 -0.92178315
0.6508799 -0.044425536 0.7298475 0.41932833 -0.36772588 -0.68521136 -0.8359624 0.46104932
0.9266 0.5360998 -0.08966057 0.09526469 0.46483982 0.29648462 0.32950225 0.47793397
-0.21093065 0.71528 0.5836637 -1.2995954 0.4728994 -0.43383586 0.21388464 0.6865142
0.7776264 0.46821794 0.6114468 -0.7291525 0.7626935 -0.18502699 0.7159276 -0.081253454
1.4547309 0.5052505 0.22552189 -0.9623161 -0.4070756 0.43826932 0.23531048 0.26395902
-0.93582904 -0.18202037 -0.49277195 -1.7616038 -0.8328207 0.4824643 -0.20529357 -0.7000852
-0.9833816 -1.1418121 0.28227878 -0.1534557 -0.25057915 0.07214504 -0.14628272 -0.8892646
0.22437021 0.14531687 -0.042152695 -1.0287565 -0.611895 -0.52965343 0.38947317 -1.9536803
-0.088453725 1.0486975 -0.23938048 -1.1976275 0.5940997 0.24549171 0.17895342 0.48816377
-0.8048914 -0.45424214 0.061181016 0.5236179 -0.3749912 0.9087071 0.85324997 0.0697731
-0.10948876 0.66596514 0.48048648 -0.6041734 0.59640145 0.0939185 0.48931712 -1.2305747
-0.035827033 0.84451926 0.281998 0.12943287 -0.49822366 -0.28650963 -0.19699386 -0.5762262
0.03876626 0.15000193 -0.10318639 0.33545396 -0.93110025 1.0570606 -0.47060063 -1.1467397
1.064869 0.0077973153 -1.0643181 -0.7144173 -1.5291754 0.36787263 -0.27921954 -1.076926
-0.50086653 -0.59549886 0.6246237 1.1308402 0.29581925 -0.3181695 0.16734453 0.5704651
-0.5102069 -0.3369369 0.6511845 0.781031 -0.086666666 -0.26673982 -0.6051218 0.3867022
00000000: 14bd 16be 4541 1a3f 946e d9bd 6be0 2ebf
00000010: 70ee c73e 95da b1bb 6316 143f ba2d 5a3e
00000020: 784f ad3e ab48 823e b74e 523e 7bc8 60be
00000030: 27c3 8bbd bfd1 183d d24f ebbe 897a 823f
00000040: 9303 9abf 8cf3 303d 35d2 05be 1b36 a33e
00000050: 9623 c6be 445b c33e 36e9 f4bc 73c6 bebd
00000060: 1e8f dc3e a1c7 f43e 5e67 843e 09a2 a53f
00000070: a3c4 f03e 6b7d 88be a8d2 60bf 8caf 0fbf
00000080: da98 7d3d b011 85be 6db9 69bf a5d2 053f
00000090: 734c 453f 7bd8 a73e 0421 1abd 936b dabf
000000a0: 00d9 1bbf 8dcc 79be 59a0 edbe 228d 7abf
000000b0: 5275 a6be d018 363f 8b66 81bd 6440 11be
000000c0: fb19 debf 5d6a d0be 91fa 87be 9834 bd3e
000000d0: c423 a1bf 2f1e 25be 21ba e43c 141b b93e
000000e0: 7874 a8bf b0b6 8cbe 212b 1a3e 4931 843e
000000f0: 9c7f 6b3e dfa6 16bf dfdb e63e 7d21 0e3f
00000100: 45fe 6d3f 9104 51bd 954c 0cbf 1e2d ecbe
00000110: cecc b73c 02a3 173e 8497 c53f 213c c33e
00000120: f0f0 0bbd 112a 14bf 521b b13f ae64 a4bf
00000130: 8fd2 4b3f 321e 8cbe 1b5d ac3e d548 7bbf
00000140: 4b35 5cbf f02e 9cbe 2431 31bf 606d 2e3f
00000150: a659 7dbe 0bc5 6f3e 8ade 0f3f 9071 5abf
00000160: a3bf 9d3e c961 0b3f 448b 383f 8c48 063e
00000170: 5316 163f a3a3 4a3f 3614 2b3e 590f 503e
00000180: 66f1 7d3e beaa 103f 37af 433e fdfe 65bf
00000190: 1f09 60be 7f43 f13d 7943 2e3f 4367 6cbf
000001a0: 0d73 02bf 3b00 7a3e f061 20bf c467 e4be
000001b0: 0373 bbbd 4e84 533e 4229 39bd cd80 cfbe
000001c0: 284e d23e 716f cc3f d69f da3e d4c0 8bbc
000001d0: c2e0 973e 0aa4 a7be aeac 3c3f 92f9 083f
000001e0: 7d1b 133f 2151 243f 9543 aebe f74d 04bf
000001f0: 3411 733f 2786 283f e32b 2b3f fbf9 6bbf
00000200: 11a0 263f 8df7 35bd 49d7 3a3f 34b2 d63e
00000210: 9146 bcbe 036a 2fbf a201 56bf a80e ec3e
00000220: a835 6d3f d63d 093f f69f b7bd 221a c33d
00000230: 7cff ed3e d5cc 973e 85b4 a83e c3b3 f43e
00000240: 34fe 57be 971c 373f fc6a 153f 2459 a6bf
00000250: df1f f23e bc1f debe 9304 5b3e 65bf 2f3f
00000260: 8612 473f 43ba ef3e c787 1c3f bda9 3abf
00000270: e23f 433f b777 3dbe 0847 373f 3668 a6bd
00000280: 9f34 ba3f 1958 013f 36ef 663e 595a 76bf
00000290: 376c d0be d664 e03e 3bf5 703e a325 873e
000002a0: 7e92 6fbf 8c63 3abe 9b4c fcbe 3c7c e1bf
000002b0: bd33 55bf 9005 f73e 7a38 52be c938 33bf
000002c0: e6be 7bbf e626 92bf d886 903e 7e23 1dbe
000002d0: e94b 80be c7c0 933d 23cb 15be d8a6 63bf
000002e0: 4ec1 653e f2cd 143e 4ea8 2cbd 4bae 83bf
000002f0: 27a5 1cbf 5e97 07bf 0769 c73e 3212 fabf
00000300: 3a27 b5bd b83b 863f 2820 75be dc4b 99bf
00000310: eb16 183f 2e62 7b3e 913f 373e 9af0 f93e
00000320: 5d0d 4ebf 6d92 e8be f298 7a3d d30b 063f
00000330: d9fe bfbe 07a1 683f 976e 5a3f 33e5 8e3d
00000340: a53b e0bd b17c 2a3f 5302 f63e 1cab 1abf
00000350: c4ad 183f 5858 c03d c687 fa3e 7983 9dbf
00000360: 5ebf 12bd 6a32 583f 0b62 903e 0d8a 043e
00000370: 2c17 ffbe 64b1 92be c2b8 49be 8f83 13bf
00000380: 5fc9 1e3d 1b9a 193e 6353 d3bd 9fc0 ab3e
00000390: 965c 6ebf c34d 873f 91f2 f0be 5ec8 92bf
000003a0: a14d 883f 9f80 ff3b 933b 88bf 0de4 36bf
000003b0: 05bc c3bf cd59 bc3e ddf5 8ebe b6d8 89bf
000003c0: ca38 00bf 9d72 18bf 57e7 1f3f 5fbf 903f
000003d0: 9f75 973e 1de7 a2be 5d5c 2b3e 000a 123f
000003e0: eb9c 02bf fe82 acbe 07b4 263f a6f1 473f
000003f0: 4b7e b1bd 1f92 88be 43e9 1abf d5fd c53e

weight f4 [32]
0.7850089 0.7714173 0.9002145 0.8574137 0.7367736 -0.7486931 0.85305566 0.8055533
-0.83891207 0.7592115 0.77732944 0.8547756 0.8106743 0.87411016 0.68780774 0.90448904
0.7851729 0.85037583 0.7527332 0.72393614 0.70025116 0.8807345 0.7568078 0.8217577
0.8637754 0.66834486 0.80788326 0.84329754 0.7813159 0.680121 0.7498908 0.7413763
00000000: 58f6 483f 9b7b 453f 7574 663f 777f 5b3f
00000010: 329d 3c3f 5aaa 3fbf db61 5a3f be38 4e3f
00000020: f1c2 56bf af5b 423f 10ff 463f 93d2 5a3f
00000030: 5a88 4f3f afc5 5f3f 2b14 303f 988c 673f
00000040: 1701 493f 3bb2 593f 1fb3 403f e153 393f
00000050: a943 333f d177 613f 28be 413f b65e 523f
00000060: 6220 5d3f a618 2b3f 70d1 4e3f 59e2 573f
00000070: 5204 483f 691c 2e3f d8f8 3f3f d6ca 3d3f

bias f4 [32]
-0.24257718 -0.6651233 -0.601939 -0.2897167 -0.2450247 -0.9531107 -0.8162623 -0.58901036
-0.5486969 -0.2227329 -0.6251361 -0.52135795 -0.37215173 -0.8088204 0.025631214 -0.29576078
-0.32954365 -0.4601039 -0.12910981 -0.38035795 -0.61475056 -0.54439193 -0.017002236 -0.5330755
-0.68072075 -0.7172149 -0.81072766 -0.31978416 -0.53539765 -0.21160214 -0.3606068 -0.43419683
00000000: 2766 78be 8545 2abf ad18 1abf bf55 94be
00000010: c1e7 7abe 10ff 73bf 91f6 50bf 62c9 16bf
00000020: 6677 0cbf 1814 64be eb08 20bf b777 05bf
00000030: ac8a bebe db0e 4fbf 8df8 d13c f56d 97be
00000040: f2b9 a8be bd92 ebbe 5d35 04be 47be c2be
00000050: 4b60 1dbf 455d 0bbf 4648 8bbc a377 08bf
00000060: b743 2ebf 659b 37bf d98b 4fbf c0ba a3be
00000070: d20f 09bf 3bae 58be 74a1 b8be 0c4f debe

running_mean f4 [32]
0.29247254 -0.30185956 -1.6366109 -0.51518416 1.4083968 2.2833595 -0.33115014 -1.6586202
3.4407897 0.08306456 -2.434729 -2.6854227 0.23681027 -0.9511916 0.63298666 0.31887415
-0.9382046 -0.2598378 -0.3984803 -0.21979685 -1.4991922 -0.5182183 1.377663 -1.1482894
-3.396726 -2.3951817 -2.494135 0.11453097 -0.79220223 -1.1668661 1.232729 -1.6158792
00000000: f6be 953e 568d 9abe 777c d1bf 1ce3 03bf
00000010: 5946 b43f 9022 1240 838c a9be ab4d d4bf
00000020: e635 5c40 c11d aa3d 9ad2 1bc0 f7dd 2bc0
00000030: 647e 723e 4b81 73bf 6a0b 223f 7943 a33e
00000040: 2d2e 70bf 7609 85be 9c05 ccbe 6d12 61be
00000050: 88e5 bfbf f4a9 04bf 4357 b03f 26fb 92bf
00000060: f563 59c0 a84a 19c0 e89f 1fc0 378f ea3d
00000070: c4cd 4abf de5b 95bf 10ca 9d3f 21d5 cebf

running_var f4 [32]
37.803043 33.17202 30.850258 35.336967 39.391262 29.994316 33.084023 30.366306
37.4979 31.977657 28.768745 33.051422 35.410263 29.143799 39.649784 45.648483
37.277195 33.610287 33.038544 33.589493 28.6156 35.825733 45.443417 28.789732
29.35846 33.095078 28.930721 35.36468 29.611841 32.523594 45.11638 33.065346
00000000: 5136 1742 26b0 0442 54cd f641 0e59 0d42
00000010: a790 1d42 5cf4 ef41 0a56 0442 32ee f241
00000020: d9fd 1542 3ed2 ff41 6426 e641 a834 0442
00000030: 1ca4 0d42 8026 e941 6199 1e42 0c98 3642
00000040: d91b 1542 ef70 0642 7827 0442 a45b 0642
00000050: c0ec e441 8d4d 0f42 0fc6 3542 5f51 e641
00000060: 20de ea41 5c61 0442 1e72 e741 6f75 0d42
00000070: 0de5 ec41 2918 0242 2c77 3442 ea42 0442

weight f4 [32, 32, 4, 4]
0.50316894 1.203088 0.92424804 -0.44418684 0.2583928 0.53074676 -0.024828997 0.38209212
0.27186486 0.54893965 0.31658873 -0.69990027 0.24808095 -0.1420155 -0.1292955 0.16880412
0.54826903 -0.44559067 -0.11814813 -2.0459259 0.20699428 -0.2259682 -0.15408807 -1.4760386
0.07779473 0.7013138 -0.8439457 -0.48883104 -0.55434245 -0.24355865 -0.4370242 -0.8008599
0.44626394 0.5898007 0.8480323 1.0822188 -0.20063181 -0.06423638 0.56471896 0.16616489
-0.38959697 0.6677803 0.92415947 1.1113595 0.44045013 -0.5265161 0.6619344 0.61515146
0.0939365 -0.64014477 -1.2488091 -0.64615744 -0.28124726 -1.2256546 0.60705423 0.4687227
0.3781292 -0.23469469 0.37601805 -0.75252885 0.45966426 0.23840515 0.57343614 0.3841957
0.744081 -1.199848 0.040822648 0.12445655 0.59735006 -0.09306224 1.2021106 -1.1103754
0.016412234 -0.2871935 0.121806644 0.18986651 0.13443956 -0.6418696 -0.07831862 -0.088183396
-0.3407044 -0.60858095 -0.28296614 0.25076342 -0.8644137 -0.06028387 -0.63290983 -0.06205968
-0.26612526 -0.41018006 0.112082615 -0.0065193437 -0.4355153 -0.4477473 -0.007066377 0.10109458
0.042805597 0.73516613 -0.1820285 0.4105938 -0.41149503 -0.41746327 -0.8947265 -0.9339948
0.060812995 0.8135652 -0.4642545 -0.18919851 -0.1446599 0.6978219 -0.47163233 -0.35404414
-0.1934057 0.36972275 -0.25770083 -0.74139696 -0.44920623 -0.20561129 -0.6250927 0.042091656
-1.0494664 0.06622993 -0.2749467 -0.92549306 -0.6910368 0.21903332 0.08609511 -0.81381
0.54306006 0.49629575 -0.4186707 0.40171182 -0.30478582 -0.14058231 -0.6351313 0.13191363
0.061177637 0.1784443 -0.29759917 0.45171803 -0.23817456 0.6792334 -0.29179475 0.006290139
0.8558572 0.1392893 -0.56509966 -0.051897947 0.56805533 0.3097257 -0.9903361 0.07423809
0.3835574 -1.1835856 -0.40125775 -0.07900831 0.83231187 -0.043031916 -0.6085241 -0.94727474
-0.13204157 -0.07499328 1.2373999 -1.277938 -0.020529693 0.31468746 0.13209912 -0.29858318
-0.7143433 -0.15972817 -0.8176239 -1.3240031 -0.95958596 0.8875123 -0.12709613 0.165634
0.41346988 -0.692245 -0.9233871 -0.62938106 -0.9657139 -0.13254708 -0.0047693523 -0.55088705
-0.29278538 -0.44723883 -0.60362357 -0.43712884 0.55724394 -0.5739904 -1.666995 -0.8987899
-0.69396204 -1.1223875 0.24575286 0.35754505 0.101984136 -0.08640926 0.4757436 0.54359466
0.56229144 -1.1088923 -0.35521308 0.947414 0.278114 -1.0171485 -0.5525116 0.6733331
-0.60300374 -0.9119337 0.061377104 0.29472277 0.35770264 -0.57358164 -0.41925317 -0.39000356
0.46404544 -0.42438188 0.35165036 -0.09307652 0.33312017 -0.37231097 0.044883106 -0.28402966
-0.8441531 -0.84358793 -0.034997657 -0.6226055 -0.58779806 -0.6582183 -0.466804 -0.3662135
-0.79853326 -0.52938086 0.5400305 -0.8869272 0.13744847 -0.43930876 0.83053327 -1.4225851
-0.46958232 -0.5126936 -0.044044092 0.30978978 0.68896824 0.57535297 0.73640573 -0.19555171
0.17207143 -0.07096161 -0.70119524 -0.00015442696 0.11619583 -0.010173528 0.39500713 -1.0349389
00000000: aecf 003f cafe 993f 859b 6c3f 756c e3be
00000010: 104c 843e 05df 073f 2e66 cbbc 94a1 c33e
00000020: df31 8b3e 4f87 0c3f eb17 a23e aa2c 33bf
00000030: ef08 7e3e 836c 11be 0a66 04be fdda 2c3e
00000040: 5c5b 0c3f 7624 e4be a6f7 f1bd 73f0 02c0
00000050: 4ff6 533e 3564 67be 43c9 1dbe d5ee bcbf
00000060: d852 9f3d 4d89 333f d30c 58bf 1048 fabe
00000070: 63e9 0dbf 7067 79be a3c1 dfbe 2805 4dbf
00000080: b57c e43e 2efd 163f a518 593f 2586 8a3f
00000090: 6d72 4dbe 5d8e 83bd 6c91 103f 2127 2a3e
000000a0: 4179 c7be a6f3 2a3f b795 6c3f 0741 8e3f
000000b0: ae82 e13e c2c9 06bf 8874 293f 917a 1d3f
000000c0: c861 c03d 87e0 23bf fad8 9fbf 936a 25bf
000000d0: a4ff 8fbe 40e2 9cbf e867 1b3f 6cfc ef3e
000000e0: 279a c13e ce53 70be 7085 c03e bba5 40bf
000000f0: 1d59 eb3e 7b20 743e b6cc 123f 4cb5 c43e
00000100: 187c 3e3f 9f94 99bf a635 273d 13e3 fe3d
00000110: efeb 183f 6a97 bebd c3de 993f c820 8ebf
00000120: f372 863c 070b 93be c375 f93d 5e6c 423e
00000130: 86aa 093e 9151 24bf 8365 a0bd 7f99 b4bd
00000140: cf70 aebe f6cb 1bbf f0e0 90be 1064 803e
00000150: 374a 5dbf 38ec 76bd 6106 22bf 4b32 7ebd
00000160: 9241 88be 1f03 d2be 928b e53d 38a0 d5bb
00000170: ddfb debe 223f e5be 118d e7bb ad0a cf3d
00000180: ec54 2f3d d933 3c3f ae65 3abe 5a39 d23e
00000190: 7aaf d2be bfbd d5be cc0c 65bf 491a 6fbf
000001a0: 0c17 793d cf45 503f c4b2 edbe 41bd 41be
000001b0: ba21 14be 75a4 323f cb79 f1be 4645 b5be
000001c0: 250c 46be 4d4c bd3e 5df1 83be 31cc 3dbf
000001d0: 5cfe e5be c48b 52be 1306 20bf 4d68 2c3d
000001e0: ea54 86bf 8fa3 873d d0c5 8cbe 1ded 6cbf
000001f0: cae7 30bf 454a 603e a252 b03d da55 50bf
00000200: fc05 0b3f 7a1a fe3e 025c d6be 2cad cd3e
00000210: e30c 9cbe cff4 0fbe f797 22bf 5e14 073e
00000220: 6795 7a3d 1aba 363e eb5e 98be 9647 e73e
00000230: 08e4 73be 3de2 2d3f 1f66 95be 831d ce3b
00000240: 7519 5b3f dba1 0e3e 5faa 10bf f192 54bd
00000250: 136c 113f 5e94 9e3e ab86 7dbf 240a 983d
00000260: a361 c43e bc7f 97bf a871 cdbe 1ccf a1bd
00000270: 6412 553f 3c42 30bd 3cc8 1bbf 9980 72bf
00000280: e835 07be 1496 99bd 1f63 9e3f 7993 a3bf
00000290: e32d a8bc b71e a13e fe44 073e e5df 98be
000002a0: 34df 36bf c88f 23be cd4f 51bf ef78 a9bf
000002b0: 6da7 75bf 0234 633f 7d25 02be f69b 293e
000002c0: 53b2 d33e f836 31bf 1963 6cbf 1e1f 21bf
000002d0: 0739 77bf 6cba 07be 3a48 9cbb ef06 0dbf
000002e0: f7e7 95be 7dfc e4be 1387 1abf 5acf dfbe
000002f0: 8aa7 0e3f 09f1 12bf 1860 d5bf 1817 66bf
00000300: 7fa7 31bf 65aa 8fbf a3a6 7b3e 2510 b73e
00000310: 0fdd d03d 57f7 b0bd aa94 f33e 0529 0b3f
00000320: 55f2 0f3f 2ff0 8dbf 7dde b5be b989 723f
00000330: f564 8e3e ec31 82bf 6671 0dbf 8f5f 2c3f
00000340: 745e 1abf 7d74 69bf 8f66 7b3d e7e5 963e
00000350: cd24 b73e 3fd6 12bf 5aa8 d6be 8cae c7be
00000360: 5d97 ed3e 9548 d9be 840b b43e e79e bebd
00000370: ba8e aa3e 8b9f bebe 59d7 373d 566c 91be
00000380: 6b1a 58bf 61f5 57bf b459 0fbd 1363 1fbf
00000390: ef79 16bf ff80 28bf ef00 efbe 5680 bbbe
000003a0: ad6c 4cbf 8185 07bf 703f 0a3f a90d 63bf
000003b0: 4bbf 0c3e 14ed e0be d49d 543f 4517 b6bf
000003c0: 186d f0be e33f 03bf 9467 34bd c49c 9e3e
000003d0: 3960 303f 554a 133f 1685 3c3f b53e 48be
000003e0: 7e33 303e 5254 91bd 8881 33bf aced 21b9
000003f0: 14f8 ed3d dfae 26bc 603e ca3e e178 84bf

weight f4 [32]
0.85442126 0.74032414 0.80682933 0.6850057 0.65920645 0.82389677 0.66063786 0.59127367
0.76107615 0.8515119 0.7465621 0.75316656 0.8406352 0.71812576 0.75570035 0.80203867
0.8123354 0.7153067 0.70010686 0.67938495 0.717133 0.7200651 1.045468 0.7995996
0.6765643 0.65800154 0.7233454 0.78236246 0.79436016 0.98112905 0.67358613 0.91077703
00000000: 5abb 5a3f e285 3d3f 5e8c 4e3f 895c 2f3f
00000010: c1c1 283f e6ea 523f 901f 293f b65d 173f
00000020: e3d5 423f affc 593f b21e 3f3f 86cf 403f
00000030: de33 573f 17d7 373f 9475 413f 6852 4d3f
00000040: 36f5 4f3f 571e 373f 343a 333f 2cec 2d3f
00000050: 0796 373f 3056 383f e5d1 853f 8fb2 4c3f
00000060: 5133 2d3f ca72 283f 2a2d 393f e848 483f
00000070: 305b 4b3f 462b 7b3f 2470 2c3f af28 693f

bias f4 [32]
-0.14626054 -0.08077076 0.1584103 -0.6708146 -0.69535786 -0.18211767 -0.35429046 -0.061727677
0.100487255 -0.07534236 -0.33039153 -0.630806 -0.02604459 -0.44938892 -0.5375213 -0.24242947
-0.48487663 0.13309157 -0.2815618 -0.25100625 -0.7136035 -0.683313 -0.6432076 -0.59437037
-0.5943947 -0.6414424 -0.32418427 -0.8470323 -0.66473603 -0.17540327 -0.5702639 -0.14823335
00000000: 53c5 15be 246b a5bd 4f36 223e 81ba 2bbf
00000010: f902 32bf 0e7d 3abe 8f65 b5be 29d6 7cbd
00000020: 43cc cd3d 184d 9abd 1429 a9be 817c 21bf
00000030: 775b d5bc 4e16 e6be ff9a 09bf 6e3f 78be
00000040: c041 f8be 2849 083e de28 90be e483 80be
00000050: b8ae 36bf 9aed 2ebf 41a9 24bf a828 18bf
00000060: 402a 18bf 9235 24bf 7bfb a5be 1cd7 58bf
00000070: 242c 2abf ea9c 33be d1fc 11bf 7cca 17be

running_mean f4 [32]
0.8644796 -0.0099837845 1.3347172 -1.337651 -1.4715405 0.017110862 -1.5800351 0.05242547
-0.41364622 0.54804575 -0.50273454 -1.1767764 1.2410733 -0.7589059 -0.2575306 -0.3358919
-0.87218946 0.2804604 0.06603913 -1.1136937 -1.5639431 -2.9475448 1.1502784 -1.0453508
-0.9584664 -1.4543631 -0.34633386 -1.8413299 0.124943934 -0.041454952 -1.454104 0.6674016
00000000: 894e 5d3f 0793 23bc 03d8 aa3f 2638 abbf
00000010: 705b bcbf 142c 8c3c 973e cabf 17bc 563d
00000020: 70c9 d3be ba4c 0c3f 36b3 00bf 9ca0 96bf
00000030: 7ddb 9e3f a847 42bf 0ddb 83be 06fa abbe
00000040: cf47 5fbf 8198 8f3e 863f 873d 848d 8ebf
00000050: 4a2f c8bf 93a4 3cc0 533c 933f 0ece 85bf
00000060: 0e5e 75bf 9228 babf ac52 b1be b3b0 ebbf
00000070: 9be2 ff3d abcc 29bd 1420 babf d5da 2a3f

running_var f4 [32]
8.096906 6.782884 8.07492 6.4266634 6.0687313 6.499921 6.447949 7.139183
6.889374 6.8251543 7.303126 6.4230175 7.390878 6.1710153 7.4921317 7.1976867
6.6278787 8.939825 7.5910373 6.7531524 5.6903157 6.496326 6.7417717 6.6406145
6.7560635 6.0221324 7.0336475 7.1931577 6.621436 7.712805 6.473614 7.3303537
00000000: ed8c 0141 630d d940 df32 0141 3aa7 cd40
00000010: 0c33 c240 5aff cf40 9955 ce40 3074 e440
00000020: c075 dc40 aa67 da40 35b3 e940 5c89 cd40
00000030: 1382 ec40 f578 c540 8bbf ef40 7353 e640
00000040: 9517 d440 8609 0f41 c7e9 f240 d319 d840
00000050: 1117 b640 e7e1 cf40 98bc d740 ea7f d440
00000060: ac31 d840 4fb5 c040 a413 e140 592e e640
00000070: cee2 d340 4ccf f640 d927 cf40 4292 ea40
