models/testing_bigger/testing_bigger_298.pt (torch_old, 623391 bytes, 22 tensors)

weight f4 [64, 1, 3, 3]
000000 08 56 99 be 32 fc 00 3f 16 0e b4 3c 30 b9 cb be
       -0.2994845 0.5038482 0.021979373 -0.39789724
000010 0b 49 82 be 5c 1e 3d 3e 14 39 55 3f 1e 3d 10 bf
       -0.25446352 0.18468612 0.8329022 -0.5634326
000020 2d 50 d0 bc 0f 85 f3 bc a5 97 a6 3e af 61 f9 be
       -0.025428856 -0.029726533 0.3253757 -0.4870734
000030 67 cd cf 3d cf 6e bd 3e 2c 7b 5e be cf 3d 6b bd
       0.10146599 0.36998603 -0.21726674 -0.057431992
000040 d2 5f 06 3f fb f4 d0 be d4 91 40 bf f8 04 a6 3e
       0.5248996 -0.40811905 -0.75222516 0.32425666
000050 3e 2b b6 3e af 0b 16 bf cc 60 04 3f 0d 01 97 3c
       0.35579866 -0.5861158 0.517102 0.018433118
000060 a7 38 c4 3c 80 62 ed be f5 2f 10 3e ce 53 84 3d
       0.023952795 -0.46364212 0.14080794 0.06461297
000070 4b ad 0f 3d 42 f4 d1 bd db 42 49 bb d2 bc 2f bf
       0.035077374 -0.102516666 -0.0030710015 -0.6864749
000080 2f f9 12 3d 85 13 9b bd e8 5b e7 3c 73 07 9e 3c
       0.03588217 -0.075720824 0.028242067 0.019290661
000090 82 34 5f 3c 7e 58 21 3d 6a 93 1d 3d 6d f9 c4 be
       0.013623359 0.039391033 0.038470663 -0.38471547
0000a0 73 2b 83 bf 84 3e 9b be 09 3a 0b 3d 6f 67 ab bb
       -1.0247635 -0.30321133 0.033990894 -0.005230836
0000b0 f1 74 85 3d 5e dc 45 bd 4a 16 e9 3c 40 80 b1 3b
       0.065164454 -0.04830586 0.028453011 0.0054169
0000c0 84 09 3e 3d db 23 1a bf a8 da 75 3d ec c5 a5 bd
       0.046395794 -0.6021096 0.06002298 -0.08094391
0000d0 3f 12 95 3c d0 67 dc bd 45 e0 6c 3f 30 f8 22 bf
       0.018197177 -0.10761988 0.9252971 -0.63659954
0000e0 8f e0 98 be 68 c8 87 bf 3f d4 3a 3f c8 f7 2c 3e
       -0.29858825 -1.0608034 0.7298011 0.16891396
0000f0 a5 1d 16 bc a2 60 19 be 4c db 23 3e 49 9f 04 bf
       -0.009162341 -0.14978269 0.16001624 -0.5180555
000100 f6 3b 1d bf 19 ef eb bd 63 53 fc 3e 2e 15 f4 3e
       -0.6141962 -0.11520214 0.4928237 0.4767241
000110 9b 71 98 3e f3 09 f6 bd 04 95 f1 3d 33 31 a5 be
       0.29774174 -0.120136164 0.117960006 -0.322641
000120 3b f1 8d 3e 1e fc b3 3e 52 a7 0e 3f ff 2b ef bc
       0.27723107 0.35153288 0.5572406 -0.029195784
000130 5e 2a 1f be 7c 56 f6 3d 03 37 92 be 02 5b 1e bf
       -0.15543506 0.12028214 -0.28557596 -0.61857617
000140 f0 e2 ed bd 89 06 fc 3e 84 98 2b 3f 78 92 da 3e
       -0.116155505 0.49223736 0.67029595 0.42689872
000150 e4 b3 f5 be 30 48 15 bf 7b d4 df be 5d 25 be 3d
       -0.47988808 -0.58313274 -0.43716797 0.0928447
000160 69 5a 07 bd 08 b0 b9 3d aa 93 b8 3d 02 2c 05 3e
       -0.033045206 0.090667784 0.0901254 0.13005069
000170 d7 33 bd 3c 04 22 9b 3d 7d 95 f8 bf f7 80 08 3e
       0.023096008 0.07574847 -1.942062 0.13330446
000180 54 44 c0 3d 90 4f aa 3d 9c 05 1c 3b 01 ae 37 bf
       0.093880326 0.083159566 0.0023807054 -0.71749884
000190 98 1d 24 bd 3b 28 37 3f c4 a7 bd bc dd 28 dd 3d
       -0.040067285 0.7154576 -0.023151286 0.1079881
0001a0 2b 5c a4 bd 71 1a 33 3f 21 fe 94 bd 4c 7d 29 bf
       -0.08025392 0.6996222 -0.07275034 -0.6620681
0001b0 ff 8f a8 3e 07 9f 37 bf 4d e2 c9 3e 27 1c c9 3e
       0.3292236 -0.7172703 0.39430466 0.3927929
0001c0 70 5d 1c bf 18 10 aa 3e 2f 3c 4e 3e 2a 31 00 bf
       -0.61080074 0.33215404 0.20140146 -0.5007502
0001d0 46 78 93 3e ae e9 94 3e e3 9e cd be c1 9e 4c bc
       0.288027 0.29084533 -0.40160283 -0.012489022
0001e0 f5 d9 80 3e a7 2f 04 bf 3b dd 16 bf 06 f7 21 3f
       0.25166288 -0.5163521 -0.5893132 0.6326755
0001f0 86 07 03 3c 71 63 86 bd c9 5f ce 3e 72 a3 4d bf
       0.007997399 -0.06561936 0.40307453 -0.8032752
000200 99 97 ef bd 8d cb 3a 3f d9 69 7f be 28 e7 e8 3d
       -0.11698837 0.72966844 -0.24942721 0.113722146
000210 47 2d 17 3f 47 c8 01 bf 75 ea 95 bc fa e7 86 3d
       0.5905346 -0.50696224 -0.018300274 0.06587215
000220 06 19 cf be b6 c1 a0 3e 00 af b2 3e e5 28 95 bf
       -0.4044878 0.3139779 0.3489914 -1.1653105
000230 5a 30 0d 3f 8f f4 24 3e ab e5 01 bf e9 52 9c 3e
       0.55151904 0.16108917 -0.5074107 0.30532005
000240 ba 89 df be b7 3e 86 3f 8f cc 52 be dd e8 9a 3e
       -0.43659765 1.0487889 -0.20585845 0.30255786
000250 1f f5 3d bf ac 54 2f 3d bb 4b 89 3d 25 6a 3b be
       -0.7420215 0.04280536 0.067038976 -0.1830221
000260 d2 3e eb 3d a5 26 86 be e0 48 5e be a3 7a 86 3e
       0.114865914 -0.26201358 -0.21707487 0.2626544
000270 58 7f 0a be 4a 8d 62 3f 05 3a 78 bd 00 2e 16 3e
       -0.1352514 0.8849684 -0.060602207 0.14665985
000280 b2 1b ec 3c 55 b9 f7 be 61 66 8a bc 43 9e 11 3e
       0.0288218 -0.48383585 -0.016894521 0.14220528
000290 37 cf 29 3e 18 40 b2 3d 68 cd ba bf 76 8b b7 3c
       0.16582952 0.08703631 -1.4593935 0.022405367
0002a0 0f c6 d5 bc 5a b7 1e 3e 98 2e 16 3e 55 61 8e bb
       -0.026095418 0.1549963 0.14666212 -0.004345099
0002b0 3b 7e e9 bc 74 14 e7 bb 1b 8c 3f be 6a 7d a9 be
       -0.028502574 -0.0070519987 -0.1870579 -0.33103496
0002c0 6c e3 c8 bc 52 59 05 bd 35 e8 0a 3a 96 1e 2e b9
       -0.024522506 -0.032555886 0.0005298884 -0.00016605327
0002d0 57 dd 19 3c b5 72 a9 be 95 c0 b7 3e d5 17 f0 bd
       0.00939115 -0.33095327 0.35889116 -0.117232956
0002e0 88 85 0b bf bf 0a 47 3f ba 8e 0a 3e 7c f3 35 bf
       -0.5450063 0.7775077 0.13531008 -0.7107465
0002f0 6a 70 2a 3f 8e 1c 1c 3f 7c 6d 9a be 7b c9 18 bf
       0.6657778 0.6098107 -0.30161655 -0.59682435
000300 60 7c 36 3e e9 7d 82 3d b0 a3 89 3e c3 29 06 bf
       0.17820883 0.06371672 0.26882696 -0.52407473
000310 7b 5e a0 be ab 87 0e 3f a0 82 e3 be 43 e5 1f bf
       -0.31322083 0.5567576 -0.44435596 -0.624592
000320 81 5d b2 be 66 17 92 3d 8e 64 cb 3d 61 3f ce 3b
       -0.34836963 0.07133369 0.09931289 0.0062941764
000330 ef cb ce 3e ed 12 28 3f 09 bb a8 3e cf c9 99 3c
       0.40389964 0.6565388 0.32955196 0.018772988
000340 df cd 6b be f1 8a 57 3e b5 e5 9e be 31 83 64 3f
       -0.23027752 0.21049096 -0.31034628 0.8926268
000350 36 fd 11 bf 19 d1 95 3e 80 16 30 bf eb 96 a1 3e
       -0.57026994 0.2926109 -0.6878433 0.31560454
000360 46 63 82 3e 9b a4 63 bf 0a 5e 14 3f 83 0f b5 be
       0.25466365 -0.88923043 0.5795599 -0.35363397
000370 e1 85 68 3f 9d 8d 27 bf 7d d0 e2 bd 75 f4 8e 3e
       0.90829283 -0.6545046 -0.11074922 0.2792088
000380 e2 f1 50 be a2 6f 18 3f a4 d6 0d 3f 8b 75 da 3d
       -0.20404771 0.5954534 0.5540564 0.10666951
000390 f8 37 65 3d 3a 0e 16 be ba 63 48 bf 4c 6f 72 be
       0.05596158 -0.14653865 -0.7827717 -0.23675269
0003a0 9f 77 0d bf e2 07 2c 3e 18 62 c2 bc af 7d 5d bd
       -0.5526065 0.16799882 -0.023728415 -0.05407494
0003b0 fc 3b 6b bc ad 93 1f be 62 65 51 be d4 23 12 be
       -0.014357563 -0.15583678 -0.2044883 -0.1427148
0003c0 52 42 62 bc e3 1c 62 bc d2 36 b2 bb 92 18 02 3b
       -0.013809757 -0.013800832 -0.005438664 0.001985107
0003d0 10 8d 3a be 9a 77 b8 be 43 82 20 be 51 a4 71 3f
       -0.18217874 -0.3602875 -0.15674691 0.9439135
0003e0 58 49 c1 3d 4f ce 1c bf 05 ca 71 3c f6 31 19 bd
       0.09437817 -0.612523 0.014757638 -0.037401162
0003f0 cc 12 86 bd 22 d0 03 3c 3f 18 23 bd c2 49 23 be
       -0.06546554 0.008045228 -0.039818045 -0.15946105

weight f4 [64, 64, 3, 3]
000000 08 91 7e be 67 66 79 bf d6 3d 09 bf f1 7b cc be
       -0.24860013 -0.9742188 -0.5360998 -0.3993831
000010 8e 23 98 bf 78 f5 39 3e e7 b3 5a 3f 1c 64 a5 3d
       -1.188585 0.18160045 0.8543076 0.08075735
000020 32 a4 69 bd 19 2d 8d 3e 05 05 71 3e 11 69 a7 be
       -0.057041354 0.2757347 0.23537071 -0.32697347
000030 1e 48 d3 3c 3b d8 b6 bd d3 63 6a bf e1 64 9e 3c
       0.025791224 -0.089279614 -0.9155857 0.019335212
000040 c5 1c e4 3d e4 55 74 be 4c d0 d0 3d 15 91 53 bf
       0.111383 -0.2386089 0.101959795 -0.8264325
000050 f6 9e ac 3e 1b 59 48 3f 17 b3 01 be af 91 cc 3d
       0.33715028 0.78260964 -0.12665974 0.099887244
000060 12 49 7c 3f 1f 9b 6f 3e 2a 79 65 bd 3c 5e 16 3e
       0.98548996 0.23399018 -0.056023754 0.14684385
000070 3e e5 52 be 32 71 12 be dd 8f bc bd a0 46 04 be
       -0.20595261 -0.14300993 -0.09207127 -0.12917566
000080 27 ed 7e 3d 27 87 0b 3e 84 e9 ee 3c 81 09 a0 bb
       0.062237885 0.13625775 0.029164083 -0.0048839455
000090 fa 1d ac 3e 5c fa a3 bc f1 ad 89 bd c6 ce c5 bd
       0.3361662 -0.020016842 -0.0672263 -0.096585795
0000a0 ea 09 92 3c 7a 12 91 3e a2 91 a4 3c ac e6 97 3c
       0.017826993 0.2833441 0.020088974 0.01854261
0000b0 ff 4c b3 bc 73 06 f8 3d bc c5 c5 be 85 30 da bd
       -0.0218873 0.12110605 -0.38627422 -0.106537856
0000c0 13 bc 1f bd 2b 70 35 be ae 2f 00 3d 37 15 0e 3d
       -0.03899772 -0.1771857 0.03129547 0.0346882
0000d0 67 eb 80 3d 95 f4 37 3d a2 30 08 3f 70 7e 1b be
       0.062948994 0.044910986 0.5319921 -0.15184951
0000e0 2a d5 62 3f 83 71 0f 3f 68 4c 07 c0 9e 68 d1 3e
       0.8860651 0.5603258 -2.1140385 0.4090013
0000f0 93 de 12 be c5 f4 90 bf 1f 24 ca bc ab 25 30 be
       -0.14342718 -1.1324698 -0.024675427 -0.17201869
000100 ef 4b 95 bd 53 09 64 be 6c 19 0d 3e 0b 05 0a bf
       -0.07289874 -0.22269182 0.13779229 -0.53913945
000110 85 90 cf be 80 21 cd 3d 8d eb fe bc 46 34 67 3e
       -0.40539947 0.10016155 -0.031118179 0.22578534
000120 21 09 2a bf 46 25 25 bf ba 45 4c bf f2 df 8a 3e
       -0.6642018 -0.6451 -0.79793894 0.27123982
000130 91 27 ce 3e 5c c7 32 be e0 10 80 3d c3 5b c2 be
       0.40264562 -0.17458862 0.06253219 -0.37960634
000140 6c 5c c2 be 8a 68 69 3e 2b 13 ee bd e7 fd 90 bf
       -0.37961137 0.22793785 -0.1162475 -1.1327485
000150 b8 71 04 bc 72 22 87 3f 4d dc 5c 3f 23 c1 8a 3d
       -0.008083753 1.0557387 0.8627365 0.06775119
000160 6e 9a 02 bf 68 6a 7b be 22 21 12 3f fc a2 08 bf
       -0.5101689 -0.2455231 0.57081807 -0.53373694
000170 fd 16 30 3f fa 4c 64 be ff f2 3b bf 74 18 94 3f
       0.6878508 -0.22294989 -0.7341766 1.1569963
000180 47 4b ac bc 7f 19 fb be 2e a8 6c 3f 58 37 15 3f
       -0.021031989 -0.4904289 0.9244412 0.5828757
000190 e3 1a 22 c0 e7 72 74 3f 51 f6 6a 3f 2c ff 20 c0
       -2.532891 0.9548783 0.917821 -2.5155745
0001a0 bc 25 a7 be c5 18 3c be fc 14 7d be e1 3f 78 bf
       -0.32645977 -0.18368824 -0.24715036 -0.9697247
0001b0 a7 fc 38 be a9 47 0c 3f ce d5 91 bd 3e ca b6 3e
       -0.18065129 0.54796845 -0.07120858 0.35701174
0001c0 8b 73 3c 3f 37 9d 98 be a3 96 4a 3e 49 db 94 3e
       0.73613805 -0.29807445 0.19784026 0.2907355
0001d0 80 dc 78 bc c9 ad 93 be 24 57 ac bf 86 11 3e be
       -0.01518929 -0.28843525 -1.3464093 -0.18561372
0001e0 54 4f 13 3f 85 3b da be 97 fc 1c 3f 3b 5a ed be
       0.5754292 -0.42623535 0.6132292 -0.46357903
0001f0 d9 f4 b8 be f9 92 72 3e 97 3d 5f 3e 55 31 fe be
       -0.36124304 0.23688878 0.21800838 -0.49647012
000200 41 6a 2d 3e 20 20 83 3d aa ab b9 bf 08 28 77 bf
       0.16935064 0.06402612 -1.4505513 -0.9654546
000210 76 c4 87 3e 5a 42 98 3e b9 42 1a 3d 39 f7 fa 3e
       0.26517075 0.29738122 0.037661288 0.4901674
000220 e6 7a e2 be ae 05 97 3e 9a 2b 7a 3e 8d 6b 0b bf
       -0.4423439 0.2949652 0.24430695 -0.54460984
000230 43 3b b2 3e 26 30 b2 3c b9 6b 2a be 44 c2 1e 3f
       0.34810838 0.021751475 -0.16642655 0.62015176
000240 1a 55 8b be e6 c2 e7 be 19 0e c7 be 6f af 1c be
       -0.27213365 -0.45265883 -0.38877943 -0.15301298
000250 9f 43 05 3f 27 0e 28 3e 1e b8 c5 bd de 51 60 bf
       0.52056307 0.16411649 -0.09654258 -0.8762492
000260 4d 93 47 3e 1f a0 f6 be ce 90 ec be 65 d2 e4 3e
       0.19489785 -0.48169038 -0.46204227 0.44691768
000270 43 69 ee 3e 90 89 2e be 85 13 01 bf e1 5f 03 bd
       0.46564683 -0.17044663 -0.5042041 -0.03207386
000280 67 92 26 bc 19 40 3f 3f 39 72 91 3f 21 94 0f bf
       -0.010166741 0.7470718 1.1362983 -0.560854
000290 72 6a eb be 1e 05 32 3f 1b 2e 05 bf f0 28 66 3d
       -0.4597965 0.6953906 -0.52023476 0.056191385
0002a0 24 d1 31 3f be 25 a1 be 5f 4e 06 be 19 42 27 3e
       0.6945975 -0.31474108 -0.13115834 0.16333808
0002b0 02 ab c8 bd 5c b4 c8 bc e6 cd 78 be d5 d3 a2 be
       -0.09798242 -0.024500065 -0.24297294 -0.3180224
0002c0 b4 d7 ec 3c 03 af 17 3e 9e 30 1c 3e 0a 84 c1 3d
       0.028911449 0.14812855 0.15252921 0.094490126
0002d0 04 02 87 be 55 24 a7 bd bc 07 e4 3e 37 1a c9 be
       -0.26368725 -0.08161227 0.4453715 -0.39277813
0002e0 72 14 f8 be 07 4b da bd ae 85 c5 bd e2 39 1a bf
       -0.484531 -0.106588416 -0.09644638 -0.6024457
0002f0 9e df 33 be d8 82 e2 bb f5 d9 b7 bf 8f d2 30 be
       -0.17565772 -0.0069125704 -1.436339 -0.17267822
000300 af e0 e0 be 39 b2 ae bf d7 dd e6 be bd c7 27 be
       -0.4392142 -1.3648139 -0.45091125 -0.16384788
000310 e0 8e 22 bf 61 f6 4a bb 51 b1 4f 3e 75 45 ae 3e
       -0.6349926 -0.0030969607 0.20282485 0.34037367
000320 1b 46 e4 3b 2f 36 51 bf c9 56 9e be 40 0c ee be
       0.006966365 -0.817233 -0.30925587 -0.4649372
000330 58 76 81 bd eb ab 81 3f 21 77 ef be e3 7f 8f 3e
       -0.063214004 1.013059 -0.46770576 0.28027257
000340 b6 17 24 bf 88 b1 61 bf 81 65 b3 3d fb 5c 2d bf
       -0.6409868 -0.88161516 0.08759595 -0.6772
000350 5c 73 d5 be 82 b9 f2 3e 1c 3d 14 3f aa 07 64 3e
       -0.41689575 0.47407156 0.57905746 0.22268549
000360 9b eb 08 3f ec 6e a8 3e b9 1e 96 be 47 fb d7 be
       0.53484505 0.32897127 -0.29320315 -0.42183897
000370 bd ac 47 bf 0a 39 9e be 70 c1 95 3f 0e 4f 49 bf
       -0.7799795 -0.30902892 1.1699657 -0.7863625
000380 88 1d 7c be f2 ea 7f 3f 52 96 2b be d0 16 2a 3e
       -0.2462064 0.99967873 -0.16756561 0.16610265
000390 cb c7 5e bf ef f9 76 be 2c 90 2a 3e 7d 7c 5f 3d
       -0.8702361 -0.2411878 0.1665656 0.05456208
0003a0 2c 85 a6 3e 5d ca db 3d ad 32 19 3e 79 23 0d bd
       0.32523477 0.10731957 0.14960738 -0.034457657
0003b0 78 72 a9 bd 03 e7 18 be b6 55 67 be 7d 64 87 3c
       -0.08273786 -0.14931874 -0.2259129 0.016527409
0003c0 63 d1 e8 3d 9b 79 3c 3e e7 33 16 3e 74 a9 8f be
       0.11368062 0.18405764 0.14668237 -0.2805897
0003d0 34 ce fc be ac fe 9e 3b fe 57 de 3b a6 c5 0e bf
       -0.4937607 0.0048521366 0.006785392 -0.5577034
0003e0 fa 08 12 bf e9 9e 90 bd 92 98 24 bf 05 6e 13 3f
       -0.5704495 -0.0706156 -0.64295304 0.5758975
0003f0 65 41 56 3d a0 cb 61 3d 2b 0b 52 3d bb db 9e be
       0.05230846 0.055125833 0.05128018 -0.31027016

weight f4 [64]
000000 64 e1 b8 3e 87 ab be 3e 40 9d 08 3f 77 d3 fc 3e
       0.3610946 0.3724024 0.53364944 0.49380085
000010 ef 02 a2 3e 7b ac db 3e e4 da d7 3e 54 33 c8 3e
       0.31642863 0.4290503 0.42159188 0.3910166
000020 c1 7c e3 3e 56 6f ac 3e bc b7 d8 3e d6 40 8d 3f
       0.44431117 0.33678693 0.42327678 1.1035411
000030 d8 e2 96 3e d4 3b c2 3e e2 0e cf 3e ce fe e7 3e
       0.29469943 0.3793627 0.40441042 0.45311588
000040 26 07 84 3f a0 3d ea 3e 68 f1 13 3f 94 a9 02 3f
       1.0314682 0.4575014 0.5779023 0.51040006
000050 b5 b9 f1 3e 0e a3 fc 3e 59 be fa 3e 5c 87 dd 3e
       0.47211996 0.4934315 0.4897335 0.43267334
000060 eb 55 a2 3e c4 4c e5 3e 9f 20 8d 3e 5a 50 e3 3e
       0.31706175 0.4478513 0.2756395 0.4439724
000070 e3 aa 29 3f ed 80 ce 3e 70 06 d4 3e f0 56 ce 3e
       0.6627638 0.40332738 0.4141116 0.40300703
000080 44 02 02 3f 14 d2 be 3e c7 27 9e 3e 2a 25 a9 3e
       0.5078471 0.37269652 0.30889723 0.33036166
000090 3c 25 0a 3f ff 19 db 3e 8a 3b e8 3e 67 c6 13 3f
       0.53963065 0.4279327 0.45357925 0.5772461
0000a0 72 ee b8 3e 88 42 dd 3e c9 2b a5 3e cf a0 f7 3e
       0.3611942 0.43214822 0.32259968 0.48364875
0000b0 6a c4 ca 3e 78 6c e3 3e 2a 31 91 3e 84 ce e6 3e
       0.39602977 0.44418693 0.28357822 0.45079434
0000c0 02 d8 07 3f e0 6d de 3e ef e3 d8 3e b6 09 cf 3e
       0.53063977 0.43443203 0.423614 0.40437096
0000d0 eb e0 b1 3e 4a bb 89 3e e3 6c a9 3e f1 7c d9 3e
       0.3474191 0.26900703 0.33090886 0.42478135
0000e0 77 bf d0 3e d4 91 fc 3e eb 6e 8d 3e b4 88 af 3e
       0.40771076 0.49330008 0.27623686 0.34283984
0000f0 b8 e2 ad 3e b9 0b a6 3e 14 0a 22 3f f6 23 0e 3f
       0.33962035 0.3243082 0.6329663 0.5552362

bias f4 [64]
000000 e9 cf 74 be 77 ce 6d be 8a 9a 4d bf 94 93 32 be
       -0.23907436 -0.23223291 -0.8031393 -0.17439109
000010 89 53 2b 3e 24 91 a8 be 40 29 8f be d1 62 a1 be
       0.16731085 -0.32923234 -0.2796116 -0.31520703
000020 e4 b4 c8 be 77 0f fb bd 66 3d 80 be f2 8b d9 bf
       -0.3920051 -0.12258809 -0.25046843 -1.6995833
000030 c7 41 61 be 9c 3c 2d be 22 05 21 bf 4b 65 b8 be
       -0.21997748 -0.16917652 -0.6289846 -0.3601478
000040 8e 1e c0 bf 22 0f d2 3d 72 e8 3c be e7 c2 dc bd
       -1.5009325 0.102567926 -0.18448046 -0.10779362
000050 55 dc 52 bf 16 f2 2f bf 13 7b 49 bf f3 14 37 bf
       -0.8236745 -0.6872877 -0.7870342 -0.7151634
000060 b7 2e 5c 3b ba ef 9d be 77 ca e2 bd d2 93 da 3d
       0.003359718 -0.3084696 -0.11073773 0.10672726
000070 a7 d3 1d be 50 f2 bb be d1 ae 8e be c9 99 d1 3b
       -0.1541277 -0.36708307 -0.2786775 0.0063965064
000080 90 8c 4f bf 71 e4 3e bc c8 e7 8d 3d c5 94 12 be
       -0.81073856 -0.011651144 0.069289744 -0.14314564
000090 fa 1d 9d be 26 b8 8e be cd 6f d9 be 98 b3 c6 bd
       -0.30686933 -0.2787487 -0.4246811 -0.097022235
0000a0 d5 48 48 3e b9 43 5b be 4f fb 04 be 4d 90 ae 3d
       0.19559033 -0.21412553 -0.12986492 0.08523617
0000b0 4d bc b0 bf 3c 70 3d be ff ec 49 3d 84 2f 42 bf
       -1.3807465 -0.18499845 0.049298283 -0.75853753
0000c0 98 90 5c bf 0a 9e b5 be 71 01 3c bf 22 d7 95 be
       -0.8615813 -0.35472137 -0.734397 -0.29265696
0000d0 dc a0 f9 bd ef 3b 9f bd e8 f0 d9 bd 31 bf a9 be
       -0.121888846 -0.07775103 -0.10641652 -0.3315368
0000e0 01 26 8c bd 97 bc 5f be cf 5b 3f bd f9 0d 48 be
       -0.06843186 -0.21849285 -0.046718415 -0.1953658
0000f0 47 bb 87 bd 07 f5 7d be 68 b1 3e bf df 59 63 bf
       -0.06627517 -0.24800502 -0.7448945 -0.8880901

running_mean f4 [64]
000000 ec af 4e bf 32 8c a4 be a0 0e db c0 b5 d4 a8 be
       -0.80737185 -0.3213821 -6.8455353 -0.32974783
000010 f4 e0 aa 3f ad 2b 8a bf 48 97 48 40 7c a1 90 be
       1.33499 -1.0794579 3.1342335 -0.28248203
000020 b6 42 26 bf 11 87 2d be 6d ac b2 be a3 21 c8 3f
       -0.6494554 -0.16946055 -0.34897175 1.5635265
000030 54 7d 46 bf e9 43 5f be ab 7c 0f c1 1b a0 a4 be
       -0.77534986 -0.2180325 -8.9679365 -0.321534
000040 79 3e f0 3f 47 c2 1a bf bf bd d2 be 0d 26 65 bf
       1.8769065 -0.60452694 -0.4116039 -0.89511186
000050 f5 04 91 c0 89 bf 8d c0 48 20 b6 c0 8b 54 06 c1
       -4.531855 -4.4296308 -5.6914406 -8.39564
000060 5b d8 ac be b1 ef 41 bf b0 8b f9 3b fb fa 0d c0
       -0.33758816 -0.75756365 0.007615529 -2.2184436
000070 d7 7f 20 bf 97 d8 63 be a0 b2 e8 be 35 0f 8f bf
       -0.6269507 -0.22250591 -0.4544878 -1.1176516
000080 9d 9b e5 c0 79 9b 02 bf 6d 38 a1 be b2 38 fc be
       -7.175246 -0.5101848 -0.31488362 -0.49262005
000090 99 74 81 40 98 b1 30 bf 6d 0b b3 bf bf d2 40 bf
       4.045483 -0.69020987 -1.3987862 -0.75321573
0000a0 f5 f4 7d 40 a6 57 fe be d6 3a d4 be 04 75 d2 be
       3.968076 -0.49676245 -0.41451138 -0.411049
0000b0 46 41 4e 3f 7e a6 90 be 55 c2 58 3d b7 8d e8 c0
       0.8056835 -0.28252023 0.052919704 -7.267299
0000c0 cd c5 fc c0 9e f1 e8 bf 66 5d a6 c0 5f be 7f be
       -7.8991456 -1.8198736 -5.198901 -0.24974965
0000d0 04 52 49 bf 72 cb a2 3f fd 72 6b bf 70 b8 12 bf
       -0.7864077 1.2718337 -0.91972333 -0.5731268
0000e0 b3 d6 06 bf 1b a9 38 be 10 71 74 be ad 1c 76 bf
       -0.52671355 -0.18033259 -0.23871255 -0.96137506
0000f0 29 95 b5 be 82 e6 a3 bb 5a a7 20 40 e8 41 0d c1
       -0.35465363 -0.005001844 2.5102143 -8.82859

running_var f4 [64]
000000 06 89 36 3f 2b d0 00 3f a9 54 1f 41 f2 18 8f 3f
       0.7130283 0.5031764 9.958169 1.1179488
000010 fb 2d 72 3f 0e cf f9 3e 79 c3 ac 3f 76 28 90 3e
       0.9460141 0.48790783 1.3497154 0.2815587
000020 45 d4 c1 3e 02 52 c6 3e a9 ff e1 3e 13 e3 8e 3f
       0.3785726 0.38734442 0.44140366 1.1163048
000030 aa 39 d4 3e 36 ef b3 3e b9 cd 7e 41 7c 34 8a 3e
       0.41450244 0.3514344 15.925225 0.26993167
000040 ad df d6 3f 22 73 55 3f 87 41 7e 3f d9 4e aa 3f
       1.678701 0.83378804 0.99318737 1.3305312
000050 2c c0 74 40 37 44 84 40 53 e1 d6 40 7b bc 56 41
       3.8242292 4.133327 6.7150054 13.421016
000060 2d 2c 03 3f 07 f9 13 3f 2d 7b ae 3e fb 9b 76 3f
       0.5123928 0.5780186 0.3407835 0.9633176
000070 f2 94 97 3f 9c 3e cf 3e 22 e2 8b 3e bb 8c 83 3f
       1.184233 0.40477455 0.27320963 1.0277323
000080 49 f6 28 41 43 1d 82 3f 92 b4 0a 3f b8 58 99 3e
       10.560128 1.016518 0.5418178 0.299505
000090 df b0 18 40 b9 f6 05 3f 37 12 33 3f d8 06 b8 3f
       2.3857954 0.52329594 0.6994967 1.4377089
0000a0 6c 98 52 40 3d da bb 3e 40 f5 f0 3e 1f b5 61 3f
       3.290553 0.3668994 0.4706211 0.88166994
0000b0 7d e2 d0 3e 4c 65 78 3f cb 2d 34 3f f1 f3 1d 41
       0.40797797 0.97029567 0.70382375 9.872056
0000c0 35 05 3b 41 18 69 3f 3f 3d a3 8f 40 19 52 a1 3e
       11.688771 0.74769735 4.4886765 0.31507948
0000d0 6d 3a 29 3f c2 31 bb 3e 1b 87 f5 3e 84 a4 fa 3e
       0.66104776 0.365614 0.4795464 0.4895364
0000e0 85 56 48 3f 73 d4 7c 3f 1f 0a fa 3e 93 d5 3f 3f
       0.7825702 0.9876167 0.48835847 0.74935263
0000f0 04 ae bf 3e c9 24 b6 3e 42 ae d4 3f 93 66 73 41
       0.3743745 0.3557494 1.6615679 15.212543

weight f4 [64, 64, 3, 3]
000000 df 7d a9 bd 5d be c7 be 7a 80 ad be eb ca 72 3e
       -0.08275961 -0.39012423 -0.33887082 0.2371022
000010 18 da 2b 3f 8f 40 72 3f 8b 0c ca bd 92 80 2b 3f
       0.6712966 0.9462976 -0.09865674 0.6699306
000020 79 b2 a1 bc d0 03 89 be 03 cf 38 bf c9 02 22 be
       -0.019738423 -0.2676072 -0.72190875 -0.15821375
000030 ad d0 96 3c 93 de 34 bf 5c 74 b3 be dc ea 29 bd
       0.018410051 -0.7065212 -0.35049713 -0.041483745
000040 c5 45 93 be 67 fa 7f 3e 7b 60 c4 3e 35 c1 f4 3d
       -0.28764167 0.24997865 0.3835486 0.11950914
000050 f4 37 8a be a4 5f 07 3e 99 a6 72 3e 8c f7 ce be
       -0.26995814 0.13220078 0.23696364 -0.40423238
000060 d5 ae 17 bd e5 4e 0f 3e ee 5e af bd 22 31 14 3f
       -0.037031967 0.1399494 -0.08563028 0.5788747
000070 b0 e5 36 3e 07 d9 ba 3d cf 64 21 be 19 d8 0e bf
       0.17861056 0.09123426 -0.15761112 -0.5579849
000080 07 f6 9f 3d 01 fa 81 be 75 07 cb be 82 8b 1c 3f
       0.07810598 -0.2538605 -0.39654127 0.6115037
000090 ef e0 5a 3d ed c9 72 3e e6 81 88 be d7 de 73 3e
       0.05343717 0.23709841 -0.26661605 0.23815475
0000a0 d4 69 80 be a9 14 c2 3e fa 56 f5 be 55 bf c4 be
       -0.2508074 0.37906387 -0.4791792 -0.38427225
0000b0 1d d1 0c bf 03 63 d8 3d 34 9c 97 3e f2 6d ca be
       -0.5500658 0.1056576 0.2961136 -0.39537007
0000c0 14 69 ed bd 50 fa ae be ac 4b 34 bf cf ad 1c 3f
       -0.11592308 -0.34175348 -0.70427966 0.6120271
0000d0 75 e7 ad 3e 24 14 ab bd e7 fa b2 be cf f1 86 3e
       0.3396565 -0.08353451 -0.34957048 0.2635636
0000e0 1c 04 5c 3d 0c 4b 27 be 29 2e b8 bd 00 1f 71 be
       0.053714857 -0.16337222 -0.08993179 -0.23546982
0000f0 6e d0 b2 be cd ee a7 bf 6f 85 09 bf bb 8f be be
       -0.34924644 -1.3119751 -0.5371923 -0.37219033
000100 4c 7c 98 bf c7 67 b6 be 41 94 f7 be bc 91 7a bf
       -1.1912932 -0.3562605 -0.48355296 -0.97878623
000110 84 30 b3 be 00 a2 a7 be 97 3f e7 be 10 84 a6 be
       -0.34997952 -0.32740784 -0.45165703 -0.3252263
000120 29 05 98 3c c6 64 f6 be dd e4 28 bf 6a d8 bb be
       0.018557148 -0.4812376 -0.6597422 -0.36688548
000130 26 4d 92 be 66 87 86 3e 5e 65 28 be 91 31 06 bf
       -0.28574485 0.26275176 -0.16444919 -0.5241938
000140 a4 42 65 3e 83 19 36 bc 31 57 20 bd 11 bf bf be
       0.22388703 -0.011114481 -0.039145652 -0.3745046
000150 63 ec 02 3f 37 c0 5f be 9c ab c8 3e 38 93 b1 be
       0.5114195 -0.21850668 0.39193428 -0.34682631
000160 fe 6d 16 3e 2f cb eb bc 43 08 ff 3e b8 8c 86 3e
       0.14690396 -0.028783409 0.4981099 0.26279235
000170 a6 d5 6d 3e cc 70 00 bf a4 03 7f bf d4 9a 40 bf
       0.23226032 -0.50172114 -0.9961493 -0.7523625
000180 e5 03 b2 bf db 7c bd bf 02 c6 05 bf 47 b0 99 be
       -1.3907439 -1.4803728 -0.5225526 -0.300173
000190 28 de 67 be 04 1f 32 bd 94 89 ba 3e 66 a7 f1 3c
       -0.2264334 -0.04348661 0.3643309 0.029498767
0001a0 ef ea 3f 3f 6a 0b 1f 3e 69 89 a2 3e 7b 18 1b 3f
       0.74967855 0.15531698 0.3174546 0.6058423
0001b0 46 4e 8c 3e 63 53 4d bf 75 ce 56 be 7c ee 6f be
       0.27403468 -0.80205363 -0.20977195 -0.23430818
0001c0 ea bd 24 be be 53 f1 be dc ea 5e bd 95 74 08 bf
       -0.16088071 -0.47134203 -0.054423198 -0.5330289
0001d0 71 dd a0 3e ab 3d a4 bf 43 d1 6b be 9a 4c 76 3e
       0.31418946 -1.283132 -0.23029046 0.24052659
0001e0 61 e9 70 bf 67 cc c4 be 43 ba 35 3f d3 c4 63 bf
       -0.9410611 -0.38437197 0.7098734 -0.88972205
0001f0 4c c5 2e be ba b1 00 be 94 23 8b 3e da 5a ea be
       -0.1706745 -0.12567797 0.2717558 -0.4577244
000200 26 5a 04 be f3 3d 5d 3e 44 97 20 bf 4b 94 29 be
       -0.12925014 0.21605663 -0.62730813 -0.16560476
000210 ab 55 ff bd 53 4b a1 be 01 b5 54 3c 85 e7 74 be
       -0.12467512 -0.3150278 0.012982608 -0.23916443
000220 94 73 68 3e 4a 20 62 3f d9 92 32 bf a1 d3 93 3d
       0.2270034 0.8833052 -0.6975532 0.072180994
000230 1f 67 89 3e 25 22 38 bf 4c e3 2a be 07 24 2b be
       0.26836488 -0.719271 -0.1668827 -0.16712962
000240 19 b6 1f bf b7 31 ca 3c ec d4 c4 be a8 f6 ae 3e
       -0.62387234 0.024681909 -0.38443696 0.3417256
000250 6d 08 17 be 73 04 d9 3e 76 08 8f 3d dc f5 fa 3b
       -0.14749308 0.42386207 0.06984036 0.0076587033
000260 34 9f ec 3e 5f 4a aa be 59 42 f0 3c 4c 2f ed be
       0.46215212 -0.33259866 0.029328512 -0.46325147
000270 80 34 a3 3d 77 e4 c3 3e a8 11 87 be 2f 7d f8 bd
       0.07968998 0.38260242 -0.26380658 -0.12133252
000280 dd f5 a8 3d f7 90 9c bf b0 ba 37 bc 48 d0 ea bd
       0.0825002 -1.223174 -0.011213943 -0.11465508
000290 4a 11 96 be ca 7f fe be 66 95 55 bf b7 99 e1 3c
       -0.29310066 -0.4970687 -0.8343109 0.027539117
0002a0 14 5b 46 bd 74 76 54 3e 5c 01 af 3f 0a 09 18 3f
       -0.048426703 0.20748311 1.367229 0.5938879
0002b0 2b 6d a7 3f d7 65 4b 3e ec af 3a 3e 72 16 fe bd
       1.308019 0.19863068 0.18231171 -0.12406625
0002c0 4d 4f 13 bf 75 51 21 3e 20 ef e7 be b2 f3 4c be
       -0.5754288 0.1575373 -0.45299625 -0.20014837
0002d0 76 2f 0f 3e 33 0e 6c 3f 26 56 4f 3e 45 42 89 be
       0.13982949 0.92209166 0.20247707 -0.26808372
0002e0 17 ec b2 3e 93 a7 42 be 35 67 78 bd 38 ba ab 3e
       0.34945747 -0.19009237 -0.0606453 0.3354051
0002f0 30 8a cb bc d5 f3 3b 3f a6 ef 4c 3e 0d e3 11 bc
       -0.024846166 0.73418933 0.20013294 -0.008904231
000300 ad e2 cd 3e 99 bb d8 38 20 42 e2 3e ef f1 b5 3d
       0.40212002 0.000103346254 0.44191074 0.08884036
000310 54 58 0f ba 43 8a 72 3e 1a 14 8c 3e a0 25 b2 3d
       -0.0005468179 0.23685555 0.27359086 0.08698583
000320 56 9c 04 3e ec e7 3e 3e 4f 95 5a 3e 5b 50 8d bd
       0.12950262 0.18643159 0.21346019 -0.06900092
000330 bf b1 94 3d d2 5d 45 3e 87 49 df 3e 67 2d 3d 3e
       0.07260465 0.19274071 0.43610784 0.18474351
000340 5c e8 17 3e 39 d7 39 be 6a 27 b4 bc a2 dd 09 3e
       0.14834732 -0.18148507 -0.02199145 0.13463452
000350 39 65 ae be 9c c6 5f bd 97 24 37 3e a4 2a 03 3c
       -0.34061602 -0.054632768 0.17885052 0.008005772
000360 3f 2a 9f 3e 29 19 2b 3e d8 3e bc be 9f 2e b6 be
       0.3108692 0.16708817 -0.36766696 -0.35582444
000370 9c d3 1b bf 29 da 8a be b6 bb 9f bc c7 fe 82 3e
       -0.60869765 -0.27119568 -0.019498687 0.25585005
000380 48 a4 81 bf 09 68 15 3e dd 27 02 be 86 79 87 bc
       -1.012826 0.14590468 -0.12710519 -0.01653744
000390 5e d5 66 bf f4 6e 50 bd ac 16 93 3e 4b 9e d6 bd
       -0.9016932 -0.050887063 0.28728235 -0.10479411
0003a0 38 d0 47 be fc 11 91 bd 80 78 54 3e 1e cf 21 be
       -0.19513023 -0.07083508 0.20749092 -0.15801665
0003b0 b3 4f 3a 3e 32 87 85 3e 2c 9d 65 3c 7d 36 00 3f
       0.18194465 0.26079708 0.0140145235 0.5008314
0003c0 c3 01 07 be 6e f8 3f bf db 4b 50 3e b5 f9 c8 be
       -0.13184266 -0.7498845 0.20341437 -0.3925301
0003d0 6b 68 ac 3b 4d 0f 0b bf 9f 75 1b 3e 71 c7 b0 bd
       0.005261471 -0.5432022 0.15181588 -0.086317904
0003e0 51 71 5b be 9b 2b b2 bd bf c9 48 bf 61 ae d3 be
       -0.21429946 -0.08699723 -0.7843284 -0.41343978
0003f0 45 f9 03 be 4f dd c6 bd d1 78 d4 3e e1 05 ef bd
       -0.12888058 -0.0971018 0.41498426 -0.11671043

weight f4 [64]
000000 f6 bc e6 3e 50 a4 d3 3e e9 bd e8 3e 98 20 d0 3e
       0.4506604 0.41336298 0.4545739 0.40649867
000010 7e 89 ed 3e 9e f3 f9 3e 8b af e3 3e f0 60 cb 3e
       0.4639396 0.48818678 0.44469866 0.39722395
000020 cc cb d4 3e 84 3a c5 3e 0c e4 ba 3e 31 f6 19 3f
       0.41561735 0.38521206 0.3650211 0.60141283
000030 ff 37 ea 3e a1 5a f9 3e b1 2f 1b 3f 28 52 b9 be
       0.45745847 0.48701957 0.60619646 -0.36195493
000040 e1 14 11 3f cb b3 10 3f 56 d5 a9 3e a0 ee 8e 3e
       0.56672484 0.5652434 0.33170575 0.2791643
000050 70 51 14 3f 95 07 59 3f 71 a4 f2 3e d1 e1 aa 3e
       0.57936764 0.84777194 0.47391084 0.3337541
000060 a2 da 06 3f 28 90 d5 3e 82 b6 c6 3e 6a 23 a3 3e
       0.5267736 0.41711545 0.38811117 0.31862956
000070 49 a4 c8 3e 0b 2d c5 3e 24 a0 20 3f 4e b7 db 3e
       0.3918784 0.38510928 0.62744355 0.42913288
000080 71 5f bc 3e 8d 93 c1 3e 2a bc e3 3e d9 e8 19 3f
       0.36791566 0.37807885 0.44479495 0.6012092
000090 4c 7d 28 3f 1c 0f 34 3f 44 44 be 3e 82 ea ee 3e
       0.6581619 0.70335555 0.37161458 0.4666329
0000a0 b4 b7 b5 3e d3 c3 ec 3e b8 95 18 3f 1b fa a2 3e
       0.35491717 0.46243152 0.5960345 0.3183144
0000b0 26 d5 f7 3e e6 2f a7 3e 33 68 c4 3e 5d 94 28 3f
       0.48404807 0.3265373 0.38360748 0.65851384
0000c0 e4 3d d6 3e 15 30 e4 3e e6 f6 fc 3e cc a8 15 3f
       0.41844094 0.44567934 0.4940712 0.5846069
0000d0 3a 08 12 3f 3c 39 b1 3e c7 af 17 3f 65 7d dd 3e
       0.570438 0.3461398 0.5925259 0.4325973
0000e0 4a 67 d8 3e ae 9b d1 3e 7c 76 f3 3e 1a 93 eb 3e
       0.42266303 0.40939087 0.47551334 0.46010667
0000f0 77 50 02 3f 7e ec f2 3e c1 50 a7 3e 66 f4 ed 3e
       0.5090403 0.47446054 0.32678798 0.46475524

bias f4 [64]
000000 28 a7 88 bd 4a e2 31 bd cc 46 86 be ca 16 a7 be
       -0.066725075 -0.043428697 -0.2622589 -0.32634574
000010 14 a2 93 be 4d 68 5d be b8 7e 89 be 39 14 7a be
       -0.28834593 -0.21621819 -0.2685449 -0.24421777
000020 5d 68 65 bd 48 f8 32 b9 12 55 48 3c 8c c8 d9 be
       -0.05600773 -0.00017067895 0.012227314 -0.42535818
000030 ef 5e 10 bd 8c d5 b0 be 36 be b5 be 1c a0 c6 bd
       -0.035246786 -0.34537923 -0.35496682 -0.09698507
000040 09 42 54 bf 00 da da be 4b ef f1 bd 6f b9 cc bd
       -0.8291326 -0.42744446 -0.1181322 -0.09996306
000050 8f 04 40 bc f5 5b bf bf 13 d3 3f bf b5 fb 05 be
       -0.011719837 -1.4949938 -0.7493145 -0.130843
000060 5f 4f bd be 53 f0 27 be de 1d 2f be 45 cb 99 bd
       -0.36974618 -0.1640027 -0.17101237 -0.07509474
000070 c3 c5 a9 bd 8f c5 93 be 5e 04 31 bf 61 7d 06 be
       -0.08289673 -0.28861663 -0.6914729 -0.13133766
000080 e1 b2 ca bd 2f 73 34 be c4 a6 05 bd 84 67 8a be
       -0.098974 -0.17622064 -0.032629743 -0.270321
000090 51 dd 49 bf 21 3e 62 bf 31 13 35 be de c4 be bd
       -0.7885333 -0.8837605 -0.17683102 -0.09314893
0000a0 ae 3d 9c bd 5e ac d7 3e 61 d0 51 bf 8b 6c 6f bd
       -0.07628952 0.42123693 -0.81958586 -0.058453124
0000b0 4a 2f 26 bf c8 61 0c bd b4 75 51 be c1 3f 33 bf
       -0.6491591 -0.03427294 -0.20455056 -0.70019156
0000c0 1f 2a 54 be 0f 7c 1f be 72 ba d9 be 15 b6 48 bf
       -0.20719193 -0.15574668 -0.4252506 -0.78402835
0000d0 3f b4 a0 be 8d 93 3d bd 44 1b 4f bf 73 97 12 be
       -0.31387517 -0.046283294 -0.8090098 -0.14315586
0000e0 45 5c 4f be e2 49 8d be 98 08 d2 be 09 39 88 be
       -0.20250042 -0.2759543 -0.41022182 -0.26606014
0000f0 9e 4d f8 be c7 26 43 bd 17 df 61 be 82 94 5b 3e
       -0.48496717 -0.047644403 -0.22057758 0.2144337

running_mean f4 [64]
000000 b0 1f 29 c0 ed 19 83 3e 45 d5 ef bf 1c 5d 11 c0
       -2.642559 0.25605717 -1.873696 -2.271308
000010 bc a6 ff bf 86 94 df 3f 85 4c 29 bf d3 ef 85 c0
       -1.9972758 1.7467201 -0.66132385 -4.1855254
000020 d2 f4 17 3f e8 5e 86 c0 47 1b 39 be 83 4c 59 3f
       0.5935794 -4.199085 -0.18076812 0.8488237
000030 52 c3 30 c0 34 41 a0 3d b4 d8 5e 40 60 ad e8 3f
       -2.7619214 0.078249365 3.4819765 1.817791
000040 b1 1e b0 bf bb 19 80 bf df 70 17 c0 cf 87 d3 3e
       -1.3759366 -1.0007852 -2.366264 0.4131455
000050 b7 fd 0c bf 7d 8f 45 c0 eb 2f 8c c0 ad c4 12 40
       -0.5507464 -3.0868828 -4.3808494 2.2932541
000060 65 dc c3 3e 60 d1 88 40 d5 42 e7 3f 4d 0a 9a be
       0.38254085 4.2755585 1.806727 -0.30085984
000070 4f be b3 be 65 ce d4 bf a9 a2 89 bf 06 12 3d c0
       -0.3510613 -1.6625487 -1.0752765 -2.954225
000080 72 12 98 bf fa 79 1d c0 09 a5 19 3f 70 82 4c 40
       -1.1880629 -2.4605699 0.6001745 3.1954613
000090 5f 6c 98 c0 19 5f 91 c0 58 fc 28 c0 b0 d7 51 3d
       -4.763229 -4.5428586 -2.6404018 0.051231086
0000a0 c1 8b ee 3e db 17 1e 3f 9d 9b 90 c0 cd f8 d7 3f
       0.46591 0.6175515 -4.518996 1.6872803
0000b0 d3 29 88 c0 19 d5 1c c0 e4 e1 fd bf 94 29 e5 bf
       -4.2551055 -2.4505064 -1.9834561 -1.7903314
0000c0 e8 be 49 3e 81 62 02 bf 25 9b c7 bf b9 c4 98 c0
       0.19701731 -0.50931555 -1.5594221 -4.774014
0000d0 9e 72 67 c0 0c 16 55 c0 f4 c2 8d c0 14 8f 03 3d
       -3.6163707 -3.3294706 -4.430048 0.03211887
0000e0 aa 60 7e c0 1a d9 32 c0 83 c8 23 c0 d7 38 70 bf
       -3.97465 -2.7945008 -2.5591133 -0.9383673
0000f0 e3 7a 67 3e 4f 0b 69 40 23 13 db 3f 8c 90 a1 3f
       0.22605471 3.6413152 1.7115215 1.2622237

running_var f4 [64]
000000 83 f7 a6 40 60 e5 a5 40 f6 75 94 40 28 7c 64 40
       5.217714 5.18425 4.6393995 3.570078
000010 e2 0e 8c 40 fb 75 d1 40 3e ce 96 40 ae 0a a6 40
       4.3768167 6.545652 4.712676 5.1888037
000020 10 d4 f2 40 5b 33 b2 40 e8 18 ab 40 96 c3 ce 40
       7.5883865 5.568769 5.3467903 6.461375
000030 73 fa e2 40 74 b8 a4 40 3e 30 aa 40 94 aa c3 40
       7.0930724 5.1475163 5.318389 6.1145725
000040 60 a5 f8 40 96 88 55 40 3a 42 57 40 ba 3b 47 40
       7.7701874 3.3364615 3.3634171 3.1130204
000050 a0 00 09 41 2d 24 ee 3f 93 51 4d 41 be 3c 47 40
       8.562653 1.860479 12.832416 3.1130824
000060 7d a7 a9 40 b8 00 cc 40 0e 6d 85 40 cf c3 88 40
       5.3016953 6.3750877 4.1695623 4.2739024
000070 e7 9e 8e 40 76 f8 4e 40 39 c0 37 40 b3 e0 90 40
       4.4568973 3.2339149 2.8711073 4.527429
000080 81 35 81 40 e9 f5 80 40 42 fb ae 40 0b 01 1c 41
       4.0377812 4.0300183 5.468171 9.750255
000090 35 d0 6e 41 26 9a 4d 41 08 28 4c 40 4b 6a 2f 41
       14.925832 12.850134 3.1899433 10.96345
0000a0 63 8f 88 40 28 3d d9 40 2d 9e 4e 41 53 b2 32 40
       4.2675033 6.7887154 12.913617 2.792134
0000b0 c2 b6 6b 41 8a d5 69 40 35 6b 8b 40 15 4e 7c 40
       14.732119 3.6536584 4.356837 3.9422657
0000c0 91 16 a7 40 31 40 92 40 b6 a6 5b 40 b6 dd 45 41
       5.2215047 4.570336 3.4320502 12.366629
0000d0 9c bc bb 40 eb 1e a8 40 7d 47 5c 41 a7 40 a8 40
       5.8667736 5.253774 13.767453 5.257892
0000e0 71 08 8e 40 b9 9e 6f 40 4b bd 89 40 fb a1 8a 40
       4.4385304 3.7440627 4.304357 4.332273
0000f0 32 d0 94 40 32 da fd 40 01 b4 87 40 63 81 1b 41
       4.6504145 7.932885 4.240723 9.719089

weight f4 [64, 64, 3, 3]
000000 2c 49 4f 3e 5f 6b e0 bd e8 fe 98 3e f9 30 b3 3e
       0.20242757 -0.109579794 0.29881978 0.349983
000010 d9 df 10 bf a7 c1 a5 3d f0 49 dc 3c 90 72 df bd
       -0.56591564 0.08093577 0.026890725 -0.10910523
000020 5a 11 86 3e f5 10 bf 3b a6 40 3a bc 7e 4c 91 3e
       0.26185113 0.005830879 -0.011367952 0.2837867
000030 21 72 c3 3e 2e df e6 bf 24 c8 81 3e 57 c3 06 bd
       0.3817301 -1.8036859 0.25348008 -0.032901134
000040 2a 43 1c be 01 67 60 3d d5 14 86 be 91 21 e8 be
       -0.15259996 0.054785732 -0.2618777 -0.4533811
000050 01 67 de 3d b3 58 80 be 82 be 00 bf f7 27 2a be
       0.1085949 -0.25067672 -0.5029069 -0.16616808
000060 eb 96 fb 3d 08 48 79 3b 4d 3c 58 bc 95 00 4f 3e
       0.12284645 0.0038037319 -0.013197971 0.20215066
000070 cf 5c 75 be 7b 20 bf 3d 11 34 25 bc 1a 91 9b be
       -0.23961185 0.09332367 -0.010083214 -0.3038414
000080 dc f3 fe 3d 30 2d 0e 3e 42 79 00 3f 7d f1 5c bd
       0.12448856 0.13884425 0.50185025 -0.05394124
000090 1d ba 3b 3e 02 79 ca be 62 65 a1 3a e1 cc e1 3e
       0.18332715 -0.39545447 0.001231354 0.44101623
0000a0 2e 1f 82 bd a9 4a 0c 3e a4 b3 a9 3d 3a 18 29 bd
       -0.06353603 0.13700356 0.08286217 -0.04128287
0000b0 b8 b4 9a bd ee b1 0e be f7 4b 25 bf 15 f4 c2 be
       -0.075540006 -0.13935062 -0.6456904 -0.38076845
0000c0 0f cf a9 bb 07 1a c1 3d 95 e7 87 be 4d 2f 1a 3e
       -0.005182154 0.094287924 -0.2654387 0.15057106
0000d0 d5 51 4e bd 75 2f bf be 4b 99 c5 3e 90 47 26 3e
       -0.05037101 -0.37340894 0.38593516 0.16238236
0000e0 06 18 39 bc af 90 bf 3e 2d cd a9 bd c5 e8 2b 3e
       -0.011297232 0.37415072 -0.08291087 0.16788013
0000f0 a8 06 b5 bb e7 49 48 3e e5 62 2b 3d f0 61 96 be
       -0.005524475 0.19559442 0.04184236 -0.29371595
000100 5f 68 9c 3e 11 75 4d 3e e4 d9 94 bd df a8 13 bf
       0.3054838 0.20064189 -0.07268122 -0.5767955
000110 33 a9 4d be ee bd c7 ba 35 f7 c5 3e f4 e7 c2 3c
       -0.20084076 -0.0015239099 0.38665166 0.023792244
000120 0b 77 ef 3c cf 33 e8 be 6e 18 e6 bd b6 87 d8 be
       0.029231569 -0.45352027 -0.11235128 -0.4229104
000130 c1 e2 5e bf 65 4a 00 bf 87 4f 21 3e d3 11 f8 be
       -0.8706475 -0.5011352 0.15752994 -0.484511
000140 7d ce 90 be 79 b4 05 3c b9 5f 38 bd dc 04 ad 3d
       -0.28282538 0.008160704 -0.045013163 0.084481925
000150 8b d0 c4 3d e9 6f d9 3e 60 00 76 3e d2 5d 63 bc
       0.09610089 0.42468193 0.2402358 -0.013877349
000160 ae 63 14 be 30 2f a9 bd 13 a0 84 be f1 13 92 3e
       -0.1449115 -0.082609534 -0.25903377 0.2853084
000170 c9 0e c0 be 09 31 1f be 9b a6 96 bd 2a 80 8f 3e
       -0.3751128 -0.15546049 -0.07355996 0.2802747
000180 31 73 f6 3b db be 43 3f 9e dc f7 3d 7c 1b 78 3d
       0.007521056 0.764631 0.12102626 0.060573086
000190 8d a1 3b 3d c8 61 d5 3d 0e 3e 43 3b 30 22 5b 3e
       0.045808364 0.10419041 0.0029791626 0.2139976
0001a0 15 cc 42 3e eb 0f 7c 3e e0 6e a5 be 78 e0 5b 3e
       0.19023164 0.24615447 -0.32311153 0.21472347
0001b0 5c de 3c be 72 a7 c5 3d 22 08 91 be 24 ad b8 bd
       -0.18444198 0.09651078 -0.28326517 -0.09017399
0001c0 d1 4d d1 be 2d 7d 21 be 0d 98 95 bc 85 8b 15 3e
       -0.40879682 -0.15770407 -0.01826098 0.14604004
0001d0 17 1a 12 3d a7 ca 32 3c b0 65 fb be 05 37 85 be
       0.035669412 0.010912574 -0.4910102 -0.2601854
0001e0 40 f4 70 3e 46 a2 48 3e 23 ce 25 3e 91 24 5f be
       0.23530674 0.19593152 0.16191916 -0.21791293
0001f0 c8 7a 33 3d 6c 40 a7 bd 72 b7 3d 3e 7d 09 52 3e
       0.043818265 -0.08166584 0.1852701 0.20511432
000200 b0 28 cd 3c 48 2e c5 3d 65 20 46 3f 53 f7 b4 3d
       0.025043815 0.09627968 0.7739318 0.08836236
000210 e9 0b b6 bc f4 93 19 be d4 f1 03 3f 5c 94 c1 bd
       -0.022222476 -0.14997846 0.51540875 -0.094521254
000220 e7 42 86 be f9 6d c6 bd 59 c4 d1 3d a2 12 d3 3c
       -0.26222917 -0.09688944 0.102425285 0.02576572
000230 da 2a 1a 3d 07 a1 eb 3d 48 72 e6 be 93 9d ab bd
       0.037638523 0.11505323 -0.45009065 -0.08379664
000240 c0 57 25 3d 58 eb 42 bd b8 39 86 3e 63 15 8d be
       0.040366888 -0.047587723 0.2621591 -0.2755538
000250 47 17 c4 3f a9 bd 50 be 09 dd ab 3d e2 a7 c8 3e
       1.5319604 -0.2038485 0.083917685 0.39190584
000260 aa 28 97 be db ee d8 bc a1 82 13 3e c9 5b e1 3d
       -0.29523212 -0.026481083 0.144053 0.11003835
000270 e1 c9 fe bb 98 e2 b7 bf e9 c4 eb 3d b8 71 a6 be
       -0.0077755307 -1.4366026 0.11512167 -0.32508636
000280 d0 99 81 bd b4 da 98 3e 67 23 a2 3d ef 60 3a be
       -0.063281655 0.29854357 0.07916909 -0.1820104
000290 3e 4f a1 bd 2a b7 58 be e6 e1 0f 3f 4d 13 dd bc
       -0.078764424 -0.21163622 0.5620407 -0.026986742
0002a0 d0 ba 89 3e 33 82 0e be 65 f3 bd bd 8b d3 56 3d
       0.2690034 -0.13916855 -0.092749394 0.052447837
0002b0 ae df 08 3f 42 58 1f 3d 55 62 a7 3d f9 a5 84 3e
       0.5346631 0.03890253 0.08173052 0.25907877
0002c0 f5 78 b7 3e 60 73 a1 bc fe bc c0 bd 9c 0c 18 bd
       0.3583447 -0.019708335 -0.094110474 -0.0371214
0002d0 12 f9 d8 bd cb f7 9e be b2 4f 6b 3e af df a7 3e
       -0.105943814 -0.31048426 0.2297962 0.32787845
0002e0 83 34 13 3f 8a 1a 81 3d 22 25 8f 3c f3 e3 94 3d
       0.57502 0.0630389 0.017473761 0.0727004
0002f0 1c 1f 74 bd 87 08 8d 3d b9 98 f3 3c 61 e2 7c bc
       -0.05959998 0.06886392 0.02973591 -0.015434832
000300 f2 d4 1f 3e aa f4 4c bf 96 7a c1 3c 6c 69 68 3c
       0.15608576 -0.8006083 0.023618024 0.014185291
000310 f6 0a 1d be e1 d3 c0 3d 9c 13 05 bf ea 6c d6 3d
       -0.15336213 0.09415413 -0.51983047 0.104699925
000320 1b 8c 44 3e 9a 65 80 be dd 13 3c 40 50 36 a1 3e
       0.19194071 -0.25077516 2.9387124 0.3148675
000330 ef a3 b4 be 0e 6e 78 3d 37 63 03 be cc f0 c4 3d
       -0.3528132 0.06065183 -0.12830816 0.09616241
000340 f7 c0 96 3e 53 d5 2a 3e 23 bd 93 3d 49 f3 66 3d
       0.29444095 0.16682939 0.07213809 0.05638436
000350 c2 85 28 3e e2 5e fc 3d 14 aa 45 3e 1b 08 10 3e
       0.16457275 0.12322785 0.19303161 0.14065592
000360 0b 9d 47 be 12 5f e8 bd 69 c6 1d 3e b5 40 1f bd
       -0.19493501 -0.11346258 0.15407719 -0.03888007
000370 53 11 90 bd 1d bd b9 3e e3 40 09 3e dc cd de 3e
       -0.07034554 0.36277094 0.13403659 0.43516433
000380 e8 3f 3f be f0 a0 bf be a7 91 03 be b1 96 31 be
       -0.18676722 -0.37427473 -0.1284853 -0.1734264
000390 ae b8 dc bd ef ca e0 3e fb 65 08 3e 08 45 1d 3d
       -0.10777412 0.43904826 0.13320152 0.03839591
0003a0 8d 83 26 bf 0a c6 10 3e 05 3e 7e bd cc 8e af bc
       -0.6504448 0.14138046 -0.062070865 -0.021430396
0003b0 ba 46 5f 3d 74 87 14 3b 7e 61 b3 be a0 5f 3f be
       0.05451081 0.0022663744 -0.35035318 -0.18688822
0003c0 cb 2f c2 bd 06 e4 f7 bd 8c cc 63 be e3 8a 01 be
       -0.09481772 -0.12104039 -0.22245997 -0.12650637
0003d0 27 55 c5 3c b6 85 be bd 45 23 56 be 1d 57 c5 bd
       0.024088455 -0.09302847 -0.20911892 -0.09635756
0003e0 d4 23 83 3c ef ce 3d 3e e7 0a 8a 3e 71 fa 82 3d
       0.016008295 0.1853597 0.26961443 0.06395424
0003f0 5b 06 64 be 0f 42 1e bf e9 ed fe bd 49 0a 31 be
       -0.2226805 -0.6181955 -0.124477215 -0.1728908

weight f4 [64]
000000 48 90 ad 3f b5 65 93 3f e9 d8 bc 3e 14 95 ac 3e
       1.3559656 1.1515414 0.3688424 0.33707488
000010 28 df 09 3f c9 c8 0d 3f 8c 0d 05 3f e6 45 b8 3e
       0.53856134 0.553845 0.51973796 0.35990828
000020 74 03 80 3f 2f b4 14 3f 2f 34 06 3f c7 38 e2 3e
       1.0001054 0.5808744 0.52423376 0.44183943
000030 60 0a bf 3f 51 79 62 3f f0 3e e2 3e d5 d3 07 3f
       1.4925041 0.88466364 0.44188643 0.53057605
000040 29 e0 19 3f 4e 05 08 3f d2 7c ae 3e 85 20 db 3e
       0.60107666 0.53133094 0.34079605 0.42798248
000050 9d 94 fc 3e 34 80 1e 3f 51 b0 cc 3e 38 d3 c9 3e
       0.49332133 0.6191437 0.3997827 0.3941896
000060 cd 58 e2 3e 10 ad df 3e 2e 51 b4 3e ce 6b e1 3e
       0.44208375 0.43686724 0.35218185 0.4402756
000070 dd 92 1a 3f a6 52 e7 3e 7f 88 d9 3e 11 eb 0e 3f
       0.60380346 0.45180243 0.4248695 0.5582743
000080 7f 18 e5 3e 93 46 80 3e 15 c0 ac 3e 05 31 08 3f
       0.44745252 0.25053844 0.33740297 0.531998
000090 7e 51 11 3f 96 0d aa 3e ae 94 34 3f bd d5 f2 3e
       0.5676497 0.3321349 0.7053937 0.47428694
0000a0 15 84 e5 3e 3d 62 df 3e 86 aa 42 3f 0b 83 04 3f
       0.44827333 0.43629637 0.7604145 0.51762456
0000b0 a8 11 9c 3e 44 c2 d8 3e f5 6e 59 3f f0 fc c2 3f
       0.3048222 0.42335713 0.8493493 1.523344
0000c0 bb 2c d1 3e 00 a5 87 3f c2 21 28 3f 63 aa 00 3f
       0.4085444 1.0597229 0.6567651 0.5025999
0000d0 a3 84 21 3f da ac 00 3f 49 b9 01 3f dd 65 c5 3e
       0.6309301 0.5026375 0.5067335 0.38554278
0000e0 fd df cc 3e da bd 0a 3f d0 3d 98 3e 6e 6d 88 3e
       0.4001464 0.5419594 0.2973466 0.26645988
0000f0 5a 20 d5 3e e0 41 05 3f 47 54 8c 3e 44 34 17 3f
       0.41626245 0.5205364 0.2740805 0.59064126

bias f4 [64]
000000 56 2b b5 bf 63 d6 51 be 42 11 0b be 16 ae 38 3e
       -1.415385 -0.20491938 -0.13580802 0.18035159
000010 f9 e9 0a bf 87 a4 12 bf da 1a 8f be 31 84 a9 bd
       -0.54263264 -0.572823 -0.27950174 -0.08277167
000020 13 d9 7b be 45 dd 1e be 78 5d d9 be be 3e 9f bd
       -0.24594526 -0.15514095 -0.42454123 -0.07775639
000030 1a 0b f1 be fc 4d 42 bf ee 78 de bd 77 25 6b be
       -0.47078782 -0.75900245 -0.10862909 -0.2296351
000040 d1 58 36 bf 95 92 c2 be 8b 65 94 3e 33 4f d7 be
       -0.71229273 -0.38002458 0.2898372 -0.42052612
000050 5c 2e ac be 76 d0 0b bf ad 70 cf bc cf 74 6c 3c
       -0.3362912 -0.5461496 -0.025322283 0.014432146
000060 78 bb 38 be c1 90 56 be d4 e8 b3 bd ad aa 1f be
       -0.18040264 -0.20953657 -0.08784643 -0.15592451
000070 d0 c9 e6 be a1 e7 c3 be b8 9e 82 bd 43 7f 03 bf
       -0.45075846 -0.38262656 -0.063779294 -0.5136606
000080 40 d6 93 be a9 cb 1a 3e 76 cc 68 3e a9 e8 db be
       -0.28874397 0.15116753 0.22734246 -0.42950943
000090 22 eb 36 be de 96 0f 3d 47 5f 32 bf f1 00 d8 be
       -0.17863134 0.035055988 -0.6967663 -0.42188218
0000a0 fb a4 5b 3d df 4c 8f be 04 7a 6a bf 06 e7 07 bf
       0.053624135 -0.27988335 -0.9159243 -0.5308689
0000b0 47 b0 31 3d 06 87 18 3d 33 c9 3c bf 5a 0b 1c bf
       0.043381 0.037238143 -0.73744506 -0.6095482
0000c0 cd 8a 92 be 90 39 38 be bc 3b f7 be 2f 5b 27 be
       -0.28621522 -0.17990708 -0.4828776 -0.16343378
0000d0 13 31 4d bf 8b 70 0f bf a4 87 da be 0a 60 00 3e
       -0.80153006 -0.560311 -0.4268161 0.12536636
0000e0 68 41 8c be 46 54 01 bf da 40 dd 3d 2d 07 0d 3e
       -0.2739365 -0.50519216 0.10803385 0.13772269
0000f0 f8 d0 88 be 4e b0 7c be af 55 bb 3e df f2 31 bf
       -0.2672193 -0.2467663 0.3658881 -0.69511217

running_mean f4 [64]
000000 fa 03 11 3f 93 f9 16 c0 e4 4f 69 be d8 2d 28 3f
       0.5664669 -2.3589828 -0.22784382 0.6569495
000010 3a 51 9b bf ba 22 96 bf 2a a6 18 bf 1f c4 5a 3f
       -1.2134163 -1.1729348 -0.59628546 0.8545551
000020 3f bc 36 c0 c6 a0 ce bf 70 b2 c7 bf 57 36 bf bf
       -2.8552396 -1.6142814 -1.560133 -1.4938458
000030 63 eb 4b bf 80 40 03 c0 92 89 52 be 13 61 21 c0
       -0.79656047 -2.0508118 -0.20560291 -2.52155
000040 71 7e b9 c0 8e 9a 13 c0 07 78 4c bf c5 7e 4c c0
       -5.7966847 -2.3063083 -0.7987065 -3.1952374
000050 22 2a 9e bf 6c 97 d3 bf a3 a8 66 3f d2 45 a7 3e
       -1.2356608 -1.6530585 0.9010107 0.32670456
000060 5c 38 d8 bf ea 95 2a bf 0a e3 23 3e e1 d1 0b c0
       -1.68922 -0.66635 0.16004577 -2.184685
000070 dd 1f c8 bf fa f1 d9 3d 50 68 d8 bd a2 c7 0d 3f
       -1.5634724 0.106418565 -0.10566771 0.5538274
000080 9e 1c e7 bf 75 bc a8 3f ef 2b 8f 3e 14 c1 64 bf
       -1.8055608 1.3182513 0.27963206 -0.89357114
000090 e6 91 a8 bf 66 18 33 be 5e e9 9d bf 62 68 a0 bf
       -1.3169525 -0.17489776 -1.2336843 -1.2531855
0000a0 6f 51 ca 3e 3b 5b 55 bf 57 f8 0f c0 18 13 ab bf
       0.39515254 -0.8334233 -2.2495325 -1.3365202
0000b0 7d d9 32 3f db 8a 21 bc e1 ef b5 bf 81 6f d9 bf
       0.6986311 -0.009859766 -1.421383 -1.6987153
0000c0 e9 79 ef bf ad 4a 11 c0 6e 09 4e c0 ea 53 4e bf
       -1.8709079 -2.2701828 -3.2193255 -0.8059679
0000d0 79 0a 3c c0 4e 7d 45 3f 0f 82 06 c0 3e 10 95 3f
       -2.9381392 0.77144325 -2.1016881 1.1645582
0000e0 3c 6f 01 bf 8a 44 70 bf 74 04 86 bf 46 fd ae 3f
       -0.50560355 -0.9385458 -1.0470109 1.3671043
0000f0 13 af cf 3d 0e af c2 bf 86 f8 b7 be ef 3a 49 bf
       0.10140815 -1.5209672 -0.35931796 -0.7860555

running_var f4 [64]
000000 51 03 13 41 46 b3 3d 42 47 53 d4 40 9c cc fa 40
       9.18831 47.42507 6.6351657 7.8374767
000010 f9 cd a7 40 30 09 99 40 b2 68 e2 40 da 05 d7 40
       5.243893 4.7823715 7.07528 6.7194643
000020 2d 16 29 42 b0 d6 3e 41 1a 2e cf 40 b0 2d c5 40
       42.271656 11.927414 6.4743776 6.161827
000030 1f 38 b0 41 40 ba e7 40 01 dd e8 40 86 c2 65 41
       22.027403 7.2414856 7.276978 14.359991
000040 b0 78 c6 40 0f d8 d3 40 f1 73 b4 40 ca 76 ef 40
       6.2022324 6.6201243 5.639153 7.4832506
000050 f2 1d b7 40 7d 40 99 40 6a 59 04 41 98 d4 ca 40
       5.7224054 4.789122 8.27183 6.3384514
000060 06 c5 b3 40 85 9c ee 40 37 fb b9 40 3c 42 f7 40
       5.6178007 7.4566064 5.811916 7.7268353
000070 be db e2 40 27 ca 90 40 b8 db eb 40 55 b0 03 41
       7.089324 4.524677 7.370571 8.23055
000080 c0 37 d7 40 69 1e 99 40 d2 20 d4 40 9a ea d3 40
       6.7255554 4.784962 6.6290064 6.622388
000090 82 1d 47 41 18 09 ba 40 a9 22 01 40 6e f7 b7 40
       12.444704 5.81361 2.0177405 5.748954
0000a0 7f 5e f1 40 09 d8 f5 40 50 6c a7 40 bb 70 a3 40
       7.542785 7.6826215 5.2319717 5.107511
0000b0 cb ef 73 40 5f 9b f0 40 88 d1 c2 40 49 06 6c 41
       3.8115108 7.518966 6.0880775 14.751534
0000c0 24 ec b6 40 8e a1 26 42 b6 42 a3 41 12 d9 d5 40
       5.7163258 41.65777 20.407574 6.682748
0000d0 8f 77 aa 40 7d 6b b8 40 83 12 da 40 cc fb ff 40
       5.3270946 5.763121 6.8147597 7.999487
0000e0 39 0f b9 40 c3 f1 04 41 4e 4d b8 40 3d 51 c5 40
       5.783108 8.309024 5.7594366 6.166167
0000f0 48 26 95 40 c3 e1 fc 40 14 b8 a0 40 68 e3 aa 40
       4.660923 7.902559 5.0224705 5.3402596
