models/testing_bigger/testing_bigger_298_128.pt (torch_old, 623437 bytes, 22 tensors)

weight f4 [64, 1, 3, 3]
00000000: 8d3e ce3c 86eb eebc 0494 5b3d f02e e2bd
00000010: 9562 b1be 75fb abbb cdd1 2d3d 3e9e a0bc
00000020: f590 2abc ebb2 ecbe 85f2 18be b229 753e
00000030: 6ea1 4abf 5249 d7be 44b2 913c ba84 453e
00000040: a0b9 fb3d 31b7 5e3e 44db 483e d38e 23be
00000050: 93a3 933e 6b54 9fbd 065f 49bf 2b75 88bf
00000060: a87f c73e 5d90 f33e 4e17 a7bd 11ed 2bbe
00000070: 5b7e aabd 0fb2 89be a4e0 babe c279 093e
00000080: bdb1 1dbe b6b3 333d 4fc3 c33e 43f0 bebd
00000090: 72c0 0cbf 571b 14bf 7b88 b5be e789 613c
000000a0: 0323 903f 22c6 da3e 31bf 9bbe 9aab 723e
000000b0: a880 96be 3739 083f 252b 24bf 8e3e 083f
000000c0: 3d0c 0d3c dfa0 82bf 1c43 4dbd 4bcd 4e3f
000000d0: f0c6 b3be 8930 8a3e 1c9f 90be 67d7 ebbd
000000e0: 4dbd f0be 0ccf 0b3e 9d8e 6e3f 9577 a2bc
000000f0: 4cc7 a0be 99f2 54be e7af 10be edae 943e
00000100: edfa 33bf 1262 1fbe c9ec 7e3e f82b 3cbf
00000110: d585 4dbf bada f13e ffaf cd3e 32e9 f53e
00000120: 9240 c9be b94d ec3e 1135 9c3c 0731 bbbd
00000130: dd88 db3e e100 0abe 9cc6 d13e 99d9 abbe
00000140: 0215 79be 9582 473f f6f7 e9bd cd61 063f
00000150: 9162 b9be cf2e b8bf 28ef 0dbf 9fb8 bc3e
00000160: 79fe 8b3c c982 3f3f 3ed9 213f e55f 233f
00000170: 686e a3bf 1ca0 b03d 140a c0bd 00ad 903c
00000180: f145 4bbf c576 eebe 9ec2 993f a663 a7bd
00000190: bf95 763b 8433 633e 01f4 09bd 8edc c9be
000001a0: 0fb2 a23e 2652 873e 7793 00bf ccb0 8abe
000001b0: 67ed c43e 3e8e 063f 786b ba3e 7ef8 7bbe
000001c0: 3cd3 89be 8224 24bf 0fdf 803d 9a52 07bf
000001d0: 5394 75be 4fd7 073d 33c9 4bbc d6e9 1fbd
000001e0: 0b4d 4fbe c05a 9cbd 3be3 8b3c d929 9d3c
000001f0: 84a8 35be 8e89 a1bb be7c c73c 6cd4 0a3d
00000200: 0a99 6e3d 6023 4bbe 9fb3 aabe d463 b3bd
00000210: accf a53d cdbe 8ebc b30d 3abc 1524 bd3d
00000220: 1a0a b53c e936 653d ccc5 0fbe f2c8 1fbf
00000230: 8f66 73bd 3c21 223e 93c0 fabd f650 e13d
00000240: de9b 9b3d 0d36 9bbb e38e 83bd 3cab 73be
00000250: 3831 9ebd 5b8d 013d 787d 173d 6264 2ebe
00000260: 3d21 a73c 5268 753e 1944 c33d d332 a3ba
00000270: 1b58 10be 8a6e 78bf 651d aebd 8cc1 073d
00000280: 935b c9bb 35ee 643e ce5a 89be 298f e63d
00000290: 30bb 4abd 7dec 143f fb77 b13e f851 2cbf
000002a0: f2b4 dbbe 0e8c 263e e139 a53e cb83 ba3e
000002b0: d654 8bbf 8c14 adbd 0bc1 1b3e e9e8 88bf
000002c0: 6225 d33d fa58 733d dce3 c63e e5ba ff3e
000002d0: 921b 573d 2821 303f fd19 f33e 2439 90bc
000002e0: 8259 70bd 3b6c 4dbe 1c54 243d 5bb5 16bf
000002f0: 4863 92be 8e72 85be f4ee 5fbf a20a cd3d
00000300: 8b95 073d f380 3f3f e983 fc3e 0a0f 80bd
00000310: e145 f03e fe1f 0dbf 8887 21be 1a01 05bf
00000320: 99d5 ba3d 3894 18bf f798 debe 0dd1 34bd
00000330: c486 203f 8851 a03e b350 493f aa3b f3ba
00000340: 9029 b0bc 275e 64ba e20d 9fbe 2378 593e
00000350: dedf 253c d407 393e db08 8bbe b285 97bd
00000360: 356b ed3d e7e7 8fbe 5982 153e 1962 fdbe
00000370: 430b 44be 639b 443f ddb4 033f 2508 a1be
00000380: 62aa 1dbe ed5a 663e 1fdb ecbe d35d 163e
00000390: 4664 223f 9fd0 f1be ca8e 2a3e 6f7c 243e
000003a0: c8ed 05bf f582 8a3e c92f 19bc 84f7 d53d
000003b0: ac05 3abd 3f4e 11be 9e50 74be 9dcd a0bd
000003c0: 8b9c 383d 976d 38be 12ca b33d c471 073e
000003d0: 77b0 0c3e b72c 24bd 8f3a a63d 9f00 67bf
000003e0: 2ac8 d6bd 4a4c 5cbd f9db 78bd 02a3 a33e
000003f0: ca7b e53e 5031 2f3f ad5a db3e 57ff 673d
0.02517631 -0.02916504 0.053607956 -0.11044109 -0.34645525 -0.005248482 0.04243641 -0.019606706
-0.010410537 -0.46230254 -0.14936264 0.23941687 -0.7915257 -0.42048126 0.017785199 0.19288912
0.122912645 0.2174957 0.19614893 -0.15972452 0.28835735 -0.07779773 -0.7866062 -1.0660757
0.3896458 0.47571078 -0.08158742 -0.16789652 -0.08324882 -0.2689366 -0.36499512 0.13425353
-0.15399833 0.043872558 0.38234946 -0.0932317 -0.5498115 -0.5785422 -0.3545569 0.013765789
1.1260685 0.42729288 -0.30419305 0.23698273 -0.29395032 0.532123 -0.64128333 0.5322045
0.008608875 -1.0205344 -0.05011283 0.80782 -0.35112715 0.26990154 -0.2824639 -0.11515694
-0.47019425 0.13653201 0.9318636 -0.019832412 -0.3140205 -0.20795669 -0.14129601 0.29039708
-0.7030476 -0.15564755 0.24895014 -0.7350459 -0.80282336 0.47237188 0.40173337 0.48029476
-0.39307076 0.46153048 0.019068273 -0.091402106 0.42877856 -0.13476898 0.4097184 -0.3356445
-0.2432442 0.7793363 -0.11424248 0.5249298 -0.36208013 -1.4389285 -0.5544305 0.36859605
0.017089115 0.7480894 0.6322211 0.638182 -1.2768068 0.086242884 -0.09376922 0.017660618
-0.794036 -0.4657499 1.2012517 -0.08173303 0.0037625877 0.2218762 -0.033679966 -0.39426082
0.31776473 0.26429862 -0.50225013 -0.2708801 0.38462374 0.52560794 0.36410117 -0.24606511
-0.26918972 -0.64118207 0.06292545 -0.52860415 -0.23982362 0.03316432 -0.012438106 -0.039041363
-0.20244233 -0.07634497 0.017076125 0.019184994 -0.17740065 -0.004929728 0.024351474 0.033893988
0.05825142 -0.19837713 -0.33340165 -0.08759275 0.08096251 -0.017424965 -0.011355805 0.09235398
0.022099543 0.05596057 -0.14040297 -0.62415993 -0.05942398 0.1583299 -0.12243762 0.1100177
0.07598089 -0.004736668 -0.06423738 -0.2379579 -0.077242315 0.031628948 0.03698489 -0.1703048
0.020401591 0.23965576 0.09534473 -0.001245106 -0.1409611 -0.9704367 -0.085017 0.033143565
-0.0061449497 0.22356494 -0.2682709 0.112577744 -0.049494922 0.5817335 0.3466185 -0.67312574
-0.42911488 0.16264364 0.3227072 0.36428675 -1.0885265 -0.08451185 0.15210359 -1.0696079
0.103098646 0.059411027 0.38845718 0.49947277 0.052516527 0.6880059 0.47480765 -0.017605372
-0.05867911 -0.20060818 0.040119275 -0.58870476 -0.2859137 -0.2606396 -0.8747399 0.10011794
0.0331016 0.74806136 0.4931939 -0.062528685 0.46928313 -0.5512694 -0.15774357 -0.51954806
0.09122772 -0.59601164 -0.43476078 -0.04414468 0.62705636 0.31312203 0.7863876 -0.001855721
-0.021504194 -0.00087115396 -0.3106528 0.21237235 0.010124175 0.18069392 -0.27155194 -0.07398547
0.11592714 -0.28106615 0.14600505 -0.49488905 -0.19144921 0.767996 0.5144785 -0.31451526
-0.15397027 0.22495623 -0.46260926 0.14684229 0.63434255 -0.47229478 0.16656032 0.16063093
-0.5231595 0.27053037 -0.009349772 0.104476005 -0.045415565 -0.14190005 -0.23858878 -0.078517176
0.045071166 -0.18010555 0.08778776 0.13226992 0.13739191 -0.040081706 0.08116638 -0.9023532
-0.10487397 -0.053783692 -0.060756657 0.31960303 0.44821006 0.6843462 0.42842618 0.056639995

weight f4 [64, 64, 3, 3]
00000000: 354d aebe ee05 20be 0b1c 25bd 03c0 983d
00000010: ab74 9f3e c642 463e 6338 133d 5987 a43d
00000020: e103 27bd 7829 d1be 5bd4 f8be 1a66 3fbd
00000030: 32e0 27bd 071c 2b3f 6af9 e63e 8f9c 92be
00000040: 4b81 593d 01aa 9b3d 7e99 abbe 7943 c2be
00000050: 47f5 bebe 9f2d 173f 74e3 243f d074 d23d
00000060: e13c 1abd fb97 c7bd 1be4 a0bd b1cd 0e3e
00000070: 1799 90be 9df8 663e 586c d53d 2985 9abd
00000080: e1f6 4cbd 2f7b a9bd b69c 19be ec32 0bbd
00000090: 19f2 a53e 92c4 963d 3e42 953f 96b4 febe
000000a0: 5e7b 37bf 6287 aabf c554 2abe 6635 32bf
000000b0: 76eb e73e 9d61 c6bd 1f7e e8bf 64ce ce3e
000000c0: c556 01bf cfe4 e43a b533 533f 31cb e53e
000000d0: 5ea3 e9bb f3d6 713f efb9 f23e 6aea 2f3e
000000e0: 172e 863e cf17 f73d 53a6 ddbe a2ad dbbe
000000f0: 3b35 c33e a6e6 edbe 5057 8bbe 1cb9 0e3e
00000100: b91e 533d b01e 0d3f f9f8 91be 2d21 27be
00000110: db0d 85be d41f 18be 3e2b a7be bf5e d0be
00000120: 4ad5 0ebe c3cb dc3c e007 09bf f91e ddbe
00000130: ff74 1cbe 5c86 143f 9d91 bf3e 5fa3 b93e
00000140: 2f6e a3be 8860 8abf 354d 2bc0 41d8 41bf
00000150: 5ea6 b5bf 0afd 91bf eccf 3ebf a9e6 f43d
00000160: 2d63 ef3e b8f5 eebe 45b9 d8bf a7be a9bf
00000170: 5a81 8b3e 018b 8a3e e9a5 9abf 01b5 4dbf
00000180: e52b 253f 3b4e b73e c16e 2b3f 7b3e 1dbe
00000190: 6e36 f63e 8ad3 633d 8271 88be 96d2 84bd
000001a0: da90 d83d 5fe8 54bd 275f cebd db35 c33d
000001b0: fb81 83bc 222b e4bd 5152 d6be f630 b1bd
000001c0: 6bf8 73bf bde5 86be 34f9 fc3e 7061 183f
000001d0: 6378 ec3e 5d26 61be 1ba7 b4bd c739 aabd
000001e0: 12b4 363e 96e0 403e 26ec 093e d704 523d
000001f0: b7dd c2bd 3bfc 893d 853e 98be dbda 06be
00000200: db8e 07be 290b e23d dd1f 993e f469 fa3d
00000210: 2691 edbc c3b4 2b3d 0d24 cf3d 076e c5be
00000220: 8cd9 3cbe 0024 fdbd 8a2f f63d 3cd1 a13e
00000230: 674d 703e af8e 8dbd 9355 a23d 8346 0d3d
00000240: 3270 99be 0f88 d3bd 9b0e fc3d af0a 873e
00000250: 2a34 cb3d 9686 923d 937d 183d 9a78 00be
00000260: 7878 ccbb bea2 f2be d121 34be 35eb 37be
00000270: 1288 e03d d692 c03e f3b6 113e 091d f63c
00000280: 10e1 343e c625 cf3d 95c6 723d c52e de3e
00000290: 3ed2 b73e 0274 2dbf c611 3ebf 7752 e43d
000002a0: 4eaa ac3d eb2e 873e d367 47be 0825 b7bc
000002b0: ce3b c0be 5665 423e 7d86 23be 9c41 af3e
000002c0: 4231 c4be 08a3 903d 20cc 14be 31b2 d93d
000002d0: 46b3 933f 63fc 7a3f 7660 063f 7fb7 55bf
000002e0: 7337 dbbf 15db b2be be46 84be 1016 0b3f
000002f0: addf 05bf 41ac 9a3c 37b2 9cbf 8a3e 503d
00000300: 5480 c4be 8905 2d3f 0110 f2be 6b95 7b3e
00000310: ebc1 68bd a240 d63e 068f 95bf 762a f0bf
00000320: 3b86 43bf fcd6 4a3f 22d1 d63f ace9 c3bb
00000330: c3e7 b73c d84c bd3e 073b 30be d5d3 57be
00000340: 1319 5d3d 46c9 7dbe 8d73 8e3d cd2a 813e
00000350: 1ee0 563e bff6 043d 0ad0 31bd a5ed 3bbd
00000360: a9cb a73d 88ae e3ba 9520 a9be 6689 1d3e
00000370: e9b9 2b3e 5827 90be 8fe4 6dbd 7524 11b9
00000380: 6b66 8d3e b4a1 5c3e 7005 d6be 6aa7 013f
00000390: 7cae eabe 03d1 30bf 1914 2d3f c80c 9c3e
000003a0: 4cc9 02be 47c1 203e 358e abbe 1d62 9dbc
000003b0: 89cc 1b3c 8dc1 5b3e 7474 5c3e 7f2c ed3d
000003c0: c86d c3bd d454 563d 1fe7 4fbd 2936 c1be
000003d0: d940 90bd 4d03 3ebe fbaf 963d 60ad 853e
000003e0: fead 5f3e c62f 2dbd e386 643e 3f45 053a
000003f0: 7683 4d3f 845d 503f e325 dc3e abb0 8cbe
-0.3404328 -0.15627262 -0.040309947 0.07458498 0.31143698 0.1936141 0.035942446 0.08033628
-0.040775184 -0.4085195 -0.48599514 -0.04672823 -0.040985294 0.6683964 0.45112163 -0.2863507
0.05310182 0.07600785 -0.33515543 -0.37942103 -0.37296507 0.5905399 0.64409566 0.102761865
-0.037655715 -0.09745785 -0.07856008 0.13945653 -0.28241798 0.22555776 0.104210556 -0.075449295
-0.05004013 -0.082754485 -0.15001187 -0.03398411 0.32411268 0.073617116 1.166084 -0.4974715
-0.7167262 -1.3322566 -0.166339 -0.6961273 0.4529683 -0.09686587 -1.8163489 0.4039184
-0.50523025 0.001746321 0.82500774 0.44881585 -0.0071300706 0.9446861 0.4740748 0.17179266
0.2620704 0.12065088 -0.43290958 -0.4290591 0.3812655 -0.46465033 -0.27215052 0.13937801
0.05154297 0.5512495 -0.28510264 -0.1632125 -0.25987133 -0.14855891 -0.3265018 -0.40697286
-0.13948551 0.02695263 -0.5352764 -0.43187693 -0.15279005 0.58017516 0.37415782 0.36257455
-0.3192 -1.0810709 -2.6765873 -0.757206 -1.4191396 -1.1405346 -0.74536014 0.119580574
0.46755353 -0.46671844 -1.693154 -1.3261307 0.27247125 0.27059177 -1.2081882 -0.80354315
0.645201 0.35801873 0.6696587 -0.15355866 0.48088402 0.05562166 -0.266491 -0.064854786
0.10574503 -0.05197942 -0.100767426 0.095317565 -0.01605319 -0.111410394 -0.41859677 -0.08651917
-0.9530093 -0.2634715 0.49408877 0.5952368 0.46185598 -0.2198729 -0.08820935 -0.083118014
0.17842129 0.18835673 0.1346899 0.051274147 -0.09514945 0.06737562 -0.297352 -0.13169424
-0.13238089 0.11037285 0.29907122 0.1222724 -0.028999876 0.041920435 0.10114298 -0.38560507
-0.18442363 -0.12360382 0.12020786 0.31604946 0.23467027 -0.0691198 0.07926478 0.034491073
-0.2996841 -0.103286855 0.12307473 0.26375338 0.09922059 0.071545765 0.037229132 -0.12546006
-0.006239947 -0.47389787 -0.17591025 -0.17960818 0.10963453 0.37612027 0.14229946 0.030043142
0.1766398 0.101146266 0.059271414 0.43395057 0.3590259 -0.6775514 -0.7424587 0.111485414
0.084309205 0.26402983 -0.194732 -0.022356525 -0.37545627 0.18983969 -0.15969272 0.34229743
-0.3831883 0.07062346 -0.14530993 0.106296904 1.1539085 0.9804136 0.5249094 -0.8348312
-1.7126297 -0.3493277 -0.25835222 0.5433054 -0.5229443 0.018880965 -1.2241887 0.050840892
-0.38379157 0.6758657 -0.47277835 0.24568717 -0.05682556 0.41846186 -1.1684272 -1.8762958
-0.76376694 0.7923429 1.6782572 -0.0059787836 0.02244938 0.3697269 -0.17210017 -0.21076901
0.05397899 -0.24783811 0.06955633 0.25227967 0.20983931 0.032461878 -0.043411292 -0.045880932
0.08193142 -0.001737074 -0.3303267 0.15384445 0.16770138 -0.28155017 -0.0580793 -0.00013841859
0.276172 0.2154606 -0.41801023 0.5064608 -0.45836246 -0.69068927 0.6760879 0.304785
-0.12772101 0.1569873 -0.33506933 -0.019211823 0.009509214 0.21460553 0.21528798 0.115807526
-0.095424235 0.052326992 -0.050757524 -0.37736633 -0.07043619 -0.18555947 0.07357784 0.26108837
0.21843717 -0.04228189 0.2231708 0.0005083866 0.8027872 0.81392694 0.42997655 -0.27478537

weight f4 [64]
00000000: 9afc 143f 7338 eb3e 77cb bb3e a90f 0c3f
00000010: ad0c 0f3f 7492 da3e a15c c03e a5ef dc3e
00000020: b403 b73e 90b5 b73e 20c3 c23e 497a 293f
00000030: 7e93 b53e 6b58 ec3e 584b a13e b01c e03e
00000040: 5e52 6f3e 27bb 463f d70a 8e3e 2ba6 d33e
00000050: ef45 ef3e e6a1 023f b1e3 e43e 68cd c73e
00000060: db38 8b3e a8ae cb3e 706f 123f 50d9 2f3f
00000070: 1b71 093f b029 c53e e1e7 c23e df80 393f
00000080: 9609 be3e a6b2 f03e b944 ce3e a9ba 023f
00000090: 2b51 e83e 226c cd3e 43fa 923e 7057 b03e
000000a0: 5f2c d43e 13bb cc3e 3f55 973e 69ef 643e
000000b0: f9ae a03e b070 c53e e24f 093f 4b57 a33e
000000c0: f5f2 803e 9483 f03e 7ab2 e73e 52c5 c53e
000000d0: 1cc9 ee3e c92a c03e 3529 df3e d1a4 e23e
000000e0: a191 253f 15e6 0c3f e096 dc3e 7c2b 29bf
000000f0: a45a c33e 2637 023f ae5d ad3e 4229 ab3e
0.5819794 0.45941505 0.3667867 0.54711396 0.55878717 0.4268986 0.3757067 0.43151584
0.35745013 0.3588071 0.38039494 0.6620222 0.3546409 0.46161208 0.31502795 0.43771887
0.23371264 0.7762932 0.27742645 0.41337714 0.46733043 0.5102829 0.44704965 0.390239
0.27191815 0.3978169 0.5720129 0.6869097 0.5368821 0.38508368 0.38067535 0.72462267
0.37116688 0.47011298 0.40286806 0.5106607 0.45374426 0.4012156 0.2870656 0.3444171
0.41440102 0.39986476 0.29557225 0.22356953 0.31383494 0.38562536 0.53637516 0.31902537
0.25185362 0.46975386 0.45253354 0.38627106 0.4663781 0.37532642 0.43586126 0.4426637
0.6467534 0.5503858 0.43083858 -0.66081977 0.3815509 0.508654 0.33860534 0.33429915

bias f4 [64]
00000000: 1f91 dcbd 9ec1 eabd ce74 e1be 1348 36bd
00000010: 77a9 ebbe 4b51 16bf 8b92 763e 3d12 ab3e
00000020: 73e5 b43d aecd 9ebe 60ad 50bf 3f1b b8be
00000030: 25ab 27be 35c0 12bf 3c4f 39bf 2b04 95be
00000040: 748f ff3d 3fd1 11bf 7bcd 303e 540e f3be
00000050: 0aba 7f3d b841 42be 79b0 64be 7459 69bf
00000060: 2ffc 353e 5dca 01be d9a1 9ebf 852f 9abf
00000070: b9de 7c3d e6a0 01be 0c29 1fbf badd 4cbf
00000080: e8b3 393e 8121 b5bd 575b 8dbd 946d 68be
00000090: 186c 02bf 57e1 52bd a34e 0c3e 8b2a da3d
000000a0: 65d7 d5be d447 113d 1e2d 5bbf 9a12 29bf
000000b0: e306 0cbf ed77 fabe e147 ee3c 6885 55bf
000000c0: 201a 38bf 1979 4e3c 02ce f6bd 6025 3abf
000000d0: 594a 9bbe 04db 16bf 40ff 66bf e17a 38bf
000000e0: 1f97 bb3d df1c 85be 31e9 19be a752 d7bf
000000f0: f8a2 d2be c43f 3cbf 724e ccbe 4099 55bf
-0.10769867 -0.11462711 -0.44034427 -0.04450233 -0.4602773 -0.58717793 0.24079339 0.33412352
0.088328265 -0.31016296 -0.8151455 -0.35958287 -0.1637388 -0.57324535 -0.7238653 -0.29104742
0.124785334 -0.5695991 0.17265885 -0.4747187 0.06243328 -0.18970382 -0.22332944 -0.9115212
0.17771982 -0.12674852 -1.2393142 -1.2045752 0.061735842 -0.12659034 -0.6217201 -0.8002583
0.18135035 -0.08844281 -0.06902187 -0.2269805 -0.5094619 -0.051484432 0.13701873 0.10652646
-0.41765895 0.03546889 -0.8561572 -0.6604401 -0.5469801 -0.4891962 0.029087009 -0.83406687
-0.71914864 0.012602114 -0.120510116 -0.7271328 -0.3033016 -0.5892794 -0.9023323 -0.720625
0.091596834 -0.2599859 -0.15030362 -1.6822098 -0.4113996 -0.735348 -0.399036 -0.83436966

running_mean f4 [64]
00000000: a681 96be a845 643d 36a9 20c1 c465 f83d
00000010: 7f15 d63f 8a36 ecbf 06a2 8abf fa5c e6bc
00000020: c32c a5bd d00c fcbf f6c3 4bc1 e956 b040
00000030: f3d6 4f3f 6fd0 a3bf 5c9e 30c1 41c9 8b3f
00000040: c509 4c40 2c50 ba40 a37f 0f40 9884 26c1
00000050: 6b6f e3bd d36c 4840 44b5 aa3f 62db 55c1
00000060: ac73 2040 7327 803c 73d8 83c0 753f 21c0
00000070: 06dc d9be ca4b 4ebd 3e6c 44c1 9af9 a140
00000080: d849 15be 80d6 51be daa7 973f 8e9d 29bf
00000090: d3f9 14c1 c900 8cbf 1b78 84be e8aa 0740
000000a0: 9f47 d4c0 8df0 ddbd 48a9 37c1 56b4 09c1
000000b0: b75a 4bc1 de64 eec0 8217 74be 0737 e0c0
000000c0: 2fd0 2ec1 4bc6 e6be 5adb 903f 5f9f 4bc1
000000d0: 1886 933e 6960 dec0 357b 0cc1 c70d ddc0
000000e0: 1be5 60be e4cd 84bf 9865 7f3f 5a58 36c0
000000f0: 632f 9cbf fd03 3b40 fb9c 3dc1 3bd5 04c1
-0.2939579 0.055730492 -10.041311 0.12128785 1.672531 -1.8454144 -1.0830696 -0.028120507
-0.08065178 -1.969141 -12.735342 5.510609 0.8118736 -1.2797984 -11.038662 1.0920793
3.1880963 5.8222866 2.2421653 -10.4073715 -0.11105236 3.131642 1.3336568 -13.36606
2.50706 0.01564381 -4.120172 -2.519498 -0.42550677 -0.050365247 -12.276426 5.061719
-0.1457895 -0.20491982 1.1848099 -0.66256034 -9.310992 -1.093774 -0.25872883 2.1198063
-6.633743 -0.10836897 -11.478828 -8.606527 -12.709647 -7.449813 -0.23837093 -7.006717
-10.925826 -0.4507316 1.1316941 -12.726409 0.28813243 -6.949269 -8.78008 -6.907932
-0.21962397 -1.0375333 0.99764395 -2.8491426 -1.2201961 2.9221184 -11.850825 -8.302058

running_var f4 [64]
00000000: 9069 523f 2b66 6b3f 0179 3841 9a12 bc3f
00000010: 23fe bd3f ff1e 423f d422 1d3f b116 8f3e
00000020: 727f 3d3e 53d9 4d3f 4a79 8e41 333b 8340
00000030: 8d60 9c3f 1191 ca3e f39e 5341 3b5d e13e
00000040: f816 953f 843f 8140 2176 2640 ff69 3d41
00000050: 4565 283f c113 a73f 9ea0 c93f 8ce8 9a41
00000060: ec8f 813f f800 f73e 9afd 1a40 f78a 7c3f
00000070: 6593 043f 9840 ad3e 2a0e 8441 260e 4a40
00000080: 1736 ed3e 8737 903e 2ec1 363f 9a07 443f
00000090: bf71 1a41 5eda c13e b4a6 c93e 8acc eb3f
000000a0: b956 9f40 41b2 553f 251b 5a41 f439 f240
000000b0: 6f23 8b41 e206 cc40 e6b7 8d3f 17a7 a740
000000c0: 6a26 4641 c80d 753f 44b1 8c3f 77b2 9041
000000d0: 7bed d83e 683b bd40 e2e6 1341 ac57 c140
000000e0: 0de6 8a3f 20db 153f e5b4 603f 4db6 5c3f
000000f0: 37ba e83e 1a7f 0940 a38a 7941 e352 e940
0.82192326 0.9195277 11.529542 1.4693177 1.4843181 0.75828546 0.6138127 0.27947
0.18505648 0.80409735 17.809223 4.1009765 1.2216965 0.39563802 13.226306 0.44016442
1.1647635 4.0390034 2.60096 11.838378 0.65779525 1.3052903 1.5752141 19.363548
1.0122046 0.48242927 2.4217286 0.98649544 0.51787406 0.33838344 16.506916 3.1571136
0.4633033 0.28167364 0.7138852 0.765741 9.65277 0.37861913 0.39384997 1.8421795
4.9793363 0.8347512 13.631627 7.5695744 17.392302 6.37584 1.1071746 5.2391467
12.384378 0.95724154 1.0991597 18.087141 0.42368683 5.9135017 9.243868 6.041952
1.0851456 0.58537483 0.87776023 0.8621567 0.4545457 2.1483827 15.596347 7.291368

weight f4 [64, 64, 3, 3]
00000000: caee b6be 32ee 02bf ad5b 9dbe b0a8 b0be
00000010: 9cb8 1dbf a155 01be 1c09 6a3e f50e e9be
00000020: c735 84ba 3676 85bd c7bb 18be 2e0d 5bbe
00000030: 552e 74be 0de5 103e 3f36 833e 362f a0be
00000040: ae96 93bd a2e4 01bd 0d1f 1ebe d5f7 8abe
00000050: 5462 073e 5e29 4cbf ba47 76bf 50fb 87be
00000060: 58d3 12bf 1cd4 01bf 5576 85bd c9dc 3bbc
00000070: cba4 843d 2829 713d 7024 79be d3c0 27be
00000080: ab32 653e e15c 35bf 439b 9a3d 8d55 793e
00000090: df1e 53bf 0faa 10bf 87f7 223e 629b 513e
000000a0: 05f2 76be c3cc 9f3d 1efd 883d fbeb 2b3e
000000b0: 1391 803e 0a78 c4be 41da 09bf 4e7e 3d3e
000000c0: cefa 173e 3606 bc3d 3902 7a3e 9612 ae3e
000000d0: 00c3 2a3e ad92 b13e fbac b63e bce7 6d3c
000000e0: e30d 0d3f 8385 6b3e e2d3 9f3d 6c40 433d
000000f0: 2767 de3e 4c3d 80be fc80 09bf bfb2 85bd
00000100: 8fa3 0b3f c70f 91bd c084 96be d9bd 5b3f
00000110: 0cea 89bd 145f 1f3e 670d a5be a018 5fbe
00000120: 33d0 ed3c 7d86 cebd 387c 52bc 6506 d2be
00000130: d1e5 2bbf de59 90bd 7e23 093e e08b f13e
00000140: 7961 25be 4392 5f3e 279d 9abe c5fa eb3e
00000150: b3f1 a0be 2b8e a8be 6b1a d9be d5ff 10be
00000160: a870 3cbe b104 03be 9099 bb3d 6dc7 26be
00000170: 6057 19be 7ca4 79bd be88 acbe bc23 02be
00000180: c04c 25bd 7c04 53be 2461 fbbd a566 6bbe
00000190: 8d65 c6be 6140 17be 9423 36bd fa0d b33d
000001a0: 900e 4abe 8820 0cbe 2d82 c1be dd08 9dbe
000001b0: 852b b5be 0198 96be 0644 6d3d b570 f5be
000001c0: 052f 393d 38be 223d dc56 eebe 1dfb b3be
000001d0: db6b 5cbe 6349 44be 6459 06be 0e02 0d3d
000001e0: 2d72 0d3d 889d 2dbe a4d5 2e3e b2b4 e8bd
000001f0: c24c 863e bceb c13d 4f2c 873e 3960 293e
00000200: c67a 013f 8d29 f5bc 01c4 22be 2174 823e
00000210: f5e1 c63d 3f84 2ebd befb 543e c063 0f3d
00000220: 074d e1b8 30e7 22bf b30f 97bd 6dce 543e
00000230: 555d 12be 09fa 15bf e0fe ba3e b3ef a13e
00000240: a9b1 84be 426c 683e db3d 893e 55c9 82bf
00000250: 9499 a2be c0f4 edbe efc0 2dbf e1b3 debe
00000260: 21cd f0be 4ea4 51bb 7c13 453d 78f0 07be
00000270: 1f01 8b3c 1c9f 43bd 3511 8fbe 8dfc b9be
00000280: e4ee e8be b0fa f2be adf9 163f 91f6 1b3e
00000290: 1e32 523e ba72 913e f20a ab3c f37c 383c
000002a0: f72e 993e 5948 ca3d fe4c aebc 7a94 88be
000002b0: 42cd 6dbf 526e b9be e140 04bf cc21 79bf
000002c0: 6762 edbe f6a9 c4be d1a6 e9be 5127 46be
000002d0: a0a4 fb3d f1a1 1bbd 201c c5be 105b 383e
000002e0: 6446 eabe 8fb2 ebbe 8d55 c03e 962d 87bc
000002f0: 35b9 273e 6f54 20be ac40 093e 0ab8 003f
00000300: 1b45 32bf 1329 87be 9142 44be 55bc d9be
00000310: cab3 aebe 7cb9 873d 7147 913e 6403 1abe
00000320: 07cc dfbe caf6 e3bd 2ca9 7e3e 7b4b f4be
00000330: 9b4d a3be 5dc8 2cbf 718a 1ebf ba97 123e
00000340: 55af 1d3d 4e90 773e 1ea8 283e dd1b c83d
00000350: 382a 5c3e 206f 1c3e 2304 4f3d ff52 503d
00000360: bf79 243e d757 393d bfaf 12be 253c e73d
00000370: 3777 2bbe 166d 00bd c896 42be 0e52 99be
00000380: 0e2a 2abd 78bf 98be b829 25be 10d3 27bf
00000390: 4665 c1be d115 023e 6d80 cd3c 39fb e7bc
000003a0: 8a5e 93be 957f 9ebb d25f 2d3e 3bf6 03bd
000003b0: d32a d43b 3c48 ab3e 9cf9 8b3e 199b c93e
000003c0: cac2 e93d a05a 673e f22d 863d 65b0 bb3d
000003d0: 34ba f4be d7e1 073e 9b26 133e 468b edbd
000003e0: 0922 1f3d 12f5 1bbf e876 c93e f1c9 63be
000003f0: 4e19 353e 6f6a d53d dd94 7c3e f817 edbe
-0.35729057 -0.5114471 -0.30734006 -0.34503698 -0.61609817 -0.12630321 0.22855037 -0.45519224
-0.0010086828 -0.065166876 -0.14915381 -0.21391746 -0.238458 0.14149876 0.25627324 -0.3128602
-0.07206474 -0.031712182 -0.15441532 -0.27142206 0.13221103 -0.7975062 -0.96203196 -0.26558924
-0.57353735 -0.5071428 -0.06516711 -0.0114662135 0.06476744 0.05887714 -0.24330306 -0.1638215
0.2238261 -0.70844847 0.07549145 0.24349041 -0.8246898 -0.5650949 0.15914737 0.2046943
-0.2411576 0.07802727 0.06688903 0.16789238 0.25110683 -0.38372833 -0.53848654 0.18505213
0.14841768 0.09180872 0.2441491 0.33998555 0.16675949 0.34682217 0.3567885 0.014520582
0.55099314 0.2300015 0.07804085 0.04766886 0.43438074 -0.25046766 -0.5371244 -0.06528234
0.54546446 -0.070830874 -0.29398155 0.8583656 -0.06734094 0.15563613 -0.32236788 -0.21786737
0.029029941 -0.10084245 -0.012846999 -0.41020504 -0.67147547 -0.07048391 0.13392445 0.4717703
-0.16150464 0.21833138 -0.30198023 0.4608976 -0.31434402 -0.32920966 -0.42402968 -0.14160092
-0.1840235 -0.12794758 0.09160149 -0.16287012 -0.14974737 -0.06094788 -0.33698076 -0.12708944
-0.040356398 -0.2060718 -0.122743875 -0.22988375 -0.38749352 -0.14770652 -0.044467524 0.087429
-0.19732118 -0.13684285 -0.3779463 -0.30670825 -0.35384765 -0.29412845 0.0579262 -0.4793755
0.045210857 0.039732188 -0.46550643 -0.35152522 -0.21525519 -0.1916862 -0.13120037 0.034425788
0.034532715 -0.16954625 0.17073685 -0.1136259 0.26230437 0.09468791 0.26400992 0.16540612
0.5057796 -0.02992704 -0.15895082 0.25479224 0.09711067 -0.04260659 0.20799157 0.03500724
-0.000107431835 -0.63634014 -0.07376041 0.2078187 -0.14293416 -0.5858465 0.3652258 0.31628188
-0.25916794 0.22697547 0.26805004 -1.0217692 -0.31757796 -0.46475792 -0.6787252 -0.43496612
-0.470315 -0.0031988802 0.048114285 -0.13275325 0.016968308 -0.04775916 -0.27942815 -0.36325493
-0.4549476 -0.47456884 0.58974725 0.15230776 0.2052693 0.28407842 0.020879243 0.011260259
0.29918644 0.098770805 -0.021276947 -0.2667578 -0.92891324 -0.3621698 -0.516615 -0.97317195
-0.46364138 -0.3841092 -0.45635083 -0.19350936 0.12287259 -0.037996236 -0.3849802 0.18003488
-0.4575683 -0.46034667 0.3756527 -0.01650123 0.16379245 -0.15657209 0.13403577 0.5028082
-0.69636697 -0.26398525 -0.19166018 -0.42526498 -0.34121543 0.06627175 0.28374818 -0.15040356
-0.43710348 -0.11131056 0.24869221 -0.47713837 -0.31895146 -0.6749323 -0.61929995 0.14315692
0.038497288 0.24176142 0.16470382 0.097709395 0.2150048 0.15276766 0.050541054 0.0508604
0.16062067 0.045249786 -0.14324854 0.112907685 -0.16744696 -0.031354032 -0.19002831 -0.29945415
-0.041544013 -0.2983358 -0.16129196 -0.6555643 -0.37772578 0.12703635 0.025085652 -0.028318034
-0.28783065 -0.0048369863 0.16931084 -0.032217246 0.0064748316 0.33453548 0.27338874 0.39376143
0.11414106 0.22593164 0.06551732 0.09164504 -0.47798312 0.13269745 0.14370196 -0.1159883
0.038850818 -0.6092082 0.3934853 -0.22245003 0.17685434 0.10420691 0.24666162 -0.4630735

weight f4 [64]
00000000: 4271 4c3f 7422 163f c1b9 633f 4811 c33e
00000010: 61f2 1d3f 621f fa3e fdc3 d63e bbc4 d83e
00000020: 10ea 0b3f f603 d83e ffbc d63e 8550 023f
00000030: 3634 d23e 2017 f63e c874 143f bda1 bb3e
00000040: 2a7b 2f3f 6636 0e3f c695 cb3e 8955 d43e
00000050: 4727 d43e d624 ba3e f0a9 163f 5a19 143f
00000060: 3a5b e43e 0441 d73e b9cd da3e e8e3 d13e
00000070: 525a b53e f152 0e3f 37b6 c73e 7918 cf3e
00000080: 805f e73e fb2a c43e 19e7 363f 8f4b 043f
00000090: e078 e63e ca93 bb3e 0a3d 223f fc95 053f
000000a0: 9486 213f 68fa c53e a699 b73e 075a e33e
000000b0: e7ce 1c3f 24c4 d83e e726 483f 4363 023f
000000c0: d40b ea3e f1c2 fd3e 2c2b bb3e 7d56 003f
000000d0: 6cbf 0f3f c49e 563f 0ab1 303f 790d 083f
000000e0: 52d6 cc3e 331a dc3e d3b6 343f 3a29 bc3e
000000f0: 8259 b43e 6947 cd3e 2ca8 073f b941 c53e
0.7986032 0.5864632 0.8895531 0.38099122 0.61697966 0.48852068 0.41946402 0.42337593
0.54654026 0.42190522 0.41941068 0.50904113 0.4105546 0.48064518 0.57990694 0.36646834
0.6854731 0.55551755 0.39762706 0.41471508 0.41436216 0.3635623 0.58853054 0.57851183
0.4460085 0.4204179 0.4273508 0.4099419 0.3542047 0.5559531 0.39006206 0.4044836
0.45190048 0.38314041 0.7144638 0.51677793 0.45014095 0.36636192 0.6337439 0.52181983
0.63095975 0.38667607 0.35859412 0.44404623 0.6125321 0.42337143 0.7818436 0.5093271
0.4571215 0.4956279 0.36556375 0.5013197 0.5615146 0.8383601 0.6902014 0.5314556
0.40007263 0.42988738 0.7059147 0.36750203 0.3522454 0.40093544 0.52990985 0.38526705

bias f4 [64]
00000000: 1aa7 7f3d 0169 0dbe 7e4c 91be d6e8 5bbe
00000010: 3b0d 8dbe 5d6f a53e 9440 423c 66c0 8bbe
00000020: 916a a1be caaa 82be 977f 0ebe 8e51 5abf
00000030: c1ce 27bf 5411 99be 3ed1 79bf fe4f dcbb
00000040: c3ae 9ebf 3869 d0be 3464 40be 4d6a 583d
00000050: d1bc bbbe 766c 59bc de37 4ebf d2c9 f0bd
00000060: df3d 6b3c 3876 bcbe c30b 5cbe cd7a ecbd
00000070: e8c2 dd3d 0e76 bcbe 1b3e 2c3d 3a93 1fbe
00000080: ebf8 b9bf bb47 e0bd d85a acbe 0927 b7be
00000090: d84b 22be 21a2 fdbc 23ad 5ebd 5de1 9bbf
000000a0: 4693 48be 2deb 053d ae82 f23c 05fc 44be
000000b0: d628 c0bf feed 43be 6e07 99bf eb93 ef3c
000000c0: 161a 2fbe 1edd 52be 3297 a9bd b22c 17bf
000000d0: 9ce4 1fbf 1542 68be 08f0 8bbe 82c4 41bf
000000e0: 7519 83bd b708 44bb 0f08 f3bf 0db7 78be
000000f0: 3ae1 c6bd a13d 4d3d 5c4d 8fbe 6ae1 ac3d
0.06241522 -0.13809587 -0.2837867 -0.21475539 -0.27549157 0.32311526 0.011856217 -0.27295226
-0.31526616 -0.25520927 -0.13915859 -0.8528069 -0.65549856 -0.29896033 -0.97584903 -0.006723403
-1.2397083 -0.40705276 -0.18788224 0.05283575 -0.36667493 -0.013270488 -0.80553997 -0.11757244
0.014358013 -0.36808944 -0.21488862 -0.1154686 0.10828191 -0.3680882 0.042051416 -0.15583506
-1.4529089 -0.109511815 -0.33663058 -0.3577197 -0.15849245 -0.030961098 -0.054364335 -1.217815
-0.1958743 0.032694984 0.029603329 -0.19236763 -1.5012462 -0.19133756 -1.1955392 0.029245337
-0.17099795 -0.20592162 -0.08280791 -0.59052575 -0.62458205 -0.22681458 -0.27331567 -0.7569047
-0.0640134 -0.002991242 -1.8986834 -0.24288578 -0.09710927 0.050107602 -0.27988708 0.08441432

running_mean f4 [64]
00000000: 4a5c 25c0 745e 983f d89c 82c0 5ecc 6b3e
00000010: 9f78 dabf 7be8 913f 2e58 5bbf 8c87 b73e
00000020: 86fe 08c1 05d0 373f 12c6 8cbf b1d5 e03f
00000030: f4ee 8ac0 7141 aebf c7f2 f6c0 6dcb bebf
00000040: 01b4 40c1 0b76 73c0 efb8 7e3e f1d4 2140
00000050: 10c6 01c0 6a2e 4840 07a6 a9c0 2f5d 08c0
00000060: f587 0e3f e3fa 13c0 c501 ae3e 2b76 a6c0
00000070: 151d 26c0 d21a 34c0 56a3 5ebf 5ecb 24c0
00000080: a5a6 eec0 aa06 a4bf 205c cfc0 2dba 92c0
00000090: 1578 42c0 60ea 063f c33b 90bf 80b1 12c0
000000a0: 35a6 b73f 3a37 173f 2b71 3dc0 5a32 c4bf
000000b0: a557 80c0 9dc2 53bf 576f 9cc0 d41d 71bf
000000c0: 7bda 89be d55b 80c0 91b2 8bc0 b561 ccc0
000000d0: 1652 f8c0 9339 14bf a189 80c0 b5d4 c7bf
000000e0: 56af d93f 48b7 0240 19b7 8cc0 cadc 763f
000000f0: 6628 ba3f d958 f33f 225f 8cbf c92f 833e
-2.5837579 1.1903825 -4.081646 0.23027179 -1.7068061 1.1399072 -0.85681427 0.35845602
-8.5621395 0.7180179 -1.0997946 1.7565213 -4.341669 -1.3613721 -7.717136 -1.4905831
-12.043946 -3.8040798 0.24875234 2.528622 -2.0277138 3.127833 -5.301517 -2.1306875
0.55676204 -2.312188 0.33985725 -5.201925 -2.595525 -2.814137 -0.8696798 -2.5749125
-7.4578424 -1.2814534 -6.4799957 -4.5852265 -3.0385792 0.5270138 -1.1268238 -2.2920837
1.4347597 0.59068644 -2.9600322 -1.5327866 -4.010699 -0.8271883 -4.8885913 -0.9418614
-0.269245 -4.01121 -4.3655477 -6.386927 -7.7600203 -0.5790035 -4.0168004 -1.5611788
1.7006633 2.0424366 -4.397351 0.9643065 1.4543579 1.9011489 -1.0966532 0.25622395

running_var f4 [64]
00000000: 17f4 1741 ec4a af40 9eac 6b42 30ed 5340
00000010: 28b8 ba40 6bba 9940 dfca 9440 16ea 0b40
00000020: a880 1042 7eb7 4e40 aa14 6e40 a2f0 2640
00000030: 718e 3c40 bb7f 3c40 f547 d740 a560 3440
00000040: a58e 1a42 94e4 af40 51e7 4940 18f6 8640
00000050: 7fc8 5240 c94f 2f40 2ba1 4242 30a3 d040
00000060: 78eb 9240 a937 2640 aadd 5e40 8f0f 7d40
00000070: f6f3 3440 8c84 0441 2695 8240 2676 6640
00000080: 38bd 8e40 a253 6340 4f5d 0842 b795 8641
00000090: b049 8c40 4ee6 3040 f598 b740 6ee7 3b40
000000a0: 85a6 0e41 73a1 ab40 f7df 8540 ee5f 3840
000000b0: e709 8240 c479 3440 af1f 9440 5c1a f940
000000c0: 0f4c 7f40 29fb 0e41 4b5a 2240 7c27 ef41
000000d0: c735 2c42 5216 3b41 bd42 0842 92d9 7040
000000e0: eb21 8540 b47d a540 9e3d a240 592a 3e40
000000f0: 3eeb 4a40 e0ab 7140 941e a540 3998 7940
9.497092 5.4778957 58.91857 3.3113518 5.83498 4.804006 4.6497645 2.1861625
36.12564 3.2299495 3.7200112 2.608437 2.946194 2.945296 6.727534 2.8183987
38.6393 5.4966526 3.1547434 4.2175407 3.2934873 2.7392447 48.65739 6.5199203
4.5912437 2.5971472 3.4822793 3.9540746 2.8273902 8.28236 4.0807066 3.6009612
4.460598 3.5519795 34.09112 16.823103 4.383995 2.7640567 5.7374215 2.9360003
8.915654 5.363458 4.1835895 2.880855 4.063709 2.819932 4.6288676 7.7844677
3.9890172 8.936318 2.536761 29.89428 43.052517 11.692949 34.065174 3.7632794
4.1603904 5.1715946 5.0700216 2.9713347 3.170608 3.7761154 5.1599827 3.899916

weight f4 [64, 64, 3, 3]
00000000: 0d65 cc3e bf64 9cbe 3ad7 1f3f d275 953e
00000010: 1c4a fc3e 1a42 bb3e 7ec8 f43d 344a d93e
00000020: b642 123d f799 4e3e 5180 cdbe d926 2dbf
00000030: 1cd0 023e 118d b33f b769 633e 8375 6f3d
00000040: ec1a a13e 028b b23e efff 79bc 0ec0 59be
00000050: 3592 d63e 83c5 2a3e 135c 30bc ad97 df3d
00000060: 5918 803e a6e7 efbe c5e4 923e c676 56bd
00000070: 6c5b 7cbe f2c3 83be 1cde 74ba 7332 643e
00000080: 9bd9 cebe cdaa 483c 43f4 dfbe 6218 b3be
00000090: 924e c23c 7900 d0be 636b b13e bc67 393e
000000a0: f46b 413f 46dd 303e a159 d73e 25c9 37be
000000b0: 22c8 d63e 2605 2cbe 99e3 19bf 0fe3 5abd
000000c0: 70ba f7be c8d8 3d3f 3dc5 10be e77a 08bf
000000d0: ea84 c53d 908d 38be bc52 debc 221a d63e
000000e0: 1709 903e e90e db3d 9503 0dbf ee32 cabe
000000f0: 5e77 78bd 4680 21be ad0a 06bf cf84 4d3e
00000100: d45b 913e 6b7d 323d 75ca a93c 597b 82bf
00000110: a093 a43d 50de 02be 1537 383e 8d98 17be
00000120: d865 ab3e b1a8 dabd 259f 863e 628a a53d
00000130: e655 acbd 8e05 bbbe 4eb8 0b3f 67f6 38be
00000140: fcfc 973e 75ee a7bd 84bd 3d3e d107 bdbd
00000150: 9359 e03e 02f6 cb3b ee93 eebe 3d84 123f
00000160: 68d4 23bf 08f7 1b3f bf08 5a3e e4f2 803e
00000170: 7d09 e4bc 72dc 843e 3040 833f b138 443e
00000180: 130f 273e b0a9 15be e786 18bf ae51 2fbd
00000190: 63ef 7f3e b0ad 603e 82b2 f03c 37d7 793f
000001a0: 0d56 9ebe d8b0 cabe b87c dc3d 4211 f63d
000001b0: 469b 4dbe 5b2a 13bf f7b4 13be 233f 4dbe
000001c0: 70d3 a13f 6533 bdbe 949d c13d 3a2c 21bf
000001d0: 8190 603e 3a81 b53d 70f9 b83e 8320 8a3d
000001e0: 5609 9a3e 23da 9abc 4f3f 523e a06c 443e
000001f0: 15e8 17be 67d4 e5be fa29 ab3d 05b7 803d
00000200: 4f37 d1be c94d cc3d 602f 623f 6e85 75be
00000210: 5136 83bd 65fa 723d fe7b 53bc becf 52bd
00000220: b0c5 103f a70b 09bd 6fa2 26be 7b7b b4bf
00000230: 8b4f b63e b5e6 e13e bdec 483e b2c9 2dbd
00000240: 0563 91be 82d4 6cbf 69a1 6ebe 77bc 0ebe
00000250: 4096 0c3f 43bc 7c3e becf 6dbe ffa2 463f
00000260: b71f 0bbd 204a 863d 5cde 2d3e fb69 65be
00000270: cd48 71be 2d12 9ebd fedd a93d 48be 2c3e
00000280: 7978 3b3e 618f 8d3e 0b3d ad3e bee1 85be
00000290: 4038 96be a96f 3e3e 2ab9 bcbd b3b4 18be
000002a0: 30d2 133e b2be 9e3e 6741 7f3e 2ddf 4a3e
000002b0: 57c6 fd3e 3ea0 b5be 09c6 643e 271f 703f
000002c0: c537 eabd f6a5 32be 7391 073f 4cb4 2c3f
000002d0: 7265 8fbd 6ecf 813e 1927 82bd c46b 843e
000002e0: 1bcc 03bf a2a2 c93d d473 273d 571d debe
000002f0: 1297 4ebe 6f5b e23d 5a61 14bf 0631 d93d
00000300: 5313 ca3e 295b 053f 755d 0abf eb6f e4bd
00000310: db17 2e3a 8d5e d1bd 63a3 13bd 431a 7dbe
00000320: 8b70 b9bd 232d 73be 2f88 b13f 6e8a ec3b
00000330: 0646 a63d 5094 94be cead 47be 3e1c 643e
00000340: b3b4 cf3e 8cb0 d8bd 2c63 4d3f 2081 8f3f
00000350: 4004 5d3e c9e0 b33d 6bf9 7fbd c04c 90be
00000360: f5fe 4c3e 5ff4 2b3e 3028 d0bd 3f6c 133e
00000370: 8097 6bbf 382c 69be 05d1 373e 4e5b 37be
00000380: 18e8 8c3e 7ade e4bd 80a5 ddbb 372e f53e
00000390: c49a 2cbf b120 5abf fd37 8ebc 986c 453d
000003a0: c5fa 2abe 0908 9d3e 78a5 ff3d 2ec9 a7be
000003b0: 7423 873e fc60 f33c 2510 3fbf 9432 05bf
000003c0: 21f0 dabc 5032 463c 72ac f33d 162f 38be
000003d0: a485 59ba dd88 593d a7a4 39bf ff4b 89be
000003e0: 8ba5 7cbd 7fe1 b93d 84b8 babe cd2f 62be
000003f0: 7dcd bf3e e02f 79bf e708 5b3e fd54 943d
0.39920846 -0.30545613 0.62437785 0.29191452 0.4927529 0.3657387 0.11952303 0.42439425
0.03570815 0.2017592 -0.4013696 -0.676374 0.127747 1.4027425 0.22208296 0.058461677
0.31465852 0.3487168 -0.015258773 -0.2126467 0.41908422 0.16676907 -0.01076414 0.10917602
0.25018576 -0.4685642 0.28690162 -0.052359365 -0.2464425 -0.25735432 -0.0009340958 0.2228487
-0.40400395 0.012247753 -0.43741044 -0.3497954 0.023719106 -0.4062536 0.34652242 0.18105978
0.7555535 0.17271909 0.4206057 -0.17947824 0.41949564 -0.16798839 -0.6011291 -0.053439196
-0.48384428 0.74158907 -0.1413774 -0.53312534 0.09644492 -0.18022752 -0.02713906 0.41816813
0.28131935 0.10696203 -0.5508359 -0.3949198 -0.060660712 -0.15771589 -0.5236004 0.20070194
0.28390372 0.04357664 0.020726422 -1.0193893 0.0803597 -0.12780118 0.17989762 -0.14804287
0.33476138 -0.106767066 0.26293293 0.08083035 -0.08414821 -0.36527675 0.545781 -0.18062745
0.296852 -0.08199779 0.18529326 -0.092300065 0.4381834 0.006224395 -0.46597236 0.5723303
-0.6399598 0.60923815 0.21292399 0.2518531 -0.027836556 0.25949436 1.0253963 0.19162251
0.16314344 -0.14615512 -0.59580845 -0.042802505 0.24993663 0.21941257 0.029381994 0.97594017
-0.30925027 -0.39588046 0.10765976 0.120150104 -0.20078763 -0.57486504 -0.14424501 -0.20043616
1.2642651 -0.36953273 0.09453884 -0.6295811 0.21930124 0.08862539 0.36127806 0.06744482
0.30085248 -0.018902844 0.20531963 0.19182062 -0.14834626 -0.44888613 0.08357616 0.06284908
-0.4086251 0.09975774 0.8835354 -0.2397668 -0.064068444 0.059320826 -0.01290798 -0.05146765
0.5655165 -0.03345838 -0.16272901 -1.4100183 0.3560756 0.44121328 0.19621558 -0.04242868
-0.28395858 -0.9251176 -0.2330376 -0.13939081 0.54916763 0.24681191 -0.23223779 0.7759246
-0.033965793 0.06557107 0.16979355 -0.2240371 -0.23562928 -0.077183105 0.08294295 0.16869462
0.18307675 0.27648452 0.33835635 -0.2614879 -0.2933979 0.18597282 -0.09215005 -0.14912681
0.14435649 0.31004864 0.24927293 0.19811697 0.49565384 -0.35473818 0.2234117 0.93797535
-0.114364184 -0.17446122 0.5295631 0.6746261 -0.07001771 0.2535357 -0.063551135 0.2586347
-0.51483315 0.09845473 0.040881947 -0.4338176 -0.20174816 0.11052596 -0.57961047 0.106050536
0.39467868 0.52092224 -0.54048854 -0.11154159 0.0006641128 -0.10223112 -0.03604449 -0.2471705
-0.09054669 -0.23747687 1.3869685 0.0072186505 0.08118825 -0.29019403 -0.19499895 0.22276399
0.4056755 -0.10580549 0.8022945 1.1211281 0.21583652 0.08783109 -0.062493723 -0.28183556
0.20019133 0.16792439 -0.10163915 0.14396761 -0.92028046 -0.22770774 0.17950828 -0.17905924
0.27520823 -0.111752465 -0.006764114 0.47886822 -0.67423654 -0.85206133 -0.017360682 0.048199266
-0.16697223 0.30670193 0.124827325 -0.32770675 0.26394236 0.029709332 -0.7463401 -0.520303
-0.02672583 0.012096956 0.11898126 -0.17986712 -0.0008297807 0.05310904 -0.72516865 -0.26815793
-0.06168131 0.09076213 -0.364689 -0.22088547 0.37461463 -0.97338676 0.21390115 0.07242773

weight f4 [64]
00000000: d7d8 7c3f ae43 cf3e 81af f63e ea0a b93e
00000010: 0063 3b3f f94e d43e 3cf5 013f 90d7 0a3f
00000020: 9c4d 1d3f e396 c43e 78f1 153f 4ca1 8a3f
00000030: ae5f 1c3f e092 0c3f 87a6 313f 3bb4 9d3e
00000040: 089a 393f c6ce ec3e 7183 b03e 22d5 e13e
00000050: 95ec 6b3e d4b0 863f 2330 ec3e 9bd0 8b3e
00000060: 49c0 e73e 436c d03e 72c8 e33e 0d48 603f
00000070: 72b0 183f aed5 373f 6d1f 053f c6bf ec3e
00000080: 9acd a33e 8838 123f db7e f83e ffb3 0b3f
00000090: 0cac c43e db3a ad3e 1596 f43e 8a60 cc3e
000000a0: bc0b 053f 42ee e03e 3ae2 133f 677e 013f
000000b0: f9fe cc3e 86ff b33e 570b 173f 854f 543f
000000c0: f093 163f f60a e03e 42db bf3e 19b6 ac3e
000000d0: 09f3 023f f19f ca3e 558a 0e3f 02ef 833e
000000e0: 709f 1b3f 2a04 643f 7ba7 b43e 0b3c c73e
000000f0: 4214 d13e defb 813f 8e03 553f 5a31 353f
0.9876837 0.40481323 0.48180774 0.3614114 0.73197937 0.414665 0.5076482 0.5423517
0.6144655 0.38396367 0.5857158 1.0830474 0.61083496 0.54911613 0.69394726 0.30801567
0.7250066 0.46251506 0.34475282 0.4410792 0.23039468 1.0522714 0.46130475 0.2730759
0.4526389 0.40707597 0.44488865 0.8760994 0.59644234 0.71810424 0.52001077 0.46240062
0.319928 0.5711751 0.48534283 0.5457153 0.3841251 0.33833966 0.47770754 0.39917403
0.5197103 0.43931776 0.5776707 0.505835 0.4003828 0.35155886 0.5900168 0.8293384
0.58819485 0.43758363 0.37471968 0.3373268 0.5115209 0.3957515 0.5567983 0.25768286
0.6079016 0.89068854 0.35284027 0.38912997 0.40835768 1.0154989 0.8320855 0.7077843

bias f4 [64]
00000000: 7e7a 00c0 9afc 44be 7e7d 51bd 5e20 3e3d
00000010: ecbe 8f3d 360a 01bf 2c17 e0bd bd31 e1bd
00000020: 1ec6 66be 934e 32be 976e 0cbe 8b62 31bf
00000030: e502 dcbe 02b4 cc3d 8ca8 9cbe 6601 0bbe
00000040: f8ac 04bd 0611 09bf a2c3 4fbd 0d7e dbbe
00000050: ee4a 0d3c f6e3 82bf 754e d0be 237a 03be
00000060: f80e b3bd 6810 71be 52fd 5abf ec5e 95bf
00000070: 3a1e 88be b7f0 b4be d617 c4bd e753 efbe
00000080: 2ce6 893c f8fc d5bf c340 273d 3d51 89bd
00000090: 536c 0abf f213 42be edc1 23bf fcd3 98be
000000a0: 54c0 41bd 29ce 603c ef9d 2ebf 1771 22bf
000000b0: 0204 0d3d 1fb4 7dbe cd14 acbf 5219 96bd
000000c0: 86ef c5bf 7136 c1be b1be d3be 19b4 a8be
000000d0: 2e68 8bbd 5fb9 833d 4853 63bd 3e00 173e
000000e0: 0bac 68bf 8258 50be 2dce 20bf 0e5b 443c
000000f0: 45ba 0dbe c0f1 45be 50b3 c4bf 05a8 c3bd
-2.0074763 -0.19236985 -0.05114507 0.046417587 0.07018837 -0.50406206 -0.1094192 -0.10995815
-0.22536513 -0.17412786 -0.13714062 -0.6929099 -0.42970958 0.09995271 -0.3059734 -0.13574752
-0.03239152 -0.535416 -0.05072368 -0.42869607 0.008623822 -1.0225818 -0.40684858 -0.1283956
-0.087430894 -0.23541415 -0.85542786 -1.1669593 -0.2658556 -0.353399 -0.09574859 -0.467437
0.016833387 -1.6717825 0.040833246 -0.06704948 -0.5407154 -0.18952921 -0.6396778 -0.2984923
-0.04730256 0.013721027 -0.6820974 -0.6345381 0.03442765 -0.24775742 -1.3443848 -0.07329048
-1.5463722 -0.37736848 -0.41356423 -0.32949904 -0.0680698 0.06431841 -0.055499345 0.14746186
-0.90887517 -0.20346263 -0.628146 0.0119846 -0.13840587 -0.19330502 -1.5367222 -0.095535316

running_mean f4 [64]
00000000: 44ad 8ebe 082b c9bf 1a50 a1bf bea5 37bf
00000010: 7a16 cac0 79cd c8bf b040 2abf 38f4 5cc0
00000020: 19d4 a7c0 7659 8bbf 2752 cfbf 1bc3 b9c0
00000030: 836e 77c0 f529 d0c0 14d1 fabf 9606 d53f
00000040: 9415 68bf 9c38 59bd ff98 15bf 5478 9cbf
00000050: aefb 193e ea69 49c0 03e2 3dbf b3f3 803f
00000060: 439a d0bf 6d66 6ec0 8e3a 8bbe 3029 00c0
00000070: 5ba7 8dc0 5d5a 40c0 d950 3cc0 fa80 37bf
00000080: f12b a03e d993 dcbf b018 54be 2429 33c0
00000090: 9398 febf d284 d03e dfde 51c0 c0ec 92bf
000000a0: 8f9a e8be e017 ef3d cdb9 dbc0 a3c2 2bbf
000000b0: 0f02 dbbe 166e 33c0 3169 37bf a91b 8cc0
000000c0: 7a64 21bf a5db e3bf 73b4 88be f904 ac3d
000000d0: ae34 a7be 25c0 0bc0 7df8 0ac0 41bc 8bbf
000000e0: 4fd9 bcbf 74d0 0a40 2e7c 1040 d302 bbbf
000000f0: d3d2 4bc0 2f97 53bf 98da 65bf 2905 623e
-0.27866566 -1.5716257 -1.260257 -0.7173728 -6.3152437 -1.5687705 -0.66504955 -3.452406
-5.244641 -1.0886676 -1.6196946 -5.8050666 -3.86612 -6.5051217 -1.9595056 1.6642635
-0.90657926 -0.053032503 -0.5843658 -1.2224221 0.15037414 -3.1470895 -0.7417299 1.0074371
-1.6297077 -3.7250016 -0.2719311 -2.002514 -4.426679 -3.0055153 -2.9424345 -0.7168118
0.31283525 -1.723262 -0.20712543 -2.799386 -1.9890312 0.40726334 -3.279228 -1.14785
-0.4543042 0.11674476 -6.8664308 -0.6709387 -0.42775008 -2.803594 -0.71644884 -4.3783765
-0.6304394 -1.7801405 -0.26700172 0.08399386 -0.3265738 -2.1836026 -2.1714165 -1.0916826
-1.4753817 2.168973 2.2575793 -1.4610237 -3.1847427 -0.8265256 -0.8978667 0.22072281

running_var f4 [64]
00000000: ca75 9440 f1f4 a440 f270 3941 c362 e240
00000010: 0e1b 2942 ecc8 7440 6eb8 7242 4845 5342
00000020: 3de9 3d42 90a4 c940 f033 8b41 c60d 5941
00000030: 2cf1 3441 2eef 7a41 901f 8941 3abb 8340
00000040: 3cb3 0042 8265 7440 2e0e c040 61ba 7e40
00000050: 8743 6940 9bf7 2041 e29d 9e40 5df3 6040
00000060: afe7 b542 9f6b 9a40 bfbd 3c40 dbfb 0341
00000070: 4593 1342 d403 0b42 0a24 c942 ab18 9c40
00000080: b7cd e140 7773 2d40 fbb9 3142 e2e3 5042
00000090: 3869 5440 e8a1 b540 d0d8 9540 c54b b540
000000a0: de7d 3241 fddc 0241 b316 3241 83aa 6940
000000b0: 07b8 ee40 5612 9e40 7b8e a740 76da 1642
000000c0: 5aa2 8140 2244 a840 4288 8c40 7a07 5440
000000d0: 1175 ec41 e84b df41 3295 2542 bd8a cc40
000000e0: 5032 a240 bb49 3c42 cc5f 8140 289f 0141
000000f0: 3aa6 0841 154a 2442 1cd3 6f40 bd80 0f42
4.6393785 5.1549 11.590075 7.074556 42.27642 3.8247633 60.680107 52.817657
47.47777 6.301338 17.40036 13.565863 11.30888 15.6833935 17.140411 4.116605
32.175034 3.8186955 6.001731 3.9801257 3.6447465 10.060451 4.956773 3.5148537
90.95251 4.8256373 2.9490812 8.248988 36.893818 34.75374 100.57039 4.878011
7.0563617 2.7101724 44.43162 52.22254 3.318922 5.676014 4.6827164 5.665499
11.155729 8.178952 11.130542 3.6510322 7.4599643 4.9397383 5.2361426 37.71334
4.0510683 5.258317 4.391633 3.3129563 29.557161 27.912064 41.3957 6.391936
5.0686417 47.072002 4.042944 8.1013565 8.540583 41.072346 3.74726 35.87572

weight f4 [64, 64, 3, 3]
00000000: 215d 98bd b3f5 11be d817 423e 1bd5 a83e
00000010: 925f 65be be82 203e b675 9d3e a7c4 9ebe
00000020: 67bf 3f3e c909 30bd 1ed1 b13e 5516 bc3c
00000030: 535c f9be b967 7abf e7e9 5abe 5084 0d3d
00000040: 841c 493e 24e1 cdbe 74a1 33bf 5ed8 8cbe
00000050: 6132 b3be 2e8c 3cbe 60b7 76bf 27ac 043c
00000060: c5ba 6cbf 0418 6cbe db43 7fbf 384b 613e
00000070: 39c4 5bbe 6284 30bf 3bce 5c3f 1f48 973e
00000080: 2bf2 92be 1c33 3dbd b65f 783e 14e2 133f
00000090: 778c 42be 1e47 b1be 1f13 e7be 44cf 853e
000000a0: 7736 673d 6d32 50bf bfe2 f23e 471c a93e
000000b0: ba73 ca3d 6882 993e f0da 05be fbb7 ae3d
000000c0: c3d2 0dbf b0ad ab3d 5f6a 90be 2179 16bd
000000d0: c6f8 09bf 685b b8bd 789e 0fbf 3423 7abd
000000e0: 0a9b 52be 3fa5 933e 17f0 28be 3dd4 abbd
000000f0: 0f5d 1fbc 9336 75be 5c54 90bd bf35 343e
00000100: ed05 033e a75f 07bf 7129 eabe f60e 11bf
00000110: 1991 2cbd 9ecb da3e f550 453f c260 2c3d
00000120: f238 0d3f 861c c4bd f4ae da3d caf2 cdbe
00000130: f1c6 ef3e 9392 0bbe 2cc1 4a3e 0383 c33e
00000140: d217 7a3d 6ee5 18be de21 0a3e 7b8f 5a3e
00000150: 4dc7 4d3e 1a3a 193f 4431 293f 3453 2a3d
00000160: 1077 b4bd 875a e7be 079d d8be 434e 54bf
00000170: bb90 34bf a894 e5bd eaf2 23be ad84 403e
00000180: e94e cf3d dd22 093f 69e7 d6bd fc8c 65bd
00000190: f4a5 b1be c770 843e 4a90 6bbf 99e0 88bf
000001a0: 7436 15bf 4378 313d ecd2 d7be a8bf a5be
000001b0: c8e7 53bf 111d 3cbf eb33 c3be 8cea fe3e
000001c0: 9a67 423f e070 613e c3db 08be 9f19 d8bd
000001d0: beca 943d e3fa 5b3d e129 2d3f 97fe 033f
000001e0: a002 bd3d b9a5 4e3e 04c1 bd3e 4cf3 c8be
000001f0: d455 413e 19e2 033f 2040 a53e 6516 eebd
00000200: 4ef2 25bd 4a5b b73e c5f4 583f b39a 1f3f
00000210: 5fe7 d93e eb18 da3e 2638 443d 5f51 bcbe
00000220: 74a5 81bf d33a 0bbf c796 aabe 11fd 1c3f
00000230: d17f 17be b54b 56be 1aee 493e 377b a5be
00000240: dc1a 6dbf c494 89be 29d3 c0be 5187 a13e
00000250: 6661 10be 1db7 babe 01f4 bd3e 8700 033f
00000260: 9ce7 313d a702 2d3d ce8c 393f 7458 c23e
00000270: 38c6 073f 89eb f4be 846d afbe d230 87be
00000280: 72ad 9c3e 50d5 863f ac57 efbe 028b 3fbf
00000290: d736 abbe ce6c 19bf 7a7d b3be 7ef6 0abf
000002a0: 52cd e2bd 5be1 edbe 8f8f 9ebb d3a5 f63e
000002b0: c911 7bbf 2255 f1be 4bb9 983e 5525 84be
000002c0: dfd4 ca3e 9750 04bf e9d8 4f3e 1204 9fba
000002d0: 3fc9 bf3e ba18 3bbf 501e 5d3d 3afd 87be
000002e0: 6077 833f d6ac 9a3f 73cc 41be f3b0 61bf
000002f0: de30 18bf 5283 55bf 9a25 82bf 0df3 89be
00000300: 722c 8abe 9b3d 1dbf d6a0 67be 4885 41be
00000310: 66d3 043e acbd b2be c2c3 f1bc dfd2 14be
00000320: 6df6 a5be 5699 0b3e 1e0a 273e 69ae ccb9
00000330: 63a5 a6be 4b0b 5abf ef9f 0dbf eb45 e2bc
00000340: a652 1e3f 8be9 d53e 4791 ea3e adc4 c3be
00000350: 1d4d c8bd b6cf 873e 3822 9c3e 57b4 3fbe
00000360: b3e0 3c3d 062f c33d 60e8 ff3e c727 c33e
00000370: c1af 3e3c 8bd3 ebbd 54aa c53d 0ff8 43be
00000380: caca 41be 1e35 113e ebf9 f63d c75a 92bc
00000390: 4b24 43bd 4375 e53e 6dee b0bd 46ec 9c3b
000003a0: 2154 24bf 6086 b5be a062 b43e a645 ac3d
000003b0: 3fc0 b53e 73ca 66be a12b 1bbf a4f7 e2be
000003c0: 9c5a aebe 3628 f8bd 7278 80be a92a 513b
000003d0: ad16 71be c417 583e b5cd 3b3f 439e bfbd
000003e0: 9ef4 2cbe 071b b83d 684f bb3e e18a 313f
000003f0: 2a7e c9bd 59e8 ae3b 3528 faba 3c5d 533e
-0.07439638 -0.14253883 0.18954408 0.32975087 -0.22399738 0.15674874 0.3075387 -0.3100941
0.18725358 -0.04297808 0.34729856 0.022959867 -0.4870325 -0.9781452 -0.21378289 0.03455001
0.19639784 -0.4021083 -0.7016823 -0.27508825 -0.34999374 -0.1841285 -0.9637356 0.008097685
-0.9247249 -0.23056036 -0.99712914 0.2200135 -0.21461572 -0.68952 0.8625218 0.29547212
-0.28700384 -0.04619132 0.24255261 0.5776684 -0.18998896 -0.3462457 -0.45131776 0.26134694
0.056448426 -0.81326944 0.4743862 0.33029386 0.09885354 0.29982305 -0.130718 0.08531185
-0.5539972 0.08382738 -0.28206155 -0.03673661 -0.53895223 -0.09001809 -0.5610118 -0.06106873
-0.20566955 0.2883701 -0.16497837 -0.083900906 -0.009726777 -0.239466 -0.0704734 0.17598628
0.1279523 -0.5288033 -0.45734742 -0.56663454 -0.042130563 0.42733473 0.77076656 0.042084463
0.55165017 -0.09575753 0.10677901 -0.40224296 0.46831468 -0.13630132 0.19800252 0.38185892
0.061057873 -0.1493127 0.13489482 0.21343796 0.20095558 0.5985428 0.660908 0.041583255
-0.08811772 -0.45186254 -0.42307302 -0.8293192 -0.7053334 -0.112099946 -0.16010633 0.18800612
0.10122473 0.5356882 -0.10493357 -0.056042656 -0.34696925 0.25867292 -0.9201704 -1.0693542
-0.58286214 0.04332758 -0.42153108 -0.32372785 -0.82775545 -0.7348185 -0.38125548 0.4978832
0.75939333 0.22015715 -0.13365082 -0.10551762 0.072652325 0.05370606 0.6764203 0.5156035
0.09229016 0.20180406 0.37061322 -0.3924812 0.18880397 0.5151687 0.32275486 -0.11625365
-0.040514283 0.35811836 0.8474849 0.6234543 0.42559335 0.42597136 0.04790511 -0.3678083
-1.0128617 -0.54386634 -0.3331816 0.6132365 -0.14794852 -0.20927317 0.19719735 -0.32320568
-0.9261911 -0.26871312 -0.37661102 0.3154855 -0.14099655 -0.3646783 0.37100223 0.5117268
0.04343377 0.042238858 0.72480476 0.3795811 0.5303683 -0.4783595 -0.3426324 -0.26404434
0.30601078 1.0533848 -0.46746576 -0.74821484 -0.33440277 -0.5993165 -0.3505667 -0.5428237
-0.11074318 -0.46460995 -0.004838891 0.4817339 -0.98074013 -0.47135264 0.29828867 -0.25809732
0.39615533 -0.5168547 0.20297588 -0.001213195 0.37458226 -0.73084605 0.053983986 -0.26560384
1.0270805 1.2083995 -0.18925647 -0.8816063 -0.59449565 -0.83403504 -1.0167725 -0.26943246
-0.26987034 -0.6142213 -0.22619948 -0.18898499 0.12971267 -0.34910333 -0.02951229 -0.14533566
-0.3241457 0.13632712 0.16312453 -0.00039039858 -0.32548055 -0.8517348 -0.55322164 -0.02762123
0.6184486 0.41779742 0.45813963 -0.3823599 -0.09780333 0.26525658 0.30494857 -0.18721138
0.046112727 0.095304534 0.49981976 0.38116285 0.011638583 -0.11514958 0.09651628 -0.19137596
-0.18925014 0.14180419 0.12059387 -0.017865552 -0.047642034 0.44816026 -0.08639226 0.004788908
-0.6419087 -0.35454082 0.35231495 0.08411722 0.35498235 -0.22538166 -0.6061345 -0.4432956
-0.34053504 -0.12117045 -0.25091892 0.0031916297 -0.23543806 0.21102816 0.7336076 -0.09356358
-0.16890189 0.0898953 0.3658402 0.6935254 -0.09838517 0.0053377566 -0.0019085469 0.20641035

weight f4 [64]
00000000: 0100 503e b147 083e cb1f 293e 712b aa3d
00000010: 3dbc a63d d09e c93d f687 163e f0d5 ee3d
00000020: 4083 203e 8493 993d 2ba5 d43e e166 313e
00000030: 322e 063e 2d77 1c3e e68c e23d 3071 4b3e
00000040: 264b 093e 5da1 bb3d 8304 0d3e 6496 023e
00000050: 4a28 783e 6718 e53d 8fd3 b13d 4c0d 833e
00000060: 96ab 063e 005b 423e d055 283e bc3b 6d3d
00000070: cb5d 1c3e e23e 363e b6fe d43d 1d87 c83d
00000080: 8603 bd3d 3146 f83d 4d82 213e e4c7 0a3e
00000090: 45f8 093e 646a 013e a6a6 c13e 3f0a 003e
000000a0: 33ea 6cbe 5540 f13d 7287 503d 38b7 133e
000000b0: 1dbc e03d 079f c93d 51ad 023e 0751 073e
000000c0: b0d4 243e 16ce 873d eea9 6e3d 6b4b e73d
000000d0: 08e4 153e 6d22 173e 66e7 313e 7306 3b3e
000000e0: 2476 8a3d dcbc 183e 8a26 453d a223 c83d
000000f0: 34e2 163e 90ad 2e3e a4bb 063e ad6b 323e
0.20312501 0.13308598 0.16516034 0.08309067 0.08141372 0.09844744 0.14700302 0.11661899
0.15675068 0.074988395 0.41532263 0.17324401 0.1310356 0.15279837 0.110620305 0.19867396
0.13407573 0.09161637 0.13771252 0.12752682 0.24234119 0.11186295 0.0868293 0.25596082
0.13151392 0.18980026 0.16438985 0.057918295 0.15270154 0.17797425 0.10400145 0.09791396
0.09229188 0.12122763 0.15772362 0.13552815 0.13473614 0.12638241 0.37822455 0.12503909
-0.23136215 0.117798485 0.05091042 0.14425361 0.1097338 0.09844785 0.12761427 0.13214503
0.16096759 0.06631105 0.058267526 0.11293682 0.14637768 0.14759226 0.17373428 0.18264179
0.06760815 0.14915794 0.048132457 0.097724214 0.14734727 0.17058396 0.13157517 0.17423888
