models/residual_denoiser_all_dropout_0.01_80_128.pt (torch_old, 371195 bytes, 51 tensors)

weight f4 [16, 1, 3, 3]
0	0x3da6dd07	0.08147626
1	0x3cfcee9d	0.030875498
2	0xbe3f84e9	-0.18703045
3	0xbe76dc3d	-0.24107452
4	0x3e28fa8e	0.16501829
5	0xbe0b9f39	-0.13634957
6	0x3d0dbb74	0.034602597
7	0x3e80575a	0.25066644
8	0xbdb2db8f	-0.08733284
9	0x3d723da4	0.059140816
10	0xbe2e8ae9	-0.17045178
11	0x3dc7ec6f	0.09761893
12	0x3dc34090	0.09533799
13	0xbde01ba5	-0.10942773
14	0x3f0c9e9b	0.5492951
15	0xbe3c9c2f	-0.18418954
16	0xbe001b47	-0.12510405
17	0x3e9db72a	0.30803806
18	0xbc9f8675	-0.019473294
19	0x3e3e649c	0.18593067
20	0xbe295193	-0.16535024
21	0x3b36cc67	0.002789283
22	0x3d18fb1b	0.037348848
23	0xbd5cab5b	-0.053874355
24	0x3e34c872	0.17654589
25	0xbeb6e798	-0.35723567
26	0x3e4265e4	0.1898418
27	0x3cddba75	0.027066449
28	0x3ce30eed	0.027717078
29	0xbe2a161f	-0.16610001
30	0x3dd78073	0.105225466
31	0x3d67f054	0.05662568
32	0x3d9730ce	0.07382356
33	0xbd879e08	-0.06621939
34	0x3ddda161	0.10821796
35	0x3f0e80b1	0.5566512
36	0x3d51080b	0.05103306
37	0x3e80bc6e	0.2514376
38	0x3cbd66e3	0.02312035
39	0xbe8c8b08	-0.27449822
40	0x3dd92d34	0.10604325
41	0xbe858473	-0.26077613
42	0xbd65ac3e	-0.056072466
43	0x3d7791c3	0.060441744
44	0x3dd3bc62	0.103386655
45	0xbe0c17bd	-0.1368093
46	0x3e3bcdb2	0.18340185
47	0xbb903f08	-0.004402045
48	0xbd034057	-0.03204378
49	0x3d393991	0.045220915
50	0xbe0d1900	-0.13779068
51	0x3e3c0cf1	0.18364312
52	0xbdab97a1	-0.0837853
53	0xbefc5df3	-0.49290428
54	0x3e17acd2	0.1481202
55	0xbde4705d	-0.11154244
56	0x3e5ec7cd	0.21755905
57	0xbde5e46e	-0.1122521
58	0xbe92d5a1	-0.2867861
59	0xbdba3877	-0.09092801
60	0x3e3a2dd4	0.18181545
61	0xbd5d8331	-0.054080192
62	0x3deb12a3	0.11478164
63	0xbe52ee02	-0.20598605
64	0xbdc72eb3	-0.09725704
65	0xbd9dd560	-0.07706714
66	0xbe2b342b	-0.16719119
67	0xbd31c4e5	-0.043400664
68	0x3e1db001	0.15399171
69	0xb95bd25d	-0.00020963834
70	0x3deca63b	0.115551434
71	0x3edfb2f2	0.43691212
72	0xbbc71dfc	-0.0060765725
73	0xbe16e23a	-0.14734736
74	0x3e697b88	0.2280103
75	0x3dc32eec	0.09530434
76	0x3cec5547	0.028849257
77	0x3e798970	0.24368834
78	0xbd381e58	-0.044950813
79	0xbe33b465	-0.17549284
80	0xbe4ceeda	-0.2001299
81	0x3e16d6fb	0.14730446
82	0xbd8ac9ed	-0.067767955
83	0xbd77a4bc	-0.060459837
84	0xbe584a3b	-0.21122067
85	0xbd8e2b48	-0.06941849
86	0x3e208cff	0.15678786
87	0x3de14874	0.110001475
88	0xbe7cb3a9	-0.2467791
89	0x3e5c45bd	0.21510978
90	0x3d8a9b45	0.067678966
91	0x3e01e7f7	0.12686144
92	0xbe37d60e	-0.17952749
93	0xbe86c6ad	-0.26323453
94	0xbe2557f3	-0.16146831
95	0xbd0c394b	-0.034234326
96	0x3e38a7c9	0.18032755
97	0x3eccbec3	0.3998929
98	0xbcf9fcbe	-0.030516025
99	0xbd73778c	-0.05944018
100	0x3bab1181	0.0052205925
101	0x3dd49d05	0.103815116
102	0x3db6c096	0.089234516
103	0xbe97466a	-0.2954591
104	0x3d68b6f6	0.05681511
105	0x3e341a7b	0.17588226
106	0xbe5677b5	-0.20944102
107	0x3eff76a0	0.4989519
108	0xbd68df47	-0.05685356
109	0xbe7571f0	-0.23969245
110	0x3e1e5e01	0.15465547
111	0x3e75126d	0.2393281
112	0xbd0d42ee	-0.034487657
113	0xbb87ea1c	-0.004147781
114	0xbdca6515	-0.09882561
115	0xbe6be695	-0.23037179
116	0x3e89ecb7	0.26938412
117	0xbd4f9aa2	-0.05068458
118	0xbc6678b3	-0.014066863
119	0x3d735139	0.05940363
120	0x3cc1d1bb	0.023659578
121	0xbe8d276b	-0.27569136
122	0xbda7b917	-0.081896
123	0x3c99fa10	0.018795997
124	0x3db10b50	0.08644736
125	0x3f05e2a4	0.5229895
126	0xbe348bf3	-0.17631511
127	0x3e84ba27	0.25923273
128	0xbd49d9aa	-0.049279846
129	0xbe42a88d	-0.1900961
130	0x3d9ef789	0.07762057
131	0xbe5405b0	-0.20705295
132	0x3e7960e5	0.24353369
133	0xbe26a5ae	-0.1627414
134	0x3e545439	0.20735253
135	0xbe13a1f7	-0.14417253
136	0xbc8a894d	-0.016911173
137	0x3e5f06de	0.21779963
138	0x3de9621a	0.113956645
139	0x3d022b07	0.031779315
140	0x3e282cc5	0.16423328
141	0xbe2b513e	-0.1673021
142	0xbe88bc87	-0.26706335
143	0xbeb8548b	-0.36002

bias f4 [16]
0	0x3e8faa3e	0.28059572
1	0xbe744d76	-0.23857674
2	0xbe7aa389	-0.24476446
3	0x3ea676ba	0.32512456
4	0xbe985b88	-0.29757333
5	0xbe54261e	-0.20717666
6	0x3eb44155	0.35206094
7	0x3e24913c	0.16071028
8	0xbda33eb0	-0.07970941
9	0xbeca8ea4	-0.3956195
10	0xbedb2d97	-0.4280822
11	0x3ee373fb	0.44424424
12	0x3eabb5da	0.3353718
13	0xbea34ff2	-0.3189693
14	0xbe9c8b3d	-0.3057498
15	0x3eba210f	0.36353347

weight f4 [16]
0	0x3efeb518	0.4974754
1	0x3f1d6fe8	0.6149888
2	0x3f0bd8de	0.5462779
3	0x3f36e932	0.7144958
4	0x3f18b35f	0.596487
5	0x3f2baa11	0.67056376
6	0x3f7e53e9	0.99346787
7	0x3eaee13c	0.34156215
8	0x3ecb1bd8	0.3966968
9	0x3e97151d	0.29508296
10	0x3ef5f11b	0.4803551
11	0x3f256927	0.64613575
12	0x3eb80b57	0.35946152
13	0x3eb63885	0.35589996
14	0x3ee2d6b6	0.44304436
15	0x3f242033	0.6411163

bias f4 [16]
0	0xbf2144a4	-0.6299536
1	0xbf018ccb	-0.5060546
2	0x3ef73ec2	0.48290068
3	0x3ec5a6a0	0.38603687
4	0x3ea18dac	0.315534
5	0xbebead1f	-0.37241456
6	0x3f0ddbc6	0.5541347
7	0xbe8cb153	-0.27479038
8	0x3ed9f78f	0.42571685
9	0x3f242460	0.64118004
10	0xbe1576f4	-0.14596158
11	0xbcb2e518	-0.021837756
12	0x3e52ef6b	0.20599143
13	0xbeed5dc8	-0.46360612
14	0x3edbce42	0.429308
15	0xbee28aad	-0.44246426

running_mean f4 [16]
0	0x3e69ed09	0.22844328
1	0x3d9c6e35	0.07638208
2	0xbe823d9d	-0.25437632
3	0x3f431cc8	0.7621579
4	0xbe986d65	-0.2977096
5	0xbefddcf3	-0.49582633
6	0x3eb5a0fd	0.35474387
7	0x3e720965	0.23636396
8	0xbd84fad5	-0.06493155
9	0xbed303f6	-0.4121396
10	0xbebde0ec	-0.37085664
11	0x3f2a0296	0.66410196
12	0x3eaa7792	0.3329435
13	0xbe0f0d72	-0.13969973
14	0xbe9b560b	-0.30339083
15	0x3de4b64f	0.11167585

running_var f4 [16]
0	0x39dccc60	0.0004211394
1	0x3c2271cc	0.009914827
2	0x3907c07f	0.00012946314
3	0x3c9563c5	0.01823605
4	0x3a73f588	0.00093063014
5	0x3c04be53	0.008102017
6	0x3a0a8835	0.00052845787
7	0x3b3c2963	0.0028711192
8	0x39755cbb	0.00023399566
9	0x390713af	0.00012881936
10	0x3a03eb2e	0.0005032298
11	0x3b97bc35	0.0046305903
12	0x398507de	0.00025373598
13	0x3b49b657	0.003077885
14	0x38d800f4	0.0001029986
15	0x3bdb986f	0.006701521

weight f4 [32, 16, 3, 3]
0	0xbde8ddf7	-0.113704614
1	0xbcfafc4b	-0.03063788
2	0x3d837a2d	0.064197876
3	0xbe190686	-0.14943895
4	0x3b480190	0.003051851
5	0xbe3444c8	-0.17604363
6	0xbe1ab704	-0.15108877
7	0xbe162dfd	-0.1466598
8	0x3e1980ec	0.14990586
9	0xbca79034	-0.020454504
10	0x3e4b6cc1	0.19865705
11	0x3d4d54bc	0.050129637
12	0xbe63060a	-0.22170272
13	0xbca4f93f	-0.020138381
14	0xbe0d54b1	-0.13801838
15	0xbd246b31	-0.04014129
16	0x3dec8d75	0.11550418
17	0xbdddfb11	-0.10838903
18	0x3d048382	0.032351978
19	0xbe79b1f4	-0.2438429
20	0xbc944d7d	-0.018103356
21	0x3da37091	0.07980455
22	0x3d3921c1	0.045198206
23	0x3e8947b8	0.2681253
24	0x3d736b9c	0.059428796
25	0xbe3e58c3	-0.18588547
26	0x3e42ca71	0.19022538
27	0xbd335c2c	-0.043789074
28	0x3c4cd453	0.012501794
29	0xbc9f3805	-0.019435892
30	0xbd64543c	-0.055744395
31	0xbdcb9163	-0.0993984
32	0xbd5e346b	-0.05424921
33	0x3d4d2c98	0.050091356
34	0x3e2215ed	0.15828677
35	0xbd5f5f24	-0.054534093
36	0x3e0ac50d	0.13551731
37	0xbc06c7d3	-0.008226353
38	0x3e091f29	0.13390793
39	0x3e99f8be	0.30072588
40	0x3a78c78f	0.0009490186
41	0xbf1757cb	-0.59118336
42	0x3e3979c7	0.1811286
43	0x3dfac6a0	0.12244916
44	0xbe8b7a33	-0.27241668
45	0x3d7cebc8	0.061748296
46	0xbe308ffc	-0.17242426
47	0x3d9948f6	0.07484619
48	0x3cba7ab2	0.022763584
49	0xbdba68c4	-0.09102014
50	0x3dab5698	0.08366126
51	0xbd811259	-0.06302328
52	0xbe0ee351	-0.13953902
53	0x3d6fcb3e	0.058543436
54	0x3dc07e19	0.09399051
55	0xbdb04f69	-0.08608896
56	0x3d9337a5	0.07188348
57	0x3e3c0593	0.18361501
58	0x3eaaf640	0.33391
59	0x3ed1bb46	0.4096319
60	0x3e01d90d	0.12680455
61	0x3cc26d03	0.023733621
62	0x3f119ea4	0.5688269
63	0xbecb37cd	-0.3969101
64	0xbdfd8839	-0.12379498
65	0xbe5de442	-0.21669105
66	0x3dc368ff	0.09541511
67	0x3e377731	0.17916562
68	0xbe5f03d7	-0.21778809
69	0xbdb8dc65	-0.09026412
70	0xbd748811	-0.059700076
71	0x3e41a4cf	0.18910526
72	0xbe5dd3f0	-0.21662879
73	0x3d002e37	0.031294074
74	0xbda478fd	-0.08030889
75	0x3e38730d	0.18012638
76	0xbccc1973	-0.024914479
77	0x3cfdf62d	0.031001175
78	0xbdce3565	-0.10068778
79	0x3e3fa956	0.1871694
80	0xbc292ccb	-0.010325621
81	0x3accc7b8	0.0015623486
82	0xbd8e476e	-0.06947218
83	0xbd17abbe	-0.03702902
84	0x3d2b3389	0.041797195
85	0x3e90472c	0.281793
86	0x3b98bcaf	0.0046611647
87	0xbdc6461d	-0.09681342
88	0x3c5bc95a	0.013414705
89	0xbdc227c9	-0.09480245
90	0xbd584971	-0.052804414
91	0x3daa509a	0.08316155
92	0x3dfe707e	0.124238
93	0xbd7a3a81	-0.06109095
94	0x3dd2e5c7	0.10297733
95	0x3e14ec0e	0.14543173
96	0x3cdf6d7f	0.027273891
97	0x3c55bd88	0.013045676
98	0xbd8941d1	-0.067020066
99	0x3c50c75b	0.012742843
100	0x3d4ba3a4	0.049716607
101	0xbb310cf5	-0.002701578
102	0xbdbad36c	-0.09122357
103	0x3db9a76e	0.09065138
104	0xbe0cb631	-0.13741376
105	0xbd8d54b0	-0.069009185
106	0x3e17aede	0.148128
107	0xbdd11901	-0.10209847
108	0xbdebfd19	-0.11522884
109	0xbe31ff1e	-0.17382476
110	0xbe8673c5	-0.262602
111	0x3e0c33b3	0.13691597
112	0x3e8711bd	0.2638072
113	0xbd7e706f	-0.062118944
114	0xbd98ba04	-0.07457355
115	0x3dba3ecf	0.09094011
116	0xbe499ef0	-0.19689536
117	0xbedc4c42	-0.4302693
118	0xbea3c2b5	-0.31984487
119	0xbe1b6e58	-0.15178812
120	0xbe43c882	-0.19119456
121	0x3cfbc02e	0.030731287
122	0x3ca72097	0.020401282
123	0xbcdd714c	-0.027031563
124	0xbd7b189a	-0.06130276
125	0x3ddd372a	0.10801537
126	0x3dadd1db	0.084872924
127	0x3d3ec60f	0.046575602
128	0xbcdf2e63	-0.027243799
129	0x3de06b8a	0.109580114
130	0x3de2f49a	0.1108181
131	0xbdcb8a11	-0.099384435
132	0x3d1d735c	0.038440093
133	0xba75e171	-0.00093796017
134	0xbecb3b6c	-0.39693773
135	0xbcfee846	-0.031116616
136	0xbda398fc	-0.07988164
137	0x3e7fa760	0.24966192
138	0x3d24d97f	0.040246483
139	0xbce1d1c9	-0.027565854
140	0x3e97ca14	0.2964636
141	0x3cf2cd57	0.02963893
142	0xbda9a2e4	-0.08283022
143	0x3e510d1b	0.20415156
144	0x3d330948	0.043710023
145	0x3c45bc2a	0.012068788
146	0xbca2dacd	-0.019879723
147	0xbe4029b6	-0.18765911
148	0x3df6c7f6	0.12049858
149	0x3dd4778e	0.10374366
150	0xbd54a33a	-0.051913477
151	0xbe42902e	-0.19000313
152	0xbe480ac4	-0.19535357
153	0x3c441eda	0.011970246
154	0xbb4bf1ae	-0.0031119394
155	0xbd87ee97	-0.06637304
156	0xbd132cb7	-0.035931315
157	0xbdfcdbf2	-0.12346639
158	0x3d8421ca	0.06451757
159	0x3d2f31dc	0.04277216
160	0x3c9d7f0c	0.01922562
161	0xbd699668	-0.057028204
162	0xbecbd023	-0.39807233
163	0x3e0558b4	0.13022119
164	0xbd887565	-0.06663016
165	0x3f330753	0.6993305
166	0xbd364607	-0.044500377
167	0x3eaa67ba	0.33282262
168	0xbe2cb617	-0.16866337
169	0xbc9838af	-0.018581716
170	0xbea469f7	-0.32112095
171	0x3e4cb9f2	0.19992808
172	0x3d127929	0.03576008
173	0xbcf71a38	-0.03016387
174	0xbde72141	-0.112856396
175	0xbea06137	-0.3132417
176	0x3d98ece9	0.07467062
177	0x3e0ff57c	0.14058489
178	0xbbf914c1	-0.007601351
179	0x3c4eec6f	0.012629612
180	0xbd4e66d0	-0.05039102
181	0x3de7baa5	0.113148965
182	0xbd940880	-0.07228184
183	0x3dd13615	0.102153935
184	0xbe1d97cc	-0.15389937
185	0x3ee81734	0.45330203
186	0xbe9b3bc7	-0.30319044
187	0x3cd92b93	0.026510036
188	0x3e59a2af	0.21253465
189	0xbdad7139	-0.08468861
190	0x3d946f5d	0.07247803
191	0xbbc3aac3	-0.005971284
192	0x3ddde410	0.10834515
193	0x3e8a9285	0.2706491
194	0xbe0e0aea	-0.13871351
195	0xbe0ad78d	-0.13558789
196	0x3d8c2faa	0.06845029
197	0xbd380c59	-0.04493365
198	0x3e3d616c	0.18494195
199	0x3d8447cc	0.06459007
200	0x3d147bf6	0.03625103
201	0xbdd9ff7f	-0.10644435
202	0x3db71c71	0.08940972
203	0xbe4cb5a0	-0.1999116
204	0x3e3d0034	0.18457109
205	0x3c65582d	0.0139980735
206	0xbd8186c3	-0.06324532
207	0x3e10829f	0.14112328
208	0xbc838c42	-0.016058091
209	0x3d52bff3	0.05145259
210	0xbebf319b	-0.37342533
211	0xbe80b051	-0.2513452
212	0xbdebfeb5	-0.11523191
213	0xbe2283e9	-0.15870632
214	0xbd09f74a	-0.0336831
215	0x3e15cc96	0.14628825
216	0xbd45c70e	-0.048285536
217	0xbd266851	-0.040626828
218	0x3d15b643	0.03655077
219	0xbd78438b	-0.06061129
220	0xbe30fada	-0.17283192
221	0xbd011dc6	-0.031522535
222	0x3d1a5615	0.03767975
223	0x3dbb5df7	0.09148782
224	0x3e2ff0e3	0.17181735
225	0xbcc4f04d	-0.024040366
226	0x3d806393	0.06268992
227	0x3ddbf316	0.10739724
228	0xbdb73965	-0.08946494
229	0x3e8a5c1d	0.27023402
230	0x3e937fe7	0.2880852
231	0xbe678c91	-0.22612216
232	0xbe1134a8	-0.14180243
233	0xbe43f826	-0.1913763
234	0x3dc237da	0.09483309
235	0x3c47092a	0.012148181
236	0xbddaef80	-0.10690212
237	0x3d2467b1	0.04013795
238	0xbd9fff52	-0.0781237
239	0xbe171b6f	-0.14756559
240	0x3e22670e	0.15859625
241	0xbe0ec710	-0.13943124
242	0x3c4dcc87	0.01256097
243	0x3abdeaf9	0.0014489583
244	0xbd521b4d	-0.051295567
245	0xbd074734	-0.03302689
246	0x3dbb26e9	0.09138281
247	0xbe381f3e	-0.17980668
248	0x3e4a0ed4	0.19732219
249	0x3e1d81eb	0.15381591
250	0xbd98b504	-0.07456401
251	0x3d69cda9	0.0570809
252	0xbd333eb2	-0.043760963
253	0xbbec0ab7	-0.0072034257
254	0xbd5cc0b0	-0.0538947
255	0xbe50fc2c	-0.20408696

bias f4 [32]
0	0x3c892958	0.016743347
1	0xbdf64911	-0.12025655
2	0x3dfea40c	0.12433633
3	0xbdb33c33	-0.087517165
4	0x3cc05bc9	0.023481267
5	0x3e678a01	0.22611238
6	0x3dcc1a39	0.09965939
7	0x3cf351f6	0.029702168
8	0xbddba01a	-0.10723896
9	0xb9072ac0	-0.00012890529
10	0xbea0427b	-0.3130072
11	0x3e41e95d	0.18936677
12	0x3ca0e94a	0.01964249
13	0xbd052051	-0.032501522
14	0x3dd21259	0.10257406
15	0xbdfc93fd	-0.12332914
16	0xbdaf22ab	-0.08551534
17	0x3d12d749	0.035849843
18	0x3df32eac	0.11874136
19	0x3d340677	0.043951478
20	0xbcb8a25a	-0.022538353
21	0x3d54c845	0.051948804
22	0x3db67ad7	0.089101486
23	0xbe5bfc0c	-0.21482867
24	0x3ca3be62	0.019988243
25	0xbd992ee5	-0.074796475
26	0xbe240aa4	-0.16019684
27	0xbe3f06ed	-0.18654986
28	0xbc9e99e9	-0.0193605
29	0xbd7c160d	-0.061544467
30	0x3e256313	0.16151075
31	0x3dac6426	0.08417539

weight f4 [32]
0	0x3ef6e83d	0.4822406
1	0x3ef60613	0.4805151
2	0x3f34b1bf	0.7058372
3	0x3eb94fa8	0.36193585
4	0x3e76fb3c	0.24119276
5	0x3eb3807b	0.3505896
6	0x3e968cba	0.2940424
7	0x3ed3bdcd	0.41355744
8	0x3ed81802	0.42205817
9	0x3e8f93d2	0.28042465
10	0x3ea76945	0.32697502
11	0x3ee4f927	0.44721338
12	0x3f21b556	0.6316732
13	0x3e9ceff5	0.30651823
14	0x3f0b3f1e	0.54393184
15	0x3eaeb9ad	0.34126034
16	0x3f09d2b8	0.53837156
17	0x3e9bbba3	0.30416593
18	0x3ec7b61a	0.3900612
19	0x3e63c67f	0.22243689
20	0x3f056bbd	0.5211752
21	0x3ec6670d	0.38750497
22	0x3e889021	0.26672462
23	0x3ea22a93	0.31673107
24	0x3ec9a6ca	0.39385062
25	0x3f368d62	0.71309483
26	0x3e882f74	0.26598704
27	0x3e8c75b8	0.27433562
28	0x3f4362d4	0.76322675
29	0x3ef95789	0.48699597
30	0x3ee61f1f	0.4494562
31	0x3ed0e71d	0.40801325

bias f4 [32]
0	0x3e75c9a5	0.24002703
1	0x3e7f5a9d	0.2493691
2	0x3ec98def	0.393661
3	0xbe9de1f9	-0.30836466
4	0x3ea1ff47	0.31640074
5	0xbced067a	-0.028933752
6	0x3e17e0dd	0.14831872
7	0xbe111dce	-0.14171526
8	0xbe91aefa	-0.2845381
9	0x3eca7dc9	0.3954909
10	0x3e9dae6a	0.3079713
11	0xbe864257	-0.26222488
12	0xbf217386	-0.630669
13	0x3eb65019	0.35607985
14	0x3f080bb3	0.5314285
15	0x3e9c081b	0.30474934
16	0x3e860e84	0.2618295
17	0x3d9b4d4b	0.07583102
18	0x3f0147f2	0.50500405
19	0x3ec2954a	0.38004524
20	0x3e97fd67	0.29685518
21	0x3db1d99e	0.08684085
22	0x3e58b236	0.21161732
23	0xbf050293	-0.5195705
24	0x3db82d79	0.08993048
25	0x3ef0cabf	0.47029683
26	0x3eee4eba	0.4654444
27	0x3ec454c2	0.38345915
28	0x3ea3e586	0.3201105
29	0x3ea4d43f	0.3219318
30	0x3e55441b	0.20826761
31	0xbeb8d17a	-0.36097318

running_mean f4 [32]
0	0x3f908f0b	1.1293653
1	0x3d91ec24	0.071251184
2	0xbf4a0119	-0.78907925
3	0xbe95fcbd	-0.29294387
4	0xbf5f50d2	-0.87232697
5	0x3ec8c49c	0.392125
6	0xbea354f9	-0.31900766
7	0x3d02efcf	0.03196698
8	0x3eb54fb6	0.35412377
9	0xbd0edf6f	-0.03488105
10	0xbe8471c2	-0.2586804
11	0x3f2ffb1b	0.6874253
12	0x3f128952	0.57240784
13	0x3ec9f43a	0.39444143
14	0xbc94af02	-0.018149856
15	0x3e7ba9be	0.2457647
16	0xbe39ed88	-0.18157017
17	0x3eed1b46	0.4630987
18	0xbd351170	-0.044206083
19	0xbee67170	-0.4500842
20	0xbead580e	-0.33856243
21	0x3e08f247	0.13373671
22	0x3e21d1a3	0.15802626
23	0x3e3de46a	0.18544164
24	0xbe582f69	-0.21111836
25	0xbfb311c0	-1.3989792
26	0x3ec8c8cf	0.39215705
27	0xbd1ff8c4	-0.0390556
28	0xbee17f04	-0.44042218
29	0xbe0be909	-0.13663115
30	0xbf3e9c3f	-0.7445716
31	0xbf8958bd	-1.0730206

running_var f4 [32]
0	0x3eb9c3de	0.36282247
1	0x3ea967e8	0.33087087
2	0x3f30d43c	0.69073844
3	0x3e057f4e	0.13036844
4	0x3e92abec	0.2864679
5	0x3e0524a2	0.13002256
6	0x3dd90856	0.10597293
7	0x3ea59dd4	0.32346976
8	0x3e154e4c	0.14580649
9	0x3e719be9	0.23594631
10	0x3e2685ed	0.16262026
11	0x3e7acbda	0.24491826
12	0x3e606e8b	0.21917169
13	0x3e7fef65	0.24993666
14	0x3e4cb3d6	0.19990477
15	0x3ec3df5f	0.38256356
16	0x3e3640b9	0.17798127
17	0x3e7243f4	0.23658735
18	0x3e45083b	0.19241421
19	0x3dfff63c	0.12498137
20	0x3e9fab66	0.31185454
21	0x3e55a3c1	0.20863248
22	0x3e54946d	0.20759745
23	0x3e894c01	0.268158
24	0x3e78be35	0.24291308
25	0x3f133027	0.5749535
26	0x3e59fe20	0.21288347
27	0x3e1e42a2	0.15455106
28	0x3f008797	0.50206894
29	0x3ee6980b	0.45037875
30	0x3ed5e48b	0.41775927
31	0x3eb18541	0.34671977

weight f4 [64, 32, 3, 3]
0	0x3d117fb8	0.035522193
1	0x3da725b0	0.08161485
2	0x3d31158e	0.043233447
3	0xbd115745	-0.035483617
4	0x3e267bf9	0.1625823
5	0xbcdaccc0	-0.02670896
6	0xbe043a6e	-0.12912914
7	0x3d6d6f2f	0.05796736
8	0xbd87b69a	-0.06626625
9	0xbd46c0ec	-0.04852383
10	0xbd1f8353	-0.0389436
11	0x3a62aead	0.00086472445
12	0xbdd7e184	-0.105410606
13	0x3e0ca04e	0.13733026
14	0xbd893f73	-0.06701555
15	0xbd46e449	-0.048557553
16	0xbe017f38	-0.12646186
17	0x3e504cc3	0.20341782
18	0xbd163901	-0.036675457
19	0xbdb3a970	-0.08772552
20	0xbdc7ff21	-0.09765459
21	0x3d1db81e	0.038505666
22	0x3e6d367a	0.23165312
23	0xbdc46b26	-0.095907494
24	0x3dca6465	0.0988243
25	0x3d3b2e3e	0.045698397
26	0xbcb224f4	-0.021746136
27	0xbd95bfe6	-0.07311992
28	0x3d3916cf	0.045187768
29	0x3e5548b1	0.20828511
30	0x3d6ef83a	0.058342196
31	0xbdca03bd	-0.09863994
32	0xbd1a78c0	-0.037712812
33	0x3cf64674	0.030062892
34	0xbde80728	-0.1132949
35	0x3e12b737	0.14327703
36	0x3dec520c	0.11539087
37	0xbe02ce24	-0.12773949
38	0x3d30c0ed	0.04315274
39	0x3d83f715	0.064436115
40	0xbe215f0b	-0.15758912
41	0xbdb7c8fd	-0.08973882
42	0x3d165b13	0.03670795
43	0xbeb746f1	-0.35796311
44	0xbe7e2182	-0.2481747
45	0xbdc1c133	-0.09460678
46	0x3ded9c56	0.11602084
47	0xbdf03906	-0.11729626
48	0xbd94adee	-0.07259737
49	0x3e94b6c0	0.29045677
50	0xbdfe944f	-0.12430631
51	0xbd7ce190	-0.06173855
52	0x3e44eb36	0.19230351
53	0xbe1fbee8	-0.15600169
54	0xbdd4a356	-0.10382716
55	0xbd8b4481	-0.068001755
56	0x3d64b6e8	0.055838495
57	0x3c126002	0.008934023
58	0x3f0bcc18	0.546083
59	0x3e106d68	0.14104235
60	0x3d8b8c77	0.06813901
61	0x3e40c492	0.18824986
62	0xbc581f61	-0.013191075
63	0xbea1e62a	-0.31620914
64	0x3c828d60	0.015936553
65	0xbb811f40	-0.003940493
66	0xbdf6458e	-0.12024985
67	0xbe0015f8	-0.1250838
68	0x3d821bc0	0.06352949
69	0xbf20c0e4	-0.6279433
70	0xbe0e66b7	-0.1390637
71	0x3e0ce5ff	0.13759612
72	0x3dd92c27	0.106041245
73	0xbcdb78ed	-0.02679106
74	0x3db2a6b5	0.08723203
75	0x3dd94fda	0.106109336
76	0x3e612175	0.21985419
77	0x3dc56b88	0.096396506
78	0xbd7727d3	-0.060340714
79	0xbd820f2c	-0.0635055
80	0xbc55d751	-0.013051824
81	0x3d076eaf	0.03306454
82	0x3c487a31	0.012236164
83	0xbc17ebd8	-0.009272538
84	0xbd2b7d84	-0.041867748
85	0xbbbf8181	-0.0058442955
86	0xbd5eb6a9	-0.054373417
87	0xbd13ac2e	-0.036052875
88	0x3dfc8cf7	0.123315744
89	0xbb633ab1	-0.0034672434
90	0x3be9e1ea	0.0071375268
91	0xbe55c7a4	-0.20876938
92	0x3d2900f3	0.04126067
93	0xbc4759d4	-0.012167413
94	0x3e9958fa	0.29950696
95	0x3ecefe3e	0.40428346
96	0xbd9f0322	-0.077642694
97	0xbe297a84	-0.16550642
98	0xbd11c84a	-0.0355914
99	0x3ca11d55	0.019667307
100	0x3c1509bb	0.009096558
101	0xbda63fe3	-0.08117654
102	0xbe285a43	-0.16440682
103	0xbcb3d751	-0.021953257
104	0xbea54140	-0.32276344
105	0xbcaf1d3f	-0.02137625
106	0xbdb75b0e	-0.08952914
107	0xbd812303	-0.06305506
108	0x3da07c22	0.078361765
109	0xbd6efcb5	-0.05834647
110	0x3d56933a	0.0523865
111	0xbe4c357a	-0.19942275
112	0xbe75ad3a	-0.23991862
113	0xbe00fa07	-0.12595378
114	0xbdd8dad0	-0.1058861
115	0xbe031a82	-0.1280308
116	0x3d62b17b	0.05534504
117	0xbd8ce529	-0.06879646
118	0x3c13bd70	0.009017333
119	0xbdde579f	-0.10856556
120	0x3bebba25	0.007193821
121	0x3e03d06b	0.12872474
122	0xbe003630	-0.12520671
123	0xbe379413	-0.1792758
124	0x3d918192	0.07104792
125	0xbe306ea7	-0.1722971
126	0xbd31cf1c	-0.043410406
127	0xbc83043b	-0.015993228
128	0xbdf353ee	-0.11881243
129	0x3ce2343e	0.027612802
130	0x3de398c1	0.1111312
131	0x3e76d06d	0.24102946
132	0xbdd05360	-0.101721525
133	0x3e925e0a	0.2858737
134	0xbc7ad36f	-0.015309199
135	0x3e285b70	0.1644113
136	0x3deb5233	0.11490288
137	0x3d168413	0.03674705
138	0xbe654bb7	-0.22392164
139	0x3dd40974	0.103533655
140	0xbeeb8030	-0.45996237
141	0x3c94cf58	0.018165275
142	0xbd608c48	-0.054821283
143	0xbe825ac5	-0.25459877
144	0xbdb65f42	-0.08904888
145	0xbdaeea8f	-0.08540832
146	0xbd9f162d	-0.077679016
147	0xbd020328	-0.03174129
148	0x3db7d7bf	0.08976697
149	0x3d91d8f3	0.07121458
150	0xbb2cc2a0	-0.0026361123
151	0xbdb7ae48	-0.089687884
152	0xbbee2e49	-0.007268701
153	0xbdd19c2d	-0.10234866
154	0xbd8a2f13	-0.0674726
155	0x3e64935a	0.22321835
156	0x3d92e20f	0.071720235
157	0xbeab8e42	-0.33506972
158	0x3e5378a3	0.20651488
159	0x3db116db	0.086469375
160	0x3d3cfcf0	0.046139657
161	0x3e518062	0.2045913
162	0x3ca45670	0.020060748
163	0x3dc1989a	0.094529346
164	0x3d9833b2	0.07431735
165	0xbd5ec6e7	-0.054388907
166	0xbc01fccf	-0.007933809
167	0xbe50bb7d	-0.20384021
168	0xbcc58442	-0.024110917
169	0x3dbc48d0	0.091935754
170	0xbe5779ed	-0.21042605
171	0x3dad2920	0.084551096
172	0xbd11336b	-0.035449427
173	0x3c8233c8	0.015893832
174	0x3dece118	0.11566371
175	0xbd45639c	-0.048190698
176	0x3dc5bddf	0.09655356
177	0x3e00a5f5	0.12563308
178	0xbf004df5	-0.50118953
179	0x3e0fc779	0.14040937
180	0xbdd9a529	-0.10627205
181	0xbcf872f4	-0.030328251
182	0xbd8a37e0	-0.067489386
183	0xbda84378	-0.08215994
184	0x3e14f6d0	0.14547276
185	0xbe9f31b2	-0.31092602
186	0x3d4f69f4	0.050638154
187	0x3e02c14f	0.12769054
188	0x3c86ef7e	0.01647162
189	0x3dfdfcd6	0.1240174
190	0xbe03f835	-0.12887652
191	0xbdb11a8c	-0.086476415
192	0xbd65f069	-0.056137476
193	0xbd9f45f2	-0.07777013
194	0xbea23156	-0.31678265
195	0x3e3b9732	0.18319395
196	0x3e57f9ae	0.21091339
197	0xbdf25454	-0.118324906
198	0x3d4fbde2	0.050718196
199	0xbd48f12b	-0.04905812
200	0x3bdb181e	0.0066862246
201	0x3db965b6	0.09052603
202	0x3ebb6b25	0.36605182
203	0x3ec3aaa2	0.3821612
204	0xbdd763ac	-0.10517058
205	0xbe064eac	-0.13115948
206	0x3ddae30c	0.10687837
207	0x3e091d5e	0.13390109
208	0x3dbc0abc	0.09181735
209	0x3e3209b5	0.17386515
210	0x3e668925	0.22513254
211	0xbd3f3159	-0.04667792
212	0x3e2f9150	0.17145276
213	0x3ee88f1b	0.4542168
214	0xbc1ee930	-0.009699151
215	0x3eccfcfb	0.4003676
216	0x3d00cea5	0.03144707
217	0xbc01f28d	-0.007931364
218	0xbd9e79d7	-0.07738083
219	0x3d04e183	0.032441627
220	0x3e54c899	0.20779647
221	0x3dc17969	0.09446985
222	0xbcef169a	-0.029185582
223	0xbc61c4d8	-0.013779841
224	0xbe44a2c0	-0.19202709
225	0x3b5f2f56	0.0034055314
226	0x3d76e025	0.060272355
227	0x3ca2f7bf	0.019893525
228	0x3d8b418f	0.06799614
229	0xbdf8570d	-0.121259786
230	0x3e84407e	0.25830454
231	0xbde22880	-0.11042881
232	0xbe820642	-0.253954
233	0xbe10ac74	-0.14128286
234	0x3b8b9025	0.0042591267
235	0x3d936017	0.07196062
236	0xbda8b7b1	-0.08238161
237	0x3d01846b	0.031620424
238	0xbe202d12	-0.15642193
239	0xbdbc8c2a	-0.09206422
240	0xbd995cff	-0.07488441
241	0x3d12a312	0.035800047
242	0xbdce70f1	-0.100801356
243	0x3c34641b	0.011010195
244	0x3e0d3f5d	0.13793702
245	0x3cf8dca5	0.030378649
246	0xbd085faa	-0.033294357
247	0xbe4f51d4	-0.20246059
248	0xbc304b21	-0.0107601
249	0x3bfba17d	0.007679163
250	0xbd9e09cb	-0.077167116
251	0x3d060e9a	0.03272877
252	0xbd8055df	-0.062663786
253	0xbace0051	-0.0015716647
254	0xbd03e54b	-0.032201093
255	0xbd8c3a9d	-0.06847117

bias f4 [64]
0	0x3ce48c59	0.027898954
1	0x3db77b11	0.0895902
2	0xbd5b3fc4	-0.05352761
3	0xbdb6e059	-0.0892951
4	0x3e2529df	0.16129254
5	0xbd781a30	-0.06057185
6	0x3d88dd63	0.06682851
7	0x3d91320d	0.070896246
8	0xbddf9dee	-0.109187946
9	0x3e12fb64	0.1435371
10	0xba955e04	-0.0011395817
11	0xbdc5db1b	-0.09660932
12	0xbdfcba5e	-0.12340234
13	0xbe98da5e	-0.298541
14	0x3dbae012	0.09124769
15	0x3d739cdb	0.05947576
16	0x3d893571	0.06699646
17	0x3e00dc69	0.1258408
18	0xbd96f4d5	-0.07370917
19	0xbde5b741	-0.112165935
20	0x3e2d9d36	0.16954502
21	0x3dabbea4	0.08385971
22	0xb999b5a7	-0.00029317776
23	0xbcc227b6	-0.023700576
24	0x3dcee656	0.10102527
25	0x3cb364d4	0.021898665
26	0xbdde0812	-0.10841383
27	0xbe51134b	-0.20417516
28	0x3e3bda6a	0.18345037
29	0x3e080140	0.13281727
30	0xbe0fa188	-0.14026463
31	0xbd84d3d0	-0.064857125
32	0xbdbefb05	-0.09325222
33	0xbc95fa25	-0.018307755
34	0xbe364dac	-0.17803067
35	0x3dc2d227	0.0951274
36	0x3e883444	0.26602376
37	0x3d128ddf	0.03577983
38	0x3c515435	0.012776424
39	0x3cb89390	0.0225313
40	0xbdae7207	-0.08517843
41	0x3d9acd0c	0.07558641
42	0xbd2a708d	-0.041611243
43	0x3e181593	0.1485198
44	0xbe4db6d7	-0.20089279
45	0x3d7b4b7f	0.061351296
46	0xbe1d6bb4	-0.15373117
47	0x3e6a93ba	0.22907916
48	0x3e168153	0.14697771
49	0x3d317835	0.04332753
50	0x3d0f4e9e	0.034987085
51	0xbd3033ab	-0.043018024
52	0xbe6773e9	-0.2260281
53	0x3e70849a	0.23488083
54	0x3d7c95c3	0.06166626
55	0x39f04482	0.0004582741
56	0x3d35789f	0.044304486
57	0x3dc2886f	0.09498679
58	0x3c6c1ce6	0.014411187
59	0x3d62661e	0.055273168
60	0xbe339c1a	-0.17540017
61	0x3e0d3321	0.13789035
62	0x3d887c29	0.06664307
63	0xbe0c6e41	-0.13713934

weight f4 [64]
0	0x3f1d2ca6	0.61396253
1	0x3ea19d1e	0.31565183
2	0x3f62af05	0.8854831
3	0x3eb239eb	0.34809813
4	0x3ed58c0a	0.41708404
5	0x3ef97d0d	0.4872822
6	0x3eaeb100	0.34119415
7	0x3f093450	0.5359545
8	0x3e868573	0.2627369
9	0x3e91cf1b	0.2847832
10	0x3f511792	0.8167659
11	0x3eab5821	0.33465675
12	0x3ed13b6a	0.40865642
13	0x3ec1946d	0.37808552
14	0x3eae4b06	0.34041613
15	0x3ea983b8	0.33108306
16	0x3f005047	0.50122494
17	0x3e8e970e	0.2784962
18	0x3f4bb74c	0.79576564
19	0x3ea38735	0.31939092
20	0x3ea7515e	0.32679266
21	0x3f3f34dc	0.7469003
22	0x3f11a6ca	0.56895125
23	0x3f142b28	0.5787835
24	0x3f06785d	0.5252741
25	0x3e97e242	0.2966481
26	0x3f37465c	0.71591735
27	0x3ebfe5a4	0.3747989
28	0x3e877f35	0.2646424
29	0x3e9f7ce9	0.31149986
30	0x3eb4b370	0.3529315
31	0x3ec7db1b	0.39034352
32	0x3e91d37e	0.28481668
33	0x3eb6e6f4	0.35723078
34	0x3ee09a63	0.43867788
35	0x3eb94538	0.36185622
36	0x3ea1eb02	0.3162461
37	0x3f4475af	0.7674207
38	0x3e9aa741	0.3020573
39	0x3efccf93	0.49377117
40	0x3e997e3d	0.29979125
41	0x3ee9a362	0.45632464
42	0x3f4d054c	0.8008621
43	0x3eedd356	0.464503
44	0x3ed0f56a	0.40812236
45	0x3f1679f4	0.58779836
46	0x3e98ab1f	0.29818055
47	0x3ed8b052	0.42322022
48	0x3eebe04f	0.4606957
49	0x3eacc12c	0.33741128
50	0x3ea90eeb	0.33019194
51	0x3e96ab9f	0.29427812
52	0x3ee58928	0.44831204
53	0x3ee42626	0.44560355
54	0x3eccad02	0.39975744
55	0x3f14e916	0.5816816
56	0xba21d70e	-0.0006173708
57	0x3ec82169	0.3908799
58	0x3eb455e8	0.3522179
59	0x3eb5e1b9	0.35523775
60	0x3ea4b6ae	0.32170624
61	0x3e6a5f3a	0.22887889
62	0x3ebe1020	0.37121677
63	0x3f15f065	0.5856994

bias f4 [64]
0	0xbecef2f8	-0.40419745
1	0x3f0322f3	0.51225203
2	0x3d4fbac5	0.050715227
3	0x3f082e47	0.53195614
4	0x3dde89ed	0.10866151
5	0x3d980517	0.07422846
6	0x3eef6c9e	0.46762556
7	0xbc13cde6	-0.009021258
8	0x3e9c2c8f	0.30502746
9	0x3ebe8487	0.37210485
10	0xbf5a95da	-0.85384905
11	0x3ef2fe8e	0.47459835
12	0x3d8e7bb5	0.06957189
13	0x3f25a24a	0.6470076
14	0x3eda81dd	0.42677203
15	0x3f1722df	0.59037584
16	0x3e55d0fe	0.20880505
17	0x3e7f1a72	0.24912432
18	0xbe9bb807	-0.3041384
19	0xbcc070ef	-0.023491351
20	0x3f023f36	0.508777
21	0xbe8827d3	-0.26592883
22	0xbe5f3851	-0.21798827
23	0xbdee35d9	-0.116313644
24	0xbf618ce1	-0.8810559
25	0x3e55731e	0.20844695
26	0xbf41f5e6	-0.75765836
27	0x3f06d732	0.5267211
28	0x3ef80317	0.48439857
29	0x3efe39e4	0.49653542
30	0x3e9fe87c	0.3123206
31	0x3f15eb83	0.5856249
32	0x3ee21188	0.44154
33	0x3f0e21e5	0.5552047
34	0x3ed41222	0.41420084
35	0x3e950475	0.29104963
36	0x3ed99abe	0.4250087
37	0xbe851c63	-0.2599822
38	0x3ea97de0	0.33103848
39	0x3db842bd	0.08997104
40	0x3edaa684	0.42705166
41	0x3eda6416	0.42654485
42	0xbd50b0f3	-0.050950002
43	0x3f059b08	0.52189684
44	0xbdfb7640	-0.12278414
45	0xbda4ecff	-0.08053016
46	0x3efacfb6	0.48986596
47	0x3c7fbef4	0.015609492
48	0xbea70a37	-0.3262498
49	0x3f0215e9	0.5081468
50	0x3f163a6b	0.5868289
51	0x3ee9aee7	0.45641252
52	0x3ebb159f	0.36539933
53	0x3e5d460d	0.21608754
54	0x3f06bfce	0.5263642
55	0xbe5bf1a3	-0.21478896
56	0xbbed46ae	-0.0072410917
57	0x3ee16f5a	0.44030267
58	0x3e478e9f	0.19488
59	0x3f1bce7a	0.60861933
60	0x3f1988f4	0.599746
61	0x3e4e8a6a	0.20169988
62	0x3f163d49	0.58687264
63	0xbe8af615	-0.2714087

running_mean f4 [64]
0	0xbf102622	-0.56308186
1	0x3f4f026c	0.8086307
2	0xbfbe24ab	-1.485494
3	0x3bedbfbf	0.007255524
4	0xbf941258	-1.1568098
5	0xbefe91fd	-0.49720755
6	0xbd04e569	-0.032445345
7	0xbfc61cfa	-1.5477593
8	0xbf1044a0	-0.56354713
9	0xbf93f860	-1.1560173
10	0xbf898b78	-1.0745687
11	0x3e828370	0.25490904
12	0xbea4e70f	-0.32207534
13	0xbf26e4eb	-0.6519305
14	0xbf1aca03	-0.60464495
15	0x3f728601	0.94735724
16	0x400ebcb7	2.2302682
17	0xbeb89f4d	-0.36059037
18	0xbe310da0	-0.17290354
19	0xbeb06714	-0.34453642
20	0x3f67217d	0.90285474
21	0xbf4990c5	-0.78736526
22	0xbfa530f8	-1.2905569
23	0xbf7e3762	-0.9930326
24	0xbe6bec6d	-0.23039408
25	0x3d35d763	0.044394862
26	0x3e418adf	0.18900631
27	0xbfaf418c	-1.3691878
28	0xbfcff574	-1.6246781
29	0xbdadb2a7	-0.08481341
30	0x3d1777a3	0.03697933
31	0x3c1074b1	0.008816884
32	0xbf6e4f77	-0.93090004
33	0x3e7be834	0.24600297
34	0x3f77645e	0.96637523
35	0xbf2d4691	-0.676858
36	0x3f3cd625	0.7376426
37	0xbe8a5b41	-0.27022746
38	0xc01bc4a2	-2.4338765
39	0xbf260acb	-0.6486022
40	0x3e52b5a9	0.2057711
41	0xbe57eca7	-0.2108637
42	0xbf7b38b3	-0.9813339
43	0x3efa825e	0.48927587
44	0xbf803c0f	-1.0018328
45	0xbe1a8a1f	-0.15091752
46	0x3f5a06c3	0.8516657
47	0x3f2fc232	0.68655694
48	0x3d9f02a9	0.07764179
49	0xbe269843	-0.1626902
50	0x3f2af68c	0.6678245
51	0xbf8387c4	-1.0275807
52	0xbf27ba5c	-0.65518737
53	0xbfdf0e77	-1.7426289
54	0x3e3fe971	0.18741395
55	0xbf4dbb97	-0.80364364
56	0xbf0d7911	-0.5526286
57	0xbf5f365c	-0.8719232
58	0xbe0ccc7e	-0.13749883
59	0xbdbed007	-0.09317022
60	0xbf1cf548	-0.6131177
61	0xbec0e2c7	-0.37673017
62	0x3fb826e5	1.438687
63	0x3ed3ffd4	0.4140612

running_var f4 [64]
0	0x3f2dfaf2	0.6796104
1	0x3e8d8218	0.27638316
2	0x3f4f5dc2	0.8100244
3	0x3e60baf2	0.21946314
4	0x3e958ae4	0.29207528
5	0x3f42e57c	0.76131415
6	0x3e972fd8	0.2952869
7	0x3efd80f5	0.4951245
8	0x3e6c5e2c	0.23082799
9	0x3eb124df	0.34598443
10	0x3f03f872	0.5155097
11	0x3e96c1da	0.29444772
12	0x3f00326a	0.50076926
13	0x3e9186cc	0.28423154
14	0x3e9e1f5a	0.30883294
15	0x3e97f324	0.2967769
16	0x3ee7d552	0.45279938
17	0x3ea0c7b2	0.31402355
18	0x3f0b1f03	0.54344195
19	0x3ea64145	0.32471672
20	0x3e53303f	0.20623873
21	0x3f07a640	0.5298805
22	0x3f15cd4b	0.5851638
23	0x3eb72745	0.35772148
24	0x3ec7b03e	0.3900165
25	0x3ec9a80c	0.39386022
26	0x3eda076a	0.4258378
27	0x3e91a0ff	0.28443143
28	0x3e9ff4df	0.3124151
29	0x3e454575	0.19264777
30	0x3ebde70e	0.37090343
31	0x3e9e36b1	0.309011
32	0x3e9bcf72	0.30431706
33	0x3e5e064e	0.21682093
34	0x3f09b03b	0.5378453
35	0x3f000e02	0.50021374
36	0x3e57a61a	0.21059456
37	0x3f050960	0.5196743
38	0x3ec6b1f8	0.38807654
39	0x3ea07f77	0.31347248
40	0x3eb93c62	0.3617888
41	0x3eca55fd	0.3951873
42	0x3f3f72a5	0.7478431
43	0x3ec976ea	0.39348537
44	0x3eeba743	0.46026048
45	0x3efe6edd	0.49693957
46	0x3eadf1fd	0.33973685
47	0x3ec864d6	0.39139432
48	0x3eb46bcd	0.35238495
49	0x3e9ceb08	0.30648065
50	0x3e6645cc	0.22487563
51	0x3e853ddd	0.2602376
52	0x3e9c145f	0.30484292
53	0x3f0c9e7a	0.54929316
54	0x3e8fc927	0.28083155
55	0x3f07d724	0.53062654
56	0x3d2ceb75	0.042216737
57	0x3ec01f92	0.37524086
58	0x3e5d54dd	0.21614404
59	0x3e9b1bf4	0.30294764
60	0x3ebc3470	0.36758757
61	0x3efb849c	0.4912461
62	0x3e8cfcba	0.27536565
63	0x3ebf9d78	0.37424827

weight f4 [64, 32, 4, 4]
0	0x3d1b3d33	0.03790016
1	0xbce061ba	-0.02739035
2	0x3d148160	0.036256194
3	0xbdad54df	-0.084634535
4	0xbd86e203	-0.06586077
5	0xbe3f153b	-0.18660443
6	0xbd82d00a	-0.063873366
7	0xbd47753b	-0.048695784
8	0x3d1355c9	0.035970483
9	0xbd5b1a9a	-0.053492166
10	0x3df4e74a	0.119581774
11	0x3cec5f2f	0.02885398
12	0xbe731e58	-0.23742044
13	0xbddd04a1	-0.107918985
14	0x3dd51c73	0.10405817
15	0xbe3ebd97	-0.1862701
16	0x3e012b3c	0.12614149
17	0xbd86271a	-0.06550427
18	0x3da3702e	0.07980381
19	0xbd87bea2	-0.06628157
20	0xbd7189ba	-0.058969237
21	0x3db83233	0.0899395
22	0x3d166c89	0.0367246
23	0x3d8aa15a	0.067690566
24	0xbcea8a4c	-0.028630398
25	0xbe0cc1ea	-0.13745847
26	0x3d9a9ac5	0.07549051
27	0x3dc69636	0.09696619
28	0xbd935255	-0.07193438
29	0xbc3dc597	-0.011582754
30	0xbddcc1b7	-0.10779136
31	0x3d81a16e	0.063296184
32	0x3d22368b	0.039602797
33	0xbe880c3d	-0.26571837
34	0xbc5eb0bf	-0.013591944
35	0xbc87fdbb	-0.01660048
36	0x3d849e87	0.06475549
37	0xbe90b10c	-0.28260076
38	0xbe25c495	-0.16188271
39	0xbe6017fd	-0.21884151
40	0xbe701a93	-0.23447637
41	0xbdbc6000	-0.09197998
42	0xbd93b3d1	-0.07212032
43	0xbe11a07f	-0.1422138
44	0xbe750f7b	-0.23931687
45	0xbe5e4f73	-0.21709995
46	0xbd80e398	-0.0629341
47	0xbe81b405	-0.25332657
48	0x3e003c57	0.12523018
49	0x3da62ec2	0.08114387
50	0x3d019a15	0.031641085
51	0x3d017978	0.031609982
52	0x3dd8b2b9	0.10580964
53	0x3c98b445	0.018640647
54	0xbd9d6082	-0.07684423
55	0xbc4426af	-0.0119721135
56	0xbd7bed48	-0.061505586
57	0xbd0ae27e	-0.033907406
58	0xbd456949	-0.04819611
59	0xbe3c7067	-0.18402253
60	0xbd2a8e0d	-0.041639376
61	0xbd8754b5	-0.066079535
62	0xbd24754b	-0.04015092
63	0xbd39e40c	-0.045383498
64	0x3db285fc	0.08716962
65	0xbda55c52	-0.08074249
66	0xbe3a2762	-0.18179086
67	0xbde7f6d5	-0.11326376
68	0xbd64bc79	-0.055843804
69	0xbdf18577	-0.117930345
70	0xbe83dd7b	-0.25754914
71	0xbe7ecc2c	-0.24882573
72	0xbd786ba4	-0.06064953
73	0xbe259a5f	-0.16172169
74	0xbdf2b2ab	-0.118504845
75	0xbd93feee	-0.07226358
76	0x3d98abab	0.07454618
77	0xbe277cc7	-0.16356193
78	0xbe1e5a1e	-0.15464064
79	0x3d845db1	0.06463183
80	0x3d38798a	0.045037784
81	0xbeb11252	-0.3458429
82	0xbec56497	-0.38553306
83	0xbd5d2981	-0.05399466
84	0x3dc6d10b	0.097078405
85	0xbdc9480c	-0.09828195
86	0xbe3aca9c	-0.18241352
87	0x3ddf32e4	0.108983785
88	0xbe6a9c10	-0.22911096
89	0xbe0692ca	-0.13141933
90	0xbe6de4d2	-0.2323182
91	0xbe9b58aa	-0.30341083
92	0xbcdf34b0	-0.027246803
93	0xbe864807	-0.26226828
94	0x3d624cbd	0.055248965
95	0x3e1f2d80	0.155447
96	0x3d70c9cd	0.058786202
97	0xbcded0fb	-0.027199259
98	0xbccf28a7	-0.02528794
99	0xbd84b647	-0.06480079
100	0x3d12c419	0.035831545
101	0x3ceaea49	0.028676169
102	0xbe48411e	-0.1955609
103	0x3d035bc8	0.03206995
104	0xbdf8af06	-0.12142758
105	0xbdef6572	-0.11689271
106	0xbea78c69	-0.32724312
107	0xbe833982	-0.25629812
108	0x3e694567	0.22780381
109	0x3e0a937e	0.13532826
110	0xbdb20c41	-0.086937435
111	0x3e3a4875	0.18191703
112	0x3d399074	0.045303777
113	0x3e007f9f	0.12548684
114	0x3dd300af	0.10302865
115	0xbd0cbd93	-0.03436048
116	0x3ddd3b46	0.10802321
117	0x3cc0521e	0.023476657
118	0x3bac7c01	0.005263806
119	0x3e03ad3c	0.12859052
120	0x3db75c21	0.08953119
121	0x3e2bd7a8	0.16781485
122	0x3ddf4d08	0.109033644
123	0x3de3c50f	0.1112157
124	0x3e18fb5a	0.14939633
125	0x3e8766d1	0.2644563
126	0x3b80cb78	0.0039305054
127	0xbe3bb949	-0.183324
128	0x3daf2bef	0.085533015
129	0xbde3a3d9	-0.11115236
130	0xbc92d82f	-0.01792535
131	0x3ea7543e	0.3268146
132	0xbdbf16a2	-0.09330489
133	0x3d27926d	0.040911127
134	0x3d28e71a	0.04123602
135	0xbc8198c7	-0.01581992
136	0x3c15a043	0.009132448
137	0x3d6c9b5b	0.057765346
138	0x3d221d2b	0.039578598
139	0xbdcba4bf	-0.09943532
140	0x3d9d479b	0.07679673
141	0xbe8bb21c	-0.27284324
142	0xbd75d86e	-0.060020857
143	0x3e53c9ab	0.20682399
144	0xbd394142	-0.04522825
145	0xbd16d52c	-0.03682439
146	0x3cf9f04e	0.030510094
147	0x3d1458b2	0.0362174
148	0xbe046e53	-0.1293271
149	0x3c5851fb	0.013203139
150	0x3d3d05e4	0.046148196
151	0xbdd1a6e3	-0.10236909
152	0xbc3241d3	-0.0108799515
153	0xbd93eef1	-0.07223309
154	0xbd898196	-0.0671417
155	0xbe10c982	-0.14139369
156	0xbd385cdd	-0.045010436
157	0xbd1096bb	-0.035299998
158	0xbd93eb25	-0.07222585
159	0xbde51101	-0.11184884
160	0x3da0a6f9	0.078443475
161	0x3e1cfc47	0.15330611
162	0xbd2526c9	-0.04032019
163	0x3e77eabb	0.24210636
164	0x3e434f1e	0.1907315
165	0x3da23eb4	0.07922116
166	0xbd03a8e0	-0.032143474
167	0x3dca1cbe	0.098687634
168	0x3ce4e94a	0.027943272
169	0x3e3ed7ed	0.18637057
170	0x3dd589b2	0.10426654
171	0xbddc7426	-0.10764341
172	0x3d880f2f	0.06643521
173	0x3e858a68	0.26082158
174	0x3de6a482	0.11261846
175	0x3d5ce063	0.05392493
176	0xbd448091	-0.047974173
177	0xbe22e024	-0.15905815
178	0xbde62e41	-0.11239291
179	0xbcd4f848	-0.025997296
180	0x3d2193a5	0.039447445
181	0xbcbbe232	-0.022935007
182	0xbe1496c8	-0.14510643
183	0xbe16c622	-0.14724019
184	0xbd6ef11e	-0.058335416
185	0xbd1ec432	-0.038761325
186	0xbe8f24ec	-0.27957857
187	0xbe5c71cc	-0.21527785
188	0x3d5347ad	0.051582027
189	0xbea65c6b	-0.32492384
190	0xbe4caeff	-0.1998863
191	0xbe2f68d4	-0.17129833
192	0x3df3fd53	0.11913552
193	0x3ddd7875	0.10813991
194	0x3e26bd52	0.16283157
195	0x3e452023	0.1925054
196	0xbdfe3d25	-0.12414006
197	0xbce77881	-0.028255703
198	0xbdfbc0bf	-0.12292623
199	0xbe1184da	-0.14210835
200	0xbd917ac4	-0.07103494
201	0x3d8c95ef	0.06864535
202	0x3e842145	0.25806633
203	0xbdbae63c	-0.09125945
204	0x3e77aedf	0.24187802
205	0x3dc00bb8	0.09377235
206	0x3d96903e	0.07351731
207	0x3e6fc166	0.2341362
208	0x3c3b7b85	0.011443024
209	0xbd43449d	-0.047672857
210	0x3dad7dc4	0.084712535
211	0xbdcbca4f	-0.09950697
212	0x3e071b8b	0.131941
213	0x3e0102ff	0.12598799
214	0xbcdfd25b	-0.027321985
215	0xbe0109dc	-0.12601417
216	0xbe001f6d	-0.12511988
217	0xbcbf4d93	-0.02335242
218	0x3d85faeb	0.065419994
219	0xbd640662	-0.05567015
220	0xbccdea36	-0.025136095
221	0x3cfbbb4c	0.030728959
222	0xbba8f875	-0.0051565715
223	0x3d65378a	0.05596117
224	0x3cb13404	0.021631248
225	0x3c1f4cbf	0.009722888
226	0x3d48ad25	0.04899325
227	0x3e2e1d0b	0.17003267
228	0x3d39c728	0.045355946
229	0x3d1b03d6	0.037845455
230	0x3bd4cf32	0.006494426
231	0xbd7210bc	-0.05909799
232	0x3e0d60b1	0.13806416
233	0x3e257a2e	0.16159889
234	0x3de533ed	0.11191545
235	0x3e080dc1	0.13286497
236	0x3d665290	0.05623108
237	0x3e3d72b4	0.18500787
238	0x3e6d3dbc	0.23168081
239	0x3e2a2285	0.1661473
240	0xbdcac2ed	-0.099004604
241	0xbc5ecc4a	-0.013598511
242	0xbca61efa	-0.020278443
243	0xbddca422	-0.10773493
244	0x3e402411	0.18763758
245	0xbe7e6c3d	-0.24845977
246	0x3df8f9e6	0.12157039
247	0xbe0b17d1	-0.13583304
248	0x3da8c493	0.082406186
249	0x3c56cb37	0.013109974
250	0xbda700e8	-0.0815447
251	0x3d5714f8	0.05251023
252	0x3e6d66e9	0.23183788
253	0x3d5bf3f7	0.05369946
254	0x3cfd11e1	0.030892314
255	0x3cefa948	0.029255524

bias f4 [32]
0	0x3d9bebd4	0.0761334
1	0x3d33d3de	0.043903224
2	0xbd25ba03	-0.040460598
3	0xbd99ae24	-0.07503918
4	0xbe312169	-0.17297901
5	0x3d7e5c08	0.062099487
6	0x3e369ef4	0.17834073
7	0xbdb52076	-0.08844082
8	0x3cd1df8e	0.025619294
9	0xbd8a7b48	-0.06761795
10	0xbd9a932d	-0.07547603
11	0xbe041739	-0.12899484
12	0x3d5372a0	0.051622987
13	0x3d48267d	0.04886483
14	0x3dffd69e	0.12492107
15	0x3cfaf06d	0.030632222
16	0x3c828aa4	0.01593525
17	0x3e5e7501	0.21724321
18	0x3daa4676	0.083142206
19	0xbd07e7d5	-0.033180077
20	0xbd07b77f	-0.03313398
21	0x3dc63785	0.09678558
22	0xbc958bd2	-0.018255148
23	0xbdce6cb8	-0.1007933
24	0x3d208e55	0.03919824
25	0x3c74d898	0.014944218
26	0x3dcadfc6	0.09905963
27	0xbd4abcc2	-0.04949642
28	0xbdadf003	-0.08493044
29	0x3d27c4dc	0.040959224
30	0xbd8fb3f6	-0.07016747
31	0xbd65b234	-0.05607815

weight f4 [32]
0	0x3f241af4	0.6410363
1	0x3f110c3f	0.5665931
2	0x3ec815bd	0.39079085
3	0x3ec1c641	0.37846568
4	0x3edcd1e4	0.43128884
5	0x3f26c8a1	0.65149885
6	0x3edefbf1	0.4355159
7	0x3ef46201	0.4773102
8	0x3f29319c	0.6609132
9	0x3f0ec2da	0.5576607
10	0x3f05ee8c	0.5231712
11	0x3ebd7aef	0.37007853
12	0x3eb417be	0.35174364
13	0x3f0e7343	0.55644625
14	0x3ecd740d	0.40127602
15	0x3f0b9705	0.5452731
16	0x3ef2d15d	0.47425357
17	0x3f0d3825	0.55163795
18	0x3f11d43d	0.56964475
19	0x3ed7f48c	0.42178762
20	0x3eb517a0	0.35369587
21	0x3ea46ccd	0.32114258
22	0x3e8d12c9	0.27553394
23	0x3eae04b3	0.3398796
24	0x3f20894d	0.62709504
25	0x3f1d3bdb	0.6141946
26	0x3ed5d5db	0.4176472
27	0x3f091e56	0.53561914
28	0x3ecfc240	0.40577888
29	0x3f01af25	0.50657874
30	0x3ed1b2c9	0.40956715
31	0x3eccd90c	0.40009344

bias f4 [32]
0	0xbf16c0e3	-0.5888807
1	0xbde5e6ef	-0.11225688
2	0x3dcd3ca2	0.100213304
3	0xbede737c	-0.43447483
4	0x3e51b85e	0.20480487
5	0xbe9fe7aa	-0.31231433
6	0xbd36ec9c	-0.044659242
7	0xbe16f609	-0.14742292
8	0xbf101391	-0.56279856
9	0x3da85311	0.08218969
10	0xbef44ff7	-0.47717258
11	0xbbdd87d2	-0.006760576
12	0xbee8244d	-0.45340195
13	0xbe4b67ad	-0.19863768
14	0xbed06dae	-0.4070868
15	0xbdced712	-0.10099615
16	0x3ca8f644	0.020625241
17	0xbe2101f0	-0.15723395
18	0x3e0cf95c	0.13766998
19	0x3ea21b7c	0.31661594
20	0xbef077ab	-0.469663
21	0xbefd3b28	-0.49459195
22	0x3e0f279c	0.13979954
23	0x3ec54683	0.3853036
24	0xbdd56cd6	-0.104211494
25	0xbe2a7704	-0.16646963
26	0x3bdf80be	0.006820767
27	0xbdaef08e	-0.08541976
28	0xbf39c84d	-0.7257126
29	0x3dc065f0	0.09394443
30	0xbeac39c7	-0.3363783
31	0xbef7de68	-0.4841187

running_mean f4 [32]
0	0xc036b718	-2.8549252
1	0xbec2aed6	-0.38024014
2	0xbf5866d7	-0.8453192
3	0xc00b71b1	-2.1788142
4	0x3d34f713	0.04418094
5	0xc0044248	-2.0665455
6	0xbfa4490c	-1.2834792
7	0xbf532f33	-0.82493895
8	0xbeb3b42b	-0.35098395
9	0xbf8ba550	-1.0909824
10	0xbfd27a46	-1.6443565
11	0x3fbce89f	1.475849
12	0xbfc57b66	-1.5428283
13	0xbeac9e95	-0.33714738
14	0x3e4c3cd9	0.19945087
15	0xbf7510b5	-0.9572862
16	0xc00f9718	-2.243597
17	0xbe82de8c	-0.25560415
18	0xbf36386d	-0.7117985
19	0x3dd92cce	0.10604249
20	0xbfd2577e	-1.643295
21	0xc02526bf	-2.5804899
22	0xbefccb16	-0.49373692
23	0x3ebb8655	0.36625925
24	0xbf0ca623	-0.54941005
25	0x3f1fb9a4	0.6239264
26	0xbf411d7f	-0.7543563
27	0xbf6c492a	-0.9229914
28	0xc0043e28	-2.0662937
29	0xc020f57c	-2.5149832
30	0xc043d5d7	-3.0599267
31	0xbfaabb64	-1.3338437

running_var f4 [32]
0	0x3f84b493	1.0367607
1	0x3fa179fa	1.2615349
2	0x3f05de23	0.5229208
3	0x3f28d41f	0.6594867
4	0x3f0ee298	0.55814505
5	0x3fa5957e	1.2936246
6	0x3f759375	0.95928127
7	0x3f4f14cf	0.80891126
8	0x3f112895	0.5670255
9	0x3f1bc128	0.6084161
10	0x3f3e47ee	0.74328506
11	0x3f057de9	0.5214525
12	0x3f01dc67	0.5072693
13	0x3f242266	0.6411499
14	0x3f15276b	0.5826327
15	0x3fc92928	1.5715685
16	0x3fa705d0	1.3048649
17	0x3f07c138	0.53029203
18	0x3fb88e0b	1.4418348
19	0x3f1c6422	0.6109029
20	0x3f195e3a	0.59909403
21	0x3f2c1373	0.6721718
22	0x3f03eb9a	0.51531374
23	0x3f163f61	0.5869046
24	0x3fc11f93	1.5087761
25	0x3f6ad348	0.9172864
26	0x3f522af4	0.8209679
27	0x3f2b520b	0.6692206
28	0x3ee3e071	0.44507173
29	0x3f857ecd	1.0429322
30	0x3f270345	0.65239364
31	0x3f07cb29	0.5304437

weight f4 [32, 32, 4, 4]
0	0x3d2cd87c	0.042198643
1	0xbd4613cc	-0.048358724
2	0xbe3f0694	-0.18654853
3	0x3e13ead4	0.14445049
4	0x3c91d097	0.017799659
5	0x3e0ce168	0.1375786
6	0x3b9b4d57	0.0047394442
7	0x3e2b213c	0.16711897
8	0x3debc32c	0.115118355
9	0xbc4a7f60	-0.01235947
10	0x3d562de0	0.052289844
11	0x3d02bb46	0.03191688
12	0x3b6f3b4e	0.0036503854
13	0xbdfb99ad	-0.12285171
14	0xbe13a57a	-0.14418593
15	0xbd86ef61	-0.06588627
16	0xbe551c15	-0.20811494
17	0x3e2bb3e7	0.16767846
18	0xbeb85a77	-0.3600652
19	0x3e146a12	0.14493588
20	0xbafeec52	-0.0019449091
21	0xbbb180f3	-0.0054169833
22	0x3dafc575	0.08582584
23	0xbbd51571	-0.0065028
24	0xbd9ea0ab	-0.07745489
25	0x3e568d3c	0.20952314
26	0xbe1a518f	-0.15070175
27	0x3e8cb664	0.27482903
28	0x3db8bbb9	0.0902018
29	0xbd5051e0	-0.050859332
30	0x3c8b8fae	0.017036285
31	0xbe25a886	-0.16177568
32	0xbc75a6f4	-0.014993418
33	0x3e0e260f	0.13881706
34	0x3dea1ccf	0.11431276
35	0xbd77ac1a	-0.060466863
36	0xbb4e49e8	-0.0031477157
37	0x3d3d1a90	0.04616791
38	0x3e354e98	0.17705762
39	0x3ab4c822	0.0013792554
40	0x3b71cb7b	0.0036894965
41	0x3dc2e31b	0.09515973
42	0x3d3f592b	0.046715897
43	0xbc8911b3	-0.016732072
44	0x3d1a4931	0.037667457
45	0x3cba8eb2	0.02277312
46	0x3e448f9a	0.19195405
47	0x3e058ff1	0.1304319
48	0x3ce2d14c	0.027687691
49	0xbe0ddf98	-0.13854825
50	0x3beeafad	0.007284126
51	0x3d75382e	0.05986803
52	0x3d225f52	0.039641686
53	0x3dedfd1c	0.116205424
54	0xbe8b1212	-0.27162224
55	0x3c227eab	0.009917895
56	0xbce55e20	-0.027998984
57	0xbbd32c00	-0.006444454
58	0xbd5fdbd4	-0.054653004
59	0x3e4cd512	0.20003155
60	0xbc3ab503	-0.011395696
61	0x3e0df926	0.13864574
62	0xbd17403c	-0.036926493
63	0xbe0a4211	-0.13501765
64	0xbb345937	-0.0027518997
65	0xbe6439be	-0.22287652
66	0xbe6660db	-0.22497885
67	0x3e357a40	0.17722416
68	0xbda2f9af	-0.079577796
69	0x3d80c25d	0.06287072
70	0x3d34eea7	0.04417291
71	0xbe3611a0	-0.17780161
72	0x3c1e4819	0.009660744
73	0x3dcfe45f	0.1015098
74	0x3d1b2958	0.037881225
75	0x3e6117da	0.21981755
76	0x3cf127ed	0.029437983
77	0xbe174b0d	-0.14774723
78	0x3e042c93	0.12907629
79	0xbe995759	-0.29949453
80	0xbd1b6a12	-0.037942953
81	0xbd9b0833	-0.07569923
82	0xbead6f8f	-0.33874175
83	0x3dd23726	0.10264425
84	0xbe0f928c	-0.14020747
85	0xbc98af8f	-0.0186384
86	0x3e4a6100	0.19763565
87	0xbea49ca6	-0.32150763
88	0x3d351278	0.044207066
89	0x3d57ac02	0.052654274
90	0xbe863f60	-0.26220226
91	0xbc892ee5	-0.016745994
92	0x3e17db51	0.14829756
93	0xbc2ce97e	-0.010553716
94	0x3db3ac64	0.08773115
95	0x3bc9e99d	0.006161882
96	0x3d6b63d8	0.057468265
97	0xbe1d4148	-0.15356934
98	0x3dab8707	0.08375364
99	0x3e3d3f2c	0.1848113
100	0x3d9038d8	0.07042092
101	0x3c14ed67	0.009089804
102	0x3d5a75d4	0.053335026
103	0xbea535f0	-0.32267714
104	0x3dd1294e	0.10212956
105	0x3ead5e81	0.33861163
106	0x3e2fcf79	0.17168988
107	0x3ed354e4	0.41275704
108	0xbd7f5518	-0.06233701
109	0x3d886e09	0.066616125
110	0x3d915924	0.0709708
111	0xbd79b7d8	-0.060966343
112	0x3d384660	0.04498899
113	0xbd405a5c	-0.046961173
114	0xbbbc8457	-0.005753081
115	0xbd547ec6	-0.051878713
116	0xbd05a7d8	-0.03263077
117	0xbccb074f	-0.024783758
118	0xbdc94d33	-0.09829178
119	0x3ea1966c	0.31560075
120	0x3d80cd4e	0.06289159
121	0x3ddd3f69	0.1080311
122	0x3c1b3f4d	0.009475541
123	0x3ccef429	0.025262909
124	0x3b5f0db0	0.0034035258
125	0x3d81bd56	0.06334941
126	0xbdd72c72	-0.10506524
127	0x3e1cd5cd	0.15315934
128	0x3c7cd882	0.015432479
129	0xbb8fe559	-0.004391354
130	0x3d1763aa	0.03696028
131	0xbe351bd7	-0.17686401
132	0x3e2397a4	0.15975815
133	0xbe658d33	-0.22417144
134	0x3e711d2b	0.23546283
135	0x3e8e1ba2	0.27755457
136	0x3c0cbbe8	0.008589722
137	0x3dd9dd30	0.10637891
138	0x3c5cc4d5	0.013474663
139	0xbe828ad2	-0.25496536
140	0xbc3fc723	-0.011705193
141	0x3e7d7f1d	0.24755521
142	0x3e00b539	0.12569131
143	0x3e273dcf	0.16332172
144	0x3d1e4e73	0.038649034
145	0x3c8de187	0.017319454
146	0xbe533289	-0.20624746
147	0x3e7a5a04	0.244484
148	0xbddcc720	-0.107801676
149	0x3d7c9e5c	0.06167446
150	0x3d69307d	0.056931008
151	0x3ee19bb3	0.44064102
152	0xbb688392	-0.0035478813
153	0xbd08cfa7	-0.033401158
154	0xbcc1b81c	-0.02364736
155	0x3e7e9984	0.24863249
156	0xbd34fa22	-0.044183858
157	0xbe27842a	-0.1635901
158	0x3db8eb43	0.090292476
159	0x3efb905c	0.49133575
160	0xbd5af43d	-0.05345558
161	0x3e2e6832	0.17031935
162	0xbc81bdee	-0.015837636
163	0x3ccf6b02	0.02531958
164	0xbdb0ca69	-0.08632357
165	0x3bfe06bd	0.007752268
166	0xbe4ad8b5	-0.1980923
167	0xbdbb8eab	-0.09158071
168	0xbdfa44e1	-0.12220169
169	0x3be309f9	0.006928679
170	0xbed3ba04	-0.41352856
171	0xbe13033e	-0.14356706
172	0x3d3b57d2	0.04573805
173	0x3d5e9d89	0.054349456
174	0xbc75e293	-0.015007633
175	0xbdd247eb	-0.102676235
176	0x3d31fe2b	0.043455284
177	0x3d2801ce	0.041017346
178	0x3dc178b2	0.09446849
179	0x3d96c41b	0.07361623
180	0x3e1452d7	0.14484726
181	0x3c803654	0.015650906
182	0xbcff83f1	-0.031190844
183	0xbdfcb3c3	-0.12338974
184	0xbdb0d9d9	-0.08635301
185	0x3d722030	0.059112728
186	0x3c9a1ada	0.018811632
187	0x3d67ce85	0.056593437
188	0x3e140125	0.14453562
189	0x3d926110	0.071474195
190	0x3dc89292	0.09793581
191	0xba9469e2	-0.001132306
192	0x3ddd468b	0.10804471
193	0xbcbd05f4	-0.023074128
194	0xbd4e848f	-0.050419386
195	0x3dd0ebdf	0.10201239
196	0xbcf2c102	-0.029633049
197	0xbcbeb77e	-0.023280855
198	0x3e2f9e33	0.17150192
199	0x3d5712b3	0.052508067
200	0xbd7b7f69	-0.061400805
201	0x3bdac0e6	0.0066758273
202	0x3d70d36b	0.058795374
203	0xbd66f707	-0.056387927
204	0xbc53f4ae	-0.012936754
205	0xbd621395	-0.055194456
206	0xbd56c5ae	-0.052434616
207	0xbd9140d6	-0.070924446
208	0xbd205a2f	-0.039148506
209	0xbccde221	-0.02513224
210	0x3d9b3ed8	0.07580346
211	0xbe122be4	-0.14274555
212	0xbdcf8ec8	-0.10134655
213	0xbc518728	-0.012788571
214	0xbe79251d	-0.24330564
215	0x3deeedfc	0.11666486
216	0x3b957448	0.004560981
217	0xbd0de4c7	-0.034642007
218	0x3e1d79f4	0.15378553
219	0xbdd0fd23	-0.10204532
220	0x3d97cde5	0.07412318
221	0xbd446c73	-0.047954988
222	0x3d6abe23	0.057310235
223	0x3dad1f03	0.08453181
224	0x3d25f774	0.040519193
225	0xbdd8d192	-0.10586847
226	0x3de14e5b	0.11001273
227	0xbdd278ed	-0.10276971
228	0xbe523990	-0.20529771
229	0xbd1ce850	-0.038307488
230	0x3d6ebba0	0.058284402
231	0x3e439893	0.19101171
232	0x3c67abad	0.014140052
233	0xbdff9402	-0.12479402
234	0x3e0e9be8	0.13926661
235	0x3da97ed6	0.08276145
236	0x3e17b7d5	0.1481622
237	0x3dc85221	0.0978129
238	0xbc3cc67d	-0.011521933
239	0x3d76b208	0.060228378
240	0x3d8f8b41	0.070089824
241	0xbdd58309	-0.104253836
242	0xbdee16ae	-0.116254196
243	0xbcfee9dd	-0.031117374
244	0xbd25156f	-0.040303644
245	0x3d4dc429	0.0502359
246	0xbd88dd86	-0.06682877
247	0x3cb001b3	0.021485185
248	0x3d6392c4	0.05555989
249	0xbdda4c56	-0.10659091
250	0xbc24bad0	-0.010054305
251	0x3e361f5b	0.17785399
252	0xbdb1416e	-0.08655058
253	0x3d7abd59	0.061215732
254	0x3bdd0e1a	0.006746066
255	0xbe82b4a6	-0.2552845

bias f4 [32]
0	0x3dcb4add	0.099263884
1	0xbe0d0f35	-0.13775332
2	0xbe9451c3	-0.2896863
3	0x3d69be2b	0.057066124
4	0xbdcee9e2	-0.10103203
5	0xbe1190db	-0.14215414
6	0x3e7cb374	0.24677831
7	0xbe4e0f05	-0.20122917
8	0xbd516173	-0.051118325
9	0xbdfd1255	-0.12357012
10	0xbc07423b	-0.008255537
11	0xbd49652d	-0.049168754
12	0x3e84f784	0.2597009
13	0x3e4c45cc	0.199485
14	0x3d470339	0.048587058
15	0x3d1fc121	0.03900254
16	0xbd4f0972	-0.050546117
17	0x3e54d5ae	0.20784637
18	0xbd851703	-0.0649853
19	0xbe27e27d	-0.16394992
20	0x3da07dc2	0.078364864
21	0xbc121a13	-0.008917349
22	0x3cdeb80b	0.027187368
23	0x3ca4e5b0	0.020129055
24	0xbdf6e8e3	-0.12056138
25	0xbe00da99	-0.12583388
26	0x3e308bd6	0.17240843
27	0x3d60ed56	0.05491384
28	0x3d89f0b3	0.06735363
29	0x3e80cb7e	0.25155252
30	0xbe6ff6a6	-0.23433933
31	0xbd6edf7c	-0.0583186
