models/residual_denoiser_all_dropout_0.01_80.pt (torch_old, 371185 bytes, 51 tensors)

weight f4 [16, 1, 3, 3]
-0.32418862 0.10960353 0.16891253 0.22659065 0.23696892 -0.09766514 0.047527082 -0.19204994
-0.19281077 0.12951915 -0.17484139 -0.017019123 -0.20846996 0.06607969 0.25555903 -0.080634244
0.27766633 -0.27989024 -0.1186761 -0.21148725 0.17938757 -0.049961038 -0.27468497 0.13683492
0.09955272 -0.120012686 0.3743699 0.004937863 -0.02166481 -0.13133247 -0.21216962 -0.0758604
-0.28848884 0.067787014 0.16598159 0.17954709 0.3990125 0.26702344 0.30808845 -0.1318335
-0.0913032 -0.11479704 0.06509877 0.13019165 0.04960923 -0.1927429 0.02582219 0.13475859
-0.26457107 0.0861074 -0.109450996 -0.3030072 0.10792072 0.15134773 0.12602068 0.038538706
-0.009339795 0.5786685 0.026066808 0.034628637 0.30211902 -0.08838951 0.018976333 0.273358
-0.13028258 -0.061743606 0.09306194 -0.22151726 -0.074572995 -0.0559756 -0.16333085 0.26717228
-0.11715068 0.13849072 -0.18388209 -0.018989775 -0.100937046 -0.2470493 -0.12900214 -0.07474532
-0.2699356 0.11222072 -0.10302555 0.001377385 0.8729423 0.46713993 0.79940355 0.0692912
-0.07710424 -0.10688051 0.19543913 -0.097568296 0.18202487 -0.006154569 -0.085582875 0.15466885
-0.16929317 -0.32090405 0.06528825 -0.10780871 0.07501766 0.10287317 -0.057059795 0.67854315
0.40225622 -0.050379604 0.32265148 0.038331807 0.07764932 0.4004703 -0.26004153 -0.030938128
0.00039309755 -0.19532457 -0.15833881 0.16355112 -0.023339128 -0.07501959 -0.006125576 0.04379289
-0.1577511 -0.28498554 -0.123474985 0.3941898 0.16932878 -0.011760213 0.10723403 -0.17017946
-0.0645691 0.21468209 -0.0075850105 0.08471833 -0.109530695 -0.31388378 -0.23210916 0.075638
0.10612068 -0.08206092 -0.10281214 0.12126681 -0.29179567 -0.1284669 0.20743424 -0.17008752
00000000: 0dfc a5be d177 e03d 68f7 2c3e 6107 683e
00000010: fba7 723e a904 c8bd c2ab 423d bda8 44be
00000020: 3070 45be aba0 043e 9f09 33be b06b 8bbc
00000030: 2679 55be ca54 873d a2d8 823e 9123 a5bd
00000040: 482a 8e3e c64d 8fbe 750c f3bd 1d90 58be
00000050: 60b1 373e f2a3 4cbd 82a3 8cbe 741e 0c3e
00000060: 4ce2 cb3d 36c9 f5bd 69ad bf3e cccd a13b
00000070: 667a b1bc 057c 06be fe42 59be b35c 9bbd
00000080: cfb4 93be ebd3 8a3d 14f7 293e 31db 373e
00000090: 5e4b cc3e 4cb7 883e c5bd 9d3e 5cff 06be
000000a0: 2cfd babd b61a ebbd 8152 853d f650 053e
000000b0: 0c33 4b3d 655e 45be 0f89 d33c 28fe 093e
000000c0: dc75 87be 1459 b03d d827 e0bd c223 9bbe
000000d0: 8a05 dd3d e6fa 1a3e 910b 013e c3da 1d3d
000000e0: f105 19bc 9e23 143f 0f8a d53c c2d6 0d3d
000000f0: 58af 9a3e 8f05 b5bd 4174 9b3c 94f5 8b3e
00000100: cc68 05be dde6 7cbd 4297 be3d 6cd5 62be
00000110: bab9 98bd ac46 65bd 3440 27be ceca 883e
00000120: b2ec efbd 83d0 0d3e 964b 3cbe 7290 9bbc
00000130: 15b8 cebd 7efa 7cbe 2319 04be 1314 99bd
00000140: 0035 8abe fad3 e53d 0fff d2bd 5f89 b43a
00000150: 2679 5f3f f72c ef3e b6a5 4c3f 8be8 8d3d
00000160: d4e8 9dbd 2be4 dabd 3221 483e e3d1 c7bd
00000170: ba64 3a3e 44ac c9bb 1346 afbd 8361 1e3e
00000180: 305b 2dbe 894d a4be d9b5 853d d0ca dcbd
00000190: dca2 993d 2baf d23d 88b7 69bd 01b5 2d3f
000001a0: 87f4 cd3e d85a 4ebd 9332 a53e d001 1d3d
000001b0: 9b06 9f3d 710a cd3e 2a24 85be f571 fdbc
000001c0: a918 ce39 2a03 48be 9223 22be f279 273e
000001d0: b331 bfbc dfa3 99bd 0eb9 c8bb 2c60 333d
000001e0: 8189 21be a0e9 91be 74e0 fcbd 3fd3 c93e
000001f0: 8664 2d3e e9ad 40bc 849d db3d 8643 2ebe
00000200: ce3c 84bd 9fd5 5b3e ae8b f8bb ce80 ad3d
00000210: a151 e0bd 60b5 a0be 06ae 6dbe 19e8 9a3d
00000220: cd55 d93d 8e0f a8bd 2c8f d2bd bc5a f83d
00000230: 3e66 95be d48c 03be a469 543e 6c2b 2ebe

bias f4 [16]
-0.09220408 0.26553455 -0.16666663 -0.047882836 0.23462164 -0.18326904 0.15598756 0.12200513
0.3314076 0.16512078 -0.007912869 -0.13311417 -0.29476446 0.31696835 0.2857769 -0.21889143
00000000: 7ed5 bcbd 25f4 873e a8aa 2abe cb20 44bd
00000010: a840 703e e1aa 3bbe 34bb 1f3e d3dd f93d
00000020: 42ae a93e 6c15 293e faa4 01bc 154f 08be
00000030: 5eeb 96be ad49 a23e 5a51 923e 1325 60be

weight f4 [16]
0.24894105 0.22281776 0.24884248 0.46083024 0.22553165 0.22744547 0.51713926 0.57491463
0.47555742 0.2004363 0.3902509 0.8876174 0.2599334 0.22118601 0.4777459 0.22125684
00000000: 67ea 7e3e 572a 643e 90d0 7e3e f1f1 eb3e
00000010: c5f1 663e 77e7 683e 3d63 043f 9b2d 133f
00000020: 437c f33e 2c3f 4d3e f7ce c73e e53a 633f
00000030: fe15 853e 967e 623e 1c9b f43e 2791 623e

bias f4 [16]
-0.13796398 -0.13998544 -0.08067576 -0.036352914 -0.2825384 -0.02807516 -0.0654339 -0.2709224
0.12916332 -0.28811905 -0.090626955 -0.44405088 -0.121834695 -0.08374499 0.39965945 0.11189926
00000000: 6e46 0dbe 5858 0fbe 5539 a5bd cbe6 14bd
00000010: e0a8 90be e1fd e5bc 3502 86bd 57b6 8abe
00000020: 6443 043e 5784 93be a09a b9bd a35a e3be
00000030: 7884 f9bd 7e82 abbd 2aa0 cc3e 702b e53d

running_mean f4 [16]
-0.09871748 0.24831977 -0.15736815 -0.21385436 0.6957945 -0.38367638 0.698943 0.07814546
-0.20822616 1.2620094 -0.05789784 0.6298915 -0.30886924 0.2872239 0.0214839 -0.36400756
00000000: 642c cabd 8a47 7e3e 1e25 21be a3fc 5abe
00000010: 971f 323f 3b71 c4be eeed 323f ba0a a03d
00000020: 3d39 55be 8689 a13f 4926 6dbd 9240 213f
00000030: 1c24 9ebe 030f 933e 01ff af3c 335f babe

running_var f4 [16]
0.0006987962 0.00060115487 0.0023632878 0.006056279 0.047944456 0.01319661 0.06342563 0.0015938651
0.053393483 0.23085478 0.002627437 0.10906378 0.001526776 0.0014517779 0.014008101 0.004750906
00000000: 6b2f 373a d296 1d3a 64e1 1a3b c073 c63b
00000010: 6861 443d 9836 583c 4ce5 813d 3de9 d03a
00000020: 20b3 5a3d 3265 6c3e 1431 2c3b d55c df3d
00000030: 1a1e c83a 9549 be3a 3c82 653c 7dad 9b3b

weight f4 [32, 16, 3, 3]
0.08444796 -0.043270953 -0.028472198 0.06181715 -0.00507477 0.022715593 0.051777396 0.13357855
0.013914039 0.096121475 -0.10122746 0.022408344 0.09316989 -0.024775054 0.04607978 -0.028079534
-0.013850064 0.1684515 0.15243007 -0.22313446 -0.048161328 -0.01602385 -0.06538643 0.13550124
0.11514742 -0.17447609 0.100135505 -0.048155412 0.027952313 -0.028850652 -0.038235374 -0.05529369
-0.035370544 -0.08357151 -0.058606055 -0.022094134 -0.074036025 -0.07619278 0.15678987 -0.19222847
0.069119856 0.2455296 -0.06616102 0.28129816 0.32365555 0.1306833 -0.122938216 -0.0134166395
0.124198206 -0.10515509 0.15818506 -0.044242397 -0.16734874 0.15911326 -0.046431843 0.01899046
-0.050158124 -0.14756158 0.027471473 0.016292907 -0.15733992 -0.08373062 0.10540471 0.031078901
0.060477596 -0.015067381 0.14366294 0.12109493 0.16508463 0.03445606 0.055928648 0.046286985
-0.05424819 -0.07062818 -0.06493915 0.09331991 0.09730417 0.11274143 -0.08870595 -0.037608
-0.051126607 -0.073163554 0.09201657 0.15589668 0.59477556 0.6913392 0.69347775 0.35103214
0.42601806 0.638507 0.026454322 -0.14734294 0.07484473 0.045027908 -0.19848348 -0.03360985
0.086510316 -0.32110563 0.06361109 0.041380048 0.1529882 0.09283526 0.102349475 0.42579234
0.2792666 -0.09369569 0.3895614 0.18528982 0.019850561 0.014114681 -0.029036641 -0.043803006
0.1015482 -0.031165918 0.058161158 0.24557158 0.107568316 -0.0911091 0.054419283 -0.0381371
0.044686515 0.30400783 0.18460898 0.012778762 0.20523141 -0.0028925103 0.007611967 0.11654198
-0.08287783 -0.043495234 0.12583938 -0.15723258 -0.038918115 0.27700824 0.055213112 -0.043284237
0.045120373 0.027613392 0.19071741 0.32700288 0.3467613 -0.105340876 0.17992368 0.20427409
0.19462644 -0.24026825 -0.12130995 0.23481104 -0.12773941 0.12861758 0.26445115 -0.24523628
0.2112425 0.29320598 -0.09567458 0.18918502 0.12161732 0.024210164 0.08469086 -0.2386216
0.14793788 0.20773171 0.058677293 -0.008328239 0.027945355 -0.10248925 0.19910173 -0.008313642
-0.053116165 0.29018277 -0.11408029 -0.073915415 -0.010687052 0.11672243 -0.4621779 -0.022828689
0.09279395 -0.025489673 -0.15350035 0.07375376 -0.12135641 0.3002996 0.1258089 0.20985119
0.4062522 0.4562698 -0.10211667 0.08217045 0.14707123 0.075116664 0.08794764 0.28516522
-0.02977121 0.020344263 0.26282892 -0.04661599 0.03496209 0.025664248 -0.14090465 -0.04486172
-0.0360011 -0.106493466 0.2511341 0.008021604 -0.100871325 0.090888135 -0.12065774 0.12981963
-0.33065933 -0.086600855 0.0015333861 -0.17864743 -0.071208626 0.1594699 -0.03982448 0.032493968
-0.19551076 -0.026236862 0.10693105 0.23195681 -0.13555545 0.20694238 -0.11931248 -0.18734692
-0.018426506 0.114309914 0.5563508 0.4648159 0.8594289 0.9908137 1.1241853 -0.5073774
-0.25931463 0.04390025 -0.08872526 -0.12644394 -0.05718246 0.15580314 0.18980834 0.15262029
0.13213336 0.26482767 0.20373967 0.025166359 0.11209082 -0.24232818 0.040606588 0.22718517
0.111987084 -0.12557754 -0.17014109 -0.1333604 0.17833622 -0.2983443 0.017663334 0.117407575
00000000: 0df3 ac3d e23c 31bd 873e e9bc fb33 7d3d
00000010: 424a a6bb 0d16 ba3c 8914 543d d1c8 083e
00000020: b6f7 633c 56db c43d 5850 cfbd b491 b73c
00000030: dbcf be3d 0ef5 cabc 27be 3c3d 0d07 e6bc
00000040: 61eb 62bc 8d7e 2c3e a116 1c3e 5c7d 64be
00000050: d044 45bd 7344 83bc 52e9 85bd d6c0 0a3e
00000060: 69d2 eb3d dca9 32be d813 cd3d 9c3e 45bd
00000070: 40fc e43c 3458 ecbc b29c 1cbd a37b 62bd
00000080: b4e0 10bd 8a27 abbd e70c 70bd c2fe b4bc
00000090: 33a0 97bd f60a 9cbd 868d 203e 8ad7 44be
000000a0: b68e 8d3d 1d6c 7b3e 6e7f 87bd 5006 903e
000000b0: 2eb6 a53e d8d1 053e 08c7 fbbd 77d1 5bbc
000000c0: a15b fe3d 8d5b d7bd 44fb 213e 8437 35bd
000000d0: 785d 2bbe 96ee 223e 512f 3ebd e291 9b3c
000000e0: 9b72 4dbd 621a 17be db0b e13c b478 853c
000000f0: b71d 21be f67a abbd 6dde d73d 2e99 fe3c
00000100: 5bb7 773d 2ddd 76bc 611c 133e 9e00 f83d
00000110: f20b 293e cc21 0d3d 7015 653d 6c97 3d3d
00000120: 5a33 5ebd 82a5 90bd d1fe 84bd 821e bf3d
00000130: 6947 c73d fbe4 e63d 77ab b5bd d90a 1abd
00000140: 226a 51bd c6d6 95bd 2f73 bc3d 61a3 1f3e
00000150: 3643 183f 9bfb 303f c287 313f 7cba b33e
00000160: 0a1f da3e 3275 233f bcb6 d83c 11e1 16be
00000170: 3248 993d 2f6f 383d 413f 4bbe 7baa 09bd
00000180: 522c b13d f567 a4be 8846 823d 207e 293d
00000190: f0a8 1c3e 6a20 be3d 9a9c d13d 7401 da3e
000001a0: 08fc 8e3e 87e3 bfbd 9874 c73e 9dbc 3d3e
000001b0: a59d a23c 4341 673c 40de edbc c86a 33bd
000001c0: 81f8 cf3d ab4f ffbc 653a 6e3d 1e77 7b3e
000001d0: c74c dc3d 6897 babd c1e6 5e3d a635 1cbd
000001e0: 3509 373d eaa6 9b3e 230a 3d3e 035e 513c
000001f0: 2f28 523e 4590 3dbb cf6d f93b 90ad ee3d
00000200: dabb a9bd 0f28 32bd 0adc 003e 9401 21be
00000210: 9a68 1fbd 06d4 8d3e 2527 623d d04a 31bd
00000220: 24d0 383d 7b35 e23c 6d4b 433e ec6c a73e
00000230: b28a b13e f5bc d7bd ea3d 383e 3a2d 513e
00000240: 274c 473e e108 76be 5a71 f8bd 4e72 703e
00000250: 1fce 02be 54b4 033e 2466 873e 381f 7bbe
00000260: f44f 583e 181f 963e 09f1 c3bd b8b9 413e
00000270: 8012 f93d 6554 c63c 6772 ad3d 3959 74be
00000280: 077d 173e 9fb7 543e 9a57 703d 2b73 08bc
00000290: a8ed e43c e2e5 d1bd 53e1 4b3e f135 08bc
000002a0: 5690 59bd d692 943e eda2 e9bd f760 97bd
000002b0: bf18 2fbc 2b0c ef3d 95a2 ecbe 3b03 bbbc
000002c0: c10a be3d b8cf d0bc 322f 1dbe 360c 973d
000002d0: b689 f8bd dfc0 993e 0cd4 003e 3be3 563e
000002e0: 4a00 d03e 329c e93e 8b22 d1bd fb48 a83d
000002f0: d799 163e c4d6 993d e41d b43d 2d01 923e
00000300: c1e2 f3bc 03a9 a63c 8391 863e 69f0 3ebd
00000310: 6934 0f3d d43d d23c 4f49 10be ecc0 37bd
00000320: e475 13bd 3f19 dabd a694 803e 0c6d 033c
00000330: a095 cebd 8f23 ba3d 681b f7bd 70ef 043e
00000340: 2e4c a9be ca5b b1bd e6fb c83a 5aef 36be
00000350: d4d5 91bd 144c 233e fe1e 23bd 6518 053d
00000360: f933 48be b0ee d6bc abfe da3d 1686 6d3e
00000370: 0ccf 0abe b4e8 533e 1a5a f4bd dfd7 3fbe
00000380: 2ff3 96bc 511b ea3d 026d 0e3f 5afc ed3e
00000390: 8803 5c3f f7a5 7d3f 4ee5 8f3f 7ce3 01bf
000003a0: e3c4 84be c0d0 333d 97b5 b5bd 857a 01be
000003b0: 2838 6abd dc8a 1f3e 1e5d 423e 7e48 1c3e
000003c0: f84d 073e 7e97 873e 22a1 503e ae29 ce3c
000003d0: df8f e53d e124 78be 1853 263d 3ba3 683e
000003e0: 7c59 e53d 6697 00be 7739 2ebe a18f 08be
000003f0: c59d 363e 96c0 98be b2b2 903c 6273 f03d

bias f4 [32]
0.09937817 -0.02947658 0.05199779 -0.10589921 -0.07106156 -0.033311993 -0.097687215 -0.07709523
-0.16383371 -0.045086935 0.08316309 -0.14877586 -0.012934031 0.1329311 0.2931618 -0.0031563079
0.20037952 -0.01861568 0.03614775 0.016250052 -0.012441776 0.021597907 -0.24931023 0.14248364
0.00662656 0.14943862 0.13896078 -0.08404138 -0.12522201 0.009683644 -0.06434366 -0.045644213
00000000: c886 cb3d de78 f1bc a2fb 543d afe1 d8bd
00000010: b988 91bd 2872 08bd 3c10 c8bd 1be4 9dbd
00000020: 06c4 27be 14ad 38bd 6951 aa3d b358 18be
00000030: 42e9 53bc 171f 083e 4e19 963e 0fda 4ebb
00000040: 4a30 4d3e e97f 98bc aa0f 143d d41e 853c
00000050: 97d8 4bbc 18ee b03c 2e4b 7fbe 3be7 113e
00000060: 9d23 d93b 7006 193e bc4b 0e3e e31d acbd
00000070: 333a 00be 26a8 1e3c 9cc6 83bd 6df5 3abd

weight f4 [32]
0.41972473 0.4268215 0.73665726 0.5636243 0.54597336 0.44896197 0.48867273 0.37730795
0.8488314 0.48018473 0.5829215 0.6217015 0.45504206 0.4355496 0.36729595 0.5255089
0.7109821 0.33503288 0.54427284 0.5940408 0.32554594 0.5138921 0.35980532 0.5790444
0.490604 0.78989947 0.57319057 0.6261096 0.37072676 0.8131294 0.41411868 0.7058608
00000000: 29e6 d63e 5988 da3e 9295 3c3f af49 103f
00000010: e9c4 0b3f 58de e53e 5033 fa3e 822e c13e
00000020: 044d 593f c6da f53e 583a 153f d427 1f3f
00000030: 46fb e83e 5b00 df3e 370e bc3e c087 063f
00000040: ec02 363f 6e89 ab3e 7755 0b3f 0f13 183f
00000050: f5ad a63e 6f8e 033f 6738 b83e 413c 143f
00000060: 7330 fb3e da36 4a3f 9ebc 123f b848 203f
00000070: e6cf bd3e 4029 503f 5d07 d43e 4bb3 343f

bias f4 [32]
-0.44911876 -0.20465048 -0.5015139 -0.17843941 -0.016294785 -0.44224542 0.015984353 -0.17831734
-0.17608829 0.0022476905 -0.521453 -0.13870159 0.02871289 0.06402392 -0.030333977 -0.08309447
-0.24201247 0.10508591 -0.12115956 -0.20036468 -0.32742336 -0.056858562 -0.3788511 -0.051952574
-0.06268089 -0.40659127 -0.1454969 -0.088811055 -0.06794379 -0.2758539 0.0364386 -0.34739426
00000000: e5f2 e5be e58f 51be 3763 00bf d2b8 36be
00000010: a47c 85bc fe6d e2be 9ef1 823c d298 36be
00000020: 7d50 34be fd4d 133b f27d 05bf ca07 0ebe
00000030: 4b37 eb3c f91e 833d f67e f8bc 6f2d aabd
00000040: 1ed2 77be 4837 d73d 8122 f8bd 662c 4dbe
00000050: 09a4 a7be 86e4 68bd c5f8 c1be 39cc 54bd
00000060: d75e 80bd bb2c d0be 24fd 14be 92e2 b5bd
00000070: 1d26 8bbd b93c 8dbe a440 153d a9dd b1be

running_mean f4 [32]
0.5688237 -0.26923126 -0.063002914 -0.13116793 -0.117896006 0.507586 -0.13654956 -0.016527751
-0.86135393 -0.6943141 0.4685233 0.15438768 -0.43034104 -0.009323184 0.33711404 -0.055779915
-0.15166375 -0.56199884 0.011843343 -0.17731991 0.37378147 -0.039534386 -0.009453758 -0.09053429
-0.045483105 -0.02071988 -0.42592788 -0.581003 0.002373542 -0.6019116 -0.020284196 -0.39524588
00000000: 6e9e 113f aed8 89be ac07 81bd e350 06be
00000010: 7673 f1bd 28f1 013f a6d3 0bbe 3565 87bc
00000020: b181 5cbf 92be 31bf 49e2 ef3e ce17 1e3e
00000030: a955 dcbe 45c0 18bc 369a ac3e 7b79 64bd
00000040: be4d 1bbe 28df 0fbf 950a 423c 5a93 35be
00000050: 4960 bf3e cfee 21bd efe3 1abc 0b6a b9bd
00000060: 7e4c 3abd bdbc a9bc 3813 dabe 9dbc 14bf
00000070: 6d8d 1b3b e116 1abf 0b2b a6bc ab5d cabe

running_var f4 [32]
0.12559663 0.13746172 0.17834434 0.11917695 0.16925506 0.26134613 0.09265081 0.103888795
0.46246767 0.25240117 0.24291389 0.60015005 0.20698097 0.2616249 0.037562568 0.3797006
0.2733365 0.18910901 0.09324284 0.34510887 0.07302096 0.4662793 0.09309595 0.10814276
0.13420223 0.26531714 0.35137016 0.30727863 0.21751568 0.45337778 0.038771458 0.22494352
00000000: 679c 003e c4c2 0c3e e69f 363e 0b13 f43d
00000010: 3351 2d3e 29cf 853e b5bf bd3d a6c3 d43d
00000020: 90c8 ec3e ba3a 813e 6bbe 783e 6fa3 193f
00000030: d2f2 533e b3f3 853e 35db 193d 1e68 c23e
00000040: c3f2 8b3e cba5 413e 1af6 be3d 1cb2 b03e
00000050: 038c 953d 29bc ee3e 17a9 be3d f479 dd3d
00000060: 4f6c 093e a6d7 873e cae6 b33e a053 9d3e
00000070: 6ebc 5e3e 2221 e83e d2ce 1e3d 9857 663e

weight f4 [64, 32, 3, 3]
-0.12431345 -0.37526655 -0.13067736 -0.10885104 0.00670551 0.0760616 -0.24504673 -0.27861667
-0.22543202 0.009565562 0.2678533 0.036288615 0.04601007 -0.31295156 0.14108697 0.045180194
0.15400776 0.12826626 -0.036255226 0.050538566 0.23512568 0.07587794 -0.024718411 -0.0032046824
-0.11180645 0.22911896 -0.034529224 -0.074381344 0.20131584 -0.08150386 -0.018610321 -0.3067522
-0.07119596 -0.11396802 0.19131896 -0.18669312 -0.032536656 -0.060070723 -0.03913436 0.07527454
-0.009720971 0.096584834 0.06895071 0.27356666 0.08037283 -0.10343343 -0.09961092 -0.040702943
-0.158471 0.23089665 0.14760762 0.00074063183 0.26862264 -0.047821395 0.019024754 -0.020852389
-0.108367816 0.08052213 0.10098652 -0.054915097 -0.183517 -0.2514341 -0.073620535 -0.10404996
-0.03895323 0.013465569 -0.13042004 -0.30945417 -0.039970297 -0.16104218 0.032985207 0.085944325
-0.0696815 -0.1775106 -0.092737176 0.05530439 0.26987544 0.030519301 -0.07142951 -0.23590206
-0.010241747 0.0930585 0.14881366 0.01566594 0.054955486 -0.062474538 -0.058584955 0.07325208
-0.14390066 -0.12521343 -0.16538656 -0.14610206 0.015028984 0.016089063 0.028705584 0.02144461
-0.2348245 -0.36354855 -0.28728917 0.039520785 -0.112575024 0.21519248 0.054674942 -0.091228224
0.12357892 0.11028366 0.0044967034 0.1340414 0.015811283 -0.0888924 -0.12869333 0.01742495
0.24426794 0.11330492 0.06560591 0.082193755 0.21136294 0.018992048 0.10368096 -0.026098205
0.1339128 -0.5160875 0.0018218264 0.03584052 0.21924625 -0.07462026 -0.0151869245 -0.09928139
0.03510779 0.08258827 -0.1644054 0.011459126 -0.08978496 -0.025477689 0.09876772 0.073792316
-0.0055574835 -0.009444352 0.12551579 -0.033960227 0.06565952 0.042573154 0.03222076 0.09346791
-0.048331708 -0.06765308 -0.06699187 0.044810124 -0.08969013 0.04742433 -0.14479552 0.024225473
-0.07186802 0.024009002 -0.12875141 -0.079431824 0.20360455 0.08780065 -0.10737418 0.09463372
-0.19453117 0.037689585 -0.00024265717 0.06145392 -0.001492879 -0.088732675 -0.24781272 -0.19893269
0.013345842 -0.065342486 -0.03607741 -0.00073734135 -0.05231585 -0.0064328085 0.0354471 -0.30850008
0.04983652 0.07951024 0.2616682 0.0013343855 -0.38530174 -0.043122824 -0.11826154 -0.40512595
0.26817995 0.085727915 -0.14821613 -0.022619512 -0.33841532 0.15517388 -0.09430762 0.12150029
0.13596565 -0.0020351543 0.016669111 -0.03357595 0.08081048 -0.10624792 -0.10017648 -0.038689096
0.08406271 -0.19406977 -0.21197143 0.32835007 0.22898515 -0.13422176 0.08508249 -0.1929305
0.011949055 -0.029867588 0.10163683 -0.41139 0.08987666 -0.11793668 -0.0058097956 -0.0401346
0.036798067 0.046107884 0.087732114 -0.047823 -0.3569627 -0.19907804 -0.13333003 -0.2642302
-0.11897176 0.08232506 -0.17706592 -0.14803919 -0.0887425 0.1225543 0.09372896 0.10520732
-0.24715443 0.1629577 -0.023738746 0.08682501 -0.10878633 -0.09966427 0.19966586 -0.027153527
0.01409212 -0.15876207 0.047137886 -0.029609721 0.012023061 -0.023016876 -0.13433392 0.076509036
0.1989016 -0.013553993 -0.2457516 0.006249037 -0.21296757 -0.016604949 0.079639316 0.01408468
00000000: 0d98 febd f022 c0be 49d0 05be 4bed debd
00000010: e5b9 db3b 2fc6 9b3d 88ed 7abe d8a6 8ebe
00000020: a7d7 66be e0b8 1c3c 1124 893e 5fa3 143d
00000030: 0e75 3c3d 303b a0be 1a79 103e de0e 393d
00000040: 36b4 1d3e 3b58 033e 5c80 14bd 8701 4f3d
00000050: c9c4 703e e565 9b3d 447e cabc a605 52bb
00000060: c8fa e4bd 299e 6a3e 846e 0dbd 3f55 98bd
00000070: bd25 4e3e 7feb a6bd ac74 98bc a00e 9dbe
00000080: 30cf 91bd 1168 e9bd 1ee9 433e 7b2c 3fbe
00000090: 2845 05bd b80c 76bd 5a4b 20bd 8a29 9a3d
000000a0: b544 1fbc 45ce c53d 0836 8d3d ee10 8c3e
000000b0: 839a a43d e8d4 d3bd cf00 ccbd 21b8 26bd
000000c0: 3946 22be 2c70 6c3e 7426 173e f626 423a
000000d0: e888 893e 5ee0 43bd cdd9 9b3c a1d2 aabc
000000e0: f2ef ddbd c9e8 a43d 05d2 ce3d a7ee 60bd
000000f0: e1eb 3bbe f8bb 80be 5dc6 96bd 2518 d5bd
00000100: 6c8d 1fbd b19e 5c3c d58c 05be c770 9ebe
00000110: e5b7 23bd 3ee8 24be 7f1b 073d 9403 b03d
00000120: 2db5 8ebd 57c5 35be fdec bdbd db86 623d
00000130: 1d2d 8a3e 9d03 fa3c a349 92bd 4f90 71be
00000140: 00cd 27bc 7495 be3d 9c62 183e db55 803c
00000150: 0119 613d 4de5 7fbd c7f6 6fbd 3005 963d
00000160: b25a 13be f337 00be 185b 29be c79b 15be
00000170: 213c 763c 36cd 833c f927 eb3c 9bac af3c
00000180: d575 70be 0923 babe 9117 93be 8ce0 213d
00000190: bc8d e6bd 6b5b 5c3e d5f2 5f3d ddd5 babd
000001a0: f216 fd3d 66dc e13d 1559 933b 2642 093e
000001b0: aa86 813c 380d b6bd 2fc8 03be c5be 8e3c
000001c0: 6021 7a3e 690c e83d 645c 863d 3355 a83d
000001d0: 876f 583e 3695 9b3c af56 d43d e7cb d5bc
000001e0: 7020 093e 4f1e 04bf 5aca ee3a 82cd 123d
000001f0: 1782 603e 82d2 98bd 94d2 78bc 0b54 cbbd
00000200: 30cd 0f3d 0a24 a93d e459 28be 0fbf 3b3c
00000210: 2de1 b7bd 96b6 d0bc bb46 ca3d 6d20 973d
00000220: 8d1b b6bb 7cbc 1abc 3687 003e e119 0bbd
00000230: 8078 863d 3061 2e3d eaf9 033d 1b6c bf3d
00000240: 78f7 45bd b38d 8abd 0933 89bd d28a 373d
00000250: 75af b7bd 0440 423d 4745 14be 8074 c63c
00000260: 8a2f 93bd 87ae c43c 69d7 03be 27ad a2bd
00000270: b67d 503e d4d0 b33d fee6 dbbd 53cf c13d
00000280: 2e33 47be 6560 1a3d ca71 7eb9 1bb7 7b3d
00000290: b5ac c3ba 7ab9 b5bd 9ec2 7dbe 03b5 4bbe
000002a0: 85a8 5a3c 48d2 85bd e8c5 13bd 244a 41ba
000002b0: 2549 56bd 4fca d2bb fa30 113d b9f3 9dbe
000002c0: 6121 4c3d 44d6 a23d 60f9 853e 8ce6 ae3a
000002d0: 4546 c5be 8fa1 30bd 1b33 f2bd ab6c cfbe
000002e0: e24e 893e 1e92 af3d f8c5 17be 8e4c b9bc
000002f0: c644 adbe e7e5 1e3e 5a24 c1bd 25d5 f83d
00000300: 943a 0b3e 3960 05bb a98d 883c ef86 09bd
00000310: f77f a53d 8298 d9bd 5429 cdbd 7578 1ebd
00000320: 1229 ac3d 3aba 46be 0a0f 59be 801d a83e
00000330: 157b 6a3e 6e71 09be bb3f ae3d 938f 45be
00000340: f8c5 433c dfac f4bc f826 d03d b6a1 d2be
00000350: 4111 b83d c988 f1bd 1960 bebb 2e64 24bd
00000360: 92b9 163d 9fdb 3c3d e5ac b33d 0de2 43bd
00000370: d1c3 b6be 1ddb 4bbe ab87 08be 2e49 87be
00000380: 77a7 f3bd 0b9a a83d c550 35be 9697 17be
00000390: a1be b5bd c0fd fa3d f8f4 bf3d ef76 d73d
000003a0: 0d16 7dbe 62de 263e c277 c2bc 50d1 b13d
000003b0: 5ecb debd c81c ccbd 3575 4c3e 1371 debc
000003c0: a3e2 663c 8692 22be a813 413d 1690 f2bc
000003d0: 5ffc 443c e38d bcbc d58e 09be c5b0 9c3d
000003e0: dcac 4b3e 9111 5ebc 4fa6 7bbe b9c4 cc3b
000003f0: 2c14 5abe 1a07 88bc f019 a33d 6ec3 663c

bias f4 [64]
-0.1073287 -0.062410086 0.025175447 0.07730047 0.10473887 -0.010448216 -0.032443564 0.08125423
-0.0796568 0.06744864 0.017354848 0.05428789 -0.042006936 -0.023335101 0.009153274 -0.10639039
-0.07259583 -0.013402455 0.035961416 -0.10302324 -0.14074492 0.07608099 -0.05748528 -0.078180864
-0.043385707 0.0030797035 -0.06562564 -0.08952578 -0.09791155 -0.039208855 -0.022133607 0.0042857854
-0.035106044 -0.019456154 -0.1298222 0.09301771 -0.04309719 -0.0982761 -0.020707829 0.08273953
0.013627832 0.10413151 0.009162245 0.08340669 0.07690735 -0.099297516 0.037566174 0.053188197
-0.087104276 0.057720006 0.038421858 0.0902867 0.006973101 -0.07729585 -0.14600046 0.051630292
0.07475079 0.08106434 -0.0051474073 -0.12566154 -0.06568702 0.010745313 -0.07716898 -0.057848714
00000000: 26cf dbbd b8a1 7fbd bd3c ce3c b54f 9e3d
00000010: 5581 d63d ff2e 2bbc 8be3 04bd 9e68 a63d
00000020: 1b23 a3bd 8322 8a3d c12b 8e3c fb5c 5e3d
00000030: 770f 2cbd 4129 bfbc 9df7 153c 34e3 d9bd
00000040: 1fad 94bd f895 5bbc 474c 133d d9fd d2bd
00000050: 701f 10be 5ad0 9b3d af75 6bbd 4a1d a0bd
00000060: 36b5 31bd dad4 493b bc66 86bd 4b59 b7bd
00000070: da85 c8bd 7799 20bd 8a51 b5bc c66f 8c3b
00000080: 5bcb 0fbd 8362 9fbc 1cf0 04be 1280 be3d
00000090: ae86 30bd fb44 c9bd 77a3 a9bc 5873 a93d
000000a0: 4547 5f3c e742 d53d 3e1d 163c 20d1 aa3d
000000b0: 9a81 9d3d 7f5c cbbd fdde 193d dedb 593d
000000c0: ba63 b2bd d06b 6c3d 3d60 1d3d 3ce8 b83d
000000d0: 9c7e e43b 494d 9ebd 2581 15be 497a 533d
000000e0: f116 993d 1005 a63d 95ab a8bb 6bad 00be
000000f0: eb86 86bd 1c0d 303c c50a 9ebd c6f2 6cbd

weight f4 [64]
0.68581617 0.4372416 0.37969303 0.42953238 0.7863826 0.59210414 0.57751036 0.3234588
0.47837615 0.43060973 0.19892539 0.44573572 0.5260857 0.5157601 0.6449558 0.5335931
0.49921015 0.77547145 0.5875503 0.63100845 0.62140936 0.39125484 0.33903888 0.7107123
0.7291878 0.5812721 0.71322393 0.67679226 0.35010672 0.6722166 0.6861317 0.55916584
0.56440943 0.7363736 0.4026726 0.34934995 0.6791484 0.61957276 0.7083282 0.5087769
0.34164634 0.51503754 0.56923884 0.45793515 0.7248834 0.39787778 0.32699606 0.21439792
0.48095703 0.3868849 0.7390862 0.4745558 0.36445424 0.7668711 0.48556343 0.38827273
0.4347757 0.45169342 0.4286465 0.57725066 0.4274745 0.38284296 0.63997436 0.7267733
00000000: a691 2f3f 22de df3e 2067 c23e abeb db3e
00000010: 5f50 493f 2394 173f b8d7 133f 649c a53e
00000020: b8ed f43e e178 dc3e 19b3 4b3e 7937 e43e
00000030: 8dad 063f db08 043f d31b 253f 8f99 083f
00000040: 7998 ff3e 4c85 463f b269 163f c589 213f
00000050: af14 1f3f 8e52 c83e 8196 ad3e 3ef1 353f
00000060: 0dac 3a3f 40ce 143f d895 363f 4242 2d3f
00000070: 3041 b33e 6316 2c3f 54a6 2f3f 7e25 0f3f
00000080: 237d 103f fb82 3c3f 1a2b ce3e ffdd b23e
00000090: abdc 2d3f 529c 1e3f ff54 353f 343f 023f
000000a0: 45ec ae3e 80d9 033f a3b9 113f 7a76 ea3e
000000b0: f591 393f a3b6 cb3e 076c a73e 218b 5b3e
000000c0: 0040 f63e c715 c63e c134 3d3f faf8 f23e
000000d0: bf99 ba3e aa51 443f c59b f83e afcb c63e
000000e0: ec9a de3e 5c44 e73e 8e77 db3e b3c6 133f
000000f0: f0dd da3e fe03 c43e 5cd5 233f d10d 3a3f

bias f4 [64]
-0.17425685 -0.061040122 -0.18888637 -0.19309303 -0.22015058 -0.42529917 -0.23663451 0.0089457985
-0.14518173 -0.28254807 -0.37359536 -0.36513868 -0.24159518 -0.29858354 -0.28305048 -0.062732086
-0.30870485 -0.22850545 -0.21096718 -0.23175319 -0.2845039 -0.2685405 -0.142652 -0.14043505
-0.21495025 -0.17709938 -0.23454915 -0.29137594 -0.02654208 -0.35146222 -0.23190904 -0.21809474
-0.2283667 -0.12381032 -0.14035648 -0.15963335 -0.4602436 -0.43548992 -0.3119933 -0.10860437
0.0103736315 -0.13855812 -0.08460559 -0.12976573 -0.08308578 -0.013449108 -0.13951188 -0.35306883
-0.27498078 0.00092629093 -0.259604 -0.19900212 -0.1188095 -0.19787489 -0.2996607 -0.06932896
-0.27224478 0.0070615145 -0.17859717 -0.2669683 0.014264349 -0.01325682 -0.30023757 -0.4145719
00000000: 6370 32be 3505 7abd 6e6b 41be 2eba 45be
00000010: 276f 61be d0c0 d9be 5150 72be 6691 123c
00000020: 85aa 14be 24aa 90be e447 bfbe 75f3 babe
00000030: ba64 77be f1df 98be feeb 90be ae79 80bd
00000040: 900e 9ebe 55fd 69be c807 58be b550 6dbe
00000050: 7faa 91be 247e 89be 5e13 12be 35ce 0fbe
00000060: eb1b 5cbe 8a59 35be a72d 70be 3a2f 95be
00000070: c76e d9bc dbf2 b3be 9079 6dbe 3a54 5fbe
00000080: f6d8 69be 4490 fdbd 9cb9 0fbe ed76 23be
00000090: 0da5 ebbe 89f8 debe 96bd 9fbe f86b debd
000000a0: 2af6 293c 2ee2 0dbe b245 adbd 4fe1 04be
000000b0: e128 aabd a659 5cbc 34dc 0ebe 70c5 b4be
000000c0: 48ca 8cbe 55d2 723a d1ea 84be 36c7 4bbe
000000d0: 6552 f3bd b79f 4abe 216d 99be 57fc 8dbd
000000e0: ab63 8bbe 4764 e73b 2de2 36be 12b0 88be
000000f0: 04b5 693c 2233 59bc bdb8 99be c542 d4be

running_mean f4 [64]
-0.54760844 -0.1324363 0.017677698 -0.38046044 0.04900566 0.59631836 -0.36366278 -0.43206608
-0.045413766 -0.034929276 0.22780812 -0.25833347 -0.09214935 0.23481514 -0.77447677 -0.01091576
-0.5989586 -0.26987767 -0.61174375 -0.17938861 -0.6127748 -0.4513339 -0.54394704 -0.45544478
-0.45098773 -0.09809145 -0.5663709 -0.081011705 -0.7481006 -0.18364245 -0.69301146 0.051859062
0.4591624 -0.12669007 -0.07915194 0.10098958 0.08124937 -0.712235 0.0022289522 -0.3077754
0.40135932 -0.795698 -0.1062811 0.0557839 -0.48445037 0.02755931 -0.8241426 1.0460715
-0.34638524 0.066843666 -0.46278986 -0.16659679 -0.2884101 -1.027427 -0.44753885 -0.69955516
0.037688866 0.06995741 -0.8583278 -0.3002797 -0.43149474 0.27843538 -0.7827727 -0.4142505
00000000: 1130 0cbf 629d 07be d2d0 903c b6cb c2be
00000010: 29ba 483d 52a8 183f 0232 babe c437 ddbe
00000020: c903 3abd 0012 0fbd 8846 693e 4944 84be
00000030: ccb8 bcbd 6173 703e 1c44 46bf 04d8 32bc
00000040: 5a55 19bf 682d 8abe 3d9b 1cbf a6b1 37be
00000050: cfde 1cbf 3d15 e7be 1d40 0bbf 0f30 e9be
00000060: dde7 e6be 2ce4 c8bd affd 10bf 77e9 a5bd
00000070: 8583 3fbf c40c 3cbe 3369 31bf 2b6a 543d
00000080: 5617 eb3e 0bbb 01be 6a1a a2bd a0d3 ce3d
00000090: 1266 a63d 0855 36bf 9d13 123b bd94 9dbe
000000a0: f87e cd3e ddb2 4bbf e8a9 d9bd a97d 643d
000000b0: e109 f8be 10c4 e13c 02fb 52bf ace5 853f
000000c0: 6859 b1be 55e5 883d cbf2 ecbe 5998 2abe
000000d0: 7daa 93be ba82 83bf d023 e5be 0c16 33bf
000000e0: a45f 1a3d d545 8f3d 5fbb 5bbf 43be 99be
000000f0: e1ec dcbe 158f 8e3e cb63 48bf a418 d4be

running_var f4 [64]
0.4155312 0.31578755 0.2887223 0.37886882 0.5653776 0.3623901 0.31089908 0.36817476
0.27895805 0.30882302 0.42858723 0.20600815 0.31035155 0.41556427 0.388133 0.4795115
0.30493394 0.51393205 0.58964956 0.29328582 0.31296548 0.48515657 0.30618027 0.47191623
0.41054985 0.5396867 0.4697656 0.35334468 0.29507095 0.43487656 0.5632757 0.55174667
0.43565175 0.4733963 0.55155295 0.38832405 0.5239913 0.60185415 0.34827745 0.34209698
0.37743047 0.6523953 0.47214702 0.38232002 0.48769847 0.4853032 0.38383284 0.49144685
0.45679528 0.4613186 0.42374492 0.4922977 0.29759872 0.76146173 0.32955834 0.29231277
0.36873505 0.37621364 0.32368773 0.35265854 0.4627109 0.34726498 0.32466355 0.66061693
00000000: 81c0 d43e e8ae a13e 69d3 933e 18fb c13e
00000010: 96bc 103f 328b b93e 2a2e 9f3e 6781 bc3e
00000020: 97d3 8e3e 0d1e 9e3e c96f db3e cdf3 523e
00000030: 66e6 9e3e d7c4 d43e 5eb9 c63e 8882 f53e
00000040: 4d20 9c3e 0d91 033f 46f3 163f 8f29 963e
00000050: 033d a03e 7166 f83e a9c3 9c3e 019f f13e
00000060: 9733 d23e e828 0a3f 1e85 f03e 98e9 b43e
00000070: 8a13 973e 24a8 de3e d632 103f 453f 0d3f
00000080: bf0d df3e 0061 f23e 9332 0d3f 69d2 c63e
00000090: 4b24 063f 1d13 1a3f 6c51 b23e 5627 af3e
000000a0: 913e c13e 6103 273f 41bd f13e 73bf c33e
000000b0: 9db3 f93e a979 f83e bd85 c43e ec9e fb3e
000000c0: 12e1 e93e f431 ec3e 18f5 d83e 720e fc3e
000000d0: dc5e 983e 28ef 423f dfbb a83e 05aa 953e
000000e0: d7ca bc3e 139f c03e 66ba a53e a98f b43e
000000f0: 71e8 ec3e b7cc b13e 4d3a a63e 311e 293f

weight f4 [64, 32, 4, 4]
0.15275063 0.10011857 0.09696783 0.15057956 -0.0969206 -0.21256243 0.22047788 -0.007645018
-0.13142811 -0.04710293 0.028036924 0.027785411 0.00758851 0.056160353 0.05446958 0.09023732
-0.08027406 -0.14662929 -0.014196552 -0.055793747 -0.3633753 -0.03358612 -0.21829902 0.060683504
-0.09813667 -0.062572815 0.050396487 -0.031382397 -0.114567354 -0.04693594 -0.1337258 -0.07714191
0.06249946 -0.1710922 -0.054124754 0.02893702 0.009265317 0.020627769 0.08500771 0.0840499
0.0221092 0.0047440385 -0.08410569 -0.057594992 -0.100283645 -0.13680151 -0.073994115 0.12442478
0.08526982 -0.10201444 -0.06710153 0.035384696 0.020227045 -0.17424527 -0.011646895 -0.050668392
0.07261333 -0.1516375 0.09147176 0.05475745 -0.03248505 -0.08653457 -0.13523795 0.03757898
0.32767096 0.005470988 0.11300097 0.25270692 -0.015599651 -0.08202548 -0.06891746 0.008897456
-0.17493045 -0.0627987 0.060007583 0.012860365 -0.061094776 -0.16777463 -0.03760982 -0.13383268
0.11154259 -0.19976005 -0.121647544 -0.12112091 0.012531729 -0.270854 -0.19597062 -0.34818855
-0.038653098 -0.15900286 0.01915894 -0.06847714 -0.0153112905 -0.053990044 0.08694553 0.19047935
-0.26294303 -0.18396223 0.025687108 -0.29675752 -0.22772427 0.0056069815 0.02882264 -0.30084696
-0.0312653 -0.07269452 0.05856664 -0.09979714 -0.043332297 -0.086437285 0.14386034 -0.0026502989
-0.047829345 -0.2858993 -0.17407475 -0.04235401 0.029589858 -0.016702257 -0.005886246 -0.17716585
0.09534036 -0.12226555 0.103785075 0.012444416 -0.07859873 -0.16350992 -0.06778919 0.019044502
0.23652074 0.037943605 0.2877974 0.20489143 0.049535993 -0.12554744 -0.0103060985 0.028697155
-0.09488535 -0.015970973 -0.02931104 0.1832586 -0.102125764 0.022789698 -0.019483851 -0.045333236
-0.10144137 0.10790021 0.1252052 0.06635343 -0.049356155 -0.056399878 0.04751253 0.06230646
-0.19550988 -0.16016077 0.019348625 -0.011369283 -0.16699062 0.008281098 0.11228275 -0.08331798
-0.35076138 -0.031784322 -0.1477261 -0.08785335 -0.17310636 -0.0880843 0.0518166 -0.027099123
-0.34154972 0.042674158 -0.20413616 0.065941885 -0.032812767 -0.0037637253 -0.103978194 -0.1652067
-0.27731714 -0.045153428 -0.036115073 -0.029650195 0.027899887 0.07510341 -0.3297799 0.017427098
-0.15145728 0.17323919 -0.13968275 -0.18835771 -0.12532818 0.002945537 0.27570438 0.0185076
0.110460326 0.17161117 -0.1258133 0.017617635 -0.16171025 -0.053871907 0.051119085 0.06336609
-0.07801678 -0.06928861 -0.056584366 0.015499164 0.029766943 0.20492445 -0.044920985 0.042686053
0.13065332 0.094541624 0.029074281 0.036919884 -0.17583796 0.06493064 -0.18137701 0.0023118854
-0.13343391 -0.053637847 -0.2267088 0.07496051 -0.046863627 0.18715021 -0.15705669 -0.05535179
0.032409124 -0.052401945 -0.05743505 -0.14180389 0.116558544 -0.071738504 0.022981487 0.10157496
-0.022104617 -0.08763789 0.010144967 -0.046587802 0.005081775 0.06571393 -0.17721905 0.0949168
0.021977793 0.19117524 0.042708274 0.17043541 -0.15903464 0.18266006 -0.032605227 0.18214606
-0.01909112 0.027836248 0.18340276 -0.10499046 -0.1157243 0.13563886 0.15103637 -0.07207618
00000000: a96a 1c3e f70a cd3d 1297 c63d 8731 1a3e
00000010: 4f7e c6bd f7a9 59be f4c4 613e 0f83 fabb
00000020: 1795 06be 00ef 40bd b1ad e53c 3b9e e33c
00000030: 09a9 f83b 6608 663d 7f1b 5f3d 58ce b83d
00000040: ba66 a4bd fd25 16be a898 68bc fc87 64bd
00000050: 540c babe 9991 09bd c789 5fbe 448f 783d
00000060: e1fb c8bd 2d26 80bd 8c6c 4e3d d48a 00bd
00000070: 4aa2 eabd e63f 40bd 6bef 08be 94fc 9dbd
00000080: 6fff 7f3d cb32 2fbe ebb1 5dbd 540d ed3c
00000090: 8ecd 173c 91fb a83c 8618 ae3d 5b22 ac3d
000000a0: 5a1e b53c e173 9b3b 9b3f acbd bae8 6bbd
000000b0: 8361 cdbd b215 0cbe 3a8a 97bd 6bd2 fe3d
000000c0: f2a1 ae3d f2ec d0bd 876c 89bd 8bef 103d
000000d0: 30b3 a53c 5a6d 32be 9ed2 3ebc a989 4fbd
000000e0: 4cb6 943d dc46 1bbe 8c55 bb3d 5949 603d
000000f0: 0b0f 05bd 0939 b1bd d17b 0abe 6bec 193d
00000100: 7dc4 a73e f945 b33b 0d6d e73d cd62 813e
00000110: ae95 7fbc fafc a7bd 9924 8dbd a3c6 113c
00000120: f820 33be 9b9c 80bd 83ca 753d 48b4 523c
00000130: 843e 7abd 1dcd 2bbe c10c 1abd 6f0b 09be
00000140: 7170 e43d e68d 4cbe 5922 f9bd 3d0e f8bd
00000150: e251 4d3c 60ad 8abe 86ac 48be c545 b2be
00000160: b652 1ebd a5d1 22be 36f3 9c3c be3d 8cbd
00000170: 35dc 7abc aa24 5dbd 7f10 b23d 050d 433e
00000180: 78a0 86be 9860 3cbe c56d d23c 9af0 97be
00000190: 8d30 69be c5ba b73b 751d ec3c 9d08 9abe
000001a0: 0b10 00bd dde0 94bd 93e3 6f3d 7162 ccbd
000001b0: 357d 31bd 0806 b1bd 2050 133e a3b0 2dbb
000001c0: b4e8 43bd 6561 92be a740 32be 667b 2dbd
000001d0: 6e66 f23c 2cd3 88bc 69e1 c0bb f76a 35be
000001e0: cf41 c33d 5c66 fabd 458d d43d aae3 4b3c
000001f0: 5ff8 a0bd 256f 27be 0fd5 8abd 3703 9c3c
00000200: 7e32 723e c16a 1b3d 2e5a 933e 0fcf 513e
00000210: 41e6 4a3d 828f 00be e9da 28bc 4c16 eb3c
00000220: 4053 c2bd 8fd5 82bc b51d f0bc 24a8 3b3e
00000230: 5027 d1bd 76b1 ba3c 999c 9fbc 58af 39bd
00000240: 7ec0 cfbd c9fa dc3d cb35 003e 4fe4 873d
00000250: ae29 4abd 8f03 67bd 809c 423d 0f35 7f3d
00000260: be33 48be 2f01 24be 0281 9e3c 3b46 3abc
00000270: 97ff 2abe 71ad 073c 80f4 e53d 9ea2 aabd
00000280: ff96 b3be 4730 02bd 8345 17be 75ec b3bd
00000290: cb42 31be 8b65 b4bd a53d 543d fbfe ddbc
000002a0: 9bdf aebe 19cb 2e3d 1209 51be 8a0c 873d
000002b0: ae66 06bd d5a8 76bb 85f2 d4bd f22b 29be
000002c0: 83fc 8dbe cdf2 38bd 66ed 13bd f7e4 f2bc
000002d0: 4e8e e43c d1cf 993d e9d8 a8be 46c3 8e3c
000002e0: 9e17 1bbe 9d65 313e ff08 0fbe d8e0 40be
000002f0: 0856 00be e909 413b 2029 8d3e 409d 973c
00000300: 0639 e23d d7ba 2f3e 34d5 00be dc52 903c
00000310: 5f97 25be caa8 5cbd 3f62 513d 15c6 813d
00000320: 43c7 9fbd 30e7 8dbd 02c5 67bd 35f0 7d3c
00000330: ced9 f33c b7d7 513e 11ff 37bd 92d7 2e3d
00000340: fcc9 053e 0a9f c13d 302d ee3c 4e39 173d
00000350: de0e 34be 5bfa 843d e5ba 39be 0083 173b
00000360: e6a2 08be 5cb3 5bbd 5a26 68be e584 993d
00000370: 13f4 3fbd 4ea4 3f3e 78d3 20be 8fb8 62bd
00000380: 6ebf 043d 6ca3 56bd 0441 6bbd 0a35 11be
00000390: 3fb6 ee3d a3eb 92bd ac43 bc3c 8806 d03d
000003a0: be14 b5bc 7e7b b3bd 1337 263c dad2 3ebd
000003b0: 0585 a63b 0695 863d e978 35be bd63 c23d
000003c0: c60a b43c 71c3 433e dfee 2e3d 9f86 2e3e
000003d0: fad9 22be 3d0b 3b3e 0f8d 05bd 7f84 3a3e
000003e0: fb64 9cbc d808 e43c efcd 3b3e 3d05 d7bd
000003f0: dd00 edbd eae4 0a3e 47a9 1a3e ad9c 93bd

bias f4 [32]
-0.06814513 0.021977946 0.028195878 0.066376254 -0.09351834 0.023360848 0.04415693 0.008807546
-0.057408176 -0.0004601132 0.007154841 -0.027903823 -0.052801333 0.02887651 -0.036341965 -0.031515896
-0.0019989081 0.01465847 -0.06272274 -0.03393707 0.034037374 0.053280454 -0.060966898 0.13172534
0.07960077 -0.01528458 -0.010075982 0.0758329 0.056433495 -0.06636311 0.12312576 0.06634831
00000000: ad8f 8bbd 180b b43c 0bfb e63c 46f0 873d
00000010: 8b86 bfbd 405f bf3c e6dd 343d 874d 103c
00000020: d624 6bbd 593b f1b9 2873 ea3b 8f96 e4bc
00000030: 3646 58bd 6e8e ec3c 50db 14bd d016 01bd
00000040: 1d00 03bb 142a 703c c874 80bd 9901 0bbd
00000050: c66a 0b3d 9b3c 5a3d 6db8 79bd 02e3 063e
00000060: ba05 a33d 2d6c 7abc bb15 25bc 484e 9b3d
00000070: cf26 673d 62e9 87bd 5c29 fc3d 9fe1 873d

weight f4 [32]
0.4084317 0.44944477 0.5128416 0.49040776 0.28467056 0.42610487 0.19993307 0.37160328
0.46438706 0.46975228 0.25143573 0.36273938 0.41965142 0.37981987 0.4267142 0.31987354
0.49820897 0.3992458 0.2088712 0.32977986 0.3649155 0.60176533 0.58044255 0.267844
0.399488 0.51100194 0.4165039 0.58541125 0.41658825 0.34605443 0.34468535 0.5628839
00000000: f61d d13e a01d e63e 9649 033f ba16 fb3e
00000010: 57c0 913e 6b2a da3e 41bb 4c3e c942 be3e
00000020: 24c4 ed3e 5f83 f03e 2fbc 803e fab8 b93e
00000030: 8ddc d63e c077 c23e 497a da3e 77c6 a33e
00000040: 3f15 ff3e f269 cc3e 55e2 553e e8d8 a83e
00000050: 34d6 ba3e 4b0d 1a3f e297 143f d922 893e
00000060: b189 cc3e 06d1 023f 0040 d53e 83dd 153f
00000070: 0e4b d53e 0c2e b13e 997a b03e 2919 103f

bias f4 [32]
-0.19945952 -0.081980206 -0.29986346 -0.2766489 -0.22918682 -0.39405492 0.10621556 -0.1266237
-0.16022857 -0.20987645 -0.39641502 -0.17202999 -0.30100545 -0.12258403 0.012293244 -0.025920056
-0.1912116 -0.17362751 0.08436253 -0.0987079 0.036353827 -0.3015161 -0.31320634 -0.15487556
-0.25453606 -0.2539266 -0.14286305 -0.2946214 -0.11853126 0.07522802 -0.11485913 -0.21692666
00000000: 1e3f 4cbe 3de5 a7bd b487 99be eda4 8dbe
00000010: f3af 6abe 91c1 c9be 8b87 d93d a5a9 01be
00000020: f512 24be dae9 56be e9f6 cabe a128 30be
00000030: 631d 9abe 560d fbbd 9a69 493c 4c56 d4bc
00000040: f9cc 43be 69cb 31be 43c6 ac3d 5e27 cabd
00000050: c0e7 143d 5160 9abe 955c a0be b397 1ebe
00000060: 8d52 82be ab02 82be b14a 12be 9ed8 96be
00000070: 84c0 f2bd 2611 9a3d 433b ebbd 0622 5ebe

running_mean f4 [32]
-0.4725806 0.002086715 -0.69259197 -0.5661252 -0.43885127 -0.5377271 -0.42306438 -0.42490327
-0.062895596 0.05303336 -0.4793092 -0.62985694 -0.33378515 -0.34745982 -0.24443868 -0.07472971
0.15261327 -0.1832788 -0.90364045 -0.51408815 -0.5240804 -0.57580394 -0.16609621 -0.535491
-0.31982732 -0.25515425 -0.22177248 -0.4916583 -0.2188804 -1.0663081 -0.08116698 -0.26492593
00000000: 16f6 f1be 45c1 083b b54d 31bf 95ed 10bf
00000010: 1db1 e0be 7ca8 09bf e59b d8be ec8c d9be
00000020: 68cf 80bd 8239 593d 0468 f5be 4e3e 21bf
00000030: e3e5 aabe 41e6 b1be 224e 7abe e40b 99bd
00000040: a746 1c3e 70ad 3bbe fb54 67bf 489b 03bf
00000050: 222a 06bf e367 13bf 2015 2abe f015 09bf
00000060: 68c0 a3be 94a3 82be 5318 63be a3ba fbbe
00000070: 2f22 60be c97c 88bf e03a a6bd 5fa4 87be

running_var f4 [32]
0.35257336 0.42685542 0.33344153 0.35323426 0.3087436 0.371606 0.67370534 0.36016878
0.48818424 0.33473152 0.3993449 0.3480226 0.32372537 0.42761222 0.7885613 0.39817166
0.39715353 0.34204286 0.63375896 0.45941043 0.5267625 0.46987972 0.40304026 0.5601103
0.31800458 0.3893462 0.42149508 0.47365746 0.4762271 0.5302612 0.48984802 0.43609232
00000000: 7f84 b43e cb8c da3e d9b8 aa3e 1fdb b43e
00000010: a413 9e3e 2443 be3e f477 2c3f 0b68 b83e
00000020: 49f3 f93e ee61 ab3e ef76 cc3e 0530 b23e
00000030: 55bf a53e fdef da3e 27df 493f 28dd cb3e
00000040: b557 cb3e 3e20 af3e 073e 223f d837 eb3e
00000050: e8d9 063f 1394 f03e 4b5b ce3e 6363 0f3f
00000060: 7fd1 a23e 6358 c73e 34ce d73e 3b83 f23e
00000070: 0ad4 f33e 33bf 073f 5ccd fa3e 7e47 df3e

weight f4 [32, 32, 4, 4]
-0.119557805 -0.16317648 -0.20947392 -0.06541336 0.034470543 0.24741328 0.07215126 0.14467342
-0.2521115 -0.2275405 -0.27203774 -0.17088337 0.07620402 0.05133578 0.14397398 -0.06903185
0.018290909 -0.0060457173 0.08902449 0.05361451 -0.036944322 -0.11149204 -0.053312786 0.07588129
-0.033740226 -0.024532238 0.011207569 -0.07749844 0.10758638 -0.07351819 -0.0020495295 -0.0943416
-0.18923609 -0.0942685 -0.10123805 -0.1541186 -0.105603166 0.066937685 0.12184824 -0.32888916
-0.043974057 -0.037012424 -0.11937485 -0.12982045 -0.18106163 0.07359468 -0.19336264 -0.09765866
0.077935025 0.093782395 0.13442507 0.25171596 -0.014956819 -0.10436716 0.11454661 -0.045380615
0.28271863 0.33719516 0.27732605 0.3463191 -0.084034875 -0.017143711 0.0059069605 -0.040624324
-0.08219217 -0.15574138 -0.07976045 -0.020549068 -0.039647162 -0.11544849 -0.08894116 -0.095869325
0.06401967 -0.055998664 0.02220791 0.12704436 -0.29338342 -0.01839248 -0.20986623 -0.010407357
0.012624982 0.2658213 0.16434194 0.12045957 0.14633529 -0.037495814 0.12791243 -0.07620828
-0.0704226 0.06348661 -0.042607665 0.002184866 0.1162899 0.2526241 0.23440227 0.13473108
0.28878763 0.11163046 0.20928907 0.0078000883 -0.02015869 0.06956415 0.11462876 0.057841852
0.10550159 0.002025507 0.0019202967 -0.112883985 -0.03033949 0.06527882 0.013494604 -0.023737866
-0.11226185 -0.08551766 0.03884548 -0.2174943 0.0120859975 -0.008099066 -0.03200796 -0.07199471
-0.050593995 -0.03075221 0.024244046 -0.019108599 0.025221312 -0.02873863 -0.060879067 -0.03242288
-0.16609162 0.07728312 -0.06622653 -0.023123482 -0.1236972 -0.33239973 0.004852938 -0.4432209
0.029775385 0.2078556 -0.027964242 0.12499288 0.04889723 -0.0418487 0.08836083 -0.22333768
0.14273006 0.0147827035 -0.08288609 0.16229254 0.22978045 0.14745872 0.11961276 0.11407276
-0.048567325 -0.09063302 -0.031865157 0.09883723 0.055954654 0.11207512 -0.08304761 0.06376092
-0.20980537 -0.29955542 0.17782255 -0.0015673948 0.021447908 -0.077662185 0.11881667 0.0120357005
-0.14480518 -0.16861206 0.029184554 -0.22640942 0.009555607 0.029551277 0.03178296 0.0014964456
0.0951861 0.07579121 0.041009974 0.00967088 0.0005772537 0.22697973 -0.037627205 0.23730503
-0.04316106 0.08685737 -0.0964497 -0.008253295 0.22755677 0.25037402 0.13473928 -0.07747367
0.15697283 -0.14042135 0.153762 0.14746292 -0.13156128 0.06473666 -0.19907834 -0.1367119
0.14741005 0.11143567 0.11440886 0.032655515 -0.093312435 0.15196994 -0.23553915 -0.11477135
0.10224076 -0.17120029 0.23545645 -0.11932066 0.15570478 -0.035534106 0.19691771 0.1618464
-0.10267616 -0.0014501071 0.013335693 -0.027131664 0.1825722 0.13618542 0.17204311 0.19364403
0.00362446 0.25072944 -0.03934719 0.24838969 -0.18039371 -0.09263079 0.014662663 -0.01584757
-0.04807454 -0.019768808 0.033676255 0.078437924 -0.15499946 0.07005771 0.01841464 0.03851328
0.056379426 -0.106744185 0.19499545 -0.18573454 -0.0939066 -0.2514178 -0.01446978 -0.12881352
0.03265092 -0.08341523 0.110832706 0.056307472 0.2619607 0.011095464 -0.15368204 0.012826316
00000000: b9da f4bd bc17 27be 5580 56be 71f7 85bd
00000010: fc30 0d3d e859 7d3e 0ac4 933d 4525 143e
00000020: c214 81be 6000 69be 8848 8bbe 0dfc 2ebe
00000030: da10 9c3d 7845 523d ea6d 133e 9260 8dbd
00000040: d1d6 953c 271b c6bb 7952 b63d e39a 5b3d
00000050: ee52 17bd f055 e4bd 825e 5abd a667 9b3d
00000060: 3133 0abd d5f7 c8bc f49f 373c 81b7 9ebd
00000070: 3f56 dc3d b490 96bd 6651 06bb 2b36 c1bd
00000080: 1bc7 41be d80f c1bd e555 cfbd 44d1 1dbe
00000090: 7946 d8bd a016 893d 928b f93d 2964 a8be
000000a0: 241e 34bd 579a 17bd cd7a f4bd a7ef 04be
000000b0: 3868 39be cfb8 963d db00 46be 4301 c8bd
000000c0: 669c 9f3d fc10 c03d baa6 093e eae0 803e
000000d0: 720d 75bc 73be d5bd 6a97 ea3d 06e1 39bd
000000e0: 7fc0 903e d8a4 ac3e aefd 8d3e bd50 b13e
000000f0: 7a1a acbd f870 8cbc 2d8f c13b b165 26bd
00000100: 5e54 a8bd ab7a 1fbe 7259 a3bd 8556 a8bc
00000110: 1065 22bd 4270 ecbd c826 b6bd 2357 c4bd
00000120: bf1c 833d db5e 65bd 5ded b53c eb17 023e
00000130: 5a36 96be d4ab 96bc 2ce7 56be 9e83 2abc
00000140: 03d9 4e3c bb19 883e 4149 283e 82b3 f63d
00000150: ebd8 153e 3695 19bd 7afb 023e 1613 9cbd
00000160: b939 90bd 4505 823d 6085 2ebd f82f 0f3b
00000170: 6629 ee3d f257 813e 2607 703e f2f6 093e
00000180: f9db 933e 839e e43d e04f 563e e297 ff3b
00000190: d623 a5bc a677 8e3d 7cc2 ea3d 94eb 6c3d
000001a0: 3811 d83d 5ebe 043b 77b2 fb3a b82f e7bd
000001b0: 868a f8bc e7b0 853d 7918 5d3c ea75 c2bc
000001c0: 8ae9 e5bd e223 afbd 701c 1f3d d3b6 5ebe
000001d0: 5904 463c f2b1 04bc c71a 03bd f671 93bd
000001e0: a63b 4fbd 0fec fbbc 739b c63c a389 9cbc
000001f0: ed9c ce3c 466d ebbc 545c 79bd dbcd 04bd
00000200: ec13 2abe 9d46 9e3d c6a1 87bd 756d bdbc
00000210: f554 fdbd 4c30 aabe 6505 9f3b daed e2be
00000220: 82eb f33c 19d8 543e 4415 e5bc 44fc ff3d
00000230: 7648 483d 8b69 2bbd 86f6 b43d a2b2 64be
00000240: d427 123e 2733 723c 2fc0 a9bd 0430 263e
00000250: 914b 6b3e 6bff 163e 89f7 f43d fb9e e93d
00000260: 88ee 46bd ce9d b9bd 0a85 02bd 2c6b ca3d
00000270: b530 653d a487 e53d de14 aabd 1695 823d
00000280: 38d7 56be 545f 99be 1d17 363e 0b71 cdba
00000290: 86b3 af3c 5a0d 9fbd 2756 f33d 6331 453c
000002a0: cf47 14be a4a8 2cbe 7214 ef3c dfd7 67be
000002b0: 1f8f 1c3c 8515 f23c d92e 023d 6224 c43a
000002c0: eef0 c23d 6c38 9b3d 13fa 273d 9c72 1e3c
000002d0: d752 173a 606d 683e fc1e 1abd 1700 733e
000002e0: a7c9 30bd 47e2 b13d 6c87 c5bd d438 07bc
000002f0: a404 693e 0631 803e 18f9 093e 84aa 9ebd
00000300: 7cbd 203e 9dca 0fbe c973 1d3e 8500 173e
00000310: 00b8 06be a794 843d 31db 4bbe 34fe 0bbe
00000320: a9f2 163e 6238 e43d 314f ea3d cac1 053d
00000330: 971a bfbd 029e 1b3e 2d31 71be 3e0d ebbd
00000340: 9b63 d13d 214f 2fbe 7f1b 713e 645e f4bd
00000350: 1371 1f3e 368c 11bd cca4 493e 10bb 253e
00000360: e147 d2bd 8511 beba f37d 5a3c 3943 debc
00000370: 35f4 3a3e 3174 0b3e 122c 303e 9f4a 463e
00000380: 5988 6d3b 9c5f 803e 852a 21bd de59 7e3e
00000390: 21b9 38be 36b5 bdbd ab3b 703c c3d2 81bc
000003a0: cfe9 44bd 32f2 a1bc 1df0 093d 10a4 a03d
000003b0: 2eb8 1ebe 6b7a 8f3d 4dda 963c 1ac0 1d3d
000003c0: 1dee 663d b29c dabd e3ac 473e 3231 3ebe
000003d0: 1a52 c0bd d5b9 80be a812 6dbc b1e7 03be
000003e0: f9bc 053d 9bd5 aabd 42fc e23d aaa2 663d
000003f0: b61f 863e c0c9 353c d35e 1dbe 7825 523c

bias f4 [32]
-0.032123554 -0.072607726 -0.05374617 0.13296418 -0.108283184 0.04544033 -0.05635627 -0.0013512532
-0.012598991 0.1088748 0.08987708 0.011262529 0.06623741 0.14250804 -0.16246933 0.02721248
-0.11344136 0.08765637 -0.21442877 0.03925802 0.01272021 0.022286933 0.051586546 0.036878668
-0.035355818 -0.10589166 -0.0045053544 0.11638277 0.040608816 0.012219272 -0.05575667 0.05902846
00000000: fd93 03bd 5cb3 94bd f224 5cbd c327 083e
00000010: 93c3 ddbd a41f 3a3d d5d5 66bd 891c b1ba
00000020: 006c 4ebc c0f9 de3d 7911 b83d 7886 383c
00000030: 7ba7 873d a1ed 113e 5c5e 26be b5ec de3c
00000040: f253 e8bd 2f85 b33d 3793 5bbe 05cd 203d
00000050: 6d68 503c 1693 b63c 6a4c 533d 160e 173d
00000060: 43d1 10bd badd d8bd a7a1 93bb 175a ee3d
00000070: 6e55 263d 5733 483c 1b61 64bd d4c7 713d

weight f4 [32]
0.36803097 0.62509906 0.55732626 0.3296342 0.41324434 0.4634614 0.39803326 0.35984355
0.51393044 0.35734367 0.41940904 0.3430837 0.6080694 0.6330791 0.32656038 0.5874282
0.3437212 0.3801367 0.4053524 0.34381357 0.37257972 0.749957 0.4874689 0.36043978
0.5742185 0.38004872 0.4542752 0.66761017 0.66591287 0.281167 0.64436305 0.74401766
00000000: 8e6e bc3e 7e06 203f efac 0e3f d0c5 a83e
00000010: c394 d33e d04a ed3e 04cb cb3e 6a3d b83e
00000020: f290 033f c0f5 b63e c8bc d63e aba8 af3e
00000030: 70aa 1b3f 7911 223f ec32 a73e b261 163f
00000040: 3afc af3e 47a1 c23e 5a8a cf3e 5508 b03e
00000050: c5c2 be3e 2ffd 3f3f 8695 f93e 908b b83e
00000060: fcff 123f bf95 c23e c296 e83e 80e8 2a3f
00000070: 4479 2a3f 1ff5 8f3e faf4 243f f177 3e3f

bias f4 [32]
-0.10506889 -0.25877377 -0.16385977 -0.20511846 -0.21593422 0.034464262 0.054602 -0.28457087
-0.28520963 0.060852222 -0.16393349 0.0010856313 -0.2960664 -0.15269206 -0.29544598 -0.07097839
-0.20199502 -0.07986553 -0.23547578 -0.11647534 -0.09305636 -0.11763921 0.0070056138 -0.5478782
-0.022920799 -0.37621802 -0.14279926 -0.15741925 -0.18411046 -0.110308655 -0.11070883 -0.10166875
00000000: 5c2e d7bd ff7d 84be dbca 27be 930a 52be
00000010: dc1d 5dbe 662a 0d3d 59a6 5f3d 46b3 91be
00000020: ff06 92be 2e40 793d 2ede 27be be4b 8e3a
00000030: 0496 97be 4f5b 1cbe b244 97be 1e5d 91bd
00000040: c8d7 4ebe 8a90 a3bd 9020 71be a08a eebd
00000050: 5594 bebd d3ec f0bd 598f e53b bf41 0cbf
00000060: 66c4 bbbc a69f c0be f839 12be 8332 21be
00000070: 7487 3cbe 81e9 e1bd 50bb e2bd b537 d0bd

running_mean f4 [32]
-0.075137265 -0.20229393 -0.07206196 -0.0914959 -0.28899273 -0.1141245 -0.27348322 -0.23544098
-0.4302731 0.29565096 -0.0047012814 0.03183868 -0.15584107 0.103135385 -0.6078893 0.006166814
-0.37696695 0.022378866 -0.21224013 0.08054746 -0.19146848 -0.05030249 0.14604701 -0.26013172
-0.18031235 -0.17192535 -0.22374246 0.16667187 -0.07915986 0.023781704 -0.09973391 0.1312247
00000000: 91e1 99bd 2426 4fbe 3995 93bd 3462 bbbd
00000010: dbf6 93be 1bba e9bd fe05 8cbe 7117 71be
00000020: c14c dcbe 905f 973e 350d 9abb 4769 023d
00000030: cd94 1fbe a538 d33d a29e 1bbf fc12 ca3b
00000040: d001 c1be e253 b73c 7a55 59be 11f6 a43d
00000050: 5010 44be fc09 4ebd 598d 153e fc2f 85be
00000060: cda3 38be 330d 30be be1c 65be 08ac 2a3e
00000070: 911e a2bd d9d1 c23c 4b41 ccbd c55f 063e

running_var f4 [32]
0.14714351 0.13030893 0.14980398 0.14535145 0.13734967 0.2540194 0.1545425 0.1359324
0.25273943 0.17043306 0.13767335 0.16406605 0.19322298 0.17018645 0.16298416 0.122980535
0.13841094 0.16010538 0.15289742 0.17260325 0.16020764 0.30806443 0.17851137 0.1577362
0.33644542 0.12170721 0.1401487 0.1985446 0.31768486 0.1486762 0.2405729 0.22337376
00000000: caac 163e b46f 053e 3766 193e 03d7 143e
00000010: 64a5 0c3e d50e 823e 6440 1e3e dd31 0b3e
00000020: 1067 813e 0186 2e3e 3efa 0c3e ee00 283e
00000030: 3fdc 453e 5b45 2e3e 52e5 263e 38dd fb3d
00000040: 99bb 0d3e aaf2 233e 2491 1c3e e8be 303e
00000050: 790d 243e 9fba 9d3e afcb 363e 9985 213e
00000060: 9342 ac3e a141 f93d 2483 0f3e 474f 4b3e
00000070: 97a7 a23e 933e 183e be58 763e 17bc 643e
