models/vishal_lr_001_iter_300.pt_240_128.pt (torch_old, 776281 bytes, 39 tensors)

weight f4 [64, 1, 3, 3]
00000000: 8120 52be 0f26 3cbe 601b 9e3e 529c e5bd
00000010: aae7 fdbd cbb0 a73e 0cad 88be 7c3c 0cbd
00000020: 0302 993e 6a48 cc3d 2441 ed3d ae97 a43c
00000030: 551c 78be 3da2 993e 5bba 6fbc 614b fabe
00000040: 6a60 9e3d 0094 0a3e 000c fa38 cc92 53bd
00000050: 38d7 cfbc 4c47 b4bc 8cc1 6bbd 1028 87bd
00000060: d615 b2bd b6fc ca3d cc98 153d 969b 0bbf
00000070: f26a 7dbe bde1 b6be f8cb 0fbf cd4b e03d
00000080: 3d34 0fbe aeb0 4fbd 222b 323f ef60 bd3e
00000090: dc7c 60bd 423e e5bd 52ae 283d 3339 b2bd
000000a0: 7974 b23c 5fdc 5d3d 1d0f 21bd 567b f33b
000000b0: 8fd6 7d3d 1987 74bd 3f16 5dbd ef2d 48bd
000000c0: 94e0 993e 8f9e 2d3e 5c88 f23d 9140 8a3d
000000d0: f5fa b83c 1309 29bd 2f67 4dbd 6a04 d23d
000000e0: db64 413e b85b 893d df9c f7be 1406 a0bf
000000f0: e498 b93e 92e4 c1bd c6e7 fdbe 140a f13d
00000100: 8118 6dbe 8343 2c3e d344 5a3e 99ca 93be
00000110: dc6f 01bd c392 233e f18d 0cbd b27b abbd
00000120: ccab bcbd 90b9 8bbd 1579 7bbd 8628 9bbd
00000130: 8726 22bd 5058 03bd 702b ab3d c654 92bd
00000140: b004 983d 1382 5fbe f1c1 353e 627b f63b
00000150: ea63 f53c d343 d33e 2e98 cebe dcfe 57bd
00000160: 1ebb 3fbc 0545 593d af90 33bd e0d7 0b3d
00000170: 00fe 4639 37f9 bebd f8bd 8c3d 889e fd3c
00000180: 6670 90bd d0f6 6dbc caab 963d c260 463c
00000190: 7fcd ff3e 2c41 debd 856e bebd 65cc 51be
000001a0: 5900 4fbe fde5 9e3d ef43 88be e69f 853e
000001b0: 4061 0cbb a04f f33b c043 5fbb f154 76bd
000001c0: f067 16bc 4076 6e3c 005a 7b3d 28ad b93d
000001d0: ad91 4fbd 42cf d23d 2b76 833c 3b33 67bd
000001e0: 9176 aabe 3608 05bf 7be6 71bd 2e2c 813e
000001f0: aa63 263e d770 e13e c6d6 c8be 1c39 af3e
00000200: 23fe 443e f569 40bd c3e1 b8be 7448 6c3e
00000210: b095 eb3e 3639 75be 954a 51be 94b6 a0be
00000220: 8b23 963e da15 a8bd 0ddc 7cbe 2eb3 eb3e
00000230: ce90 b43d 32a0 9dbe 5b74 423e bea0 a7bd
00000240: 2a7d 0abf c42d c9bf 72f4 0e3e 19f1 8fbf
00000250: b313 1cc0 3822 e9be 6374 0c3e f68f bcbe
00000260: 54e1 5a3e cb5e 2bbe d8da 4fbe e15c 27be
00000270: 3e67 423d 9f8b ff3d 56d4 db3e c13f 6fbe
00000280: 2951 8f3d 13dd d23d cc92 0a3b a134 413e
00000290: 1015 a0be 427b 173e f877 e63e 72c2 f2be
000002a0: b2d9 673d 4462 9f3e 55af bbbe 384f 67bf
000002b0: 27fe 91be 2eb8 9b3e 0c9b 223e e285 103f
000002c0: ab92 733e 0743 3e3e 3674 93be 2f5a 32bf
000002d0: ff20 64be 63b5 6abe d0c7 cf3d ff98 2b3e
000002e0: 64a9 333f e228 bebe 0863 e5bd 81ff a33d
000002f0: 033d eebd 09a6 8cbe 7cdd 803d 78bb 903d
00000300: b4b7 6c3e f38e c13e 0b62 4a3e 7653 3f3d
00000310: 7ea8 d6be ff64 97be 995d cebd bdb6 23be
00000320: 5ac5 403e 62fc 87be aa0f b7be d13b 3ebe
00000330: 3641 943e 1dc0 9f3e 3cc3 983e 534f 03be
00000340: 4793 3ebd e84a 873d 4703 65bd 201c b4bd
00000350: eaf4 27bd 39f3 7c3d 1fae 613d 7ceb d3bc
00000360: 490e bcbd 4ced 6bbf e324 3b3e 45d7 17bf
00000370: ef0a f5bf ab16 cfbd 0529 193e 18ef 55be
00000380: 816f 813e 603f f13b 9318 c9bd f556 abbd
00000390: 8285 c53d 0b96 77bd 602b 483d a086 0ebb
000003a0: 0028 80bb 95ef 99bd dc9b b93e eafa 2a3e
000003b0: 807e 3b3e a287 53be d477 9bbf 5f52 a8bd
000003c0: b940 063e 7453 fbbe 6932 7f3e 7127 c8bc
000003d0: 7075 e73d 8ea6 59bd e3fd c3be 3f74 e4bc
000003e0: 5a2d 893e b846 5d3e a7fd 203e 43b7 a3be
000003f0: 47b9 d13e e089 58be f472 2ebe 206b 2b3e
-0.20520212 -0.18373893 0.3088026 -0.11211456 -0.12397702 0.3275207 -0.26694524 -0.03423737
0.29884347 0.099747494 0.1158469 0.020091858 -0.24229558 0.3000659 -0.014631833 -0.48885635
0.07733233 0.1353302 0.00011923164 -0.05165367 -0.025371179 -0.022006653 -0.057557628 -0.06599438
-0.08695571 0.09911482 0.03652267 -0.5453428 -0.24747828 -0.357191 -0.56170607 0.10951958
-0.13984771 -0.050705604 0.69597065 0.36988017 -0.054806575 -0.11193515 0.04118187 -0.08702316
0.021784054 0.05416524 -0.039321054 0.0074304743 0.061972197 -0.05969915 -0.053976294 -0.04887193
0.30054152 0.16955017 0.11842415 0.06750596 0.022580603 -0.04126842 -0.05014723 0.10254748
0.1888613 0.06706947 -0.4836187 -1.2501855 0.3624946 -0.094674245 -0.49590892 0.117695004
-0.23153879 0.16822629 0.21315317 -0.28865507 -0.031600818 0.15973954 -0.034315053 -0.083732024
-0.09212455 -0.068225026 -0.06139477 -0.075760886 -0.039587524 -0.032066643 0.083578944 -0.071450755
0.07422769 -0.21826963 0.17749764 0.0075220326 0.02995487 0.41262683 -0.4035048 -0.052733287
-0.011702327 0.053044338 -0.043839153 0.03414142 0.00018977374 -0.09324878 0.06872171 0.030959383
-0.07052688 -0.014524177 0.07356985 0.01210803 0.4996147 -0.10852274 -0.09298424 -0.20488127
-0.20214976 0.077587105 -0.2661433 0.26098555 -0.002142027 0.0074252635 -0.0034067482 -0.0601396
-0.009180054 0.01455456 0.061365128 0.0906623 -0.050676037 0.102934375 0.016047558 -0.05644534
-0.33293584 -0.51965654 -0.059057694 0.2522902 0.16248956 0.44031402 -0.3922636 0.34223258
0.1923757 -0.04697605 -0.36109743 0.23074514 0.4601264 -0.23947605 -0.20438607 -0.31389296
0.29323992 -0.08207293 -0.24693318 0.4603514 0.08816682 -0.30786282 0.18989699 -0.08184956
-0.54097235 -1.5717092 0.13960436 -1.1245452 -2.4387023 -0.4553392 0.13716273 -0.36828583
0.21375018 -0.1673538 -0.20298326 -0.16344024 0.04746174 0.124778025 0.42935437 -0.23364164
0.06997902 0.10296073 0.0021144627 0.18867733 -0.3126607 0.14793113 0.45013404 -0.47413975
0.056604095 0.31129658 -0.36657205 -0.90355253 -0.28514215 0.30413955 0.15879458 0.5645429
0.23786418 0.18580256 -0.287996 -0.6966886 -0.22278212 -0.22920756 0.10145533 0.16757582
0.70180345 -0.37140566 -0.11200529 0.08007718 -0.11632731 -0.27470425 0.06292245 0.07067007
0.23116952 0.37804374 0.19763963 0.046710454 -0.41925424 -0.2956924 -0.10076446 -0.15987678
0.18825284 -0.2655974 -0.35754138 -0.18577506 0.28956002 0.31201258 0.29836452 -0.12823229
-0.046527173 0.06606084 -0.05591133 -0.08794427 -0.041005053 0.061755393 0.055097695 -0.025869124
-0.09182412 -0.9215896 0.1827579 -0.5931285 -1.9143962 -0.101117454 0.14957054 -0.20891988
0.25280383 0.007362291 -0.0981914 -0.08366195 0.09644605 -0.060445827 0.04886949 -0.0021747723
-0.0039110184 -0.075164 0.36251724 0.16697279 0.18309975 -0.20657209 -1.2145944 -0.08218836
0.13110627 -0.49087107 0.24921574 -0.02443287 0.11301696 -0.053137355 -0.38279638 -0.027887462
0.26792413 0.21609008 0.1572176 -0.31975755 0.40961668 -0.21146345 -0.17036039 0.16740084

bias f4 [64]
00000000: 8822 593c 088f 053d acb3 c5bd 0053 b13c
00000010: 62ae 9dbe f5ea 88be 2c26 573e 1873 c03d
00000020: f8dd 44be d0f6 503d 2aca a8be 4030 c03d
00000030: 263e 5ebe 1d60 283d 123c 893d a230 8bbc
00000040: 1048 953e 225d d43c a37a cdbc 26f5 8b3d
00000050: e4a8 3f3d 9c82 df3c 0626 6d3c bac7 d0bd
00000060: 363a 993e cc53 bcbd 1d69 273e 359a c53d
00000070: f34c 243c ae3a 343d 634e c33c f922 ed3d
00000080: a164 903d 9f61 8ebe 7b3e 103d 71fd 7d3d
00000090: 838e bc3c 68a8 963d 5f36 ba3d e804 57bd
000000a0: 0513 613e 3d37 6d3d f823 6b3d 9659 3e3d
000000b0: c617 3fbe 0351 133e e7f5 85be 75fc b33c
000000c0: f034 27bf 934b 1dbe 8637 c73d f308 ae3c
000000d0: 54ab 97be 14a2 97be 7069 b1bd d778 b8bd
000000e0: 4072 9ebe 6ca5 3c3d aac0 b4bd 5839 34bf
000000f0: 1f10 0b3d 1726 633e e288 45bd c6e9 21be
0.013252862 0.03260711 -0.0965341 0.021646023 -0.30797106 -0.26741758 0.21010655 0.093969524
-0.192253 0.05101663 -0.3296674 0.09384203 -0.21703395 0.041107286 0.06700911 -0.016990963
0.29156542 0.025923315 -0.025082892 0.06833868 0.046791926 0.02728396 0.0144743975 -0.10194345
0.29927224 -0.091956705 0.16348691 0.09648553 0.010028112 0.044001274 0.023841089 0.11578936
0.070504434 -0.27808854 0.035215836 0.06200928 0.023017174 0.0735634 0.09092402 -0.052494913
0.21979912 0.057914007 0.05740735 0.046472155 -0.18661413 0.14386372 -0.2616417 0.021970967
-0.6531515 -0.1536086 0.09727387 0.021244502 -0.296229 -0.29615843 -0.08662689 -0.09007423
-0.3094654 0.046056196 -0.0882581 -0.704 0.03395092 0.22182499 -0.048226245 -0.15811834

weight f4 [64, 64, 3, 3]
00000000: 27a8 003c 6fdf a23e 198f bfbe 394d b33e
00000010: 6b2f f33d 2eb0 f2be 0e83 523e 57f1 3f3e
00000020: c30f 0f3d 72ab 423d db4e dabb 66ea 683c
00000030: 2edf a9be cda0 ddbe 2e81 00bd 7a52 023e
00000040: 1080 dcbd b8c6 173e 28cc 0cbd 4888 d33c
00000050: 005e 5f3d b608 2e3d 9246 393d f6b3 8abd
00000060: 1c2d 663d 20f1 7b3d cc03 5abc 86d7 403d
00000070: 5a08 b43e 64f6 a53d 88c0 163d 5e24 febd
00000080: a7d6 e1be cb9e b3be b352 9e3e 32d7 873e
00000090: 8ef1 adbc b024 42bc 5ca5 65bd 32f1 b33d
000000a0: 6fd7 c7ba 5282 cfbc a041 483d a89c b6bd
000000b0: 84d2 923d 32fd 70ba 59bc cdbe 91a4 b4be
000000c0: e812 bc3e e409 6b3e 713a a3be 76f8 ec3e
000000d0: 5a32 bb3e de2a 4fbe 51a1 acbd 4d9c 32bf
000000e0: ec78 96bd bbed 593f 2f7e 06bf 3af0 0bbd
000000f0: 055f 84be 359e 62bf 7540 d9ba 107b 413e
00000100: d25d 0b3f c9af ae3d ad5c 08bf bced 803e
00000110: cf9b ddbe a4a1 e2bd 0a91 6a3d 0006 6bbd
00000120: 143d 153d fde9 3cbd 40da 303b a05e 4c3d
00000130: 1c55 7c3d 6c33 5b3d e453 59bd b650 18bd
00000140: 7c74 7e3d e5aa 883d 7772 95bd 2257 e83e
00000150: 8236 22be 875c c7be 70f6 eebd 78c0 fd3d
00000160: 956c 073d f8a0 08bd 1009 813d 2a5a 903d
00000170: 24c5 8a3d 5b6f 48bd 847f 423d a0dd a43c
00000180: f490 253d b20c 75bd 2a0a 213d 3c34 83bd
00000190: e076 333f 12f3 9c3e f6ea 89be 981e 33be
000001a0: 269a 413e c9e4 f7be 55cc dcbe 2085 1b3d
000001b0: 6087 073b e062 663d 06a6 1b3d e3ca 0dbd
000001c0: c2a5 d0bc e0f4 843b 2073 873b 8014 593d
000001d0: 83ba 70bd 0e10 95bd 837e cabe a540 453e
000001e0: 809e a4bc d5bf 523d 889f 5d3d 64a4 963e
000001f0: 0fa9 b13d aa50 53be e545 863d 2482 c73d
00000200: a7f6 353d 317b c23c d7e5 4ebd 8167 afbd
00000210: cb96 3bbe 6b53 4c3b 6215 673c 0efc 153d
00000220: 1e24 20bd 9119 88ba 17d3 983c 4615 f2bb
00000230: daf7 b33d a41c 76bc 9f4f d3bd 09e4 e13e
00000240: e678 06bf 1685 89be 5d37 c1be 5959 af3e
00000250: 925e 283f ac2f 353e 2df9 f23e 2dca a73e
00000260: 72e5 96be 8f39 fdba 393f 083e 7e7a a2bd
00000270: 96fc 5fbc 82bb 58be ea4d 5ebe 04b5 b7bd
00000280: 4dc2 01be 8c29 03be 0d5e febd 9767 2e3b
00000290: 2b7f ad3c acfb 0f3f b8b3 863e d703 30be
000002a0: 6521 113f a41c b33e e463 86be 45ef b9bd
000002b0: 60ee 193e bb94 e5bd 1ba9 b33e 0f67 a4be
000002c0: 28cf 6fbe 7e13 663f 94cc 95be 5a07 e6bc
000002d0: 90ed 403b bfb0 6fbd b4bb e33e 0b60 e0bd
000002e0: 8b37 47be 9fa9 cabe 520e 543e 4f9c 143e
000002f0: d567 19bd 2861 ab3d 5481 903e dbb8 fe3b
00000300: de39 96be a173 bcbe 155c b43d 9a11 83bd
00000310: a719 673d 433d 1ebd 43b6 a2be 1f17 9c3d
00000320: d379 793e 0f88 5fbe 5aba 763d fe88 52be
00000330: 8e80 a23d 8222 a33e d82d 3abe 3699 afbc
00000340: 7cff 0dbd c457 2dbd b4c3 a73c c557 903d
00000350: b175 9dbc 085e 073d b2ba 74bd 4f1f eebc
00000360: 9609 17be 21a1 a5be cb65 203e f8bc 71be
00000370: bb79 943e 0702 93be 4063 463e 19a1 393d
00000380: 5668 933e b866 77bd b099 ffbc c6b4 f0bc
00000390: c215 133d f058 6c3d 9e65 1e3d 9a7d 8ebc
000003a0: cc1d ef3c 377f 22bd bfb3 353d c7a0 1c3e
000003b0: 50ed ebbd d7f2 0f3e 4d42 f83e 12cb 39bd
000003c0: e59b 0dbf d5bc dcbe 4411 64be b4d8 b23e
000003d0: 61bd c0bc 743f 033f 8c0f dabe 5d61 a3be
000003e0: 1f19 b53d 4c58 7ebd 07b4 9bbe c1b7 3c3e
000003f0: b03f c13e d453 96bd 9231 6ebd 7308 8abe
0.007852591 0.3181109 -0.37413862 0.35019854 0.11874279 -0.4740004 0.20557806 0.18744408
0.03492714 0.047526784 -0.0066622323 0.014216041 -0.33178085 -0.43286744 -0.031373195 0.12726775
-0.107666135 0.14821899 -0.034374386 0.02582182 0.054533005 0.042488776 0.045233317 -0.06772606
0.056195363 0.06150925 -0.013306569 0.04708054 0.35162622 0.08103636 0.036804706 -0.1240928
-0.4410908 -0.35082087 0.3092247 0.26531368 -0.021233346 -0.011849567 -0.056065902 0.08786239
-0.0015246699 -0.025330696 0.04889071 -0.089165986 0.07169059 -0.00091930025 -0.4018276 -0.35281804
0.36733174 0.22952992 -0.31880525 0.4628331 0.36561853 -0.20231196 -0.08429206 -0.69769746
-0.07347283 0.8512837 -0.5253629 -0.034164645 -0.25853744 -0.88522655 -0.0016574996 0.18894601
0.54440033 0.08529622 -0.5326641 0.25181377 -0.43282935 -0.11065987 0.057267226 -0.05737877
0.0364352 -0.046121586 0.0026985556 0.04989493 0.061604604 0.053515837 -0.05305852 -0.037186347
0.062122807 0.066732205 -0.07297223 0.45378977 -0.15841106 -0.3893778 -0.11668098 0.12390226
0.033062536 -0.033356637 0.06300557 0.070484474 0.06775883 -0.04893432 0.04748489 0.02012521
0.04042144 -0.05982656 0.039316334 -0.06406447 0.70103264 0.30654198 -0.26937073 -0.1749214
0.18906459 -0.48416737 -0.43124643 0.037968755 0.0020680055 0.05624664 0.03800013 -0.034617316
-0.025469664 0.0040575117 0.004133597 0.052998066 -0.05877162 -0.07278453 -0.39549646 0.19262941
-0.02009511 0.051452477 0.05410722 0.29422295 0.086748235 -0.2063624 0.065563 0.09741619
0.04442468 0.023740383 -0.05051216 -0.08564664 -0.18319242 0.003117765 0.014104219 0.03661733
-0.039096944 -0.0010383596 0.018655343 -0.00738779 0.08787508 -0.015021477 -0.10317921 0.4411929
-0.52528226 -0.2685935 -0.3773755 0.34247854 0.657693 0.17693967 0.4745573 0.32771435
-0.29471928 -0.0019319522 0.13305368 -0.0793352 -0.013671061 -0.21165279 -0.2170941 -0.08970073
-0.12671776 -0.12808818 -0.124202825 0.0026612037 0.021178802 0.56243396 0.2630899 -0.17188965
0.5669158 0.3498279 -0.26248085 -0.0907884 0.15032339 -0.11210009 0.35089955 -0.32109877
-0.23418868 0.8987349 -0.29257643 -0.028079677 0.0029438473 -0.058518168 0.44479144 -0.10955819
-0.19454782 -0.39582536 0.20708588 0.14512752 -0.037452538 0.083681405 0.2822367 0.0077735013
-0.29341024 -0.36806968 0.08806626 -0.063998416 0.05642095 -0.038632642 -0.3177968 0.076215975
0.24362879 -0.21829246 0.060236312 -0.20560071 0.07934676 0.31862265 -0.1818155 -0.021435361
-0.034667477 -0.042320028 0.02047906 0.07047991 -0.019221159 0.03304866 -0.05974836 -0.029067663
-0.1474975 -0.32349494 0.15663831 -0.23607242 0.28999123 -0.28712484 0.19373798 0.04531965
0.2879054 -0.060400695 -0.031201214 -0.029383074 0.03590942 0.057702005 0.03867113 -0.017393876
0.029189013 -0.039672103 0.044360872 0.15295707 -0.11519873 0.1405748 0.48488083 -0.04535968
-0.55316 -0.43112817 -0.22272211 0.34930956 -0.023527803 0.51268697 -0.42589986 -0.3191022
0.08842682 -0.062095925 -0.30410787 0.18429472 0.37743902 -0.07340208 -0.058152743 -0.2695957

bias f4 [64]
00000000: a113 6bbe 1edc e43e b86e 16be a320 203e
00000010: ab37 2dba 790f 0d3f cc78 c03e 5803 babd
00000020: 6eda 773e c120 7e3e f5e4 953e 3e24 aabe
00000030: f3d3 69bd b878 78bd 04fb 01be f3bc 30bf
00000040: b543 413e 49c9 453e cf78 223e 1ba7 823e
00000050: 62da d73e d053 c1be 0eb5 cc3e b136 593e
00000060: 02d9 5b3e 7e08 153e 0434 e1bb 906d bdbe
00000070: 800b febd 11a7 833e a7ed 143f 9924 653d
00000080: 473d cfbc a1a1 54be 24b2 733e 2a8f c6bd
00000090: f585 ac3c 7dc5 d73e 0ba6 133f 5544 663d
000000a0: 1383 ed3e 1666 3f3e 51f4 9f3d 8845 d73e
000000b0: 2346 d5be 20b9 d9bd 9f68 b0be 85c8 0a3b
000000c0: 5f84 ffbe 6fd2 60bc def9 b0be 62fe 0e3c
000000d0: c80f 723e 5c69 a3bd 17c0 acbc 0c47 b8be
000000e0: 97fa 953e 360e 16bf a593 683e 7ee6 e93e
000000f0: 01f7 2a3e d4a4 c13d 265d 21be 1104 58be
-0.22956707 0.44699186 -0.14690673 0.1563745 -0.00066077214 0.55101734 0.3759216 -0.09082669
0.24204418 0.24817182 0.29276243 -0.33230776 -0.057086896 -0.060662 -0.12693411 -0.69038314
0.18873484 0.19315065 0.15866397 0.25518116 0.421588 -0.37759256 0.39981884 0.2121227
0.214695 0.14554021 -0.006872656 -0.36997652 -0.12404537 0.257134 0.5817513 0.055943105
-0.025297774 -0.20764782 0.23798424 -0.09695275 0.02105997 0.4214286 0.57675236 0.05621751
0.46389064 0.18691286 0.078102715 0.42045236 -0.41655073 -0.10631013 -0.3445482 0.0021176648
-0.4990568 -0.013722046 -0.34565634 0.008727642 0.23638833 -0.0797908 -0.02108769 -0.35991704
0.29292747 -0.58615434 0.22712572 0.45683664 0.16695787 0.094552666 -0.1575819 -0.21095301

weight f4 [64]
00000000: f6ee 083f d7fb 103f 1c93 063f 18fb 273f
00000010: 12d6 143f fd86 503f 72d6 0f3f 5d43 d83e
00000020: 646f 2e3f 04c2 b53e 2b3e 2c3f 7c0f d93e
00000030: 530b 2d3f 7f91 513f 89a6 ca3e 5ba6 d83e
00000040: 99c3 e33e b70d 6b3f 8e13 043f 440c 1e3f
00000050: 34ae 093f 767d 5c3f 65bb 163f d1b8 313f
00000060: e4d2 ef3e cd49 093f c00d 143f 05bd e93e
00000070: 090b 4d3f fbba f03e 38a1 f83e 8ccd 0e3f
00000080: c774 673f 35fb 063f 2487 203f 970a 163f
00000090: 5e72 1b3f 8b05 403f ccfa 183f be34 033f
000000a0: b827 bd3e 8582 173f f36f ef3e e66b 083f
000000b0: 249d 463f e264 283f d624 223f a2d9 193f
000000c0: c006 303f a5ef 293f 28e1 e63e f360 e73e
000000d0: ef62 003f 2dec fd3e 0609 1c3f a1f5 273f
000000e0: 9035 fe3e 8b74 bc3e 67c6 083f b058 153f
000000f0: 8f51 0d3f 1f05 183f f349 173f 2ab8 093f
0.53489625 0.5663428 0.5256822 0.65617514 0.58139145 0.81455976 0.5618659 0.42238894
0.6813872 0.35499585 0.6728236 0.42394626 0.67595404 0.81862634 0.3958018 0.4231442
0.44485167 0.918178 0.5159234 0.61737466 0.5378144 0.8612894 0.5887969 0.6942263
0.46840584 0.53628236 0.5783348 0.45652023 0.80094963 0.47017655 0.485605 0.5578239
0.90412563 0.5272706 0.6270621 0.5860991 0.60721385 0.7500846 0.59757686 0.51252353
0.36944366 0.5918353 0.46765098 0.5328964 0.7758353 0.65778935 0.6333746 0.60097706
0.687603 0.66381294 0.45093656 0.45191154 0.5015096 0.4959425 0.6095127 0.65609175
0.4965024 0.36807665 0.5342774 0.5833845 0.55202574 0.59382814 0.5909721 0.5379664

bias f4 [64]
00000000: 712a a8bd 148b 13bf 9a42 d8bd 97c8 0dbe
00000010: fb99 dcbe 8abe 3ebf 7cc3 86be c268 38bc
00000020: e004 38be 56ab 57bd 0267 bbbe 3fa2 12bf
00000030: e9d7 843c 94b3 c2be b0aa 80be a5cd 9dbe
00000040: dd24 133e 62ae debd daad f23c d6d3 56be
00000050: d314 a63d 9bc2 d3be 9c6c 4c3e 0115 8abe
00000060: 53e5 8a3e 63fa 01be abaa 75be 7837 6fbe
00000070: 5d43 9fbd b2a7 393e 99e4 54be 5573 6ebe
00000080: 24eb b5bf f5dc 983a e74c 133e d61c bbbe
00000090: 565b 2abe 2d52 a0be 8dbb 393e 500c 0cbf
000000a0: 9977 783e ea72 7bbe 72ac 20bd 6cb4 82be
000000b0: c69a 60be 5609 05bf 15f8 66be 5d8b 00bf
000000c0: 04a7 88be 8fd2 dfbe 6b42 413f 401c 9cbd
000000d0: 30f4 c2be 9150 7dbe a8b5 67be 59fd 88be
000000e0: b974 1ebe e089 2bbd e71b acbe 9284 d2bd
000000f0: bb70 453d f806 b0be 2204 f4be ec60 d8be
-0.0821122 -0.5763409 -0.10559578 -0.1384605 -0.43086228 -0.7450949 -0.26321018 -0.011255445
-0.1797061 -0.052653633 -0.36602026 -0.5727882 0.016216235 -0.38027632 -0.25130224 -0.30820957
0.14369531 -0.10873105 0.029623915 -0.20979246 0.08109441 -0.4135941 0.19963306 -0.2696915
0.27128085 -0.12693171 -0.23990886 -0.23361003 -0.077765204 0.18130377 -0.20790328 -0.23286183
-1.4212384 0.001166253 0.14384805 -0.36545438 -0.16636404 -0.31312695 0.18137951 -0.5470629
0.24264373 -0.24555555 -0.039226957 -0.25528276 -0.21934041 -0.5196737 -0.22555573 -0.5021265
-0.26689923 -0.4371533 0.7549197 -0.07622576 -0.38076925 -0.24737765 -0.2262789 -0.2675579
-0.15474214 -0.041879535 -0.33615038 -0.10279192 0.04820321 -0.34380317 -0.47659403 -0.42261446

running_mean f4 [64]
00000000: f067 89be d205 a03e 45fa 7fbe c4ef ffbd
00000010: 4ceb b3be 0084 ce3e ffa5 d43e 85ac f2bd
00000020: b970 06bd 9d22 3b3e 115e ed3d 5a1d d7be
00000030: 8590 96be 2dcd 6bbe 7bb8 eebe 9b2c 54bf
00000040: d547 febd 0a36 0e3d c69a 853d 0618 8c3e
00000050: b074 883e 5eba 20bf d471 5a3e 2ceb 6f3e
00000060: d2a6 563d 87d5 293d be19 58be 5fc5 c6be
00000070: b817 8dbe cb5d 0fbe 197f e33e 518b 2dbe
00000080: 25d1 c1bc 5b15 31bf 576f 293d 31bd 66bd
00000090: ceb4 9dbd b41b 9f3e 1b98 e23e 230b 9ebd
000000a0: 6ee6 7b3e cce5 28bd 60ed 22be 8b38 ad3e
000000b0: 385e 21bf 1ded 83be 2554 eabe 35c6 45be
000000c0: f585 1abf e3bd 2f3d 9ade fcbe a189 69be
000000d0: 76c1 30bd 5008 23be 0b52 7abe 17aa fabe
000000e0: 52b2 47be d401 2dbf fdd5 4a3c d70d 913e
000000f0: 64a5 86bd 480b 0cbe 843d 24bf 8f7f b2be
-0.2683711 0.3125444 -0.24997814 -0.124969035 -0.35140455 0.40335083 0.41532895 -0.11849312
-0.032822344 0.18274923 0.11590207 -0.4201458 -0.29407135 -0.23027487 -0.46625122 -0.8288056
-0.124160446 0.034719504 0.06523661 0.27362078 0.26651525 -0.62784374 0.21332484 0.23429555
0.052405186 0.0414634 -0.2110357 -0.38822457 -0.27557158 -0.14000623 0.44432905 -0.16947676
-0.023659298 -0.6917321 0.041365948 -0.05633277 -0.077005014 0.31075823 0.44256672 -0.07716968
0.2459962 -0.041234776 -0.15910864 0.338322 -0.6303439 -0.2576684 -0.45767322 -0.19313891
-0.6036065 0.0429057 -0.49388582 -0.22806408 -0.04315325 -0.1592114 -0.2444536 -0.48957893
-0.19501618 -0.67580914 0.01238012 0.2833087 -0.065745145 -0.13676178 -0.64156365 -0.34862944

running_var f4 [64]
00000000: b6f7 2b3d 466a ca3c 8d60 923d 271d a33d
00000010: 537f 523d 0e5d a63c 9e81 cb3c 351d 1b3d
00000020: e62c 8b3d 18a4 573c 6932 903d d160 093d
00000030: 5024 663d 707a 803d 54fb 003d 279f 2b3c
00000040: 541d 113d 058a b23d e36f 7d3d d43c 623d
00000050: ded2 1e3d 3878 a53d aa66 7f3d 912d 2b3d
00000060: 091e 6b3d 449d 623d 362b 023d 3e18 fa3c
00000070: 6199 d03d c232 4f3d cf89 1a3d 22e1 103d
00000080: 105b 0e3d 3965 8f3d c0b2 553d e498 263d
00000090: ccdc 623d 98f2 123d a22b ae3d 3e36 333c
000000a0: 8606 ea3c cffa 373d f9b9 223d 0dcd 893c
000000b0: 9f01 ba3d b51d b53c cd30 423d 2936 9b3c
000000c0: e2e6 953d bc72 713d 9ffe 853c a741 0a3d
000000d0: 1ca6 883c ce88 0f3d fe92 343d 7c99 df3c
000000e0: c918 2f3d ae34 073d de5f c43c 5208 113d
000000f0: dd5f 903d 22bc 0f3d 52b4 3b3d 7627 363d
0.041984282 0.024708878 0.07147322 0.07964545 0.051390957 0.020308044 0.02484208 0.03786965
0.06795673 0.013161682 0.07040865 0.033539597 0.056186974 0.06273353 0.031489685 0.010474957
0.03542836 0.087177314 0.06187428 0.05523379 0.038775317 0.080795705 0.062353767 0.041791502
0.05740169 0.05532576 0.03177949 0.030529138 0.10185505 0.050585516 0.03772908 0.035370953
0.034754813 0.070017286 0.052172422 0.04067315 0.05538635 0.035875887 0.08504416 0.010938225
0.028567564 0.044916924 0.03972814 0.016821409 0.090823404 0.022108892 0.04740982 0.018946724
0.07319428 0.05894731 0.016356764 0.033754017 0.01668077 0.035042576 0.044085495 0.027294867
0.042748246 0.033009224 0.023971494 0.035408325 0.070495345 0.035091527 0.045826264 0.044471227

weight f4 [64, 64, 3, 3]
00000000: 378f 323e 7b6c 03bd 015c 8f3e 3093 44bd
00000010: cfe2 b63d 2973 9b3d b8a4 973e 3a32 913e
00000020: 7b15 babe 13c3 fabd 13e3 30bd a0ce bdbd
00000030: dcac 54bd 34b8 b3bd 6bc6 9dbd bf0b f53d
00000040: f7a6 19bf 804f 0bbf e662 7bbe ed39 233e
00000050: 75dc 9ebe 46bf 85be 5ee0 283e 1f85 fcbe
00000060: 13c9 24bf d842 2bbf 2852 a5be b8fc a53e
00000070: b9e3 68bc da4e ad3e 8124 9abe b32f 413e
00000080: 6d28 1e3e 9e32 6f3e 125b 9fba a364 a8be
00000090: ca6e d1bd e602 b23e 5f3b 003e b0fe e5bd
000000a0: 3153 823d 26b6 8b3d fbd7 70be e2b5 37be
000000b0: ecef 9cbe e844 983d 8e75 bb3e 6f57 973e
000000c0: ab5a 6bbe 3fa9 80bb db59 2ebe a0b5 773e
000000d0: 4b46 48bd ede5 48bd 6f04 373d d432 e03d
000000e0: b53e 0c3d 1ebe dcbe d10d debd 31ac 8fbe
000000f0: 6ceb 003e a0a3 9b3b 150f b13e e2f0 39be
00000100: c0c0 6abe 81f2 67bd dee6 93be b49c efbe
00000110: c736 b5be a1ba 4c3e 21d7 8fbe 7ecf 26bf
00000120: 31b4 d13e 19d6 c6be 0e35 63be e038 e8be
00000130: 886e 28bf 5c37 f53d 495a 7d3e 1b12 823e
00000140: e2cb 963e 6db7 d63e a1c0 e63e badf 433f
00000150: d00f b33e 0909 293a 096a 023f 682f 893e
00000160: 8a78 f73c 481d 07bf 79aa d13d f1cd 00bf
00000170: b585 1ebf 582d 3cbe 9938 fa3d e3cb f2be
00000180: c6ce 553e d310 173f 0f01 b7be 97e1 45be
00000190: 22c7 81bd 2bb5 2fbe c7a0 bdbd 29b1 dd3e
000001a0: 98ac f7bd 4ae6 8bbe 3fea 47be ff28 52bf
000001b0: 64c8 a63e 4ba5 07be c674 bebe 7abc 023d
000001c0: 8958 373e d97d 623d 2eb7 5b3e 9971 f5bd
000001d0: 6880 5b3e 5275 113f bb07 9bbe 897c 2cbe
000001e0: 7e61 d6bd a9af dfbe 86e3 b3be 2803 71bd
000001f0: 62fb 683e 6ff0 dc3d 2019 e43c 32ea a4be
00000200: 4da0 1ebf 5b26 2b3e 9b1f fc3d 8687 4abe
00000210: 4bc9 cbbe 0d08 553d dbd4 4c3e fbdd fabd
00000220: fb5b e8bc f0f6 5e3e 87bf 983d bc71 86be
00000230: baa6 04be b9cc 743e d60b c73e 1748 08bd
00000240: b0a6 dabd a114 b93d 44b1 4fbe b6ee eebc
00000250: 11dc 9bbe 884d adbe 211a 5d3e 0122 36bd
00000260: 27de 453f c275 83bd 95c9 1fbe d6dd 3c3e
00000270: f811 cc3d 3bf2 3d3d 5dbd 193e 8721 6c3c
00000280: a649 e43e 39ea abbe 4dac 7e3e 0080 4c3d
00000290: e326 5a3e 42b6 753d a071 403b a36c 3e3e
000002a0: 007d 27bc 8be5 eabe a668 65bd e81d 31be
000002b0: af0c cdbc 35c1 be3e 9a97 aabc d298 1abe
000002c0: 421a cabc 5fbe b43e 912c 67bd 3d2c d0bb
000002d0: 69f8 893e 360b 1e3e 2191 173f 8ea6 7abe
000002e0: 2935 0dbc 0452 d23d 5bd9 efbd 0726 a3be
000002f0: 95bd 443d a558 303e c193 a23e 4b8d 7c3e
00000300: dcc2 053e e310 d2bd e5a3 bd3d 661b cf3c
00000310: 80f8 463d 7df6 0cbf 55f4 0d3e 206c 41bd
00000320: 79ba 6d3e 0cfc 7c3d 92dd c7bd 044f 133e
00000330: 1e14 15be 2ee7 77be c30b bc3e 72e5 5a3d
00000340: bb96 66bd 8b43 c7bc 6033 463e 0d57 51be
00000350: 4a31 81be 437c 37be 2e76 a8be 504e e8be
00000360: 7c19 83be bcf2 053e 083d 8abe ef6b 163e
00000370: 15de 783e f50a bfbd 2569 163e 434f a53e
00000380: 0892 02be 1c46 b83e a292 643e 1622 033e
00000390: 53e8 02be e2df 2bbd 0968 45bd 1082 d73c
000003a0: 1194 a9be 5053 27be 40dc 223e b02f 82bd
000003b0: afc7 61be 45da 663d 9d63 76be 5c8e 72be
000003c0: 393f 573d 18a4 1ebf 8f94 27be dbff cbbe
000003d0: afe0 f4bd c815 0bbe 4267 6f3e 5551 73be
000003e0: 56be d1bc 67f5 043e cd38 8bbe 56bc 583e
000003f0: 02e6 2dbe 9571 c03e 993f 26be 4ed2 603d
0.17437445 -0.032085877 0.2799988 -0.04799193 0.08929979 0.075903244 0.29617858 0.28358632
-0.36344513 -0.12244239 -0.043185305 -0.09267926 -0.051922664 -0.08775368 -0.07703861 0.11965131
-0.60020393 -0.5441818 -0.24549446 0.15940066 -0.3102757 -0.26122493 0.1649184 -0.49320313
-0.64369315 -0.6689887 -0.32289243 0.32419372 -0.01421445 0.3384922 -0.30105975 0.18865852
0.15445109 0.23359153 -0.0012157878 -0.3288928 -0.102262095 0.34767836 0.12522648 -0.112302184
0.06363524 0.068218514 -0.2351989 -0.17940477 -0.30651796 0.07435018 0.36613125 0.29558894
-0.22983806 -0.0039264257 -0.17026465 0.24190378 -0.04889516 -0.0490474 0.044681963 0.10947195
0.03423949 -0.43113798 -0.10842479 -0.2806106 0.12589806 0.00474973 0.3458182 -0.18158296
-0.22925091 -0.056627754 -0.28887075 -0.46799242 -0.35393354 0.19993068 -0.28093818 -0.6516036
0.40957788 -0.3883522 -0.22188208 -0.45355892 -0.6579366 0.119734496 0.24741472 0.25404438
0.29452425 0.41936818 0.4506884 0.76513255 0.34973 0.0006448185 0.50943047 0.2679398
0.030208845 -0.52779055 0.10237593 -0.5031424 -0.6192277 -0.18376672 0.122178264 -0.47421178
0.20879659 0.59010047 -0.35742995 -0.19324337 -0.0633681 -0.17158954 -0.092591815 0.43299225
-0.120934665 -0.27324134 -0.19522952 -0.82093805 0.3257476 -0.13246648 -0.37198466 0.031918027
0.17904867 0.0552958 0.21456596 -0.11984558 0.21435702 0.5681964 -0.30279335 -0.16844381
-0.10467814 -0.43688706 -0.35134524 -0.0588409 0.22752145 0.107880466 0.027844012 -0.32209927
-0.6196335 0.1671385 0.12310716 -0.1977826 -0.39802012 0.05200963 0.20003073 -0.12249371
-0.028364172 0.21773887 0.07458406 -0.26258647 -0.12954226 0.2390622 0.38876218 -0.033271875
-0.10676324 0.09037138 -0.20282465 -0.02916656 -0.30441335 -0.33848214 0.21591999 -0.044466022
0.772921 -0.06418945 -0.15604241 0.18443999 0.09964365 0.046373587 0.15013643 0.01441229
0.4458744 -0.33577135 0.24870415 0.049926758 0.21303897 0.059988268 0.00293646 0.18596129
-0.010222673 -0.45878252 -0.056008004 -0.17296565 -0.025030462 0.3725678 -0.020824242 -0.15097359
-0.024670724 0.35301492 -0.056438986 -0.00635293 0.26947334 0.15433964 0.59205824 -0.24477598
-0.008618631 0.102695495 -0.11711379 -0.3186495 0.048032362 0.17221315 0.31753352 0.24663274
0.13062614 -0.10257127 0.09259776 0.02528162 0.04857683 -0.5506361 0.13862737 -0.047222257
0.23215665 0.061763808 -0.09759058 0.14385611 -0.14558455 -0.24209282 0.36727723 0.053441472
-0.05629609 -0.0243242 0.19355536 -0.20443363 -0.25232917 -0.17918496 -0.32902664 -0.45372248
-0.2560538 0.13080877 -0.26999688 0.14689611 0.24303468 -0.09328262 0.14688547 0.32287034
-0.12751019 0.3599099 0.22321561 0.12805972 -0.12783937 -0.04196156 -0.04819492 0.026307136
-0.33120778 -0.16340375 0.15904331 -0.06356752 -0.2204883 0.0563605 -0.24061437 -0.23687118
0.05255053 -0.6196914 -0.16365264 -0.3984364 -0.119569175 -0.13582528 0.23379233 -0.23761494
-0.025603455 0.12984239 -0.27191773 0.21165594 -0.16982272 0.37586656 -0.16235198 0.054888062

bias f4 [64]
00000000: e257 523e c846 acbd a2e1 3a3e 4bd2 30be
00000010: 8e97 1ebe 1694 0ebd 335a 2f3e 1677 d73c
00000020: 8d22 cabd daa2 c83d bd95 31be e597 f43d
00000030: f863 ea3d cced f33d 108a 4b3e 96a4 97bb
00000040: 957e 303e be79 6b3e d3e6 133e e288 1e3e
00000050: 8460 013e 452d 21be b1cd 963d e237 1abe
00000060: fdcb 2f3b cfff 113c cd0e bcbd c116 5e3c
00000070: 746c d2bd 1c38 babe 566e 2d3e 8f14 db3d
00000080: f2e9 493e b7b5 5e3e 21c0 64bd 7564 55be
00000090: e70d b2bc d717 f8bd 6445 cabd b10c 1d3e
000000a0: 5e22 42bd 9333 0dbc e8bb a4bc b890 a5be
000000b0: 7681 f7bd 1dbd 0b3d 55a3 de3d 96cd 473e
000000c0: 39eb 983e ab86 7ebe 7c05 19be a4ec 67b9
000000d0: d7fb fa3d b971 783e 74cb df3d a11f 22bf
000000e0: 5e8e 2bbe cbbf 723c e5f2 afbe 16a3 973e
000000f0: 8228 893e aa11 833d 6ae4 eabd 1a16 d5bb
0.20541337 -0.08411938 0.18250135 -0.1726772 -0.15487501 -0.034809195 0.17124252 0.026301902
-0.09869871 0.097966865 -0.17342277 0.11943034 0.11444849 0.119105905 0.19876885 -0.0046277745
0.17235787 0.2299566 0.14443521 0.15481904 0.12634474 -0.15739925 0.07363451 -0.1506038
0.0026824467 0.008911087 -0.091825105 0.01355523 -0.10274592 -0.36370933 0.16936621 0.106972806
0.1971815 0.21749006 -0.05584729 -0.20839103 -0.021735145 -0.12113922 -0.098765165 0.15336873
-0.047396056 -0.008618253 -0.020109132 -0.32336974 -0.120852396 0.0341159 0.10870997 0.19512019
0.2986696 -0.24856059 -0.14943498 -0.00022118032 0.12255066 0.24262132 0.109274775 -0.6332951
-0.16753528 0.014816235 -0.34365 0.29616612 0.26788718 0.063998535 -0.11469348 -0.006502879

weight f4 [64]
00000000: cce6 313f a10e b53e d7a8 2e3f fb37 fb3e
00000010: eec4 213f abe1 0e3f 37e1 e43e 6175 1a3f
00000020: 124f da3e b290 013f dff8 f03e f595 253f
00000030: fad1 fd3e 690a fd3e e631 e43e f8c3 5f3f
00000040: d3ae 0e3f f67b 373f 2f90 863f 3cef c93e
00000050: c057 303f 0018 033f 1e6d dc3e 184e 563f
00000060: b226 f33e 2094 683f 3140 513f a7ef f13e
00000070: 17a5 163f 7780 113f 73fa 593f 9670 5f3f
00000080: a5ed f93e 10a6 e03e f3f0 063f 9861 593f
00000090: 02a6 123f 42c3 053f da62 073f 0180 183f
000000a0: 2e78 033f 4be9 cc3e 6540 353f 0555 7e3f
000000b0: 40f9 fc3e 7732 a83e 51b1 953f f381 0d3f
000000c0: a021 693f 5b76 563f b3e4 7f3f 61df 103f
000000d0: fa96 d93e 2ee2 333f 588a a83e 2df0 183f
000000e0: b1d8 b43e ca7c 083f f370 fb3e 9898 2d3f
000000f0: 25ec 773f b770 8c3f 4765 2d3f 2651 123f
0.69492793 0.35362723 0.6822638 0.49066147 0.63191116 0.5581309 0.44703075 0.60335356
0.4263845 0.5061141 0.47064874 0.6468194 0.49574262 0.49422005 0.4456932 0.874084
0.5573551 0.71673524 1.0512751 0.39440334 0.68883896 0.51208496 0.43052 0.8371291
0.4749046 0.9085102 0.81738573 0.47253153 0.5884566 0.56836647 0.8514778 0.8728117
0.4881412 0.43876696 0.5271141 0.8491454 0.5728456 0.52251065 0.5288521 0.5957032
0.51355255 0.40021738 0.70801383 0.9934848 0.49408913 0.32851002 1.1694738 0.5527641
0.9106693 0.83774346 0.9995834 0.5659085 0.42497998 0.70267 0.32918048 0.5974148
0.35321572 0.53315413 0.4910961 0.67810965 0.968447 1.0971898 0.6773266 0.5715507

bias f4 [64]
00000000: 46ea f23b 4863 bf3d ff46 323d cfcc 913c
00000010: 8acb 283e cf7e 65bf 21ae 9dbe a78b b23d
00000020: 4293 0c3e 504a 8bbd 92b7 a6be 6840 62be
00000030: e08b ffbc 745f c63c 6c4c 423e f5f1 70bb
00000040: c382 cbbe dd54 d1be e8a9 babe 4c7b 163f
00000050: 7093 b0bd bea5 1b3e 5ca2 46bd a4b1 1cbe
00000060: de7d abbe 31c8 d8bd a7b5 c7be cb36 1cbf
00000070: ae29 1dbf c9b2 7e3d 7321 2ebe 3d87 45be
00000080: be64 433e e6bc 80bd 2c7f febd e99f 9abe
00000090: d459 3fbd acb5 173e 06d9 4fbe 60be 543d
000000a0: e4dc 35bd 30a2 17be adac 0ebe 1eb2 9cbe
000000b0: 17b5 8bbd bf75 2f3e c21f d2be 815a abbd
000000c0: 3013 26be 624a 68be 8bda 92be 228d debe
000000d0: 94e5 603e 2092 6abe ce79 393f 653a 69bd
000000e0: b8f0 01be a1ec f7bd a985 f3bd 0295 11be
000000f0: cc45 babe f430 06bf f5ee fbbe 15c6 7d3d
0.0074131815 0.09345108 0.04352474 0.017797856 0.16483894 -0.8964662 -0.30796912 0.08718043
0.1372805 -0.06801283 -0.32561928 -0.22094882 -0.031194627 0.024215437 0.18974465 -0.0036765311
-0.397482 -0.40885058 -0.36457753 0.58781886 -0.086218715 0.15199944 -0.04849468 -0.1530214
-0.33494467 -0.105850585 -0.39005777 -0.6102111 -0.61391723 0.06218222 -0.17004947 -0.1928987
0.19081399 -0.062860295 -0.124266 -0.30200127 -0.046716526 0.14815396 -0.20297632 0.05193937
-0.04440011 -0.14807963 -0.13933058 -0.30604643 -0.068216495 0.1713476 -0.41039854 -0.083668716
-0.16218257 -0.22684625 -0.2868236 -0.4346705 0.21962577 -0.22907305 0.72451484 -0.056940455
-0.12689483 -0.1210568 -0.11890728 -0.14216998 -0.36381376 -0.52418447 -0.49205747 0.061956484

running_mean f4 [64]
00000000: 36b6 3dbf 09c4 e2be 7a48 e8bf a51c 8dbf
00000010: e593 58bf 47d3 11bd e3fe 2ebf 90b8 b2be
00000020: d483 533e 3e53 8dbf 67ba b9bf 9bc7 a9bf
00000030: d9d7 a3bf 83f8 833f 6cea d0be d43a a5bf
00000040: 88d1 2cbe 0e71 0abe bf6d 22c0 17d3 c0bf
00000050: a95e 84bf 9c61 6ebf 23ec 8cbe 1dde febf
00000060: 26ea 153d 6bd5 a7bf 9a17 c0bf 2ff6 243e
00000070: 922f 90bf 184a 17bf 9db9 61be 7870 64bf
00000080: 66f0 d8be e233 03bc 222e a6bf 2528 01c0
00000090: 3b07 73be 8ae8 7dbf 8901 5dbf 8ae3 a6bd
000000a0: cda0 96bf 4b94 3ebf ea74 afbf c1c9 7cbf
000000b0: eddb 31bf e0d9 fb3c c6ca d9bf 3922 eabe
000000c0: 92f0 b0bf 475d 17c0 603c 81bf 73c7 dfbf
000000d0: af03 11bd 9299 0cbf bb90 193f f407 e4be
000000e0: e34f d6be 5d10 73bf 5e10 1abc 7677 61bf
000000f0: 3aba 1bbf 92c3 cebf 6f36 09bf 54f9 02c0
-0.74106157 -0.44290188 -1.8147118 -1.1024367 -0.8460067 -0.03560188 -0.68357676 -0.34906435
0.20655757 -1.1041028 -1.451001 -1.326404 -1.2800246 1.0310215 -0.4080385 -1.2908578
-0.16876805 -0.1351969 -2.5379484 -1.506442 -1.0341388 -0.9311769 -0.27523908 -1.9911534
0.036600254 -1.3112005 -1.5007203 0.16109537 -1.1264517 -0.59097433 -0.22043462 -0.89234114
-0.4237091 -0.008007975 -1.2982829 -2.0180752 -0.23733227 -0.9918295 -0.8633047 -0.081488684
-1.1767823 -0.7444503 -1.3707554 -0.9874535 -0.69476205 0.03074354 -1.7015007 -0.45729235
-1.3823416 -2.3650682 -1.009655 -1.7482742 -0.035403904 -0.5492183 0.59986466 -0.44537318
-0.41857824 -0.94946843 -0.009403316 -0.8807291 -0.60831034 -1.6153433 -0.53598684 -2.0464678

running_var f4 [64]
00000000: c2d4 8640 90ec 0540 da01 8f40 e657 4d40
00000010: 850c 9c40 1eb0 3440 57e0 f43f 236f 3e40
00000020: eb36 5740 de1b 1f40 6242 ec3f f578 4340
00000030: c1a1 4940 eb05 2c40 8b1c 2c40 363b 1541
00000040: 56bf e43f a8c3 5b40 2595 a740 52f7 3140
00000050: 70e9 8b40 9e5a 5540 4adb 3040 459b b340
00000060: d977 9b3f e198 a740 be82 8940 dced fe3f
00000070: 0ea3 f63f ce7e 4840 b404 8e40 fa7b 9140
00000080: 0ebd 4a40 dc57 0a40 e35c 3440 76c4 8b40
00000090: b06c 3740 08f5 6540 1ea0 1640 f02c 4640
000000a0: f3f4 2240 35b8 d53f 1019 3240 c1fe a940
000000b0: 1174 5240 780e da3f d22c c540 7791 5c40
000000c0: 7502 db40 1275 7640 dcfd 8d40 093e fd3f
000000d0: f81d 2e40 6eca 5d40 4e38 3240 a628 3540
000000e0: 6060 0140 5874 2240 3105 1540 0d5f 4440
000000f0: 02ac 9c40 a255 8340 ec92 e33f 4f90 8e40
4.2134714 2.0925636 4.468976 3.20849 4.8765283 2.8232493 1.9130963 2.9755332
3.362727 2.4860759 1.8457758 3.0542576 3.1504977 2.6878612 2.6892421 9.326956
1.7870891 3.433817 5.236956 2.7807202 4.372246 3.3336558 2.7633843 5.612704
1.214595 5.237412 4.2972097 1.9916339 1.926851 3.1327395 4.438074 4.546384
3.167789 2.1616125 2.8181694 4.367732 2.8660088 3.5930805 2.3535228 3.0964928
2.5462005 1.669684 2.7827797 5.312348 3.2883341 1.7035666 6.161721 3.4463785
6.84405 3.8508954 4.4372387 1.9784557 2.7205791 3.4654803 2.7846866 2.830606
2.0215073 2.538351 2.3284419 3.0683014 4.895997 4.104203 1.7779212 4.455116

weight f4 [64, 64, 3, 3]
00000000: e012 033e af20 f03d 096c b93e 4cec 2f3e
00000010: 4356 673e a2bc c3bd 839e 883e 43e8 ef3e
00000020: b9f1 9b3d 7c59 87bc 36b8 e63c 285b f93d
00000030: 00bd d23d fb10 0fbf c42a 2cbd a0a7 783e
00000040: 2d26 913d 85f3 363d 719d 76be 3e7b 973e
00000050: c2c8 923e 78e9 1cbe 9c9f 8bbd 92a1 37be
00000060: a795 fa3d f5d4 54be 93ed 843d 8db4 8fbd
00000070: d0b0 9b3e 7b84 27be 8f84 923e 51a8 643d
00000080: 6f88 5f3e 30c0 c73d 8aac bfbe baa4 5dbd
00000090: 7144 ffbc 5eba 4b3e 79e4 f0bd 43c8 013d
000000a0: 7f76 fa3e 7750 80be 7a8b 153e 2556 c3be
000000b0: 2e26 723e 5a14 b33d 579b 573e 0d5d 003d
000000c0: 76c6 a33e 0501 e63e 99ca ccbd a58b 84be
000000d0: cbb0 86bd 33bf febd 4a53 9c3d 490e 4e3e
000000e0: 6045 d6bb fefb 0d3f 82ad 28bf 5b45 5d3e
000000f0: 9937 913e e2de 92bf 410d 27be 1987 c3be
00000100: 8279 9ebd 89fd 8e3d cf83 ecbe 4cd6 0dbf
00000110: c18c 97be 52ea c9bc 0d6b e7bd 4d12 44be
00000120: c48d 283e aaa4 a4be 0768 0abe dfd5 5c3e
00000130: 455f c13d 155c 913d fc69 b1bd 0923 bfbe
00000140: c634 5f3d 8b4c 0d3f 3625 da3e acb7 4bbe
00000150: 50a5 b9bd 6dbf 8cbe 1e24 1ebe fe7f 193d
00000160: 5906 d8be 1538 babd 0c5a a2be 6209 763d
00000170: 795d 903e 4850 8f3d 4d94 38bd 2b6f 49bc
00000180: 8ffe a8bd 92fc c03e fad7 73bc e8bd 98bd
00000190: f9d0 073e f515 eabe eda6 3cbe e00c 3a3e
000001a0: 50ac fe3d 51b9 b5be fbea 14be 32c1 21be
000001b0: 3461 39bd bd93 d4bd 8e8b 02bf bc48 f73d
000001c0: 5a20 19be f3b7 dcbe f905 0bbf fbd1 373d
000001d0: f378 17bf 23d7 01be 6282 c73e 261d df3e
000001e0: 1a56 66bf 3ab9 2cbe fab0 583c e518 a5be
000001f0: a164 8fbe f289 c43e aad4 d9bd abcf 25bd
00000200: 6107 5cbd 01ad 193f 0e35 3f3e 8409 b83d
00000210: 13df 9dbb 7ec7 c73e d246 c6bd cad1 2bbd
00000220: 32d5 a83d 02a7 d73e 7bcd 883d 7e59 3dbf
00000230: d4ba 10bf 03b1 f8bd 9eea f5be eaaf 993d
00000240: 2f1e 80bf a1a9 833e fbe7 92bc 35fd 4abd
00000250: ec36 86bf a468 30be ccad 37be 6e0f f3be
00000260: 0a65 19bf e689 773e 53d5 3abb f571 803e
00000270: 9b62 a3be 9edc e3be be9a c63e e6a1 aebe
00000280: 3f97 3f3d 4c47 47be ff8a 68bd 94cf 443e
00000290: 702e 8abe 5877 823e 94dc 32be a590 a03c
000002a0: 7539 323e 9a64 7b3e 6ce5 82bc e41b 433d
000002b0: afc4 30be ae71 6f3e 0514 c1bd daab 103e
000002c0: 25cc ab3d f6dc a2be 3819 e93e f79e a5be
000002d0: 35d0 01bd db2d b6be 542a 9ebe 1eb4 54be
000002e0: 461c 813e 3d35 c2be bd39 acbe 5579 c3bd
000002f0: 072f a5be 8a82 1fbd d631 9ebe 4b46 8f3e
00000300: 6b48 bebc fed1 ac3e 9ebd b3be 4629 efbd
00000310: 74f6 8abd c64f 96bc 2b3f e7be 8ebf 7b3e
00000320: 5929 15be 259e 93be e18c 3d3e d6cc 033f
00000330: c918 743e 642e d8bd 42ed 9c3d 8271 33be
00000340: b93a 96be af41 613e b84f abbe bb08 d23e
00000350: 0e65 073f 75b6 dcbe f9fa 4a3e 043f c9be
00000360: 572e 92bd f7bd 38bf b2cf 013e fc6f 36be
00000370: 2dd1 e1be 12ed f4be 2085 a4bd 11f4 323f
00000380: 4e59 703e 5bf5 a83e d7dc abbe c817 babd
00000390: e66e 953e b98c e8bd a75c 44be f870 5fbe
000003a0: 437b eb3e ed1c 25be 7891 8fbe d386 49be
000003b0: a409 d0be ec29 7bbe 6484 0e3f d34d 903c
000003c0: de23 14be ee15 b63e 81fe e3bd 427d a43e
000003d0: d09c cd3e 5107 95be 71f9 2abd d417 4f3e
000003e0: 0bd7 2ebe 1a0a 9c3e 9082 41be 1ac2 093c
000003f0: 13a1 4e3e 2fd7 8a3e 3b55 1e3e 680d 11be
0.12800169 0.11724984 0.36215237 0.17179984 0.225915 -0.09557463 0.26683435 0.4685689
0.07614464 -0.016522162 0.02816401 0.1217559 0.10289955 -0.55885285 -0.042032972 0.24282694
0.070873596 0.044665832 -0.24083497 0.29586214 0.2866879 -0.15323436 -0.068175524 -0.17932728
0.12235575 -0.20784362 0.06490626 -0.07016859 0.30408335 -0.16359131 0.2861676 0.05582458
0.21829389 0.09753454 -0.37436324 -0.054112174 -0.031160565 0.19895312 -0.11762328 0.031685125
0.4891853 -0.2506139 0.14603987 -0.3815166 0.23647377 0.08744116 0.21055351 0.03133874
0.3198735 0.44922653 -0.0999958 -0.2588779 -0.06576689 -0.12438812 0.07633074 0.20122637
-0.006539032 0.55462635 -0.6588975 0.21608488 0.2836273 -1.1474268 -0.1631365 -0.3818901
-0.077380195 0.06981952 -0.46194312 -0.55405116 -0.29599574 -0.024647865 -0.11299715 -0.19147606
0.1646033 -0.3215688 -0.13516246 0.2156596 0.09441999 0.070976414 -0.08662793 -0.37331417
0.054493688 0.5519492 0.42606515 -0.19894284 -0.09064734 -0.27489796 -0.15443465 0.03747558
-0.42192343 -0.09092728 -0.31709325 0.060067542 0.28196314 0.06997734 -0.045063306 -0.012294571
-0.08251678 0.37692696 -0.014883036 -0.07458097 0.1326331 -0.45719877 -0.18423052 0.18168974
0.1243521 -0.35492948 -0.14542763 -0.15796354 -0.045258716 -0.10379741 -0.50994194 0.1207442
-0.14953747 -0.43109092 -0.5430599 0.044877987 -0.5916893 -0.12679724 0.38966662 0.43576926
-0.8997513 -0.16867533 0.013225788 -0.32245556 -0.2800646 0.38386494 -0.106362656 -0.04048125
-0.053717975 0.6002961 0.18672583 0.0898619 -0.0048178523 0.39019388 -0.09681477 -0.041948117
0.08243789 0.42119604 0.06679817 -0.7396468 -0.5653508 -0.12143137 -0.4803056 0.07504256
-1.0009211 0.25715354 -0.017932883 -0.049557883 -1.0485511 -0.17227417 -0.17937392 -0.4747271
-0.599198 0.24173698 -0.0028508499 0.25086942 -0.31911168 -0.44504255 0.38789934 -0.34107894
0.0467751 -0.19460791 -0.056773182 0.1921981 -0.26988554 0.25481677 -0.17466956 0.019600222
0.1740473 0.24550095 -0.015978537 0.04763402 -0.17262529 0.23383209 -0.094276465 0.14128056
0.08388547 -0.31809205 0.45527053 -0.32347843 -0.031692702 -0.3558186 -0.3089167 -0.20771834
0.25216883 -0.37931243 -0.336378 -0.095446266 -0.32262442 -0.03894285 -0.30897397 0.27983317
-0.023227891 0.3375396 -0.35105604 -0.11677794 -0.067852885 -0.018348586 -0.4516538 0.24584791
-0.14566554 -0.28831592 0.18510772 0.5148443 0.2383758 -0.10555723 0.07662441 -0.17523769
-0.29341677 0.21997713 -0.33459258 0.41022286 0.5288857 -0.43107954 0.19822301 -0.3930589
-0.07137745 -0.72164863 0.12676886 -0.17816156 -0.441049 -0.4783712 -0.08033204 0.69903666
0.23471567 0.3299969 -0.33566925 -0.09086567 0.2918617 -0.11354966 -0.19175969 -0.21820438
0.4599248 -0.16124316 -0.2804067 -0.19680338 -0.40632355 -0.2452771 0.5567076 0.017615234
-0.14466807 0.35563606 -0.11132527 0.32126814 0.401587 -0.29107144 -0.041741792 0.20223933
-0.1707422 0.30476457 -0.18897462 0.008408094 0.20178632 0.27117297 0.154622 -0.1416527

bias f4 [64]
00000000: d701 293d a31a 51be 9c1c 1b3e 893d 2bbb
00000010: 555d b6bc b7c7 88bc 3769 0fbe 9e5b 493e
00000020: 2042 acbd f6ce 493d 93f4 943e 7779 d8bd
00000030: 3978 e13d a881 253d 39c6 6b3e 873b 83bd
00000040: 6a42 dc3d 6835 233d 66de 76bd d3e3 893d
00000050: 552f 22be ddc3 693e af97 013e fb0c d4bc
00000060: 0901 d3bd 0473 723e b0d0 26be b52a 8fbd
00000070: b982 88be 567d 2abe 579c c5be 89e0 4f3d
00000080: 4bc2 cebc b43e f43c 2055 f7bd eca7 f7bc
00000090: 98be d03d e9e1 803d 12b0 d43d 39ea 51bd
000000a0: 1972 733e da17 73bb 3e9f 17bd 1fda 74be
000000b0: a92c 95bc 68c4 c03d 5a5b 37bd dfa9 e6bd
000000c0: 708b 76be 527d 5e3e 8092 193d 8fc1 35be
000000d0: bebd bebc 00ce 9abe a15f 2d3d 4da3 22be
000000e0: 22da 773d 0d51 ec3d f191 06bc 7767 23bc
000000f0: 6411 b03e b774 56bd eb2d 4bbe f176 c5bb
0.04126152 -0.20420317 0.15147632 -0.0026129207 -0.022261301 -0.016696794 -0.1400498 0.19663855
-0.0841105 0.04926964 0.29092845 -0.105700426 0.11009259 0.040406853 0.23024835 -0.06407838
0.10754855 0.039845854 -0.06027069 0.06732907 -0.15838368 0.22828622 0.12655519 -0.025885096
-0.10302932 0.23676687 -0.16290545 -0.069905676 -0.26662233 -0.16649374 -0.3859584 0.050751243
-0.02523913 0.029815055 -0.12076783 -0.030231439 0.10192603 0.06293089 0.10385145 -0.051248763
0.23773994 -0.0037093074 -0.0370171 -0.23911332 -0.018209772 0.094124615 -0.044764854 -0.11262869
-0.24076629 0.21727493 0.03749323 -0.17749618 -0.023283836 -0.3023529 0.042327527 -0.15882607
0.060510762 0.11538897 -0.008213506 -0.009973398 0.34388268 -0.0523574 -0.19841735 -0.006026142

weight f4 [64]
00000000: aabc 493f 59e0 013f d864 3a3f 4e7f 0a3f
00000010: 6dea d73e 5fd8 093f c1a4 023f b0d6 ac3e
00000020: 4f20 f13e 181c ab3e b17b b23e 3199 bb3e
00000030: fcc0 813f 2a87 4c3f db46 133f 2d71 c53e
00000040: f2b2 323f 17ca d93e 754c 223f 14ad 153f
00000050: ffa7 293f c6de 013f d1b1 f53e 5362 2a3f
00000060: 4cb7 173f eaf8 c83e e4e7 093f 6707 e93e
00000070: 6398 b63e 826d 0c3f 42cb cb3e 8bf4 d53e
00000080: 691a d53e 79e1 183f 46d7 173f 7148 2f3f
00000090: eb4d 1c3f fc9e 8f3f fc52 093f 895f af3e
000000a0: 3e62 b13e b9c7 2c3f ed4f b23e 39d0 aa3e
000000b0: 6c40 083f f7b0 fe3e 9888 db3e 638a 283f
000000c0: 4065 183f e977 1a3f a9e3 a93e 31b9 d23e
000000d0: 885b 013f e7c3 2c3f 077a 093f 6e26 0d3f
000000e0: bda6 0e3f dbdc 033f 6773 223f f473 fd3e
000000f0: 52be ff3e 8f8e 4c3f b038 493f d0b1 123f
0.78803504 0.5073295 0.72810125 0.541005 0.4217104 0.5384578 0.51032645 0.33757544
0.47094962 0.3341987 0.34859994 0.36640313 1.0137019 0.79893744 0.5752999 0.3856291
0.698043 0.42536995 0.63397914 0.5846722 0.66271967 0.5073055 0.47987226 0.6655628
0.59264064 0.39252406 0.5386946 0.4551346 0.35663137 0.54854596 0.3980351 0.41788134
0.41621712 0.59719044 0.59312856 0.6846991 0.61056393 1.1220393 0.5364225 0.34252575
0.34645265 0.6749225 0.34826604 0.33361986 0.532233 0.49744388 0.4287765 0.6583616
0.59529495 0.6033922 0.33181503 0.41156915 0.5053029 0.67486423 0.53701824 0.55136764
0.5572317 0.51508874 0.6345734 0.49502528 0.4994989 0.7990503 0.78602123 0.5730257

bias f4 [64]
00000000: d60a c6be 6d01 c0be ad4d 67bf 2914 18bf
00000010: 160e febd 96a8 19bf 991f 533e 1e68 983e
00000020: a0bb b2be 8bef 833e 0f23 313f 8eea 023e
00000030: 7e87 9fbf 5715 94bf b232 bfbd d385 06bd
00000040: 104d 17bf 651a 733e 69df 35bf 793f a9be
00000050: 16d5 40bf 5dab a83d 95ac 81be b8ab 40be
00000060: d8b6 9cbe 6606 8c3d df51 943d 2c18 593e
00000070: 936d 133e c990 7fbd 8679 2e3e 195f 413e
00000080: 2527 a5be 902d 0b3d 7418 84be 3446 4abf
00000090: 92dd 7abe 6d6a a2bf 961a b03d d083 d13e
000000a0: 9cec 273e 74f8 3fbf ecb7 683e 081e 7e3e
000000b0: bff2 ecbd 0a88 013d 4f0b 2a3e 9153 fbbe
000000c0: bca8 b7be af2f 0cbf 1ee5 0f3f df46 633e
000000d0: ee90 493c 8a4a c8be 39c3 a0be 18f0 c9be
000000e0: a8af a2be cd2b a3be 273a f3be 33c7 e9be
000000f0: bb46 7b3e e821 94bf b2e0 2dbf c8ec cfbe
-0.38680142 -0.37501088 -0.903529 -0.5940576 -0.124050304 -0.60022867 0.20617522 0.29766935
-0.34908772 0.25768694 0.6919412 0.12784788 -1.2463224 -1.1569012 -0.09335841 -0.03284247
-0.59101963 0.23740537 -0.7104402 -0.33056238 -0.75325143 0.0823581 -0.25326982 -0.18815506
-0.3060825 0.06837158 0.07242178 0.21200627 0.14397268 -0.062393937 0.17038545 0.18883933
-0.32256427 0.033979 -0.25799906 -0.7901337 -0.24498585 -1.2688729 0.08598821 0.40920877
0.16398853 -0.74988484 0.2272641 0.24816144 -0.11569738 0.031623878 0.16605876 -0.49087194
-0.35870922 -0.5476026 0.5620898 0.22195004 0.01230262 -0.3911937 -0.31398943 -0.3944099
-0.3177464 -0.31869355 -0.47505304 -0.4565979 0.245387 -1.1572847 -0.6792098 -0.40610337

running_mean f4 [64]
00000000: 1796 04c0 f0d5 98bf 0108 7ac0 24c9 02c0
00000010: 8b27 6ebf 719e 53c0 185a b6bd 118c 26be
00000020: 8bdd 98bf b0ee 9b3c c600 0340 80b8 db3e
00000030: e146 2ac0 c51a e9bf 7265 44bf 29c1 2cbf
00000040: 4437 04c0 319d e6bf 3f1e fdbf e2c9 05c0
00000050: 18da e8bf dbca 06bf 8fa9 12bf 2ce1 e2bf
00000060: 59c6 dfbf fde3 16bf 4b8b 99bf 792b d73e
00000070: 2a17 fd3e 91fa b5bf 6593 cabe 5d36 91bf
00000080: 6e90 3bc0 b44a 72c0 3b89 5fbf 7a4f 80c0
00000090: f62d c1bf 51ab debf bbf2 83bf 5b89 183f
000000a0: b57e df3e 8f5c 60c0 9bfb a0be 8f1e 96bf
000000b0: 0d5c 1bc0 22a8 18bf 7ae0 8fbd fcba c7bf
000000c0: c483 ecbf f564 34bf a2d9 1440 289d a4bf
000000d0: e08e 0ec0 4a5c 5dc0 66f0 cbbf 0107 16c0
000000e0: 69ec 44c0 70ed 44bf fcc4 95c0 598f 1dc0
000000f0: 807d b6bd 1195 1ac0 f2b7 1bc0 942c 2ebf
-2.0716608 -1.1940289 -3.9067385 -2.0435266 -0.9302909 -3.3065455 -0.08903903 -0.16264369
-1.194261 0.019034714 2.0469222 0.429142 -2.660576 -1.8211294 -0.76717293 -0.6748224
-2.0658731 -1.8016721 -1.9774855 -2.090447 -1.8191557 -0.5265328 -0.57289976 -1.7724967
-1.7482406 -0.5894163 -1.1995634 0.42025355 0.49431735 -1.4217092 -0.39565578 -1.1344715
-2.9306903 -3.7858095 -0.8731877 -4.0097017 -1.5092151 -1.7396032 -1.030845 0.5958459
0.43651357 -3.5056493 -0.3144196 -1.1728076 -2.4274933 -0.5963155 -0.070252374 -1.5603938
-1.8477712 -0.7046655 2.3257833 -1.286046 -2.2274704 -3.4587579 -1.5932739 -2.3441775
-3.0769293 -0.769248 -4.680296 -2.4618742 -0.08910656 -2.4153483 -2.4331021 -0.6803677

running_var f4 [64]
00000000: d208 b340 38c2 2940 0f12 6740 a381 4340
00000010: 5d9c 8640 f410 3f40 6dad c740 818e 6f40
00000020: e18a 1d40 f293 6840 bc0f 8e40 e9cc 5640
00000030: 3ea3 a440 a4a1 3740 3bf4 7940 a7f4 3e40
00000040: 9e87 8840 5e9a 9740 07ed 6640 ac70 a140
00000050: e707 6b40 a20d 9c40 01df 5340 1c5e aa40
00000060: 43b9 7440 7fbb 4040 5068 d540 73fd b640
00000070: 567b 5f40 943a c740 4cbe 7b40 fb15 8440
00000080: bfe2 6b40 7506 da40 64aa 8340 dcc4 8740
00000090: 1ae1 7740 b12e 9d40 9625 c140 2261 6b40
000000a0: 9873 6140 4fc4 6840 06ea 7a40 4a7e 4d40
000000b0: 588f 8d40 5274 8f40 6172 8440 d174 4b40
000000c0: b48b 5540 cf24 8d40 b050 6b40 30f0 9b40
000000d0: 1115 d440 56fc ca40 b1ed 7240 b2d1 8340
000000e0: 52a9 4f40 0e59 9b40 20c8 9f40 e9fc 5140
000000f0: d039 b940 0da2 3e40 6a94 6840 c03e 6c40
5.5948267 2.6524792 3.6104772 3.0547874 4.2065873 2.9854097 6.23992 3.7430727
2.4616015 3.6340299 4.4394207 3.3562567 5.144927 2.8692408 3.9055316 2.9836824
4.266555 4.7375937 3.608217 5.045004 3.6723573 4.876664 3.310486 5.323988
3.8238075 3.0114439 6.6689835 5.7184386 3.4919028 6.2259007 3.9334898 4.127683
3.6857145 6.813288 4.1145496 4.2427807 3.873114 4.9119496 6.035838 3.6778035
3.5226803 3.6369817 3.9205337 3.210833 4.423748 4.4829493 4.1389623 3.179005
3.3366518 4.410743 3.6767998 4.87307 6.6275716 6.3433027 3.7957575 4.1193476
3.2447095 4.854621 4.9931793 3.2810614 5.788307 2.9786408 3.6340585 3.69133
