models/vishal_lr_001_iter_300.pt_244.pt (torch_old, 473212 bytes, 27 tensors)

weight f4 [64, 1, 3, 3]
00000000: e916 4139 0123 febd 4409 963d c497 9fbd
00000010: 328e 3d3e 2206 d0bd 71ea b73d 248e e0bd
00000020: bd22 223c 1f64 12be 4b29 26be f13a 77be
00000030: 23ff a93e 1f65 233f 88a5 8dbe 4fd4 08be
00000040: 2137 b13c 0378 0bbf e63f a13e d17b c43e
00000050: 3f17 e93d b26a 9ebe efb2 9cbe 1bbd 85be
00000060: b067 c5bd f5bb 1c3e 6ac2 123c 92f3 a43d
00000070: 4936 0b3e 698e 443d 4716 85bd 4789 8abd
00000080: 358f 3f3d df9b 933d a26d e23d 648a a93d
00000090: 8849 d83e 18da 20bf ebfc bd3d afb8 8a3e
000000a0: df84 7b3d f283 a7be 6c2c 5abf 2870 0c3f
000000b0: 3894 0bbe 8a49 233c 28e2 ca3d cbbd f0bd
000000c0: 4190 203e 0746 55be 7f7c 393d 38a4 1abe
000000d0: bfaa a53d b0dd 933d 72d9 273b b621 b13d
000000e0: cc3b b93c 34ea 2bbe 9efc b93d 15bf c1bd
000000f0: ead3 d63c 1bfd 09be 4aba b3c0 6424 8b3e
00000100: 2513 02be b3d7 0dbe 941a 3ebe 085b 9cbd
00000110: 53a4 8c3e 63d1 babe 17a7 8d3d e10e 9f3e
00000120: 5169 713d 4f7e 21be 7ec7 913d 9cab 07be
00000130: 5fe5 debf 331f a2bd 7ff1 a03d c035 d2bd
00000140: 5953 673d 5c46 4b3d 6b65 853c cc8b 393c
00000150: 207b c8bc f0a0 623d a038 aa3c 6015 4abd
00000160: 618a 1f3c c774 6a3d 7005 2c3d 6c49 e3bc
00000170: 60ed 85bc 64f6 8cbd fcac b3bc 92a6 85bd
00000180: f63a c3bd 099b 9fbd cbef c7bd b0e5 863d
00000190: 0a41 b1be 45c3 933e 8142 003d cc56 bb3e
000001a0: 0a6c c8be 3183 c5bd a764 d2bb cffd df3d
000001b0: 7100 123e fa5c 1c3e 81d1 9cbe ef80 3ebe
000001c0: 5f2a 133d 079e 3e3e 1220 013d 93ea 1fbe
000001d0: 8d59 e63d dcc3 d6bd 2a9a 4a3e 6acf d4bd
000001e0: 40f1 883d 43ad b0bd c8d6 563c cbd6 ed3c
000001f0: a597 e2bd 8f68 b13d 787c 213d 10fe c0bc
00000200: a460 07bd 78c1 093d 43b4 b3bd fc83 bdbd
00000210: 5c10 893c 30c7 7f3d 0cff 0f3d fcfb bcbb
00000220: d2e5 ab3c e48e 223d cb06 193e 686c 2a3e
00000230: a284 153e 32f6 adbd e4e4 f23d 472e 8a3d
00000240: 1226 b43d a8d7 babd 10f2 6a3d 24d0 4b3d
00000250: 318a 2bbd a0ed a5bc 284d 543d c86e 89bd
00000260: c0cf 42bc 29a5 5ebe cd9d 18be fd3b 45be
00000270: 3e2b 00be 869f 30bd 9025 f7bc 5279 9f3e
00000280: 2f3f d13e 77e0 9e3d 7565 24bd 32de d33d
00000290: 658b 04bd 753b 333e 8cfc a03e 59df db3d
000002a0: 2db6 92bd 83e6 2d3e bae3 59bd 2209 96bd
000002b0: ff7a 603c 9f2d 2e3d 2763 2c3e c3ae c8bd
000002c0: 1a67 80bd 1be9 c6bd 5b0b 9f3d 2b31 373c
000002d0: e4f4 ac3c 705e 6fbc b4ad 8dbd 6c92 973d
000002e0: 262c c3bd 2873 b0bd 4e74 8dbd 726b 0abd
000002f0: 4c36 8dbc 68af 643d feab 7fbd 1c48 803d
00000300: 4c21 a9bc f66c 9c3d 2894 053c 6423 f3bc
00000310: ba55 923d c89c 2abc 54b7 c6bd e455 203d
00000320: 7020 1a3d 20d8 8cbd 19cd a9bd 6077 413c
00000330: c893 243c d316 a2bd b0ab 9b3b c8c2 99bd
00000340: b080 21bc 90c8 b23d dc81 843c 5293 30bd
00000350: 2458 18bd e8c1 bdbd da9f 93bd ba79 cdbd
00000360: 8466 98be 5fc8 8a3e 728e c93c 0de6 7d3e
00000370: 184b 6fbe 146f c0ba 2739 273d c569 ccbb
00000380: 3ea9 04bd 7517 873d cde7 843d 6602 a4be
00000390: 5f48 84bd 5c5a cd3e 4999 d2bd 8608 73be
000003a0: 0772 7a3e 742e b5ba 6659 47bc e751 2bbe
000003b0: 5d4a 9b3d a7e7 febc 32ae c03d aca9 27bc
000003c0: 7917 4b3d 5392 f63d e8a8 13be 943d 593d
000003d0: 617e c3bd 68f7 cabd acff 9b3d b2e3 0fbd
000003e0: 70f3 b13b 5a25 4fbd 608b 46bc 2069 293b
000003f0: faf2 6fbd e760 743d ba25 00bf e0fd a03e
0.00018414449 -0.1240902 0.07325986 -0.07792619 0.18511274 -0.1015742 0.08980263 -0.10964611
0.009895978 -0.14296006 -0.1622669 -0.24143578 0.33202466 0.63826174 -0.27665353 -0.1336224
0.021632733 -0.5448 0.31494063 0.38375714 0.11381387 -0.30940777 -0.30605265 -0.2612084
-0.096389174 0.15306075 0.008957485 0.0805427 0.13594927 0.047987375 -0.0649839 -0.06764465
0.046767432 0.072074644 0.11056067 0.08278349 0.422436 -0.62832785 0.09276756 0.27094027
0.061406013 -0.32717854 -0.8522403 0.54858637 -0.1363076 0.009966264 0.09906417 -0.1175495
0.15680028 -0.20827495 0.045284744 -0.15101707 0.08089208 0.07220018 0.0025611785 0.08649008
0.022611521 -0.1678856 0.09081386 -0.09460274 0.026224095 -0.13475458 -5.6164904 0.271762
-0.12702616 -0.13851814 -0.18564826 -0.0763455 0.2746912 -0.36487874 0.069166355 0.3106604
0.05893833 -0.15770839 0.07118128 -0.13249058 -1.7413749 -0.07916107 0.07858562 -0.10264158
0.05647597 0.049627647 0.016283711 0.011324834 -0.024472773 0.055329263 0.020778954 -0.04933679
0.009737582 0.057240274 0.041997373 -0.027744971 -0.01634854 -0.06882933 -0.021933071 -0.065259114
-0.0953273 -0.077932425 -0.09762534 0.06586778 -0.34619933 0.28859916 0.031313423 0.36589658
-0.39144927 -0.096441634 -0.00642069 0.10937082 0.14257981 0.15269843 -0.3062859 -0.18603872
0.03592908 0.1861497 0.031524725 -0.15616827 0.11247549 -0.10486576 0.19785371 -0.103911236
0.0668664 -0.08626797 0.013112731 0.029033085 -0.1106408 0.08662521 0.039425343 -0.023558646
-0.033051148 0.03363177 -0.087746166 -0.0925369 0.016731434 0.06244582 0.03515534 -0.0057673436
0.02098361 0.039687052 0.14943998 0.16642916 0.14601377 -0.08494224 0.11860064 0.06747108
0.08796324 -0.091231644 0.057359755 0.049759045 -0.041879836 -0.02025491 0.051831394 -0.06710583
-0.011890352 -0.21742691 -0.14903946 -0.19261165 -0.12516496 -0.043120883 -0.030169278 0.31147248
0.40868518 0.07757657 -0.04013582 0.10345115 -0.0323595 0.1750315 0.31442678 0.107359596
-0.071636535 0.16982464 -0.053195693 -0.07325961 0.0137012 0.042523976 0.16834699 -0.09798958
-0.06269665 -0.0971243 0.07765838 0.011181156 0.021112867 -0.014609918 -0.06917897 0.07400975
-0.09529905 -0.08615714 -0.06906949 -0.033793874 -0.017237805 0.055831343 -0.062419884 0.06263754
-0.02064576 0.0763797 0.008152999 -0.029679962 0.07145257 -0.010413356 -0.09702936 0.03914441
0.03762859 -0.0687716 -0.082910724 0.011808246 0.010044999 -0.079145096 0.0047506914 -0.07507855
-0.009857342 0.087296605 0.016175203 -0.043109246 -0.037193432 -0.092655 -0.07208224 -0.10032983
-0.29765713 0.27105996 0.024604056 0.24794789 -0.2336849 -0.0014681541 0.04082599 -0.0062381946
-0.032387964 0.06596271 0.06489525 -0.3203308 -0.06459116 0.40108 -0.10283143 -0.2373372
0.2445756 -0.0013823048 -0.01216731 -0.16730462 0.07582543 -0.03111632 0.09408225 -0.010233324
0.049582932 0.12039628 -0.14419901 0.05303724 -0.09545589 -0.0991047 0.07617125 -0.035129257
0.0054306313 -0.05057273 -0.0121181905 0.0025850013 -0.05858133 0.059662726 -0.50057566 0.3144369

bias f4 [64]
00000000: 6124 9dba ab05 563c cbb8 a73d 99e1 243b
00000010: bd94 9d3c 9330 243d b921 313e c65f 943c
00000020: d535 903e 2678 62be a407 88bd d0f6 5a3c
00000030: fed8 223d cc69 743d 2b00 39be c409 e4be
00000040: 7045 70be 63f9 0d3d 0591 d3be 83c4 cc3d
00000050: a889 3abe c003 a6be 9ead 8fbe 04a0 a2be
00000060: f4af 583d b0c1 2e3d a9f9 403e 7b2f 80be
00000070: 9748 adbc 71cf 71bc d0f2 94be eeb6 773d
00000080: 6a4e a2be 089c 5dbd e929 2e3c 1bd5 81be
00000090: 6618 f0bd 27d6 7c3d 0185 b83d ce6b 263d
000000a0: e5d5 8a3e 26b7 57be 27b0 583d c8d2 7fbe
000000b0: c31d 89be 99cf f53b 7eaf 70be 2dd8 143d
000000c0: bac5 9ebe d6a7 b9be e6a8 6d3c 011c 053d
000000d0: 9e64 2dbe 6186 debe 22b1 073e 8064 24be
000000e0: 937b 743e d028 41be 4852 ad3c 7773 94be
000000f0: 28e3 4a3e f75e 543d fde1 2d3d f871 613d
-0.0011988991 0.013062875 0.08189543 0.002515888 0.019235963 0.040085386 0.1729802 0.018112075
0.2816607 -0.22116145 -0.06642082 0.013364509 0.03975772 0.05967121 -0.1806647 -0.445387
-0.23463988 0.03466166 -0.4132158 0.09998419 -0.18216574 -0.32424736 -0.28062147 -0.31762707
0.052902177 0.042665184 0.18845238 -0.25036225 -0.021152778 -0.014758931 -0.290915 0.06047719
-0.3170045 -0.05410388 0.010630109 -0.253579 -0.11723404 0.06172767 0.090097435 0.040630154
0.27116314 -0.2106596 0.052902367 -0.2498275 -0.2678052 0.007501554 -0.23504445 0.036338974
-0.31010228 -0.3626086 0.014505601 0.03249741 -0.16932914 -0.43461898 0.13251165 -0.16053963
0.23875265 -0.18863225 0.021157399 -0.28994343 0.19813216 0.051848378 0.042451847 0.05504033

weight f4 [64, 64, 3, 3]
00000000: edb8 0539 7501 e63c f2b3 a9bc 5c6d 673d
00000010: 5574 20be a04b 073d 9061 56bd e4f3 b0bd
00000020: a2a2 fcbc 7f87 32bf 9f4c 54be c86a 2b3e
00000030: 547e dd3d d6ad cabd 9fcf f7bd 7160 68bd
00000040: 7410 d23e f7b8 1a3f e3d0 a0be eb5c 333e
00000050: ce60 f8bc 3c25 b53e 98fd 0a3e 06d5 d43c
00000060: 5c0f b03e 1f9a 5d3e 137f 333e 3c73 463e
00000070: af63 893e 01d7 6c3e 4f55 903e 2494 8d3e
00000080: 7ccc 963e f114 be3d 0a3d 803e d71a 503e
00000090: abe8 033f f5a7 9ebe 2908 babe 72f8 94be
000000a0: 3702 823e 0a54 58be 0064 04be da9f 613d
000000b0: df44 53be 55de 27bd 672c 42be 71da e1bd
000000c0: 2e9a d03d 9f47 223e 0c78 133d 8f46 ed3b
000000d0: ceda dd3c 00b8 c9bc 8228 46bf 7ca1 2fbf
000000e0: 0068 29bf 93bd 96bd 589e 31bd 2433 88bd
000000f0: 02e9 efbe 3130 a5be b6ee 24bf 8679 cebd
00000100: c3de 42bd ec69 813d c852 63bd 096e c0bd
00000110: 8db7 e23d 13c4 963c 429f a23d 324b 54bd
00000120: c012 933d 1e8c 073e 6b79 cbbd a8ff fdbc
00000130: fbb3 d1bd d271 b9bd e781 38be 0d85 95bd
00000140: 8ddc aebe bae7 3bbc 063b 513d f30b eabc
00000150: deef 643b 7200 ad3c d91a 193c 05e0 483d
00000160: 3eec 6fbc 9acc 82bd 7e27 523d 36ea 903d
00000170: bced 243d 504d 63bd 608b f73c f740 4fbd
00000180: 046d 1dbd 4e6c 433d 64df 643d 24d5 86be
00000190: 5d15 aebe cff1 39bb 4279 36bd 542a 58bd
000001a0: bbde dc3d ff57 9f3e 48f2 7c3e 7514 b8bd
000001b0: f788 37be 6726 f7bd 3849 a3bb 0506 b93d
000001c0: f6cf 8b3d 0315 9cbc 5b04 2f3d 4d18 143d
000001d0: 8e90 8a3d 9849 ccbd 533b ae3d ddcb 303c
000001e0: b2b6 ce3d 006c 093e ca89 453d af0b 78bd
000001f0: 6362 ccbd 236a e4bd a833 4dbc 6ae9 3e3d
00000200: ac38 32bc ef94 6abd 2c06 b1bc 2e7f 62bd
00000210: 502e 68bc d421 743d 7c04 8a3c ba27 83be
00000220: 0d37 6bbe 0333 16be 8edd 90be 6adf 4dbe
00000230: 6f7b 3bbd 1f88 173e 2b39 69bd de9a cfbd
00000240: 14de 353d accb 1ebc c410 df3c 1a82 c6bc
00000250: e82c 2d3d 04f0 53bc 8437 40bd 6a1b 0e3d
00000260: 6c91 853d db15 143b baa5 463e 52d7 e13c
00000270: 743a bdbd 27e6 583d 2688 da3d b3fb 663d
00000280: f1dd 683e 3ffb 713d 4325 3fbd 0021 b03d
00000290: 4f9c 92be e8a8 c8bd 9bfa b4bc 6473 4fbe
000002a0: 5d4c 4f3d 9e13 583e 8f6d 50bd c673 bd3c
000002b0: 0320 5f3a d38c 5a3d 38c3 6c3e 743f 963e
000002c0: 7f8a a2bd bb54 5dbe 65e5 38be 6368 afbd
000002d0: 4c60 5fbd f0ea 85bb 74c4 5e3d 32e7 433d
000002e0: 2b2e 8abd 7870 7e3d fade 883d b463 66bd
000002f0: 228d 84bc f859 72bd 1080 6fbd 4895 33bd
00000300: c8f6 7f3d 9896 05bc 489a 0ebc 1261 313d
00000310: 6819 4ebc bfeb 47bd dcc4 6b3d 802d 5fbd
00000320: e80a 77bc 348d e93c c1e7 1dbd 5657 5bbd
00000330: a6f3 88bc 9c35 613d a0c8 adbc 9e83 24bd
00000340: 200b cbbb 7c24 8d3c 1cce ce3c 8c2f a03c
00000350: e09b f53c 8076 5a3c 982d 0c3c 00b2 91bc
00000360: 11f1 963d 5245 cb3c 9f40 90bd 2f8e 9ebd
00000370: 77ee 7f3e f3a4 66bd 383f 68bd 3c38 89bd
00000380: 31f2 78bd c231 453e 86b5 793e d2ea 3fbd
00000390: f52e 843e f67f 973e 2c5d 803c 2880 533c
000003a0: a81f 823e 3990 1b3d 1c20 b63d ced7 d2ba
000003b0: dd20 3ebd aa0b 7f3e 1e87 863e 0710 c23e
000003c0: 905b 7bbe 35d7 33be c315 41be 0acf 503d
000003d0: 2f20 15bd ec26 8d3c 0e4e 003d dacf 2fbd
000003e0: 0081 6a3d 5365 91bd c234 383d fa15 143d
000003f0: f824 733d e195 a83c 13c5 a23d 80a4 e63d
0.00012752759 0.028076867 -0.020715687 0.056500778 -0.15669377 0.033031106 -0.052339137 -0.086402684
-0.030839268 -0.69738 -0.20732354 0.16739953 0.10815111 -0.09896438 -0.121001475 -0.0567326
0.41028178 0.60438484 -0.31409368 0.17515914 -0.030319598 0.3537997 0.13573301 0.025980484
0.34386718 0.21640824 0.17528944 0.19379896 0.26833865 0.23128892 0.28190085 0.27652085
0.29452884 0.09281338 0.2504657 0.20322739 0.515269 -0.30987516 -0.3633435 -0.290958
0.25392315 -0.21125808 -0.12928772 0.055084087 -0.20631741 -0.040983517 -0.1896225 -0.110279925
0.101856574 0.15847634 0.036003157 0.0072410773 0.027081873 -0.02462387 -0.7740556 -0.6860578
-0.66174316 -0.07360377 -0.0433639 -0.06650379 -0.46857458 -0.3226333 -0.64426744 -0.100817725
-0.047575723 0.06319031 -0.05549887 -0.093959875 0.11070166 0.018404042 0.07940532 -0.051829524
0.07181311 0.13237044 -0.09935268 -0.031005695 -0.10239407 -0.090549126 -0.18018304 -0.07300768
-0.34152642 -0.011468822 0.05108168 -0.028570151 0.003493301 0.021118376 0.00934478 0.049041767
-0.014643727 -0.06386681 0.051307194 0.07075922 0.040265784 -0.055493653 0.030217826 -0.050599065
-0.038434044 0.04771071 0.055877104 -0.26334488 -0.34000674 -0.002837289 -0.044549234 -0.052774742
0.1078467 0.31121823 0.24701798 -0.08988277 -0.17923342 -0.120678715 -0.0049830936 0.09034351
0.06826775 -0.019052988 0.042728763 0.036155988 0.06765853 -0.099749744 0.08507409 0.010790792
0.1009344 0.13420105 0.04822711 -0.060558017 -0.09979703 -0.111530565 -0.012524523 0.04660932
-0.010877769 -0.05727094 -0.021609388 -0.05529707 -0.014171198 0.059602574 0.016847841 -0.25616246
-0.22970219 -0.14667897 -0.28294033 -0.20104757 -0.045772012 0.1479802 -0.056939285 -0.101369604
0.044401243 -0.009692114 0.027229674 -0.02423196 0.042279154 -0.012935642 -0.046927944 0.034694113
0.06521878 0.0022596035 0.19399157 0.027568493 -0.09239665 0.052953865 0.106704995 0.056392383
0.22740914 0.059077498 -0.046666395 0.08600044 -0.2863488 -0.09797841 -0.022092154 -0.20258862
0.050609935 0.21101233 -0.050885733 0.023126494 0.0008511545 0.053356957 0.23121345 0.29345286
-0.07936572 -0.21614353 -0.18056257 -0.08564832 -0.054535195 -0.0040868446 0.05438657 0.047827907
-0.06747087 0.062118977 0.066831544 -0.056247428 -0.016180579 -0.059167832 -0.05847174 -0.043843538
0.06249121 -0.00815358 -0.008703776 0.043305464 -0.0125792995 -0.04880881 0.057560787 -0.05448675
-0.015078284 0.028509714 -0.038551096 -0.053550087 -0.016717743 0.054982767 -0.02121383 -0.040164582
-0.0061963946 0.017229311 0.025244765 0.019553922 0.029981554 0.013333917 0.008555792 -0.017785072
0.073701985 0.024813328 -0.070435755 -0.07741963 0.24993311 -0.05630965 -0.056700915 -0.06700179
-0.060777847 0.19257262 0.24385652 -0.0468548 0.25817075 0.29589814 0.015669428 0.012908973
0.25414777 0.03797934 0.08892843 -0.0016086043 -0.04641806 0.24906793 0.2627496 0.37902853
-0.24546647 -0.17562564 -0.18855958 0.050978698 -0.036407646 0.017230473 0.03132444 -0.042922832
0.05725193 -0.07099404 0.04497219 0.03615377 0.059361428 0.02057928 0.07947745 0.11261845

bias f4 [64]
00000000: e99c 96bd fd5a a5be 3007 9d3e 95f8 89bc
00000010: 1780 233e b839 b03d e03c a5be a9be 20be
00000020: 86aa 92be 1edd 35bd adba c63d 12eb bc3e
00000030: 49d5 673e 221d 5cbd ef42 5c3d 3836 83be
00000040: 4e43 44be 0c57 5fbe 4d3d 6c3e f4a1 1d3e
00000050: cd64 1cbf 5eb2 f9bd 29ef ae3d 8f70 a03e
00000060: ddc0 89be e360 85be 5e4b 423e de2b a93e
00000070: 3097 84be b39c ad3e 6728 ef3c 5e0f 08bf
00000080: 8853 a7be a3b8 953d 86e7 e1bd a92a 473e
00000090: 661d aebc 8c9f 0cbe 3d2d 8f3d 61da 963e
000000a0: 0d21 f13d 8c03 b9bc 48c1 29bf e433 f3be
000000b0: 694e c13d 28d4 72be eb00 9f3e 6b14 e7be
000000c0: 4b32 9b3d b92c e1be ff68 cc3c 5e24 c2be
000000d0: 01a4 54be b52c c2be c6c5 8b3d 557c 0d3f
000000e0: a46b 3c3d c13d 023f 092e a3be 0fda b93e
000000f0: 2a1c 2bbe c7c7 8f3e f42f 313e 3d4a 373e
-0.07354147 -0.3229598 0.30669546 -0.016842166 0.15966831 0.08604759 -0.32273006 -0.15697731
-0.28645724 -0.044400327 0.09703574 0.36898094 0.22639956 -0.05373872 0.05377477 -0.25627303
-0.191663 -0.2181055 0.2307026 0.15393811 -0.6109131 -0.12192224 0.0854171 0.31335875
-0.26904956 -0.2605048 0.18974063 0.3304128 -0.25896597 0.33908615 0.02919407 -0.5314845
-0.32680917 0.07310607 -0.11030488 0.19449867 -0.021254253 -0.13732737 0.069910504 0.29463485
0.11773882 -0.0225847 -0.6631055 -0.47500527 0.09438784 -0.23713744 0.31055388 -0.45132765
0.07577952 -0.43979433 0.02495241 -0.3791837 -0.20765688 -0.37924734 0.06824832 0.5526784
0.04600109 0.5087548 -0.3187106 0.36299178 -0.16709962 0.28082106 0.17303449 0.17899413

weight f4 [64]
00000000: 4c7e 343f 62d7 b43e 130a 213f c483 883e
00000010: 4714 a83e 1cd9 ab3e ecd8 043f 741b bc3e
00000020: 33c4 b93e 9282 aa3e d025 973e c6f6 c63e
00000030: ae85 a43e e851 ab3e cbf9 243f 6d12 dc3e
00000040: 0add c93e 3712 9b3e b54c 8d3e 1e2e 8c3e
00000050: 66ad 5d3e 56a7 0a3f dc7f e43e b963 923e
00000060: 4f44 593e 4c03 a33e 12d1 b33e 6baa a23e
00000070: 75da d33e e385 a93e 7fd0 c83e 0724 b73e
00000080: 5d32 a43e afd1 ab3e d9eb 273f 910f 143f
00000090: 185a c83e a685 cc3e 5bc9 713e 9a41 053f
000000a0: dc03 9f3e d033 d73e a125 a63e db1d 9a3e
000000b0: 1d51 ab3e dd7e c13e 5353 fa3e 2c63 a73e
000000c0: cca4 be3e d15f 093f dec4 903e d4be 2c3f
000000d0: 44f6 c03e f1ab 963e ce07 ad3e 4eca 063f
000000e0: 8a5b 6f3e 9263 b33e e340 0d3f c56c c53e
000000f0: d6ec 803e aa7c a03e e252 d03e 38d6 a43e
0.70505214 0.35320574 0.62906 0.2666303 0.3282797 0.3356408 0.51893497 0.36739695
0.362825 0.33302742 0.29521036 0.38860148 0.3213324 0.33460927 0.64443654 0.42982808
0.39426452 0.30287334 0.27597585 0.27378935 0.21648178 0.54161584 0.446288 0.28591707
0.21217464 0.31838453 0.35120445 0.31770644 0.41377607 0.3310996 0.3922157 0.35769674
0.32069674 0.33558413 0.6559425 0.5783625 0.39131236 0.39945716 0.23611967 0.52053225
0.31057632 0.42031717 0.32450584 0.30100903 0.33460322 0.37792102 0.48891696 0.3269285
0.37235105 0.5366183 0.28275198 0.6747868 0.37687886 0.29428056 0.33795017 0.5265244
0.23374763 0.35036904 0.55177134 0.38559547 0.2518069 0.3134511 0.40688235 0.32194686

bias f4 [64]
00000000: 2a34 eabe 677d fabe 6fca b5be 36c8 843d
00000010: 8ccc b0bd c070 8abd 6a5c 0e3d 88b5 cfbe
00000020: f973 e4bd d500 02bf 24a2 90be 36ab e3be
00000030: 9842 aebe a0ff cabe d9a0 78be 53ce 59be
00000040: 8731 d0be 4a4f 26be 658c 87be 74fc 2ebd
00000050: f96e 903e d4be 533d 5f4f fd3d 2a17 d9bd
00000060: 418c 33bf e70f 9fbe 5b04 313e 60c8 19bd
00000070: ed29 0dbf e97e 283d 196e 72bb 447f 4abe
00000080: 33fb 3ebe 8aca a9be 8962 8ebf ae8a b8be
00000090: f38d 3dbe 586e 68be 5912 3cbd b0be 18bf
000000a0: 677e 72be e58c 95be e88d e7bd de9e 0b3d
000000b0: eafc 043e 4396 10bf 2de4 16bf 24b0 38be
000000c0: a15a ffbe 8a03 123e 1554 883d 03d3 5ebf
000000d0: 46c9 ea3c b384 563e 89a3 9ebe 14b1 8fbd
000000e0: 7bba 0a3d 714c c5bd a4f9 72be 1a21 cfbe
000000f0: f6a8 263d 3b73 0d3e 0d9e 29bf 40b0 bdbe
-0.45742923 -0.489238 -0.35506007 0.064835 -0.08632764 -0.067597866 0.0347561 -0.40568185
-0.111549325 -0.5078252 -0.28248703 -0.4446656 -0.34035182 -0.3964815 -0.24280109 -0.21270113
-0.40662786 -0.16241184 -0.264743 -0.042721227 0.28209665 0.05169566 0.123686545 -0.10600121
-0.70135885 -0.3106682 0.17286818 -0.037544608 -0.551421 0.041136656 -0.0036991893 -0.1977511
-0.18650512 -0.33162338 -1.112382 -0.36043304 -0.1851118 -0.22698343 -0.045915935 -0.59665966
-0.23681031 -0.29209056 -0.11306363 0.034087054 0.12987104 -0.5647928 -0.5894192 -0.18035942
-0.49873832 0.14259163 0.066566624 -0.8704073 0.028660428 0.20949058 -0.30984142 -0.07016197
0.033869248 -0.09633721 -0.23728043 -0.40454942 0.040688477 0.13813488 -0.6625679 -0.3704853

running_mean f4 [64]
00000000: 5808 083f fa00 efbe d3f3 9cbc 4dc5 b23e
00000010: 062e f43e df1f 0bbe 9bcd 4dbe 406e b13f
00000020: df95 d7bd 24cb a03c 98dc 7e3d 404d 913e
00000030: 92b8 013e 6901 dcbe 217e 4abe 423e 50be
00000040: 1d9a f1bd fce0 f5be 9e00 043e 12c0 613f
00000050: 8740 06bf bfe6 a7bf f4a0 183f 994e 393e
00000060: 4657 e1bd 38e0 17bd efcb 953f 199c 4ebf
00000070: 0bf0 8abf 9696 873e 5aab c53d 3c88 9fbf
00000080: a12b 24bf b351 85bf 4a48 aebe ec31 013e
00000090: 2f28 57bf 33ff 4abf 737b de3e 7883 693d
000000a0: da36 2f3a 01b8 3db9 423d 13bf 5e68 383e
000000b0: 44a7 593e 94a3 76bf 697e c83e f33e 2ebf
000000c0: a32a d7be d4b5 69bf b5b3 e43c d7ba 07bf
000000d0: 8beb 63be 8e78 82bf 59d8 2e3c 1388 a33f
000000e0: 4e82 233e d8c5 fc3e 058d 3f3e e1e7 a6be
000000f0: 24dd e6be e42a 773d 88c7 7dbd 8ced d33d
0.5313773 -0.46680433 -0.019159233 0.34916154 0.47691363 -0.13586377 -0.20097964 1.3861771
-0.105266325 0.019628115 0.062222093 0.2837925 0.12668064 -0.42969826 -0.19774677 -0.2033625
-0.11796973 -0.48023212 0.1289086 0.881837 -0.5244221 -1.3117293 0.59620595 0.18096389
-0.11002974 -0.037079066 1.170286 -0.80706936 -1.0854505 0.26482075 0.09651823 -1.246345
-0.6412907 -1.0415558 -0.34039527 0.126167 -0.8404569 -0.79295653 0.4345356 0.057010144
0.0006683894 -0.00018092991 -0.57515347 0.18008563 0.21255213 -0.9634335 0.39158943 -0.680648
-0.42024717 -0.9129307 0.027917722 -0.5301947 -0.22257821 -1.019304 0.0106716985 1.2775902
0.15967676 0.49369693 0.18706138 -0.32598785 -0.45090592 0.060343638 -0.061957866 0.10348043

running_var f4 [64]
00000000: acd8 d13d 24ff 3c3d 869f 113e 78e9 9f3d
00000010: e58d 523d 51e0 b13d 8fd2 9a3d fa53 573d
00000020: a4ae 983d 0af3 4a3d edef 963c 00c1 e23c
00000030: 137d 283d 716c 313d a94e f63d b1e3 2e3d
00000040: 272c 283d b315 553d b729 3b3d ee2b bb3d
00000050: e9be 633d 7b1f d03d b320 c63d 6628 6a3d
00000060: 64f2 a73c 0d01 473d 9e20 983d 5487 ad3d
00000070: ddb0 9d3d ef88 283d 72ca 8e3d ee68 8d3d
00000080: d68e 7d3d 42c1 dd3d a2c4 8b3d 366c a83d
00000090: 759b 003e d729 3d3d 947a 4a3d 9e90 5b3d
000000a0: a73e c33c dd68 613d 8bd9 9d3d 6c98 6f3d
000000b0: f593 9c3d 430d b93d 2f7b 763d 833b 743d
000000c0: 8d87 8b3d 2261 ce3c c03b 7a3d c201 873d
000000d0: ace1 3c3d 2a66 ad3d f337 073d 9fcd 073e
000000e0: c523 fc3c 95ff 263d 7974 8a3d 1d35 653d
000000f0: 2e86 4e3d c90b 783d b557 913c c2ab a63c
0.10246405 0.04614176 0.1422101 0.078082025 0.051404852 0.08685363 0.07559692 0.05257032
0.07455185 0.049548186 0.018424952 0.02767992 0.041134905 0.04331631 0.12026722 0.042697612
0.041057732 0.052022647 0.04569408 0.09139238 0.055601988 0.101622544 0.09674206 0.057167433
0.020501323 0.048584986 0.07428096 0.084730774 0.076997496 0.041146215 0.06972207 0.069047794
0.061903797 0.108278766 0.06824614 0.082237646 0.12559302 0.04618248 0.049433306 0.053604715
0.023833586 0.055031646 0.07707509 0.05849497 0.07645408 0.090357326 0.06017607 0.059627067
0.06812964 0.0251928 0.06109214 0.06592132 0.046113655 0.08466752 0.03301234 0.13262032
0.030778775 0.040771086 0.06760497 0.055958856 0.050420932 0.060558114 0.017742017 0.020345572

weight f4 [64, 64, 3, 3]
00000000: 718b b53e f696 963d f95f 673d 4de4 4cbe
00000010: 1c7f 69bd f5e5 b3bd faa9 99be 1dcd a7be
00000020: b5cc 4ebe 4c1b 4f3d ec78 04be 4d4a d1bd
00000030: 463a 7b3d 072c 0bbe e61e 52bd ffa1 183e
00000040: 5f0a 60bd 361a 3dbe 6d95 b53c bc59 2a3e
00000050: 04f1 f7bd 9576 85bd 7070 553e 21d0 e4bd
00000060: 62a6 633e 88ca 7dbb e445 37bc c818 51bd
00000070: cb34 823e bec6 a23d db21 6ebd 56d9 aebe
00000080: 8a2e 88be edcb ce3b e7e4 94bc 823b dd3d
00000090: 40e7 c1bc 6681 113f 3abf 63be 8cbe b13e
000000a0: 0b07 713e 01f8 8cbe e4d9 a8bd 7faf 54bd
000000b0: 02b3 b7bd fe37 94bb b312 0b3d 20d2 b2bc
000000c0: 2fff 4a3e 5382 82bd 165e 713e 3ec3 1bbe
000000d0: 5f43 363d 4149 8dbd de06 0a3d 2ef6 043e
000000e0: 1475 b43d 31b1 b6bd 5cbf c0bd ed4d 15be
000000f0: cd06 0bbe b06a 88ba 1f58 ebbc f678 c2bd
00000100: 91b8 35be 28b9 163e 5bcd 213d b0ea b13d
00000110: 1925 efbe 2739 d13c 24fd 073f 45cf 863d
00000120: 7f15 0abe 0440 15bd 1bd9 323d d88a f7bc
00000130: f31b debd 995e 0e3e 92db 92be 3a77 abbd
00000140: c1fa 35bd ca43 6a3e ab80 b53e 3ae3 9abd
00000150: 17da 173e 8307 97bf bf07 923e 393c 7f3e
00000160: 9ef2 303f 63ca b8be 2a02 c2bd 4d07 33bd
00000170: 8385 6e3e 7efe fabd 0600 09be 92d9 973e
00000180: 42a7 58bd e65c 4cbe 2b18 873d a9e4 6c3d
00000190: cc0c c63e 3b3d 56bd 74b6 cbbd 48c1 a6bd
000001a0: c379 f53a dbd0 15bb f010 d9bd 4c34 493d
000001b0: e1a2 b63e e1ae 96be 2317 2cbe 92c6 be3e
000001c0: fac0 88bd 389e 18be d1ed 6d3e f474 d8bd
000001d0: 37e0 25be d825 cabd 5086 e3bd e51f 90bd
000001e0: 34db 443d 2745 bd3e 0d1b 2f3c 7041 bbbd
000001f0: d415 523d c9ba 17be 97b0 fbbe 890f 583d
00000200: b874 363d a844 c1be b227 943e 958d 3d3e
00000210: 38f0 bbbe c366 023e 1049 903d fa45 da3d
00000220: 4632 793d a5d7 fdbb d073 3cbe 7917 ddbd
00000230: 0845 11be 3402 8a3e 0f6c 7c3e 7ab3 d5bd
00000240: 4891 b5bd 4a7f e33e 4df8 2f3e 353a 353d
00000250: a8df 63be 653a e23d d4da 04be 707c 67be
00000260: ce47 5abd 10f3 40bc d455 ecbd 577d cb3d
00000270: 9894 1fbe 8419 40be eb25 6f3e ec90 0abe
00000280: cc7a 12be 7bf8 2d3e ec4f 893d 3fdc 05bc
00000290: 6470 b43d 94db a8bd ea56 1cbe 1e52 543d
000002a0: 12b6 2bbd 8da6 d53d f86c 5bbd c351 87bd
000002b0: a3b7 923c a245 ad3d a9f6 dfbd bf59 fcbc
000002c0: 202f cfbe 3212 31bb 890c cbbc 708f feba
000002d0: a11b 3a3e a38f cbbe 435a 413d 9b74 05be
000002e0: b1b1 683e 2ce3 23be 626f 5fbe 8562 d8bc
000002f0: 7db2 86bd 9e84 2f3d b7fe 323e 8bb1 3b3e
00000300: a32a e83d 03d6 dbbc 90c0 cbbe e2d5 10be
00000310: 41a3 92bc 11be de3d 3b9d 4dbb b7ee cbbe
00000320: b0f3 6e3e 8c7c c93d 47d6 8d3e a408 0fbe
00000330: 642f 513e 7359 87bd daca e5bb f549 dbbc
00000340: 3f32 debd a253 dbbd a941 68be 81ca 74bb
00000350: 2360 efbc 06ad 533e 9504 013e 636d 49be
00000360: 282b 00bd 856b 083e c358 b6bd a4f0 25be
00000370: c0e9 0e3a 1434 283e 234b 9b3d c8d5 3bbd
00000380: 514d f23a 99f0 f53d 307e b53d c30f 8c3e
00000390: d958 373d e71b 26be 21f0 34be c886 553d
000003a0: 827a 38be 23a6 1d3d a210 c83d a3f4 243e
000003b0: 0ff2 d43d b40e be3c 6970 793d cbfa e03c
000003c0: f9d3 92bc fb44 1bb9 c185 b23d cfab a6be
000003d0: 45a7 93bd 9d90 b4bd 199f b2bd 99dd b4be
000003e0: f949 193e 99ba 01be 52a3 99bb 6d11 24be
000003f0: 5b8b 4bbe f5ea 52be 3ad5 24be a493 57be
0.35457948 0.07353012 0.05648801 -0.20008965 -0.057005987 -0.08784095 -0.30012494 -0.32773677
-0.20195277 0.05056314 -0.12936753 -0.1021925 0.06133487 -0.13591014 -0.051299 0.14905547
-0.05469739 -0.1846703 0.022165978 0.16635793 -0.12106517 -0.06516758 0.20843673 -0.1117251
0.22231439 -0.0038725454 -0.011186097 -0.051049024 0.25430903 0.07948063 -0.058137756 -0.3415019
-0.26598006 0.006310931 -0.018175555 0.10802366 -0.023669839 0.5683807 -0.22240916 0.34715688
0.23537843 -0.27532962 -0.08244684 -0.05192518 -0.0896969 -0.0045232764 0.03395338 -0.021828711
0.19823907 -0.063725136 0.23571047 -0.15211198 0.044497844 -0.06898738 0.033697955 0.12984535
0.088113934 -0.08920515 -0.09411499 -0.14580508 -0.13576813 -0.0010407772 -0.028728543 -0.09495728
-0.17746188 0.14719069 0.039502483 0.08687341 -0.4670799 0.025539948 0.53120637 0.06582502
-0.13484763 -0.036438003 0.04366408 -0.030217573 -0.10845175 0.13903274 -0.28683144 -0.0837235
-0.04442859 0.22877422 0.35449728 -0.07562871 0.14829288 -1.1799167 0.28521535 0.24925317
0.69120204 -0.3609191 -0.09473069 -0.043708134 0.23293118 -0.12255572 -0.13378915 0.2965818
-0.052893884 -0.19957313 0.065964065 0.057835255 0.38681638 -0.052304488 -0.099469095 -0.08142334
0.0018728304 -0.0022860083 -0.10598934 0.04912214 0.35671142 -0.29430297 -0.16805701 0.37260872
-0.06677432 -0.14904106 0.23235251 -0.10569182 -0.16198812 -0.09870499 -0.111096025 -0.070373334
0.04806061 0.36966822 0.010687602 -0.091433406 0.05129035 -0.14817347 -0.49158165 0.05274919
0.044544905 -0.37747693 0.28936535 0.1851104 -0.3670671 0.12734513 0.070451856 0.10657878
0.06083896 -0.007746654 -0.18403554 -0.10795493 -0.1418649 0.26954806 0.24650596 -0.10434623
-0.08865601 0.4443305 0.17184563 0.044244964 -0.22253287 0.11046294 -0.12974101 -0.22606063
-0.053291135 -0.011776701 -0.11539808 0.09936016 -0.15584028 -0.18759733 0.23354308 -0.13531846
-0.14304656 0.16989319 0.06704697 -0.008170187 0.08810499 -0.08245006 -0.1526753 0.051836126
-0.041921683 0.10432158 -0.053570718 -0.06607392 0.01790983 0.08460547 -0.109357186 -0.030804513
-0.4046564 -0.0027018902 -0.02478625 -0.001942141 0.18174602 -0.39758024 0.04720522 -0.13032763
0.22724034 -0.16004628 -0.21819833 -0.026414165 -0.06577013 0.042851083 0.17479979 0.18329446
0.11336257 -0.026835447 -0.3979535 -0.1414409 -0.017900111 0.10876096 -0.0031374234 -0.39830562
0.23335147 0.098382086 0.27702543 -0.1396814 0.20428234 -0.06608858 -0.007012707 -0.026768664
-0.108494274 -0.10709311 -0.22681297 -0.0037352147 -0.029220646 0.20671472 0.12599404 -0.19670634
-0.031291157 0.13322265 -0.08903649 -0.16205078 0.00054517016 0.16426116 0.075826906 -0.045858175
0.0018486177 0.12008781 0.08861959 0.27355775 0.044762466 -0.16221581 -0.17669727 0.05213049
-0.18015483 0.03848852 0.097687975 0.16108947 0.103977315 0.02320037 0.06089822 0.027463337
-0.017923342 -0.00014807649 0.08716918 -0.32552955 -0.072096385 -0.08816645 -0.08721752 -0.35325316
0.14969625 -0.12668838 -0.0046886588 -0.16022272 -0.19877379 -0.20597441 -0.16096964 -0.21052414

bias f4 [64]
00000000: 910f e63e 0a4c 9bbe 0fc5 553e 48a7 54be
00000010: ce26 ccbc 6eae c1be 8aaa 8abc fa2d 0f3d
00000020: 1261 3abe 5dc9 243e 82d8 09bd 5743 b33d
00000030: 878d b2bd 79d6 ca3d d42f 423e 8430 93bd
00000040: 5373 b43e 6d8c 2cbe a480 453d ca99 85bd
00000050: 3e59 5cbe 4f62 183e 80dc 26be bf30 153e
00000060: 0028 a03e eee4 c43d 3b2f 43be e1ba 0fbd
00000070: 16d2 27bb ebb3 563d 7cd7 b0bd 5889 8cbe
00000080: b029 9ebe ce4c f63d 5e27 d2be f21a 86be
00000090: 8f92 703e 3ccc 6ebc 3e20 3b3e 7a10 163e
000000a0: c771 be3d c402 48be 47c9 90be 1e5a 02bf
000000b0: e00c 0e3c 9588 653d 422f eebd 0ba0 f73d
000000c0: 6327 093d ee1c f0be 99ba 9fbd 0b71 13be
000000d0: 0938 83bd 75f2 98be 5e6b bebe 3947 17be
000000e0: 4771 05be 73b9 d2be ab47 7b3e 8c04 d63e
000000f0: 7b26 233e a198 eb3d 367f 1abe 4c0a 8d3e
0.4493375 -0.3033145 0.20875953 -0.20766938 -0.024920847 -0.37828392 -0.016927022 0.034955956
-0.18201092 0.16092439 -0.033653744 0.087530784 -0.087184004 0.09904189 0.18963557 -0.07186988
0.35244235 -0.16850443 0.048218384 -0.065234736 -0.21518418 0.14881252 -0.16295052 0.14569376
0.31280518 0.096139774 -0.19060986 -0.03509033 -0.0025607399 0.052417677 -0.086348504 -0.27448535
-0.3089118 0.12026368 -0.4104566 -0.26192433 0.23493408 -0.01457506 0.18274018 0.14654723
0.09299045 -0.19532305 -0.28278562 -0.5091876 0.008670062 0.056038458 -0.116301075 0.12091073
0.033484828 -0.46897072 -0.077992626 -0.14398591 -0.06407172 -0.2987248 -0.3719129 -0.14773263
-0.13031493 -0.41157112 0.24539058 0.41800344 0.15932648 0.11503721 -0.1508759 0.27546918

weight f4 [64]
00000000: d94f 1b3f 51fa eb3e 04d4 073f beaa a33e
00000010: 1831 2a3f 8781 ed3e 297e 9d3e 08cb 3c3f
00000020: 3008 1f3f f527 063f 4ca6 3e3f 4827 b33e
00000030: 7735 2a3f ce67 563f 3b1e b53e 6094 9b3e
00000040: fdc0 db3e 2e97 203f c833 a73e ae3d b73e
00000050: 084e b13e 28f0 a83e 3ac0 9f3e 5dd9 c53e
00000060: b598 033f b883 1c3f 78a8 943e 5e19 393f
00000070: 2b5a 143f d1f0 f13e 1d1f fe3e 97e9 da3e
00000080: 382b e53e 30c9 c13e 304b b73e 0912 e83e
00000090: 1372 c13e aa28 253f 5cca 013f c1dd 273f
000000a0: ec8c 903e dd2e e83e 4bab c4be 4d70 1b3f
000000b0: 11a9 f33e c37d 253f cdb6 413f a91d c03e
000000c0: 2dfe 2f3f 6a72 bd3e 286a 073f bfbc a53e
000000d0: dcd9 323f 8395 373f 37f3 c83e 6e22 213f
000000e0: caf9 bf3e 9a4e f73e 71a9 aa3e d7c6 303f
000000f0: c37f 503f f5ff a53e cd9b 2e3f 5931 143f
0.6066871 0.46089414 0.53057885 0.31966203 0.6648116 0.46387884 0.30760315 0.737473
0.6212187 0.5240472 0.744725 0.34990907 0.6648783 0.83752143 0.35374627 0.3038664
0.42920676 0.6273068 0.32656693 0.35789245 0.34629846 0.32995725 0.31201345 0.38642398
0.5140489 0.61138487 0.2903478 0.7230433 0.57950085 0.4725404 0.49633113 0.4275634
0.44759536 0.37848806 0.3579955 0.4532626 0.37782344 0.64515173 0.506994 0.65572745
0.28232515 0.45348254 -0.38411936 0.6071823 0.47589925 0.6464502 0.75669557 0.3752263
0.68747216 0.37001354 0.52896357 0.32370564 0.6986368 0.7171251 0.39248058 0.6294316
0.3749526 0.48302156 0.333324 0.69053406 0.8144495 0.32421842 0.68206483 0.578878

bias f4 [64]
00000000: a050 83bf 67d4 453e c0d9 7bbe 6faa abbd
00000010: 8473 34be 6595 18bf b3a5 6aba d499 8bbe
00000020: d57c bdbe 0c99 31bf 78c4 babd e899 84be
00000030: 02f1 23be ffbd 17bf 304e b6bc fe02 08be
00000040: 6745 d3be fb60 083e 0ac2 973d 52f2 b33c
00000050: 58ca 6fbe 1ba3 ac3e 357b 153f 93d2 8cbd
00000060: 02a1 483d d848 2dbd 2ae8 443e 905f 99be
00000070: 2b63 f4be 66b7 4cbe 66bc 40bf eefd 7abe
00000080: f246 c5be a2f6 81bd 5c37 acbe 5403 333d
00000090: a7d0 073f caf1 87be 58db 21bd ffcd 96bf
000000a0: 7b90 873e 8806 dfbe 80d0 8dbe f29a d43d
000000b0: 2681 a5be 999d 80bf 1a82 5abe 6e87 743e
000000c0: 6cd6 dcbe 4409 75be 7c7d bfbe 4ccf a1bd
000000d0: 620a a7bc e960 12bf cae0 b2be c293 eabd
000000e0: 1118 cbbe df66 99bd 9bd0 64be ff27 03bf
000000f0: c847 f7bd f487 37be a060 fabe 8ced 20bf
-1.025898 0.19319306 -0.24594784 -0.08382117 -0.1762219 -0.5960296 -0.0008951083 -0.272658
-0.37009302 -0.69374156 -0.09119505 -0.2589867 -0.16009906 -0.59274286 -0.02225408 -0.13282391
-0.41263887 0.13318245 0.07410057 0.021966133 -0.23417032 0.3371819 0.58391124 -0.06876101
0.048981674 -0.042305797 0.19229189 -0.2995572 -0.4773191 -0.19991836 -0.75287473 -0.24510929
-0.3853069 -0.063458696 -0.33635986 0.043704346 0.53052753 -0.26551658 -0.039515823 -1.1781615
0.26477417 -0.4355967 -0.27698135 0.10381116 -0.32325095 -1.0048095 -0.21338692 0.23879787
-0.4313234 -0.23929316 -0.37400424 -0.07900867 -0.020390693 -0.57179123 -0.34937125 -0.11453964
-0.396668 -0.07490324 -0.22345202 -0.51232904 -0.12074238 -0.17922956 -0.48901844 -0.6286247

running_mean f4 [64]
00000000: b53f 2d3e 88d8 cfbf 22f7 9abf b2f8 1dbe
00000010: 4345 08bf 1abb 9abf fc0e ea3f 48cb 15bf
00000020: 7aba 77bf 0ab1 b0bf 02e2 c9bf 9856 83bf
00000030: 265e 25bf ef45 67bf 1034 4a3d fea4 dc3e
00000040: 18de b6be c288 8ebf 1372 f1bd ee82 243f
00000050: ece9 3d3f 44b2 003f 6abf 6abf e62e 553e
00000060: 5787 0c3d dc1d ce3f a85e 05bf 6359 82bf
00000070: fe32 d8be e66d 8abf d3bf 6e3f a949 a1bf
00000080: e6f6 ee3d 0d93 3bbf e3c5 f13e d9dc a3be
00000090: 0ef8 f73d 6d1a 30bf 9f4a 0840 ecc8 1fbf
000000a0: 94f1 7dbf 7bfa a53f 4854 743e 8be5 c13f
000000b0: e896 55bf 5083 a43f db75 a7bd eaec 88bf
000000c0: c102 80bf d2c7 d9bf 8b16 70bf 49fd 26bf
000000d0: a36c febf 8747 e53e ebcd c2be 0b82 aabe
000000e0: 93e4 26be 26ef b6bf 8534 9dbe feb5 1dbf
000000f0: ddfc c03f ab42 cc3e 9166 693e 4e3b 093f
0.16918834 -1.6237955 -1.2106669 -0.15426901 -0.53230685 -1.2088349 1.8285823 -0.5851331
-0.96768916 -1.3804028 -1.5772097 -1.0260801 -0.64596784 -0.90341085 0.049366057 0.4309463
-0.3571632 -1.1135485 -0.11789336 0.6426228 0.7418506 0.5027201 -0.91698325 0.20818672
0.034308758 1.6102862 -0.5209756 -1.0183529 -0.42226404 -1.0814788 0.9326145 -1.2600604
0.11668186 -0.73271257 0.47221288 -0.3200443 0.121078596 -0.6879032 2.1295545 -0.6241596
-0.99196744 1.2967066 0.23860276 1.5148176 -0.8343339 1.2852573 -0.08176776 -1.06973
-1.000084 -1.7014105 -0.937844 -0.6523023 -1.9876903 0.44781134 -0.38047728 -0.3330234
-0.16298132 -1.4291732 -0.30704132 -0.61605823 1.5077168 0.39894614 0.22793032 0.53606117

running_var f4 [64]
00000000: 6f84 833e 64c2 733f 3d94 0140 b866 723f
00000010: 2ac2 f73f d018 883f cce1 343f 2661 a73f
00000020: 6709 823f 8127 793f 324a c33f acaa c23f
00000030: a51f 8f3f aedc f23f 6568 9d3f 9a64 413f
00000040: 0d55 2b3f 0c28 d73f 47fe 923f 0c18 4a3f
00000050: b598 913f 3506 473f 0fff 8e3f 72cd 6e3f
00000060: eca2 ae3f aa25 0040 9c1e 663f 2ed5 993f
00000070: e8e7 743f 2514 0a40 88cb 5a3f 8885 a03f
00000080: ab7a 2c3f d623 973f eb9e 563f d5ba 9b3f
00000090: 7e0a b33f 1dbd fc3f 5453 b93f 1bc6 343f
000000a0: b37e c83f 2b7d d13f 7ee8 483f 3d94 af40
000000b0: a7e0 693f 9880 4d3f 867e 6340 6dde b23f
000000c0: 9717 d93f e344 3d3f e3c3 db3f 8334 7a3f
000000d0: 44ce 0740 2b1b 1440 5661 073f b0fe d03f
000000e0: 054d fe3e dde2 9f3f 69dc b33f b88b 103f
000000f0: 0967 a13f 3514 283f 7220 ac3f 5617 5a3f
0.25686976 0.9521849 2.0246727 0.94687986 1.9356129 1.0632572 0.7065704 1.3076522
1.0159119 0.97325903 1.5257018 1.5208335 1.1181532 1.8973596 1.2297484 0.7554413
0.6692665 1.6809096 1.1483849 0.7894294 1.1374727 0.77743846 1.1171588 0.93282235
1.364347 2.0022988 0.89890456 1.2018182 0.9566636 2.1574795 0.85466814 1.254075
0.67374676 1.1807811 0.8383624 1.2166392 1.3987577 1.9745213 1.4478555 0.70614785
1.5663666 1.6366323 0.78479755 5.4868455 0.9135842 0.80274343 3.5545974 1.3974129
1.6960324 0.7393324 1.7169155 0.97736377 2.1219645 2.3141582 0.528829 1.6327724
0.49668136 1.2491108 1.4051639 0.56463194 1.2609569 0.65655833 1.3447402 0.8519186

weight f4 [64, 64, 3, 3]
00000000: 520f 8c3d cf8d 013c 2553 433e 15d7 3ebe
00000010: cf94 8fbe ff3f c0bf 23ce 09bd c144 70bc
00000020: a735 84bf 52c7 43be 0957 013e d157 463e
00000030: 3294 f4bd 379f 4d3d 874e bc3d af26 cabd
00000040: 6460 c6bb aaaf 3cbe d652 92bd d918 93be
00000050: e4bc 89be 0c97 87be e3a2 8cbe 3f26 2abe
00000060: 11dd 533e ac48 33be a200 c2be c678 92bd
00000070: 832c 32bd 1a22 3dbe 447c bcbd b96e 28be
00000080: a8bb 43bd bc5a 9fbe 3bc5 c1be 8756 013e
00000090: be31 193b 3381 88bd 82a4 bdbe b06a 163d
000000a0: 9c0d 073e 9c96 113e 0065 f4bd e583 a2be
000000b0: 3c39 b1be 2cec 873c 7818 533e 9982 8cbe
000000c0: f6dc d73c c634 af3a 1dc4 4cbd bfa1 1a3e
000000d0: 3bcf 013e 2f79 ae3d 4f99 973d ad00 353d
000000e0: ee55 923e 0aa9 81be b2f5 13bf c8f2 50be
000000f0: d5ea d3bd bd20 d13d b03c 5fbc 4735 683e
00000100: 966e cb3d f083 36bc 78fc 383e 579a 8d3e
00000110: 6474 0fbe 35fa 96be 8c39 bbbb d4e0 e63d
00000120: 2a50 abbe e0e0 0fbe d808 24be 54ba e6be
00000130: a159 8cbd 8122 acbd a0af 21bf 2c2d d9be
00000140: 6e1b f7be ef7c 4ebe 7fbc ce3d 6bd5 f53e
00000150: 148f 91be 96f2 8ebe f8fe 1a3e 831e 99be
00000160: 9287 d3bd 37fd b23d 7c21 3f3e 98d3 9cbe
00000170: e1aa c73d b549 a3bd 16cc 103d 220a d5bd
00000180: c183 683e 1ee7 403e 7058 e9bd 4057 453d
00000190: 4d25 97be ea00 6a3e 58f5 5fbe 1c8b d2be
000001a0: 1104 25be a12b 153e b257 ad3d 6499 9cbd
000001b0: e56e 143e 59a6 58be 7f37 063d 14ef fa3d
000001c0: 8b3e ad3d 0c9f febd 1136 12be e76f f3bd
000001d0: 8469 d23d a016 0fbe 8495 633d eb8c 6b3e
000001e0: 29dc c63d a022 67be a2f2 3b3e bf42 ea3c
000001f0: 53b3 debd 2e5a 513d 9e3f 81bd 082a 9fbe
00000200: 0ad3 0ebf a096 e03e 036d d6ba 7f00 0b3e
00000210: 1d29 8fbd f3b2 0abf d2e6 843e 1efa 73be
00000220: fa9c 98be 8da0 e13e 6112 0b3e af61 f2bd
00000230: 06fd e2be 84bd 3c3e fbb0 323f 09e9 ffbe
00000240: 2574 e63e 3afc 08be 492c 98be 804e 093e
00000250: 3ceb 6abe a2a2 71be 48ac cb3e 5d72 87be
00000260: d91a 5fbe cb73 0e3e 50fe 9fbc e806 dd3e
00000270: 29e2 603d 24f5 953b b1aa 8e3e 957d 86be
00000280: afc8 3e3e 6eb4 c23d 27e9 cfbd 85e2 f6be
00000290: 32d0 fa3b c3e9 9cbe 0eda 47bf d2b4 84bf
000002a0: f7eb b03d 94a1 81be 846b 7dbe f231 453e
000002b0: 84ed c03d 4d3e adbe 5ce1 a63d 41d6 2d3e
000002c0: 3404 893d 7001 24be 27e8 87be 0e79 f3bd
000002d0: 86a7 783d 0cd6 8dbd c3b5 f03b 2d16 a33e
000002e0: 7378 c5bd 9787 903e f4ed c23e 59c5 eabe
000002f0: 62d0 70bd 3b8e 55be 6ef7 1d3d db70 533e
00000300: 5762 543e 02ce 09bd e00e 333e f690 d13d
00000310: c9a4 d33c 9e3e d8bd ccc0 8ebe ed2e 9cbd
00000320: febd 57be 9dd7 e3bd 9e1c 1c3e 66aa 963e
00000330: 893b 50be 07a9 1a3e caae 403e aebf fb3d
00000340: a53d 733e 9205 bd3e d6a8 c8be 271a e73d
00000350: dd9a babd b4bf dfbd da82 8e3e 2423 8b3e
00000360: 1f56 fa3d f98b 1bbd e0d4 c43c 62b7 b4bd
00000370: ba24 24bb 9cbc c43d 2ee4 91bd bfb4 7abe
00000380: fa28 53be 6fab abbd 2689 54be 2c1a 1ebf
00000390: fe8f 7c3c 6e86 8f3c c2cd 91be 5d41 3f3d
000003a0: 0723 03be 370f 08bf 449a 6cbe ea82 5dbe
000003b0: 91d4 533d aa9f 643e 1c0b 07be bce2 e53c
000003c0: 8763 7c3e 6bf3 0cbe 2e73 0f3e fde4 41be
000003d0: 363a 7b3d 2693 383e 8ef4 75be 6007 093e
000003e0: f7dc 46bc 5845 783e 1c79 f2bd 5fdf 923e
000003f0: b288 073f 88f2 2f3e ff40 ab3e a70e 263d
0.068388596 0.007907345 0.19074686 -0.18636735 -0.2804322 -1.501953 -0.033643853 -0.01466483
-1.0328873 -0.19119003 0.12630858 0.19369437 -0.119423285 0.050200667 0.091946654 -0.098706596
-0.006053971 -0.18426386 -0.07144706 -0.28729895 -0.26901925 -0.26482427 -0.27468023 -0.16616152
0.20689799 -0.17508191 -0.37891108 -0.07151942 -0.04349948 -0.1847004 -0.09203389 -0.16448487
-0.047786385 -0.31123912 -0.37845787 0.12630664 0.0023375596 -0.06665268 -0.37039572 0.03672284
0.13188785 0.14217609 -0.11933327 -0.31741253 -0.3461398 0.016592108 0.20614803 -0.27443388
0.02635048 0.0013367168 -0.049991716 0.15100764 0.12676708 0.08519208 0.07402288 0.044190098
0.28581184 -0.2532428 -0.57796776 -0.20405114 -0.10347525 0.102113225 -0.013625309 0.22676574
0.09933202 -0.011139855 0.18065059 0.27656814 -0.14009243 -0.29487768 -0.005713647 0.11273351
-0.33459598 -0.14050627 -0.16018999 -0.45064032 -0.06853033 -0.084050186 -0.6315861 -0.42417276
-0.48263115 -0.20164846 0.100945465 0.48014387 -0.28429472 -0.27919453 0.15136325 -0.2990609
-0.10328592 0.08739703 0.18665117 -0.30630183 0.097493894 -0.07973043 0.03535088 -0.10402323
0.2270651 0.18838164 -0.11393821 0.04817891 -0.29520646 0.22851911 -0.21870935 -0.41121757
-0.16114832 0.14567424 0.08463992 -0.076464444 0.14495428 -0.21157207 0.03276777 0.12252632
0.08459195 -0.124326795 -0.14278437 -0.11886578 0.10274032 -0.13973475 0.05556251 0.23002975
0.09709961 -0.22571802 0.18354276 0.02859628 -0.10874047 0.051111393 -0.06310962 -0.31086755
-0.5579077 0.43864918 -0.0016359392 0.13574408 -0.069902636 -0.54179305 0.25957352 -0.23825881
-0.29807264 0.44067803 0.1358123 -0.11835038 -0.44333667 0.1843167 0.698013 -0.4998248
0.45010486 -0.13377467 -0.29721287 0.13408852 -0.22941297 -0.23597196 0.39779878 -0.2645444
-0.21787585 0.13911359 -0.019530445 0.43169332 0.054903183 0.004576342 0.27864602 -0.26267686
0.18631242 0.095070705 -0.10151892 -0.48219696 0.0076542133 -0.30647096 -0.780671 -1.0367682
0.08638757 -0.25318587 -0.24748045 0.19257334 0.094203025 -0.33836594 0.08148453 0.16976263
0.06690255 -0.16016173 -0.26544306 -0.11888324 0.060706638 -0.06925592 0.0073458864 0.31852856
-0.096421145 0.28228447 0.3807217 -0.4585369 -0.05879248 -0.20855038 0.038566045 0.2064852
0.20740639 -0.03364373 0.17486143 0.10232727 0.025835412 -0.10558818 -0.27881467 -0.07626138
-0.2106857 -0.11125109 0.15245292 0.2942688 -0.20335211 0.15103541 0.18816677 0.122924194
0.23753984 0.36918312 -0.39191312 0.11284285 -0.09111569 -0.10925236 0.27834207 0.27175248
0.122234575 -0.037975285 0.024027288 -0.0882404 -0.0025046305 0.09606287 -0.071236 -0.24483012
-0.206211 -0.08382308 -0.20755443 -0.61758685 0.01541519 0.017520156 -0.28477293 0.046693195
-0.1280633 -0.53148216 -0.23105723 -0.21631971 0.05171639 0.22326532 -0.13187832 0.028062217
0.24647342 -0.13764732 0.14008781 -0.18935008 0.06133481 0.18024883 -0.24019071 0.1338172
-0.012137643 0.24245203 -0.11839506 0.28686044 0.52942955 0.17182362 0.33448026 0.040541317

bias f4 [64]
00000000: 2035 6cbe 1039 923d 36c0 55bd fa82 0a3d
00000010: 7416 65bd 7bb0 53be 4747 5ebd 4c5a d23c
00000020: 193a 84be 95c6 853e 7b78 01bd 1213 d0bd
00000030: 7c20 4e3e 85e7 27be 0e41 3f3e 8bc3 693e
00000040: 5bdb 003f a7ac 33bd 29d7 553d d159 8abe
00000050: 33a9 e0bb 21b9 913e c8f2 9ebd b9b6 5f3e
00000060: 6b9b 2fbe 229c 863d 97bd 8dbd c715 07be
00000070: 1cdc ca3c 31aa 953e 3346 0c3e 3f54 babd
00000080: 3b42 903d bb7a 25be 11b3 7dbc 7bc0 64be
00000090: 9858 19be 73db 403e bac0 1d3c 6b80 d63c
000000a0: eb58 a93c dc6e 2abe 480b 85bd 2da3 9f3c
000000b0: 80b7 033e d325 6c3d 1ae6 8abd 056f 19be
000000c0: 099f 7abe 6640 abbe d2e9 13be d579 0e3e
000000d0: 8700 573e 6503 cb3d 7c9e 2e3d d05e babd
000000e0: d612 2abe 45c6 3ebc 353a 4d3d a162 20be
000000f0: 58e3 69be 7383 86be 2e23 0f3d 2dfd b2be
-0.2306714 0.0713979 -0.05218526 0.033816315 -0.055929616 -0.2067279 -0.054267194 0.025677823
-0.25825575 0.2612807 -0.03160904 -0.101598874 0.2012958 -0.16396911 0.1867716 0.228285
0.5033471 -0.043865826 0.052207146 -0.2702165 -0.0068561076 0.28461555 -0.077611506 0.21847047
-0.17149131 0.06572749 -0.06920927 -0.13191901 0.02476316 0.29231408 0.13698654 -0.090981
0.070438825 -0.16160099 -0.015484587 -0.2233905 -0.14975202 0.18833713 0.009628469 0.026184281
0.020672282 -0.16643852 -0.06496292 0.019486988 0.12862968 0.05765326 -0.0678217 -0.14983757
-0.2447473 -0.3344757 -0.14444664 0.13913663 0.20996295 0.09912757 0.04263161 -0.09100115
-0.16608748 -0.011643951 0.05010434 -0.15662624 -0.22840631 -0.26272163 0.03494566 -0.34958783

weight f4 [64]
00000000: 88ac ae3e 1186 f03e 0b5c b73e 8c5c 9d3e
00000010: 2aee 463e e17a dc3e 3d11 893e f14e 043f
00000020: f6b8 a23e 26a3 303e 9c8d 973e 21da b43e
00000030: 6527 1d3e 468c c83e 3d10 2e3f 577c a53e
00000040: 1ccb 063f 9777 9d3e c1fd a03e 3a65 e53e
00000050: fa03 533e 9fbe d33e 880d 8d3e 6366 463e
00000060: adbc 823e 1f94 383f 2c6d 823e ec80 bb3e
00000070: 50dc ef3e 3ad1 1d3f 69ba 913e 5a38 523e
00000080: 2875 1a3f 1dfa 903e 9e61 763e a99f f53e
00000090: 88cc cd3e a90d 943e 2498 1e3f 56c7 803e
000000a0: 8955 d93e b34d de3e 30a5 0d3e e6ab 683f
000000b0: 17b3 6b3e 111c ce3e 7701 023f d910 cc3e
000000c0: 128b db3e 4a0d d83e 766b 553f c45c d13e
000000d0: 70e9 303e 928d ef3e 7943 bc3e ad35 ef3e
000000e0: 17db 823e ff18 0a3f 2728 463e 73bd 2f3e
000000f0: b892 d23e d9cc d13e fb54 303f 14aa ef3e
0.34116006 0.46977285 0.3581241 0.3073467 0.1942679 0.430625 0.26770964 0.51682955
0.3178174 0.17249736 0.29600227 0.3532267 0.15347059 0.3916952 0.6799353 0.32321426
0.5265367 0.30755302 0.314436 0.44803792 0.20606986 0.4135637 0.27549386 0.19374995
0.25534573 0.72101015 0.25473917 0.36621797 0.46847773 0.6164738 0.28462532 0.20529309
0.60335016 0.2831582 0.24060676 0.47973374 0.40195107 0.28916672 0.619509 0.2515208
0.4244807 0.43418655 0.13832545 0.90887296 0.23017536 0.40255788 0.50783485 0.39856604
0.4287954 0.4219764 0.833671 0.40891087 0.1727655 0.46787697 0.36770228 0.4672064
0.25557777 0.5394439 0.19351254 0.17162113 0.41127563 0.409766 0.6887967 0.46809447

bias f4 [64]
00000000: 9734 96be e085 44be 1c9e 9fbe bd25 83bd
00000010: 2307 95bd 51fc eabd b3bd 37be 279d 19bf
00000020: 6ce7 153e 8717 193d b2c8 f4bd 314d 0ebe
00000030: b517 203d 2c63 36be 88c8 bdbe eb67 b6bc
00000040: 9c24 86be 84c2 39be b9a3 99be 2881 d3bd
00000050: 635a acbd 25f8 26be d7c4 7ebd cf3c b6bd
00000060: 400d 8bbd 0342 d2be c0b6 bebd 1107 10bf
00000070: 5efb afbe c2dc b0bd 4bb3 7b3e 810e ca3d
00000080: 1eea 96be 74e2 08bd fd4a 80bd 0765 ab3c
00000090: d33e c6be ba13 aebe edf3 16bf 115d b9bd
000000a0: 2fbb 923d ae8f b9be 1edd dfbd a823 94bf
000000b0: 8907 473d 164f 55bc a001 a8be 9350 eabe
000000c0: 39d0 debe 03ab 19be c989 b4be ed0c 43be
000000d0: ab48 1fbd 727c ec3c f0a3 07bf 85c1 e9be
000000e0: 77cf 91bd 32e6 4f3c 48e9 48bd f4f9 703c
000000f0: c002 0ebf ec07 19be 529d afbd 737a 86bd
-0.29336998 -0.19191694 -0.31175315 -0.064036824 -0.07276752 -0.11473907 -0.17943458 -0.6000542
0.14639062 0.037375953 -0.11952342 -0.13896634 0.03908511 -0.17811269 -0.37067056 -0.022266349
-0.26199806 -0.18140608 -0.30007723 -0.10327369 -0.084156774 -0.16305597 -0.06219944 -0.08898317
-0.067896366 -0.41065988 -0.093122005 -0.5626078 -0.34371465 -0.08635856 0.24580114 0.09866048
-0.29475492 -0.033419088 -0.06264303 0.020922197 -0.38719806 -0.33999425 -0.5896595 -0.09050954
0.07164609 -0.3624243 -0.10930847 -1.1573381 0.04859117 -0.013019344 -0.3281374 -0.45764598
-0.43518236 -0.15006642 -0.35261372 -0.190479 -0.03888766 0.028867934 -0.52984524 -0.45655456
-0.07119649 0.01268916 -0.0490506 0.014708031 -0.55472946 -0.14944428 -0.08574928 -0.06566324

running_mean f4 [64]
00000000: 6bf3 e4bf bb43 90bf e974 97c0 2a00 2abf
00000010: bfe0 85bf 0f30 15c0 9768 b8bf 602a 3ac0
00000020: ce68 5d3f 5ad7 6c40 d828 08c0 48da 35c0
00000030: 1096 7c3f 386f a1bf 53bb 48bf c67d 75bf
00000040: d01e be3e 9397 4ebf 5e61 b0bf d42a 64bf
00000050: e1d1 08be bd4f 083f b8f3 09c0 3327 813b
00000060: 4ea1 51bf 8605 00c0 8dcc a0be ad80 11c0
00000070: 7ab3 fdbf a9fa a73e 8f1c 223e f286 79be
00000080: 0ff5 d6bf 43d8 0ebf 52c7 e0bf 7361 ebbe
00000090: 0d7d 0cc0 24ae 13c0 f3cc e2be 82a6 1dc0
000000a0: a3f5 c2bf c696 08c0 3269 9abf 75d3 a0bf
000000b0: c6fc 55bf 2180 83bf 7178 d2bf 475e 88c0
000000c0: c27e 04c0 fd3a 13c0 a3e5 c5bf 9708 0ac0
000000d0: 2bb5 17bf 0c29 05bf 3999 19c0 5ba3 52bf
000000e0: 5dee 3cc0 ea41 fcbe dcf5 ee3f 58ed e0be
000000f0: 916b 41c0 6da3 3ac0 ee1b 0440 8b16 d9be
-1.7886785 -1.127067 -4.7330213 -0.664065 -1.0459212 -2.3310583 -1.4406918 -2.9088364
0.86488044 3.700644 -2.127493 -2.8414478 0.9866648 -1.2612066 -0.78410834 -0.9589504
0.37132883 -0.80700034 -1.3779714 -0.8912785 -0.13361312 0.5324667 -2.1555004 0.0039414405
-0.81886756 -2.0003371 -0.3140606 -2.2734787 -1.9820397 0.32808426 0.15831207 -0.24367884
-1.6793536 -0.5579874 -1.7560828 -0.45972785 -2.1951325 -2.3075037 -0.4429699 -2.4632878
-1.5231212 -2.1342025 -1.2063353 -1.2564532 -0.83588827 -1.0273477 -1.6443006 -4.2615085
-2.0702367 -2.3004754 -1.5460705 -2.1567743 -0.59260815 -0.5201576 -2.399977 -0.8228051
-2.9520485 -0.49269038 1.866878 -0.4393108 -3.0221903 -2.9162247 2.0642047 -0.4240001

running_var f4 [64]
00000000: 1945 8740 50e7 2c40 659e 6040 cbd6 b33f
00000010: a149 8940 a73a 3840 faa4 c73f 9f99 ee3f
00000020: 053e f040 525e 5a40 b1d2 1e40 34d4 5540
00000030: 4588 6540 0e83 c040 999e df40 8dcc 6b40
00000040: ee1c e040 8359 5640 e7c1 1640 d840 0c41
00000050: f17f 1440 72cc d33f 11cc 0740 fd71 d63f
00000060: b518 b440 4234 b240 77e6 1b40 0a49 2940
00000070: 2af7 2140 a6d7 ba40 6232 1440 e0e2 3241
00000080: ef6a d840 1676 2240 13d4 b240 dcbe e73f
00000090: dd0c dd3f 8f4d d93f df4b 0140 15ed e23f
000000a0: 10df cf40 773a 0241 f0e0 983f 89d2 d840
000000b0: d80e 8040 aa90 c540 dfa1 a840 c01d 0040
000000c0: 94cc 0d40 8b78 5a40 b32f 0a41 5c50 6240
000000d0: acab ee3f 857c c140 9127 af3f c2d1 e840
000000e0: c71e 4d40 c13b fa40 9c8f d33f 441e 0840
000000f0: 24ed 0f40 6068 9640 5872 5d41 a77f a040
4.227185 2.7016182 3.5096676 1.4049925 4.290238 2.8785799 1.5597222 1.8640631
7.5075707 3.4120069 2.4816096 3.3410769 3.5864422 6.015998 6.98811 3.6843598
7.0035315 3.3492134 2.3555849 8.765831 2.320309 1.6546767 2.1218302 1.6753536
5.628016 5.568879 2.4359415 2.645083 2.5307107 5.8388243 2.3155751 11.180389
6.7630534 2.5384574 5.588388 1.8105121 1.726955 1.6976794 2.0202558 1.7728602
6.4959793 8.139274 1.1943645 6.7757 4.001812 6.173909 5.2697597 2.0018158
2.2156115 3.4136074 8.636645 3.5361547 1.864614 6.04645 1.368395 7.275605
3.2050035 7.819794 1.6528201 2.1268473 2.248849 4.700241 13.840416 5.0155826
