models/vishal_lr_001_iter_300.pt_230_128.pt (torch_old, 776281 bytes, 39 tensors)

weight f4 [64, 1, 3, 3]
000000 87 81 4e be e9 0c 3b be 92 bb 98 3e 12 a7 d8 bd
       -0.20166598 -0.18266644 0.29830605 -0.10578741
000010 4f 5b f5 bd 8f a9 a3 3e d9 e6 86 be 07 af 01 bd
       -0.11980306 0.319653 -0.26347998 -0.03166106
000020 01 36 96 3e 51 20 cd 3d 31 a1 e6 3d db 2e 82 3c
       0.29338077 0.100159295 0.112612136 0.015891483
000030 45 05 70 be 5e d2 97 3e 04 7c 84 bc a4 d0 f3 be
       -0.2343951 0.29652685 -0.016172417 -0.47620118
000040 92 96 a2 3d 00 0a 0b 3e 00 0c fa 38 cc 92 53 bd
       0.07938875 0.13578033 0.00011923164 -0.05165367
000050 38 d7 cf bc 4c 47 b4 bc 8c c1 6b bd 10 28 87 bd
       -0.025371179 -0.022006653 -0.057557628 -0.06599438
000060 d6 15 b2 bd b6 fc ca 3d cc 98 15 3d e3 5e 0b bf
       -0.08695571 0.09911482 0.03652267 -0.5444166
000070 ba 5a 82 be 71 3d b7 be c4 f4 0d bf 03 93 da 3d
       -0.25459844 -0.35789064 -0.5545161 0.106725715
000080 f6 61 03 be 4f 6b 44 bd 2f bf 2e 3f 24 bb bc 3e
       -0.12830338 -0.0479539 0.68260473 0.36861527
000090 dc 7c 60 bd 42 3e e5 bd 52 ae 28 3d 33 39 b2 bd
       -0.054806575 -0.11193515 0.04118187 -0.08702316
0000a0 79 74 b2 3c 5f dc 5d 3d 1d 0f 21 bd 56 7b f3 3b
       0.021784054 0.05416524 -0.039321054 0.0074304743
0000b0 8f d6 7d 3d f5 27 82 bd c6 62 64 bd e1 ae 45 bd
       0.061972197 -0.063552774 -0.05575826 -0.04826248
0000c0 b6 f5 97 3e e3 69 29 3e 66 eb ed 3d 58 e8 8e 3d
       0.2967965 0.16544299 0.11617164 0.0697791
0000d0 08 08 9e 3c cb 51 3e bd 6c e2 2c bd d8 4d c4 3d
       0.019290939 -0.046464723 -0.04220812 0.0958516
0000e0 d8 ad 35 3e 39 d2 89 3d dd fe f6 be f8 1a 9d bf
       0.17742097 0.0672955 -0.4824132 -1.2273855
0000f0 25 4b b5 3e b6 3a ce bd f7 a2 fa be df dd e4 3d
       0.35408893 -0.10069792 -0.48952457 0.11175131
000100 ce f6 66 be aa 3b 26 3e 7f 85 55 3e f0 72 8d be
       -0.22555086 0.16233698 0.20851706 -0.27626753
000110 9a 92 02 bd db e5 22 3e 66 86 17 bd 8c de b2 bd
       -0.03187809 0.15907995 -0.036993407 -0.08733854
000120 cc ab bc bd 90 b9 8b bd 15 79 7b bd 86 28 9b bd
       -0.09212455 -0.068225026 -0.06139477 -0.075760886
000130 87 26 22 bd 50 58 03 bd 70 2b ab 3d c6 54 92 bd
       -0.039587524 -0.032066643 0.083578944 -0.071450755
000140 b0 04 98 3d da f8 5d be 87 48 2f 3e 9d ab 0e 3c
       0.07422769 -0.2167696 0.1711751 0.008707908
000150 da a6 0a 3d 8f 56 ce 3e b9 62 c4 be 5a 15 5e bd
       0.03385053 0.40300414 -0.3835657 -0.05421958
000160 08 ff 6f bc 3b 9b 62 3d af 90 33 bd e0 d7 0b 3d
       -0.0146482065 0.05532382 -0.043839153 0.03414142
000170 00 fe 46 39 37 f9 be bd f8 bd 8c 3d 88 9e fd 3c
       0.00018977374 -0.09324878 0.06872171 0.030959383
000180 66 70 90 bd d0 f6 6d bc ca ab 96 3d a8 a6 4b 3c
       -0.07052688 -0.014524177 0.07356985 0.012429871
000190 b1 31 f8 3e 79 7e dd bd a8 fa bb bd fd 38 4b be
       0.48475412 -0.10815138 -0.09178668 -0.19845958
0001a0 ce 1c 4d be ce bb 9f 3d 0c dd 85 be 1e e7 81 3e
       -0.2003052 0.07799493 -0.26145208 0.2537164
0001b0 40 61 0c bb a0 4f f3 3b c0 43 5f bb f1 54 76 bd
       -0.002142027 0.0074252635 -0.0034067482 -0.0601396
0001c0 f0 67 16 bc 40 76 6e 3c 00 5a 7b 3d 28 ad b9 3d
       -0.009180054 0.01455456 0.061365128 0.0906623
0001d0 ad 91 4f bd 81 e5 d5 3d c6 9a 53 3c 3b 9c 63 bd
       -0.050676037 0.10444165 0.012915319 -0.055568915
0001e0 14 cb a5 be ee 7e 03 bf 75 b4 6e bd 74 5f 81 3e
       -0.323815 -0.51365554 -0.058277566 0.25268137
0001f0 00 0b 22 3e e1 99 dc 3e a5 5e c5 be 4b a8 ab 3e
       0.15824509 0.4308615 -0.3854877 0.33526835
000200 a0 ff 40 3e 11 c6 31 bd 09 a5 b3 be 72 b5 6c 3e
       0.18847513 -0.04340178 -0.3508685 0.23116091
000210 7a d1 e8 3e 77 94 6e be 82 70 4d be 88 52 9c be
       0.45472318 -0.23298822 -0.2006245 -0.30531716
000220 ed da 92 3e b4 94 9b bd 3d d1 71 be eb cf e6 3e
       0.28682652 -0.07596722 -0.23614974 0.45080504
000230 5f 97 bd 3d a9 06 99 be d5 9d 3b 3e 18 ea 9c bd
       0.09257387 -0.29887894 0.18321927 -0.07661837
000240 4a f2 0b bf ad c3 c5 bf c9 9f f7 3d 45 8d 89 bf
       -0.5466658 -1.545034 0.120910235 -1.0746237
000250 99 2f 16 c0 36 5f df be 05 2a 1a 3e 87 42 b1 be
       -2.3466551 -0.43627328 0.15055092 -0.3462107
000260 7f 35 63 3e 07 d4 26 be 38 d8 4d be 84 81 26 be
       0.22188376 -0.1629182 -0.20102012 -0.16260344
000270 ad e3 55 3d 76 3b f6 3d f8 be d7 3e c6 b9 6a be
       0.05221908 0.1202306 0.42137885 -0.2292243
000280 1d 8f 89 3d f8 4d c3 3d eb 1b 01 3c c8 7e 3b 3e
       0.0671675 0.09536356 0.007880191 0.18310082
000290 f6 21 9c be 7a ce 15 3e f7 11 e0 3e 6f 0c ef be
       -0.3049466 0.14629546 0.43763706 -0.46689174
0002a0 42 e2 78 3d a6 bc 9a 3e 67 26 bb be ea 55 62 bf
       0.06076265 0.30222052 -0.36552736 -0.88412344
0002b0 5d 1a 90 be 98 ce 93 3e d7 db 0e 3e c4 af 0a 3f
       -0.28145114 0.28868556 0.1395105 0.5417445
0002c0 29 3d 67 3e 7c fe 37 3e 51 f8 91 be d3 cf 2b bf
       0.22581924 0.17968172 -0.28509763 -0.6711399
0002d0 76 30 65 be c2 63 62 be 0f 14 cb 3d 3e 38 2d 3e
       -0.22381768 -0.22108367 0.09915935 0.16915986
0002e0 8e aa 30 3f 1f 02 b9 be 9b c1 ed bd c2 7d 97 3d
       0.69010246 -0.3613443 -0.11609193 0.07397033
0002f0 fd ba e0 bd 36 8f 89 be 35 c7 75 3d 29 d4 92 3d
       -0.10973165 -0.26867074 0.06000443 0.071693726
000300 77 cb 67 3e a4 dd bb 3e 69 00 46 3e e6 0b 4c 3d
       0.2263621 0.36692536 0.19336094 0.049816035
000310 0b 5c d1 be 5e 53 92 be 3c ec c8 bd 36 3b 21 be
       -0.40890536 -0.2857923 -0.09810683 -0.15745243
000320 0a bf 3b 3e d6 6b 85 be 91 f4 b3 be 76 01 3d be
       0.18334594 -0.26058835 -0.35147527 -0.18457589
000330 1f 22 91 3e 83 d7 9d 3e f7 9a 94 3e 53 4f 03 be
       0.28346345 0.30828485 0.2902448 -0.12823229
000340 47 93 3e bd e8 4a 87 3d 47 03 65 bd 20 1c b4 bd
       -0.046527173 0.06606084 -0.05591133 -0.08794427
000350 ea f4 27 bd 39 f3 7c 3d 1f ae 61 3d 7c eb d3 bc
       -0.041005053 0.061755393 0.055097695 -0.025869124
000360 f2 d2 cf bd 9c 21 69 bf f6 47 2b 3e fd 63 11 bf
       -0.101476565 -0.9106691 0.1672667 -0.56793195
000370 70 e4 eb bf cb 70 c4 bd 42 f6 14 3e 69 c8 53 be
       -1.8429089 -0.09591826 0.14547065 -0.20681919
000380 8d 87 83 3e 60 3f f1 3b 93 18 c9 bd f5 56 ab bd
       0.25689355 0.007362291 -0.0981914 -0.08366195
000390 82 85 c5 3d 0b 96 77 bd 60 2b 48 3d a0 86 0e bb
       0.09644605 -0.060445827 0.04886949 -0.0021747723
0003a0 00 28 80 bb 95 ef 99 bd ba 12 b6 3e a3 9f 29 3e
       -0.0039110184 -0.075164 0.35561162 0.16564803
0003b0 11 36 33 3e ec 23 56 be 67 e7 97 bf 29 71 a2 bd
       0.17501093 -0.2091214 -1.1867493 -0.0793174
0003c0 cf 53 fb 3d 0e 3f f9 be 23 48 7c 3e 27 d1 d5 bc
       0.122718446 -0.4868092 0.24636893 -0.026100708
0003d0 3a e5 e8 3d ab db 28 bd 3e fa b9 be 79 fe bd bc
       0.113718465 -0.041225117 -0.36323732 -0.023192631
0003e0 1f 5d 86 3e 6f 83 59 3e 49 d6 17 3e 10 97 9e be
       0.2624292 0.21241544 0.14827837 -0.30974627
0003f0 5d 9c cd 3e 5c 0b 56 be 40 75 27 be cc d5 23 3e
       0.40158358 -0.20902771 -0.16353321 0.15999526

bias f4 [64]
000000 4b f4 4f 3c 72 82 0a 3d ac b3 c5 bd 4e 62 9d 3c
       0.012692521 0.03381581 -0.0965341 0.019211914
000010 62 ae 9d be 17 52 84 be c3 d4 4f 3e f2 60 c6 3d
       -0.30797106 -0.2584388 0.20296006 0.096864596
000020 f8 dd 44 be 9a a8 41 3d 2a ca a8 be 36 1e bc 3d
       -0.192253 0.04727993 -0.3296674 0.0918545
000030 26 3e 5e be 10 0e 30 3d b9 e5 90 3d 55 f3 8f bc
       -0.21703395 0.04298216 0.07075066 -0.017572084
000040 9b be 94 3e c8 21 00 3d 2e de d1 bc f4 f2 8d 3d
       0.2905167 0.031282216 -0.025618639 0.06931105
000050 4f f3 40 3d d4 86 d5 3c ed 0f 90 3c ba c7 d0 bd
       0.047107037 0.026065268 0.017585719 -0.10194345
000060 2a 09 96 3e cc 53 bc bd ea e7 20 3e 3b 8f b6 3d
       0.29303867 -0.091956705 0.15713468 0.08914038
000070 87 7d 40 3c 30 6d 2e 3d 13 77 dc 3c ae c6 ec 3d
       0.011748678 0.042584598 0.026912248 0.11561333
000080 ef 1d 9a 3d 9f 61 8e be 0f 79 03 3d f6 86 75 3d
       0.07525241 -0.27808854 0.032097872 0.059943162
000090 08 89 ac 3c 9c 95 96 3d 52 ba be 3d e8 04 57 bd
       0.021061435 0.073527545 0.093128815 -0.052494913
0000a0 ef ba 54 3e 68 04 6e 3d ad bf 71 3d cd 9c 33 3d
       0.20774435 0.05810967 0.059020687 0.04385071
0000b0 c6 17 3f be 99 72 13 3e e7 f5 85 be 95 ca d4 3c
       -0.18661413 0.14399184 -0.2616417 0.025975505
0000c0 0f 09 24 bf 93 4b 1d be 23 a3 b5 3d 1f 09 9b 3c
       -0.6407632 -0.1536086 0.088690065 0.018925248
0000d0 54 ab 97 be 14 a2 97 be 70 69 b1 bd b6 6c c2 bd
       -0.296229 -0.29615843 -0.08662689 -0.09493391
0000e0 40 72 9e be c9 bd 26 3d aa c0 b4 bd ef f1 30 bf
       -0.3094654 0.040708337 -0.0882581 -0.6911916
0000f0 ce 7e 0e 3d 73 e3 5a 3e 1c 08 87 bc c6 e9 21 be
       0.0347889 0.21375827 -0.016483359 -0.15811834

weight f4 [64, 64, 3, 3]
000000 17 c6 f6 3c 76 31 a0 3e a2 1c b8 be 87 0b b0 3e
       0.030123753 0.31287736 -0.35959345 0.34383795
000010 77 88 f7 3d d3 c3 f3 be 02 16 35 3e e4 46 4b 3e
       0.120865755 -0.4761034 0.17684177 0.19851261
000020 9d 28 e5 3c 66 a9 7c 3d 46 cc 75 bb 1e 22 ba 3b
       0.027973467 0.06168499 -0.003750579 0.0056803366
000030 1e dc a0 be d9 41 df be 70 d7 1d bd 0f ec e7 3d
       -0.31417936 -0.43604925 -0.038535535 0.113243215
000040 2b 14 a6 bd 07 33 22 3e 28 cc 0c bd 48 88 d3 3c
       -0.081093155 0.15839778 -0.034374386 0.02582182
000050 00 5e 5f 3d b6 08 2e 3d 92 46 39 3d f6 b3 8a bd
       0.054533005 0.042488776 0.045233317 -0.06772606
000060 1c 2d 66 3d 20 f1 7b 3d cc 03 5a bc 13 3a eb 3c
       0.056195363 0.06150925 -0.013306569 0.028714215
000070 90 33 bf 3e 49 23 ba 3d 47 ae dc 3c a6 5b 0a be
       0.37344027 0.09088761 0.02693857 -0.13511524
000080 3f 3e ec be 8a 4d b1 be bf 01 a3 3e ff 2a 7c 3e
       -0.4614124 -0.3462947 0.3183727 0.24625777
000090 8e f1 ad bc b0 24 42 bc 5c a5 65 bd 32 f1 b3 3d
       -0.021233346 -0.011849567 -0.056065902 0.08786239
0000a0 6f d7 c7 ba 52 82 cf bc a0 41 48 3d a8 9c b6 bd
       -0.0015246699 -0.025330696 0.04889071 -0.089165986
0000b0 84 d2 92 3d 2d db 4f bb 8b a9 c7 be f2 46 b4 be
       0.07169059 -0.0031716332 -0.3899654 -0.35210377
0000c0 0a ed b8 3e 1b eb 5c 3e 5d e6 a3 be 99 24 dc 3e
       0.36118346 0.2157406 -0.3201169 0.42996672
0000d0 4f 54 b0 3e d7 46 45 be a1 0c 92 bd d7 5a 2f bf
       0.34439322 -0.19265305 -0.07131315 -0.68497986
0000e0 82 07 9a bd 67 5b 54 3f 79 f1 03 bf ef 59 83 bd
       -0.07520963 0.8295197 -0.51540333 -0.06413638
0000f0 7d d9 88 be f7 0f 66 bf c4 87 00 ba 62 e5 40 3e
       -0.2672843 -0.8986811 -0.0004903043 0.18837503
000100 96 15 0d 3f ac 86 b1 3d 72 ab 00 bf 9c 6e 89 3e
       0.5511106 0.08668265 -0.50261605 0.268422
000110 55 38 ce be 1a ae ad bd bb fb 8f 3d 6b ca 1d bd
       -0.40277353 -0.08480473 0.07030436 -0.03852312
000120 14 3d 15 3d fd e9 3c bd 40 da 30 3b a0 5e 4c 3d
       0.0364352 -0.046121586 0.0026985556 0.04989493
000130 1c 55 7c 3d 6c 33 5b 3d e4 53 59 bd b6 50 18 bd
       0.061604604 0.053515837 -0.05305852 -0.037186347
000140 7c 74 7e 3d 7d 92 c3 3d d7 5f 76 bd 83 54 df 3e
       0.062122807 0.09549425 -0.060149994 0.43619165
000150 c6 ab 1e be 1a da b5 be 2b dc d4 bd 06 47 0d 3e
       -0.15495214 -0.3551796 -0.10393556 0.13796625
000160 44 7d 6f 3d 74 68 47 bc 10 09 81 3d 2a 5a 90 3d
       0.058469072 -0.0121709 0.06300557 0.070484474
000170 24 c5 8a 3d 5b 6f 48 bd 84 7f 42 3d a0 dd a4 3c
       0.06775883 -0.04893432 0.04748489 0.02012521
000180 f4 90 25 3d b2 0c 75 bd 2a 0a 21 3d 3c db 94 bc
       0.04042144 -0.05982656 0.039316334 -0.018170945
000190 e4 fb 2f 3f 7e 25 a6 3e 5f ad 73 be 5e 5c 3a be
       0.6874373 0.3245048 -0.23796605 -0.18199298
0001a0 2b 4d 4e 3e 49 95 ed be 90 3e d5 be 98 a1 80 3d
       0.20146625 -0.46402958 -0.41649294 0.062808216
0001b0 60 87 07 3b e0 62 66 3d 06 a6 1b 3d e3 ca 0d bd
       0.0020680055 0.05624664 0.03800013 -0.034617316
0001c0 c2 a5 d0 bc e0 f4 84 3b 20 73 87 3b 80 14 59 3d
       -0.025469664 0.0040575117 0.004133597 0.052998066
0001d0 83 ba 70 bd 5e 09 f1 bc af b4 bb be c3 5d 5c 3e
       -0.05877162 -0.029423412 -0.36661288 0.21520142
0001e0 6e 12 35 bc 70 a3 5e 3d 96 83 8f 3d b6 bc 97 3e
       -0.011051757 0.054355085 0.0700752 0.29636163
0001f0 13 d7 be 3d 3c 19 4d be b2 80 b3 3d 5d c6 c7 3d
       0.09318366 -0.20029157 0.08764781 0.09754632
000200 04 37 23 3d 48 65 75 3c ca 0b 86 bd 74 f9 d9 bd
       0.03984739 0.014977761 -0.06545217 -0.106432825
000210 85 21 24 be 45 a2 48 bc ee 01 4a 3d af 0b 3d 3d
       -0.16028412 -0.012245719 0.049318247 0.04615372
000220 a5 dc ac bc 3b af e6 bc 5d 5c 24 3c 7e d2 31 bd
       -0.021101305 -0.028159728 0.010031787 -0.04341363
000230 82 26 99 3d 74 ba 12 bd 63 a2 be bd f6 62 e0 3e
       0.07478048 -0.035822347 -0.093083166 0.438255
000240 a2 f6 06 bf 00 0b 73 be d1 67 d9 be b0 24 9f 3e
       -0.5272008 -0.23734665 -0.42462018 0.31082678
000250 6f 68 25 3f 43 ba 20 3e 42 f2 d2 3e a5 f6 9f 3e
       0.6461248 0.15696053 0.41200453 0.31242862
000260 fd fd 9d be a3 cf e5 3a 04 8f eb 3d f8 c7 b8 bd
       -0.3085784 0.0017533194 0.115018874 -0.09022516
000270 8e 9f 9c bc b3 98 57 be 0f e0 6d be e7 ca c8 bd
       -0.01911905 -0.21054344 -0.23230003 -0.098043256
000280 52 70 02 be 43 62 22 be c0 37 c8 bd 56 ac 4d bc
       -0.1273816 -0.15857796 -0.097762585 -0.012553295
000290 91 b9 2c 3d ba eb 13 3f f8 e1 82 3e e6 25 2d be
       0.042169157 0.57781565 0.25563025 -0.16908988
0002a0 76 f3 15 3f 89 b4 b4 3e b7 4a 89 be 89 25 c2 bd
       0.58574617 0.35293987 -0.26814815 -0.094798155
0002b0 21 73 0d 3e 85 30 ec bd 53 8e 8e 3e ba 00 aa be
       0.1381345 -0.11532692 0.2784296 -0.3320368
0002c0 8d 78 75 be 8b d1 66 3f 45 b1 84 be 6e f5 7c bc
       -0.23971768 0.9016349 -0.25916496 -0.015439374
0002d0 8e ff 69 3a c8 72 64 bd 07 80 d6 3e 9e 97 e6 bd
       0.0008926325 -0.055773526 0.41894552 -0.112593874
0002e0 10 a2 30 be 06 61 c1 be 8d 98 5b 3e 28 35 24 3e
       -0.17249322 -0.37769336 0.21444912 0.16035903
0002f0 18 f3 a6 bc b7 99 e7 3d 8b 5f 98 3e fd 5a bd 3c
       -0.020379588 0.11308616 0.29760394 0.023114676
000300 72 f1 95 be 02 84 bf be 23 4d 26 3d f4 e8 7d bd
       -0.2928577 -0.374054 0.040600907 -0.06198974
000310 88 64 40 3d aa 68 11 bd a7 5b 8f be cc 52 af 3d
       0.046970874 -0.035500206 -0.27999613 0.08560714
000320 82 94 86 3e f6 51 4f be 6c a3 91 3d 26 05 45 be
       0.26285177 -0.2024611 0.071112484 -0.19240245
000330 a5 e5 aa 3d 34 fe a8 3e 9b 79 33 be 36 99 af bc
       0.083445825 0.33006442 -0.17526858 -0.021435361
000340 7c ff 0d bd c4 57 2d bd b4 c3 a7 3c c5 57 90 3d
       -0.034667477 -0.042320028 0.02047906 0.07047991
000350 b1 75 9d bc 08 5e 07 3d b2 ba 74 bd 4f 1f ee bc
       -0.019221159 0.03304866 -0.05974836 -0.029067663
000360 12 db 27 be 19 2f 98 be df 7e 0e 3e 84 80 63 be
       -0.16392162 -0.29723433 0.13915585 -0.22216994
000370 b8 58 a1 3e ad c4 7a be 0c e8 36 3e 94 0c 0a 3d
       0.31513 -0.24489088 0.17861956 0.0337034
000380 20 1f 89 3e b8 66 77 bd b0 99 ff bc c6 b4 f0 bc
       0.2678156 -0.060400695 -0.031201214 -0.029383074
000390 c2 15 13 3d f0 58 6c 3d 9e 65 1e 3d 9a 7d 8e bc
       0.03590942 0.057702005 0.03867113 -0.017393876
0003a0 cc 1d ef 3c 37 7f 22 bd 6d f4 0b 3d db 24 21 3e
       0.029189013 -0.039672103 0.03416865 0.15736715
0003b0 43 30 be bd f9 3a 2e 3e 91 0c ea 3e 20 ab 09 bd
       -0.09286549 0.17014684 0.45712712 -0.033610463
0003c0 4b 0a 04 bf 46 51 d3 be ca 6d 3b be 3d 5b ad 3e
       -0.51578206 -0.41272944 -0.183036 0.33858672
0003d0 52 36 ab bc 6c 1a eb 3e 56 a0 d2 be c1 5c 98 be
       -0.020899925 0.45918596 -0.41137952 -0.29758266
0003e0 fd 98 82 3d 71 4d 47 bd 68 b9 89 be d9 de 2d 3e
       0.063768364 -0.04865784 -0.26899266 0.16979541
0003f0 65 32 c5 3e 59 a5 7a bd fa fc 9b bd 4d 1d 89 be
       0.3851501 -0.061192844 -0.07616611 -0.26780167

bias f4 [64]
000000 23 7d 04 be 98 56 aa 3e 68 50 be bd 84 09 4b 3e
       -0.12938361 0.3326919 -0.0929268 0.19827849
000010 69 0d c2 bb 90 f6 0c 3f 1d d1 d4 3e 7e 46 ad bd
       -0.005922009 0.55063725 0.4156579 -0.08460711
000020 a7 d0 5c 3e 63 d3 6d 3e 74 28 7a 3e 14 1e 96 be
       0.2156397 0.23225169 0.24429494 -0.29319823
000030 08 29 ee bd 5a 38 30 3d d8 87 fb bd 05 6e 32 bf
       -0.1162892 0.04302249 -0.122817695 -0.69699126
000040 6f 55 72 3e 25 bf 98 3d 6d 0f 46 3e 80 a6 b1 3e
       0.23665403 0.07458333 0.19341822 0.34697342
000050 a2 07 e6 3e 21 7a ba be 6e c0 d2 3e 60 51 2c 3e
       0.44927698 -0.36421302 0.41162437 0.16827917
000060 d7 84 42 3e 17 6d 28 3e d3 0b 24 bd 49 49 92 be
       0.18995987 0.16447864 -0.04005034 -0.28571537
000070 81 a4 fb bd bc 37 5f 3e 6f 81 09 3f 29 86 ae bc
       -0.12287236 0.21798605 0.53713125 -0.021304207
000080 95 df eb bd 77 86 03 be 77 0d 6a 3e 1f 22 ab bd
       -0.11517254 -0.12844263 0.22856699 -0.083561175
000090 5c e9 eb bc fe ab e0 3e f2 7e f9 3e 6b 75 7e 3d
       -0.028797798 0.4388122 0.48729664 0.062123697
0000a0 43 9f d5 3e b6 bf a1 3d 2e 91 0c 3e 52 c3 c9 3e
       0.4172307 0.07897894 0.13727257 0.3940683
0000b0 ad a8 8d be ad d8 a2 3c c3 0c aa be 8a 85 9d bd
       -0.27667752 0.01987871 -0.3321286 -0.07691486
0000c0 ce 18 f9 be ad f9 80 3d 6a 8c 91 be 28 39 f7 3c
       -0.48651737 0.06297622 -0.2842744 0.030178621
0000d0 28 2b 6e 3e 3f a7 af bd 41 68 fe bc c5 04 b4 be
       0.2325865 -0.085768215 -0.031055572 -0.3515989
0000e0 ac 36 c9 3e 4b ed 16 bf 06 89 29 3e 09 b9 cf 3e
       0.39299524 -0.5895583 0.16556177 0.40570858
0000f0 fe a1 38 3e aa fa bf 3d 21 11 00 be e9 06 71 be
       0.18030545 0.09373982 -0.12506534 -0.23537792

weight f4 [64]
000000 4a cd 07 3f e5 f8 12 3f 29 bc 01 3f 0f 49 23 3f
       0.5304762 0.5741103 0.50677735 0.63783354
000010 52 e5 13 3f 11 c5 4c 3f db d5 0a 3f 3e d8 d9 3e
       0.5777179 0.799882 0.5423257 0.42547792
000020 44 14 2b 3f cd fc b0 3e 65 bf 29 3f 68 8d d6 3e
       0.668278 0.34567872 0.6630767 0.4190476
000030 e8 1c 2a 3f ab 74 4f 3f 50 74 c8 3e 1a 32 dc 3e
       0.6645036 0.81037396 0.3915124 0.43006974
000040 bb d0 e4 3e f2 cf 68 3f 93 2c 02 3f 56 d7 1d 3f
       0.446905 0.909423 0.50849265 0.616567
000050 6e 90 0b 3f 70 c6 5d 3f 11 9c 15 3f 1a f5 33 3f
       0.5451726 0.86630917 0.58441263 0.7029587
000060 cb e5 ef 3e fc 9e 04 3f 13 24 12 3f df 5e e1 3e
       0.46855006 0.5180509 0.57086295 0.44017693
000070 79 00 4b 3f b9 74 ec 3e 74 19 f9 3e 7c a4 0d 3f
       0.79297596 0.46182802 0.48652232 0.5532911
000080 9e bd 68 3f bd de 08 3f 3a 79 21 3f 75 c6 13 3f
       0.9091433 0.5346487 0.630756 0.57724696
000090 89 da 17 3f 91 65 42 3f 39 46 1a 3f 21 46 02 3f
       0.59317833 0.7593623 0.602634 0.5088826
0000a0 7b 41 ba 3e 1c 76 18 3f 64 f0 ea 3e 76 87 07 3f
       0.36378083 0.5955522 0.45886528 0.5294107
0000b0 6a c8 43 3f e5 a1 2a 3f e4 4f 20 3f dd 7c 16 3f
       0.7647768 0.6665328 0.62621903 0.58784276
0000c0 94 59 2e 3f f1 d5 2a 3f 33 00 e9 3e 2a 90 e6 3e
       0.68105435 0.667327 0.45507964 0.45031863
0000d0 34 87 fc 3e 2a b4 f6 3e 05 82 1b 3f 71 96 28 3f
       0.49321902 0.4818433 0.6074527 0.65854555
0000e0 11 6a f9 3e d7 dc bb 3e 6b 3e 08 3f 4d 4e 16 3f
       0.48713735 0.36691925 0.5322024 0.5871323
0000f0 eb 97 0b 3f cc a0 16 3f 60 48 16 3f 5a ba 06 3f
       0.54528683 0.58839107 0.58704185 0.526281

bias f4 [64]
000000 d9 4a a2 bd ab 5d 0f bf da f3 c2 bd 26 9e 04 be
       -0.07924432 -0.560023 -0.09519167 -0.12950954
000010 ab d2 d7 be d8 7c 43 bf 64 2e 86 be ff 7f 7c bc
       -0.42152914 -0.7636237 -0.26207268 -0.015411376
000020 c3 5a 38 be 13 3b 57 bd d0 44 b3 be e7 b2 12 bf
       -0.18003373 -0.052546572 -0.35013437 -0.57304233
000030 d9 c1 17 3b 16 53 c6 be 74 44 88 be ec 82 9c be
       0.0023156314 -0.38735265 -0.26614726 -0.30568635
000040 89 c8 05 3e 0e d8 d8 bd be f3 f2 3c af 23 59 be
       0.1306478 -0.10588084 0.029657241 -0.21205018
000050 2c 5a b6 3d 4f e6 cd be 12 bf 4f 3e 67 51 88 be
       0.08903918 -0.40214774 0.20287731 -0.26624605
000060 a0 a8 8d 3e 2c f4 01 be bf 09 7c be 37 93 69 be
       0.27667713 -0.126908 -0.24613093 -0.22810064
000070 d2 ed a0 bd 07 2d 36 3e 51 45 59 be ea 68 73 be
       -0.078578606 0.17790614 -0.21217848 -0.2377049
000080 2b ba b3 bf 6d 8b ef 3b a7 88 0a 3e 34 23 bb be
       -1.4041189 0.007310322 0.13528691 -0.36550295
000090 4d 27 24 be ed a8 9c be 40 a3 30 3e 86 9e 11 bf
       -0.16030617 -0.3059763 0.17249775 -0.5688251
0000a0 44 59 77 3e f3 83 7a be 76 18 05 bd c1 3d 79 be
       0.24155146 -0.24464397 -0.03249403 -0.24339963
0000b0 bc 32 5f be ce ba 01 bf 6a 94 6b be 76 46 00 bf
       -0.21796697 -0.50675666 -0.23005834 -0.50107515
0000c0 11 9a 85 be 3d d4 dd be bd 08 41 3f 14 f6 9c bd
       -0.26094106 -0.43325987 0.7540396 -0.07664123
0000d0 2f 9b c3 be 79 89 83 be f9 cf 60 be aa b6 83 be
       -0.38204333 -0.2569082 -0.21954335 -0.257253
0000e0 d0 29 0d be f7 a3 33 bd 9d c3 af be e3 0b d5 bd
       -0.13785481 -0.04385754 -0.3432893 -0.10402658
0000f0 4f 9f 70 3d 8c 99 bb be c2 e0 f2 be 2a 12 ce be
       0.05874568 -0.36640584 -0.47437102 -0.40248233

running_mean f4 [64]
000000 46 3b e7 bd d9 8d 56 3e 9b a2 59 be 78 77 56 bd
       -0.112906024 0.20952548 -0.21253435 -0.052360028
000010 4c 36 b7 be c2 53 d5 3e b6 28 db 3e ed 3c dd bd
       -0.35783613 0.41665465 0.42804497 -0.10802636
000020 65 00 01 bd e8 75 37 3e 00 9f c7 3d f7 c2 bb be
       -0.031494517 0.17916071 0.09747124 -0.36672184
000030 19 77 af be cc af df bd d0 64 cf be 7e e0 51 bf
       -0.34270552 -0.109222025 -0.405066 -0.8198317
000040 c9 6f 7e bd 8d c6 c5 bd 84 ff 1a 3d 50 99 ca 3e
       -0.062118325 -0.09657011 0.037841335 0.39570093
000050 c8 55 94 3e bd 92 18 bf 0e 94 5c 3e be 09 64 3e
       0.28971696 -0.59598905 0.21540853 0.22269341
000060 21 65 2b 3d 5b 1d 94 3d e6 1f 68 be 9e dc 98 be
       0.04184449 0.072321616 -0.22668418 -0.29855818
000070 5d b2 8e be c5 3b 0a be c2 97 d4 3e 6c c8 39 be
       -0.27870455 -0.13499363 0.41522032 -0.18142861
000080 7b 70 18 be cf b7 0e bf 75 65 18 3d 35 f9 26 bd
       -0.14886658 -0.5574922 0.037206132 -0.040765006
000090 27 0d b8 bd 90 a6 a8 3e a0 13 be 3e b6 29 30 bd
       -0.089868836 0.32939577 0.37124348 -0.04300853
0000a0 db 87 45 3e 6a 05 03 be 47 db d8 bd 6f 26 a9 3e
       0.19290106 -0.12795034 -0.10588699 0.33037135
0000b0 b0 b9 ea be 33 33 f0 bd ac a2 c5 be 7b 13 86 be
       -0.45844793 -0.117285155 -0.3860067 -0.26186737
0000c0 04 9c 12 bf 76 5c b8 3d 8a c5 e3 be 0b a4 75 be
       -0.5726931 0.090020105 -0.44486648 -0.23988359
0000d0 e6 8a 6c bc e9 9c 1c be 4f 83 79 be 5b bf ff be
       -0.014437413 -0.15294231 -0.24366497 -0.4995068
0000e0 be a8 90 bd 86 54 32 bf d8 61 3a bd 4e 7b 86 3e
       -0.07063435 -0.6966022 -0.045503467 0.2626595
0000f0 97 d5 40 bd 21 bf 05 be 78 4f 0f bf 8a 90 ae be
       -0.047078695 -0.13061191 -0.55980635 -0.3409465

running_var f4 [64]
000000 75 7f 1d 3d 0f 7a ad 3c 69 31 86 3d 03 ec 8c 3d
       0.03845163 0.021176366 0.06552393 0.06880953
000010 03 cd 3f 3d 5f e4 a2 3c 0f 32 c2 3c e6 dc 07 3d
       0.046826374 0.019884286 0.02370551 0.03316965
000020 47 ea 77 3d 8a 12 48 3c 24 a8 74 3d 25 f2 f3 3c
       0.06052616 0.012211451 0.059730664 0.02977855
000030 62 1c 50 3d 1f ce 6a 3d a8 46 d1 3c 55 2b 12 3c
       0.050808318 0.05732548 0.025546387 0.008921464
000040 a4 2e 1f 3d d3 c9 9d 3d 57 17 69 3d 82 3a 4b 3d
       0.03886284 0.077045105 0.056907024 0.049616344
000050 6e 32 10 3d 10 a1 96 3d d1 59 67 3d 33 a7 17 3d
       0.035204343 0.07354939 0.05648214 0.037024688
000060 9a 97 50 3d 0f f6 4a 3d fe 64 ea 3c e8 98 de 3c
       0.05092583 0.049551066 0.02861261 0.02717252
000070 fb 0c b9 3d 83 a2 2f 3d 5f 6d 08 3d b9 e9 01 3d
       0.09035679 0.042879593 0.03330743 0.031717036
000080 d7 95 02 3d 6c 19 7a 3d c5 c8 3a 3d 0d ae 11 3d
       0.03188118 0.0610594 0.045601625 0.03556638
000090 26 24 53 3d c2 81 f2 3c ce 28 a6 3d 7d dc 29 3c
       0.051548146 0.029602889 0.081132516 0.01036751
0000a0 0a 7f c8 3c 06 7c 1e 3d e6 5f 17 3d 1c 29 73 3c
       0.02447464 0.038692497 0.03695669 0.014841344
0000b0 70 11 a3 3d bf e3 b0 3c 4a 40 40 3d 9d 8e 8e 3c
       0.0796231 0.021592973 0.04693631 0.017401988
0000c0 73 88 7f 3d 4b a9 4e 3d 3a 09 6c 3c 10 b2 f8 3c
       0.062385987 0.05045442 0.014406497 0.030358344
0000d0 91 01 73 3c df 01 fe 3c 72 33 21 3d db ce cb 3c
       0.014831916 0.031006752 0.039355703 0.02487891
0000e0 89 a9 18 3d 49 b8 f3 3c b1 f6 ae 3c 77 25 03 3d
       0.037271056 0.02975096 0.021357866 0.03201815
0000f0 de 51 7a 3d 53 8b 01 3d 7a 37 1c 3d 27 13 21 3d
       0.06111323 0.03162701 0.038138844 0.039324906

weight f4 [64, 64, 3, 3]
000000 b6 f2 4d 3e f8 1b 29 bd 3f 16 8b 3e 20 0c 3c bd
       0.20112118 -0.04128644 0.2716541 -0.04591
000010 e3 7a 80 3d 6d 69 a7 3d 49 1f 84 3e e2 85 7d 3e
       0.06273439 0.08174405 0.2580512 0.24758103
000020 18 e6 ae be 22 aa 11 be 65 b0 58 bd 04 1f aa bd
       -0.34159923 -0.14225057 -0.052902598 -0.08306697
000030 1e b7 58 bc 46 92 ac bd 57 c0 11 bd 74 be b2 3d
       -0.013227252 -0.08426337 -0.03558382 0.08727732
000040 4e e1 12 bf c0 2d 0c bf d3 01 6c be c2 fd 22 3e
       -0.5737504 -0.5475731 -0.23047571 0.15917113
000050 7a 50 96 be b7 96 65 be 07 8f 1d 3e ce c6 e7 be
       -0.29358274 -0.22420774 0.15386592 -0.45268863
000060 ae 56 1c bf c1 3d 21 bf d6 06 8f be b9 bc ac 3e
       -0.6106976 -0.62984854 -0.27934903 0.33737734
000070 9e 83 49 3b ed 51 9c 3e 5f 0c 96 be 99 9b 1d 3e
       0.0030748616 0.30531254 -0.29306313 0.15391387
000080 bc e1 0d 3e 73 10 78 3e 0e 61 a9 3c dc 55 af be
       0.13855642 0.24225025 0.020676162 -0.34245193
000090 ca 43 94 bd e7 80 9f 3e 1b ae 0b 3e a3 4f a9 bd
       -0.07239492 0.31153032 0.13640635 -0.082671426
0000a0 24 9d 1e 3d 2d 95 e9 3d 77 96 6d be 4c 08 4e be
       0.03872408 0.11405406 -0.23201929 -0.20120353
0000b0 d0 36 7e be 90 35 bb 3d 98 31 b7 3e ad 90 aa 3e
       -0.24825597 0.091410756 0.35780025 0.33313504
0000c0 ce 8d 7a be a7 7e 4f 3b b5 c4 27 be a2 c8 67 3e
       -0.24468157 0.0031661184 -0.16383632 0.22635129
0000d0 49 43 01 3c 1f 1b 46 bd 07 1f 7e 3c d9 17 d6 3d
       0.007889577 -0.04836571 0.015510327 0.10453767
0000e0 7b 88 ac 3c 20 b3 c3 be 38 63 ec bd bd e9 84 be
       0.021061173 -0.382226 -0.11542362 -0.25959578
0000f0 0b e2 09 3e d0 17 05 bc e9 71 a5 3e 04 d3 06 be
       0.13465135 -0.008123353 0.3231347 -0.13166434
000100 69 7a 74 be c3 3e d1 bc f6 20 8e be 26 91 e2 be
       -0.23874821 -0.025542622 -0.27759522 -0.44251364
000110 96 06 a1 be 09 03 3f 3e b5 35 8f be 0e 62 26 bf
       -0.31450337 0.18653502 -0.27970663 -0.6499337
000120 29 58 d0 3e a5 11 ca be a5 d9 67 be ed 21 eb be
       0.4069226 -0.39466587 -0.22641619 -0.4592432
000130 86 df 26 bf c3 3e 0c 3e aa d7 52 3e 3e 44 5a 3e
       -0.6518482 0.13695817 0.20590082 0.21315095
000140 4f 52 9a 3e 91 80 ce 3e 1d 1c dc 3e 8e cd 41 3f
       0.3014092 0.40332463 0.429902 0.75704277
000150 bb 65 9e 3e f0 19 10 3a 35 db fe 3e 66 e4 63 3e
       0.3093699 0.0005497029 0.49776617 0.22255096
000160 93 35 a8 3c ec e4 09 bf 4f 43 9b 3d fb aa ec be
       0.020533359 -0.5386493 0.075811975 -0.46224198
000170 e3 92 17 bf bb 6c 3a be cb 1d 05 3e b8 99 f0 be
       -0.59208506 -0.1820554 0.12999646 -0.46992278
000180 be e6 37 3e 29 55 18 3f 5f 14 a4 be 6d 4c 6c be
       0.17959115 0.59504944 -0.32046792 -0.23076029
000190 67 d7 b1 bd 9c 2a 1d be 8a 60 27 bd fa af d6 3e
       -0.08683663 -0.15348285 -0.04086355 0.41931134
0001a0 53 e2 bf bd 12 2b 85 be 72 f4 41 be bd cf 49 bf
       -0.0936934 -0.26009423 -0.18940905 -0.7883261
0001b0 b5 9e a7 3e b5 6a da bd 2e 51 a8 be 31 7a 91 3c
       0.3273827 -0.10664884 -0.32874435 0.01775846
0001c0 1a 84 52 3e 65 53 88 3d cd f0 5a 3e ec 27 00 be
       0.20558205 0.06656531 0.2138092 -0.12515229
0001d0 47 f7 4a 3e cf a3 0d 3f 2b ea b4 be 60 9c 25 be
       0.19820891 0.5532808 -0.35334906 -0.16172934
0001e0 88 18 bf bd 5d 3f d0 be 99 d7 d7 be a5 17 90 bd
       -0.09330851 -0.40673342 -0.42156675 -0.0703576
0001f0 fa c5 40 3e ff 31 85 3d 32 d0 13 3d 5f 95 a6 be
       0.18825522 0.065036766 0.036087222 -0.32535836
000200 32 79 18 bf 2b d9 2e 3e e8 4b 1e 3e 3a 03 4f be
       -0.5955993 0.1707503 0.15458643 -0.20216075
000210 78 f6 da be 13 ec 0c 3d 54 3f 6e 3e 14 d0 d8 bd
       -0.42766166 0.034404825 0.23266345 -0.10586563
000220 68 7a 63 bc 95 c0 54 3e 33 fe af 3c b0 54 8a be
       -0.013884164 0.20776589 0.021483516 -0.27017736
000230 e9 3a c5 bd d8 79 6a 3e c9 41 cf 3e 32 fa 0d 3c
       -0.09630377 0.22898042 0.40479878 0.008665608
000240 d5 5b a8 bd 7f 8f e3 3d 34 2b 42 be d1 ea 40 bd
       -0.082206406 0.11111354 -0.18961793 -0.04709894
000250 11 40 9e be 75 15 a6 be 98 4c 5e 3e a6 b0 f9 bc
       -0.30908254 -0.32438245 0.21708906 -0.03047974
000260 f1 c3 3a 3f 27 1d 35 bd ec 1e 34 be 94 86 5c 3e
       0.7295523 -0.044217255 -0.17589921 0.21535712
000270 10 49 b5 3d 4d f3 2b 3d 11 42 22 3e 92 fb 57 bc
       0.08851826 0.041980077 0.15845515 -0.013182538
000280 7c bf d7 3e 6a 47 9e be a5 30 71 3e 2d 6c 8e 3d
       0.42138278 -0.3091386 0.23553713 0.06954227
000290 82 1a 65 3e a2 c4 51 3d 9a 6d c7 bc 13 f3 40 3e
       0.22373393 0.051212914 -0.024344254 0.18842725
0002a0 26 6d ff bb 1e 5e f7 be 21 2f 82 bd ce ce 0e be
       -0.007794994 -0.48313993 -0.063566454 -0.13946077
0002b0 41 35 6e bc ba 26 b8 3e ec b7 50 bc ce e5 21 be
       -0.014539064 0.35967046 -0.012739163 -0.1581032
0002c0 b1 24 24 bd e4 de a4 3e 74 00 88 bd f0 d9 cb bb
       -0.040074054 0.32201302 -0.066407114 -0.0062210485
0002d0 2e c9 81 3e 23 44 1d 3e 7c 0d 14 3f 4c 7a 62 be
       0.253488 0.15358023 0.57833076 -0.22116965
0002e0 2c 5e 8b 3b 70 a9 01 3e b5 a2 ff bd 4f 47 a4 be
       0.0042531695 0.12662292 -0.12482206 -0.32085654
0002f0 99 4b ee 3c cc c8 2c 3e a3 f5 94 3e 54 67 51 3e
       0.029088782 0.16873473 0.29093656 0.20449573
000300 4f 0b d4 3d 78 16 d5 bd 5e d5 f1 3d 33 b7 25 3d
       0.103537194 -0.10404676 0.11808275 0.040457916
000310 ba bc a3 3c 6c 41 0d bf 0a 93 09 3e 80 cd 09 bd
       0.019987453 -0.5517795 0.13434997 -0.033643246
000320 5c 4b 4f 3e bd 33 c3 3d 61 15 10 be 23 3a 17 3e
       0.20243591 0.09531353 -0.14070655 0.14768271
000330 30 f5 05 be b7 b9 4a be 01 47 bc 3e 35 08 1a 3d
       -0.13081813 -0.19797407 0.36772922 0.037605483
000340 56 c7 9a bd 83 11 ea bc 52 bd 2a 3e f2 30 47 be
       -0.075575516 -0.028572803 0.16673782 -0.19452265
000350 65 0d 7d be 2e ca 4d be 76 8f a0 be 38 bb db be
       -0.24712141 -0.20096657 -0.31359452 -0.42916274
000360 b8 bb 84 be c2 ac 02 3e 3e 6d 85 be 02 9f 1a 3e
       -0.25924468 0.12761214 -0.26059908 0.15099719
000370 e7 92 5c 3e 06 ca a7 bd 33 25 06 3e 82 81 9c 3e
       0.21540414 -0.0819283 0.13100128 0.30567557
000380 be 44 c6 bd 79 73 c5 3e f9 b8 3d 3e b5 8d 03 3e
       -0.0968108 0.3856466 0.18527593 0.12847026
000390 a7 26 cc bd ba 72 a1 bd 9b 50 33 bd 33 30 0e 3d
       -0.0996831 -0.078832105 -0.043778043 0.034713935
0003a0 8c 1c 98 be a0 81 05 be 86 1f 22 3e 39 a3 d4 bc
       -0.2970928 -0.1303773 0.15832338 -0.025956737
0003b0 d7 9f 57 be f9 e9 a4 3c 95 37 66 be 89 55 2a be
       -0.21057068 0.020131098 -0.2248214 -0.16634192
0003c0 b0 a4 66 3d fe a6 1f bf 8b 92 20 be 6e 69 c4 be
       0.056309402 -0.62364185 -0.15680902 -0.38361686
0003d0 7e 96 23 be fe 4b 19 be 9b a8 55 3e e4 e1 75 be
       -0.15975377 -0.14970395 0.20865099 -0.24011952
0003e0 ff 48 30 bd 7c 23 e9 3d 0c 57 88 be b6 e2 42 3e
       -0.043038364 0.11383721 -0.26628911 0.19031796
0003f0 45 b3 0e be 0f 0f be 3e 6d aa 21 be a1 1e 99 3d
       -0.13935573 0.37120864 -0.15787669 0.07476545

bias f4 [64]
000000 fd 76 3d 3e 28 68 ea bd 79 fb 4b 3e 41 8e 68 be
       0.18502422 -0.114456475 0.19920148 -0.22710516
000010 75 1b 12 be 58 af be bc 56 a6 34 3e df 79 5a 3c
       -0.14268287 -0.02327697 0.17641577 0.01333472
000020 cd b4 db bd 33 71 91 3d 43 cf 3f be 41 73 1a 3e
       -0.107278444 0.07101669 -0.18731408 0.15083028
000030 18 17 e0 3d ec 93 bd 3d e8 58 5c 3e cb 1e 80 3c
       0.10941905 0.092567295 0.2151829 0.015639683
000040 18 65 2c 3e 11 ec 35 3e bc d8 da 3d bf 5b 13 3e
       0.16835439 0.17765833 0.1068587 0.14390467
000050 10 72 d5 3d f1 e3 fe bd 1a e5 8f 3d bf fa 09 be
       0.10422146 -0.1244582 0.070261195 -0.13474558
000060 4d 8a b0 3b 56 5d 53 3d 72 b8 bb bd 8c e0 52 3c
       0.0053875805 0.051602684 -0.091660395 0.012870919
000070 f5 33 ae bd c9 29 a7 be 41 50 44 3e eb 74 1f 3e
       -0.08506004 -0.32649067 0.1917124 0.15571944
000080 0b 57 41 3e f5 76 66 3e 10 67 aa bd da 9d 52 be
       0.1888086 0.22506316 -0.08320439 -0.20568028
000090 42 69 ee ba ca 6b d3 bd 5a a8 a4 bd ee 20 0f 3e
       -0.0018189328 -0.103232935 -0.08039923 0.13977405
0000a0 53 32 1e 3c 1f 94 04 3c 31 2f 8a bd ea e2 98 be
       0.009655553 0.008091955 -0.06747282 -0.29860622
0000b0 77 01 0d be 01 b3 1e 3d 8c 0f f8 3d 27 3f 3f 3e
       -0.1377009 0.03874493 0.1211234 0.18676434
0000c0 2f fe 9b 3e 52 ec 66 be 9a 0a f6 bd 5b 24 05 3d
       0.30467364 -0.22551087 -0.12013741 0.032505374
0000d0 fb 63 0c 3e 34 60 75 3e 3e 12 31 3e 61 a8 12 bf
       0.13710015 0.2396248 0.17292115 -0.57288176
0000e0 83 2f 3b be 17 cb 87 3d 86 5e a5 be ec e5 97 3e
       -0.18279843 0.06630533 -0.32298678 0.29667604
0000f0 79 3c 83 3e d0 3c 7d 3d 54 e6 c8 bd 8c 11 29 3d
       0.25632074 0.061825573 -0.098095566 0.0412765

weight f4 [64]
000000 ef 6c 2f 3f 71 44 b5 3e d7 b8 2b 3f 0c e0 f2 3e
       0.68525594 0.3540378 0.6707892 0.4743656
000010 13 59 1e 3f be c1 0d 3f 66 68 e7 3e df c6 17 3f
       0.61854666 0.5537375 0.45196837 0.5928783
000020 a8 80 dd 3e 30 29 03 3f 9e 47 f3 3e ea 39 24 3f
       0.4326222 0.5123472 0.47515577 0.6415087
000030 a4 58 fc 3e 55 94 fe 3e cc 6d e2 3e 28 50 5c 3f
       0.49286377 0.49722543 0.44224393 0.8605981
000040 27 cc 0e 3f f1 dc 33 3f 0e 88 84 3f 6d 07 cb 3e
       0.5578026 0.70259005 1.035402 0.39654103
000050 0a 24 2f 3f e2 17 04 3f 65 e8 d8 3e 98 8f 56 3f
       0.68414366 0.5159894 0.42364803 0.83812857
000060 5a a2 f3 3e 69 a9 65 3f bf c1 51 3f d5 fd ee 3e
       0.47584802 0.89711624 0.8193626 0.46678033
000070 9e 86 16 3f 05 8c 0f 3f 31 b5 58 3f ef 2b 5b 3f
       0.5879916 0.5607303 0.84651476 0.8561391
000080 f6 01 f1 3e 3a 72 df 3e 34 13 07 3f ab eb 58 3f
       0.4707181 0.43641835 0.52763677 0.847346
000090 74 5b 17 3f be 12 08 3f 02 b3 07 3f 07 66 16 3f
       0.5912392 0.531536 0.5300752 0.5874943
0000a0 25 10 05 3f a0 e3 cd 3e 2a cd 30 3f 0a 43 7a 3f
       0.5197776 0.40212727 0.69063056 0.97758543
0000b0 62 4c fc 3e db dc a5 3e a2 d7 93 3f 3d f5 0c 3f
       0.49277025 0.32395062 1.1550181 0.55061704
0000c0 0a d4 66 3f 00 73 54 3f e9 59 7c 3f b0 82 0f 3f
       0.90167296 0.82987976 0.9857469 0.5605879
0000d0 b1 40 d8 3e bf a0 31 3f 26 fd a8 3e ab 8f 1c 3f
       0.42236856 0.69385904 0.33005637 0.6115672
0000e0 8c 7e b8 3e 28 60 06 3f 14 cc f6 3e 5e 08 2a 3f
       0.36034048 0.5249047 0.48202574 0.6641902
0000f0 c7 f5 71 3f 05 83 8b 3f bb 0e 2c 3f be 07 13 3f
       0.9451565 1.0899359 0.67209977 0.5743369

bias f4 [64]
000000 9a f7 d7 3b c8 de c3 3d 6d b1 28 3d 16 6c 2e bb
       0.0065907957 0.095639765 0.04118483 -0.0026614717
000010 24 47 27 3e 63 bd 63 bf 24 a1 9d be 6e 96 a4 3d
       0.16335732 -0.88960856 -0.30787003 0.08036505
000020 1e c9 0c 3e c7 a7 57 bd a4 07 a2 be 2f 02 63 be
       0.13748595 -0.05265024 -0.31646454 -0.22168802
000030 3b dc 1a bd a4 75 db 3c f0 14 33 3e 4f 95 39 bb
       -0.037807684 0.026789494 0.17488456 -0.0028317755
000040 9b db cd be d1 a8 ca be ac 0c bc be 62 d6 11 3f
       -0.40206608 -0.39581922 -0.36728418 0.5696775
000050 a1 d2 b4 bd 1f 07 1a 3e 18 c5 58 bd 04 1f 1a be
       -0.08829237 0.15041779 -0.05292234 -0.15050894
000060 91 04 ad be 57 c4 d3 bd 07 2e ce be 99 39 19 bf
       -0.33792546 -0.10340183 -0.4026949 -0.5985351
000070 8a 84 1b bf 40 13 91 3d 2a 8b 37 be f1 f3 47 be
       -0.60749114 0.0708375 -0.1792418 -0.1952665
000080 03 0b 41 3e 3b 9b 96 bd ba 1e f8 bd c1 5c 9d be
       0.18851857 -0.073538266 -0.121152356 -0.30734828
000090 7b de 2c bd 3b fe 17 3e 16 b2 3f be fc a0 56 3d
       -0.04220436 0.14843075 -0.18720278 0.05239962
0000a0 97 95 51 bd 72 dd 19 be ad 62 07 be 39 38 96 be
       -0.05116805 -0.15025881 -0.13221236 -0.2933977
0000b0 47 00 8c bd d5 9a 2f 3e 4f 2a d0 be 5a 05 a3 bd
       -0.068359904 0.17148907 -0.4065728 -0.07960005
0000c0 d3 ab 21 be 94 06 69 be 3d 61 93 be fb e1 de be
       -0.15788202 -0.22756416 -0.28785124 -0.43531784
0000d0 42 64 65 3e 16 e7 68 be a9 e4 37 3f ed db 7d bd
       0.22401527 -0.22744402 0.7183328 -0.061977316
0000e0 a8 88 01 be 97 03 e9 bd 9f a1 f7 bd e7 d4 02 be
       -0.12649786 -0.11377638 -0.12091374 -0.12776528
0000f0 24 4d b7 be f8 79 06 bf 50 24 f9 be 89 d6 93 3d
       -0.3580104 -0.5252986 -0.48660517 0.07218654

running_mean f4 [64]
000000 76 86 25 bf d5 5d da be ae 87 e5 bf 83 ae 8c bf
       -0.64658296 -0.42649713 -1.7932031 -1.0990757
000010 7b 02 4d bf 11 95 da bd ce c6 3e bf 36 15 3b be
       -0.8008191 -0.106729634 -0.745221 -0.1826981
000020 8e 02 07 3e 3f 39 85 bf 26 97 af bf 93 fb a3 bf
       0.13184568 -1.0408095 -1.3718002 -1.2811149
000030 82 a2 99 bf 42 31 59 3f c6 bc a4 be 01 9f ab bf
       -1.2002718 0.84840786 -0.32175273 -1.3407899
000040 8b ff a5 be d7 e4 a5 be 59 59 1b c0 04 e5 bd bf
       -0.32421526 -0.32401153 -2.4273283 -1.4835515
000050 97 8a 7b bf ce 2b 70 bf ad c6 61 be cb 75 f5 bf
       -0.98258346 -0.9381684 -0.22048445 -1.9176573
000060 90 56 15 bd bd 70 96 bf 2e f4 d4 bf 86 72 58 3e
       -0.036459506 -1.1753155 -1.6637018 0.21137437
000070 b3 c5 70 bf b5 ae 2b bf 0c cb 0d be 7b e0 3f bf
       -0.94051665 -0.67063457 -0.13846987 -0.74951905
000080 cc 04 eb be 81 cc 72 3d cd 88 99 bf 37 64 ef bf
       -0.45902097 0.05927706 -1.1994873 -1.8702458
000090 dc 9c 41 be 11 9a 7f bf 0e 48 42 bf 05 a0 b1 bd
       -0.18907493 -0.9984446 -0.75891197 -0.086730994
0000a0 2f e3 90 bf 61 20 46 bf d2 67 ac bf 83 16 77 bf
       -1.1319331 -0.77393156 -1.3469183 -0.96518725
0000b0 02 c4 2d bf 89 78 11 bd b3 60 c4 bf 69 66 e2 be
       -0.6787721 -0.035515342 -1.534201 -0.44218758
0000c0 c8 de a5 bf f3 66 13 c0 f8 19 87 bf ba 0e d4 bf
       -1.2958612 -2.3031585 -1.05548 -1.6566994
0000d0 22 0f dd ba 95 db 28 bf db b7 e9 3e 83 a0 f5 be
       -0.0016865472 -0.65960056 0.45648083 -0.47974023
0000e0 ca 94 b1 be bf af 87 bf 5f fc 8f bd 09 bd 48 bf
       -0.3468383 -1.0600508 -0.07030558 -0.78413445
0000f0 6b 93 08 bf 58 3a c7 bf e7 6f 0d bf 04 d8 e2 bf
       -0.5334994 -1.556468 -0.55248874 -1.7722173

running_var f4 [64]
000000 47 be 70 40 0d 22 fa 3f e8 23 7c 40 e4 39 39 40
       3.7616136 1.9541641 3.9396915 2.8941584
000010 02 69 93 40 82 21 25 40 41 06 ec 3f 0e 32 2f 40
       4.6065683 2.5801702 1.8439409 2.73743
000020 77 45 4c 40 6f 00 18 40 80 f4 e3 3f 1c 6a 2d 40
       3.1917398 2.3750265 1.780899 2.7096014
000030 79 66 36 40 f8 f1 1e 40 2f ae 27 40 1d f8 06 41
       2.8500044 2.4835186 2.6200063 8.435575
000040 cc 72 e0 3f 60 26 52 40 57 ae 9b 40 e2 8d 28 40
       1.7535033 3.2835922 4.8650317 2.6336598
000050 c9 14 89 40 3f 36 4a 40 72 f8 20 40 d0 ad a8 40
       4.2837873 3.159561 2.515164 5.2712173
000060 59 28 96 3f 76 57 9a 40 21 f8 81 40 e0 69 ef 3f
       1.1731063 4.8231764 4.061539 1.8704185
000070 50 4f e5 3f 6f 4d 3c 40 cb a4 91 40 9e f9 88 40
       1.7914829 2.9422262 4.5513663 4.280471
000080 be eb 4a 40 94 92 02 40 b4 a6 29 40 99 a5 84 40
       3.1706386 2.0401964 2.6507998 4.1452146
000090 55 87 2e 40 5a 14 53 40 56 6e 11 40 be d5 3e 40
       2.72701 3.2981172 2.2723594 2.9817958
0000a0 50 5b 1b 40 66 fa c8 3f b6 6a 1d 40 46 c3 9a 40
       2.4274483 1.5701416 2.459638 4.836337
0000b0 4f 15 47 40 84 4d d2 3f ba 37 aa 40 a8 07 4f 40
       3.1106756 1.6429906 5.3193026 3.2348423
0000c0 5b 93 cb 40 c9 8f 67 40 86 89 8d 40 2c 4e e9 3f
       6.3617377 3.618151 4.4230375 1.8226981
0000d0 e7 d0 2e 40 48 14 49 40 2f 03 30 40 88 74 28 40
       2.7315004 3.1418629 2.7501943 2.6321125
0000e0 ce e4 01 40 32 3c 1b 40 31 80 09 40 0c 77 31 40
       2.0295901 2.425549 2.1484492 2.772891
0000f0 45 de 98 40 9f 86 83 40 ad b3 d3 3f 3b 7f 81 40
       4.7771325 4.1101832 1.6539208 4.046781

weight f4 [64, 64, 3, 3]
000000 d1 36 ab 3d ba d2 d6 3d 5d 31 be 3e 30 de 07 3e
       0.08360065 0.10489412 0.37147036 0.13268352
000010 9e 2e 5d 3e 84 a9 aa bd 15 58 68 3e db ef e1 3e
       0.21599814 -0.08333114 0.2268985 0.44128308
000020 b5 67 9a 3d a8 7f bd 3b 9c 85 1f 3d c3 c8 0d 3e
       0.07539312 0.00578304 0.03894578 0.13846116
000030 c2 34 9b 3d b9 e9 08 bf 21 8c 76 bd ba 97 53 3e
       0.07578422 -0.5348163 -0.06019223 0.20663348
000040 1e eb 2b 3d 0b b6 93 3d aa 93 55 be 01 f2 98 3e
       0.041972272 0.07212456 -0.2085711 0.29872134
000050 43 b6 81 3e 8b 7f 34 be a8 d2 95 bd 5d 5b 38 be
       0.25334367 -0.17626779 -0.0731557 -0.18003602
000060 03 27 92 3d 32 5d 51 be 12 d5 0d 3d 6b ba 8c bd
       0.07136347 -0.20445707 0.034627028 -0.06871494
000070 28 d5 79 3e 5e 6d 00 be cb ff 8b 3e a4 3c d0 3b
       0.24397719 -0.1254172 0.27343592 0.006354885
000080 5f 67 53 3e 29 c6 be 3d 54 d7 af be 4b 17 01 bd
       0.20644902 0.0931514 -0.3434397 -0.031516355
000090 45 8c 49 bc bf e4 75 3e 6b c9 05 be 00 46 eb bb
       -0.012301509 0.24013041 -0.13065116 -0.0071799755
0000a0 ae 32 ea 3e a8 3c 98 be 94 c3 11 3e 66 cc bf be
       0.4574179 -0.29733777 0.14234763 -0.3746063
0000b0 2a 21 7f 3e ee e4 86 3d 8c 28 47 3e 4e d7 a3 3c
       0.24914995 0.065866336 0.19449061 0.020000126
0000c0 fd 41 91 3e 42 3f dc 3e 8a e2 95 bd d3 ca 70 be
       0.28370658 0.43017012 -0.073185995 -0.23514871
0000d0 9d d7 14 bd 77 34 b7 bd 97 b6 80 3d e7 4b 3f 3e
       -0.036338437 -0.08945554 0.06284826 0.18681298
0000e0 75 14 20 3d 50 e8 0b 3f 62 22 2b bf f1 09 25 3e
       0.03908201 0.54651356 -0.6684934 0.16117074
0000f0 93 c8 5c 3e 26 96 92 bf 2f a7 53 be b5 e0 bd be
       0.21560888 -1.1452072 -0.20669244 -0.370855
000100 ef cf b5 bd 9e 40 8f 3d 57 4e f2 be c0 9c 0c bf
       -0.08877551 0.069947466 -0.47325394 -0.5492668
000110 ed 1c 89 be 1f 7d 01 bd e9 14 e7 bd 56 25 3e be
       -0.2677988 -0.031613465 -0.11283285 -0.1856893
000120 ff c3 19 3e 38 60 b4 be 44 25 03 be 0c 95 4a 3e
       0.15016173 -0.3522966 -0.12807184 0.1978342
000130 8f 40 84 3d d5 ff c2 3d c0 2d a2 bd be 0c bb be
       0.06457626 0.09521452 -0.07918882 -0.3653316
000140 3b 6d 5e 3d 8a 7f 0c 3f 16 7f cd 3e c2 ff 65 be
       0.05430339 0.5488211 0.4013602 -0.22460845
000150 51 59 c8 bd fa b5 82 be 8e 4b 42 be 84 bf 02 3d
       -0.09782661 -0.25529462 -0.18974134 0.031920925
000160 56 0c c5 be 6d e2 d9 bd 02 2a aa be 0e c9 1c 3d
       -0.38485974 -0.106388904 -0.33235174 0.03827768
000170 95 8d 74 3e 78 6c 92 3d 94 7c d9 bc 7c 6f 1a bb
       0.23882134 0.07149595 -0.026548661 -0.0023564985
000180 31 06 82 bd 49 93 ba 3e 60 5e 49 bc 59 35 34 bd
       -0.06348837 0.36440495 -0.012290567 -0.04399619
000190 0c 9f e4 3d 6c fc e7 be 01 bf 81 be ee e8 28 3e
       0.11163148 -0.4530977 -0.25341037 0.16495106
0001a0 6f 09 0f 3e fd 23 af be d5 12 07 be 2c 67 39 be
       0.13968442 -0.34207144 -0.13190778 -0.18105763
0001b0 45 47 a3 bd 3f 52 4d bd e2 2f 0d bf 78 89 23 3e
       -0.07972578 -0.050127264 -0.5515119 0.15970409
0001c0 c6 9a 23 be c4 ec d1 be 0f 9e 01 bf 9b ea 62 ba
       -0.1597701 -0.4100095 -0.50631803 -0.0008656175
0001d0 08 69 1b bf 47 cc d3 bd 95 03 bc 3e 18 3b e0 3e
       -0.6070714 -0.10341697 0.36721483 0.43795085
0001e0 3f 0f 62 bf 18 c6 30 be 27 27 e6 3c 88 2f a4 be
       -0.88304514 -0.17263067 0.028094841 -0.32067513
0001f0 d7 40 80 be 89 95 be 3e 3a 3b 00 be 1c 53 b1 bc
       -0.2504947 0.3722346 -0.12522593 -0.021646075
000200 48 63 8b bd 4e b7 1b 3f 8a 16 5e 3e d9 8c df 3d
       -0.06806046 0.60826576 0.21688285 0.109155364
000210 ba 2d b4 3c b6 74 c2 3e a4 7f 44 bd 02 21 d8 bc
       0.02199446 0.37979668 -0.04797329 -0.026382927
000220 59 60 c6 3d 44 62 db 3e 9e 4f 8f 3d c1 7b 3b bf
       0.096863456 0.42848408 0.06997608 -0.7323571
000230 86 a4 0d bf 6f 67 01 be b1 cb fd be 11 f0 ab 3d
       -0.5532917 -0.12637113 -0.49569467 0.083953984
000240 1f 55 71 bf 0d 93 46 3e a5 9e 4f bd 5a fd ae bd
       -0.9427051 0.19392033 -0.050688405 -0.08544417
000250 0e dd 82 bf 18 4a 10 be b4 37 61 be 86 ba f7 be
       -1.022371 -0.14090765 -0.21993905 -0.48384494
000260 ab 13 16 bf 37 61 85 3e e9 6f 0b bd ac 31 5e 3e
       -0.5862376 0.26050732 -0.034042273 0.21698636
000270 b3 5b 9b be c2 7a cd be c0 56 af 3e a9 82 a7 be
       -0.30343398 -0.4013272 0.34245872 -0.32716873
000280 9e d9 39 3d d5 ca 3d be f6 d9 82 bd 4b 94 4c 3e
       0.04537355 -0.18534406 -0.06389229 0.19978444
000290 35 23 7e be 10 d4 85 3e 4e 09 23 be 7d 69 00 3d
       -0.24818118 0.26138353 -0.15921518 0.0313506
0002a0 3b dc 2e 3e 86 bb 63 3e c3 a7 ab 39 89 18 91 3d
       0.17076199 0.22239503 0.00032740654 0.07084758
0002b0 c9 1b 19 be 99 8a 68 3e 23 0d a0 bd ca 47 d5 3d
       -0.14952005 0.22709121 -0.07815006 0.10414083
0002c0 1e 05 b8 3d 48 38 88 be 17 5e e0 3e 6e 2c 9c be
       0.08985351 -0.2660544 0.43821785 -0.30502647
0002d0 f1 ac a1 bd 25 0d aa be 53 f8 9a be d0 e3 30 be
       -0.07894314 -0.33213153 -0.3026758 -0.17274404
0002e0 42 99 89 3e 76 e0 a6 be a2 a0 c1 be af 51 bf bd
       0.2687474 -0.32593125 -0.37817866 -0.09341752
0002f0 20 29 a5 be 13 38 48 bd af 85 9f be 0a 09 87 3e
       -0.32257938 -0.0488816 -0.3115668 0.26374084
000300 63 e2 6e bd ed c2 af 3e 91 65 a7 be c4 af 02 be
       -0.058321368 0.34328404 -0.32694677 -0.12762362
000310 c5 34 67 bd f1 1a 40 bd 52 a8 e6 be d2 20 80 3e
       -0.05644681 -0.046900693 -0.45050293 0.2502504
000320 13 d7 28 be 15 e6 98 be c7 e8 36 3e c0 e6 f5 3e
       -0.16488294 -0.2986304 0.17862235 0.4802761
000330 77 36 6c 3e 73 cf cc bd ca b0 9d 3d 39 c8 19 be
       0.23067652 -0.10000505 0.076997355 -0.15017785
000340 3f 92 84 be 55 df 6e 3e 7a 9d 9c be 03 6f c0 3e
       -0.25892827 0.23327382 -0.30588895 0.37584695
000350 01 ef 02 3f 3c a5 bf be ab c2 40 3e 62 60 c9 be
       0.5114594 -0.3743075 0.1882426 -0.39331347
000360 0b 7a b2 bd 59 ad 31 bf 7d bd ea 3d 19 67 25 be
       -0.08714684 -0.6940513 0.11461923 -0.1615261
000370 a0 6f e1 be f9 fb ea be c7 c3 88 bd aa 25 37 3f
       -0.44030476 -0.45895365 -0.066779666 0.71541846
000380 58 86 70 3e 6e e3 ac 3e 1c 36 a3 be 64 15 90 bd
       0.23488748 0.33767265 -0.3187722 -0.0703533
000390 0e b1 8e 3e ac ba ce bd ca 24 34 be 12 1c 64 be
       0.27869457 -0.100941986 -0.17592159 -0.22276333
0003a0 b7 68 e8 3e 7f b2 18 be ad 5d 85 be 49 15 3c be
       0.4539239 -0.14911841 -0.2604803 -0.18367495
0003b0 88 1f c3 be 55 8f 85 be 82 46 0e 3f 7f 0f 01 3d
       -0.38109994 -0.26085916 0.55576336 0.03150892
0003c0 eb 2f 0b be 9e 42 ac 3e 9e 21 d0 bd d8 fd 8e 3e
       -0.13592498 0.33644575 -0.10162662 0.27928042
0003d0 72 49 b4 3e 38 83 86 be 47 66 a5 bd a0 d2 32 3e
       0.35212284 -0.26271987 -0.080761485 0.1746316
0003e0 32 1f 15 be 1f 96 8a 3e 10 07 49 be 93 b1 50 3d
       -0.14562681 0.27067658 -0.196316 0.050950598
0003f0 a0 f8 32 3e 90 b2 99 3e fb 60 21 3e 8c 78 05 be
       0.17477655 0.30019045 0.15759651 -0.13034266

bias f4 [64]
000000 ed 97 3e 3d 67 de 54 be 4b 01 1b 3e 2c 3f 82 bc
       0.046531606 -0.20787965 0.15137212 -0.015899263
000010 2c 2e 2d 3c cc 5f 16 39 c5 fb ce bd 4b ff 40 3e
       0.01057009 0.00014340802 -0.10106615 0.18847387
000020 7c de b2 bd 35 f9 b9 3d 11 7d 7a 3e 5e a4 da bd
       -0.08733842 0.090807356 0.24461772 -0.10675882
000030 8f 2e d2 3d a9 37 3f 3d 65 ed 73 3e 5b c8 8e bd
       0.102627866 0.04668394 0.23821028 -0.069718085
000040 69 23 d1 3d 1f 76 82 3d b0 73 93 bd b4 ef 3a 3d
       0.10211832 0.06370186 -0.071998 0.045638755
000050 54 bc 15 be 7e 59 77 3e 10 b3 05 3e 8c f5 90 bc
       -0.14622623 0.24155232 0.13056588 -0.01769521
000060 2c 1f de bd 08 50 6e 3e fb 55 0f be d1 ca 7c bc
       -0.10845789 0.23272717 -0.13997643 -0.015429215
000070 56 7f 81 be ef 63 2d be 4c fc c8 be 63 13 93 3b
       -0.25292462 -0.16932653 -0.39254987 0.004488395
000080 17 43 38 bd 3b ca 37 3d 86 6e 0d be 6c 7e 88 bc
       -0.044985857 0.044870596 -0.13811693 -0.016661845
000090 94 14 f2 3d 81 85 6a 3d 02 f1 e9 3d 85 f8 b3 bd
       0.11820331 0.057256225 0.11422922 -0.08787636
0000a0 83 b2 3e 3e 54 a3 a9 bc d4 b9 13 bd 8e f4 83 be
       0.18622784 -0.020707764 -0.03606589 -0.25772518
0000b0 ec 4b 90 3c 76 91 90 3d cf ed 12 bd 8f 3e d6 bd
       0.017614327 0.070589945 -0.035871323 -0.10461151
0000c0 a3 b6 63 be ed bd 69 3e c3 4f 1f 3d 5f 2a 31 be
       -0.22237639 0.22826357 0.038894426 -0.1730132
0000d0 99 38 ba bc a0 56 85 be 12 2c 0d 3d 94 b1 1f be
       -0.022732066 -0.26042652 0.034465857 -0.15595084
0000e0 de 5a a7 3d 1b 92 d5 3d d1 b3 99 bb 0e 70 a4 bc
       0.081716284 0.10428258 -0.0046906252 -0.020072963
0000f0 db 90 a8 3e 11 5b 35 bd 35 79 70 be fd 08 e3 bb
       0.32923016 -0.0442763 -0.23483737 -0.0069285617

weight f4 [64]
000000 75 c2 47 3f 4e 18 02 3f 7d 60 38 3f d8 34 09 3f
       0.7803109 0.50818336 0.7202223 0.5359626
000010 28 28 d9 3e 66 94 08 3f ae 5e 03 3f 70 ff b3 3e
       0.4241345 0.5335144 0.51316345 0.3515582
000020 39 e1 ee 3e f3 2e a9 3e fc fe ae 3e 92 ec bd 3e
       0.46656206 0.33043632 0.34178913 0.3709455
000030 cb 2b 80 3f cf 1e 4a 3f c4 73 15 3f 97 07 c2 3e
       1.0013365 0.7895326 0.5837977 0.37896416
000040 84 19 31 3f f3 b5 da 3e b4 ac 20 3f c0 66 15 3f
       0.6917956 0.4271694 0.62763524 0.5835991
000050 cd 82 2b 3f 78 6d 00 3f d2 c1 f5 3e 99 05 2b 3f
       0.6699646 0.50167036 0.47999436 0.66805416
000060 36 b7 14 3f 3a 55 c3 3e 76 bc 06 3f f0 79 e5 3e
       0.5809206 0.3815096 0.5263132 0.44819593
000070 b7 99 b4 3e 09 f0 0d 3f 84 ce d0 3e dc f4 db 3e
       0.35273525 0.5544439 0.4078256 0.4296025
000080 fb c4 d9 3e ef c0 1a 3f 81 d9 18 3f c6 63 2d 3f
       0.42533097 0.60450643 0.59706885 0.6773037
000090 ee 86 1d 3f 61 de 8d 3f 51 5b 08 3f c5 c7 aa 3e
       0.6153401 1.108349 0.5326434 0.33355537
0000a0 fb 88 b0 3e 51 18 2d 3f a5 48 b2 3e 60 63 ab 3e
       0.34479508 0.6761523 0.34821048 0.33474255
0000b0 25 e0 06 3f 52 5f f7 3e 9d dd dc 3e 18 f9 27 3f
       0.5268577 0.4831491 0.43137828 0.6561446
0000c0 00 18 19 3f 48 c7 19 3f ed c1 a9 3e ac de cf 3e
       0.59802246 0.60069704 0.33155766 0.40599573
0000d0 52 fe fd 3e 1e 7a 2b 3f f1 6c 07 3f c7 c4 0c 3f
       0.49608094 0.6698321 0.52900606 0.5498776
0000e0 68 9b 0d 3f 02 96 04 3f 75 e9 21 3f 6c d6 fc 3e
       0.55315256 0.51791394 0.6324685 0.4938234
0000f0 eb bd fe 3e 58 b1 4c 3f 45 ae 49 3f de b0 0e 3f
       0.4975427 0.79958105 0.7878154 0.5573863
