models/vishal_lr_001_iter_300.pt_238_128.pt (torch_old, 776281 bytes, 39 tensors)

weight f4 [64, 1, 3, 3]
-0.20575467 -0.1842648 0.3057399 -0.11208394 -0.12369496 0.32494724 -0.2679073 -0.034634773
0.29656455 0.09739632 0.112259224 0.018180251 -0.24443969 0.2956566 -0.015301115 -0.4878203
0.07593942 0.13690343 0.00011923164 -0.05165367 -0.025371179 -0.022006653 -0.057557628 -0.06599438
-0.08695571 0.09911482 0.03652267 -0.55080956 -0.25343594 -0.3707393 -0.5551665 0.113573976
-0.13901165 -0.044426266 0.7007431 0.37407362 -0.054806575 -0.11193515 0.04118187 -0.08702316
0.021784054 0.05416524 -0.039321054 0.0074304743 0.061972197 -0.060419988 -0.05521857 -0.05034084
0.2981629 0.16730109 0.11642564 0.06622299 0.021032473 -0.042779177 -0.044722524 0.10214643
0.19193813 0.07477636 -0.48050678 -1.2455914 0.36701334 -0.09663447 -0.5000579 0.11853563
-0.23241411 0.1678771 0.21516111 -0.28653514 -0.03280433 0.15896218 -0.037573736 -0.088146985
-0.09212455 -0.068225026 -0.06139477 -0.075760886 -0.039587524 -0.032066643 0.083578944 -0.071450755
0.07422769 -0.22384988 0.17338192 0.0061083958 0.03069148 0.41103482 -0.39799166 -0.049809277
-0.011476089 0.055783182 -0.043839153 0.03414142 0.00018977374 -0.09324878 0.06872171 0.030959383
-0.07052688 -0.014524177 0.07356985 0.007334598 0.49356243 -0.10769914 -0.093441725 -0.20641026
-0.20162846 0.07789941 -0.2695379 0.25559965 -0.002142027 0.0074252635 -0.0034067482 -0.0601396
-0.009180054 0.01455456 0.061365128 0.0906623 -0.050676037 0.10477873 0.017395983 -0.054842964
-0.32796434 -0.51537925 -0.05758617 0.2571799 0.16499066 0.4370801 -0.3896261 0.33910063
0.19236554 -0.04191778 -0.35892898 0.23146056 0.46160573 -0.2405589 -0.20814173 -0.31530833
0.2908648 -0.07953228 -0.2485727 0.45589942 0.08935515 -0.30719814 0.18748385 -0.07960992
-0.5396347 -1.5581119 0.13703018 -1.1105636 -2.410422 -0.45217723 0.14864759 -0.3556776
0.2177373 -0.16626039 -0.20204382 -0.16335201 0.048877742 0.12378417 0.42649305 -0.23244649
0.06846044 0.09845824 0.0007321708 0.18638374 -0.31088468 0.14515388 0.44641435 -0.47212845
0.053197984 0.30742514 -0.36581796 -0.90250343 -0.28178683 0.30647632 0.15341689 0.55957025
0.23163511 0.18902446 -0.28140235 -0.6911818 -0.22527581 -0.22516893 0.1027907 0.16609302
0.7007159 -0.36662203 -0.11655813 0.076715924 -0.11218402 -0.27365756 0.06229907 0.07387379
0.22945851 0.37527543 0.19856036 0.047511265 -0.41805738 -0.29296616 -0.1015952 -0.15878823
0.18768257 -0.26533818 -0.35575333 -0.18529855 0.28738695 0.31068403 0.2949788 -0.12823229
-0.046527173 0.06606084 -0.05591133 -0.08794427 -0.041005053 0.061755393 0.055097695 -0.025869124
-0.0866505 -0.922946 0.17774785 -0.58507586 -1.9024814 -0.100157976 0.15440962 -0.20524855
0.25434205 0.007362291 -0.0981914 -0.08366195 0.09644605 -0.060445827 0.04886949 -0.0021747723
-0.0039110184 -0.075164 0.35772264 0.1601126 0.18140794 -0.20464377 -1.212364 -0.080437355
0.13086231 -0.4927655 0.24624686 -0.029639216 0.112629354 -0.044861857 -0.3792533 -0.024158824
0.27824217 0.21524812 0.15471733 -0.31322193 0.4065728 -0.21117488 -0.16854182 0.1634275
00000000: 5ab1 52be e9af 3cbe f189 9c3e 448c e5bd
00000010: c853 fdbd 7c5f a63e 252b 89be 31dd 0dbd
00000020: 4fd7 973e b977 c73d 2ae8 e53d c0ee 943c
00000030: 664e 7abe 4d60 973e 87b1 7abc 95c3 f9be
00000040: 2086 9b3d 6a30 0c3e 000c fa38 cc92 53bd
00000050: 38d7 cfbc 4c47 b4bc 8cc1 6bbd 1028 87bd
00000060: d615 b2bd b6fc ca3d cc98 153d db01 0dbf
00000070: 5bc2 81be 8bd1 bdbe 641f 0ebf 7999 e83d
00000080: 1259 0ebe 51f8 35bd e663 333f 9486 bf3e
00000090: dc7c 60bd 423e e5bd 52ae 283d 3339 b2bd
000000a0: 7974 b23c 5fdc 5d3d 1d0f 21bd 567b f33b
000000b0: 8fd6 7d3d f37a 77bd de2c 62bd 3232 4ebd
000000c0: cfa8 983e fa50 2b3e 9170 ee3d eb9f 873d
000000d0: 4b4c ac3c 3839 2fbd f72e 37bd 2632 d13d
000000e0: 6e8b 443e 5924 993d fc04 f6be 8a6f 9fbf
000000f0: 2ce9 bb3e 4be8 c5bd cb03 00bf cfc2 f23d
00000100: f7fd 6dbe f9e7 2b3e 3253 5c3e bcb4 92be
00000110: d55d 06bd fbc6 223e ebe6 19bd 6886 b4bd
00000120: ccab bcbd 90b9 8bbd 1579 7bbd 8628 9bbd
00000130: 8726 22bd 5058 03bd 702b ab3d c654 92bd
00000140: b004 983d e738 65be 088b 313e f028 c83b
00000150: b36c fb3c 2873 d23e 90c5 cbbe d004 4cbd
00000160: 3506 3cbc e87c 643d af90 33bd e0d7 0b3d
00000170: 00fe 4639 37f9 bebd f8bd 8c3d 889e fd3c
00000180: 6670 90bd d0f6 6dbc caab 963d 1157 f03b
00000190: 37b4 fc3e 5e91 dcbd 605e bfbd 365d 53be
000001a0: b177 4ebe ba89 9f3d df00 8abe f5dd 823e
000001b0: 4061 0cbb a04f f33b c043 5fbb f154 76bd
000001c0: f067 16bc 4076 6e3c 005a 7b3d 28ad b93d
000001d0: ad91 4fbd 3b96 d63d 0582 8e3c 04a3 60bd
000001e0: f1ea a7be e5ef 03bf 7adf 6bbd 15ad 833e
000001f0: 50f3 283e f6c8 df3e 127d c7be 999e ad3e
00000200: 79fb 443e fab1 2bbd 8ac5 b7be ff03 6d3e
00000210: 9657 ec3e 1355 76be 1b23 55be 1870 a1be
00000220: 3bec 943e d2e1 a2bd d889 7ebe a66b e93e
00000230: d5ff b63d 1349 9dbe c4fb 3f3e 870a a3bd
00000240: 8025 0abf 3670 c7bf a451 0c3e f326 8ebf
00000250: 5b44 1ac0 c683 e7be 1337 183e 601b b6be
00000260: 87f6 5e3e 2a40 2abe 93e4 4ebe c045 27be
00000270: 0734 483d 8e82 fd3d 4c5d da3e 7406 6ebe
00000280: fd34 8c3d 79a4 c93d 27ef 3f3a 61db 3e3e
00000290: 472c 9fbe 38a3 143e 6c90 e43e d2ba f1be
000002a0: 21e6 593d d466 9d3e 7e4c bbbe 770a 67bf
000002b0: 5d46 90be 77ea 9c3e 5119 1d3e ff3f 0f3f
000002c0: c131 6d3e a18f 413e f813 90be 4af1 30bf
000002d0: b4ae 66be af92 66be ee83 d23d 4a14 2a3e
000002e0: 1e62 333f e2b5 bbbe 07b6 eebd 3d1d 9d3d
000002f0: bcc0 e5bd d81c 8cbe 4f2d 7f3d 244b 973d
00000300: 2cf7 6a3e 1a24 c03e 6853 4b3e 2c9b 423d
00000310: 9e0b d6be a9ff 95be 2511 d0bd 6299 22be
00000320: dc2f 403e 68da 87be 4d25 b6be e7be 3dbe
00000330: 6224 933e fa11 9f3e 7607 973e 534f 03be
00000340: 4793 3ebd e84a 873d 4703 65bd 201c b4bd
00000350: eaf4 27bd 39f3 7c3d 1fae 613d 7ceb d3bc
00000360: d175 b1bd 3046 6cbf 8803 363e 88c7 15bf
00000370: 8384 f3bf a01f cdbd 8e1d 1e3e ad2c 52be
00000380: 1f39 823e 603f f13b 9318 c9bd f556 abbd
00000390: 8285 c53d 0b96 77bd 602b 483d a086 0ebb
000003a0: 0028 80bb 95ef 99bd 6c27 b73e 8ff4 233e
000003b0: 01c3 393e 238e 51be be2e 9bbf 57bc a4bd
000003c0: c500 063e c24b fcbe 2328 7c3e f1cd f2bc
000003d0: 38aa e63d 11c1 37bd 7d2d c2be bae8 c5bc
000003e0: c275 8e3e 016a 5c3e 386e 1e3e a05e a0be
000003f0: 4f2a d03e 3a3e 58be 3a96 2cbe 8a59 273e

bias f4 [64]
0.010006187 0.030878183 -0.0965341 0.01232054 -0.30797106 -0.26462847 0.21160209 0.09449408
-0.192253 0.04943641 -0.3296674 0.08805941 -0.21703395 0.03709789 0.06399892 -0.016116489
0.2983669 0.029386053 -0.0286173 0.06930501 0.049982157 0.025958177 0.0134722 -0.10194345
0.29867995 -0.091956705 0.15967758 0.09637193 0.012390046 0.040212132 0.025870932 0.11535999
0.07163317 -0.27808854 0.03470285 0.061948698 0.018480804 0.07690057 0.08723646 -0.052494913
0.21942422 0.06098867 0.0613067 0.048440434 -0.18661413 0.14413497 -0.2616417 0.02702776
-0.6502411 -0.1536086 0.09132668 0.017162492 -0.296229 -0.29615843 -0.08662689 -0.09588836
-0.3094654 0.046940528 -0.0882581 -0.70350635 0.04488604 0.22368799 -0.048226245 -0.15811834
00000000: fdf0 233c 3ef4 fc3c acb3 c5bd 17dc 493c
00000010: 62ae 9dbe 627d 87be 38ae 583e 1d86 c13d
00000020: f8dd 44be d57d 4a3d 2aca a8be 7e58 b43d
00000030: 263e 5ebe f5f3 173d de11 833d ba06 84bc
00000040: 8cc3 983e 05bb f03c d46e eabc c9ef 8d3d
00000050: 17ba 4c3d 3ea6 d43c 81ba 5c3c bac7 d0bd
00000060: 94ec 983e cc53 bcbd 8582 233e a55e c53d
00000070: 9fff 4a3c 7ab5 243d 47ef d33c dc41 ec3d
00000080: 69b4 923d 9f61 8ebe 9324 0e3d ebbd 7d3d
00000090: 0e65 973c 0c7e 9d3d 07a9 b23d e804 57bd
000000a0: beb0 603e 41cf 793d bc1c 7b3d 7a69 463d
000000b0: c617 3fbe 1e98 133e e7f5 85be 5269 dd3c
000000c0: 3376 26bf 934b 1dbe 7b09 bb3d 5b98 8c3c
000000d0: 54ab 97be 14a2 97be 7069 b1bd 1e61 c4bd
000000e0: 4072 9ebe b644 403d aac0 b4bd fe18 34bf
000000f0: 6dda 373d 770e 653e e288 45bd c6e9 21be

weight f4 [64, 64, 3, 3]
0.0069710817 0.3076775 -0.380123 0.3443828 0.124742515 -0.477379 0.1971457 0.18471994
0.024938311 0.0665432 -0.013094897 0.016037343 -0.33109346 -0.43278393 -0.033280324 0.11511953
-0.1042324 0.14863801 -0.034374386 0.02582182 0.054533005 0.042488776 0.045233317 -0.06772606
0.056195363 0.06150925 -0.013306569 0.02239911 0.3575582 0.06893305 0.027285557 -0.11525513
-0.45221734 -0.35571975 0.3082737 0.25264138 -0.021233346 -0.011849567 -0.056065902 0.08786239
-0.0015246699 -0.025330696 0.04889071 -0.089165986 0.07169059 -0.0013567178 -0.3994423 -0.35715455
0.36338666 0.21793342 -0.3247282 0.46244177 0.3616947 -0.19781135 -0.07727134 -0.7038631
-0.076672815 0.8364423 -0.5238618 -0.040185504 -0.2601015 -0.8707085 0.013281909 0.17379773
0.5491657 0.07925653 -0.54309434 0.25573498 -0.43270728 -0.11372768 0.066258356 -0.044397704
0.0364352 -0.046121586 0.0026985556 0.04989493 0.061604604 0.053515837 -0.05305852 -0.037186347
0.062122807 0.077584915 -0.07701799 0.44693202 -0.16246916 -0.39089367 -0.10803536 0.10613624
0.04820295 -0.016158072 0.06300557 0.070484474 0.06775883 -0.04893432 0.04748489 0.02012521
0.04042144 -0.05982656 0.039316334 -0.05338156 0.70474917 0.30411127 -0.25973827 -0.18164073
0.18570752 -0.4696521 -0.4215495 0.066087805 0.0020680055 0.05624664 0.03800013 -0.034617316
-0.025469664 0.0040575117 0.004133597 0.052998066 -0.05877162 -0.07945581 -0.381619 0.19712134
-0.022413472 0.058732916 0.04938028 0.29698655 0.07743551 -0.20543131 0.053430624 0.0785052
0.04838464 0.013742753 -0.06668645 -0.080896735 -0.1802683 0.001291383 0.014812531 0.047237635
-0.05240122 -0.0014760589 0.014870589 -0.0042602764 0.08703815 -0.035204865 -0.09510936 0.42396632
-0.503272 -0.24548957 -0.39514026 0.33137175 0.64755666 0.15068878 0.46524578 0.34096828
-0.30153614 -0.0037769417 0.13010387 -0.07303505 -0.020520402 -0.19583888 -0.22177437 -0.09022301
-0.12362505 -0.14398777 -0.113104746 -0.0019224503 0.017218169 0.56014055 0.26183417 -0.15379192
0.5520403 0.35402378 -0.24384782 -0.09306431 0.1439578 -0.12231245 0.34290195 -0.31566352
-0.23568368 0.8674487 -0.29251817 -0.06413756 0.0073355306 -0.05545821 0.44909695 -0.11130968
-0.18468188 -0.36772138 0.20059039 0.16871226 -0.019788953 0.09143506 0.29160357 0.013237194
-0.2910819 -0.37687844 0.09680198 -0.07831398 0.046581477 -0.048598643 -0.32435632 0.07815235
0.25682476 -0.2160439 0.0713227 -0.20351268 0.08044482 0.3125582 -0.18248993 -0.021435361
-0.034667477 -0.042320028 0.02047906 0.07047991 -0.019221159 0.03304866 -0.05974836 -0.029067663
-0.14797989 -0.30801725 0.14099571 -0.24195896 0.28606895 -0.29661065 0.18176137 0.043525577
0.29238728 -0.060400695 -0.031201214 -0.029383074 0.03590942 0.057702005 0.03867113 -0.017393876
0.029189013 -0.039672103 0.03447398 0.1530019 -0.12073331 0.13376099 0.46542323 -0.053825308
-0.55069643 -0.43260217 -0.20096111 0.31967747 -0.050363835 0.5099101 -0.4553016 -0.32373092
0.09525065 -0.06573862 -0.28619617 0.18433473 0.38257906 -0.07272412 -0.07053317 -0.26488703
00000000: ac6d e43b e887 9d3e 7b9f c2be f152 b03e
00000010: 0179 ff3d 056b f4be 90e0 493e 3927 3d3e
00000020: 6e4b cc3c cd47 883d fb8b 56bc bf60 833c
00000030: 1585 a9be db95 ddbe f350 08bd cac3 eb3d
00000040: cc77 d5bd 9034 183e 28cc 0cbd 4888 d33c
00000050: 005e 5f3d b608 2e3d 9246 393d f6b3 8abd
00000060: 1c2d 663d 20f1 7b3d cc03 5abc 577e b73c
00000070: de11 b73e c52c 8d3d f685 df3c e20a ecbd
00000080: 0889 e7be e620 b6be 0dd6 9d3e 365a 813e
00000090: 8ef1 adbc b024 42bc 5ca5 65bd 32f1 b33d
000000a0: 6fd7 c7ba 5282 cfbc a041 483d a89c b6bd
000000b0: 84d2 923d e5d3 b1ba b383 ccbe f6dc b6be
000000c0: d10d ba3e f029 5f3e c642 a6be 2bc5 ec3e
000000d0: 0c30 b93e 0f8f 4abe 7040 9ebd 5f30 34bf
000000e0: a306 9dbd 1521 563f cf1b 06bf 8e99 24bd
000000f0: 062c 85be c1e6 5ebf 5d9c 593c 08f8 313e
00000100: 2096 0c3f 3f51 a23d 3b08 0bbf b2ef 823e
00000110: cf8b ddbe 0fea e8bd 76b2 873d 5eda 35bd
00000120: 143d 153d fde9 3cbd 40da 303b a05e 4c3d
00000130: 1c55 7c3d 6c33 5b3d e453 59bd b650 18bd
00000140: 7c74 7e3d d7e4 9e3d 9cbb 9dbd 46d4 e43e
00000150: 515e 26be 3723 c8be a541 ddbd f55d d93d
00000160: 7570 453d ef5d 84bc 1009 813d 2a5a 903d
00000170: 24c5 8a3d 5b6f 48bd 847f 423d a0dd a43c
00000180: f490 253d b20c 75bd 2a0a 213d 9fa6 5abd
00000190: 716a 343f 79b4 9b3e 6afc 84be 0700 3abe
000001a0: 1d2a 3e3e 3d76 f0be 56d5 d7be 0b59 873d
000001b0: 6087 073b e062 663d 06a6 1b3d e3ca 0dbd
000001c0: c2a5 d0bc e0f4 843b 2073 873b 8014 593d
000001d0: 83ba 70bd bab9 a2bd 9163 c3be 2dda 493e
000001e0: 759c b7bc ed91 703d fa42 4a3d 9f0e 983e
000001f0: 8296 9e3d 965c 52be 12da 5a3d 56c7 a03d
00000200: f92e 463d 4929 613c e892 88bd 30ad a5bd
00000210: 4198 38be a043 a93a 42b0 723c 407c 413d
00000220: a9a2 56bd 5178 c1ba c5a3 733c ca99 8bbb
00000230: 0f41 b23d fa32 10bd b2c8 c2bd 1d12 d93e
00000240: 6fd6 00bf 9e61 7bbe d34f cabe 8fa9 a93e
00000250: 46c6 253f 294e 1a3e b234 ee3e 6593 ae3e
00000260: f262 9abe 9186 77bb f339 053e 6693 95bd
00000270: 671a a8bc fd89 48be d218 63be d7c6 b8bd
00000280: 212f fdbd 8871 13be 76a3 e7bd bafa fbba
00000290: 1e0d 8d3c 5f65 0f3f 210f 863e a17b 1dbe
000002a0: 8352 0d3f 9b42 b53e 3eb3 79be 8098 bebd
000002b0: ac69 133e f37e fabd d890 af3e a69e a1be
000002c0: 1057 71be 1e11 5e3f f1c4 95be 8e5a 83bd
000002d0: e45e f03b 2628 63bd 09f0 e53e 54f6 e3bd
000002e0: 3f1d 3dbe fa45 bcbe 9167 4d3e e8c2 2c3e
000002f0: 711c a2bc 4e42 bb3d 104d 953e d1e0 583c
00000300: b008 95be 36f6 c0be 1e40 c63d 1463 a0bd
00000310: 38cc 3e3d 5f0f 47bd 0812 a6be 570e a03d
00000320: 897e 833e 9d3a 5dbe a311 923d a165 50be
00000330: 41c0 a43d a107 a03e a4de 3abe 3699 afbc
00000340: 7cff 0dbd c457 2dbd b4c3 a73c c557 903d
00000350: b175 9dbc 085e 073d b2ba 74bd 4f1f eebc
00000360: 0a88 17be 70b4 9dbe 2e61 103e 17c4 77be
00000370: a177 923e 5add 97be a71f 3a3e e047 323d
00000380: c9b3 953e b866 77bd b099 ffbc c6b4 f0bc
00000390: c215 133d f058 6c3d 9e65 1e3d 9a7d 8ebc
000003a0: cc1d ef3c 377f 22bd 9734 0d3d 88ac 1c3e
000003b0: 0743 f7bd a4f8 083e f44b ee3e ed77 5cbd
000003c0: 71fa 0cbf 087e ddbe c0c8 4dbe c4ac a33e
000003d0: 4f4a 4ebd 7889 023f 4b1d e9be 0fc0 a5be
000003e0: c612 c33d f8a1 86bd 4e88 92be 3ec2 3c3e
000003f0: 67e1 c33e 62f0 94bd b273 90bd 469f 87be

bias f4 [64]
-0.1841051 0.40220678 -0.14539649 0.14327753 0.029506862 0.5279381 0.42463434 -0.0683335
0.22889253 0.22772768 0.32547173 -0.33645728 -0.09467545 -0.01989153 -0.09039202 -0.71120715
0.18935326 0.17916147 0.12551746 0.30623287 0.43977916 -0.37294552 0.4046374 0.20883375
0.17359501 0.18407871 -0.0053512794 -0.3625897 -0.110020325 0.26101887 0.5817008 0.050492767
-0.041860532 -0.15011051 0.2155604 -0.10634137 0.02455416 0.43700987 0.58515203 0.043195978
0.4414689 0.17042856 0.11321641 0.43482018 -0.3980008 -0.07761148 -0.34378573 -0.00459942
-0.47964475 0.016880836 -0.34435365 0.0068993457 0.17294607 -0.06375661 -0.035396084 -0.3652238
0.292875 -0.622988 0.2529676 0.43829396 0.19334836 0.121021375 -0.18215267 -0.2011069
00000000: 0c86 3cbe 0cee cd3e d1e2 14be 58b7 123e
00000010: 60b8 f13c f426 073f ac69 d93e 6ff2 8bbd
00000020: ce62 6a3e 7231 693e 3ba4 a63e 2144 acbe
00000030: 34e5 c1bd 90f3 a2bc 741f b9bd ac11 36bf
00000040: d2e5 413e 1b76 373e a687 003e 8eca 9c3e
00000050: bc2a e13e b7f2 bebe a22c cf3e 84d8 553e
00000060: e4c2 313e 217f 3c3e c959 afbb 5ba5 b9be
00000070: 5652 e1bd 44a4 853e 58ea 143f 81d1 4e3d
00000080: f375 2bbd 92b6 19be debb 5c3e 81c9 d9bd
00000090: ce25 c93c c2bf df3e 86cc 153f 44ee 303d
000000a0: 3608 e23e d384 2e3e 01de e73d c0a0 de3e
000000b0: c3c6 cbbe c5f2 9ebd af04 b0be bbb6 96bb
000000c0: ff93 f5be ae49 8a3c 1f4f b0be e813 e23b
000000d0: c618 313e d392 82bd 7cfb 10bd 9dfe babe
000000e0: b6f3 953e 247c 1fbf f884 813e 1168 e03e
000000f0: 1dfd 453e 0eda f73d 3b86 3abe f8ee 4dbe

weight f4 [64]
0.5350312 0.57600504 0.52306134 0.642259 0.5857618 0.8138 0.5568204 0.4313637
0.67910373 0.35482866 0.66867423 0.42697537 0.6723862 0.81191456 0.39940348 0.42387572
0.45331103 0.91057104 0.51122355 0.62473524 0.54413307 0.86951923 0.5888147 0.69461834
0.47126764 0.5271856 0.5696602 0.44963813 0.79956055 0.46216953 0.495111 0.55641943
0.89102685 0.5269138 0.6341856 0.57731 0.59860677 0.7465659 0.595298 0.51102483
0.37138113 0.58861643 0.46832395 0.5424198 0.7808527 0.67143005 0.62425065 0.592465
0.6857541 0.6674359 0.45216367 0.45054322 0.49530715 0.48775607 0.6197625 0.66700983
0.49776006 0.36759794 0.533676 0.58757865 0.5516117 0.5887013 0.58304334 0.5332641
00000000: cef7 083f 1175 133f 59e7 053f 166b 243f
00000010: 7cf4 153f 3255 503f c88b 0e3f b4db dc3e
00000020: bed9 2d3f 1aac b53e 3c2e 2b3f 849c da3e
00000030: 8121 2c3f a2d9 4f3f 9d7e cc3e 3d06 d93e
00000040: 6218 e83e 2f1b 693f 8cdf 023f a6ee 1f3f
00000050: 4e4c 0b3f d098 5e3f 8fbc 163f 82d2 313f
00000060: fe49 f13e a3f5 063f 40d5 113f f836 e63e
00000070: 00b0 4c3f 7ca1 ec3e 307f fd3e 8171 0e3f
00000080: 561a 643f d3e3 063f fd59 223f 97ca 133f
00000090: 4b3e 193f f11e 3f3f 7365 183f 86d2 023f
000000a0: ab25 be3e 91af 163f 28c8 ef3e 06dc 0a3f
000000b0: f6e5 473f d7e2 2b3f e4ce 1f3f c9ab 173f
000000c0: 958d 2f3f 14dd 2a3f ff81 e73e 9aad e63e
000000d0: e698 fd3e 2abb f93e c1a8 1e3f 28c1 2a3f
000000e0: 68da fe3e cc35 bc3e fe9e 083f 8e6b 163f
000000f0: 6d36 0d3f 21b5 163f 5442 153f ff83 083f

bias f4 [64]
-0.08817209 -0.56180114 -0.10119901 -0.14395353 -0.4295808 -0.75408417 -0.26978755 -0.015643023
-0.1738913 -0.05632586 -0.3569159 -0.561556 0.020680726 -0.38773027 -0.25253516 -0.30853444
0.146305 -0.111753836 0.03942501 -0.21021357 0.09346218 -0.40926105 0.1953774 -0.27211192
0.2627363 -0.12571214 -0.24507402 -0.2364848 -0.07032661 0.17595166 -0.21311586 -0.23320518
-1.428197 0.0041933227 0.14081407 -0.36619532 -0.1700292 -0.30003735 0.16914526 -0.5641465
0.2377829 -0.24637568 -0.030977681 -0.24745072 -0.21498694 -0.5148644 -0.23447332 -0.50648564
-0.25928712 -0.44358906 0.75325274 -0.07875913 -0.3789683 -0.24954587 -0.22473577 -0.26158527
-0.13989735 -0.042141236 -0.33442774 -0.096165046 0.04615114 -0.35846096 -0.4792919 -0.41208196
00000000: 9293 b4bd 33d2 0fbf 6d41 cfbd 8e68 13be
00000010: 04f2 dbbe a90b 41bf 9821 8abe cc25 80bc
00000020: 9010 32be f2b5 66bd aebd b6be 22c2 0fbf
00000030: a06a a93c 9584 c6be 4a4c 81be 3af8 9dbe
00000040: fad0 153e 32df e4bd 1f7c 213d 3a42 57be
00000050: 1969 bf3d aa8a d1be 0311 483e 4152 8bbe
00000060: 5f85 863e afba 00be aff4 7abe 1229 72be
00000070: 6607 90bd ac2c 343e 0b3b 5abe 57cd 6ebe
00000080: 29cf b6bf 2468 893b 9031 103e f47d bbbe
00000090: 221c 2ebe 7f9e 99be 6a34 2d3e e86b 10bf
000000a0: 5c7d 733e e849 7cbe e8c4 fdbc b963 7dbe
000000b0: 8925 5cbe 27ce 03bf c619 70be 0ba9 01bf
000000c0: 48c1 84be 1b1e e3be 2cd5 403f 774c a1bd
000000d0: 2208 c2be f488 7fbe 2221 66be 81ee 85be
000000e0: 4041 0fbe 4a9c 2cbd 1d3a abbe 2ef2 c4bd
000000f0: fa08 3d3d 3288 b7be bf65 f5be 68fc d2be

running_mean f4 [64]
-0.22895049 0.2396766 -0.26051918 -0.15955372 -0.2950606 0.3785534 0.46099594 -0.09502434
-0.030705692 0.1654649 0.15113351 -0.42310777 -0.31303445 -0.1723743 -0.4057909 -0.84188575
-0.14152445 0.024849627 -0.012488107 0.31369057 0.2994493 -0.64697284 0.2195111 0.2640352
0.030198032 0.07919878 -0.18406466 -0.39999133 -0.26664096 -0.124459185 0.47931665 -0.15868488
-0.053916886 -0.5951378 0.00065625366 -0.07120375 -0.06974428 0.3470687 0.48933563 -0.056732636
0.22940773 -0.026108753 -0.11055929 0.37358773 -0.6096928 -0.18530566 -0.4444418 -0.19813576
-0.52145875 0.06672785 -0.49790815 -0.22376241 -0.08735466 -0.1642206 -0.28691658 -0.47965014
-0.1897447 -0.73425114 0.038790286 0.29491848 0.0072498387 -0.09000261 -0.68353945 -0.28452533
00000000: ff71 6abe c86d 753e c562 85be 0d62 23be
00000010: 2f12 97be c0d1 c13e a907 ec3e 1f9c c2bd
00000020: 818a fbbc a16f 293e bec2 1a3e 95a1 d8be
00000030: 0d46 a0be e382 30be d3c3 cfbe d385 57bf
00000040: c9eb 10be 7291 cb3c eb9a 4cbc 0d9c a03e
00000050: 6b51 993e 03a0 25bf 85c7 603e 9f2f 873e
00000060: dd61 f73c f832 a23d 727b 3cbe aacb ccbe
00000070: 2a85 88be 75e4 febd fe68 f53e 4a7e 22be
00000080: f4d7 5cbd f35a 18bf 7008 2c3a 46d3 91bd
00000090: 17d6 8ebd fdb2 b13e 338a fa3e 7b60 68bd
000000a0: dce9 6a3e 06e2 d5bc e96c e2bd e446 bf3e
000000b0: d414 1cbf c4c0 3dbe e08d e3be 1ae4 4abe
000000c0: 527e 05bf 9ca8 883d d1ed febe f921 65be
000000d0: 00e7 b2bd 7229 28be bbe6 92be b494 f5be
000000e0: 6f4c 42be e2f7 3bbf 90e2 1e3d 8eff 963e
000000f0: 0e90 ed3b 4a53 b8bd 71fc 2ebf 4ead 91be

running_var f4 [64]
0.042161033 0.021463139 0.0697112 0.08013796 0.047796085 0.020681933 0.023568759 0.035932664
0.06576773 0.012694101 0.06837108 0.03213583 0.055657934 0.06441951 0.030167364 0.009953092
0.037301045 0.08239916 0.0585968 0.051237326 0.036883496 0.07137398 0.059661876 0.039182678
0.055030283 0.05358451 0.030257361 0.028465977 0.098308966 0.049576126 0.035458483 0.032942668
0.03441013 0.06467587 0.05033125 0.03745764 0.05288144 0.035312876 0.08881203 0.010955634
0.027460404 0.042315688 0.038984444 0.016541677 0.08262075 0.02234203 0.046962105 0.019052772
0.06473968 0.05598421 0.015479729 0.032713056 0.016215257 0.033679098 0.0424037 0.027196558
0.042691797 0.032355353 0.025103265 0.033694804 0.0667406 0.035582352 0.043099996 0.042091157
00000000: 0cb1 2c3d 77d3 af3c bfc4 8e3d 5f1f a43d
00000010: d4c5 433d 286d a93c 4513 c13c 212e 133d
00000020: 3bb1 863d ebfa 4f3c 2306 8c3d dca0 033d
00000030: 93f9 633d 60ee 833d 8c21 f73c 4b12 233c
00000040: fbc8 183d e4c0 a83d 3303 703d 3bde 513d
00000050: 2613 173d 852c 923d 0360 743d 047e 203d
00000060: 6f67 613d 6e7b 5b3d 49de f73c 7b31 e93c
00000070: 3656 c93d 5610 4b3d ea3c 113d e4ee 063d
00000080: a3f1 0c3d c874 843d 2428 4e3d 2f6d 193d
00000090: 359a 583d 3ca4 103d 15e3 b53d 427f 333c
000000a0: a4f4 e03c 3753 2d3d 27ae 1f3d 6982 873c
000000b0: 1135 a93d a206 b73c 565b 403d 8f14 9c3c
000000c0: 3d96 843d b34f 653d b09e 7d3c 20fe 053d
000000d0: dcd5 843c 18f3 093d 81af 2d3d 51cb de3c
000000e0: 98dd 2e3d 0c87 043d 5da5 cd3c 9003 0a3d
000000f0: 4caf 883d cdbe 113d 9f89 303d c767 2c3d

weight f4 [64, 64, 3, 3]
0.18996146 -0.03926688 0.27235657 -0.047743503 0.07992403 0.07977404 0.28979808 0.28910258
-0.36726728 -0.1271237 -0.046918612 -0.08212478 -0.061560202 -0.06287401 -0.061440002 0.09561912
-0.60034436 -0.5541887 -0.24203756 0.13956635 -0.31249383 -0.2521067 0.15995604 -0.4803718
-0.6505665 -0.68077725 -0.32878685 0.31590405 -0.016652066 0.32740328 -0.29185387 0.1886165
0.1627113 0.23828363 0.016906142 -0.311038 -0.1059455 0.33655664 0.11665951 -0.12166614
0.05746647 0.05786959 -0.22365199 -0.16260932 -0.2957919 0.07800328 0.36441255 0.32382676
-0.23319066 0.018756695 -0.151212 0.24162272 -0.0265881 -0.019120632 0.031127967 0.09146819
0.027561987 -0.4350597 -0.11407535 -0.27358428 0.14380927 0.0039987327 0.33310694 -0.1697965
-0.22516209 -0.06490992 -0.2931811 -0.45854777 -0.34647444 0.19213028 -0.30034328 -0.64170575
0.41231674 -0.38802743 -0.22346427 -0.45003957 -0.65114284 0.13450739 0.23001498 0.2462062
0.3136644 0.42668003 0.44541153 0.7814365 0.35237718 -0.0134342145 0.52245784 0.25341615
0.025863213 -0.53913194 0.10494007 -0.5004369 -0.6093921 -0.19155502 0.11116873 -0.4586272
0.17967196 0.58079356 -0.34255806 -0.20695637 -0.07447723 -0.17112686 -0.065469466 0.43287554
-0.10397175 -0.29598367 -0.21668065 -0.82315236 0.3113142 -0.13637128 -0.3727182 0.01450382
0.19076216 0.0730044 0.22229059 -0.11642757 0.21543607 0.56362015 -0.30955055 -0.18905263
-0.0876908 -0.4364957 -0.37137917 -0.07169874 0.20381089 0.11742577 0.008883766 -0.31832966
-0.6215284 0.15128806 0.14019467 -0.1968035 -0.39949286 0.041533507 0.1993398 -0.11995608
-0.02482073 0.21409686 0.07838157 -0.24910699 -0.12698776 0.22327483 0.38628817 -0.008836968
-0.11440226 0.09550932 -0.19872518 -0.040113684 -0.30533525 -0.33822048 0.1976882 -0.041533165
0.77322584 -0.04566244 -0.15695913 0.18015353 0.10949059 0.0457499 0.13942942 0.0054578125
0.4328258 -0.35851452 0.23678672 0.0437672 0.21372624 0.05856782 -0.0005409112 0.1760359
-0.015116131 -0.4485215 -0.053587258 -0.15736009 -0.020801425 0.37672496 -0.007715037 -0.14327647
-0.019492771 0.3653072 -0.05637036 0.0040988186 0.26013866 0.14065066 0.59058553 -0.21430667
0.008108578 0.122079946 -0.104447216 -0.31259227 0.038645744 0.18577749 0.31274936 0.24306823
0.10958242 -0.11389916 0.11090594 0.040318236 0.017445993 -0.5490287 0.12540187 -0.038565006
0.23134603 0.07960147 -0.11541948 0.15451275 -0.15116972 -0.2525169 0.37722692 0.044316586
-0.07207204 -0.018202268 0.17114137 -0.21488163 -0.24858597 -0.15378916 -0.32847235 -0.43931043
-0.25606477 0.12668522 -0.2761169 0.13707486 0.23646955 -0.07772644 0.1364351 0.30448568
-0.11667823 0.38416237 0.21158183 0.124439254 -0.10963388 -0.061417 -0.04082102 0.032542136
-0.33104825 -0.1854052 0.15422603 -0.058708012 -0.20490807 0.05495871 -0.228771 -0.23231217
0.048782054 -0.5939632 -0.15643568 -0.40189192 -0.12081294 -0.13663843 0.24535136 -0.20835537
-0.031597648 0.11598907 -0.25522065 0.20195735 -0.16439712 0.3750442 -0.15628855 0.05138941
00000000: 4285 423e 4fd6 20bd 5272 8b3e b18e 43bd
00000010: 36af a33d 9260 a33d 6a60 943e 4105 943e
00000020: 750a bcbe b72c 02be bb2d 40bd 0931 a8bd
00000030: 8d26 7cbd 17c4 80bd 83a8 7bbd f5d3 c33d
00000040: 2bb0 19bf 50df 0dbf b2d8 77be 7bea 0e3e
00000050: 31ff 9fbe 2114 81be 84cb 233e 4bf3 f5be
00000060: 878b 26bf 6b47 2ebf c056 a8be 2dbe a13e
00000070: ea69 88bc 67a1 a73e df6d 95be af24 413e
00000080: cb9d 263e a000 743e c07e 8a3c 5f40 9fbe
00000090: f4f9 d8bd 2751 ac3e 2eeb ee3d 192c f9bd
000000a0: f661 6b3d aa08 6d3d 0705 65be 0f83 26be
000000b0: 0972 97be 2fc0 9f3d 4894 ba3e 9fcc a53e
000000c0: 88c9 6ebe a4a7 993c 52d7 1abe f26b 773e
000000d0: 49cf d9bc dfa2 9cbc 1400 ff3c ad53 bb3d
000000e0: adc9 e13c 25c0 debe 56a0 e9bd 3d13 8cbe
000000f0: bd42 133e cd07 833b fe8c aa3e 22df 2dbe
00000100: e490 66be 7eef 84bd d51b 96be c6c6 eabe
00000110: 1965 b1be cdbd 443e 98c6 99be d446 24bf
00000120: 2e1b d33e 88ab c6be d1d3 64be 966b e6be
00000130: 4cb1 26bf 4ebc 093e 0c89 6b3e 7a1d 7c3e
00000140: 9f98 a03e ce75 da3e fb0c e43e 390c 483f
00000150: c86a b43e 2e1b 5cbc ccbf 053f c3bf 813e
00000160: 17df d33c 8d04 0abf d2ea d63d a21c 00bf
00000170: 1f01 1cbf 0027 44be 6eac e33d 2fd1 eabe
00000180: edfb 373e e3ae 143f c563 afbe 5fec 53be
00000190: 8587 98bd e13b 2fbe db14 86bd dda1 dd3e
000001a0: 24ef d4bd 2c8b 97be 88e1 5dbe 1dba 52bf
000001b0: 9364 9f3e eaa4 0bbe ebd4 bebe 6ea1 6d3c
000001c0: 2857 433e 5583 953d 25a0 633e 9471 eebd
000001d0: 469b 5c3e 6949 103f 697d 9ebe 0397 41be
000001e0: 3c97 b3bd 5d7c dfbe 6925 bebe cad6 92bd
000001f0: cdb3 503e ec7c f03d 378d 113c 1bfc a2be
00000200: 7c1c 1fbf 42eb 1a3e 318f 0f3e db86 49be
00000210: 548a ccbe 0a1f 2a3d bc1f 4c3e 89ab f5bd
00000220: d854 cbbc 353c 5b3e 8486 a03d e715 7fbe
00000230: 1409 02be 28a2 643e 90c7 c53e eec8 10bc
00000240: bb4b eabd 649a c33d 9d7e 4bbe 3f4e 24bd
00000250: e754 9cbe 3c2b adbe c76e 4a3e ae1e 2abd
00000260: 21f2 453f 8a08 3bbd e5b9 20be 2b7a 383e
00000270: 9a3c e03d 3f64 3b3d 96c6 0e3e 73d7 b23b
00000280: 589b dd3e 378f b7be 3878 723e 3c45 333d
00000290: 0ddb 5a3e cfe4 6f3d f0cb 0dba c142 343e
000002a0: a6a9 77bc 9ca4 e5be 507e 5bbd 0123 21be
000002b0: c067 aabc 18e2 c03e 6cce fcbb 11b7 12be
000002c0: 4eaf 9fbc 8c09 bb3e 9be4 66bd 624f 863b
000002d0: e530 853e ba06 103e 9d30 173f 3573 5bbe
000002e0: d7d9 043c 0d05 fa3d 6ce8 d5bd 180c a0be
000002f0: 004b 1e3d 743c 3e3e af20 a03e e1e6 783e
00000300: bf6c e03d f643 e9bd a722 e33d bc24 253d
00000310: e6ea 8e3c 258d 0cbf 5969 003e 57f6 1dbd
00000320: f9e5 6c3e 1806 a33d 0c61 ecbd 9738 1e3e
00000330: 3ccc 1abe e549 81be e323 c13e 4f85 353d
00000340: 819a 93bd ec1c 95bc af3f 2f3e ee09 5cbe
00000350: 528d 7ebe e87a 1dbe 872d a8be 4ced e0be
00000360: ec1a 83be c5b9 013e 325f 8dbe 5a5d 0c3e
00000370: 1325 723e 0a2f 9fbd a5b5 0b3e 8ce5 9b3e
00000380: fff4 eebd eeb0 c43e e8a8 583e 02da fe3d
00000390: ba87 e0bd 6490 7bbd f133 27bd e74a 053d
000003a0: 287f a9be dcda 3dbe 6eed 1d3e d077 70bd
000003b0: 6cd3 51be 621c 613d f242 6abe 3ee3 6dbe
000003c0: b1cf 473d f90d 18bf ad30 20be c7c4 cdbe
000003d0: c66c f7bd f2ea 0bbe 633d 7b3e 1c5b 55be
000003e0: 896c 01bd ad8b ed3d 48ac 82be e8cd 4e3e
000003f0: b857 28be cb05 c03e 1b0a 20be b47d 523d

bias f4 [64]
0.19952367 -0.080779985 0.17826708 -0.18766926 -0.14131539 -0.02676726 0.17826374 0.028338602
-0.08756914 0.097285904 -0.17674059 0.1226432 0.113144286 0.12592435 0.20977439 0.006219982
0.16545208 0.21551952 0.13794672 0.15200405 0.10495339 -0.16108894 0.08878323 -0.13669084
0.008058722 0.036872927 -0.09877592 0.0035470966 -0.10124064 -0.36661774 0.18023469 0.108540304
0.20043938 0.21554999 -0.07870845 -0.22214535 -0.012417586 -0.13814041 -0.096717626 0.15464288
-0.03868002 -0.012707422 -0.05076289 -0.3252748 -0.13334349 0.028538046 0.12211526 0.19557278
0.28133103 -0.23086274 -0.1287639 0.01770863 0.116315976 0.22279665 0.11863032 -0.620821
-0.16400644 0.010795157 -0.34403688 0.3037745 0.25787112 0.062558964 -0.1038144 0.018201923
00000000: ef4f 4c3e fa6f a5bd a58b 363e 5f2c 40be
00000010: fbb4 10be 0347 dbbc c58a 363e 5b26 e83c
00000020: 7357 b3bd d53d c73d 7cfb 34be 5c2c fb3d
00000030: 31b8 e73d 50f2 003e 19cf 563e fed0 cb3b
00000040: 456c 293e 26b1 5c3e e841 0d3e f3a6 1b3e
00000050: cef1 d63d 80f4 24be fbd3 b53d aff8 0bbe
00000060: bb08 043c 1108 173d 084b cabd 6876 683b
00000070: 4157 cfbd 52b5 bbbe 718f 383e 614a de3d
00000080: fb3f 4d3e 23b9 5c3e e531 a1bd 127a 63be
00000090: 2173 4bbc ae74 0dbe e413 c6bd b45a 1e3e
000000a0: f16e 1ebd ca32 50bc c0ec 4fbd 6b8a a6be
000000b0: 328b 08be 9fc8 e93c 9117 fa3d 3b44 483e
000000c0: 9f0a 903e 4867 6cbe afda 03be b011 913c
000000d0: 1237 ee3d ce24 643e 74f4 f23d 20ee 1ebf
000000e0: 4ef1 27be 2cde 303c 9a25 b0be 5588 9b3e
000000f0: af07 843e ea1e 803d a59c d4bd 331c 953c

weight f4 [64]
0.69202095 0.35336617 0.68474036 0.4862067 0.61846477 0.5499861 0.45359203 0.5975006
0.42769456 0.5131328 0.47851858 0.6441967 0.4984006 0.49519897 0.43322375 0.86416614
0.55595374 0.72349244 1.0547494 0.4008016 0.6816443 0.5181394 0.42365456 0.8382325
0.46869847 0.90593654 0.8193369 0.47352296 0.58494294 0.5570612 0.8529574 0.86401826
0.47020996 0.42935464 0.52989614 0.8451736 0.5794784 0.52055776 0.5333273 0.59247094
0.5301934 0.40314502 0.7066129 0.99220127 0.50172174 0.34050256 1.169978 0.54534566
0.9079617 0.83611685 0.9914527 0.558545 0.4218555 0.6997376 0.3330963 0.6054411
0.35980788 0.5267575 0.4922234 0.66524655 0.9690073 1.0994214 0.6801789 0.5725588
00000000: 4928 313f 69ec b43e 254b 2f3f 16f0 f83e
00000010: b553 1e3f e4cb 0c3f 373d e83e cdf5 183f
00000020: c8fa da3e ac5c 033f 6300 f53e 13ea 243f
00000030: 5d2e ff3e b88a fd3e 81cf dd3e fe39 5d3f
00000040: fc52 0e3f cd36 393f 0702 873f de35 cd3e
00000050: 3e80 2e3f c9a4 043f 40e9 d83e 6896 563f
00000060: 3ff9 ef3e 75eb 673f 10c0 513f 9a71 f23e
00000070: d2be 153f 909b 0e3f 6b5b 5a3f 4d30 5d3f
00000080: 5cbf f03e 5fd4 db3e 46a7 073f 4c5d 583f
00000090: b258 143f 4643 053f 2388 083f 2dac 173f
000000a0: c1ba 073f 0669 ce3e 95e4 343f e700 7e3f
000000b0: d670 003f 5a56 ae3e d7c1 953f c69b 0b3f
000000c0: 2e70 683f c10b 563f d8cf 7d3f cefc 0e3f
000000d0: 72fd d73e 0122 333f 998b aa3e 30fe 1a3f
000000e0: bd38 b83e 94d9 063f b504 fc3e 994d 2a3f
000000f0: dd10 783f d7b9 8c3f 3420 2e3f 3793 123f

bias f4 [64]
0.004029286 0.09704039 0.039670214 0.007663354 0.16932802 -0.90350544 -0.31390944 0.09900492
0.1431635 -0.05371914 -0.31021887 -0.23505232 -0.039389115 0.031147454 0.18297835 -0.0091263885
-0.40084478 -0.40520832 -0.3699263 0.5765495 -0.084105015 0.14313792 -0.043837722 -0.14610724
-0.3317511 -0.09833064 -0.38567764 -0.6113796 -0.6131168 0.06923235 -0.16572247 -0.19660309
0.17995511 -0.07069322 -0.12063847 -0.3108589 -0.038930595 0.14925614 -0.19934575 0.059401736
-0.042248465 -0.14352864 -0.13488786 -0.30189273 -0.07071776 0.17728433 -0.40219992 -0.08605823
-0.16535464 -0.22716723 -0.28898528 -0.42191765 0.2305379 -0.22666602 0.73824716 -0.06441113
-0.12199383 -0.12514615 -0.118968084 -0.13761245 -0.36320546 -0.5215359 -0.47338164 0.06393761
00000000: 1a08 843b 1dbd c63d 3c7d 223d df1c fb3b
00000010: 5364 2d3e 224c 67bf bdb8 a0be 17c3 ca3d
00000020: 7499 123e 9a08 5cbd 02d5 9ebe 8eb1 70be
00000030: 7b56 21bd f228 ff3c ad5e 3b3e d986 15bc
00000040: 873b cdbe 7777 cfbe fb66 bdbe bf98 133f
00000050: 403f acbd bf92 123e 2f8f 33bd 239d 15be
00000060: 48db a9be 9361 c9bd 8a77 c5be 6083 1cbf
00000070: 39f5 1cbf b1c9 8d3d 27b3 29be 5252 49be
00000080: 2746 383e 9bc7 90bd 4d11 f7bd e628 9fbe
00000090: b075 1fbd 9ad6 183e 4b21 4cbe 3c4f 733d
000000a0: ba0c 2dbd 2cf9 12be 0b20 0abe af91 9abe
000000b0: 79d4 90bd 068a 353e 26ed cdbe 4c3f b0bd
000000c0: ba52 29be 879e 68be e1f5 93be 9705 d8be
000000d0: 2112 6c3e 231b 68be c4fd 3c3f fce9 83bd
000000e0: e7d7 f9bd 5026 00be 8aa5 f3bd 47ea 0cbe
000000f0: 11f6 b9be 6083 05bf 145f f2be b9f1 823d

running_mean f4 [64]
-0.7409638 -0.5267354 -1.8720431 -1.1436731 -0.8540934 0.06601841 -0.6056649 -0.28016344
0.07642937 -1.0249457 -1.4304626 -1.2886497 -1.4024985 0.81918037 -0.40577823 -1.345424
-0.2984084 -0.19305101 -2.369265 -1.4650605 -0.91855925 -0.84516025 -0.12257844 -1.9163489
0.077197686 -1.3021919 -1.7766337 0.03706739 -1.1329589 -0.69724756 -0.19171545 -0.8607281
-0.5452967 0.12692992 -1.3475486 -1.9771136 -0.31050625 -1.1086361 -0.8384105 0.10880394
-1.1236966 -0.8455133 -1.3507609 -0.9540187 -0.7055731 0.03149325 -1.6775402 -0.37051517
-1.3095077 -2.421222 -1.133105 -1.7405915 -0.12886272 -0.7095736 0.48195657 -0.4193881
-0.35641763 -0.8741631 -0.03496266 -0.776077 -0.5738403 -1.6099578 -0.6019913 -1.8890927
00000000: ceaf 3dbf 22d8 06bf 1c9f efbf e163 92bf
00000010: dda5 5abf a934 873d db0c 1bbf 9571 8fbe
00000020: 0087 9c3d 6c31 83bf 6619 b7bf 79f2 a4bf
00000030: 1285 b3bf ceb5 513f 2ac2 cfbe db36 acbf
00000040: fcc8 98be 2aaf 45be 0aa2 17c0 1a87 bbbf
00000050: b326 6bbf 6c5c 58bf 680a fbbd ec4a f5bf
00000060: d219 9e3d 39ae a6bf bc68 e3bf fad3 173d
00000070: cc04 91bf d17e 32bf 0e51 44be ad58 5cbf
00000080: 9198 0bbf ebf9 013e 797c acbf 0f12 fdbf
00000090: adfa 9ebe cae7 8dbf 12a2 56bf 9ad4 de3d
000000a0: 4ad5 8fbf 8f73 58bf bce5 acbf 923a 74bf
000000b0: 70a0 34bf 11ff 003d a3b9 d6bf 2ab4 bdbe
000000c0: f39d a7bf 4df5 1ac0 9609 91bf b4cb debf
000000d0: 97f4 03be 9ea6 35bf 03c3 f63e 09ba d6be
000000e0: 5f7c b6be 27c9 5fbf 0235 0fbd fbac 46bf
000000f0: 33e7 12bf 1913 cebf 1a1c 1abf cacd f1bf

running_var f4 [64]
3.9574378 1.9737169 4.425693 3.1613755 4.9568415 2.7020054 1.8200077 2.8780053
3.34868 2.4757478 1.820044 2.842954 3.003383 2.4900002 2.6683087 8.823166
1.8680812 3.2211363 4.8799014 2.7466016 4.3556724 3.2838778 2.6509898 5.5323925
1.1731898 4.973077 4.394119 1.9150915 1.9085885 3.0517678 4.6176777 4.32965
3.2180898 2.0992763 2.870914 4.1946435 2.8775 3.4161484 2.3168967 3.0564551
2.4906192 1.6227932 2.5148673 5.0993576 3.096709 1.6595627 5.8971043 3.3641598
6.6398234 3.7372167 4.396274 1.9187495 2.8319793 3.2203808 2.7290065 2.7089617
1.993734 2.4338727 2.1764667 2.8071206 4.8521085 4.0287576 1.6996012 4.1223164
00000000: a946 7d40 c1a2 fc3f 479f 8d40 fa53 4a40
00000010: 729e 9e40 a8ed 2c40 03f6 e83f 3d31 3840
00000020: c650 5640 a772 1e40 34f7 e83f f5f2 3540
00000030: 6d37 4040 2a5c 1f40 92c5 2a40 b02b 0d41
00000040: 491d ef3f 1927 4e40 2728 9c40 52c8 2f40
00000050: ab61 8b40 0e2b 5240 d1a9 2940 5c09 b140
00000060: 152b 963f 7223 9f40 9f9c 8c40 b821 f53f
00000070: a14c f43f 2a50 4340 04c4 9340 7e8c 8a40
00000080: 2ff5 4d40 8b5a 0640 0ebd 3740 853a 8640
00000090: f628 3840 2da2 5a40 0948 1440 f69c 4340
000000a0: 4e66 1f40 b0b7 cf3f 96f3 2040 f02d a340
000000b0: 7b30 4640 8d6c d43f 14b5 bc40 654e 5740
000000c0: 6f79 d440 8f2e 6f40 47ae 8c40 9599 f53f
000000d0: 263f 3540 b81a 4e40 0ba8 2e40 a15f 2d40
000000e0: ad32 ff3f 92c4 1b40 3b4b 0b40 dda7 3340
000000f0: 7944 9b40 95eb 8040 888c d93f 04ea 8340

weight f4 [64, 64, 3, 3]
0.14061373 0.10376797 0.38072923 0.16078955 0.20848633 -0.082861364 0.25440407 0.4344805
0.08800528 -0.0018057902 0.038391344 0.13148446 0.098703 -0.5534393 -0.057515502 0.23294546
0.07031938 0.0537782 -0.22844741 0.29773417 0.27016196 -0.16346648 -0.08319526 -0.18943882
0.10235087 -0.21034805 0.045262385 -0.063060194 0.28652927 -0.17307779 0.28748733 0.033629045
0.20715563 0.111616895 -0.34645084 -0.033322357 -0.033885818 0.23035356 -0.10628768 0.014930077
0.46807438 -0.26364258 0.15902656 -0.39041469 0.24384907 0.07347408 0.20381454 0.034125876
0.30820456 0.43046832 -0.10380189 -0.2508394 -0.08460036 -0.122184545 0.047767133 0.1976372
0.021301812 0.5469327 -0.68528247 0.18926437 0.23819675 -1.1239752 -0.19489998 -0.372624
-0.09947836 0.071662866 -0.4748775 -0.5521925 -0.28179768 -0.008325545 -0.119477846 -0.18233073
0.16878738 -0.33323252 -0.13526106 0.20837782 0.08555236 0.082343064 -0.085102454 -0.37732285
0.07708634 0.5533699 0.4012959 -0.18525133 -0.100995906 -0.26867673 -0.15770252 0.044812705
-0.41993558 -0.096154675 -0.32087454 0.037864808 0.27736515 0.05976153 -0.029441364 -0.019979026
-0.078688115 0.3802472 -0.0031745264 -0.056736104 0.12590162 -0.43100053 -0.19816673 0.18915658
0.121254794 -0.36021495 -0.12843865 -0.12614605 -0.057080124 -0.102103114 -0.50039274 0.12354229
-0.155172 -0.4229412 -0.52051896 0.029370273 -0.59014326 -0.123457946 0.39110795 0.45062065
-0.88723147 -0.17223066 0.026333954 -0.33081543 -0.27533346 0.38314515 -0.116017446 -0.033078324
-0.04655172 0.58642066 0.17559646 0.07579847 -0.0033082778 0.4007635 -0.08645373 -0.03262443
0.096910566 0.41277304 0.05978971 -0.7354928 -0.56442684 -0.10109077 -0.47022283 0.09968686
-0.9865419 0.20893466 -0.0021765723 -0.078653626 -1.0392812 -0.175806 -0.18165168 -0.47203162
-0.6130482 0.2705776 -0.027466973 0.26338574 -0.32041913 -0.42698944 0.3865736 -0.34413287
0.048983503 -0.184384 -0.064407624 0.18105705 -0.27289826 0.26848534 -0.18280424 0.026498837
0.17352048 0.23716514 -0.017313609 0.038824487 -0.17168163 0.23803994 -0.10138606 0.14192607
0.08577563 -0.29252258 0.4505835 -0.3224941 -0.062439613 -0.35615808 -0.31422344 -0.21920218
0.23450515 -0.34279364 -0.36267054 -0.087424055 -0.31643125 -0.06927038 -0.33258227 0.2494672
-0.03328699 0.33142033 -0.3466152 -0.10632557 -0.06703879 -0.030089922 -0.45010135 0.24706659
-0.14271642 -0.2971093 0.18473196 0.5053095 0.24145173 -0.110051446 0.094562925 -0.18910742
-0.29078445 0.22495143 -0.33103597 0.40798396 0.5292909 -0.4319271 0.18106139 -0.38163653
-0.05727281 -0.7027043 0.11629172 -0.16673392 -0.46523014 -0.48633015 -0.05369037 0.7165313
0.238288 0.3380656 -0.3405484 -0.07934389 0.2872396 -0.11037593 -0.18269928 -0.20934097
0.439164 -0.16204144 -0.30181 -0.19326864 -0.38653752 -0.25757325 0.5624333 0.0401963
-0.14403793 0.33877495 -0.09350609 0.284116 0.38962695 -0.29986918 -0.05381044 0.19087683
-0.16670765 0.2642472 -0.19134021 0.029895905 0.20387739 0.27793944 0.17364039 -0.1500232
00000000: 0cfd 0f3e 4d84 d43d f1ee c23e 04a6 243e
00000010: 717d 553e 38b3 a9bd 4041 823e 3a74 de3e
00000020: 1d3c b43d 44b0 ecba 3e40 1d3d dda3 063e
00000030: cc24 ca3d 33ae 0dbf 6095 6bbd 4189 6e3e
00000040: 9b03 903d 8846 5c3d 1eee 69be 9d70 983e
00000050: ab52 8a3e c263 27be 4762 aabd 40fc 41be
00000060: 559d d13d 7b65 57be 0d65 393d b425 81bd
00000070: f7b3 923e 4e3b 31be 8a31 933e 9cbe 093d
00000080: 9b20 543e 6697 e43d 0162 b1be 067d 08bd
00000090: dbcb 0abd cee1 6b3e 5bad d9bd 489d 743c
000000a0: 72a7 ef3e 29fc 86be dcd7 223e 6fe4 c7be
000000b0: 92b3 793e 9479 963d c2b4 503e 93c7 0b3d
000000c0: fdcc 9d3e 5866 dc3e 1696 d4bd 066e 80be
000000d0: f442 adbd e43b fabd 78a7 433d 6861 4a3e
000000e0: 2381 ae3c c803 0c3f ac6e 2fbf 85ce 413e
000000f0: d9e9 733e 6bde 8fbf dc93 47be 93c8 bebe
00000100: 4fbb cbbd fbc3 923d 2523 f3be 7d5c 0dbf
00000110: c947 90be de67 08bc cdb0 f4bd e8b4 3abe
00000120: 99d6 2c3e 749d aabe e081 0abe ff60 553e
00000130: 1336 af3d 7ba3 a83d 324a aebd 7630 c1be
00000140: 71df 9d3d a6a9 0d3f a876 cd3e 86b2 3dbe
00000150: f1d6 cebd ff8f 89be c57c 21be 878d 373d
00000160: cc01 d7be beec c4bd ab49 a4be 2118 1b3d
00000170: ce02 8e3e 82c8 743d 042f f1bc 0eab a3bc
00000180: 3c27 a1bd c3af c23e b70b 50bb 1e64 68bd
00000190: 5bec 003e 1aac dcbe 38ec 4abe 43b2 413e
000001a0: 6f54 f83d 186e b8be 6c85 03be 6e2c 01be
000001b0: d9cc 69bd 701b d1bd bd19 00bf bd03 fd3d
000001c0: 69e5 1ebe c08b d8be bb40 05bf ed99 f03c
000001d0: a113 17bf 85d7 fcbd 4d3f c83e c0b7 e63e
000001e0: 9a21 63bf 3c5d 30be 4eba d73c a460 a9be
000001f0: 82f8 8cbe 9a2b c43e 8e9a edbd 237d 07bd
00000200: 04ad 3ebd aa1f 163f 8fcf 333e 3a3c 9b3d
00000210: b1cf 58bb e030 cd3e a70e b1bd 32a1 05bd
00000220: 0c79 c63d fd56 d33e 0ee6 743d 4249 3cbf
00000230: 477e 10bf ad08 cfbd 0cc1 f0be a028 cc3d
00000240: 038e 7cbf f8f2 553e d3a4 0ebb 2715 a1bd
00000250: 2b07 85bf 7d06 34be e602 3abe 21ae f1be
00000260: baf0 1cbf 2689 8a3e 6b02 e1bc 7fda 863e
00000270: fa0d a4be 5c9e dabe faec c53e 2f32 b0be
00000280: eda2 483d 29cf 3cbe 25e8 83bd 0567 393e
00000290: 52b9 8bbe e976 893e 0931 3bbe 1714 d93c
000002a0: 5aaf 313e 6bdb 723e 45d5 8dbc 6d06 1f3d
000002b0: 4fcd 2fbe bec0 733e 7fa3 cfbd 1155 113e
000002c0: 22ab af3d 85c5 95be e1b2 e63e f21d a5be
000002d0: aec0 7fbd 5a5a b6be e5e1 a0be 8976 60be
000002e0: 1e22 703e a682 afbe f4af b9be 620b b3bd
000002f0: 4703 a2be a1dd 8dbd 3948 aabe 5474 7f3e
00000300: f057 08bd edaf a93e 8c77 b1be 38c1 d9bd
00000310: a24b 89bd 247f f6bc af73 e6be 06ff 7c3e
00000320: 4124 12be b61e 98be 602a 3d3e f75b 013f
00000330: 1f3f 773e a762 e1bd 35aa c13d 60a5 41be
00000340: b3e1 94be ab59 663e 8c7d a9be 46e3 d03e
00000350: 9c7f 073f 8d25 ddbe 2868 393e dd65 c3be
00000360: e596 6abd 6ee4 33bf 5a2a ee3d 4cbc 2abe
00000370: a532 eebe 4400 f9be 6fea 5bbd 986e 373f
00000380: c501 743e ef16 ad3e 5c5c aebe 0d7f a2bd
00000390: 1211 933e c70c e2bd 8515 3bbe 7b5d 56be
000003a0: 1bda e03e 31ee 25be d786 9abe 37e8 45be
000003b0: 3fe8 c5be a4e0 83be a1fb 0f3f e0a4 243d
000003c0: ae7e 13be e973 ad3e 1f80 bfbd a777 913e
000003d0: 2f7d c73e 7488 99be 5668 5cbd 3775 433e
000003e0: 69b5 2abe 694b 873e b0ee 43be 42e8 f43c
000003f0: 3cc5 503e 144e 8e3e c9ce 313e af9f 19be

bias f4 [64]
0.050568588 -0.2125409 0.15133208 -0.019868953 -0.013340955 -0.0103557985 -0.1203673 0.190967
-0.10012906 0.061725467 0.28525922 -0.10440477 0.10896849 0.042592276 0.23377642 -0.061018478
0.100595005 0.05262838 -0.070092246 0.05730924 -0.15361738 0.22540154 0.13277689 -0.026242852
-0.106655866 0.22986603 -0.14857298 -0.057183165 -0.26080593 -0.17294496 -0.39983645 0.048886795
-0.019543376 0.032327518 -0.12345245 -0.025352366 0.11052079 0.061496373 0.11030636 -0.05237157
0.22995287 0.00018638984 -0.038232587 -0.26255614 -0.018800812 0.08804365 -0.0506514 -0.10264122
-0.236899 0.22601269 0.045973673 -0.17230263 -0.011636236 -0.2839232 0.050873812 -0.14687455
0.061129842 0.11388631 -0.0096348105 -0.010603927 0.34953657 -0.0668684 -0.21610484 -0.0018832536
00000000: 0221 4f3d 52a4 59be ccf6 1a3e 37c4 a2bc
00000010: 0594 5abc 5eab 29bc 2283 f6bd da8c 433e
00000020: 7710 cdbd d8d3 7c3d 7f0d 923e 2bd2 d5bd
00000030: df2a df3d 3d75 2e3d 1663 6f3e 83ee 79bd
00000040: c104 ce3d db90 573d 868c 8fbd 18bd 6a3d
00000050: e04d 1dbe a9cf 663e aaf6 073e 40fb d6bc
00000060: 646e dabd 0062 6b3e 8423 18be e538 6abd
00000070: 5b88 85be 7c18 31be 5db7 ccbe 853d 483d
00000080: 6e19 a0bc dc69 043d a3d4 fcbd c4af cfbc
00000090: b958 e23d 9fe3 7b3d 4de8 e13d 9283 56bd
000000a0: c478 6b3e a471 4339 c699 1cbd c26d 86be
000000b0: 2904 9abc 3b50 b43d d877 4fbd 8f35 d2bd
000000c0: a795 72be df6f 673e e44e 3c3d 1a70 30be
000000d0: e9a5 3ebc 625e 91be 0f61 503d 4866 16be
000000e0: 4963 7a3d 3a3d e93d 53db 1dbc 18bc 2dbc
000000f0: 75f6 b23e 4df2 88bd 964a 5dbe 81d7 f6ba

weight f4 [64]
0.7823165 0.5091192 0.72616386 0.5421416 0.41691247 0.53546286 0.5188067 0.34264722
0.46631277 0.3262065 0.33877298 0.3602303 1.008937 0.80452645 0.5857603 0.38828412
0.69716066 0.4292629 0.6317658 0.579821 0.6635936 0.49490967 0.4844254 0.6658417
0.59780604 0.38343912 0.52622235 0.44955266 0.35151535 0.55501455 0.4034093 0.4150657
0.41767517 0.5976883 0.58975714 0.6865321 0.61102307 1.119708 0.5271348 0.33700475
0.35135484 0.6769157 0.34888455 0.33906826 0.5422839 0.49464604 0.4388842 0.6571818
0.59074336 0.6030173 0.33124855 0.40621266 0.50509256 0.67073023 0.53621024 0.55093765
0.5610128 0.5194782 0.63485783 0.49515793 0.50319237 0.79662895 0.78399354 0.5623432
00000000: e545 483f a355 023f e0e5 393f cbc9 0a3f
00000010: 8d75 d53e 1814 093f 84d0 043f 756f af3e
00000020: 8cc0 ee3e 8a04 a73e a773 ad3e 1b70 b83e
00000030: d924 813f 72f5 4d3f 63f4 153f 2dcd c63e
00000040: 1f79 323f 59c8 db3e 67bb 213f 266f 143f
00000050: 45e1 293f cd64 fd3e 9b06 f83e 9a74 2a3f
00000060: d109 193f 2252 c43e 82b6 063f c42b e63e
00000070: d2f9 b33e 6f15 0e3f aa8b ce3e 7e83 d43e
00000080: 85d9 d53e 1a02 193f 53fa 163f 91c0 2f3f
00000090: 026c 1c3f 9752 8f3f 4ef2 063f e38b ac3e
000000a0: c8e4 b33e 594a 2d3f ffa0 b23e 5b9a ad3e
000000b0: 1ed3 0a3f 3f42 fd3e 6eb5 e03e 113d 283f
000000c0: f53a 173f 575f 1a3f 6999 a93e 1bfb cf3e
000000d0: bf4d 013f fab4 2b3f 1345 093f 400a 0d3f
000000e0: 899e 0f3f 86fc 043f 0b86 223f 5785 fd3e
000000f0: 37d1 003f e0ef 4b3f cdb3 483f b9f5 0f3f

bias f4 [64]
-0.38926992 -0.37251458 -0.9024873 -0.605806 -0.12203649 -0.5996304 0.20730627 0.2858689
-0.35957342 0.2558141 0.69153076 0.12440701 -1.248106 -1.1435736 -0.08719455 -0.03537584
-0.5983724 0.23168458 -0.7164283 -0.33122942 -0.7512302 0.07567235 -0.24873133 -0.18772969
-0.3019135 0.05637473 0.06325258 0.20699431 0.14484613 -0.06593481 0.173539 0.18383175
-0.3178746 0.033553034 -0.25849918 -0.7840478 -0.24484867 -1.2654384 0.08355124 0.41928485
0.17449473 -0.752551 0.22321254 0.24382803 -0.11581721 0.03153523 0.17408232 -0.48443606
-0.35670868 -0.55901885 0.56479025 0.21667007 0.012403537 -0.38764742 -0.30425465 -0.38834077
-0.3104768 -0.31575257 -0.47211733 -0.45429572 0.2386415 -1.1536955 -0.67908597 -0.406915
00000000: 634e c7be 3bba bebe 6809 67bf 1a16 1bbf
00000010: 44ee f9bd 6181 19bf 1848 543e 695d 923e
00000020: 021a b8be 11fa 823e 2908 313f 1ac9 fe3d
00000030: f0c1 9fbf 9f60 92bf 0e93 b2bd 42e6 10bd
00000040: ef2e 19bf b93e 6d3e d867 37bf e796 a9be
00000050: 9f50 40bf 1bfa 9a3d 6db3 7ebe 363c 40be
00000060: 6894 9abe 30e9 663d 928a 813d 51f6 533e
00000070: 8b52 143e d408 87bd 35b4 313e 643e 3c3e
00000080: 76c0 a2be e86e 093d 015a 84be 5bb7 48bf
00000090: 9cb9 7abe e3f9 a1bf ea1c ab3d 81ac d63e
000000a0: bfae 323e 2fa7 40bf d491 643e 0eae 793e
000000b0: 9331 edbd 162b 013d a342 323e 0108 f8be
000000c0: 85a2 b6be dc1b 0fbf 1896 103f c2de 5d3e
000000d0: 3438 4b3c b979 c6be 44c7 9bbe 9ad4 c6be
000000e0: d1f6 9ebe 52aa a1be 5db9 f1be 7399 e8be
000000f0: 705e 743e 4bac 93bf 94d8 2dbf 2a57 d0be

running_mean f4 [64]
-2.1301112 -1.263401 -3.8130186 -2.0272355 -0.82452106 -3.272899 -0.16531672 0.009910122
-1.2894932 0.15650707 1.7797351 0.48620394 -2.445898 -1.8523982 -0.7396316 -0.6003362
-1.9646077 -1.8432499 -1.8850267 -2.0384908 -1.7783042 -0.5606799 -0.5649043 -1.7235948
-1.8171581 -0.7032773 -1.1531854 0.35279325 0.65135777 -1.4081322 -0.5864353 -1.1288248
-2.6997855 -3.8089411 -1.1281049 -4.180011 -1.5391357 -1.8010533 -0.9600322 0.6630311
0.43437314 -3.4398255 -0.43000317 -1.1250224 -2.2601182 -0.5952177 -0.30573466 -1.5416967
-1.9609977 -0.6340867 2.2022367 -1.2512302 -2.2496202 -3.2520962 -1.8282639 -2.4561968
-3.165325 -0.69452596 -4.530321 -2.5241132 0.009861935 -2.363071 -2.3540752 -0.5826975
00000000: be53 08c0 20b7 a1bf 7f08 74c0 3abe 01c0
00000010: d013 53bf 2d77 51c0 c948 29be 105e 223c
00000020: 1d0e a5bf 6443 203e 5cce e33f b9ef f83e
00000030: 9889 1cc0 621b edbf 7f58 3dbf a2af 19bf
00000040: 4478 fbbf 9def ebbf 8e48 f1bf a276 02c0
00000050: 799f e3bf b888 0fbf 919d 10bf c19e dcbf
00000060: a398 e8bf fb09 34bf 949b 93bf 51a1 b43e
00000070: 62bf 263f ad3d b4bf a020 16bf 557d 90bf
00000080: 49c9 2cc0 b1c5 73c0 be65 90bf a6c2 85c0
00000090: 6602 c5bf ea88 e6bf acc4 75bf 68bc 293f
000000a0: 2866 de3e 1a26 5cc0 6029 dcbe bc00 90bf
000000b0: c7a5 10c0 3060 18bf 4189 9cbe 5156 c5bf
000000c0: f901 fbbf 8253 22bf 72f1 0c40 5028 a0bf
000000d0: c7f9 0fc0 5822 50c0 8d04 eabf 5432 1dc0
000000e0: af94 4ac0 74cc 31bf 64f8 90c0 128b 21c0
000000f0: f493 213c 8e3c 17c0 2ba9 16c0 aa2b 15bf

running_var f4 [64]
5.4753885 2.5781069 3.5478237 2.9715757 4.1995087 2.983012 6.2189713 3.6440768
2.5383213 3.6708038 4.420911 3.3464494 4.9757514 2.762468 3.8464506 2.9027057
4.0699606 4.669191 3.5164912 4.8691664 3.5837855 4.8295093 3.2631586 5.1336145
3.8629692 3.0561862 6.7578425 5.553754 3.5351233 5.976957 3.736871 4.057756
3.7796972 6.755911 4.1298065 4.2314034 3.9309638 4.8300033 5.8733034 3.5784729
3.4662485 3.5186272 3.9178448 3.3033204 4.390119 4.460638 4.1104345 3.2164743
3.35932 4.5531535 3.6262348 4.7579694 6.916417 6.3336153 3.8058064 4.4571705
3.069657 4.747483 4.7437115 3.2189114 5.6324344 2.8843675 3.5591176 3.7354038
00000000: 6236 af40 b4ff 2440 8b0f 6340 4c2e 3e40
00000010: 6062 8640 abe9 3e40 d001 c740 8e38 6940
00000020: db73 2240 73ee 6a40 1a78 8d40 3a2c 5640
00000030: 5b39 9f40 47cc 3040 3f2c 7640 eec5 3940
00000040: 1e3d 8240 036a 9540 310e 6140 36d0 9b40
00000050: be5c 6540 578b 9a40 97d7 5040 9246 a440
00000060: e33a 7740 8e98 4340 3f40 d840 5ab8 b140
00000070: 763f 6240 3b43 bf40 e528 6f40 23d9 8140
00000080: 8fe6 7140 6c30 d840 6027 8440 a867 8740
00000090: e994 7b40 638f 9a40 1af2 bb40 b305 6540
000000a0: 04d7 5d40 3031 6140 f8bd 7a40 9a69 5340
000000b0: db7b 8c40 8cbd 8e40 ae88 8340 b7da 4d40
000000c0: 19ff 5640 6fb3 9140 3b14 6840 4941 9840
000000d0: 4a53 dd40 faac ca40 5592 7340 24a1 8e40
000000e0: 4375 4440 61eb 9740 7ccc 9740 a502 4e40
000000f0: e73c b440 7a99 3840 95c8 6340 db10 6f40
