models/vishal_lr_001_iter_300.pt_230.pt (torch_old, 473212 bytes, 27 tensors)

weight f4 [64, 1, 3, 3]
000000 15 8c 63 3c 2d 00 c0 bd ba 65 1b 3d b6 62 80 bd
       0.013888379 -0.093750335 0.03793881 -0.062688276
000010 90 95 0d 3e 78 2a b2 bd ef 44 06 3d 9d a9 81 bd
       0.13826585 -0.086995065 0.032780584 -0.06331179
000020 54 ec d1 3c 25 e3 0c be 06 58 1f be 54 34 76 be
       0.025625385 -0.13758524 -0.15560922 -0.24043399
000030 3c 23 aa 3e f3 d5 1f 3f 4d cb 88 be 82 8f 05 be
       0.33230007 0.62435836 -0.26717606 -0.13043025
000040 74 a9 05 3d 2b 7d 09 bf 58 a9 a0 3e 77 c1 c0 3e
       0.032632306 -0.53706616 0.313792 0.37647602
000050 3b 9e d8 3d b1 2d 9b be cf 6f 96 be fd 4c 80 be
       0.10577055 -0.30308297 -0.29382178 -0.25058737
000060 46 52 bf bd 26 47 1b 3e d0 80 28 3c 37 93 a8 3d
       -0.09341864 0.1516386 0.010284618 0.08231204
000070 07 2b 0b 3e 8d d3 47 3d 4c 47 86 bd c6 d1 8e bd
       0.13590632 0.048785735 -0.065565675 -0.06973605
000080 85 7b 3f 3d cb a5 93 3d 63 a5 dc 3d d3 60 a5 3d
       0.046748657 0.07209357 0.107737325 0.080751084
000090 4b 03 cd 3e 34 82 12 bf bd e2 b8 3d 32 03 80 3e
       0.40041575 -0.57229924 0.09027622 0.25002438
0000a0 05 f6 5c 3d 44 5a 9e be b3 72 53 bf e0 3c 06 3f
       0.05394556 -0.30928242 -0.8259689 0.5243664
0000b0 46 86 05 be 59 96 69 3c 6c df b3 3d 19 c6 e5 bd
       -0.13039503 0.014257037 0.08782849 -0.11219425
0000c0 e4 27 1f 3e c0 3e 50 be 87 71 2c 3d 34 a1 0a be
       0.15542561 -0.20336437 0.042100456 -0.13538057
0000d0 90 a0 aa 3d 25 1b 91 3d 7d a7 a3 3b 48 d2 ac 3d
       0.08331406 0.070852555 0.0049943314 0.084385455
0000e0 10 d0 9b 3c 64 92 28 be 64 89 ae 3d 9b 8c bd bd
       0.01902011 -0.16462094 0.08522299 -0.09255334
0000f0 29 c8 dc 3c de d0 07 be a2 75 ad c0 1d 5a 8a 3e
       0.026950913 -0.1326327 -5.4206095 0.27021876
000100 05 5e fe bd 5c 16 11 be 8b 94 39 be 38 dd 9b bd
       -0.124202766 -0.14168686 -0.18123071 -0.076105535
000110 06 36 88 3e ed cf b5 be 2b 96 8c 3d cc 3d 97 3e
       0.26603717 -0.35510197 0.0686458 0.29539335
000120 0c 5d 6a 3d fc 0c 21 be d0 2e 94 3d 7f f7 03 be
       0.057217643 -0.1572761 0.07235491 -0.12887381
000130 73 d5 d5 bf 77 44 9e bd 20 c8 9f 3d db 5f ce bd
       -1.6705765 -0.077279024 0.07801843 -0.10076877
000140 f1 18 59 3d 5c 46 4b 3d 6b 65 85 3c cc 8b 39 3c
       0.0530023 0.049627647 0.016283711 0.011324834
000150 20 7b c8 bc f0 a0 62 3d a0 38 aa 3c 60 15 4a bd
       -0.024472773 0.055329263 0.020778954 -0.04933679
000160 61 8a 1f 3c c7 74 6a 3d 70 05 2c 3d 6c 49 e3 bc
       0.009737582 0.057240274 0.041997373 -0.027744971
000170 60 ed 85 bc 64 f6 8c bd fc ac b3 bc 92 a6 85 bd
       -0.01634854 -0.06882933 -0.021933071 -0.065259114
000180 f6 3a c3 bd 09 9b 9f bd cb ef c7 bd c8 c1 86 3d
       -0.0953273 -0.077932425 -0.09762534 0.065799296
000190 02 23 ac be c7 d5 8a 3e f4 5b 0e 3d 9f 44 b4 3e
       -0.3362046 0.27116224 0.034755662 0.35208604
0001a0 74 55 c4 be 76 78 ba bd ee db a1 bb b7 01 d3 3d
       -0.38346446 -0.09105007 -0.0049395477 0.103030615
0001b0 09 d6 01 3e 50 52 20 3e 7c fe 93 be 28 99 30 be
       0.12679304 0.156564 -0.28905094 -0.17245924
0001c0 b9 0e d9 3c fa d4 30 3e 42 29 01 3d 7a 93 18 be
       0.026496278 0.17268744 0.031533487 -0.14900008
0001d0 dd c8 c3 3d a5 92 dc bd 55 d5 4e 3e 96 87 cc bd
       0.09559796 -0.10770158 0.20198567 -0.099867985
0001e0 26 50 7d 3d 72 a4 ab bd 6f 87 79 3c 16 e5 e3 3c
       0.061844014 -0.08380975 0.015230044 0.027819198
0001f0 08 6a ed bd 23 88 ac 3d 78 7c 21 3d 10 fe c0 bc
       -0.115924895 0.084244035 0.039425343 -0.023558646
000200 a4 60 07 bd 78 c1 09 3d 43 b4 b3 bd fc 83 bd bd
       -0.033051148 0.03363177 -0.087746166 -0.0925369
000210 5c 10 89 3c 30 c7 7f 3d 0c ff 0f 3d dd 85 a4 bb
       0.016731434 0.06244582 0.03515534 -0.0050208406
000220 76 c6 a1 3c 2e 80 20 3d 1b 27 17 3e c0 aa 26 3e
       0.019747954 0.03918474 0.14761011 0.16276073
000230 8f 36 12 3e c6 07 ac bd 29 91 f0 3d e8 a2 88 3d
       0.14278625 -0.0839992 0.11746437 0.06671697
000240 12 26 b4 3d a8 d7 ba bd 10 f2 6a 3d 24 d0 4b 3d
       0.08796324 -0.091231644 0.057359755 0.049759045
000250 31 8a 2b bd a0 ed a5 bc 28 4d 54 3d c8 6e 89 bd
       -0.041879836 -0.02025491 0.051831394 -0.06710583
000260 c0 cf 42 bc 7e 34 5a be af cc 12 be 9b 84 40 be
       -0.011890352 -0.21309087 -0.14335893 -0.18800585
000270 97 6f 03 be c8 93 42 bd 54 ae f5 bc 23 a4 9e 3e
       -0.12835537 -0.047504216 -0.029990353 0.309846
000280 ba 35 cc 3e d1 b9 98 3d 75 42 1c bd c5 9d ce 3d
       0.3988474 0.07457317 -0.038149316 0.10088686
000290 47 70 fa bc 0f 11 2e 3e d0 d7 9b 3e 9c 61 d4 3d
       -0.030571116 0.16998695 0.3043809 0.1037018
0002a0 c5 16 8f bd 2a 93 2a 3e 54 69 51 bd 0b 00 97 bd
       -0.06986765 0.16657701 -0.05112584 -0.07373055
0002b0 f6 90 60 3c ed 57 35 3d 2b 35 29 3e 83 f3 b9 bd
       0.013706436 0.044273306 0.16524188 -0.09079649
0002c0 5d 9f 77 bd c2 06 be bd f4 59 9d 3d 0b d5 47 3c
       -0.060454715 -0.09278633 0.07683173 0.0121967895
0002d0 e4 f4 ac 3c 70 5e 6f bc b4 ad 8d bd 6c 92 97 3d
       0.021112867 -0.014609918 -0.06917897 0.07400975
0002e0 26 2c c3 bd 28 73 b0 bd 4e 74 8d bd 72 6b 0a bd
       -0.09529905 -0.08615714 -0.06906949 -0.033793874
0002f0 4c 36 8d bc 68 af 64 3d fe ab 7f bd 1c 48 80 3d
       -0.017237805 0.055831343 -0.062419884 0.06263754
000300 4c 21 a9 bc f6 6c 9c 3d 28 94 05 3c 64 23 f3 bc
       -0.02064576 0.0763797 0.008152999 -0.029679962
000310 ba 55 92 3d c8 9c 2a bc 54 b7 c6 bd e4 55 20 3d
       0.07145257 -0.010413356 -0.09702936 0.03914441
000320 70 20 1a 3d 20 d8 8c bd 19 cd a9 bd 60 77 41 3c
       0.03762859 -0.0687716 -0.082910724 0.011808246
000330 c8 93 24 3c d3 16 a2 bd b0 ab 9b 3b c8 c2 99 bd
       0.010044999 -0.079145096 0.0047506914 -0.07507855
000340 b0 80 21 bc 90 c8 b2 3d dc 81 84 3c 52 93 30 bd
       -0.009857342 0.087296605 0.016175203 -0.043109246
000350 24 58 18 bd e8 c1 bd bd da 9f 93 bd ba 79 cd bd
       -0.037193432 -0.092655 -0.07208224 -0.10032983
000360 a8 81 8f be 84 13 84 3e bc bc 0b 3d dd ba 74 3e
       -0.28028607 0.2579614 0.034115538 0.23899408
000370 b6 1d 60 be f8 94 64 ba b8 83 26 3d a3 4a 84 bb
       -0.21886334 -0.0008719708 0.04065296 -0.0040372177
000380 50 51 08 bd 5b aa 82 3d 05 d0 70 3d 1e 39 a2 be
       -0.03328067 0.06380149 0.058792133 -0.31684202
000390 5b c0 75 bd 9a a3 c8 3e 01 59 cf bd fb c7 6a be
       -0.059997898 0.39187318 -0.10124398 -0.22927849
0003a0 e7 6a 73 3e 0f 76 22 bb 95 26 49 bc 02 95 25 be
       0.23771249 -0.0024789607 -0.012277265 -0.16170123
0003b0 68 6d 99 3d e8 0b 00 bd 45 ed c1 3d c9 fd 1a bc
       0.07491571 -0.031261355 0.09469084 -0.009459921
0003c0 5c d7 40 3d 0c bf ef 3d 12 f3 12 be 94 3d 59 3d
       0.047080383 0.11706361 -0.14350536 0.05303724
0003d0 61 7e c3 bd 68 f7 ca bd ac ff 9b 3d b2 e3 0f bd
       -0.09545589 -0.0991047 0.07617125 -0.035129257
0003e0 70 f3 b1 3b 5a 25 4f bd 60 8b 46 bc 20 69 29 3b
       0.0054306313 -0.05057273 -0.0121181905 0.0025850013
0003f0 82 0b 07 bd 4d 7e 36 3d b2 64 fb be e6 d6 9b 3e
       -0.03296996 0.044554044 -0.49100262 0.30437392

bias f4 [64]
000000 6a 17 42 3c 54 46 46 3c 75 f2 a2 3d 81 64 b9 3a
       0.011846403 0.0121017285 0.07956401 0.0014144332
000010 8c c7 a0 3c 7e 3e 22 3d ec c8 2b 3e 9b 40 8b 3c
       0.019626401 0.03961038 0.16775864 0.01699858
000020 c5 87 8c 3e 26 78 62 be a4 07 88 bd cc bc 9e 3c
       0.27447334 -0.22116145 -0.06642082 0.019377135
000030 13 e9 21 3d 48 02 7e 3d 2b 00 39 be 23 4c e1 be
       0.039528918 0.062013894 -0.1806647 -0.440034
000040 70 45 70 be 99 c1 0a 3d 6d 61 ce be 0b 8a d4 3d
       -0.23463988 0.033876035 -0.40308705 0.10377892
000050 a8 89 3a be c0 03 a6 be 9e ad 8f be 04 a0 a2 be
       -0.18216574 -0.32424736 -0.28062147 -0.31762707
000060 ca 5b 51 3d 79 92 2f 3d 9b b1 3d 3e 7b 2f 80 be
       0.051112927 0.042864297 0.18524782 -0.25036225
000070 c0 64 c4 bc 79 37 39 bc d0 f2 94 be 7d 6c 6e 3d
       -0.023973823 -0.01130473 -0.290915 0.05820893
000080 6a 4e a2 be 08 9c 5d bd 7e 43 8b 3c 1b d5 81 be
       -0.3170045 -0.05410388 0.016999956 -0.253579
000090 66 18 f0 bd 37 1d 6d 3d c1 b5 bf 3d 8c f8 2f 3d
       -0.11723404 0.05788919 0.09360839 0.042961642
0000a0 5f 0f 88 3e 26 b7 57 be 2f 20 4f 3d c8 d2 7f be
       0.26574227 -0.2106596 0.050567802 -0.2498275
0000b0 c3 1d 89 be 72 e8 95 3b 7e af 70 be 67 01 1e 3d
       -0.2678052 0.004574829 -0.23504445 0.038575556
0000c0 ba c5 9e be 6d 99 b6 be 3f 60 86 3c 61 fa ec 3c
       -0.31010228 -0.3566393 0.016403316 0.028927984
0000d0 9e 64 2d be 0a b6 da be 27 48 08 3e 80 64 24 be
       -0.16932914 -0.4271701 0.13308774 -0.16053963
0000e0 83 8a 6f 3e d0 28 41 be 50 c6 a9 3c 77 73 94 be
       0.23392682 -0.18863225 0.020724446 -0.28994343
0000f0 61 26 47 3e af 2d 45 3d 30 f1 27 3d ad ac 80 3d
       0.19448234 0.04813927 0.0410015 0.06282935

weight f4 [64, 64, 3, 3]
000000 37 05 c6 3c a8 3f 65 3d 9b bf 80 ba 78 29 99 3d
       0.024172409 0.05596891 -0.0009822728 0.07478613
000010 11 59 03 be 3f 9d 84 3c ff 6f 3a bd ef 7e 40 bd
       -0.12826945 0.016188262 -0.045516964 -0.046996053
000020 b0 da c4 3c e8 f3 1e bf 9a dd 43 be 6f 07 23 3e
       0.02403006 -0.6209092 -0.19127503 0.15920804
000030 cb 7d ae 3d 15 50 c2 bd 31 b5 f8 bd bb 11 75 bd
       0.08520087 -0.09487931 -0.121439345 -0.059831362
000040 f3 39 d0 3e 83 95 14 3f a5 e6 99 be eb 19 35 3e
       0.40669212 0.58040637 -0.3005878 0.17685668
000050 c6 36 10 bd 84 95 af 3e 42 b8 05 3e a9 d4 b8 3c
       -0.035208486 0.3429376 0.1305857 0.022562342
000060 84 a8 b1 3e 26 bd 42 3e 4a db 20 3e 21 b2 48 3e
       0.3469888 0.19017467 0.15708652 0.19599201
000070 f1 77 89 3e a1 05 6c 3e aa 35 8d 3e 77 d4 88 3e
       0.2684932 0.23049022 0.27580005 0.26724598
000080 68 8c 92 3e bd 87 b5 3d 59 26 7a 3e c7 22 4b 3e
       0.28622746 0.08863781 0.24428691 0.19837485
000090 65 4c df 3e 63 e6 a8 be dd cd c0 be 5b b9 99 be
       0.43612972 -0.3298827 -0.3765706 -0.30024227
0000a0 c9 48 69 3e 32 ae 33 be 1b 9c 13 be 1b f7 ad 3d
       0.22781672 -0.17546919 -0.14415018 0.08494397
0000b0 39 63 27 be f5 28 d2 bc 54 a7 2f be 51 6c 03 be
       -0.16346444 -0.025654295 -0.17153674 -0.12834288
0000c0 72 e7 ea 3d 71 3e 1c 3e ae 2d 4e 3d 2c fe 32 3c
       0.11469926 0.15258195 0.050336532 0.010924857
0000d0 00 e4 de 3c b9 bc 44 bc 37 f7 45 bf ee 7b 2f bf
       0.027208328 -0.012007886 -0.77330345 -0.68548477
0000e0 77 de 26 bf c0 a9 ab bd 7b 7d 3c bd a5 a2 8b bd
       -0.65183204 -0.083819866 -0.046018105 -0.06818131
0000f0 ee 71 ea be 63 8d 9c be 3b 36 21 bf 37 21 d3 bd
       -0.45790046 -0.3057662 -0.62973374 -0.103090696
000100 c8 7b 44 bd 00 d5 77 3d fc 4a 19 bd 3d 13 cc bd
       -0.04796961 0.060505867 -0.037425026 -0.09964607
000110 af 6d d1 3d 08 ca 6b 3c e4 64 97 3d af 9c 78 bd
       0.102259986 0.01439143 0.0739229 -0.0606963
000120 7f 1c 86 3d 34 44 04 3e 47 6b ba bd 07 fb c8 bc
       0.06548404 0.12916642 -0.09102493 -0.024533762
000130 93 a6 cf bd 3a e4 bb bd f6 fc 2e be 81 22 89 bd
       -0.101391934 -0.0917439 -0.17088684 -0.06696034
000140 82 2c ab be ba e7 3b bc 06 3b 51 3d f3 0b ea bc
       -0.33432394 -0.011468822 0.05108168 -0.028570151
000150 de ef 64 3b 72 00 ad 3c d9 1a 19 3c 05 e0 48 3d
       0.003493301 0.021118376 0.00934478 0.049041767
000160 3e ec 6f bc 9a cc 82 bd 7e 27 52 3d 36 ea 90 3d
       -0.014643727 -0.06386681 0.051307194 0.07075922
000170 bc ed 24 3d 50 4d 63 bd 60 8b f7 3c f7 40 4f bd
       0.040265784 -0.055493653 0.030217826 -0.050599065
000180 04 6d 1d bd 4e 6c 43 3d 64 df 64 3d 02 e2 8a be
       -0.038434044 0.04771071 0.055877104 -0.27125555
000190 de 20 9e be dd 3b 98 3c c1 7f 11 bd 56 b2 ca bc
       -0.3088445 0.018583233 -0.035522226 -0.02474324
0001a0 82 b8 1d 3e b0 27 8d 3e e0 53 5c 3e c0 eb 83 bd
       0.15402415 0.27569342 0.21516371 -0.0644145
0001b0 0e 9e 35 be 84 d9 ce bd 85 80 c0 bc b7 81 9d 3d
       -0.17736074 -0.101000816 -0.023498783 0.07690757
0001c0 4b 00 70 3d 25 68 05 bd b3 f9 d3 3c 1c db 0d 3d
       0.05859403 -0.032570023 0.025875902 0.034632787
0001d0 49 64 41 3d 28 2c 89 bd f4 59 bf 3d be b5 22 bc
       0.04721478 -0.06697875 0.09343329 -0.009931026
0001e0 21 11 ba 3d 63 04 ee 3d a1 c5 09 3d 11 4a 93 bd
       0.09085298 0.116219305 0.03363574 -0.071918614
0001f0 56 28 c6 bd 20 ff f5 bd a8 33 4d bc 6a e9 3e 3d
       -0.09675662 -0.12011552 -0.012524523 0.04660932
000200 ac 38 32 bc ef 94 6a bd 2c 06 b1 bc 2e 7f 62 bd
       -0.010877769 -0.05727094 -0.021609388 -0.05529707
000210 50 2e 68 bc d4 21 74 3d 7c 04 8a 3c cb d8 7f be
       -0.014171198 0.059602574 0.016847841 -0.24985044
000220 61 c8 69 be b2 b4 19 be ca 70 8e be 39 c9 50 be
       -0.22830345 -0.15010336 -0.27820426 -0.2038926
000230 a6 51 5d bd d3 04 16 3e 5f 42 79 bd 78 10 d0 bd
       -0.054032944 0.14650278 -0.060854312 -0.10159391
000240 14 de 35 3d ac cb 1e bc c4 10 df 3c 1a 82 c6 bc
       0.044401243 -0.009692114 0.027229674 -0.02423196
000250 e8 2c 2d 3d 04 f0 53 bc 84 37 40 bd 6a 1b 0e 3d
       0.042279154 -0.012935642 -0.046927944 0.034694113
000260 6c 91 85 3d 9a 43 67 3c a7 93 48 3e 00 8d c1 3c
       0.06521878 0.014115239 0.19587575 0.023626804
000270 83 29 ab bd 7e 44 49 3d d1 4a dd 3d 20 99 93 3d
       -0.08357527 0.049137585 0.10805286 0.07206941
000280 5b 80 6b 3e 06 7c 94 3d ae 16 2a bd b2 ec ae 3d
       0.22998182 0.07250218 -0.041525535 0.0854124
000290 44 a3 8b be cc de b1 bd 26 6d 96 bc f1 c9 41 be
       -0.27273 -0.08685073 -0.018362593 -0.18924691
0002a0 01 27 73 3d 8b bc 56 3e 06 41 32 bd f5 a6 15 3d
       0.05936337 0.20970361 -0.043519042 0.036536176
0002b0 31 e9 a8 3c cf 6b 52 3d 06 7d 5f 3e 59 d9 87 3e
       0.020619007 0.051372346 0.21825036 0.2653301
0002c0 7e 34 91 bd 31 25 5c be 05 fa 3d be ab 7c b0 bd
       -0.0709009 -0.21498562 -0.18552406 -0.086175285
0002d0 4c 60 5f bd f0 ea 85 bb 74 c4 5e 3d 32 e7 43 3d
       -0.054535195 -0.0040868446 0.05438657 0.047827907
0002e0 2b 2e 8a bd 78 70 7e 3d fa de 88 3d b4 63 66 bd
       -0.06747087 0.062118977 0.066831544 -0.056247428
0002f0 22 8d 84 bc f8 59 72 bd 10 80 6f bd 48 95 33 bd
       -0.016180579 -0.059167832 -0.05847174 -0.043843538
000300 c8 f6 7f 3d 98 96 05 bc 48 9a 0e bc 12 61 31 3d
       0.06249121 -0.00815358 -0.008703776 0.043305464
000310 68 19 4e bc bf eb 47 bd dc c4 6b 3d 80 2d 5f bd
       -0.0125792995 -0.04880881 0.057560787 -0.05448675
000320 e8 0a 77 bc 34 8d e9 3c c1 e7 1d bd 56 57 5b bd
       -0.015078284 0.028509714 -0.038551096 -0.053550087
000330 a6 f3 88 bc 9c 35 61 3d a0 c8 ad bc 9e 83 24 bd
       -0.016717743 0.054982767 -0.02121383 -0.040164582
000340 20 0b cb bb 7c 24 8d 3c 1c ce ce 3c 8c 2f a0 3c
       -0.0061963946 0.017229311 0.025244765 0.019553922
000350 e0 9b f5 3c 80 76 5a 3c 98 2d 0c 3c 00 b2 91 bc
       0.029981554 0.013333917 0.008555792 -0.017785072
000360 57 a1 bd 3d ec 3c 99 3c 0a f5 b0 bd f4 93 9e bd
       0.09259289 0.018705808 -0.086404875 -0.077430636
000370 fa 3f 5e 3e c5 1b 16 bd 0b e7 44 bd 02 7a 75 bd
       0.21704093 -0.036647577 -0.048071902 -0.05993081
000380 9e d5 5c bd 7f c2 30 3e 7c 0b 7a 3e b7 18 31 bd
       -0.05391466 0.17261694 0.24418443 -0.04323646
000390 a8 ea 7e 3e a6 a2 94 3e a3 6a f0 3c 14 29 8f 3c
       0.24894202 0.2903034 0.029347723 0.017475642
0003a0 73 5f 7a 3e 6a 88 37 3d 60 a7 a8 3d 83 69 d7 3b
       0.24450473 0.04480783 0.08235049 0.0065738573
0003b0 11 8a 03 bd 44 84 69 3e 1e 2c 7f 3e 2e b3 b9 3e
       -0.032114092 0.22804362 0.24919173 0.36269516
0003c0 16 b8 70 be 13 c0 2b be 12 27 3a be 0a cf 50 3d
       -0.23507723 -0.16772489 -0.18178967 0.050978698
0003d0 2f 20 15 bd ec 26 8d 3c 0e 4e 00 3d da cf 2f bd
       -0.036407646 0.017230473 0.03132444 -0.042922832
0003e0 00 81 6a 3d 53 65 91 bd c2 34 38 3d fa 15 14 3d
       0.05725193 -0.07099404 0.04497219 0.03615377
0003f0 b4 8b 3e 3d 2c f9 24 b9 11 e1 84 3c d7 26 13 3e
       0.04651995 -0.00015733083 0.016220601 0.14370285

bias f4 [64]
000000 7e d2 a3 bc 13 33 84 be 42 ea b6 3e bf b0 88 bc
       -0.019997831 -0.25820217 0.357256 -0.016685842
000010 b3 76 6e 3e ac 91 0b 3e 5c ad 8e be 4d 11 2f be
       0.23287468 0.13629788 -0.27866638 -0.17096443
000020 1e ad 8a be c6 b2 71 bd 62 72 00 3e 5b 04 b0 3e
       -0.27085203 -0.059008382 0.12543634 0.34378323
000030 f2 a6 81 3e 0a 8d 46 bd 68 77 c3 3d b7 a3 4e be
       0.25322682 -0.04847435 0.09544259 -0.2017964
000040 56 67 a7 be 1b 67 3f be 91 71 89 3e 19 1d e3 3d
       -0.32696027 -0.18691675 0.26844457 0.11089534
000050 29 c2 23 bf 65 5c 7d be a0 d6 8d bd dd fe 8c 3e
       -0.6396814 -0.24742277 -0.06925702 0.27538195
000060 9e 8c 7f be 03 be 66 be 0e 41 3d 3e 34 8d 8b 3e
       -0.24955985 -0.22533421 0.18481848 0.27256167
000070 f3 ef 75 be e4 c7 a1 3e ce 8f 28 3d 02 c9 1d bf
       -0.24017315 0.31597817 0.041152768 -0.6163484
000080 f8 ce 7c be e2 e3 c1 3d 72 e3 32 be fd 97 59 3e
       -0.24688327 0.09467293 -0.17469576 0.21249385
000090 aa 50 1d bc fc 48 7b bd aa 70 c0 3d 77 cd 98 3e
       -0.009601751 -0.0613489 0.09396489 0.29844257
0000a0 29 7b 5b 3e 5d b8 85 bc 56 42 37 bf 4c 50 f8 be
       0.214337 -0.016323263 -0.71585596 -0.48498762
0000b0 91 65 f9 3d b4 c6 77 be be 33 7f 3e 54 e7 d3 be
       0.121775754 -0.24196893 0.24922082 -0.41387427
0000c0 e3 15 65 3e 04 ae 0b bf 42 7b fa bd ef d9 a3 be
       0.2237163 -0.545624 -0.12230541 -0.32002208
0000d0 50 92 00 be f2 00 e1 be b3 0b fa 3d 5d 04 10 3f
       -0.12555814 -0.43946034 0.12209263 0.5625666
0000e0 e1 15 2c 3d ca ff cb 3e 90 da 6d be 7b a5 b3 3e
       0.042013053 0.3984359 -0.23227906 0.3508719
0000f0 9e b6 f7 bd 7b b3 87 3e 7f 18 5b 3e 6d ff 4a 3e
       -0.12095378 0.2650412 0.21396063 0.19824

weight f4 [64]
000000 ba b9 32 3f f9 f3 b0 3e 40 e7 20 3f d6 a6 84 3e
       0.69814646 0.34561136 0.6285286 0.25908536
000010 26 f8 a3 3e 7c 2b ab 3e 8f 0c 07 3f 9d d4 b7 3e
       0.3202526 0.33431613 0.5275354 0.359044
000020 eb 09 bb 3e 10 15 a9 3e 8b bb 96 3e a6 74 c9 3e
       0.36531004 0.33023882 0.2943996 0.39346808
000030 c8 46 a2 3e 2b 6a a9 3e 9f 28 26 3f 8e 8c df 3e
       0.31694627 0.33088812 0.6490573 0.43661922
000040 31 e2 c8 3e 91 06 9c 3e 73 45 8c 3e 6c 95 8e 3e
       0.3923507 0.3047376 0.27396736 0.27848375
000050 f4 55 61 3e 8a 2b 0b 3f 89 82 e8 3e a6 ba 91 3e
       0.22005445 0.5436331 0.4541209 0.28462714
000060 44 69 4f 3e 92 ad a2 3e 2b cd b6 3e 1f 31 a4 3e
       0.20255 0.3177305 0.35703406 0.32068726
000070 d9 17 d3 3e f4 be ae 3e 09 00 c5 3e c8 e6 b5 3e
       0.41229132 0.3413006 0.3847659 0.35527635
000080 c1 d3 a2 3e 24 bc aa 3e 27 bb 25 3f a7 b8 14 3f
       0.3180218 0.33346665 0.64738697 0.5809426
000090 eb e6 c7 3e 4a 22 d2 3e 5c d4 6c 3e c1 24 05 3f
       0.39043364 0.41041785 0.23127884 0.52009207
0000a0 5c 9f 9b 3e 7d da d4 3e da 7e a8 3e 57 c2 98 3e
       0.3039502 0.41572943 0.3290928 0.2983577
0000b0 f7 84 ad 3e 35 76 bf 3e b8 6b fa 3e bd 9a a6 3e
       0.33890507 0.37394872 0.48910308 0.3253993
0000c0 90 47 bd 3e ea f3 09 3f 6f de 92 3e 24 67 29 3f
       0.3696866 0.5388781 0.28685328 0.66173005
0000d0 8e ee c1 3e b2 0e 94 3e 4e ca ad 3e 0c 28 09 3f
       0.37877315 0.28917462 0.3394341 0.5357673
0000e0 b4 d0 6d 3e 9e 8f b1 3e 84 3d 0e 3f 2e ad c6 3e
       0.23224145 0.34679884 0.55562615 0.38804
0000f0 84 1e 82 3e 53 60 9d 3e 8d 2f d6 3e 8e 75 a4 3e
       0.25413907 0.30737552 0.41833153 0.32120937

bias f4 [64]
000000 14 72 e8 be 54 60 f7 be 22 fa b6 be 87 1d 76 3d
       -0.45399535 -0.4831568 -0.3573771 0.060086753
000010 fa b7 b3 bd 2e 40 8e bd 13 e4 f6 3c a7 32 ce be
       -0.08775325 -0.06945835 0.030138051 -0.4027302
000020 66 b9 e9 bd e6 2e 01 bf b7 71 8f be 2f 8f e1 be
       -0.11412315 -0.50462186 -0.28016445 -0.44054553
000030 1b d0 b0 be 52 5a ca be e1 0a 7d be 74 2e 59 be
       -0.34533772 -0.39522034 -0.24711181 -0.21209127
000040 83 0a ca be 75 4c 2e be 2c ed 84 be ea da 2c bd
       -0.39461145 -0.17021354 -0.25962198 -0.04220096
000050 a0 80 88 3e 0c 08 43 3d 1b a5 f6 3d 77 db df bd
       0.26660633 0.047615096 0.1204321 -0.109305315
000060 d8 2b 2e bf f7 4f 9d be 1d 6c 2d 3e f3 2a 21 bd
       -0.6803565 -0.3072507 0.16935773 -0.0393476
000070 ae b7 0a bf 83 ce 31 3d 1c 0f 2c bc d0 83 3b be
       -0.5418652 0.043409836 -0.010501649 -0.18312001
000080 4f 4b 3e be 83 6d a6 be 34 a0 8b bf c2 bc b8 be
       -0.18583415 -0.32505426 -1.0908265 -0.3608151
000090 33 e9 41 be 03 b5 69 be 85 1f 61 bd 56 e0 15 bf
       -0.18936615 -0.22822957 -0.0549617 -0.58545434
0000a0 07 a6 74 be 6e 13 90 be 47 49 e6 bd 14 6e 26 3d
       -0.2389146 -0.28139824 -0.11244445 0.040632322
0000b0 b9 d5 01 3e 5a fd 0d bf 8d 9b 16 bf 0d db 32 be
       0.12679185 -0.5546471 -0.588311 -0.17466374
0000c0 e3 8b fe be 3e 68 12 3e 5c 93 8f 3d eb 29 5c bf
       -0.497161 0.14297578 0.070105284 -0.8600146
0000d0 a7 d9 e1 3c c6 32 56 3e 6c 9c 9f be b4 5e 9e bd
       0.027569605 0.20917806 -0.31174028 -0.07732907
0000e0 db 60 19 3d 52 ab b9 bd 7b cb 74 be 37 b8 cf be
       0.037445884 -0.0906588 -0.23905747 -0.40570232
0000f0 36 fc 17 3d 5e 5d 11 3e aa 34 28 bf 78 7a bd be
       0.03710576 0.14195773 -0.6570536 -0.370075

running_mean f4 [64]
000000 99 3c 0d 3f ac 74 bb be 61 b0 bd 3c d9 0d b8 3e
       0.5517059 -0.3661245 0.023155393 0.35948065
000010 0a 6d 09 3f bf 0f aa bd 13 13 3d be 44 52 a2 3f
       0.53682005 -0.083037846 -0.18464307 1.2681355
000020 4a 00 82 bc 85 5d 93 bc 54 45 ba 3d 1f c9 56 3e
       -0.015869278 -0.01798893 0.090952545 0.20975159
000030 c4 10 3b 3e 29 f3 ae be 50 4f 17 be c1 4a 2a be
       0.18268114 -0.3416989 -0.14776349 -0.16630079
000040 1f fd 72 be 11 b0 ce be e8 31 4c 3e 17 3e 42 3f
       -0.2372937 -0.40368703 0.19940913 0.7587599
000050 51 11 0c bf aa 70 ad bf 8b 7a e0 3e d4 82 24 3e
       -0.5471392 -1.3550007 0.43843493 0.16065532
000060 cd 0a 84 bc 30 a9 32 3c 6c ce 8e 3f b4 c7 53 bf
       -0.016118431 0.010904595 1.1156745 -0.827266
000070 c4 66 81 bf d6 89 a3 3e 58 56 41 bc 01 10 a3 bf
       -1.0109487 0.31941098 -0.011800371 -1.2739259
000080 4b 33 ed be c4 04 8a bf 7a f1 b9 be 43 ff 01 3e
       -0.46328196 -1.0782704 -0.36317044 0.12695031
000090 07 3b 4a bf 93 44 24 bf 4e 11 eb 3e 73 ca fb 3d
       -0.7899632 -0.64167136 0.4591164 0.122944735
0000a0 75 3e 8c 3d 17 d3 95 3c 45 3f 34 bf 47 5d f3 3d
       0.0684785 0.018289132 -0.7040904 0.118830256
0000b0 e9 e5 55 3e fc d0 67 bf 11 be 95 3e 9e 41 21 bf
       0.20888485 -0.9055326 0.29246572 -0.6299075
0000c0 c4 a5 88 be bc 33 83 bf fb 9d cc bd 07 36 e0 be
       -0.2668897 -1.0250163 -0.0999107 -0.4379122
0000d0 19 56 13 be 37 3c 89 bf cd 61 97 3d dd ff ae 3f
       -0.14388312 -1.0721501 0.07391701 1.3671833
0000e0 c2 99 22 3e 33 d0 b1 3e 83 a6 8b 3e b0 3b 8d be
       0.15878966 0.34729156 0.27275476 -0.275846
0000f0 48 61 e2 be b9 59 74 3d 12 94 04 3c fa be c0 3d
       -0.44214845 0.05965588 0.008091943 0.09411426

running_var f4 [64]
000000 e6 63 c3 3d 2e 68 27 3d 95 98 04 3e 87 a7 90 3d
       0.095405385 0.040870838 0.1294883 0.07063203
000010 7b 98 3c 3d 33 91 97 3d 7b 5c 8a 3d fa ca 41 3d
       0.046043854 0.074007414 0.067559205 0.047312714
000020 c9 c5 89 3d 6b e0 34 3d 76 e5 7d 3c b3 a3 c2 3c
       0.06727178 0.044159334 0.015496602 0.023759698
000030 58 4e 19 3d 8d 0d 23 3d 92 a0 d7 3d 9a 76 1e 3d
       0.03742823 0.039807845 0.10528673 0.038687326
000040 45 d3 0f 3d 9e dd 3c 3d a2 4e 24 3d 86 48 aa 3d
       0.03511359 0.046109788 0.040114053 0.08314614
000050 bc 0e 4c 3d 58 09 b2 3d d5 79 b2 3d a1 a7 43 3d
       0.04981874 0.086931884 0.08714644 0.047767285
000060 5a dd 94 3c 36 7a 34 3d 25 9f 8a 3d f1 22 94 3d
       0.018171955 0.044061862 0.06768636 0.07233227
000070 d6 4b 94 3d ae 9b 1d 3d 2a 79 77 3d a6 f0 74 3d
       0.07241027 0.038478546 0.060418285 0.059799813
000080 ae a8 72 3d 12 79 c7 3d 10 2a 75 3d 1c 48 98 3d
       0.059242897 0.09739889 0.059854567 0.07435629
000090 c0 50 e2 3d 75 73 30 3d a3 d4 32 3d ff a8 45 3d
       0.11050558 0.04307886 0.043659817 0.04825687
0000a0 10 57 b1 3c a7 50 44 3d b5 f0 8a 3d b4 1f 50 3d
       0.02164796 0.04792848 0.067841925 0.050811484
0000b0 be 4f 97 3d 1b 41 a2 3d bc d6 5b 3d be de 66 3d
       0.073882565 0.07922574 0.053671584 0.056364767
0000c0 38 a9 77 3d 41 d9 a4 3c 24 58 65 3d a0 d4 6b 3d
       0.060464114 0.020123126 0.05599226 0.057575822
0000d0 ec 36 24 3d da d8 a1 3d 1b bb eb 3c d0 2c ff 3d
       0.04009144 0.07902689 0.028775742 0.12459719
0000e0 c7 41 e3 3c 6c 60 0d 3d cd 50 78 3d 98 23 54 3d
       0.027741326 0.034515783 0.060623933 0.051791757
0000f0 c8 81 3c 3d e3 03 63 3d 60 9d 71 3c 97 e4 9b 3c
       0.046022207 0.05542363 0.014746994 0.019029899

weight f4 [64, 64, 3, 3]
000000 d6 6c b7 3e 40 1d 9f 3d 6a 0d 49 3d bf b8 42 be
       0.35825223 0.07769251 0.04908506 -0.19015788
000010 66 c6 04 bd 14 58 a6 bd 68 b0 8f be e4 6e 9a be
       -0.03241577 -0.08122268 -0.28064275 -0.30162728
000020 d4 45 44 be 43 72 35 3d cc e2 0d be 99 4b d9 bd
       -0.19167262 0.04429842 -0.13856047 -0.10610122
000030 05 05 74 3d 05 86 08 be a6 da 24 bd 81 c7 14 3e
       0.0595751 -0.13332374 -0.040247582 0.1452923
000040 4c 6c 2e bd 9a 0d 33 be 5c 63 b1 3c bf 0e 2c 3e
       -0.04258375 -0.17485657 0.021653824 0.168025
000050 73 66 e6 bd 51 68 68 bd d6 1c 51 3e 7e 9c d0 bd
       -0.112500094 -0.05674011 0.20421156 -0.101860985
000060 51 a4 63 3e 52 83 40 39 b5 ae b7 ba a0 13 7a bd
       0.2223065 0.00018359468 -0.0014013859 -0.061053872
000070 35 3b 78 3e 54 14 a5 3d 4d 00 62 bd e7 e0 a4 be
       0.24241336 0.08060518 -0.055176068 -0.32202837
000080 ca 81 87 be 36 da 40 3c 56 6c f9 bc b1 65 c2 3d
       -0.2646621 0.011770776 -0.030447166 0.09492052
000090 35 87 92 bc 65 95 0c 3f d7 18 60 be 06 22 a9 3e
       -0.017886737 0.5491546 -0.21884476 0.3303377
0000a0 53 af 62 3e 12 8f 85 be e5 84 8e bd f8 7e 69 bd
       0.22137193 -0.26085716 -0.06958941 -0.057005852
0000b0 44 97 a5 bd 9a 65 6b bc 58 9b a9 3c 02 6e de bc
       -0.08085492 -0.014367485 0.020703956 -0.027152065
0000c0 0c e8 40 3e 9a da 88 bd 90 3c 61 3e e7 85 21 be
       0.18838519 -0.0668232 0.21995759 -0.15773736
0000d0 0f 7f 3b 3d 59 17 82 bd 05 a8 f1 3c d4 5b eb 3d
       0.04577547 -0.063521095 0.029499063 0.11492124
0000e0 20 bf 91 3d ad e4 bd bd 26 7d b3 bd 5f 67 21 be
       0.07116532 -0.09272132 -0.087641045 -0.15762089
0000f0 cd 4e 03 be 1e 1f 4a 3b e0 96 3e bd 5e eb c3 bd
       -0.12823029 0.0030841301 -0.046530604 -0.09566377
000100 71 c3 3e be c6 48 00 3e 6d 04 32 3d 8c 1d b8 3d
       -0.18629242 0.12527761 0.043461252 0.089900106
000110 17 c4 e7 be 4f e0 c4 3b e3 2e 05 3f bb c7 8d 3d
       -0.45266792 0.006008185 0.5202467 0.06922861
000120 80 af fc bd f2 0b ea bc 26 4b 27 3d fe 79 5a bc
       -0.123381615 -0.02857015 0.04084315 -0.013334749
000130 47 42 de bd 68 a7 12 3e 36 0e 7e be 9e b9 ae bd
       -0.10852485 0.14321673 -0.24810109 -0.085314974
000140 d8 f6 42 bd 01 8f 81 3e ef b4 ad 3e 6c 94 8e bd
       -0.04759869 0.25304416 0.33927104 -0.06961903
000150 eb ed 07 3e 72 0e 95 bf e4 57 93 3e b7 5a 81 3e
       0.13274352 -1.1645033 0.28777993 0.25264522
000160 b7 14 25 3f f5 5e b6 be 10 4c c7 bd 41 ba 46 bd
       0.64484733 -0.3561932 -0.09731305 -0.04851747
000170 f3 ef 7a 3e 42 27 ef bd 69 8c 04 be 18 8c 8e 3e
       0.24505596 -0.1167741 -0.12944187 0.27841258
000180 06 42 73 bd 93 e2 4c be a6 c9 88 3d 50 9e 87 3c
       -0.059389137 -0.20008306 0.066790864 0.016554981
000190 d8 43 ba 3e 33 94 09 bd 9b 46 c1 bd bb 06 95 bd
       0.36379886 -0.0335886 -0.09437295 -0.07276674
0001a0 1e bd 8d bb 09 ab af 3b 87 52 da bd 07 e3 11 3d
       -0.004325523 0.005360965 -0.10660272 0.0356169
0001b0 02 1d bd 3e e2 57 91 be 37 4d 3a be 1f 75 c0 3e
       0.36936194 -0.28387362 -0.18193518 0.37589356
0001c0 94 11 6e bd d7 59 07 be b1 45 65 3e 91 ce ec bd
       -0.058122233 -0.13217865 0.22389866 -0.11562837
0001d0 76 cd 2e be 8c 36 cc bd 48 68 c6 bd ae 7f a2 bd
       -0.17070565 -0.099713415 -0.09687859 -0.07934509
0001e0 05 fa 50 3d 3f 52 c7 3e 60 60 9a bb a9 61 b4 bd
       0.051019687 0.38929936 -0.004711196 -0.0880769
0001f0 44 8e 79 3d a4 94 23 be 7d 77 f5 be 4f 37 45 3d
       0.06092669 -0.1597467 -0.47942725 0.04814845
000200 8a 9f 37 3d 78 97 ba be 70 65 8f 3e 8a af 32 3e
       0.044829883 -0.36443686 0.28007078 0.17449775
000210 21 53 bc be 97 38 ed 3d c5 03 81 3d 23 28 aa 3d
       -0.36782172 0.11583059 0.06299547 0.08308437
000220 69 4f 8c 3d 04 79 f0 bb d9 d5 22 be de 3a 89 bd
       0.06851084 -0.007338645 -0.15901889 -0.06700681
000230 b7 8a 04 be 43 0e 8b 3e 2e 93 7a 3e 43 cd 0e be
       -0.1294354 0.27159318 0.24470207 -0.13945489
000240 d3 be bb bd 54 31 da 3e 66 73 2d 3e f4 04 58 3d
       -0.09167256 0.4261576 0.16938552 0.0527391
000250 6a ea 62 be 42 d3 e5 3d 15 27 09 be cd 49 53 be
       -0.22159734 0.11221935 -0.13393815 -0.20633622
000260 f0 39 76 bd d1 de ad bc 4b 13 df bd 5b e6 d6 3d
       -0.060113847 -0.021224411 -0.10892352 0.104931556
000270 a9 91 1f be 06 86 37 be 29 5e 74 3e 73 ee ff bd
       -0.15582909 -0.1792222 0.23864044 -0.124966525
000280 de 91 0a be 16 d3 31 3e 57 08 10 3d 4c e0 be 3c
       -0.13532206 0.17365679 0.035164203 0.023300312
000290 1c 3b d3 3d 35 75 6a bd 25 3f ff bd c2 62 3a 3d
       0.103140086 -0.057240684 -0.12463216 0.04550434
0002a0 d9 c1 00 bd 2b 98 da 3d 69 9f 71 bd 38 52 2c bd
       -0.031434868 0.10673555 -0.058989916 -0.042070597
0002b0 c2 16 c1 3c 84 38 5a 3d e9 9b cf bd 9c 31 fb bc
       0.023570422 0.053276554 -0.101371594 -0.030663304
0002c0 b9 c9 cd be c7 93 73 bc b2 c8 44 bd fa 9f d9 bb
       -0.40192965 -0.014866776 -0.04804296 -0.006641385
0002d0 f5 91 2c 3e 96 8d c8 be dd 63 1a 3d 48 d5 d5 bd
       0.16852553 -0.39170521 0.037692893 -0.10441071
0002e0 97 ae 57 3e df dd 21 be 2a e0 45 be 9b 65 f8 bc
       0.21062694 -0.15807293 -0.19323793 -0.030321887
0002f0 a9 5d 75 bd 3a 71 12 3d 69 b5 31 3e c6 20 39 3e
       -0.059903774 0.035752513 0.17354359 0.18078908
000300 06 69 cc 3d ea d6 cf bc 77 0e cb be 41 e1 11 be
       0.09980969 -0.025371034 -0.39659473 -0.14246084
000310 54 8c 5e bc 02 44 d4 3d 3d 4f 28 bb f7 44 c1 be
       -0.0135832615 0.10364534 -0.0025681995 -0.37747929
000320 da 95 74 3e 9a 81 d3 3d c9 54 8e 3e 3e 61 ff bd
       0.23885289 0.10327454 0.2779906 -0.12469719
000330 06 16 5a 3e 9e f4 8c bd 08 d1 9f bc 65 ee a7 bc
       0.21297464 -0.068825945 -0.019508854 -0.020499418
000340 4e 6f cc bd 61 14 e6 bd 08 38 5f be d2 a1 5e bc
       -0.09982167 -0.11234356 -0.21798718 -0.013588386
000350 63 2c 0a bd 63 51 55 3e ee 01 02 3e 33 19 47 be
       -0.033733737 0.20831828 0.12696049 -0.19443206
000360 65 a8 be bc ed de fe 3d 6b f4 c7 bd 72 33 11 be
       -0.023273656 0.124448635 -0.09763416 -0.14179781
000370 6d 34 ba 3a 6b 01 2c 3e 51 57 d3 3d bf 6b f7 bc
       0.0014206298 0.16797416 0.10319389 -0.030202745
000380 4d 23 3b 3c 2b 21 e1 3d 12 32 bc 3d 91 84 89 3e
       0.011421991 0.109926544 0.09189238 0.26858953
000390 17 13 61 3d 43 81 22 be a5 2a 2c be f0 83 8d 3d
       0.054949846 -0.15869622 -0.16813143 0.06909931
0003a0 12 48 30 be 53 4d 24 3d 06 63 ca 3d 57 d1 14 3e
       -0.17214993 0.040112805 0.098821685 0.14532982
0003b0 24 a3 d3 3d 55 4f a3 3c ce db 60 3d 8a 6d c3 3c
       0.10333851 0.01993529 0.054897122 0.023855943
0003c0 6d a2 b9 bc 17 45 0f 3b b2 61 aa 3d 40 21 ab be
       -0.022660458 0.002186125 0.08319415 -0.33423805
0003d0 c8 63 a6 bd 1c 21 97 bd 47 f6 9c bd d4 e9 b1 be
       -0.081245005 -0.07379362 -0.07664161 -0.3474871
0003e0 b5 c6 1a 3e 64 3e 09 be 16 e9 a8 bb 33 e5 1a be
       0.15114863 -0.13402706 -0.005154739 -0.15126495
0003f0 aa bd 36 be de 13 34 be 52 f1 0f be e1 22 49 be
       -0.17845789 -0.17585704 -0.140569 -0.19642211

bias f4 [64]
000000 4c 4c e0 3e 91 94 82 be 61 e6 18 3e 56 9d 3c be
       0.4380821 -0.25503972 0.14931633 -0.18419394
000010 9d 52 1a bd 2e af b4 be 34 7c 54 3d 14 22 ad ba
       -0.037676442 -0.35289901 0.05187626 -0.0013209009
000020 c1 dc 87 be 87 8f 16 3e 47 98 32 bd b6 5f fa 3d
       -0.2653561 0.14703189 -0.043602254 0.12225287
000030 20 8c 3f bd f2 ba db 3d 5d 35 8f 3e c5 e1 55 bd
       -0.046764493 0.10729016 0.279704 -0.052217264
000040 02 26 b1 3e 11 a4 0e be fe 2c a9 3c 12 75 89 bd
       0.3459931 -0.13929774 0.020651337 -0.067117825
000050 68 13 62 be 3e ce e7 3d da 4a 2f be 8f 9d 18 3e
       -0.22077715 0.113186345 -0.17118397 0.14903854
000060 ba f2 a5 3e f8 4f d3 3d 42 8c 78 be b0 8d 83 bd
       0.32411748 0.10317987 -0.24272254 -0.06423509
000070 9b de 48 3c 35 7d 5f 3d 08 49 3d bd 2c 4c 8b be
       0.0122601045 0.054562766 -0.046212226 -0.27206552
000080 22 f4 92 be 2c cd b2 3d 20 f8 f2 be b3 98 5b be
       -0.28701884 0.0873054 -0.4745493 -0.21444969
000090 4f 45 68 3e 84 a8 9b bd 74 3e 5a 3e 60 31 16 3e
       0.22682689 -0.07600501 0.21312886 0.14667273
0000a0 8f 70 23 3e 46 11 2a be 9e 90 67 be d6 ee 0b bf
       0.15960906 -0.16608152 -0.22613761 -0.5466131
0000b0 ec 74 20 bc 4d cb 85 3d ab 7f 2a be 99 3d 3f 3e
       -0.009793501 0.06532917 -0.16650264 0.18675841
0000c0 e4 36 aa 3d 57 56 02 bf a8 1d c3 bd 4f f5 25 be
       0.08311251 -0.50912994 -0.09527141 -0.16206859
0000d0 c3 bf 1d be f9 88 4e be 76 bf b5 be c9 e3 52 be
       -0.15405183 -0.20169438 -0.35497636 -0.20594706
0000e0 f1 e0 fa bd 5e 42 e1 be 4a 0f 61 3e 57 71 c4 3e
       -0.122499354 -0.43995947 0.21978489 0.3836772
0000f0 b1 0b 06 3e 52 ac c4 3d d7 e2 3f be a6 e8 83 3e
       0.13090397 0.0960318 -0.18738876 0.25763434

weight f4 [64]
000000 a3 09 19 3f a7 32 ed 3e 9e 56 07 3f f4 2e a8 3e
       0.5978033 0.46327707 0.5286654 0.32848322
000010 8e 0d 2c 3f 19 c5 ee 3e 9f 5c 9d 3e ce 72 3d 3f
       0.6720818 0.4663475 0.30734727 0.74003303
000020 05 c4 1e 3f 91 82 03 3f 58 c6 3d 3f d8 ed b4 3e
       0.6201785 0.51371104 0.74130774 0.3533771
000030 f8 d8 2c 3f 13 2e 55 3f 75 c7 b6 3e 75 63 9b 3e
       0.6751857 0.8327343 0.3569905 0.30349317
000040 7d 0a db 3e 21 4a 24 3f 2d 95 a8 3e f9 47 bb 3e
       0.4278144 0.6417561 0.32926312 0.36578348
000050 23 02 b5 3e 82 2f a6 3e 85 0a 9f 3e 8a 72 c7 3e
       0.35353193 0.3245812 0.31062713 0.38954574
000060 30 2f 03 3f 71 eb 1a 3f 99 50 97 3e 20 ed 39 3f
       0.5124388 0.60515505 0.2955368 0.7262745
000070 62 c5 15 3f aa d3 f1 3e f8 f9 fb 3e ee a0 db 3e
       0.5850431 0.472318 0.4921415 0.42896217
000080 61 2e e4 3e 21 03 c3 3e aa 21 b8 3e 1c 7f e9 3e
       0.44566634 0.38088325 0.35963184 0.4560479
000090 be 94 c2 3e 70 8a 24 3f 34 87 03 3f ba 4e 25 3f
       0.38004106 0.6427374 0.5137818 0.6457325
0000a0 e9 42 8f 3e 24 b5 e3 3e a2 f1 c3 be 1e dc 1b 3f
       0.27980736 0.44474137 -0.3827029 0.6088275
0000b0 af 78 f2 3e 23 22 26 3f 7a e4 3f 3f aa c9 bc 3e
       0.473577 0.6489584 0.74958 0.36872607
0000c0 bc 6b 2f 3f 6f d8 be 3e 41 2b 07 3f f3 f0 a3 3e
       0.68523765 0.372745 0.52800375 0.32019767
0000d0 5b d1 2f 3f 7a b5 37 3f 9d 8d cb 3e 16 37 1f 3f
       0.68678826 0.71761286 0.3975648 0.6219343
0000e0 3a d3 be 3e 53 82 f5 3e 38 45 ab 3e 9f 6b 30 3f
       0.37270528 0.47950992 0.33451247 0.68914217
0000f0 8f 59 50 3f 5d 39 ab 3e 6a 5f 30 3f 95 d9 12 3f
       0.81386656 0.33442202 0.6889559 0.57363254

bias f4 [64]
000000 e6 e4 80 bf 36 94 3e 3e 02 21 79 be d3 6c 90 bd
       -1.0069854 0.18611225 -0.24328998 -0.070520066
000010 5c b5 3d be 99 12 19 bf b8 24 5d 39 9d 64 8b be
       -0.18526214 -0.59794 0.00021089881 -0.272252
000020 44 2b b8 be ca 27 2a bf 3d fe b3 bd b3 8f 82 be
       -0.3597051 -0.66466963 -0.087887265 -0.2550026
000030 73 64 24 be 19 8e 17 bf b9 d0 f3 bc 27 45 fc bd
       -0.16053943 -0.592012 -0.029762613 -0.12317877
000040 47 bb d6 be d1 24 08 3e de c5 93 3d 4f a0 a1 3c
       -0.41939756 0.13295294 0.072154745 0.019729761
000050 95 5c 6a be 5d 1a a6 3e 09 9b 12 3f fb dd 8b bd
       -0.2288688 0.3244199 0.57267815 -0.06829449
000060 f1 e1 3d 3d 7c 61 36 bd 50 88 49 3e 8b f3 98 be
       0.046358053 -0.044526562 0.19680905 -0.2987331
000070 4b f2 f5 be c3 e2 58 be 9b 75 39 bf 9e e1 77 be
       -0.48036417 -0.21180253 -0.72445077 -0.2420716
000080 8e 6a c1 be a7 e4 9c bd f3 14 a5 be ef 78 04 3d
       -0.37776607 -0.076607995 -0.32242545 0.032341894
000090 3b b8 07 3f 83 93 8a be 88 d2 32 bd 85 db 95 bf
       0.5301549 -0.27065668 -0.04365781 -1.1707617
0000a0 66 a8 85 3e 2e 91 dc be af 46 8c be ad 98 d4 3d
       0.2610504 -0.43079513 -0.27397677 0.10380683
0000b0 7f 1f a6 be 89 e8 7d bf 1d 90 59 be 99 8c 7b 3e
       -0.32445905 -0.99182945 -0.21246381 0.24565352
0000c0 29 3e dd be 53 0c 77 be 86 51 be be 3d 2e aa bd
       -0.43211487 -0.24125795 -0.37171572 -0.083096005
0000d0 07 bb a2 bc b3 43 11 bf 96 6a ad be 53 9c ff bd
       -0.019864572 -0.56743926 -0.3387038 -0.12480988
0000e0 2d a6 c1 be d5 1e 84 bd be 7d 59 be f2 8e 00 bf
       -0.37822095 -0.06451193 -0.21239373 -0.5021812
0000f0 47 0d fd bd 74 3d 39 be 2b a6 f8 be a7 72 1d bf
       -0.12356048 -0.18089849 -0.48564276 -0.6150307

running_mean f4 [64]
000000 cd 06 44 3e 50 32 cc bf 8d 88 91 bf 11 89 d6 bd
       0.1914322 -1.5952854 -1.1369797 -0.10475362
000010 53 b3 14 bf 83 1c 85 bf 94 f1 ef 3f 5a b6 28 bf
       -0.5808613 -1.0399326 1.8745599 -0.65903246
000020 ae 59 88 bf 2a b2 b2 bf 1d 33 c5 bf ea c8 55 bf
       -1.0652368 -1.3960621 -1.5406224 -0.83509696
000030 0c fe 14 bf 24 10 58 bf 5f 54 48 3e ea d0 a9 3e
       -0.58200145 -0.8439963 0.19563435 0.331672
000040 36 44 ad be 8d 25 8f bf b2 db 35 be 7e 24 18 3f
       -0.33841103 -1.1183335 -0.17759588 0.5943068
000050 90 48 1d 3f d6 aa e7 3e 19 6e 66 bf 7f 8c 22 3e
       0.61438847 0.45247525 -0.90011746 0.15873908
000060 57 ff 80 bc 52 12 d1 3f 99 f6 18 bf 7b 04 88 bf
       -0.015746756 1.6333716 -0.5975128 -1.0626367
000070 10 71 8f be 6a 1e 8d bf 19 cb 75 3f 64 58 9f bf
       -0.28015947 -1.1024907 0.9601303 -1.244885
000080 9e 83 fd 3d af c0 49 bf a7 d1 e9 3e 8c e5 cc be
       0.123786196 -0.78809637 0.45667765 -0.4001888
000090 fd f3 2c 3e 58 bf 55 bf c9 e6 00 40 59 89 1e bf
       0.16889949 -0.8349509 2.014086 -0.61928326
0000a0 bb 91 5c bf e3 81 b3 3f 22 f4 8f 3e c2 74 a8 3f
       -0.8615987 1.4024013 0.28115946 1.3160632
0000b0 7f 2f 52 bf 62 54 a4 3f a3 5a 22 be c8 4d 89 bf
       -0.82103723 1.2838252 -0.15854888 -1.0726862
0000c0 00 8f 7e bf 24 04 e1 bf 03 f7 71 bf 88 d4 15 bf
       -0.9943695 -1.7579389 -0.94517535 -0.5852742
0000d0 72 68 f6 bf 2e fc 08 3f b7 f3 aa be 8c 05 b7 be
       -1.9250624 0.53509796 -0.33389065 -0.3574642
0000e0 d2 1d 09 be d0 b3 b9 bf 91 f5 99 be 31 93 32 bf
       -0.13390282 -1.4508 -0.30070165 -0.69755846
0000f0 64 3a ba 3f f9 9a b7 3e 32 8b 99 3e 40 ab 01 3f
       1.454907 0.35860422 0.2998901 0.5065193

running_var f4 [64]
000000 47 1c 76 3e 58 76 6f 3f ac bd 08 40 4a 1e 6b 3f
       0.24034224 0.93539953 2.1365767 0.9184309
000010 1f 41 f2 3f e8 e9 80 3f 0a 48 1f 3f b3 e8 a5 3f
       1.8926123 1.0071383 0.622193 1.2961639
000020 82 0c 80 3f 6d ba 73 3f 92 6f be 3f ce 2f bb 3f
       1.0003817 0.9520634 1.4877799 1.4623964
000030 98 1a 8c 3f 3d 1f f9 3f b3 b8 92 3f dc 2b 42 3f
       1.0945616 1.9462658 1.1462616 0.75848174
000040 75 97 1d 3f 73 16 d0 3f a7 b1 88 3f a8 3c 3c 3f
       0.6155923 1.6256851 1.0679215 0.73530054
000050 06 f9 88 3f e3 c1 3f 3f 32 47 83 3f 43 31 63 3f
       1.0700996 0.7490522 1.0256102 0.8874704
000060 9a e8 a0 3f fb da ef 3f 54 2c 5c 3f c3 a7 90 3f
       1.2570984 1.8738703 0.8600514 1.1301197
000070 01 e5 5c 3f e7 41 04 40 45 86 54 3f f4 76 92 3f
       0.8628693 2.0665224 0.8301738 1.1442552
000080 3f bb 25 3f e5 cf 8d 3f b0 04 45 3f af 49 a2 3f
       0.6473884 1.1079069 0.7696028 1.2678736
000090 24 d0 ad 3f e3 8e eb 3f dd 96 b4 3f 97 7c 2f 3f
       1.3579144 1.840298 1.410854 0.68549484
0000a0 66 a5 c5 3f 8d 72 cf 3f 94 00 43 3f 71 a6 aa 40
       1.5441101 1.6206833 0.7617276 5.3328176
0000b0 17 17 5a 3f 5c 12 47 3f 38 41 5c 40 1f 8a b0 3f
       0.8519148 0.7776239 3.4414806 1.3792151
0000c0 d5 ad c9 3f 79 9f 3b 3f d3 84 d4 3f 9c aa 6f 3f
       1.5756174 0.7329021 1.6603035 0.93619704
0000d0 08 88 f6 3f 1c 41 11 40 ac 20 f4 3e 10 9d b5 3f
       1.9260263 2.269599 0.47681177 1.4188557
0000e0 ff 64 e9 3e 73 67 92 3f 54 cc b2 3f 2c 43 fe 3e
       0.45584866 1.143782 1.3968606 0.49660623
0000f0 b4 e2 92 3f 51 38 19 3f 7b 2b a3 3f 8b da 4f 3f
       1.1475434 0.59851557 1.2747644 0.81192845

weight f4 [64, 64, 3, 3]
000000 fd 0f 59 3d dc eb 9b 3c c4 21 33 3e c0 bb 35 be
       0.052993763 0.019033365 0.1749335 -0.17747402
000010 d6 21 98 be 2d 21 b6 bf 9d d4 a3 bc 9e 72 07 3c
       -0.29713315 -1.4228874 -0.019998843 0.008267073
000020 23 f0 81 bf bd ec 31 be dc f2 ff 3d 62 e4 35 3e
       -1.0151409 -0.17375465 0.124974936 0.17762902
000030 5a 5c c8 bd fd 35 79 3d e5 16 ad 3d 39 05 ce bd
       -0.0978324 0.060842503 0.084516324 -0.1005959
000040 d7 67 21 3c 5e 19 3d be 98 4b a5 bd 10 6e 93 be
       0.0098514175 -0.18466708 -0.08071059 -0.2879491
000050 df 30 87 be c5 99 82 be fb 3f 86 be da fe 1e be
       -0.26404473 -0.25507942 -0.26220688 -0.15526906
000060 87 40 3c 3e 41 d2 35 be 4d 30 c4 be c8 87 51 bd
       0.1838399 -0.17755987 -0.383181 -0.05115488
000070 f0 20 b6 bc 6a 28 3d be e5 69 b7 bd 77 fe 2e be
       -0.022232503 -0.18472448 -0.08955745 -0.17089258
000080 24 b0 81 bd c5 39 a0 be d9 06 cc be 8f 70 e7 3d
       -0.06332424 -0.31294075 -0.39848974 0.11300766
000090 c6 a3 16 3b 93 87 ca bd 1e d7 9c be cd 11 92 3c
       0.00229858 -0.0988914 -0.3063287 0.017830754
0000a0 b2 e5 f0 3d f1 af 04 3e 07 5e 00 be 1e 06 9d be
       0.11762561 0.12957741 -0.12535869 -0.3066873
0000b0 61 bd a4 be 54 29 c2 3c bb 06 48 3e 80 15 63 be
       -0.32175735 0.023701347 0.19533817 -0.2217617
0000c0 7f a1 e5 3c f6 95 c6 bb ac 52 1a bd 05 5b 0b 3e
       0.028031109 -0.006060357 -0.0376765 0.1360894
0000d0 54 20 01 3e 76 d1 d4 3d 92 18 af 3d b6 07 1b 3d
       0.12609988 0.10391514 0.08549608 0.03784915
0000e0 97 32 86 3e 70 2c 86 be 69 d2 12 bf a4 0f 3a be
       0.26210472 -0.26205778 -0.5735231 -0.18170029
0000f0 e6 55 b9 bd 57 c7 cb 3d 25 f5 a2 3c 0c 8c 70 3e
       -0.09049587 0.099501304 0.019892285 0.23490924
000100 56 f6 a0 3d fb be 83 bc d5 af 44 3e 98 6d 89 3e
       0.07859485 -0.016082278 0.192077 0.26841426
000110 77 c3 06 be 46 1f 83 be 46 04 c4 3b b4 2a 05 3e
       -0.13160501 -0.25609797 0.0059819547 0.13004571
000120 cc 88 a0 be 71 38 0b be d2 44 23 be ae f6 dd be
       -0.31354368 -0.1359575 -0.15944222 -0.43352264
000130 17 9d d0 bd 2a cd c1 bd 40 8a 1b bf 99 cc d6 be
       -0.101862125 -0.0946296 -0.6075783 -0.4195297
000140 88 43 e7 be b2 58 3c be 89 a9 52 3d fc af e3 3e
       -0.4516871 -0.1839321 0.051431213 0.44470203
000150 44 98 84 be d4 80 88 be 89 31 1c 3e f9 c1 8d be
       -0.2589742 -0.26660788 0.15253271 -0.27687052
000160 4f c0 dd bd 1a ef 2f 3d 28 49 31 3e 9b 69 9f be
       -0.108276956 0.042952634 0.17313063 -0.31135258
000170 fd 43 cb 3d f4 4b 91 bd ab 05 f9 3c da c7 de bd
       0.09925077 -0.07094565 0.03039821 -0.108779624
000180 25 43 5e 3e ce be 59 3e f6 00 06 be a3 22 96 3d
       0.21705301 0.21264192 -0.13086304 0.07330825
000190 77 89 93 be dd ca 7c 3e 45 54 6a be 6c f9 c6 be
       -0.28815815 0.24686761 -0.22883709 -0.3886217
0001a0 71 0f 02 be 1f d0 16 3e 17 d5 f8 3d 41 d8 2b bd
       -0.12701203 0.1472783 0.12150019 -0.041954283
0001b0 36 dc 12 3e e8 d1 65 be c1 cb 89 3b 16 9d f1 3d
       0.14341816 -0.22443354 0.0042051976 0.1179754
0001c0 6d df bb 3d 60 38 07 be 7c f3 1f be 41 9f bf bd
       0.091734745 -0.13205099 -0.15620226 -0.09356547
0001d0 a6 9a ae 3d a9 74 27 be 4e 57 5a 3d 2e fe 54 3e
       0.085255906 -0.16353096 0.053305916 0.20800087
0001e0 58 ad ba 3d dd ad 60 be 93 a3 4b 3e 2b 1b fc 3c
       0.09115094 -0.21941324 0.19886617 0.030774673
0001f0 96 3c e5 bd dd 1a 46 3d e7 59 9c bd 5f b7 9d be
       -0.111931965 0.048365463 -0.07634335 -0.30803964
000200 c9 14 0b bf 70 1c d4 3e 4a b4 aa 3c 6f 07 e8 3d
       -0.5432859 0.41427946 0.020837922 0.11329543
000210 59 89 66 bd 1b ba 07 bf af e9 49 3e 33 e8 86 be
       -0.05628333 -0.5301835 0.1971805 -0.2634903
000220 bc ec 9e be b1 e2 c7 3e 54 71 10 3e 84 3b f7 bd
       -0.3103999 0.3904014 0.14105731 -0.120718986
000230 fe 3f e6 be 92 6e 1f 3e ba b2 33 3f d0 1f 04 bf
       -0.44970697 0.15569523 0.7019459 -0.5161104
000240 75 19 ad 3e dc 4a 17 be 95 38 82 be 0e 0f 1c 3e
       0.33808485 -0.1477465 -0.25433794 0.15240118
000250 2c 26 60 be bf 30 7f be b5 68 c3 3e d6 85 91 be
       -0.21889561 -0.24920939 0.38165823 -0.2842242
000260 cb 29 24 be bb d1 d4 3d 0e dc 1f bd f5 18 d7 3e
       -0.16031568 0.103915654 -0.03902822 0.42011228
000270 dd 42 b2 3d e4 fb 19 3c 06 4d 79 3e 71 4a 8b be
       0.087041594 0.009398434 0.24345788 -0.27205232
000280 7d 69 53 3e 83 8b ae 3d 4f 27 fc bd 14 ea ec be
       0.2064571 0.085227035 -0.12312185 -0.46272337
000290 a4 69 8d 3b 89 30 8c be d4 a1 43 bf b8 b7 80 bf
       0.004315572 -0.2738078 -0.76418805 -1.0056067
0002a0 8c 0d 9b 3d ec 3c 8b be 06 32 82 be 3f ae 43 3e
       0.07570943 -0.27194917 -0.2542879 0.19109438
0002b0 0f 78 e9 3d 4d f7 ae be 14 34 9f 3d 25 2f 10 3e
       0.113998525 -0.3417305 0.07773605 0.14080484
0002c0 f9 f4 5a 3d 15 2a 40 be 55 9d 73 be 24 57 10 be
       0.05345628 -0.18766053 -0.23790486 -0.14095742
0002d0 ea f6 81 3d 19 7b 84 bd 58 d3 3f 3c 89 94 96 3e
       0.06345923 -0.064687915 0.011708103 0.29410198
0002e0 5d 79 ea bd 95 3e 75 3e 6d 92 c5 3e 87 46 db be
       -0.114489295 0.23949654 0.38588277 -0.42827246
0002f0 f4 59 ff bc eb dc 2f be 3d cf 5c 3d 7a 6b 5d 3e
       -0.031170823 -0.17174117 0.053908575 0.2162303
000300 49 3c 50 3e 50 60 39 bd 93 6b 33 3e 95 94 e2 3d
       0.20335497 -0.045257866 0.17521505 0.11063496
000310 69 55 2f 3c c7 89 dc bd 03 87 75 be 72 a7 90 bd
       0.010701516 -0.107684664 -0.23977284 -0.07063188
000320 e4 5b 59 be 7d 36 b3 bd 61 ee 04 3e c9 20 88 3e
       -0.2122646 -0.08750627 0.1298156 0.26587513
000330 8d 1e 49 be 1b 4e 24 3e 60 b6 33 3e 84 75 0e 3e
       -0.1964056 0.1604542 0.1755004 0.13912016
000340 31 95 81 3e 1a ed c2 3e 37 9c b2 be d1 e0 e1 3d
       0.25309137 0.3807152 -0.34884807 0.110292085
000350 19 c1 c1 bd a8 1a 43 bd fa c8 99 3e 65 cc 89 3e
       -0.094606586 -0.047632843 0.30036145 0.26913753
000360 31 4f f8 3d c9 bb 4d bd fd ab 3b 3d 33 52 ab bd
       0.121244796 -0.050227914 0.045818318 -0.08365288
000370 c8 80 5e bb d6 63 8d 3d cf 9b 76 bd d4 eb 75 be
       -0.0033951271 0.06903808 -0.060207184 -0.24015743
000380 50 27 60 be d2 44 e0 bd 13 c6 5d be 48 a1 1a bf
       -0.21889997 -0.109506264 -0.2165759 -0.60402346
000390 e7 c3 76 3c 87 78 2e bb 63 1e 9d be ca 91 12 3d
       0.015061355 -0.0026622133 -0.30687246 0.035783567
0003a0 ca 95 f7 bd 4e 5a 05 bf de 4c 66 be 7b 1f 41 be
       -0.12089117 -0.5209092 -0.2249026 -0.18859665
0003b0 af 60 d2 3c ec 19 6e 3e 29 83 e7 bd 60 5b d2 3c
       0.025680868 0.23252076 -0.11304314 0.025678337
0003c0 dd 3c 86 3e b5 42 08 be 73 d9 eb 3d 7f 6d 28 be
       0.2621831 -0.13306697 0.115160845 -0.1644802
0003d0 b4 d4 97 3d 78 99 34 3e f0 ba 6d be 04 f5 13 3e
       0.07413617 0.17636669 -0.23215842 0.14448935
0003e0 45 51 ad 3c f3 cf 76 3e 5a ea 11 be 10 f4 88 3e
       0.021156916 0.24102764 -0.14249554 0.26748705
0003f0 1d f3 01 3f 1a 16 3c 3e 8b cb a1 3e 1d ae 2f 3d
       0.50761586 0.18367806 0.31600603 0.042890657

bias f4 [64]
000000 a8 16 73 be 07 83 88 bc 7d 7c 90 bd f1 90 cf bb
       -0.23739111 -0.016664041 -0.07054994 -0.006334417
000010 75 b7 0a bc d6 1b 3b be d4 67 d0 3a 9b be 3c 3d
       -0.008466591 -0.18272337 0.0015900084 0.046080213
000020 c5 30 87 be 2d f5 85 3e 8b a8 25 bd cc 7e cb bd
       -0.26404396 0.26163617 -0.04044394 -0.09936294
000030 e1 c1 38 3e 1e 95 04 be 63 db 66 3e e8 38 85 3e
       0.18042709 -0.12947509 0.22544627 0.2601998
000040 a0 b1 00 3f 03 41 f4 bc 73 84 5a 3d 84 d6 8b be
       0.50271034 -0.029816156 0.05334897 -0.273121
000050 fe 80 cc 3c d5 35 a3 3e fe 06 ae bd 2a e4 7c 3e
       0.024963852 0.31877008 -0.084974274 0.24696413
000060 e4 cb 2d be af 84 2d 3d 01 81 eb bc 8b 25 04 be
       -0.1697231 0.042362865 -0.028748037 -0.12904947
000070 47 8a 12 3d 16 5c 94 3e f5 6c 03 3e 96 cf b3 bd
       0.035776403 0.28976506 0.12834533 -0.08779828
000080 34 d9 0b 3e fc 52 09 be 69 b0 ee bc 9a 19 2b be
       0.13657075 -0.13410562 -0.029136853 -0.16708985
000090 ed 85 0d be 00 9b 4f 3e 61 6b f3 3c 67 aa 30 3c
       -0.1382062 0.20273972 0.029714288 0.010782815
0000a0 24 6e c9 3c c0 6f 16 be 65 71 97 bd 59 53 18 3d
       0.024588652 -0.14691067 -0.07394675 0.03718886
0000b0 8c 09 06 3e 4c ab 78 3d e3 b2 4b bd 20 5a e4 bd
       0.1308958 0.060710236 -0.049731147 -0.111500025
0000c0 7a 36 8b be ad 6e a8 be bd f1 1e be 1a ce f2 3d
       -0.2719 -0.3289694 -0.15521903 0.11855717
0000d0 3f ed 4f 3e d8 3c 01 3e a2 d2 9c 3d 95 c2 00 be
       0.20305346 0.12620866 0.076573625 -0.12574227
0000e0 f3 78 eb bd 35 1b f2 bc de 50 49 3d db 73 cb bd
       -0.114976786 -0.029553989 0.049149387 -0.09934207
0000f0 8d 38 69 be c7 58 88 be 92 7c 25 3c 6c 6b aa be
       -0.22775479 -0.26630232 0.010100501 -0.3328508
