models/vishal_lr_001_iter_300.pt_234.pt (torch_old, 473212 bytes, 27 tensors)

weight f4 [64, 1, 3, 3]
000000 14 92 55 3c aa e1 d9 bd d7 9d 58 3d 78 e9 8b bd
       0.013035316 -0.10638745 0.052884903 -0.0683164
000010 7a 94 11 3e 36 ba b0 bd ef 6c 16 3d 4c f5 9a bd
       0.14216796 -0.08629267 0.03672498 -0.07566318
000020 05 37 c2 3c 2a cf 0d be 88 71 25 be 04 85 76 be
       0.023707876 -0.13848558 -0.1615659 -0.24074179
000030 dc 46 ab 3e 45 54 21 3f 84 3d 8a be 4e a9 01 be
       0.334525 0.6301921 -0.27000058 -0.12662241
000040 d3 5b 02 3d c9 55 0a bf 18 12 9f 3e 1d 1a c2 3e
       0.03182585 -0.5403715 0.31068492 0.37910548
000050 df 68 d9 3d 43 6e 9c be 9c 20 97 be 73 bd 81 be
       0.10615706 -0.30552873 -0.29517066 -0.2533985
000060 c0 e2 c5 bd 75 66 1a 3e 75 a0 d7 3b e8 f1 a5 3d
       -0.0966239 0.15078147 0.0065804073 0.081027806
000070 ae c0 09 3e f5 df 3f 3d 2f ab 85 bd f8 c3 8d bd
       0.13452408 0.04684444 -0.06526791 -0.06922144
000080 6b 0d 3e 3d 00 72 94 3d 82 4d de 3d 7d cd a6 3d
       0.046399515 0.07248306 0.10854627 0.081446625
000090 2e 16 d3 3e 08 55 19 bf 43 2d b1 3d 43 af 86 3e
       0.4122786 -0.5989537 0.08651211 0.2630559
0000a0 7c 62 54 3d 6d 71 9d be 69 1e 50 bf 33 12 08 3f
       0.051851735 -0.307506 -0.812964 0.5315277
0000b0 fd 8c 0f be c6 44 80 3c 2a 83 b0 3d 00 60 e5 bd
       -0.14018627 0.015657794 0.086187676 -0.11199951
0000c0 01 01 19 3e 67 7d 55 be 11 5b 34 3d 9e 1c 10 be
       0.14941789 -0.20848618 0.04403216 -0.14073417
0000d0 03 a7 af 3d 3a 9e 88 3d 59 dd dd 3b e8 46 b8 3d
       0.08576777 0.06670804 0.0067707715 0.08997899
0000e0 c0 f7 b4 3c 5b fc 28 be ad 95 b5 3d 4b b8 c1 bd
       0.022090793 -0.16502516 0.08866439 -0.09458979
0000f0 64 8b ed 3c 86 3b 04 be cd 43 ae c0 fc c0 8b 3e
       0.02899713 -0.12913331 -5.4457765 0.27295673
000100 fd ea 03 be 1b 03 10 be 60 90 36 be 16 ce 9a bd
       -0.1288261 -0.14063685 -0.17828512 -0.07558839
000110 85 c7 89 3e a3 ea b6 be da 17 8f 3d 0c fb 99 3e
       0.26910034 -0.3572589 0.06986971 0.30074346
000120 ed d1 85 3d f7 49 1b be f3 57 93 3d 02 57 02 be
       0.06534181 -0.15164934 0.07194509 -0.12728503
000130 18 b5 d8 bf 54 8f 9e bd d1 58 a0 3d 61 98 d2 bd
       -1.6930265 -0.077421814 0.078294404 -0.1028297
000140 64 77 57 3d 5c 46 4b 3d 6b 65 85 3c cc 8b 39 3c
       0.052604094 0.049627647 0.016283711 0.011324834
000150 20 7b c8 bc f0 a0 62 3d a0 38 aa 3c 60 15 4a bd
       -0.024472773 0.055329263 0.020778954 -0.04933679
000160 61 8a 1f 3c c7 74 6a 3d 70 05 2c 3d 6c 49 e3 bc
       0.009737582 0.057240274 0.041997373 -0.027744971
000170 60 ed 85 bc 64 f6 8c bd fc ac b3 bc 92 a6 85 bd
       -0.01634854 -0.06882933 -0.021933071 -0.065259114
000180 f6 3a c3 bd 09 9b 9f bd cb ef c7 bd 27 98 8b 3d
       -0.0953273 -0.077932425 -0.09762534 0.0681613
000190 4d 96 ac be 39 07 8d 3e bd f1 13 3d 73 c5 b6 3e
       -0.3370842 0.27544573 0.03611921 0.35697517
0001a0 8a e4 c6 be 0f c8 ca bd d5 ff 01 bc 2e 8c d1 3d
       -0.38846236 -0.099014394 -0.00793453 0.10231815
0001b0 8d 24 0b 3e 47 25 1f 3e 87 52 94 be db d1 39 be
       0.13588162 0.15541564 -0.28969213 -0.1814646
0001c0 e4 d4 e9 3c 4b 66 32 3e 60 91 0e 3d 24 92 18 be
       0.028543897 0.17421834 0.03480661 -0.14899498
0001d0 4f db d0 3d 41 30 cf bd 26 a1 47 3e ce fd ce bd
       0.1019808 -0.101166256 0.19495067 -0.10107003
0001e0 18 e2 82 3d 5f e8 b8 bd 4a e0 84 3c 57 d3 03 3d
       0.0639078 -0.09028696 0.01622023 0.03218397
0001f0 da 55 f1 bd a0 ea b1 3d 78 7c 21 3d 10 fe c0 bc
       -0.11783953 0.08687329 0.039425343 -0.023558646
000200 a4 60 07 bd 78 c1 09 3d 43 b4 b3 bd fc 83 bd bd
       -0.033051148 0.03363177 -0.087746166 -0.0925369
000210 5c 10 89 3c 30 c7 7f 3d 0c ff 0f 3d e6 8f b3 bb
       0.016731434 0.06244582 0.03515534 -0.0054798005
000220 79 91 a2 3c b1 62 20 3d 69 58 17 3e c3 6e 27 3e
       0.019844757 0.03915662 0.1477982 0.16350846
000230 40 e9 12 3e d7 51 ad bd 1e 94 f0 3d 34 9c 88 3d
       0.1434679 -0.08462875 0.11747001 0.066704184
000240 12 26 b4 3d a8 d7 ba bd 10 f2 6a 3d 24 d0 4b 3d
       0.08796324 -0.091231644 0.057359755 0.049759045
000250 31 8a 2b bd a0 ed a5 bc 28 4d 54 3d c8 6e 89 bd
       -0.041879836 -0.02025491 0.051831394 -0.06710583
000260 c0 cf 42 bc 1c 09 5b be 6c bc 14 be 79 88 42 be
       -0.011890352 -0.21390194 -0.14525002 -0.18997373
000270 8b f4 03 be 60 72 42 bd 88 9e 03 bd 09 dc 9d 3e
       -0.12886254 -0.047472358 -0.03213361 0.30831936
000280 5f 02 cd 3e f7 90 9a 3d 4c 1a 21 bd aa 97 d0 3d
       0.40040872 0.07547181 -0.03933172 0.101851776
000290 ef f2 fa bc 71 eb 2e 3e fe 73 9d 3e 7e 60 d6 3d
       -0.030633418 0.17082001 0.30752558 0.10467623
0002a0 ed 92 8f bd 9d af 2c 3e 0c 47 50 bd d9 c2 94 bd
       -0.07010446 0.16863866 -0.050849006 -0.07263727
0002b0 be c2 4c 3c 65 2c 2b 3d 51 0f 27 3e 06 bc c1 bd
       0.012497602 0.041790385 0.16314436 -0.09459691
0002c0 79 90 76 bd d4 d4 c4 bd 2f 27 9d 3d 96 e6 3c 3c
       -0.060196374 -0.09610906 0.07673489 0.011529585
0002d0 e4 f4 ac 3c 70 5e 6f bc b4 ad 8d bd 6c 92 97 3d
       0.021112867 -0.014609918 -0.06917897 0.07400975
0002e0 26 2c c3 bd 28 73 b0 bd 4e 74 8d bd 72 6b 0a bd
       -0.09529905 -0.08615714 -0.06906949 -0.033793874
0002f0 4c 36 8d bc 68 af 64 3d fe ab 7f bd 1c 48 80 3d
       -0.017237805 0.055831343 -0.062419884 0.06263754
000300 4c 21 a9 bc f6 6c 9c 3d 28 94 05 3c 64 23 f3 bc
       -0.02064576 0.0763797 0.008152999 -0.029679962
000310 ba 55 92 3d c8 9c 2a bc 54 b7 c6 bd e4 55 20 3d
       0.07145257 -0.010413356 -0.09702936 0.03914441
000320 70 20 1a 3d 20 d8 8c bd 19 cd a9 bd 60 77 41 3c
       0.03762859 -0.0687716 -0.082910724 0.011808246
000330 c8 93 24 3c d3 16 a2 bd b0 ab 9b 3b c8 c2 99 bd
       0.010044999 -0.079145096 0.0047506914 -0.07507855
000340 b0 80 21 bc 90 c8 b2 3d dc 81 84 3c 52 93 30 bd
       -0.009857342 0.087296605 0.016175203 -0.043109246
000350 24 58 18 bd e8 c1 bd bd da 9f 93 bd ba 79 cd bd
       -0.037193432 -0.092655 -0.07208224 -0.10032983
000360 a4 d9 91 be c1 88 87 3e e9 6f c3 3c 9e d9 72 3e
       -0.2848636 0.26471522 0.023857074 0.23715827
000370 df 66 67 be 93 eb 52 bb 79 57 05 3d 31 06 a6 bb
       -0.22597836 -0.003218387 0.032554124 -0.005066656
000380 3e 6d 08 bd 90 6e 81 3d eb e1 84 3d 7f 98 a0 be
       -0.033307306 0.06319916 0.06488403 -0.31366345
000390 3e fa 83 bd 7b d7 c9 3e d4 4c cd bd 0c 30 6e be
       -0.06444214 0.3942221 -0.100244194 -0.23260516
0003a0 e1 97 76 3e bb 77 53 ba 17 78 68 bc 7a c8 29 be
       0.24081375 -0.00080668525 -0.014188788 -0.16580382
0003b0 47 28 98 3d 64 40 09 bd af d4 c0 3d 29 22 0f bc
       0.07429557 -0.033508673 0.09415566 -0.008736172
0003c0 78 99 3d 3d 84 35 f3 3d 06 84 12 be 94 3d 59 3d
       0.046288937 0.11875442 -0.14308175 0.05303724
0003d0 61 7e c3 bd 68 f7 ca bd ac ff 9b 3d b2 e3 0f bd
       -0.09545589 -0.0991047 0.07617125 -0.035129257
0003e0 70 f3 b1 3b 5a 25 4f bd 60 8b 46 bc 20 69 29 3b
       0.0054306313 -0.05057273 -0.0121181905 0.0025850013
0003f0 99 ce 0e bd 3a 98 84 3d da 6c 01 bf e3 e4 99 3e
       -0.034864996 0.064743474 -0.5055672 0.3005744

bias f4 [64]
000000 5a 90 18 3c 1c b9 5f 3c d8 24 a9 3d e3 7d 86 3b
       0.00931176 0.013654973 0.082589805 0.0041043623
000010 97 6a 98 3c 25 32 2c 3d 0e e2 2c 3e 0d 6c 94 3c
       0.018605513 0.04204001 0.16883108 0.018117929
000020 ad 3e 8d 3e 26 78 62 be a4 07 88 bd 7e 79 a9 3c
       0.2758688 -0.22116145 -0.06642082 0.020687815
000030 ca 6e 25 3d cb 52 7d 3d 2b 00 39 be 69 3c e2 be
       0.04038886 0.061846536 -0.1806647 -0.44186714
000040 70 45 70 be 35 ca 09 3d 8e 77 cf be 60 cd d2 3d
       -0.23463988 0.033640105 -0.405209 0.102930784
000050 a8 89 3a be c0 03 a6 be 9e ad 8f be 04 a0 a2 be
       -0.18216574 -0.32424736 -0.28062147 -0.31762707
000060 d5 55 48 3d cc 6a 29 3d f1 05 3f 3e 7b 2f 80 be
       0.04890998 0.041361615 0.1865461 -0.25036225
000070 8e 49 9a bc 30 94 65 bc d0 f2 94 be d7 86 64 3d
       -0.018833902 -0.014012381 -0.290915 0.055792656
000080 6a 4e a2 be 08 9c 5d bd 17 b8 69 3c 1b d5 81 be
       -0.3170045 -0.05410388 0.014265082 -0.253579
000090 66 18 f0 bd 4a 6e 7b 3d 6e 06 bd 3d 5a 1b 28 3d
       -0.11723404 0.061384477 0.09229742 0.04104171
0000a0 d6 bb 88 3e 26 b7 57 be ee 17 50 3d c8 d2 7f be
       0.26705807 -0.2106596 0.05080407 -0.2498275
0000b0 c3 1d 89 be 10 49 dd 3b 7e af 70 be de 4e 16 3d
       -0.2678052 0.0067530945 -0.23504445 0.036696307
0000c0 ba c5 9e be a2 6d b7 be de 51 6a 3c fd ec fe 3c
       -0.31010228 -0.3582583 0.014301745 0.031118864
0000d0 9e 64 2d be ec cd db be 67 84 08 3e 80 64 24 be
       -0.16932914 -0.42930543 0.13331757 -0.16053963
0000e0 8c 7f 70 3e d0 28 41 be 37 4c 9f 3c 77 73 94 be
       0.23486155 -0.18863225 0.019445522 -0.28994343
0000f0 47 16 48 3e 8e 84 39 3d 81 f8 2e 3d 71 0a 79 3d
       0.19539748 0.04529243 0.04271746 0.060800973

weight f4 [64, 64, 3, 3]
000000 4c 60 c2 3c 27 cf 53 3d af 2d db bb ab fa ab 3d
       0.023727559 0.051711228 -0.0066887955 0.083974205
000010 14 39 06 be 14 d5 b7 3c b2 7d 3b bd d6 83 3a bd
       -0.13107711 0.02244047 -0.04577417 -0.045535885
000020 c7 e8 8e 3c 58 e7 21 bf ea 7f 46 be e8 98 2e 3e
       0.017444981 -0.6324363 -0.19384733 0.17050517
000030 7f 4d b4 3d 3f 52 ce bd 1c c5 eb bd ec de 79 bd
       0.08803844 -0.10074281 -0.11512205 -0.06100361
000040 e8 85 d0 3e 14 5b 18 3f d0 d9 9e be b3 8a 35 3e
       0.40727162 0.59513974 -0.31025553 0.17728691
000050 b4 31 f9 bc 74 15 ad 3e fa 0b 00 3e 71 db 42 3c
       -0.030419208 0.3380543 0.12504569 0.011893139
000060 c5 c7 b3 3e 85 68 55 3e 88 dc 2f 3e e4 ad 45 3e
       0.3511335 0.20840652 0.1717397 0.19304615
000070 30 b7 88 3e 33 c4 6b 3e 42 34 8d 3e 8a 77 89 3e
       0.2670226 0.23024063 0.27578932 0.26849014
000080 87 64 93 3e a7 7f b7 3d 89 0c 7c 3e 68 c2 4c 3e
       0.28787634 0.089598946 0.24614157 0.19996035
000090 af 23 f9 3e d5 99 a8 be 8d 08 c2 be ed 2c 9d be
       0.48660037 -0.32929865 -0.3789715 -0.30698338
0000a0 92 c8 87 3e ae 42 37 be 4e f0 0f be 0f a1 aa 3d
       0.2652021 -0.1789653 -0.14056513 0.08331501
0000b0 6f 37 3a be 27 ba b6 bc 71 21 33 be 3e 6f cd bd
       -0.18185209 -0.022305561 -0.17493226 -0.100309834
0000c0 f2 3f dc 3d 39 f6 21 3e 2f df 64 3d 87 98 44 3c
       0.10754384 0.15816583 0.055876907 0.011999256
0000d0 fb 24 01 3d 32 e0 7e bc b5 63 43 bf cd 73 2d bf
       0.031529408 -0.015556382 -0.76324016 -0.6775482
0000e0 90 a4 23 bf d7 43 9c bd 2d 65 2e bd 2f ea 7d bd
       -0.6392298 -0.07630127 -0.042576957 -0.061990913
0000f0 30 f6 ea be 95 fb 9f be 20 cd 20 bf 7c b1 d4 bd
       -0.4589095 -0.3124663 -0.62812996 -0.10385415
000100 28 ab 40 bd 7c 4e 98 3d 0b 67 3f bd 45 8f c0 bd
       -0.047038227 0.07436845 -0.04672913 -0.094023265
000110 e6 f2 df 3d 46 1e e1 3b 46 9a a7 3d a4 8c 79 bd
       0.10935001 0.006870064 0.08183722 -0.06092514
000120 76 75 8b 3d ad b9 04 3e a1 1b cc bd 0a bf af bc
       0.06809513 0.12961455 -0.09966207 -0.0214534
000130 17 80 cc bd 76 03 b7 bd 9a b7 2e be 91 57 8b bd
       -0.09985369 -0.08936207 -0.17062226 -0.06803811
000140 c1 4e ab be ba e7 3b bc 06 3b 51 3d f3 0b ea bc
       -0.33458522 -0.011468822 0.05108168 -0.028570151
000150 de ef 64 3b 72 00 ad 3c d9 1a 19 3c 05 e0 48 3d
       0.003493301 0.021118376 0.00934478 0.049041767
000160 3e ec 6f bc 9a cc 82 bd 7e 27 52 3d 36 ea 90 3d
       -0.014643727 -0.06386681 0.051307194 0.07075922
000170 bc ed 24 3d 50 4d 63 bd 60 8b f7 3c f7 40 4f bd
       0.040265784 -0.055493653 0.030217826 -0.050599065
000180 04 6d 1d bd 4e 6c 43 3d 64 df 64 3d e5 0d 87 be
       -0.038434044 0.04771071 0.055877104 -0.26377788
000190 e2 3c a4 be 04 fb 04 bd 7c fb 2f bd da d0 15 bd
       -0.320777 -0.03246595 -0.042964444 -0.03657613
0001a0 00 05 0a 3e 63 42 99 3e 05 34 68 3e ca 2f a4 bd
       0.1347847 0.29933462 0.22676094 -0.080169275
0001b0 7c 9a 39 be 3c 43 e9 bd f8 47 9e 3c 5c e2 ad 3d
       -0.18125337 -0.11389777 0.019321427 0.0849044
0001c0 7a c1 88 3d e8 c3 d0 bc 69 44 ea 3c 6b 7a fd 3c
       0.06677528 -0.02548404 0.028597074 0.030942162
0001d0 a5 4c 60 3d 42 c8 bd bd 88 eb bd 3d af b8 7f 3c
       0.054760594 -0.09266712 0.0927344 0.015607997
0001e0 3b db b1 3d 94 6d 00 3e 9d 74 48 3d 91 58 83 bd
       0.08684393 0.125418 0.048939336 -0.06413377
0001f0 ac 3c c8 bd e2 91 e8 bd a8 33 4d bc 6a e9 3e 3d
       -0.09777197 -0.1135595 -0.012524523 0.04660932
000200 ac 38 32 bc ef 94 6a bd 2c 06 b1 bc 2e 7f 62 bd
       -0.010877769 -0.05727094 -0.021609388 -0.05529707
000210 50 2e 68 bc d4 21 74 3d 7c 04 8a 3c ff a2 81 be
       -0.014171198 0.059602574 0.016847841 -0.2531967
000220 28 a8 6c be 65 1c 1a be a5 d2 8f be cc 7e 51 be
       -0.23111022 -0.15049894 -0.28090397 -0.20458525
000230 27 15 56 bd eb 07 15 3e 56 7a 7b bd fa f9 d3 bd
       -0.052266266 0.14553802 -0.061395966 -0.103504136
000240 14 de 35 3d ac cb 1e bc c4 10 df 3c 1a 82 c6 bc
       0.044401243 -0.009692114 0.027229674 -0.02423196
000250 e8 2c 2d 3d 04 f0 53 bc 84 37 40 bd 6a 1b 0e 3d
       0.042279154 -0.012935642 -0.046927944 0.034694113
000260 6c 91 85 3d 5d a7 15 3c 06 c8 48 3e a1 04 d9 3c
       0.06521878 0.009134141 0.19607553 0.026491465
000270 cc 50 a9 bd f8 aa 58 3d 94 77 e0 3d aa be 92 3d
       -0.08267364 0.052897424 0.10960308 0.071652725
000280 42 6d 6e 3e b2 3e 86 3d 61 31 3b bd a9 b4 aa 3d
       0.23283866 0.06554927 -0.04570139 0.083352394
000290 da a5 8e be 18 d3 ba bd ae af aa bc 01 9f 46 be
       -0.2786091 -0.09122294 -0.020835724 -0.19396593
0002a0 00 ce 63 3d 34 f3 55 3e a9 5f 3f bd b5 72 c7 3c
       0.05561638 0.20893556 -0.046722088 0.024346689
0002b0 2d e4 19 3c 30 cc 2f 3d 9a f5 55 3e 7f fa 86 3e
       0.00939278 0.042919338 0.20894471 0.26362988
0002c0 35 f7 98 bd 1c 69 5e be b3 32 3d be 99 3f b1 bd
       -0.07469026 -0.21719784 -0.18476371 -0.086547084
0002d0 4c 60 5f bd f0 ea 85 bb 74 c4 5e 3d 32 e7 43 3d
       -0.054535195 -0.0040868446 0.05438657 0.047827907
0002e0 2b 2e 8a bd 78 70 7e 3d fa de 88 3d b4 63 66 bd
       -0.06747087 0.062118977 0.066831544 -0.056247428
0002f0 22 8d 84 bc f8 59 72 bd 10 80 6f bd 48 95 33 bd
       -0.016180579 -0.059167832 -0.05847174 -0.043843538
000300 c8 f6 7f 3d 98 96 05 bc 48 9a 0e bc 12 61 31 3d
       0.06249121 -0.00815358 -0.008703776 0.043305464
000310 68 19 4e bc bf eb 47 bd dc c4 6b 3d 80 2d 5f bd
       -0.0125792995 -0.04880881 0.057560787 -0.05448675
000320 e8 0a 77 bc 34 8d e9 3c c1 e7 1d bd 56 57 5b bd
       -0.015078284 0.028509714 -0.038551096 -0.053550087
000330 a6 f3 88 bc 9c 35 61 3d a0 c8 ad bc 9e 83 24 bd
       -0.016717743 0.054982767 -0.02121383 -0.040164582
000340 20 0b cb bb 7c 24 8d 3c 1c ce ce 3c 8c 2f a0 3c
       -0.0061963946 0.017229311 0.025244765 0.019553922
000350 e0 9b f5 3c 80 76 5a 3c 98 2d 0c 3c 00 b2 91 bc
       0.029981554 0.013333917 0.008555792 -0.017785072
000360 32 9e 8e 3d 40 c0 08 3d a0 b9 a7 bd 0f 4a b7 bd
       0.06963767 0.03338647 -0.08189702 -0.089496724
000370 c8 da 63 3e 6b c8 24 bd 9d d8 45 bd e7 52 6a bd
       0.22251427 -0.040230196 -0.04830228 -0.057207968
000380 24 72 47 bd a5 e2 2f 3e 0a f5 77 3e f7 77 36 bd
       -0.048692837 0.17176302 0.24214569 -0.044548
000390 56 c0 7e 3e 45 a8 95 3e 92 85 bf 3c 1e 65 5d 3c
       0.24878058 0.29229942 0.023379121 0.013512878
0003a0 10 1f 7e 3e 1c c0 14 3d 2f d5 a0 3d 1d cb 4c ba
       0.24816537 0.036316022 0.078531615 -0.00078122487
0003b0 eb f7 2c bd 9a 79 6e 3e ea b7 81 3e d8 8b bd 3e
       -0.04222862 0.23288575 0.25335628 0.37020755
0003c0 4a 1c 75 be 3d 74 2c be e4 b2 38 be 0a cf 50 3d
       -0.23936573 -0.16841216 -0.18036991 0.050978698
0003d0 2f 20 15 bd ec 26 8d 3c 0e 4e 00 3d da cf 2f bd
       -0.036407646 0.017230473 0.03132444 -0.042922832
0003e0 00 81 6a 3d 53 65 91 bd c2 34 38 3d fa 15 14 3d
       0.05725193 -0.07099404 0.04497219 0.03615377
0003f0 f6 64 a1 3d ef 61 b1 bc ee 01 15 3d 30 78 0a 3e
       0.07880585 -0.021653144 0.036378793 0.1352241

bias f4 [64]
000000 df ee bb bc 3d 7f a0 be 0f e8 a4 3e db ba 51 bd
       -0.022941051 -0.31347075 0.32208297 -0.05120359
000010 b0 76 61 3e 97 94 06 3e d9 3f 81 be 8a 74 01 be
       0.22017932 0.1314262 -0.25244024 -0.12642112
000020 5f 56 6a be 8b 4e 91 bd 5e d5 c5 3d be 65 bf 3e
       -0.2288451 -0.07095059 0.09659837 0.3738231
000030 bf 0c 7f 3e b3 66 62 bd 8f 14 ae 3d ac e3 44 be
       0.24907206 -0.055273723 0.08500015 -0.19227475
000040 05 64 91 be ad 35 5e be 4b fc 88 3e 3a 7c 90 3d
       -0.2839662 -0.21700163 0.26754984 0.07054944
000050 a6 f8 23 bf ff fe 73 be 84 e9 15 bd 85 58 9b 3e
       -0.6405128 -0.23827742 -0.03659965 0.30340973
000060 10 20 94 be 05 24 6b be f1 ae 49 3e d9 58 8c 3e
       -0.28930712 -0.22962959 0.19695641 0.27411535
000070 0a 0d 5e be 81 94 a3 3e e7 71 3f 3d e9 26 14 bf
       -0.21684662 0.31949237 0.046739485 -0.5787187
000080 15 ad 98 be 90 a5 ae 3d 07 0c 15 be a5 7a 54 3e
       -0.2981955 0.08527672 -0.1455537 0.2074991
000090 97 dc 53 3c b3 2e 71 bd b3 1d da bb e9 ef 88 3e
       0.012931011 -0.058882426 -0.0066563725 0.26745537
0000a0 a2 6b 04 3e f0 cd 0b bc 90 8c 35 bf 54 e0 09 bf
       0.12931684 -0.008532986 -0.70917606 -0.5385792
0000b0 67 6a da 3d 3b f5 86 be d1 40 8b 3e db 09 df be
       0.10664826 -0.2635897 0.27197888 -0.43562207
0000c0 8c e1 38 3e 01 23 03 bf a1 33 af bd 04 e7 c6 be
       0.1805479 -0.51225287 -0.08554769 -0.38848126
0000d0 f9 8f b1 bd 1b 89 c6 be 4e df b2 3d e7 06 18 3f
       -0.08670039 -0.38776478 0.08733998 0.5938553
0000e0 8c 21 0b 3d 57 cc e9 3e 2f 01 82 be bc b0 bf 3e
       0.03396754 0.4566371 -0.25391528 0.37439525
0000f0 b5 5f 76 bd 7b 97 91 3e 1a 9c 36 3e b8 ef 3a 3e
       -0.060149867 0.28435883 0.17832986 0.18255508

weight f4 [64]
000000 ea 15 33 3f 07 b4 b0 3e 85 c8 20 3f ef 98 8b 3e
       0.69955313 0.3451235 0.6280597 0.27265117
000010 d6 18 a6 3e 69 8a aa 3e bd cf 06 3f 5c 49 b9 3e
       0.32440823 0.33308724 0.52660733 0.3618878
000020 e5 87 b9 3e 25 be aa 3e 41 12 98 3e 18 a1 c6 3e
       0.36236492 0.33348194 0.29701427 0.3879478
000030 c4 dc a4 3e 07 5c a8 3e 7e 40 26 3f b1 c2 de 3e
       0.3219968 0.3288271 0.6494216 0.43507913
000040 be c4 c7 3e 24 e3 9d 3e 71 45 8e 3e 95 9e 8e 3e
       0.3901729 0.30837357 0.27787355 0.27855363
000050 3c 46 64 3e 62 17 0b 3f 49 60 e7 3e 39 23 90 3e
       0.22292417 0.54332554 0.45190647 0.28151873
000060 5c c0 51 3e 21 1c a1 3e f4 95 b6 3e 0b 92 a2 3e
       0.20483536 0.31466773 0.3566128 0.31752047
000070 b0 ce d2 3e 47 88 ad 3e 2c 95 c8 3e 36 60 b7 3e
       0.41173315 0.33893034 0.3917631 0.3581559
000080 10 fe a0 3e 8e 37 ab 3e 29 91 26 3f b8 f9 13 3f
       0.31443834 0.33440822 0.65065247 0.57802916
000090 60 81 c8 3e ee 3b cf 3e b9 5d 73 3e 6a cf 05 3f
       0.39161205 0.4047541 0.23766221 0.52269614
0000a0 2a d0 9c 3e 81 29 d8 3e 42 6e a8 3e 95 7a 9a 3e
       0.30627567 0.42219165 0.3289662 0.30171648
0000b0 ea 81 ab 3e 88 bb c1 3e 24 a3 fb 3e 40 3a a6 3e
       0.33497554 0.37838387 0.49147904 0.32466316
0000c0 10 0e bd 3e 99 d9 09 3f d5 50 91 3e b7 1d 2a 3f
       0.3692479 0.5384765 0.28381982 0.6645159
0000d0 37 98 bf 3e 52 cf 94 3e 44 61 af 3e 27 85 08 3f
       0.37420818 0.29064423 0.34253895 0.53328174
0000e0 bc f0 6d 3e d0 4d b2 3e fa ed 0d 3f 8b 0d c6 3e
       0.23236364 0.3482499 0.5544125 0.38682207
0000f0 ec a3 7d 3e bf 9c 9a 3e 90 62 d8 3e b2 1e a4 3e
       0.24769562 0.30197713 0.42262697 0.3205467

bias f4 [64]
000000 f5 6c e9 be da 84 f9 be 79 57 b7 be 80 9e 8a 3d
       -0.4559094 -0.4873417 -0.35808924 0.06768513
000010 38 09 b4 bd 01 52 83 bd 58 9e 02 3d 79 91 ce be
       -0.08790821 -0.064121254 0.03188929 -0.40345362
000020 54 d9 e4 bd 83 81 00 bf 03 34 90 be 52 94 df be
       -0.111742646 -0.5019762 -0.28164682 -0.43667847
000030 e6 34 ab be dd 98 c9 be 5a 7b 77 be 52 c2 51 be
       -0.33438796 -0.39374438 -0.24168149 -0.20484284
000040 53 8c cd be b6 b1 22 be 90 97 86 be ae d6 2c bd
       -0.4014612 -0.15888104 -0.26287508 -0.042196922
000050 f3 44 8d 3e 0c 46 45 3d 56 69 fc 3d 72 88 d0 bd
       0.27591667 0.048162505 0.12324779 -0.10182275
000060 62 63 2f bf f5 9e 9e be 78 91 30 3e 73 ac 14 bd
       -0.6851102 -0.3098065 0.17242992 -0.036297273
000070 27 88 0b bf d4 82 33 3d e4 28 5f bc ae ce 40 be
       -0.54504627 0.04382594 -0.013620589 -0.18828842
000080 5a 0e 44 be 59 20 aa be 54 73 8c bf 9e d8 b7 be
       -0.191461 -0.33227804 -1.0972695 -0.35907453
000090 04 50 3b be 29 47 6d be b7 4d 5b bd a4 31 16 bf
       -0.18292242 -0.23171677 -0.05354091 -0.58669496
0000a0 2c bc 78 be 4a 7f 90 be 9c 8d e6 bd 03 32 1e 3d
       -0.24290532 -0.28222114 -0.112574786 0.038621914
0000b0 b7 72 03 3e d9 c3 0d bf b9 cd 15 bf cd ae 3c be
       0.12836729 -0.55376965 -0.5851703 -0.18426056
0000c0 9b b2 fe be 5b 71 13 3e 42 fa 95 3d 5f f1 5c bf
       -0.4974564 0.1439871 0.073231235 -0.86305803
0000d0 cb 41 89 3c 1a 21 55 3e 4b 50 a1 be 03 be 97 bd
       0.016755005 0.20813408 -0.3150657 -0.07409289
0000e0 37 ce 1e 3d 50 01 c3 bd 9e ed 71 be 01 29 ce be
       0.03877088 -0.09521735 -0.236258 -0.40265658
0000f0 17 77 1c 3d 17 f3 06 3e c4 07 29 bf 67 d4 bc be
       0.03819951 0.13178669 -0.66027474 -0.368808

running_mean f4 [64]
000000 a8 91 0a 3f 11 be e5 be a4 1b dd bc 6c 82 a4 3e
       0.54128504 -0.44871572 -0.02699072 0.32130754
000010 01 83 0e 3f 8f 90 a9 bd 5b af 22 be f5 9d a9 3f
       0.55668646 -0.082795255 -0.15887205 1.325133
000020 70 ad 42 3b 82 84 07 bd 4b 38 31 3d 5a 28 87 3e
       0.0029705428 -0.033085354 0.043266576 0.26397973
000030 ba 33 51 3e ef 70 bd be e0 15 dd bd a2 6d e9 bd
       0.20429888 -0.37000224 -0.10795188 -0.11397864
000040 1e 87 4e be 25 4a cf be fd 2a 4c 3e c2 2d 45 3f
       -0.2016873 -0.40486255 0.19938274 0.77022946
000050 17 80 00 bf 7b f2 ae bf 37 25 ea 3e 23 21 4b 3e
       -0.5019545 -1.3667749 0.45731518 0.1983686
000060 b8 c1 b3 bd b5 32 81 bb 87 46 92 3f 97 0c 53 bf
       -0.08777183 -0.0039428123 1.1427773 -0.82441086
000070 a0 4c 80 bf bf 39 9f 3e e3 a6 cc 3c 5f 5f a4 bf
       -1.0023384 0.31098744 0.024981922 -1.2841605
000080 fb 02 10 bf 9a 74 86 bf 85 71 a3 be d6 47 0c 3e
       -0.5625455 -1.0504334 -0.31922546 0.13699278
000090 c7 c3 47 bf 87 77 2c bf ff f1 a1 3e 67 d2 8d 3d
       -0.7803311 -0.67369884 0.3162994 0.06924897
0000a0 cb 4e 89 bc 7b 81 9a 3d f6 a6 24 bf b7 83 19 3e
       -0.016761204 0.07544228 -0.6431726 0.14991651
0000b0 5b fc 6a 3e b6 9f 73 bf a6 45 a6 3e b4 58 23 bf
       0.22947828 -0.95165575 0.32475013 -0.63807225
0000c0 e2 9e a1 be d6 54 7a bf 77 3d 66 bc 40 22 02 bf
       -0.3156653 -0.977857 -0.01405274 -0.5083351
0000d0 98 28 41 bd ec 7d 83 bf cb 57 4f 3d 73 31 ac 3f
       -0.047157854 -1.0272803 0.050620835 1.3452591
0000e0 8d 15 8a 3d 4c e6 dc 3e 55 82 6f 3e 5b 2a 96 be
       0.06742392 0.43144453 0.23389561 -0.2932919
0000f0 40 8d bc be eb 67 52 3d 60 50 03 bd cb 97 0a 3e
       -0.36826515 0.051368635 -0.032059073 0.13534467

running_var f4 [64]
000000 13 c4 b6 3d c8 3c 32 3d d0 43 05 3e 86 59 94 3d
       0.08924117 0.043514997 0.1301415 0.07243638
000010 ea 6c 43 3d a9 50 a1 3d a3 d9 8f 3d 44 8d 46 3d
       0.04771129 0.07876713 0.07023933 0.048474565
000020 e2 69 8e 3d 83 67 35 3d b9 5b 88 3c 13 75 de 3c
       0.06953789 0.04428817 0.0166453 0.027155435
000030 63 71 1a 3d 57 a0 2b 3d 32 b1 de 3d c8 85 26 3d
       0.03770579 0.04190096 0.10873641 0.040654927
000040 4e cb 16 3d 2d c9 47 3d 2a 80 29 3d 5d c8 b6 3d
       0.03681498 0.04877584 0.041381992 0.08924935
000050 b6 f9 53 3d d9 de bc 3d 4d d4 b5 3d 3a cd 54 3d
       0.051751815 0.09222192 0.08878384 0.05195353
000060 11 fd 8d 3c f3 70 38 3d 72 fb 92 3d 1a 9d a6 3d
       0.017332586 0.04502959 0.07176866 0.081354335
000070 65 2b 95 3d da 67 22 3d fa 12 83 3d 37 25 88 3d
       0.072836675 0.03964982 0.06400104 0.06647723
000080 c6 3f 76 3d 77 99 cd 3d be d4 7c 3d 8d fd 9d 3d
       0.060119413 0.10039037 0.061726324 0.077143766
000090 b6 65 f0 3d 20 fa 32 3d 68 35 36 3d 21 84 49 3d
       0.1173815 0.04369557 0.044484526 0.049198274
0000a0 b4 a8 b4 3c 33 74 4f 3d 04 0f 93 3d af bb 64 3d
       0.0220531 0.050647926 0.071805984 0.05584305
0000b0 52 7a 9a 3d 40 27 ad 3d ce f7 61 3d fe 13 69 3d
       0.07542862 0.08454752 0.055167966 0.05690383
0000c0 51 b8 82 3d 36 2b bc 3c c5 3e 6a 3d 84 ce 72 3d
       0.06382812 0.022969823 0.057188768 0.05927898
0000d0 4e e3 2e 3d c8 76 9d 3d 93 bc fc 3c cb 2d 02 3e
       0.042697243 0.07688671 0.030851638 0.12712781
0000e0 69 29 dd 3c 89 a2 11 3d db 4e 80 3d aa b5 5a 3d
       0.026997285 0.035555396 0.062650405 0.053395905
0000f0 14 a8 3f 3d 6f d4 66 3d 0e 91 81 3c 5e 9f a7 3c
       0.04679115 0.056354936 0.015816238 0.020461734

weight f4 [64, 64, 3, 3]
000000 de 1a b8 3e 84 4a 95 3d e2 d9 4b 3d be ae 45 be
       0.35957998 0.07289603 0.049768336 -0.1930494
000010 f1 19 19 bd 34 86 a2 bd e3 91 90 be dc 03 9e be
       -0.037378255 -0.079357535 -0.28236303 -0.3086232
000020 69 63 49 be 8d a5 35 3d fc ec 06 be 55 02 d1 bd
       -0.19666828 0.044347335 -0.1317634 -0.10205523
000030 af ba 73 3d 08 83 0b be eb 7e 27 bd 50 82 13 3e
       0.059504207 -0.13624203 -0.040892523 0.14405179
000040 c5 93 3c bd e6 fb 36 be 60 c1 a1 3c d1 57 2a 3e
       -0.04603936 -0.17869529 0.019745529 0.16635062
000050 e8 b3 ec bd 10 c5 7c bd dc 30 4f 3e 5a a8 dc bd
       -0.11557752 -0.06171137 0.20233482 -0.10774298
000060 a5 0d 62 3e af f2 2d bb 35 85 d6 bb ac 1f 71 bd
       0.22075517 -0.0026542356 -0.0065466412 -0.058868095
000070 14 89 77 3e 5d d2 9c 3d 80 43 8d bd bc 30 ac be
       0.24173385 0.07657311 -0.0689764 -0.3363093
000080 1b da 8c be 42 3f 62 3c 4c 78 e3 bc 09 ce cc 3d
       -0.2751015 0.013809027 -0.027767323 0.100002356
000090 a0 92 d4 bb 79 0a 0f 3f b0 28 62 be 3c ce ab 3e
       -0.0064872056 0.55875355 -0.22085834 0.33555782
0000a0 92 77 6a 3e 8b ef 87 be 84 02 92 bd f0 9d 5a bd
       0.22897175 -0.26549944 -0.07129386 -0.053373277
0000b0 83 1b bc bd 43 b1 c3 bc d4 ad c3 3c 66 53 da bc
       -0.09184935 -0.023888236 0.023886599 -0.026651096
0000c0 02 d1 3a 3e ff 50 93 bd e1 26 63 3e b7 bf 1f be
       0.18243793 -0.07193183 0.221828 -0.15600477
0000d0 37 45 2b 3d f0 53 8c bd 2f 0f 14 3d 7b 76 f7 3d
       0.041814055 -0.06851947 0.036147293 0.12083145
0000e0 f7 0d a4 3d a1 eb bb bd 68 f5 bb bd 70 36 21 be
       0.08010476 -0.09175802 -0.09177667 -0.15743423
0000f0 17 f4 02 be cd bc eb 3a 9a 11 2d bd 54 08 d1 bd
       -0.12788425 0.0017985344 -0.042253114 -0.102066666
000100 74 67 43 be b9 73 00 3e c9 68 1a 3d f7 d6 b5 3d
       -0.19082433 0.12544145 0.037697587 0.08878892
000110 1d a4 ea be 1f db 05 3c 1f 69 05 3f 57 e4 84 3d
       -0.45828333 0.008169918 0.5211353 0.06488865
000120 db ea 02 be 9f 24 f5 bc 5c 60 08 3d 43 24 bb bc
       -0.12784903 -0.029924689 0.03329502 -0.02284444
000130 68 72 f4 bd db de 0a 3e c9 db 84 be 3c 35 ae bd
       -0.11935884 0.13561575 -0.25948933 -0.085062474
000140 ac 72 40 bd 7d f2 85 3e 3c 62 b6 3e a5 24 6f bd
       -0.04698436 0.26161566 0.35621822 -0.058384556
000150 29 c4 09 3e 98 50 96 bf b2 de 95 3e 80 b9 81 3e
       0.13453735 -1.1743345 0.29271466 0.25336838
000160 e4 02 24 3f 5d a2 bb be 15 7e c6 bd 30 a5 23 bd
       0.6406691 -0.3664731 -0.09692017 -0.039952457
000170 72 6f 6d 3e 67 da f0 bd 7c 2c 04 be 3c 17 8c 3e
       0.23187044 -0.11760407 -0.12907594 0.27361476
000180 69 8d 81 bd b0 12 5a be 2b d9 85 3d e8 42 aa 3c
       -0.063258 -0.21296191 0.06535562 0.020783857
000190 b7 5e c5 3e 7b c2 22 bd 03 3f c7 bd b7 1c 90 bd
       0.38548824 -0.039736252 -0.097288154 -0.07036727
0001a0 a2 d9 75 bc 05 9b 4a 3c 15 66 e1 bd 85 e4 28 3d
       -0.015005501 0.012366061 -0.11005799 0.04123356
0001b0 27 a8 b1 3e 5d 79 8d be 35 80 3a be 33 19 b7 3e
       0.34698603 -0.27631655 -0.1821297 0.35761413
0001c0 70 b8 5a bd 93 c0 10 be 5d c7 5b 3e 84 10 d8 bd
       -0.05339855 -0.14135961 0.2146277 -0.10550025
0001d0 d2 15 3d be f1 5a d5 bd 18 69 d0 bd 58 20 9a bd
       -0.18465355 -0.10417736 -0.10176295 -0.075257
0001e0 fb 6f 39 3d a1 74 bf 3e 19 de 49 ba d7 99 c5 bd
       0.04527281 0.37393668 -0.00077006366 -0.09648483
0001f0 39 8e 5b 3d bb 4f 2a be a6 c9 f6 be 7a 28 4d 3d
       0.05360243 -0.16631977 -0.4820072 0.05008743
000200 9e 82 3d 3d e6 3c bc be d5 d4 91 3e 00 f9 35 3e
       0.046267144 -0.36765212 0.2848269 0.17770767
000210 d9 97 bc be 88 89 f4 3d 8c a9 88 3d 25 ec d4 3d
       -0.368346 0.119402945 0.066729635 0.103966035
000220 92 c1 88 3d ae bb eb bb 11 18 2d be 27 e5 9b bd
       0.066775456 -0.007194004 -0.16903712 -0.07612067
000230 41 4d 08 be 95 1e 8a 3e 67 89 7d 3e 67 16 f5 bd
       -0.1331072 0.26976457 0.24759446 -0.119671635
000240 67 45 b5 bd 3d 7f dc 3e e8 29 2a 3e 7b a8 55 3d
       -0.08851128 0.43065825 0.16617548 0.05216263
000250 ad d6 62 be 09 da e3 3d 3b 7f 07 be 27 87 57 be
       -0.22152205 0.11125571 -0.13232128 -0.2104765
000260 2d 67 76 bd f5 4c 24 bc 30 22 e2 bd a5 7a c6 3d
       -0.06015699 -0.010028114 -0.11041677 0.09691361
000270 f9 b7 1a be e7 6d 42 be d3 74 68 3e 7b fa 0a be
       -0.15109242 -0.18987237 0.22700815 -0.13572113
000280 a2 49 0f be 47 54 33 3e cc 9f 81 3d a2 18 c2 3b
       -0.13992932 0.17512618 0.06329307 0.0059233466
000290 3b 0b d3 3d 98 91 84 bd 71 48 06 be 68 3f 55 3d
       0.103048764 -0.06473082 -0.13113572 0.052062422
0002a0 a3 64 f0 bc 04 61 d1 3d e4 5f 6f bd 54 be 57 bd
       -0.029344862 0.102235824 -0.058441058 -0.052671745
0002b0 f9 88 b5 3c e5 8f 8e 3d 55 0f cd bd 83 eb 08 bd
       0.02216004 0.069610395 -0.1001269 -0.033427726
0002c0 43 ba cd be e6 d7 c4 bb c0 ba 2c bd eb e1 5f ba
       -0.4018117 -0.0060071824 -0.042170286 -0.00085404393
0002d0 07 85 2c 3e 4b b9 c3 be 55 63 4e 3d 88 5a df bd
       0.16847621 -0.38227305 0.0503877 -0.10905939
0002e0 99 ad 5a 3e ca 5d 2b be b1 07 50 be e5 83 13 bd
       0.21355285 -0.16734996 -0.20315434 -0.036014456
0002f0 53 b1 6f bd 00 ea 2a 3d b7 1f 36 3e fb a6 3f 3e
       -0.05851872 0.041727066 0.17785536 0.18716042
000300 52 ae da 3d 58 e2 b4 bc b8 64 c9 be 94 b1 10 be
       0.1067778 -0.022080585 -0.39334655 -0.1413024
000310 ba b8 62 bc 3c c4 d6 3d aa 0c 32 bc 7c 51 cc be
       -0.013837988 0.104866475 -0.010867277 -0.39905918
000320 95 d0 6c 3e 89 0e d8 3d fe a7 8c 3e d1 19 01 be
       0.23126443 0.10549647 0.27471918 -0.12607504
000330 81 1d 57 3e 89 0f 9b bd 3a 3b 89 bc f2 74 ad bc
       0.21007349 -0.075713225 -0.016751874 -0.021173928
000340 76 b8 cd bd 28 d8 ca bd 4a 96 6e be e8 f9 69 bc
       -0.10044949 -0.0990451 -0.23299518 -0.014280774
000350 47 e9 04 bd 90 e7 52 3e 3b f0 f0 3d dc 61 4e be
       -0.032449033 0.20596147 0.1176457 -0.20154518
000360 5b eb d4 bc ec 42 03 3e ce eb c0 bd e0 81 16 be
       -0.025991132 0.12818497 -0.09419976 -0.14697981
000370 26 ab c0 3b ce f0 2f 3e 34 86 a1 3d d0 a6 31 bd
       0.0058797775 0.17181703 0.07886925 -0.043371975
000380 f9 13 34 38 1f 61 de 3d a4 e9 b0 3d 94 54 84 3e
       4.2933945e-05 0.10858368 0.086383134 0.25845778
000390 af ff 70 3d 8c 08 1f be 00 d1 31 be 5a c4 71 3d
       0.05883759 -0.15530604 -0.17364883 0.059025146
0003a0 bd 16 3b be 42 3c 0a 3d 3b c9 c7 3d 07 f5 17 3e
       -0.18270393 0.033748873 0.097551785 0.14839564
0003b0 22 5c d5 3d 86 1f be 3c 94 50 6e 3d 21 8f de 3c
       0.104179636 0.02320839 0.058182314 0.027167859
0003c0 98 eb 95 bc f2 d8 92 3b 80 f4 b3 3d 9e 35 a9 be
       -0.018300816 0.0044814283 0.08786869 -0.3304872
0003d0 8f a2 88 bd 29 57 8a bd 23 3b 9b bd 18 a7 af be
       -0.066716306 -0.06754906 -0.07579639 -0.3430717
0003e0 85 17 20 3e 55 f2 06 be e5 1b 80 bb 6b b7 1d be
       0.15633972 -0.1317838 -0.0039095753 -0.15402
0003f0 1b fa 40 be bb 2f 3c be 88 27 17 be 63 0b 52 be
       -0.18845408 -0.18377583 -0.14761174 -0.20512156

bias f4 [64]
000000 41 88 d4 3e a4 2a 8f be 9b 25 18 3e 5c ae 36 be
       0.41510203 -0.2796222 0.14858095 -0.1783995
000010 b3 fa 41 bd 75 88 b7 be 76 e4 d5 3c ec 4e ed 3c
       -0.047358226 -0.35846296 0.026109915 0.028968297
000020 d4 5a 87 be 31 e2 29 3e 90 9e 2a bd d3 21 f4 3d
       -0.26436484 0.16590191 -0.041655123 0.11920514
000030 23 a4 1f bd 7a 8e 14 3e f6 76 96 3e 8f e3 5f bd
       -0.038974892 0.14507475 0.29387635 -0.054660376
000040 f1 25 a7 3e c6 65 2a be 55 d2 87 3d a4 89 06 bd
       0.32646134 -0.16640386 0.066319145 -0.032846108
000050 ce b1 55 be 5e b6 2c 3e cc a2 1e be 9e 1d 0a 3e
       -0.20868608 0.16866443 -0.1549179 0.1348786
000060 cd 4a 93 3e 56 41 68 3d 53 fa 58 be 7c 64 7a bd
       0.28768006 0.056702934 -0.21189241 -0.061130986
000070 39 76 07 3b 34 f7 62 3d 4a d6 90 bd 40 f0 8a be
       0.0020669831 0.055411533 -0.070721224 -0.2713642
000080 25 46 97 be f4 2e cb 3d 56 c3 f8 be f5 ad 81 be
       -0.29545704 0.09921065 -0.4858653 -0.2532803
000090 20 78 42 3e 42 f5 b0 bd 1c 70 20 3e 8b 6e 1d 3e
       0.18991137 -0.08640529 0.15667766 0.153742
0000a0 a7 3c f8 3d 22 a7 35 be 5a 7c 87 be c2 a9 0c bf
       0.121209435 -0.17739537 -0.2646206 -0.5494653
0000b0 d7 f9 d4 3b 93 df 3f 3d 91 cc 05 be 03 21 3f 3e
       0.00649951 0.046844076 -0.13066317 0.18664937
0000c0 12 a8 70 3d e4 f7 03 bf 76 29 8b bd 00 fc 1a be
       0.058754034 -0.51550126 -0.067950174 -0.15135193
0000d0 c1 f2 49 be 80 66 5c be 30 1b c7 be 71 ac 42 be
       -0.1972151 -0.21523476 -0.3888793 -0.19011094
0000e0 60 80 f5 bd eb d6 d7 be 87 55 5f 3e d2 6d e1 3e
       -0.11987376 -0.42156157 0.2180997 0.440291
0000f0 49 0d 07 3e 94 ca a6 3d 46 ae 39 be 63 cd 86 3e
       0.13188662 0.081441075 -0.18132886 0.26328573

weight f4 [64]
000000 9c 83 19 3f 41 f3 e9 3e ed c3 06 3f ed 81 a9 3e
       0.59966445 0.456934 0.5264271 0.33106938
000010 cc c9 2c 3f 8f db f1 3e 89 25 9d 3e 30 6a 3e 3f
       0.6749542 0.47237822 0.306927 0.7438078
000020 48 50 1e 3f db 9d 01 3f 64 3c 3e 3f a8 39 b3 3e
       0.6184125 0.50631493 0.743109 0.35004926
000030 10 59 2b 3f 0b 6a 55 3f 02 a4 b7 3e a5 a4 9a 3e
       0.66932774 0.83364934 0.35867316 0.3020374
000040 f6 c1 da 3e 21 33 23 3f 8a d7 a8 3e c8 08 bc 3e
       0.42726105 0.6374989 0.32976943 0.3672545
000050 2d 75 b2 3e d6 18 a3 3e e7 8b 9c 3e b8 8d ca 3e
       0.34855023 0.31854886 0.30575487 0.39561248
000060 2e 65 04 3f 33 d5 1b 3f e8 6f 96 3e 93 48 3b 3f
       0.5171689 0.6087219 0.29382253 0.73157614
000070 ad 16 15 3f 07 f6 f2 3e 9d e4 fa 3e 3c aa da 3e
       0.58237725 0.4745333 0.49002543 0.42708004
000080 65 d2 e3 3e 2b 71 be 3e ce 35 b7 3e ec 10 ec 3e
       0.44496456 0.37195715 0.35783237 0.4610666
000090 ee 2e c3 3e d6 b3 23 3f 8a ed 02 3f e3 df 25 3f
       0.38121742 0.6394628 0.51143706 0.6479475
0000a0 d6 09 8f 3e 10 9d e6 3e 23 18 c4 be da bc 1b 3f
       0.27937192 0.45041704 -0.38299665 0.6083504
0000b0 ee 83 f2 3e 95 a3 26 3f 8c 46 41 3f c3 97 bf 3e
       0.4736628 0.65093356 0.7549827 0.37420473
0000c0 f6 36 2f 3f 9e d7 bd 3e bc a7 07 3f a1 7f a3 3e
       0.6844324 0.37078565 0.5299032 0.3193331
0000d0 e0 9e 31 3f 93 95 38 3f 07 4b ca 3e 68 14 1e 3f
       0.6938305 0.7210323 0.39510366 0.6174989
0000e0 7a 35 bf 3e 18 c9 f4 3e cb fe aa 3e 3f 4c 30 3f
       0.37345487 0.47809672 0.33397517 0.6886634
0000f0 0a fa 50 3f 69 ef a7 3e 16 e0 2f 3f bf 3d 14 3f
       0.8163153 0.32799843 0.68701303 0.5790672

bias f4 [64]
000000 1c a9 81 bf bc a4 43 3e 76 57 7b be 2e e9 9c bd
       -1.0129733 0.1910581 -0.24545082 -0.07661663
000010 e8 e4 32 be 05 34 15 bf bb 0a 00 3b 4c 98 8b be
       -0.17470133 -0.582825 0.0019537646 -0.2726463
000020 c4 cb b9 be 27 1c 2f bf 84 0a af bd d6 e0 81 be
       -0.36288273 -0.6840233 -0.085469276 -0.2536685
000030 01 a2 1e be d6 39 17 bf 59 c3 f3 bc 23 ce 07 be
       -0.15491487 -0.59072626 -0.029756235 -0.13262229
000040 55 6b ce be 2a 90 09 3e 4a ca 8d 3d e6 2d 9c 3c
       -0.40316263 0.134339 0.06923349 0.019064855
000050 56 d0 6d be 5f 6e b0 3e a1 f8 12 3f a4 0a 88 bd
       -0.23224005 0.34459206 0.5741063 -0.066426545
000060 30 42 32 3d d5 ae 2d bd d6 4f 43 3e 4c 19 98 be
       0.043520153 -0.04240306 0.19073424 -0.297068
000070 a7 dc f1 be 20 bd 57 be 86 e9 3c bf 17 7d 79 be
       -0.47238657 -0.21068239 -0.7379383 -0.24364124
000080 fe d1 c2 be 08 5c 8e bd 9c 96 a6 be fd 6a 24 3d
       -0.38050836 -0.06951147 -0.3253678 0.040141094
000090 48 bf 06 3f d1 6d 8c be 3d b5 0f bd d7 6f 95 bf
       0.5263562 -0.27427533 -0.03508495 -1.1674756
0000a0 89 89 87 3e 6a a9 db be b3 66 8f be 67 f0 ce 3d
       0.26472118 -0.4290269 -0.2800804 0.10104447
0000b0 f2 5c a4 be 48 aa 7e bf bf 1d 54 be 48 49 76 3e
       -0.32102162 -0.9947858 -0.20714472 0.24051392
0000c0 ef 14 df be d5 7e 7b be 01 6a bd be ce d5 b0 bd
       -0.4357066 -0.24560101 -0.36994937 -0.0863453
0000d0 04 ff c5 bc 77 ed 0f bf f4 f5 b1 be b2 9a 04 be
       -0.024169452 -0.5622172 -0.3475796 -0.12949637
0000e0 8e 67 c8 be 0d 32 87 bd 38 c8 5a be 21 1d 01 bf
       -0.39141506 -0.06601343 -0.2136544 -0.5043507
0000f0 6b c5 f6 bd 8f b8 31 be 1c c0 f8 be 49 01 1f bf
       -0.12049373 -0.1735556 -0.48584068 -0.62111336

running_mean f4 [64]
000000 c3 2d 0d 3e 5d 76 c7 bf 8d 1e 9d bf 13 95 f3 bd
       0.13786988 -1.5582997 -1.2274948 -0.11893668
000010 3a 8c 17 bf f0 d4 92 bf f3 e8 f1 3f 6c 77 14 bf
       -0.59198344 -1.1471233 1.8899215 -0.57994723
000020 a8 6c 8b bf 71 02 af bf 39 59 cc bf 7e db 72 bf
       -1.0892534 -1.367262 -1.5964729 -0.9486617
000030 73 3b 11 bf da b4 54 bf a7 57 2e 3e d4 c4 b6 3e
       -0.5673134 -0.8308846 0.17025624 0.35697043
000040 c0 55 c0 be 04 dd 89 bf 55 19 a5 bd 9f 4a 24 3f
       -0.37565422 -1.0770574 -0.08061472 0.6417636
000050 fb 37 28 3f 3c f0 0d 3f 8f 9d 68 bf a9 88 3f 3e
       0.6571042 0.55444694 -0.90865415 0.18704475
000060 c1 27 d5 bc 70 52 c6 3f 86 0a 16 bf 7b 03 7f bf
       -0.026019933 1.5493908 -0.5860981 -0.99614686
000070 4e ef cd be 80 42 88 bf dc 56 6a 3f b5 3b a6 bf
       -0.40221637 -1.0645294 0.91538787 -1.2986971
000080 1f 35 13 3e 93 43 4d bf 3f cb e1 3e 00 ab ab be
       0.14375733 -0.80181235 0.44100377 -0.335289
000090 bc ef f0 3d 93 42 62 bf f9 28 01 40 eb 10 11 bf
       0.11764476 -0.88382834 2.0181258 -0.5666644
0000a0 ac 97 76 bf 38 0c af 3f cf 6e 49 3e 59 e6 b0 3f
       -0.9632518 1.3675604 0.19671176 1.3820297
0000b0 59 74 44 bf c3 9b ac 3f 9f 35 1a be 49 52 86 bf
       -0.7674003 1.3485035 -0.15059517 -1.0493861
0000c0 c8 eb 78 bf 8f 48 eb bf 82 ca 75 bf cc d0 24 bf
       -0.97234774 -1.8381518 -0.9601213 -0.643811
0000d0 42 7f 02 c0 8e 1c 12 3f 26 e1 e3 be a6 ec be be
       -2.0390172 0.5707482 -0.44507712 -0.37289923
0000e0 a7 51 47 be 17 9a b2 bf 61 ec 84 be ef bb 20 bf
       -0.19464742 -1.3953274 -0.25961593 -0.62786764
0000f0 07 f7 bc 3f d1 d0 ce 3e cd 4d 90 3e 75 a4 09 3f
       1.4762887 0.4039369 0.28184357 0.53766567

running_var f4 [64]
000000 35 74 73 3e c7 c8 63 3f 5f d6 06 40 8f 79 6b 3f
       0.23774798 0.88978237 2.1068342 0.9198236
000010 da 04 f5 3f 26 6d 85 3f 40 f5 25 3f 27 69 a7 3f
       1.9142106 1.0423934 0.64827347 1.3078965
000020 29 e5 81 3f 9e 78 79 3f 47 07 b9 3f 1a 75 b9 3f
       1.0148059 0.9744967 1.4455346 1.4488862
000030 29 d1 8c 3f f4 5e ee 3f e4 6e a1 3f 7c 8c 37 3f
       1.1001331 1.8622727 1.2611966 0.7169874
000040 78 94 2a 3f 95 4c cb 3f 5a 7e 82 3f ed 5b 52 3f
       0.66632795 1.5882746 1.019481 0.8217152
000050 8f 19 8c 3f e7 f4 36 3f ee 70 82 3f 84 2b 64 3f
       1.09453 0.7146744 1.0190713 0.891289
000060 cf cc a1 3f a8 ec f9 3f 8e 6a 5d 3f 60 d7 95 3f
       1.2640628 1.9525347 0.86490715 1.1706352
000070 64 41 6b 3f d5 83 06 40 7e aa 49 3f 75 81 98 3f
       0.91896653 2.1017964 0.78775775 1.1914507
000080 89 02 26 3f ec 16 9d 3f 7d 3a 53 3f ee bf 9d 3f
       0.6484762 1.227262 0.8251112 1.2324197
000090 fb 6c ad 3f 99 6a ef 3f 92 c0 b1 3f 5d c1 30 3f
       1.3548883 1.8704406 1.3886893 0.6904505
0000a0 f9 3e c8 3f 2d 3a d3 3f 79 9b 41 3f 63 e2 a9 40
       1.5644218 1.6502129 0.7562786 5.308885
0000b0 44 84 5d 3f 3c 83 47 3f 78 6d 64 40 b5 38 b3 3f
       0.86529946 0.7793462 3.5691814 1.4001681
0000c0 87 db c7 3f 0a ad 33 3f 2f f3 d2 3f a6 5c 6f 3f
       1.561387 0.7018591 1.6480464 0.93500745
0000d0 4a d8 f9 3f 8d af 13 40 ad 86 02 3f c5 16 bc 3f
       1.9519131 2.3075898 0.5098675 1.4694449
0000e0 a9 ee e7 3e f1 77 93 3f a9 d7 b5 3f c3 68 07 3f
       0.4529927 1.1520978 1.4206439 0.5289423
0000f0 15 4a 9c 3f c9 3d 22 3f 56 49 a1 3f fd 32 53 3f
       1.2210108 0.63375527 1.2600505 0.82499677

weight f4 [64, 64, 3, 3]
000000 61 d0 2a 3d d5 4b b7 3b 1f 7b 2b 3e ad 9c 54 be
       0.04170263 0.0055937567 0.16746186 -0.20762892
000010 59 cb 85 be 01 47 b9 bf a4 ef 18 bd 0b 21 a3 3b
       -0.26131704 -1.4474794 -0.037337914 0.0049783043
000020 a8 22 85 bf c9 0b 37 be 07 82 04 3e 05 e6 36 3e
       -1.0401201 -0.1787559 0.12940226 0.17861183
000030 59 d8 d5 bd f7 a6 75 3d 38 64 aa 3d bc 1a c7 bd
       -0.10441656 0.059973683 0.083198965 -0.09721896
000040 8e f6 25 39 21 41 40 be 92 eb 8e bd 4a 1f 92 be
       0.00015827475 -0.18774845 -0.06978525 -0.28539497
000050 2f b8 88 be d2 75 82 be a1 f5 86 be 64 19 23 be
       -0.2670302 -0.25480515 -0.26359275 -0.15927655
000060 f7 38 49 3e 27 da 2e be 4c 08 c5 be d2 62 9c bd
       0.19650637 -0.17075406 -0.38482893 -0.07636036
000070 cb f8 0e bd 70 28 46 be ab 04 d2 bd 23 e6 34 be
       -0.034905236 -0.19351363 -0.102547966 -0.17665915
000080 5b c5 7e bd 86 ce a3 be 36 9d c9 be f2 ad df 3d
       -0.06219993 -0.31993502 -0.39377755 0.10921849
000090 dc 94 00 bc 63 45 c6 bd 17 6f ab be 62 29 0a 3d
       -0.007847991 -0.09681203 -0.33483192 0.033730872
0000a0 6c 2b 0d 3e 1f c3 0d 3e 1b dc 07 be 5d 70 9d be
       0.13786095 0.13843964 -0.13267557 -0.3074979
0000b0 bc 26 ab be 3d 8b 9b 3c e3 93 47 3e dd ed 6f be
       -0.3342799 0.018987292 0.19490008 -0.23430581
0000c0 67 42 cb 3c 7e 0d b0 bb d2 ed 42 bd b1 61 08 3e
       0.024811937 -0.005372702 -0.047590084 0.13318516
0000d0 27 38 fd 3d 89 bd b3 3d ff 99 6a 3d 0f 15 08 3d
       0.12364226 0.08776385 0.05727577 0.033223208
0000e0 80 74 87 3e 08 54 89 be 04 3b 12 bf ac a1 3f be
       0.2645607 -0.26821923 -0.571213 -0.18714017
0000f0 48 f7 e1 bd 1a d9 c8 3d f8 ad c9 3b 00 26 6c 3e
       -0.11033493 0.09807034 0.006154772 0.23061371
000100 78 5b b9 3d 99 8f 9b bc b3 f7 40 3e a7 8e 8c 3e
       0.090506494 -0.018989371 0.1884449 0.27452585
000110 c0 e1 0e be 6f a3 82 be ef 8a bb 3b f9 30 f5 3d
       -0.13953304 -0.25515315 0.0057233493 0.119722314
000120 ae f8 a2 be 86 cc 0b be f1 45 24 be ce 1d e3 be
       -0.31830353 -0.13652238 -0.16042306 -0.44358677
000130 94 b0 c8 bd ad 40 c6 bd 96 83 1c bf 29 e4 d8 be
       -0.097993046 -0.09680305 -0.61138284 -0.42361572
000140 8c 38 ec be c1 7d 48 be c5 32 81 3d 8f 95 e5 3e
       -0.46136892 -0.19579221 0.06308512 0.44840667
000150 e6 44 86 be 92 21 89 be ea fa 1c 3e 7d f0 91 be
       -0.2622444 -0.26783425 0.15330091 -0.2850379
000160 e4 76 c5 bd 59 75 6a 3d 18 a4 34 3e 41 8e 98 be
       -0.09641817 0.057240818 0.17640722 -0.2979603
000170 8b d4 dd 3d fb bd 7c bd 98 56 0b 3d 20 ff de bd
       0.10831555 -0.061704617 0.03401813 -0.10888505
000180 47 ca 50 3e 06 44 4f 3e 62 37 02 be 20 b8 46 3d
       0.20389663 0.20240793 -0.1271644 0.04851544
000190 28 0e 92 be ce 34 82 3e 4f df 6d be 9f 5c ce be
       -0.28526425 0.25430912 -0.23229717 -0.4030504
0001a0 17 13 fb bd 96 b9 02 3e 8d 48 e0 3d c5 38 95 bc
       -0.122595005 0.12766108 0.10951338 -0.018215546
0001b0 25 d9 04 3e 3f 63 66 be 3d 88 8a 3b 66 61 d4 3d
       0.12973459 -0.22498797 0.0042276666 0.1037014
0001c0 04 f8 b9 3d bc 64 07 be c3 b0 35 be 2d 6c c8 bd
       0.09080508 -0.13222021 -0.1774321 -0.09786258
0001d0 6e 2a 9e 3d 75 e8 18 be db 8c 7f 3d cd 1b 64 3e
       0.077229366 -0.14932425 0.06239019 0.2227623
0001e0 9b 3f d2 3d d2 7a 62 be d6 af 40 3e 4a cb 22 3d
       0.10266038 -0.22117165 0.18817076 0.039744653
0001f0 9c fa d7 bd 00 44 60 3d dd c0 9d bd 4f 76 a5 be
       -0.10545847 0.05475235 -0.077028014 -0.32316825
000200 b3 33 10 bf be db cd 3e c7 ba 38 3c 25 c1 f8 3d
       -0.56328887 0.40206712 0.011275 0.121462144
000210 48 34 96 bd d1 ce 09 bf 2a 9d 4f 3e 7f 8a 90 be
       -0.073341906 -0.538312 0.20274797 -0.28230664
000220 5d 4d 94 be e3 8d cf 3e 19 01 f8 3d d1 1a dc bd
       -0.28965273 0.40537938 0.12109584 -0.10747302
000230 3d 73 e5 be 25 60 20 3e 76 1f 39 3f d5 38 02 bf
       -0.44814482 0.15661676 0.7231363 -0.5086797
000240 e3 95 b9 3e e9 ca 2b be 75 28 8b be a5 56 18 3e
       0.36247167 -0.16776623 -0.27179304 0.14876802
000250 38 ad 4e be c0 f4 81 be e0 e8 d7 3e e0 79 89 be
       -0.20183265 -0.25382042 0.42169857 -0.26850796
000260 7e d1 4b be 26 24 f3 3d c4 b2 22 bd 32 2e e0 3e
       -0.19904134 0.11872129 -0.039721265 0.43785244
000270 39 12 8f 3d a8 59 7f bc bc c4 78 3e ec 13 85 be
       0.069858976 -0.015585341 0.24293798 -0.25991762
000280 9b 55 4a 3e 6b c4 b8 3d 85 60 f1 bd be 6d ef be
       0.19759218 0.09021839 -0.11785988 -0.46763414
000290 2f 3c 12 3c 1c 18 88 be 10 06 45 bf ac e7 80 bf
       0.008925482 -0.26580894 -0.76962376 -1.0070701
0002a0 0d 0b be 3d 30 47 8c be f9 94 7c be e4 88 3e 3e
       0.092794515 -0.27398062 -0.24666204 0.18606907
0002b0 9c 40 bc 3d 48 c0 b1 be 95 af 6c 3d 52 97 0e 3e
       0.09192011 -0.3471701 0.057784636 0.13924912
0002c0 24 65 57 3d 09 cc 30 be 9e e8 7b be 3e d2 08 be
       0.05258669 -0.17265333 -0.24600455 -0.13361451
0002d0 3f aa a4 3d b0 46 52 bd 09 6f b3 3c 85 78 9c 3e
       0.08040284 -0.051336944 0.021903532 0.305607
0002e0 77 53 e2 bd 44 62 78 3e a2 b0 c6 3e d6 5d de be
       -0.11051076 0.24256235 0.38806635 -0.43430966
0002f0 29 fe 16 bd 60 91 3e be 16 9b 4d 3d 76 ab 5a 3e
       -0.03686348 -0.18610144 0.05019673 0.2135447
000300 32 1c 56 3e c8 82 46 bd bf dc 31 3e 69 e1 d6 3d
       0.20909193 -0.048464566 0.17369364 0.10492212
000310 a7 c5 6a 3c c9 0e db bd c8 66 81 be 93 ef a2 bd
       0.014329351 -0.106961794 -0.25273728 -0.079558514
000320 37 a5 60 be 9e c8 e3 bd 8b 1b 14 3e f9 e9 8f 3e
       -0.21938024 -0.11122249 0.14463632 0.28108194
000330 37 46 56 be c9 7c 17 3e 49 76 21 3e 03 16 03 3e
       -0.20925222 0.14793696 0.15767778 0.12801366
000340 ff ba 78 3e a0 5a c0 3e bd 21 ba be be 8e ca 3d
       0.24290083 0.3756914 -0.36353865 0.09890507
000350 a5 f9 d0 bd 0d 4c 80 bd d8 26 91 3e 31 72 83 3e
       -0.10203866 -0.062645055 0.28349948 0.2567306
000360 29 0d 01 3e a9 62 1f bd 97 b9 04 3d b7 90 b3 bd
       0.12602676 -0.03891245 0.032403555 -0.087678365
000370 c9 0f 67 39 6f 5f 88 3d 41 b4 5d bd fb b7 73 be
       0.00022035757 0.066588275 -0.05412698 -0.23800652
000380 5d 83 60 be fd 78 d6 bd 5e 63 5e be f9 67 1c bf
       -0.21925111 -0.104722954 -0.21717593 -0.6109615
000390 68 7d 89 3b 9f e8 e1 39 50 4d a1 be 2a 1a 09 3d
       0.004195858 0.0004308866 -0.31504297 0.033472218
0003a0 05 df 06 be 33 cd 06 bf bb ff 6c be c4 a8 43 be
       -0.13171013 -0.5265686 -0.23144428 -0.19107348
0003b0 55 a1 3b 3d 1c 91 59 3e 45 55 d5 bd 7c 92 04 3d
       0.045808155 0.21246761 -0.104166545 0.03236626
0003c0 5b 49 7f 3e 47 33 e5 bd 12 9e e2 3d 99 cc 2f be
       0.24930327 -0.11191421 0.11065306 -0.17167892
0003d0 30 cc 86 3d 48 6e 34 3e 15 1d 7a be cf a8 0f 3e
       0.065819144 0.17620194 -0.24425156 0.14029239
0003e0 79 d8 e0 3b bf 72 73 3e ec 93 14 be c9 0a 87 3e
       0.006861743 0.23774241 -0.14509553 0.26375416
0003f0 df ea fe 3e 0f f7 1d 3e 32 e3 a0 3e f4 c3 0c 3d
       0.49788567 0.15426277 0.31423336 0.034366563

bias f4 [64]
000000 bb 07 66 be e0 37 00 3d 3a 99 5b bd 74 d1 99 3c
       -0.22463886 0.031303287 -0.053612925 0.018776633
000010 84 e5 32 bd 3a f0 4e be e4 c5 96 bc 68 34 fa 3c
       -0.043675914 -0.20208827 -0.018404908 0.030542567
000020 43 2a 9b be 01 9b 70 3e 40 4e 74 bd 8b 08 e4 bd
       -0.3030568 0.2349663 -0.059644938 -0.11134442
000030 49 da 41 3e 96 50 2f be cb 72 76 3e af f2 8c 3e
       0.18930925 -0.17120585 0.24067228 0.27528903
000040 4d 19 04 3f fd 72 c9 bc c0 ed 63 3d 86 3b 82 be
       0.51601106 -0.024590963 0.055646658 -0.25436038
000050 5c a0 d3 3c 16 e5 91 3e b6 0c e2 bd a5 fd 83 3e
       0.025833301 0.2849509 -0.11037581 0.25779453
000060 5c 9c 3a be bb 03 c5 3c 2e 0d 2f bd 31 96 21 be
       -0.18223709 0.02404963 -0.04273718 -0.1577995
000070 fc 02 de 3c 49 86 82 3e ef 7e ec 3d 18 2d af bd
       0.027101032 0.25493076 0.11547648 -0.08553523
000080 83 40 be 3d 65 39 ff bd 67 e2 21 bd c5 48 5f be
       0.092896484 -0.12462119 -0.039522555 -0.21805103
000090 07 f9 03 be 92 7e 46 3e 9e 4f a6 3c 41 14 e2 3c
       -0.12887965 0.1938422 0.020301636 0.027597548
0000a0 71 3b a2 3a ad b9 2b be 55 ae a6 bd f7 25 bf 3c
       0.0012377334 -0.16770048 -0.0813872 0.023333533
0000b0 7c db db 3d 8c 06 c9 3d 3d 32 9b bd 47 02 05 be
       0.10735223 0.09815702 -0.075779416 -0.1298915
0000c0 18 d5 7d be 08 27 b1 be 77 82 2b be a5 b5 ee 3d
       -0.2478832 -0.3460009 -0.16748987 0.1165574
0000d0 3c 36 57 3e fe c0 10 3e 85 8e 5e 3d 53 b9 ef bd
       0.21016783 0.1413612 0.054335136 -0.1170527
0000e0 b9 4c 22 be 15 d2 dc bc ae da 4c bb fb 80 00 be
       -0.1584958 -0.026955644 -0.0031258273 -0.12549202
0000f0 f1 7d 76 be d1 30 80 be 1c e5 8a bc 3c 17 9e be
       -0.2407148 -0.25037244 -0.016954951 -0.308771
