models/vishal_lr_001_iter_300.pt_246_128.pt (torch_old, 776281 bytes, 39 tensors)

weight f4 [64, 1, 3, 3]
-0.20764251 -0.18581966 0.31413472 -0.1159476 -0.12828144 0.33086205 -0.26750183 -0.036140226
0.30222878 0.09857101 0.112706244 0.022794064 -0.24622037 0.29896352 -0.011528767 -0.4910229
0.07896256 0.14349034 0.00011923164 -0.05165367 -0.025371179 -0.022006653 -0.057557628 -0.06599438
-0.08695571 0.09911482 0.03652267 -0.5745164 -0.25824624 -0.36464348 -0.56995785 0.113872744
-0.13220017 -0.05212356 0.70445216 0.3821979 -0.054806575 -0.11193515 0.04118187 -0.08702316
0.021784054 0.05416524 -0.039321054 0.0074304743 0.061972197 -0.057922993 -0.056273345 -0.054745637
0.30688012 0.17500618 0.12048319 0.06679417 0.02448268 -0.041018166 -0.043423265 0.09918227
0.19006659 0.07756735 -0.49123672 -1.2707665 0.3685767 -0.10303721 -0.5114804 0.11219997
-0.23384278 0.1732519 0.21651517 -0.29409558 -0.037063185 0.16111417 -0.03384137 -0.08884585
-0.09212455 -0.068225026 -0.06139477 -0.075760886 -0.039587524 -0.032066643 0.083578944 -0.071450755
0.07422769 -0.22208697 0.17624336 -0.00038765417 0.030821707 0.41723874 -0.4181912 -0.056010682
-0.015721425 0.048023265 -0.043839153 0.03414142 0.00018977374 -0.09324878 0.06872171 0.030959383
-0.07052688 -0.014524177 0.07356985 0.0052870833 0.50336933 -0.10853398 -0.09732236 -0.21364158
-0.20613359 0.08064602 -0.2660286 0.26769435 -0.002142027 0.0074252635 -0.0034067482 -0.0601396
-0.009180054 0.01455456 0.061365128 0.0906623 -0.050676037 0.10754164 0.014922989 -0.060601957
-0.33314446 -0.52387935 -0.06304644 0.25617972 0.166735 0.44429332 -0.3995726 0.3490284
0.19776744 -0.04632539 -0.3618846 0.23562114 0.46201617 -0.24362418 -0.20220356 -0.31868488
0.29752263 -0.08031425 -0.24910535 0.4683761 0.092487596 -0.3109546 0.19263521 -0.08059938
-0.54241264 -1.6025586 0.14572635 -1.1271906 -2.4709346 -0.45002463 0.13870804 -0.3734835
0.21823582 -0.17051114 -0.20305982 -0.16119923 0.043912426 0.1270711 0.43354675 -0.23936845
0.06891646 0.10446164 0.0053769634 0.19572851 -0.31658307 0.15117721 0.45842266 -0.48202345
0.049200334 0.31188014 -0.3749057 -0.9189456 -0.30083793 0.3061586 0.15588331 0.5660027
0.23949009 0.1801367 -0.29296517 -0.71320456 -0.22330236 -0.23355938 0.095773205 0.16654216
0.70946556 -0.37729758 -0.11450725 0.07987563 -0.119627535 -0.278775 0.061326064 0.07071516
0.23608851 0.38324437 0.20242058 0.048909064 -0.42747736 -0.2991365 -0.10344001 -0.16308469
0.18945163 -0.27015412 -0.36289197 -0.18947494 0.29197207 0.31394777 0.3008648 -0.12823229
-0.046527173 0.06606084 -0.05591133 -0.08794427 -0.041005053 0.061755393 0.055097695 -0.025869124
-0.08466504 -0.94387805 0.18693216 -0.5997165 -1.9587004 -0.10165206 0.15022714 -0.20830578
0.2582172 0.007362291 -0.0981914 -0.08366195 0.09644605 -0.060445827 0.04886949 -0.0021747723
-0.0039110184 -0.075164 0.36815766 0.16136022 0.18350783 -0.20188233 -1.2363236 -0.088257186
0.14019552 -0.4912084 0.25500596 -0.021364558 0.11692629 -0.05201228 -0.3904691 -0.02358048
0.2829775 0.21983692 0.16154248 -0.32039985 0.4205576 -0.20945203 -0.17093478 0.17430298
00000000: 3da0 54be 8247 3ebe 44d6 a03e ef75 edbd
00000010: 365c 03be c066 a93e 00f6 88be c607 14bd
00000020: bbbd 9a3e 99df c93d 88d2 e63d 9eba ba3c
00000030: 3121 7cbe bf11 993e 27e3 3cbc 5b67 fbbe
00000040: 1fb7 a13d 22ef 123e 000c fa38 cc92 53bd
00000050: 38d7 cfbc 4c47 b4bc 8cc1 6bbd 1028 87bd
00000060: d615 b2bd b6fc ca3d cc98 153d 8213 13bf
00000070: da38 84be 8db2 babe c2e8 11bf 1d36 e93d
00000080: 7b5f 07be 847f 55bd fa56 343f 71af c33e
00000090: dc7c 60bd 423e e5bd 52ae 283d 3339 b2bd
000000a0: 7974 b23c 5fdc 5d3d 1d0f 21bd 567b f33b
000000b0: 8fd6 7d3d a940 6dbd e17e 66bd f63c 60bd
000000c0: 641f 9d3e d234 333e e4bf f63d 62cb 883d
000000d0: e78f c83c aa02 28bd 98dc 31bd 1320 cb3d
000000e0: d1a0 423e a1db 9e3d 6183 fbbe 7aa8 a2bf
000000f0: 16b6 bc3e 2c05 d3bd 61f0 02bf 19c9 e53d
00000100: 7b74 6fbe f268 313e 27b6 5d3e b293 96be
00000110: 91cf 17bd 1dfb 243e 409d 0abd d0f4 b5bd
00000120: ccab bcbd 90b9 8bbd 1579 7bbd 8628 9bbd
00000130: 8726 22bd 5058 03bd 702b ab3d c654 92bd
00000140: b004 983d c46a 63be 2479 343e 103e cbb9
00000150: ce7d fc3c 51a0 d53e 281d d6be 756b 65bd
00000160: 38ca 80bc 0bb4 443d af90 33bd e0d7 0b3d
00000170: 00fe 4639 37f9 bebd f8bd 8c3d 889e fd3c
00000180: 6670 90bd d0f6 6dbc caab 963d 453f ad3b
00000190: d0dc 003f 1047 debd f250 c7bd dcc4 5abe
000001a0: af14 53be be29 a53d e734 88be 3c0f 893e
000001b0: 4061 0cbb a04f f33b c043 5fbb f154 76bd
000001c0: f067 16bc 4076 6e3c 005a 7b3d 28ad b93d
000001d0: ad91 4fbd cb3e dc3d 8d7f 743c c239 78bd
000001e0: e991 aabe f51c 06bf 7e1e 81bd fd29 833e
000001f0: 94bc 2a3e 6a7a e33e c894 ccbe dab3 b23e
00000200: 8c83 4a3e b1bf 3dbd f048 b9be ab46 713e
00000210: 628d ec3e 9e78 79be 730e 4fbe aa2a a3be
00000220: e354 983e cc7b a4bd 7915 7fbe fece ef3e
00000230: 236a bd3d 7135 9fbe 2a42 453e 4a11 a5bd
00000240: 8edb 0abf a420 cdbf 4a39 153e c847 90bf
00000250: cb23 1ec0 a169 e6be 7b09 0e3e 3b39 bfbe
00000260: 3679 5f3e 799a 2ebe eaee 4fbe 6911 25be
00000270: 84dd 333d ed1e 023e d7f9 dd3e 011d 75be
00000280: 1324 8d3d fcef d53d 3d31 b03b 0e6d 483e
00000290: 2d17 a2be 33ce 1a3e 60b6 ea3e c7cb f6be
000002a0: 4a86 493d c1ae 9f3e a4f3 bfbe 0540 6bbf
000002b0: 6e07 9abe d2c0 9c3e e09f 1f3e 8ee5 103f
000002c0: e43c 753e c175 383e 88ff 95be 9394 36bf
000002d0: 60a9 64be 312a 6fbe be24 c43d 078a 2a3e
000002e0: 899f 353f 262d c1be c782 eabd d695 a33d
000002f0: 48ff f4bd 99bb 8ebe 0a31 7b3d 1cd3 903d
00000300: 30c1 713e 9b38 c43e 5747 4f3e df54 483d
00000310: 50de dabe 6b28 99be 5bd8 d3bd acff 26be
00000320: 9cff 413e a451 8abe facc b9be b805 42be
00000330: 5d7d 953e c3bd a03e f30a 9a3e 534f 03be
00000340: 4793 3ebd e84a 873d 4703 65bd 201c b4bd
00000350: eaf4 27bd 39f3 7c3d 1fae 613d 7ceb d3bc
00000360: dd64 adbd fea1 71bf 256b 3f3e 0587 19bf
00000370: b2b6 fabf f52e d0bd 25d5 193e 1c4e 55be
00000380: 0b35 843e 603f f13b 9318 c9bd f556 abbd
00000390: 8285 c53d 0b96 77bd 602b 483d a086 0ebb
000003a0: 0028 80bb 95ef 99bd 297f bc3e 9d3b 253e
000003b0: 7ae9 3b3e 3eba 4ebe da3f 9ebf 2fc0 b4bd
000003c0: 6a8f 0f3e ab7f fbbe 2490 823e ba04 afbc
000003d0: 0d77 ef3d d40a 55bd 91eb c7be da2b c1bc
000003e0: 6de2 903e ee1c 613e 646b 253e 730b a4be
000003f0: 5353 d73e 987a 56be 8709 2fbe 7b7c 323e

bias f4 [64]
0.013554856 0.035321 -0.0965341 0.018599352 -0.30797106 -0.2733268 0.21362086 0.09402484
-0.192253 0.050529357 -0.3296674 0.099799335 -0.21703395 0.04117515 0.0649239 -0.015835768
0.2922848 0.028201371 -0.028982356 0.07881417 0.053835936 0.023537964 0.015320376 -0.10194345
0.3037729 -0.091956705 0.160235 0.09747691 0.013034389 0.04761479 0.025367577 0.11585103
0.074229136 -0.27808854 0.032197736 0.07072821 0.024155641 0.07460957 0.09789722 -0.052494913
0.21995732 0.060436614 0.061683822 0.047705498 -0.18661413 0.14857896 -0.2616417 0.027852615
-0.66041464 -0.1536086 0.10050683 0.01906946 -0.296229 -0.29615843 -0.08662689 -0.09514289
-0.3094654 0.041779526 -0.0882581 -0.71290505 0.038498808 0.22041698 -0.048226245 -0.15811834
00000000: 3015 5e3c c1ac 103d acb3 c5bd ab5d 983c
00000010: 62ae 9dbe 7ef1 8bbe 6dbf 5a3e 1890 c03d
00000020: f8dd 44be dff7 4e3d 2aca a8be 9863 cc3d
00000030: 263e 5ebe 46a7 283d d2f6 843d 03ba 81bc
00000040: 5aa6 953e 9006 e73c 686c edbc 5369 a13d
00000050: 1283 5c3d b0d2 c03c 5002 7b3c bac7 d0bd
00000060: 1f88 9b3e cc53 bcbd a514 243e f9a1 c73d
00000070: 318e 553c ba07 433d aacf cf3c 4e43 ed3d
00000080: 7205 983d 9f61 8ebe c6e1 033d f4d9 903d
00000090: 0de2 c53c e7cc 983d 567e c83d e804 57bd
000000a0: 7e3c 613e 628c 773d 2da8 7c3d d766 433d
000000b0: c617 3fbe 1525 183e e7f5 85be 2b2b e43c
000000c0: ef10 29bf 934b 1dbe 86d6 cd3d 8e37 9c3c
000000d0: 54ab 97be 14a2 97be 7069 b1bd 47da c2bd
000000e0: 4072 9ebe 0221 2b3d aac0 b4bd f280 36bf
000000f0: edb0 1d3d fdb4 613e e288 45bd c6e9 21be

weight f4 [64, 64, 3, 3]
2.3839107e-06 0.3068299 -0.40881538 0.35468072 0.12105743 -0.47561988 0.23744552 0.17302844
0.030629674 0.050298266 0.008885198 -0.00039644344 -0.339566 -0.42917523 -0.051525086 0.12587543
-0.1204396 0.14775254 -0.034374386 0.02582182 0.054533005 0.042488776 0.045233317 -0.06772606
0.056195363 0.06150925 -0.013306569 0.024855467 0.3487264 0.08183033 0.031047404 -0.11259111
-0.43613127 -0.3433916 0.30893168 0.2568493 -0.021233346 -0.011849567 -0.056065902 0.08786239
-0.0015246699 -0.025330696 0.04889071 -0.089165986 0.07169059 0.007182628 -0.413898 -0.3527808
0.37499195 0.21936713 -0.33335045 0.48893526 0.37141716 -0.21114467 -0.09891132 -0.72728837
-0.08130433 0.86454886 -0.5248446 -0.0049150707 -0.27425608 -0.896385 0.014204188 0.19835752
0.558124 0.069522455 -0.5275612 0.24993306 -0.44567195 -0.10386875 0.07294088 -0.022550946
0.0364352 -0.046121586 0.0026985556 0.04989493 0.061604604 0.053515837 -0.05305852 -0.037186347
0.062122807 0.08804012 -0.08247055 0.47060478 -0.17471936 -0.39228016 -0.12317146 0.1331469
0.051802475 -0.045712307 0.06300557 0.070484474 0.06775883 -0.04893432 0.04748489 0.02012521
0.04042144 -0.05982656 0.039316334 -0.035083752 0.7266107 0.31801438 -0.25630167 -0.17699744
0.1870896 -0.4908944 -0.41340485 0.04465779 0.0020680055 0.05624664 0.03800013 -0.034617316
-0.025469664 0.0040575117 0.004133597 0.052998066 -0.05877162 -0.07267558 -0.39321497 0.19034325
-0.00070084096 0.06748328 0.06966729 0.32718152 0.09034048 -0.19374157 0.07909426 0.082730964
0.027457152 0.025063144 -0.06507273 -0.09679808 -0.19450466 -0.0075077494 0.03426993 0.024984695
-0.042652044 -0.039971113 -0.0026865338 0.008855451 0.09040405 -0.026148641 -0.10386274 0.44109318
-0.5311439 -0.26937276 -0.36994663 0.36558038 0.67468375 0.20072883 0.47470486 0.33492184
-0.26192975 -0.01672896 0.119079255 -0.09667485 -0.023734352 -0.21363963 -0.22490832 -0.06295181
-0.14064349 -0.15011676 -0.11643097 -0.01032313 0.026735108 0.5456215 0.2535901 -0.16027206
0.5566068 0.33872294 -0.24887806 -0.09829901 0.11644085 -0.12782547 0.36294204 -0.33897346
-0.25904784 0.9170119 -0.29896867 -0.019724103 -0.00069458724 -0.070115715 0.459003 -0.12636746
-0.1961096 -0.40719792 0.21908292 0.16404793 -0.034735344 0.08712638 0.28577533 0.0076793954
-0.34327132 -0.38448507 0.086126044 -0.07488225 0.06515667 -0.038497202 -0.33669734 0.084481016
0.22710098 -0.20747152 0.080568716 -0.18063185 0.096735656 0.3200821 -0.18299268 -0.021435361
-0.034667477 -0.042320028 0.02047906 0.07047991 -0.019221159 0.03304866 -0.05974836 -0.029067663
-0.13177238 -0.3449307 0.14927141 -0.23989251 0.28187886 -0.2785964 0.19416082 0.03727794
0.32035443 -0.060400695 -0.031201214 -0.029383074 0.03590942 0.057702005 0.03867113 -0.017393876
0.029189013 -0.039672103 0.036107596 0.14296532 -0.12962987 0.14627509 0.49726138 -0.04060263
-0.5569394 -0.46596366 -0.23117432 0.34110612 -0.023410996 0.51991975 -0.46173406 -0.31722856
0.085808754 -0.03653411 -0.30803168 0.20127176 0.35872558 -0.0939777 -0.09001824 -0.29002976
00000000: 46fb 1f36 cf18 9d3e 4050 d1be b698 b53e
00000010: f5ec f73d 7384 f3be eb24 733e 5e2e 313e
00000020: 15eb fa3c 8e05 4e3d 3993 113c bdd9 cfb9
00000030: 98db adbe dbbc dbbe f80b 53bd 7de5 003e
00000040: 09a9 f6bd 714c 173e 28cc 0cbd 4888 d33c
00000050: 005e 5f3d b608 2e3d 9246 393d f6b3 8abd
00000060: 1c2d 663d 20f1 7b3d cc03 5abc b19d cb3c
00000070: 448c b23e a996 a73d 2057 fe3c 2b96 e6bd
00000080: 994c dfbe 06d1 afbe 4b2c 9e3e c081 833e
00000090: 8ef1 adbc b024 42bc 5ca5 65bd 32f1 b33d
000000a0: 6fd7 c7ba 5282 cfbc a041 483d a89c b6bd
000000b0: 84d2 923d 405c eb3b 70ea d3be af9f b4be
000000c0: f2fe bf3e c7a1 603e e9ac aabe b955 fa3e
000000d0: 642a be3e 4f36 58be 0592 cabd 922f 3abf
000000e0: e282 a6bd 1353 5d3f 375c 06bf 9a0e a1bb
000000f0: 4b6b 8cbe 7d79 65bf afb8 683c 3c1e 4b3e
00000100: 37e1 0e3f ca61 8e3d 400e 07bf 74ee 7f3e
00000110: 1d2f e4be 24b9 d4bd 0762 953d c3bc b8bc
00000120: 143d 153d fde9 3cbd 40da 303b a05e 4c3d
00000130: 1c55 7c3d 6c33 5b3d e453 59bd b650 18bd
00000140: 7c74 7e3d 614e b43d 52e6 a8bd 1cf3 f03e
00000150: a2e9 32be f2d8 c8be 5241 fcbd a957 083e
00000160: d52e 543d d43c 3bbd 1009 813d 2a5a 903d
00000170: 24c5 8a3d 5b6f 48bd 847f 423d a0dd a43c
00000180: f490 253d b20c 75bd 2a0a 213d fbb3 0fbd
00000190: 2903 3a3f c8d2 a23e f939 83be d13e 35be
000001a0: 6b94 3f3e 8356 fbbe cda9 d3be 16eb 363d
000001b0: 6087 073b e062 663d 06a6 1b3d e3ca 0dbd
000001c0: c2a5 d0bc e0f4 843b 2073 873b 8014 593d
000001d0: 83ba 70bd efd6 94bd 7953 c9be 57e9 423e
000001e0: a4b8 37ba ad34 8a3d b9ad 8e3d 5684 a73e
000001f0: 6e04 b93d 3164 46be 2cfc a13d da6e a93d
00000200: d2ed e03c 3951 cd3c da44 85bd 123e c6bd
00000210: 3b2c 47be 9103 f6bb a05e 0c3d b4ac cc3c
00000220: e9b3 2ebd c0b8 23bd 8f10 30bb 7416 113c
00000230: c225 b93d ad35 d6bc fdb5 d4bd f7d6 e13e
00000240: 0cf9 07bf 3aeb 89be a569 bdbe 5a2d bb3e
00000250: 13b8 2c3f dc8b 4d3e 840c f33e e07a ab3e
00000260: a81b 86be 2c0b 89bc d3df f33d 77fd c5bd
00000270: 8b6e c2bc 59c4 5abe 5e4e 66be e1ec 80bd
00000280: d904 10be 35b8 19be 5c73 eebd 5822 29bc
00000290: 9603 db3c daad 0b3f 90d6 813e 5c1e 24be
000002a0: c97d 0e3f 186d ad3e e4d9 7ebe fe50 c9bd
000002b0: 8a78 ee3d aee4 02be 8ad3 b93e ee8d adbe
000002c0: eba1 84be 4bc1 6a3f 6c12 99be 7194 a1bc
000002d0: f614 36ba d498 8fbd 7102 eb3e 7966 01be
000002e0: f4d0 48be 3f7c d0be 4657 603e 2efc 273e
000002f0: a646 0ebd 516f b23d 2551 923e 70a3 fb3b
00000300: 42c1 afbe 3adb c4be da62 b03d dd5b 99bd
00000310: dc70 853d 3eaf 1dbd 9863 acbe 6204 ad3d
00000320: 298d 683e 6a73 54be 3601 a53d 8ef7 38be
00000330: 581d c63d cde1 a33e 6f62 3bbe 3699 afbc
00000340: 7cff 0dbd c457 2dbd b4c3 a73c c557 903d
00000350: b175 9dbc 085e 073d b2ba 74bd 4f1f eebc
00000360: 57ef 06be c29a b0be 9bda 183e 62a6 75be
00000370: 6d52 903e 30a4 8ebe 18d2 463e c1b0 183d
00000380: 7f05 a43e b866 77bd b099 ffbc c6b4 f0bc
00000390: c215 133d f058 6c3d 9e65 1e3d 9a7d 8ebc
000003a0: cc1d ef3c 377f 22bd 8fe5 133d 8065 123e
000003b0: b1bd 04be 23c9 153e 0b99 fe3e f14e 26bd
000003c0: 9593 0ebf ca92 eebe f6b8 6cbe 76a5 ae3e
000003d0: 6bc8 bfbc 7619 053f 6868 ecbe c86b a2be
000003e0: 80bc af3d caa4 15bd 54b6 9dbe 2f1a 4e3e
000003f0: e1aa b73e 6177 c0bd 7c5b b8bd c87e 94be

bias f4 [64]
-0.21471557 0.40369543 -0.20110188 0.19814946 -0.013102275 0.49923366 0.4179277 0.07104115
0.22566842 0.28345647 0.31019855 -0.33495942 -0.03960629 -0.06166521 -0.17281848 -0.6537228
0.18079327 0.17995377 0.09729519 0.23419635 0.4350946 -0.34250692 0.4357231 0.20944837
0.26067522 0.1818007 -0.038446322 -0.43810236 -0.11361221 0.24007133 0.6137544 0.06851247
-0.08454232 -0.27188414 0.26205415 -0.016617699 0.043615747 0.345976 0.5532333 0.111515425
0.46417072 0.2137637 0.14774081 0.4730026 -0.43174723 -0.06630945 -0.39785296 -0.10315055
-0.6000984 -0.0020075585 -0.38506 0.011429659 0.2778342 -0.087596215 -0.011188465 -0.33189666
0.2922843 -0.63058776 0.2283297 0.41240254 0.17535293 0.08540775 -0.11716467 -0.23026796
00000000: 66de 5bbe 2bb1 ce3e a7ed 4dbe b1e7 4a3e
00000010: edaa 56bc 8e9b ff3e 9ffa d53e 067e 913d
00000020: 9f15 673e 3521 913e 58d2 9e3e cd7f abbe
00000030: 353a 22bd a994 7cbd 54f7 30be 615a 27bf
00000040: df21 393e cd45 383e b342 c73d 2bd1 6f3e
00000050: b8c4 de3e 115d afbe 1917 df3e a279 563e
00000060: 3977 853e f629 3a3e e479 1dbd f44e e0be
00000070: 85ad e8bd 42d5 753e 021f 1d3f 4450 8c3d
00000080: 8624 adbd 6634 8bbe f62b 863e d721 88bc
00000090: 6da6 323d c423 b13e b3a0 0d3f 3362 e43d
000000a0: c9a7 ed3e dfe4 5a3e 5e49 173e 662d f23e
000000b0: f90d ddbe 40cd 87bd 62b3 cbbe 9840 d3bd
000000c0: 0ca0 19bf 3e91 03bb 9626 c5be 7743 3b3c
000000d0: 4940 8e3e a565 b3bd d34f 37bc 5cee a9be
000000e0: 4aa6 953e 336e 21bf 43cf 693e 6d26 d33e
000000f0: b88f 333e 42ea ae3d 08f4 efbd 5dcb 6bbe

weight f4 [64]
0.5335749 0.5775083 0.5270879 0.65462375 0.5950027 0.81648123 0.56321174 0.4247071
0.6770192 0.3532573 0.6749225 0.42659146 0.69265467 0.82682925 0.3922989 0.42705795
0.44529065 0.9038702 0.5095329 0.62172765 0.5475761 0.8807108 0.579527 0.7042991
0.48067737 0.52705437 0.56468606 0.4481308 0.8072223 0.48040968 0.5013578 0.56635684
0.90273905 0.5260581 0.6384184 0.6030457 0.6047104 0.7523096 0.60987735 0.51847506
0.37899032 0.5965312 0.47074026 0.5326897 0.7728899 0.6657642 0.6247303 0.5982455
0.690396 0.672669 0.4524445 0.45017785 0.5016884 0.49464977 0.61357987 0.6552808
0.5053392 0.36523712 0.53510314 0.60099095 0.5577558 0.5948703 0.58514994 0.5436882
00000000: 5d98 083f 95d7 133f 3cef 063f 6c95 273f
00000010: 1952 183f ea04 513f a52e 103f 3673 d93e
00000020: 2151 2d3f 24de b43e b9c7 2c3f 326a da3e
00000030: d151 313f 15ab 533f 67db c83e 57a7 da3e
00000040: 23fd e33e 0a64 673f c070 023f 8b29 1f3f
00000050: f32d 0c3f 4376 613f e25b 143f f24c 343f
00000060: 581b f63e 09ed 063f 448f 103f 6671 e53e
00000070: 1fa6 4e3f 42f8 f53e fc58 003f c3fc 103f
00000080: e819 673f beab 063f 636f 233f 3461 1a3f
00000090: 4dce 1a3f 5d97 403f ec20 1c3f c8ba 043f
000000a0: 050b c23e 45b6 183f de04 f13e 5a5e 083f
000000b0: 1ddc 453f 866f 2a3f 53ee 1f3f 9e26 193f
000000c0: cbbd 303f 0934 2c3f cea6 e73e b67d e63e
000000d0: a76e 003f bc42 fd3e 9213 1d3f 7cc0 273f
000000e0: e95d 013f 5c00 bb3e 85fc 083f 8bda 193f
000000f0: 16c9 0e3f 6c49 183f 63cc 153f 262f 0b3f

bias f4 [64]
-0.0813585 -0.5779252 -0.10806498 -0.15124035 -0.4316659 -0.75237566 -0.2671667 -0.016354637
-0.18706834 -0.053500533 -0.37273595 -0.5870804 0.013884922 -0.38202637 -0.25477633 -0.2958203
0.14181948 -0.11549799 0.030312225 -0.21081437 0.078033954 -0.4131504 0.20725104 -0.2828916
0.26357546 -0.11343292 -0.23686786 -0.23056203 -0.06965352 0.17184336 -0.21119228 -0.23563544
-1.4156045 -0.00015218777 0.13372312 -0.38184452 -0.15605573 -0.30205265 0.17802233 -0.5640184
0.24974883 -0.25646046 -0.026406283 -0.25548816 -0.2150446 -0.51906306 -0.23712328 -0.5111005
-0.2670919 -0.44889605 0.74816674 -0.0763133 -0.39132604 -0.25440222 -0.23082815 -0.25250515
-0.14751597 -0.04188148 -0.33577096 -0.09612929 0.045002922 -0.3497269 -0.47509402 -0.40794456
00000000: 499f a6bd e8f2 13bf 2c51 ddbd c0de 1abe
00000010: 5003 ddbe b19b 40bf 13ca 88be 29fa 85bc
00000020: d88e 3fbe 6023 5bbd 3fd7 bebe e74a 16bf
00000030: 957d 633c f698 c3be 0b72 82be c275 97be
00000040: 2039 113e 368a ecbd 5851 f83c b9df 57be
00000050: 44d0 9f3d 7388 d3be 9e39 543e 2bd7 90be
00000060: 5df3 863e 854f e8bd 7d8d 72be 7418 6cbe
00000070: 81a6 8ebd b5f7 2f3e ca42 58be 6b4a 71be
00000080: 8732 b5bf 9894 1fb9 b7ee 083e 2081 c3be
00000090: 13cd 1fbe a5a6 9abe 7c4b 363e 8363 10bf
000000a0: 28be 7f3e c94e 83be fd51 d8bc 58cf 82be
000000b0: a734 5cbe 51e1 04bf 72d0 72be 7bd7 02bf
000000c0: 45c0 88be b4d5 e5be db87 3f3f 264a 9cbd
000000d0: e35b c8be 0241 82be 375e 6cbe 5b48 81be
000000e0: 6d0e 17be ea8b 2bbd 2cea abbe 6fdf c4bd
000000f0: fc54 383d 670f b3be 863f f3be 1cde d0be

running_mean f4 [64]
-0.23251821 0.23625343 -0.31281513 -0.11588 -0.3794661 0.34750485 0.4536135 0.07706894
-0.04630984 0.23196714 0.110993445 -0.40242437 -0.27567673 -0.2021394 -0.46202782 -0.7853772
-0.1746312 -0.015668338 -0.058331944 0.2808763 0.28037214 -0.58813965 0.25539818 0.2639451
0.08459706 0.09411397 -0.25684115 -0.48755965 -0.297666 -0.19371969 0.48536238 -0.16389668
-0.08907969 -0.7755799 0.07924307 0.034220133 -0.036515888 0.25106752 0.45555788 -0.031519048
0.23214917 0.01918252 -0.085772306 0.38675046 -0.6327349 -0.21903458 -0.44125628 -0.2920547
-0.6905937 0.03168332 -0.56960315 -0.27881122 -0.016967373 -0.20099089 -0.2518901 -0.48027217
-0.20090207 -0.7453999 0.035449713 0.2335886 -0.0671125 -0.17993759 -0.6563287 -0.36401507
00000000: 4119 6ebe 6bec 713e 4e29 a0be 7e52 edbd
00000010: 6149 c2be 28ec b13e 0740 e83e 52d6 9d3d
00000020: 63af 3dbd cb88 6d3e 8850 e33d 910a cebe
00000030: 8025 8dbe a2fd 4ebe e98e ecbe 7b0e 49bf
00000040: 85d2 32be e35a 80bc 7aed 6ebd 05cf 8f3e
00000050: f08c 8f3e 5290 16bf 8dc3 823e d023 873e
00000060: 3941 ad3d d3be c03d af80 83be 6ba1 f9be
00000070: ae67 98be 745e 46be 6b81 f83e 88d4 27be
00000080: 6a6f b6bd 688c 46bf 314a a23d 692a 0c3d
00000090: af91 15bd ec8b 803e e23e e93e 1e1a 01bd
000000a0: 83b8 6d3e a924 9d3c 64a9 afbd 2804 c63e
000000b0: eafa 21bf 9a4a 60be 58ec e1be 3288 95be
000000c0: c0ca 30bf 5ec6 013d 83d1 11bf 58c0 8ebe
000000d0: 29ff 8abc 8ed0 4dbe bdf7 80be 3ce6 f5be
000000e0: 46b9 4dbe 87d2 3ebf b833 113d da31 6f3e
000000f0: 4772 89bd 8f41 38be 2805 28bf 2f60 babe

running_var f4 [64]
0.043761645 0.023675622 0.07488695 0.08169833 0.050719656 0.021815654 0.026404856 0.038277186
0.07055668 0.013751011 0.07045364 0.032645144 0.057848092 0.06399658 0.03047125 0.010728958
0.043157604 0.08775756 0.06383212 0.058057837 0.04058363 0.07852932 0.06279891 0.04286071
0.060509104 0.056486465 0.032693993 0.030722002 0.10469059 0.051307354 0.036354274 0.03591766
0.03666286 0.071647026 0.05275756 0.040981904 0.05680804 0.03606624 0.09143494 0.011733157
0.029490538 0.04542877 0.043219727 0.017729387 0.09025435 0.023119135 0.051605605 0.01974922
0.06605371 0.0589651 0.017322633 0.035976753 0.017504212 0.035959836 0.046802986 0.028928934
0.044304337 0.034777857 0.02588858 0.036574632 0.07196858 0.037182406 0.04579325 0.043748353
00000000: 693f 333d 61f3 c13c 545e 993d 7451 a73d
00000010: 6abf 4f3d beb6 b23c ff4e d83c 8ac8 1c3d
00000020: 0580 903d ec4b 613c ff49 903d eab6 053d
00000030: 1ff2 6c3d a410 833d d89e f93c 83c8 2f3c
00000040: 07c6 303d 3cba b33d 6aba 823d 0ece 6d3d
00000050: 053b 263d fbd3 a03d b79c 803d b68e 2f3d
00000060: 65d8 773d 5a5e 673d 23ea 053d b5ac fb3c
00000070: 0568 d63d a927 523d 38e8 143d 651e 133d
00000080: cc2b 163d adbb 923d 5018 583d a4dc 273d
00000090: 8caf 683d 32ba 133d 3e42 bb3d 6d3c 403c
000000a0: 2496 f13c 8513 3a3d 2b07 313d 383d 913c
000000b0: 46d7 b83d 5764 bd3c 6660 533d 1ec9 a13c
000000c0: 2b47 873d 6485 713d 32e8 8d3c 5c5c 133d
000000d0: fe64 8f3c 9f4a 133d 7db4 3f3d 5ffc ec3c
000000e0: 7778 353d 3a73 0e3d 4a14 d43c 48cf 153d
000000f0: 4364 933d 944c 183d b491 3b3d 7931 333d

weight f4 [64, 64, 3, 3]
0.1990714 -0.00030664634 0.2619621 -0.031858522 0.101270966 0.05262988 0.29653347 0.26693988
-0.41051084 -0.09897668 -0.04254269 -0.12725201 -0.010168802 -0.029104855 -0.038486302 0.116689675
-0.6128242 -0.51358044 -0.25146624 0.17341883 -0.29232278 -0.29355583 0.1505515 -0.49326602
-0.6242177 -0.6804433 -0.38371256 0.33344653 -0.014438778 0.32674274 -0.28299224 0.1908047
0.1604631 0.22999509 -0.00305325 -0.36902142 -0.1214165 0.34091532 0.16704585 -0.13155079
0.055213045 0.088551365 -0.20108928 -0.18773685 -0.30997157 0.060713142 0.3740652 0.30499277
-0.22978678 0.03612146 -0.16927075 0.25234395 -0.034757823 -0.05557133 0.042427734 0.13335828
0.025440998 -0.4554016 -0.12909019 -0.30893007 0.12148839 -0.011404333 0.34794968 -0.18247765
-0.2391655 -0.027298348 -0.27150926 -0.47280917 -0.32216763 0.20179911 -0.3170155 -0.69152564
0.40233153 -0.35497212 -0.19667527 -0.4843368 -0.64481896 0.12329817 0.22347939 0.26281834
0.29144222 0.4355854 0.43886626 0.8030916 0.34215397 -0.008423275 0.5104397 0.26877537
0.012616304 -0.5361537 0.117750034 -0.5432842 -0.5988873 -0.15385006 0.0680872 -0.5264965
0.18944351 0.58535165 -0.32990494 -0.19417574 -0.072085366 -0.18047296 -0.10074379 0.44098243
-0.14811786 -0.2429398 -0.17498432 -0.77106273 0.35104015 -0.14340053 -0.3588899 0.05000714
0.20455158 0.083478294 0.19299969 -0.13697794 0.22645876 0.6120362 -0.29612234 -0.18544953
-0.029697407 -0.4211022 -0.36836693 -0.07355468 0.23566188 0.098908134 -0.0040291925 -0.33852613
-0.6320167 0.17487745 0.1235001 -0.19003172 -0.41163683 0.018567776 0.20438947 -0.104537085
-0.0038059128 0.23605536 0.069499604 -0.25494286 -0.13053402 0.22560173 0.3832585 -0.014858329
-0.097001106 0.09989283 -0.2069146 -0.02766563 -0.2776783 -0.33030742 0.2257414 -0.039116424
0.7781193 -0.06701179 -0.14673175 0.18504083 0.0680386 0.046433106 0.16400293 -0.009470157
0.45390463 -0.31710437 0.23111512 0.05649573 0.21942016 0.06811103 -0.015249411 0.16417028
0.00083273253 -0.46631292 -0.066580944 -0.17732655 -0.017133 0.36984017 -0.0072672963 -0.1658389
-0.03954901 0.3755034 -0.05770076 -0.011629364 0.24742348 0.21446633 0.594123 -0.27237475
-0.015961925 0.09108935 -0.1383626 -0.31214347 0.049128346 0.20223741 0.29652745 0.23882458
0.13382135 -0.123759896 0.1143101 0.011834677 0.031775016 -0.57887423 0.1475841 -0.0779337
0.2569284 0.056056038 -0.102908395 0.14537399 -0.13489734 -0.27716315 0.42363238 0.013879274
-0.05942899 -0.056681987 0.1938047 -0.17886133 -0.2504226 -0.20823465 -0.33976036 -0.44172412
-0.26562783 0.13010356 -0.26786652 0.14530641 0.23461458 -0.08496563 0.15642834 0.32111377
-0.12230104 0.3528941 0.19117376 0.11590612 -0.090336956 -0.029953256 -0.049347248 -0.028376877
-0.36444247 -0.1526821 0.17594188 -0.04019511 -0.24306574 0.08299091 -0.21799126 -0.21365048
0.06858552 -0.62210035 -0.19182727 -0.41715398 -0.1273347 -0.15760955 0.24039681 -0.2570097
-0.07256585 0.14015763 -0.26664126 0.19170047 -0.15851074 0.38108897 -0.15644108 0.046282705
00000000: 60d9 4b3e 60c5 a0b9 e51f 863e 157e 02bd
00000010: 2767 cf3d 6e92 573d 3cd3 973e 58ac 883e
00000020: 7a2e d2be 49b4 cabd 3e41 2ebd 5a4e 02be
00000030: 0c9b 26bc 4e6d eebc d0a3 1dbd fffa ee3d
00000040: 0ce2 1cbf 027a 03bf 2fc0 80be b594 313e
00000050: 55ab 95be f34c 96be 2c2a 1a3e 5d8d fcbe
00000060: bbcc 1fbf 8831 2ebf f975 c4be 81b9 aa3e
00000070: a090 6cbc d34a a73e 5ce4 90be 4f62 433e
00000080: 7050 243e d583 6b3e 0919 48bb 60f0 bcbe
00000090: 37a9 f8bd 748c ae3e 110e 2b3e 40b5 06be
000000a0: 1327 623d 6b5a b53d 59ea 4dbe 173e 40be
000000b0: 98b4 9ebe 58ae 783d 7985 bf3e 0328 9c3e
000000c0: 3a4d 6bbe 19f4 133d 5055 2dbe 3a33 813e
000000d0: 385e 0ebd c39e 63bd b4c8 2d3d 138f 083e
000000e0: a469 d03c 662a e9be 3830 04be 152c 9ebe
000000f0: e8ce f83d 3dd9 3abc 7626 b23e 6cdb 3abe
00000100: cde7 74be c9a0 dfbc 4303 8bbe 0b14 f2be
00000110: 28f3 a4be 6da4 4e3e db4f a2be d307 31bf
00000120: 66fe cd3e e8be b5be 3e65 49be fefa f7be
00000130: db12 25bf c083 fc3d c8d7 643e 2090 863e
00000140: ea37 953e 0d05 df3e 14b3 e03e 6997 4d3f
00000150: ce2e af3e c701 0abc 2dac 023f ed9c 893e
00000160: 9db4 4e3c 5e41 09bf ee26 f13d ac14 0bbf
00000170: ae50 19bf df8a 1dbe 4d71 8b3d 7ac8 06bf
00000180: 7bfd 413e 9bd9 153f 4de9 a8be 01d6 46be
00000190: 7ea1 93bd e7cd 38be c352 cebd 73c8 e13e
000001a0: 35ac 17be 36c5 78be 172f 33be 5e64 45bf
000001b0: 89bb b33e 97d7 12be 6bc0 b7be 49d4 4c3d
000001c0: f875 513e abf6 aa3d b6a1 453e f243 0cbe
000001d0: cee4 673e 68ae 1c3f 599d 97be 7be6 3dbe
000001e0: fa47 f3bc b59a d7be 979a bcbe d6a3 96bd
000001f0: 5951 713e 5990 ca3d 5107 84bb 4c53 adbe
00000200: d9cb 21bf 1313 333e 9fed fc3d ad97 42be
00000210: 10c2 d2be 731b 983c 794b 513e 8a17 d6bd
00000220: 9f6c 79bb 7fb8 713e cf55 8e3d df87 82be
00000230: b6aa 05be 2404 673e 753a c43e 5970 73bc
00000240: 84a8 c6bd 9d94 cc3d 6ce1 53be 08a3 e2bc
00000250: da2b 8ebe 0e1e a9be c128 673e 8b38 20bd
00000260: d432 473f 7a3d 89bd d940 16be 587b 3d3e
00000270: d257 8b3d a430 3e3d 62f0 273e b828 1bbc
00000280: 3066 e83e 815b a2be 71a9 6c3e 1168 673d
00000290: aeaf 603e cc7d 8b3d aad8 79bc 411c 283e
000002a0: bc4b 5a3a 91c0 eebe 975b 88bd 1795 35be
000002b0: 815a 8cbc b15b bd3e 8022 eebb acd1 29be
000002c0: 25fe 21bd fb41 c03e a257 6cbd 1789 3ebc
000002d0: 955c 7d3e 109d 5b3e 7218 183f b474 8bbe
000002e0: 95c2 82bc 0e8d ba3d edae 0dbe 45d1 9fbe
000002f0: ce3a 493d 5317 4f3e 72d2 973e 6e8e 743e
00000300: 7708 093e d475 fdbd 6a1b ea3d 3ce6 413c
00000310: 8526 023d 1a31 14bf 4920 173e b49b 9fbd
00000320: 1f8c 833e 049b 653d a3c1 d2bd ebdc 143e
00000330: 8722 0abe 54e8 8dbe 58e6 d83e e565 633c
00000340: d06b 73bd 5f2b 68bd bd74 463e 6d27 37be
00000350: 6437 80be 773b 55be 12f5 adbe aa29 e2be
00000360: 5f00 88be de39 053e cd25 89be 34cb 143e
00000370: ce3e 703e 7602 aebd c02e 203e 0669 a43e
00000380: f878 fabd 89ae b43e 0ec3 433e 3060 ed3d
00000390: 9502 b9bd 8860 f5bc 5720 4abd a076 e8bc
000003a0: 3498 babe b258 1cbe 1c2a 343e a1a3 24bd
000003b0: 3ae6 78be 23f7 a93d 1a39 5fbe 31c7 5abe
000003c0: 9176 8c3d f841 1fbf 5e6e 44be 3595 d5be
000003d0: 0764 02be 6664 21be 952a 763e c796 83be
000003e0: 689d 94bd 7b85 0f3e 3485 88be 214d 443e
000003f0: a450 22be 181e c33e 1732 20be ef92 3d3d

bias f4 [64]
0.24455114 -0.09818057 0.22871411 -0.18517655 -0.17514744 -0.031058058 0.16694961 0.03843608
-0.08813341 0.09905178 -0.162417 0.13837239 0.08007687 0.14786743 0.1765413 0.0069719134
0.2024319 0.20294927 0.16163728 0.12712026 0.11012979 -0.14930134 0.08648761 -0.15816057
0.021786332 0.065436006 -0.076582216 0.026625432 -0.122064136 -0.38302433 0.19668432 0.11864956
0.21332137 0.23670197 -0.036965966 -0.18070537 -0.048558243 -0.11577558 -0.1037847 0.15786164
-0.023661563 -0.005380416 -0.045893002 -0.30206206 -0.09781893 0.010935168 0.107639916 0.21670966
0.30577037 -0.23942722 -0.16171198 -0.009145519 0.09420532 0.23815379 0.11378472 -0.63372064
-0.15466912 0.019035025 -0.3268163 0.30628496 0.29155624 0.076301806 -0.09763641 0.03976689
00000000: 9d6b 7a3e e512 c9bd 0834 6a3e ec9e 3dbe
00000010: da59 33be 786d febc d7f4 2a3e 276f 1d3d
00000020: 4a7f b4bd a9db ca3d a450 26be 7eb1 0d3e
00000030: 58ff a33d 8f6a 173e 3ec7 343e a674 e43b
00000040: 4f4a 4f3e efd1 4f3e 3e84 253e d02b 023e
00000050: ba8b e13d 73e2 18be 6b20 b13d d8f4 21be
00000060: 4079 b23c 5003 863d 23d7 9cbd 941d da3c
00000070: c3fc f9bd c41b c4be 9d67 493e 8afe f23d
00000080: eb70 5a3e 0062 723e a069 17bd d40a 39be
00000090: 02e5 46bd bf1b edbd 138d d4bd 7ba6 213e
000000a0: e5d5 c1bc 334e b0bb 4dfa 3bbd e1a7 9abe
000000b0: 4b55 c8bd 6b29 333c 5172 dc3d 23e9 5d3e
000000c0: ef8d 9c3e 692c 75be d397 25be 16d7 15bc
000000d0: b8ee c03d 96de 733e f707 e93d 843b 22bf
000000e0: 9561 1ebe 57ef 9b3c 7754 a7be 62d1 9c3e
000000f0: dc46 953e 1f44 9c3d 99f5 c7bd 9be2 223d

weight f4 [64]
0.70321 0.3676182 0.68809396 0.4856754 0.62343806 0.5553936 0.4551382 0.6055151
0.43763587 0.49519095 0.47993925 0.64885247 0.5103625 0.48384374 0.4414075 0.8761083
0.5624182 0.71791816 1.048685 0.3980858 0.6845359 0.5227775 0.4246691 0.84163606
0.474348 0.9209063 0.8195651 0.4744839 0.5843538 0.56023735 0.85229456 0.8820556
0.48071402 0.4352009 0.53286374 0.85111654 0.5893911 0.5048181 0.5398583 0.5789999
0.52840936 0.39702263 0.70718545 1.0079458 0.4998368 0.32993096 1.1773857 0.54901737
0.9202265 0.8314507 0.9869541 0.5578854 0.41335014 0.7055521 0.3345528 0.59392154
0.36457923 0.53603125 0.48351315 0.67839926 0.98884183 1.1066469 0.67610437 0.58670866
00000000: 9205 343f 7438 bc3e ed26 303f 72aa f83e
00000010: a399 1f3f 462e 0e3f e007 e93e 0a03 1b3f
00000020: cf11 e03e ab89 fd3e 99ba f53e 321b 263f
00000030: 1ea7 023f 5eba f73e 2a00 e23e a248 603f
00000040: a4fa 0f3f 7cc9 373f 4f3b 863f e7d1 cb3e
00000050: bf3d 2f3f bfd4 053f 3a6e d93e 7675 573f
00000060: bedd f23e 84c0 6b3f 05cf 513f 8eef f23e
00000070: 3698 153f b76b 0f3f fa2f 5a3f 65ce 613f
00000080: 2620 f63e a7d2 de3e c269 083f c6e2 593f
00000090: 56e2 163f c23b 013f 2734 0a3f 5639 143f
000000a0: d645 073f 8d46 cb3e 1b0a 353f 5e04 813f
000000b0: 9cea ff3e b6ec a83e 93b4 963f 678c 0c3f
000000c0: f793 6b3f f4d9 543f 06a9 7c3f 94d1 0e3f
000000d0: a1a2 d33e 109f 343f 814a ab3e 3e0b 183f
000000e0: 21aa ba3e 5839 093f 098f f73e 93ab 2d3f
000000f0: bd24 7d3f 9ba6 8d3f 2d15 2d3f 8a32 163f

bias f4 [64]
0.0017865378 0.102716126 0.051712357 0.02191241 0.15707406 -0.9235646 -0.3181418 0.08191571
0.14476016 -0.058510482 -0.3078143 -0.23903604 -0.030024117 0.025939062 0.18845704 -0.010486608
-0.39900824 -0.4113486 -0.3705329 0.58579886 -0.09106607 0.13631207 -0.05707161 -0.16328341
-0.33699307 -0.1218691 -0.37896225 -0.62348497 -0.6148514 0.07025068 -0.17018013 -0.18312785
0.19000567 -0.057671696 -0.11817172 -0.30288064 -0.048574924 0.14368908 -0.20357049 0.05860528
-0.038567126 -0.14271529 -0.13608931 -0.3227434 -0.0609133 0.17317663 -0.41258666 -0.076469384
-0.16426091 -0.23277913 -0.28811875 -0.44473085 0.22852069 -0.23136806 0.7485103 -0.07093187
-0.12154468 -0.13359031 -0.119224 -0.1461379 -0.35783213 -0.5329246 -0.4933783 0.06637452
00000000: 432a ea3a d55c d23d 56d0 533d a881 b33c
00000010: 06d8 203e bb6e 6cbf 7be3 a2be 6cc3 a73d
00000020: 023c 143e b0a8 6fbd d699 9dbe ddc5 74be
00000030: 23f5 f5bc 287e d43c e2fa 403e 06d0 2bbc
00000040: cf4a ccbe 499c d2be 7db6 bdbe eaf6 153f
00000050: d980 babd 6495 0b3e ecc3 69bd c433 27be
00000060: 5b8a acbe 8296 f9bd 5707 c2be b69c 1fbf
00000070: e766 1dbf 97df 8f3d b343 2ebe de85 3bbe
00000080: d990 423e 2839 6cbd 0404 f2bd 2c13 9bbe
00000090: 80f6 46bd 3b23 133e c874 50be 170c 703d
000000a0: 90f8 1dbd f523 12be ff5a 0bbe 9f3e a5be
000000b0: 3980 79bd 3755 313e 8f3e d3be fb9b 9cbd
000000c0: 0334 28be a75d 6ebe 4d84 93be c3b3 e3be
000000d0: 5401 6a3e c0eb 6cbe 5f9e 3f3f ba44 91bd
000000e0: 6bec f8bd e6cb 08be b62b f4bd 2ca5 15be
000000f0: c635 b7be bf6d 08bf 159c fcbe 5def 873d

running_mean f4 [64]
-0.60375416 -0.4459482 -2.012675 -1.0773586 -0.9427016 -0.015828986 -0.60990524 -0.2751819
0.14790809 -1.3083323 -1.4550722 -1.0695 -1.3121688 0.68534243 -0.43530983 -1.2784843
-0.27112383 -0.4205008 -2.5100775 -1.5119627 -0.9510859 -0.97138035 -0.13846326 -2.2264602
0.047028724 -1.3729553 -1.5167354 0.12066649 -1.2380762 -0.55272454 -0.31234854 -0.8728007
-0.40300024 0.008276971 -1.1064398 -2.044471 -0.32146287 -1.1033715 -0.8752753 0.01838214
-1.2068281 -0.68690836 -1.4072447 -0.9359894 -0.57105196 -0.013985746 -1.6871089 -0.5147223
-1.2643749 -2.3857884 -1.1474026 -1.934117 -0.10942919 -0.64597493 0.6052518 -0.61950845
-0.4565347 -0.9486692 -0.058030166 -0.8665611 -0.42761993 -1.6612809 -0.46864283 -1.9886926
00000000: a28f 1abf 5353 e4be abcf 00c0 e3e6 89bf
00000010: e454 71bf caab 81bc c022 1cbf a4e4 8cbe
00000020: 3875 173e 6f77 a7bf ce3f babf 60e5 88bf
00000030: 26f5 a7bf 9a72 2f3f eee0 debe 60a5 a3bf
00000040: bed0 8abe e14b d7be 1ca5 20c0 fe87 c1bf
00000050: 5e7a 73bf 62ac 78bf 50c9 0dbe 537e 0ec0
00000060: 31a1 403d 00bd afbf 6324 c2bf fe1f f73d
00000070: 4879 9ebf 5b7f 0dbf 26ec 9fbe de6f 5fbf
00000080: 0c56 cebe 229c 073c d29f 8dbf 9dd8 02c0
00000090: c896 a4be 473b 8dbf 0b12 60bf 2496 963c
000000a0: 5879 9abf 3ad9 2fbf 9820 b4bf 009d 6fbf
000000b0: 7630 12bf 7824 65bc 2ff3 d7bf d7c4 03bf
000000c0: 09d7 a1bf c2b0 18c0 17de 92bf 2591 f7bf
000000d0: 691c e0bd 9d5e 25bf c8f1 1a3f 1b98 1ebf
000000e0: ebbe e9be fcdb 72bf 0ab1 6dbd f3d6 5dbf
000000f0: 00f1 dabe daa4 d4bf f4f1 efbe 7b8d febf

running_var f4 [64]
4.090183 2.1618164 4.5962095 3.2222269 5.109412 2.9292386 1.9230032 3.0579958
3.616145 2.7744899 2.0830584 3.1666472 3.2091022 2.774289 2.8916004 9.623062
1.8960261 3.7289588 5.47132 2.9505877 4.8404346 3.4502861 2.765745 6.045127
1.2590841 5.6911416 4.645752 2.0826442 2.001592 3.2141337 4.9531555 4.5936575
3.4264383 2.3181176 3.0270326 4.5485725 2.91646 3.6569076 2.4567518 3.2937028
2.6062224 1.6899208 2.739847 5.404007 3.4191186 1.7686948 6.1468983 3.6724434
6.718187 4.0709567 4.6978726 2.1014493 2.920534 3.383621 2.9852264 2.9339824
2.2401283 2.5778527 2.4362404 3.113752 5.068421 4.448066 1.9419291 4.575735
00000000: c7e2 8240 335b 0a40 2614 9340 f738 4e40
00000010: 4e80 a340 a578 3b40 f824 f63f 34b6 4340
00000020: eb6e 6740 3e91 3140 d450 0540 59aa 4a40
00000030: ee61 4d40 f38d 3140 fb0f 3940 10f8 1941
00000040: fcb0 f23f 43a7 6e40 0e15 af40 6ed6 3c40
00000050: d7e4 9a40 7dd1 5c40 f701 3140 ae71 c140
00000060: ab29 a13f d51d b640 00aa 9440 0b4a 0540
00000070: 151a 0040 5eb4 4d40 4080 9e40 3eff 9240
00000080: c44a 5b40 0a5c 1440 e7ba 4140 e88d 9140
00000090: 48a7 3a40 c60a 6a40 6c3b 1d40 07cc 5240
000000a0: 59cc 2640 534f d83f a759 2f40 a0ed ac40
000000b0: d7d2 5a40 9764 e23f 64b3 c440 5009 6b40
000000c0: 63fb d640 4745 8240 f954 9640 257e 0640
000000d0: 07ea 3a40 3f8d 5840 f30d 3f40 5ec6 3b40
000000e0: 435e 0f40 8afb 2440 5deb 1b40 b647 4740
000000f0: 8130 a240 8f56 8e40 2291 f83f 6c6c 9240

weight f4 [64, 64, 3, 3]
0.09327428 0.1275069 0.3520471 0.16329852 0.22548956 -0.110247955 0.2534342 0.4748846
0.05124942 0.00021444155 0.06105953 0.12002433 0.103478454 -0.5577738 -0.070252 0.25367188
0.06382368 0.041605126 -0.25135472 0.30770698 0.28326496 -0.19007511 -0.06888178 -0.18929663
0.109896354 -0.18960533 0.07881174 -0.09066582 0.3069242 -0.12081668 0.26733428 0.048964463
0.19361106 0.10774323 -0.36928108 -0.024180591 -0.042939454 0.18883705 -0.14239654 0.013657347
0.47469252 -0.27001867 0.16976771 -0.3777669 0.22758944 0.046282213 0.20780252 0.037470028
0.3147328 0.45286304 -0.09545122 -0.2946224 -0.09592241 -0.09691967 0.07867864 0.19264416
-0.02629986 0.547621 -0.7086473 0.23530565 0.26118556 -1.171975 -0.16342022 -0.4041723
-0.108270615 0.06380055 -0.47911257 -0.5583162 -0.3063195 -0.037038364 -0.12730753 -0.20907387
0.17622092 -0.3690077 -0.14192666 0.24405755 0.06027324 0.070165746 -0.08969992 -0.38610834
0.033026155 0.5418391 0.42237625 -0.20946163 -0.07473037 -0.29964125 -0.18247476 0.04491022
-0.41161355 -0.08364769 -0.32507905 0.061451763 0.2849983 0.06316664 -0.03868747 -0.017849619
-0.035795312 0.41835335 -0.009129897 -0.06421106 0.152758 -0.46201468 -0.18653129 0.21961905
0.09273651 -0.3870771 -0.10303995 -0.17499739 -0.056947194 -0.09132557 -0.54299045 0.13022563
-0.14500263 -0.42465094 -0.55578846 0.04232235 -0.5817493 -0.18101655 0.39441568 0.42494294
-0.9301197 -0.18810055 0.017726 -0.34821185 -0.27936807 0.34595808 -0.10196263 -0.0119671235
-0.049715918 0.6204631 0.18769355 0.081159346 0.008297943 0.42689252 -0.10822137 -0.043850392
0.11083293 0.43624058 0.087404184 -0.7398997 -0.58761144 -0.094621286 -0.4779977 0.081681155
-1.0668162 0.26708883 -0.008041736 -0.03194256 -1.0805742 -0.16731489 -0.1995853 -0.44012395
-0.601013 0.22638164 -0.026446946 0.24923424 -0.30621713 -0.480714 0.4046291 -0.33363923
0.028046096 -0.15899956 -0.055441886 0.18610708 -0.27311245 0.25584394 -0.20942433 0.019749274
0.16723992 0.233321 -0.0024220627 0.04270858 -0.17610992 0.2301775 -0.1110243 0.16780055
0.09716614 -0.30892605 0.45179492 -0.3303573 -0.05143717 -0.37072667 -0.32664752 -0.2136478
0.2780893 -0.4166494 -0.33564928 -0.10643062 -0.30925885 -0.03670779 -0.32892936 0.2870831
-0.048558988 0.34317118 -0.33243442 -0.12728602 -0.07195315 -0.029492712 -0.47053954 0.23696814
-0.18403412 -0.28754818 0.20465761 0.5016 0.23512375 -0.12740138 0.08474508 -0.17552772
-0.29162502 0.20305368 -0.3246969 0.43237266 0.5214257 -0.41062054 0.20867696 -0.38788435
-0.08986152 -0.7207658 0.13056813 -0.17921056 -0.45218667 -0.494492 -0.086251564 0.6977594
0.228624 0.33175537 -0.35318023 -0.09383342 0.2833062 -0.107719235 -0.19983467 -0.2278852
0.4476466 -0.16487402 -0.2649757 -0.21627083 -0.40358976 -0.2459176 0.5466911 0.0013763213
-0.14397073 0.37962043 -0.10154275 0.2874978 0.4152862 -0.25458047 -0.04846881 0.21731773
-0.16436046 0.30254516 -0.15990454 -0.0061722556 0.18247439 0.24213323 0.1640276 -0.14616017
00000000: 9606 bf3d 2b91 023e 843f b43e ba37 273e
00000010: bce6 663e aec9 e1bd 21c2 813e 1324 f33e
00000020: e9ea 513d b7db 6039 8f19 7a3d 51cf f53d
00000030: 83ec d33d 44ca 0ebf 48e0 8fbd 48e1 813e
00000040: fdb5 823d 236a 2a3d 91b1 80be c58b 9d3e
00000050: 1b08 913e 0da3 42be e411 8dbd fad6 41be
00000060: 5711 e13d e627 42be 0d68 a13d 00af b9bd
00000070: 2b25 9d3e bc6e f7bd 0ae0 883e f68e 483d
00000080: fa41 463e 7ca8 dc3d 6912 bdbe 6016 c6bc
00000090: 48e1 2fbd 805e 413e 66d0 11be 11c3 5f3c
000000a0: e60a f33e e33f 8abe 96d7 2d3e aa6a c1be
000000b0: 350d 693e 6b92 3d3d 2fca 543e 2c7a 193d
000000c0: a824 a13e aadd e73e ee7b c3bd bfd8 96be
000000d0: f872 c4bd d27d c6bd 4422 a13d 8344 453e
000000e0: ce72 d7bc e430 0c3f e969 35bf f7f3 703e
000000f0: 1dba 853e 4703 96bf a157 27be acef cebe
00000100: fcbc ddbd dda9 823d 3e4e f5be cfed 0ebf
00000110: e9d5 9cbe 8ab5 17bd e85c 02be 7617 56be
00000120: 4273 343e 94ee bcbe 3955 11be 39ea 793e
00000130: 13e1 763d 0fb3 8f3d 97b4 b7bd feaf c5be
00000140: 6f46 073d f8b5 0a3f b341 d83e 1c7d 56be
00000150: 3c0c 99bd 946a 99be aada 3abe c7f3 373d
00000160: 03bf d2be 7b4f abbd c370 a6be d8b4 7b3d
00000170: 4ceb 913e 835d 813d c176 1ebd 5d39 92bc
00000180: 1b9e 12bd 6932 d63e 9095 15bc 1781 83bd
00000190: 986c 1c3e 308d ecbe 0f02 3fbe d1e3 603e
000001a0: a4ec bd3d f82e c6be 9c06 d3bd 8432 33be
000001b0: 7641 69bd e708 bbbd 6c01 0bbf de59 053e
000001c0: 927b 14be d96b d9be 2748 0ebf 335a 2d3d
000001d0: 86ed 14bf 675c 39be daf0 c93e 1f92 d93e
000001e0: 531c 6ebf 6e9d 40be 1e36 913c d348 b2be
000001f0: 5509 8fbe 6b21 b13e c9d1 d0bd c111 44bc
00000200: eba2 4bbd abd6 1e3f bd32 403e df36 a63d
00000210: 18f4 073c a891 da3e 2aa3 ddbd 789c 33bd
00000220: 60fc e23d ed5a df3e f700 b33d 116a 3dbf
00000230: b46d 16bf cec8 c1bd 1dbc f4be 7348 a73d
00000240: 6f8d 88bf debf 883e 7cc1 03bc 34d6 02bd
00000250: 4150 8abf 9854 2bbe 1760 4cbe ed57 e1be
00000260: fddb 19bf 97d0 673e 44a7 d8bc 4337 7f3e
00000270: 7ec8 9cbe 2520 f6be 8c2b cf3e c3d2 aabe
00000280: edc0 e53c c8d0 22be 0817 63bd db92 3e3e
00000290: 65d5 8bbe fafd 823e 5573 56be 3bc9 a13c
000002a0: f140 2b3e b3eb 6e3e 78bb 1ebb 31ef 2e3d
000002b0: 2956 34be a7b3 6b3e b560 e3bd e8d3 2b3e
000002c0: 0bff c63d 8e2b 9ebe aa51 e73e 9824 a9be
000002d0: c8af 52bd e3cf bdbe 583e a7be 7dc6 5abe
000002e0: b961 8e3e 1253 d5be 39da abbe 4cf8 d9bd
000002f0: 2d57 9ebe e85a 16bd 6e69 a8be 8efc 923e
00000300: cae5 46bd 22b4 af3e d834 aabe 4457 02be
00000310: 2c5c 93bd b39a f1bc 8fea f0be c7a7 723e
00000320: 7173 3cbe 8439 93be c491 513e dc68 003f
00000330: 48c4 703e 8275 02be d48e ad3d 8abd 33be
00000340: e04f 95be 4eed 4f3e ac3e a6be f35f dd3e
00000350: 287c 053f db3c d2be 6aaf 553e c798 c6be
00000360: 5109 b8bd 1c84 38bf a7b3 053e f982 37be
00000370: 0385 e7be 0e2e fdbe a9a4 b0bd 5ca0 323f
00000380: 691c 6a3e d7db a93e 0ad4 b4be bc2b c0bd
00000390: 830d 913e e79b dcbd 76a1 4cbe bd5a 69be
000003a0: ef31 e53e bcd4 28be e5aa 87be 1a76 5dbe
000003b0: 51a3 cebe d3d1 7bbe f3f3 0b3f ae65 b43a
000003c0: 106d 13be 9c5d c23e a5f5 cfbd e932 933e
000003d0: 65a0 d43e 5f58 82be 3b87 46bd 8a88 5e3e
000003e0: 1c4e 28be 33e7 9a3e 04be 23be a240 cabb
000003f0: 91da 3a3e c6f1 773e daf6 273e 03ab 15be

bias f4 [64]
0.04685502 -0.2050594 0.14966093 0.0049399044 -0.016280118 -0.0134568 -0.1554342 0.20594375
-0.088494 0.082784906 0.2695798 -0.1000067 0.099384636 0.03906465 0.25590232 -0.0844369
0.10823379 0.059952818 -0.06869868 0.06785523 -0.16835153 0.2283744 0.11956637 -0.035411533
-0.090728715 0.20487788 -0.17283934 -0.042943276 -0.27566886 -0.13030037 -0.38772509 0.07124691
-0.016379481 0.051972646 -0.12219357 -0.021705214 0.09430256 0.07835657 0.08369119 -0.05662725
0.2451353 -0.011456082 -0.039084468 -0.25294533 -0.029838482 0.13245207 -0.036555126 -0.121431686
-0.24207167 0.23285423 -0.00710109 -0.1731213 -0.01474322 -0.31363627 0.019751715 -0.14053762
0.06786426 0.12158322 -0.005608245 -0.026129203 0.35394356 -0.059305824 -0.18384403 0.008898271
00000000: 0deb 3f3d 17fb 51be b740 193e ecde a13b
00000010: e25d 85bc e979 5cbc 252a 1fbe ebe2 523e
00000020: 583c b5bd 228b a93d 5d06 8a3e 50d0 ccbd
00000030: 2c8a cb3d 4102 203d a105 833e 41ed acbd
00000040: ada9 dd3d 1691 753d e5b1 8cbd aff7 8a3d
00000050: 5864 2cbe fbda 693e 37df f43d af0b 11bd
00000060: facf b9bd 82cb 513e ccfc 30be 4ae5 2fbd
00000070: 7824 8dbe 766d 05be e783 c6be e6e9 913d
00000080: 432e 86bc 45e1 543d 9f40 fabd 22cf b1bc
00000090: b321 c13d 6979 a03d 4966 ab3d faf1 67bd
000000a0: c004 7b3e 4ab2 3bbc 0917 20bd 0d82 81be
000000b0: d56f f4bc 84a1 073e d4ba 15bd 2db1 f8bd
000000c0: a3e1 77be 5771 6e3e 43b0 e8bb b646 31be
000000d0: 8c8d 71bc ef94 a0be 59ce a13c 18e9 0fbe
000000e0: 6bfc 8a3d a000 f93d 5ec5 b7bb e90c d6bc
000000f0: 1738 b53e aaea 72bd 9c41 3cbe 0eca 113c

weight f4 [64]
0.7793626 0.5144707 0.7375881 0.5417645 0.42500645 0.530211 0.51778394 0.34743902
0.46827298 0.33407715 0.34002295 0.3588981 1.0153276 0.81100523 0.57922053 0.3806873
0.69999826 0.43037584 0.63434637 0.58571416 0.66217875 0.50481033 0.48139068 0.66590774
0.5861942 0.38272735 0.5336702 0.45214912 0.36352143 0.55043817 0.3986082 0.42144805
0.42749673 0.60711426 0.5909836 0.6940189 0.60526997 1.1245154 0.5317528 0.3417221
0.34188002 0.68010217 0.33673614 0.34094295 0.53584677 0.4929541 0.42801994 0.662881
0.5988836 0.6049698 0.33025917 0.4212876 0.51197076 0.684846 0.53019786 0.5493993
0.5666293 0.5219884 0.62900645 0.4931138 0.4948643 0.8063204 0.7922231 0.5654709
00000000: 4f84 473f 5ab4 033f 93d2 3c3f 14b1 0a3f
00000010: 729a d93e e8bb 073f 7d8d 043f 87e3 b13e
00000020: 7ac1 ef3e 290c ab3e 7d17 ae3e 7ec1 b73e
00000030: 41f6 813f 0a9e 4f3f cc47 143f 72e9 c23e
00000040: 1633 333f 395a dc3e 8664 223f 5df1 153f
00000050: 8c84 293f 403b 013f d778 f63e ee78 2a3f
00000060: d310 163f d7f4 c33e 9c9e 083f 1780 e73e
00000070: 7b1f ba3e 84e9 0c3f 6016 cc3e 0ac8 d73e
00000080: dae0 da3e d76b 1b3f b44a 173f 39ab 313f
00000090: f9f2 1a3f 1ff0 8f3f f420 083f 33f6 ae3e
000000a0: e60a af3e 2d1b 2e3f ae68 ac3e 1390 ae3e
000000b0: 412d 093f 7b64 fc3e 6e25 db3e 92b2 293f
000000c0: 7050 193f 4ddf 1a3f bb17 a93e 02b3 d73e
000000d0: 8410 033f 1152 2f3f 0cbb 073f 6fa5 0c3f
000000e0: 9e0e 113f 08a1 053f 9106 213f 6979 fc3e
000000f0: db5e fd3e 046b 4e3f 22cf 4a3f b3c2 103f

bias f4 [64]
-0.3970516 -0.39293468 -0.90490377 -0.5967611 -0.12646706 -0.5975336 0.20778312 0.2950401
-0.35469773 0.24980485 0.7022345 0.118732445 -1.2610385 -1.1725608 -0.089673705 -0.027540684
-0.5908836 0.23651731 -0.7175862 -0.3359104 -0.75428057 0.08323487 -0.25273243 -0.19061024
-0.32163912 0.06788474 0.054554764 0.20995995 0.15981488 -0.05171272 0.17705584 0.19833803
-0.31833318 0.0242639 -0.25768754 -0.8017728 -0.24654964 -1.277309 0.083703145 0.42128205
0.16830547 -0.7492492 0.22376376 0.25286686 -0.13051537 0.02965489 0.17576857 -0.49972394
-0.3605689 -0.5492762 0.5552718 0.22491509 0.008556546 -0.38505554 -0.31983516 -0.39818817
-0.32432267 -0.3169203 -0.47810444 -0.4599311 0.24574572 -1.1519287 -0.6669793 -0.40709168
00000000: 594a cbbe bc2e c9be c6a7 67bf 56c5 18bf
00000010: 9580 01be f6f7 18bf 19c5 543e 7f0f 973e
00000020: f19a b5be d8cc 7f3e a4c5 333f ff29 f33d
00000030: b669 a1bf 7916 96bf d9a6 b7bd 009d e1bc
00000040: 2644 17bf 9831 723e bbb3 37bf 73fc abbe
00000050: 8818 41bf 0b77 aa3d 2566 81be 552f 43be
00000060: e2ad a4be 2807 8b3d d174 5f3d beff 563e
00000070: 83a6 233e b8d0 53bd 204e 353e 2019 4b3e
00000080: 91fc a2be 16c5 c63c 9fef 83be fb40 4dbf
00000090: 8277 7cbe dc7e a3bf 8e6c ab3d 48b2 d73e
000000a0: 4558 2c3e ccce 3fbf 5422 653e c477 813e
000000b0: d2a5 05be d0ee f23c adfc 333e d1db ffbe
000000c0: 7d9c b8be 5d9d 0cbf 4b26 0e3f 2450 663e
000000d0: c130 0c3c 0026 c5be 6fc1 a3be 52df cbbe
000000e0: 9f0d a6be 6143 a2be 1bca f4be 177c ebbe
000000f0: c4a4 7b3e 6672 93bf 28bf 2abf 526e d0be

running_mean f4 [64]
-2.2612529 -1.288851 -3.9052866 -2.1669483 -0.87096965 -3.3460767 -0.057513814 -0.09545087
-1.3462709 0.3285856 1.8312627 0.43796828 -2.6172867 -1.9384874 -0.7863861 -0.720925
-1.8862298 -1.842694 -2.0717337 -1.966291 -1.9628867 -0.61187285 -0.5265752 -1.8436284
-1.6636642 -0.6929051 -1.0449579 0.5233136 0.5705717 -1.3493798 -0.46799543 -0.99556166
-2.938846 -3.6954675 -0.965089 -4.348059 -1.8046163 -1.7044964 -1.2196766 0.68055975
0.4880239 -3.4939828 -0.2837868 -1.1015171 -2.4032414 -0.57999855 0.015087118 -1.5905424
-2.0077062 -0.74952984 2.365258 -1.3830919 -2.1913354 -3.5183423 -2.0160525 -2.3105848
-3.1886418 -0.67354435 -4.6502485 -2.5240092 0.10344425 -2.619336 -2.5547318 -0.74573874
00000000: 5eb8 10c0 12f9 a4bf 37f0 79c0 48af 0ac0
00000010: def7 5ebf 1f26 56c0 9b93 6bbd bf7b c3bd
00000020: 9b52 acbf 5f3c a83e d166 ea3f 613d e03e
00000030: a081 27c0 5b20 f8bf 9950 49bf 8a8e 38bf
00000040: fa6f f1bf 66dd ebbf 4997 04c0 6caf fbbf
00000050: df3f fbbf b3a3 1cbf a2cd 06bf 04fc ebbf
00000060: f3f2 d4bf 3b62 31bf 2ec1 85bf e1f7 053f
00000070: fd10 123f 7ab8 acbf 199d efbe 21dd 7ebf
00000080: 0e16 3cc0 8a82 6cc0 1310 77bf 4d23 8bc0
00000090: abfd e6bf f02c dabf 5d1e 9cbf 2a39 2e3f
000000a0: 45de f93e 6a9d 5fc0 814c 91be 83fe 8cbf
000000b0: b5ce 19c0 c97a 14bf f62f 773c e596 cbbf
000000c0: 427e 00c0 30e1 3fbf 6360 1740 2809 b1bf
000000d0: d73e 0cc0 852c 61c0 0107 01c0 9fe0 13c0
000000e0: b512 4cc0 676d 2cbf d6ce 94c0 5e89 21c0
000000f0: 94da d33d 33a3 27c0 ba80 23c0 bce8 3ebf

running_var f4 [64]
5.7027206 2.5472965 3.6170983 3.1557238 4.273636 3.0925994 6.494897 3.8468137
2.5879872 3.6769137 4.6357617 3.5234032 5.2805686 2.8836243 4.043616 3.1341367
4.2842183 4.868103 3.7287626 5.1824527 3.8103049 5.150457 3.426758 5.458149
3.955581 3.0697763 6.5904646 5.8963904 3.70965 6.2729273 3.9460485 4.273412
3.7790258 7.022508 4.256649 4.6608577 4.195416 5.034384 6.199451 3.858485
3.6374497 3.5862484 3.9157667 3.3284833 4.6033535 4.7491226 4.360563 3.4046836
3.4862952 4.7434993 3.7989426 4.738973 6.920914 6.5011415 3.9513917 4.207934
3.3228545 4.812964 5.144478 3.4176936 5.985213 3.116155 3.7082696 3.8822923
00000000: b07c b640 e806 2340 8a7e 6740 61f7 4940
00000010: a0c1 8840 26ed 4540 32d6 cf40 3232 7640
00000020: 95a1 2540 8e52 6b40 2958 9440 707f 6140
00000030: 6bfa a840 4d8d 3840 4d65 8140 b295 4840
00000040: 5118 8940 80c7 9b40 0ca4 6e40 a7d6 a540
00000050: 09dc 7340 8bd0 a440 0150 5b40 28a9 ae40
00000060: 3d28 7d40 3777 4440 16e5 d240 3baf bc40
00000070: e86a 6d40 d2bb c840 0f8c 7c40 cbbf 8840
00000080: 8fdb 7140 63b8 e040 7836 8840 bf25 9540
00000090: d940 8640 ac19 a140 e761 c640 6bf1 7640
000000a0: facb 6840 1885 6540 ec9b 7a40 df05 5540
000000b0: ac4e 9340 d0f8 9740 bb89 8b40 56e6 5940
000000c0: 761f 5f40 bfca 9740 e021 7340 aba5 9740
000000d0: 2178 dd40 5a09 d040 9ae3 7c40 65a7 8640
000000e0: a6a9 5440 cd03 9a40 909f a440 7ebb 5a40
000000f0: dd86 bf40 156f 4740 4a54 6d40 7a77 7840
