models/vishal_lr_001_iter_300.pt_232_128.pt (torch_old, 776281 bytes, 39 tensors)

weight f4 [64, 1, 3, 3]
-0.20235045 -0.18318772 0.30061236 -0.10699795 -0.12064307 0.32190654 -0.26432368 -0.032355085
0.29487357 0.09540352 0.10907741 0.012446496 -0.23836644 0.29486322 -0.018135346 -0.47960705
0.07687568 0.1322015 0.00011923164 -0.05165367 -0.025371179 -0.022006653 -0.057557628 -0.06599438
-0.08695571 0.09911482 0.03652267 -0.534149 -0.23789063 -0.35579315 -0.553491 0.1144005
-0.13053331 -0.04484026 0.6938339 0.37151048 -0.054806575 -0.11193515 0.04118187 -0.08702316
0.021784054 0.05416524 -0.039321054 0.0074304743 0.061972197 -0.063207075 -0.054654136 -0.047937088
0.2964306 0.1658843 0.116626814 0.06952549 0.02018184 -0.044581614 -0.04513931 0.10054799
0.19115415 0.06492027 -0.482979 -1.2275172 0.3596122 -0.095483005 -0.48407272 0.117559694
-0.23016818 0.16205639 0.2101541 -0.28260973 -0.03489512 0.15719262 -0.038924847 -0.087749764
-0.09212455 -0.068225026 -0.06139477 -0.075760886 -0.039587524 -0.032066643 0.083578944 -0.071450755
0.07422769 -0.22219248 0.16631006 0.0007824332 0.02996894 0.39953557 -0.3932977 -0.053204108
-0.016770022 0.051921356 -0.043839153 0.03414142 0.00018977374 -0.09324878 0.06872171 0.030959383
-0.07052688 -0.014524177 0.07356985 0.013859985 0.4893164 -0.10639622 -0.08834849 -0.19751847
-0.19850586 0.08129831 -0.2610606 0.25560257 -0.002142027 0.0074252635 -0.0034067482 -0.0601396
-0.009180054 0.01455456 0.061365128 0.0906623 -0.050676037 0.105653495 0.015929505 -0.05303451
-0.32543352 -0.51413935 -0.059437245 0.25366306 0.15975589 0.43028495 -0.38555875 0.33870688
0.19276795 -0.04419442 -0.3531831 0.23068513 0.4506427 -0.24066435 -0.2074058 -0.30918217
0.28678256 -0.07711125 -0.24003461 0.45178437 0.092789605 -0.3029423 0.18211003 -0.078294046
-0.53651404 -1.541872 0.12803827 -1.091082 -2.372588 -0.4441172 0.1421606 -0.35759413
0.21320133 -0.16451254 -0.20077175 -0.16307527 0.05033529 0.12046375 0.4220398 -0.22996998
0.06681156 0.09543934 0.004326696 0.18637422 -0.30280223 0.14444068 0.4420833 -0.465906
0.058434837 0.305417 -0.36529082 -0.8795711 -0.27016577 0.29981476 0.1468047 0.5524965
0.23078321 0.18395753 -0.28199765 -0.67629945 -0.22073382 -0.22204942 0.095616035 0.16840969
0.6897317 -0.37082663 -0.114951424 0.07326495 -0.11652042 -0.27015254 0.063032314 0.07443666
0.22794847 0.3711392 0.1961061 0.04859475 -0.41178164 -0.2889348 -0.09953692 -0.15822169
0.18378656 -0.2619085 -0.35364336 -0.18617645 0.28529757 0.3079536 0.28961998 -0.12823229
-0.046527173 0.06606084 -0.05591133 -0.08794427 -0.041005053 0.061755393 0.055097695 -0.025869124
-0.09485005 -0.909584 0.17143367 -0.5724814 -1.8598269 -0.09653304 0.14812516 -0.2060307
0.25978145 0.007362291 -0.0981914 -0.08366195 0.09644605 -0.060445827 0.04886949 -0.0021747723
-0.0039110184 -0.075164 0.3568493 0.16761677 0.1786208 -0.20732827 -1.1908193 -0.07559369
0.12856352 -0.48261777 0.25413653 -0.027607065 0.11148936 -0.04775565 -0.3646906 -0.020342503
0.26484874 0.21670932 0.1531574 -0.30982992 0.40328905 -0.20879772 -0.16376035 0.16099858
00000000: f534 4fbe 9095 3bbe dde9 993e be21 dbbd
00000010: b713 f7bd efd0 a43e 6f55 87be c486 04bd
00000020: abf9 963e ec62 c33d fa63 df3d 63ec 4b3c
00000030: 5516 74be 50f8 963e 9490 94bc 0e8f f5be
00000040: ff70 9d3d d45f 073e 000c fa38 cc92 53bd
00000050: 38d7 cfbc 4c47 b4bc 8cc1 6bbd 1028 87bd
00000060: d615 b2bd b6fc ca3d cc98 153d fdbd 08bf
00000070: 9a99 73be 852a b6be 96b1 0dbf cf4a ea3d
00000080: 86aa 05be 6caa 37bd 199f 313f 9f36 be3e
00000090: dc7c 60bd 423e e5bd 52ae 283d 3339 b2bd
000000a0: 7974 b23c 5fdc 5d3d 1d0f 21bd 567b f33b
000000b0: 8fd6 7d3d b672 81bd 04dd 5fbd ae59 44bd
000000c0: c0c5 973e 93dd 293e 0ada ee3d 6163 8e3d
000000d0: 6354 a53c 369b 36bd ffe3 38bd 1bec cd3d
000000e0: eabd 433e ebf4 843d 0649 f7be 491f 9dbf
000000f0: 171f b83e 988c c3bd 61d8 f7be 23c3 f03d
00000100: 35b1 6bbe 1cf2 253e a332 573e 39b2 90be
00000110: 2fee 0ebd 1af7 203e a96f 1fbd 26b6 b3bd
00000120: ccab bcbd 90b9 8bbd 1579 7bbd 8628 9bbd
00000130: 8726 22bd 5058 03bd 702b ab3d c654 92bd
00000140: b004 983d 6d86 63be 2f4d 2a3e 341c 4d3a
00000150: 6c81 f53c ed8f cc3e 515e c9be 8dec 59bd
00000160: 4961 89bc 7dab 543d af90 33bd e0d7 0b3d
00000170: 00fe 4639 37f9 bebd f8bd 8c3d 889e fd3c
00000180: 6670 90bd d0f6 6dbc caab 963d fe14 633c
00000190: ae87 fa3e 43e6 d9bd 0ef0 b4bd 4842 4abe
000001a0: 1f45 4bbe ba7f a63d bca9 85be 57de 823e
000001b0: 4061 0cbb a04f f33b c043 5fbb f154 76bd
000001c0: f067 16bc 4076 6e3c 005a 7b3d 28ad b93d
000001d0: ad91 4fbd dc60 d83d 987e 823c b73a 59bd
000001e0: 399f a6be a39e 03bf 7874 73bd 20e0 813e
000001f0: 0c97 233e 4f4e dc3e f567 c5be fd6a ad3e
00000200: f664 453e 3505 35bd 6ad4 b4be b938 6c3e
00000210: a4ba e63e b770 76be 3062 54be 204d 9ebe
00000220: 2ad5 923e 81ec 9dbd a2cb 75be 4850 e73e
00000230: 7a08 be3d 411b 9bbe 0d7b 3a3e a158 a0bd
00000240: fc58 09bf 105c c5bf 771c 033e 93a8 8bbf
00000250: 7bd8 17c0 5463 e3be 8c92 113e 9416 b7be
00000260: 7351 5a3e fa75 28be 1c97 4dbe 34fd 26be
00000270: 612c 4e3d b3b5 f63d 9a15 d83e 407d 6bbe
00000280: 80d4 883d b375 c33d f5c6 8d3b e2d8 3e3e
00000290: e508 9bbe 42e8 133e be58 e23e 3b8b eebe
000002a0: 5e59 6f3d 9e5f 9c3e 6607 bbbe 922b 61bf
000002b0: 2b53 8abe 5281 993e f953 163e 6970 0d3f
000002c0: 6f52 6c3e 5d5f 3c3e ff61 90be f621 2dbf
000002d0: 0c08 62be ec60 63be 57d2 c33d 9773 2c3e
000002e0: 4292 303f fddc bdbe a76b ebbd ef0b 963d
000002f0: 42a2 eebd 6f51 8abe 1617 813d 3f72 983d
00000300: 536b 693e f505 be3e 0ad0 483e 4a0b 473d
00000310: 0bd5 d2be 43ef 93be 03da cbbd de04 22be
00000320: 8b32 3c3e df18 86be be10 b5be 0aa5 3ebe
00000330: 8612 923e 18ac 9d3e 1249 943e 534f 03be
00000340: 4793 3ebd e84a 873d 4703 65bd 201c b4bd
00000350: eaf4 27bd 39f3 7c3d 1fae 613d 7ceb d3bc
00000360: be40 c2bd 7fda 68bf 4f8c 2f3e 248e 12bf
00000370: cf0e eebf 1db3 c5bd 1fae 173e b6f9 52be
00000380: 1302 853e 603f f13b 9318 c9bd f556 abbd
00000390: 8285 c53d 0b96 77bd 602b 483d a086 0ebb
000003a0: 0028 80bb 95ef 99bd f4b4 b63e bba3 2b3e
000003b0: 5fe8 363e dd4d 54be c46c 98bf ddd0 9abd
000003c0: 28a6 033e ad19 f7be 2f1e 823e 3628 e2bc
000003d0: 8954 e43d 6e9b 43bd bab8 babe 52a5 a6bc
000003e0: 419a 873e 0ce9 5d3e 4bd5 1c3e 07a2 9ebe
000003f0: e77b ce3e 12cf 55be cbb0 27be d0dc 243e

bias f4 [64]
0.013879388 0.0348842 -0.0965341 0.01765732 -0.30797106 -0.2630556 0.20699793 0.09302729
-0.192253 0.046139393 -0.3296674 0.08916551 -0.21703395 0.034129776 0.059956614 -0.013591706
0.2880269 0.023038717 -0.029019214 0.0739751 0.048827127 0.024776371 0.017690338 -0.10194345
0.29024348 -0.091956705 0.15539458 0.089725375 0.010754054 0.040220752 0.03048218 0.11214052
0.07886779 -0.27808854 0.03062103 0.061670538 0.020989038 0.07664713 0.09074441 -0.052494913
0.2134711 0.065341845 0.060961675 0.04933607 -0.18661413 0.13666898 -0.2616417 0.025983706
-0.6428626 -0.1536086 0.09118546 0.017997256 -0.296229 -0.29615843 -0.08662689 -0.09231681
-0.3094654 0.04085831 -0.0882581 -0.6929429 0.034567084 0.215273 -0.016483359 -0.15811834
00000000: 5f66 633c bce2 0e3d acb3 c5bd 15a6 903c
00000010: 62ae 9dbe 39af 86be 44f7 533e 1885 be3d
00000020: f8dd 44be a9fc 3c3d 2aca a8be 689c b63d
00000030: 263e 5ebe aacb 0b3d 1195 753d bfaf 5ebc
00000040: 4378 933e b1bb bc3c b4b9 edbc 4280 973d
00000050: f4fe 473d d1f7 ca3c 54eb 903c bac7 d0bd
00000060: cb9a 943e cc53 bcbd c21f 1f3e f0c1 b73d
00000070: c631 303c 84be 243d c4b5 f93c eea9 e53d
00000080: 7085 a13d 9f61 8ebe f4d8 fa3c 3f9a 7c3d
00000090: 34f1 ab3c 2cf9 9c3d 35d8 b93d e804 57bd
000000a0: 2b98 5a3e f2d1 853d f3b2 793d 9e14 4a3d
000000b0: c617 3fbe f4f2 0b3e e7f5 85be c8db d43c
000000c0: a592 24bf 934b 1dbe 71bf ba3d fb6e 933c
000000d0: 54ab 97be 14a2 97be 7069 b1bd 9810 bdbd
000000e0: 4072 9ebe 0b5b 273d aac0 b4bd b564 31bf
000000f0: 3796 0d3d 8670 5c3e 1c08 87bc c6e9 21be

weight f4 [64, 64, 3, 3]
0.032941688 0.31090835 -0.36032608 0.34799045 0.12359669 -0.46682853 0.17887826 0.20275427
0.03831763 0.05891416 -0.013893013 0.011182825 -0.31841114 -0.44308424 -0.032998808 0.09611941
-0.106778614 0.14461839 -0.034374386 0.02582182 0.054533005 0.042488776 0.045233317 -0.06772606
0.056195363 0.06150925 -0.013306569 0.029522052 0.3512248 0.081829086 0.010814983 -0.14694937
-0.45702508 -0.35819143 0.3091031 0.24521808 -0.021233346 -0.011849567 -0.056065902 0.08786239
-0.0015246699 -0.025330696 0.04889071 -0.089165986 0.07169059 -0.00047434712 -0.39078674 -0.34410274
0.36662775 0.21947896 -0.31712312 0.44599035 0.3573122 -0.18381433 -0.09033163 -0.70084983
-0.0863252 0.82708687 -0.5219225 -0.05934185 -0.26893747 -0.8970977 -3.466843e-05 0.18593623
0.5343349 0.07793159 -0.51297134 0.26910478 -0.4119806 -0.1024256 0.060698718 -0.05439561
0.0364352 -0.046121586 0.0026985556 0.04989493 0.061604604 0.053515837 -0.05305852 -0.037186347
0.062122807 0.07312147 -0.072419666 0.4292246 -0.14444433 -0.37429067 -0.10033675 0.12918876
0.037524417 -0.0022185254 0.06300557 0.070484474 0.06775883 -0.04893432 0.04748489 0.02012521
0.04042144 -0.05982656 0.039316334 -0.048530724 0.6727703 0.30219868 -0.25170702 -0.18003464
0.20304376 -0.46260303 -0.42878455 0.06301708 0.0020680055 0.05624664 0.03800013 -0.034617316
-0.025469664 0.0040575117 0.004133597 0.052998066 -0.05877162 -0.024973726 -0.3719758 0.19971274
-0.020561796 0.060114894 0.06875063 0.3022652 0.095033824 -0.20340432 0.082210824 0.096583106
0.041605443 0.017995192 -0.063885294 -0.088573426 -0.1704358 -0.0010135414 0.030582227 0.04041192
-0.029362582 -0.028717719 0.004966157 -0.052634686 0.07759041 -0.05195896 -0.112646766 0.43762332
-0.5315199 -0.23831181 -0.4219579 0.3142314 0.64894277 0.15042013 0.42238978 0.32136476
-0.31046903 0.01183229 0.12536883 -0.06862618 -0.005125765 -0.21016377 -0.23545039 -0.09557163
-0.1269989 -0.15438145 -0.112176776 -0.01785878 0.042752977 0.5795909 0.252866 -0.14201845
0.57646435 0.3478336 -0.23198634 -0.09831164 0.12570903 -0.120750934 0.2859475 -0.3450004
-0.2441243 0.86980224 -0.27690935 -0.042062383 -0.004128206 -0.054901987 0.43262294 -0.085428186
-0.17847602 -0.3621047 0.20625685 0.15006457 -0.010474433 0.09700493 0.29784992 0.020955125
-0.28815743 -0.3736733 0.050934706 -0.08287819 0.034733616 -0.051676087 -0.27790734 0.080725014
0.25135413 -0.21117827 0.06695301 -0.19660187 0.08842199 0.33078247 -0.1712878 -0.021435361
-0.034667477 -0.042320028 0.02047906 0.07047991 -0.019221159 0.03304866 -0.05974836 -0.029067663
-0.17400765 -0.31148255 0.13477491 -0.23923773 0.29697153 -0.26415458 0.1798707 0.029976783
0.26587024 -0.060400695 -0.031201214 -0.029383074 0.03590942 0.057702005 0.03867113 -0.017393876
0.029189013 -0.039672103 0.016660914 0.13988236 -0.112582736 0.15750237 0.4576891 -0.032449722
-0.53406864 -0.4200772 -0.19486064 0.34530982 -0.030529426 0.467699 -0.41263366 -0.31657344
0.08303656 -0.0464615 -0.2730745 0.18023872 0.3753024 -0.081802696 -0.084533125 -0.2838834
00000000: dded 063d 612f 9f3e a97c b8be ce2b b23e
00000010: 4320 fd3d 2604 efbe dd2b 373e d19e 4f3e
00000020: f2f2 1c3d f94f 713d 859f 63bc 2b38 373c
00000030: c906 a3be f0db e2be c229 07bd 41da c43d
00000040: bfae dabd d816 143e 28cc 0cbd 4888 d33c
00000050: 005e 5f3d b608 2e3d 9246 393d f6b3 8abd
00000060: 1c2d 663d 20f1 7b3d cc03 5abc 3bd8 f13c
00000070: bdd3 b33e 0296 a73d 5431 313c e579 16be
00000080: 31ff e9be de64 b7be c342 9e3e 731a 7b3e
00000090: 8ef1 adbc b024 42bc 5ca5 65bd 32f1 b33d
000000a0: 6fd7 c7ba 5282 cfbc a041 483d a89c b6bd
000000b0: 84d2 923d cbb1 f8b9 3315 c8be 3c2e b0be
000000c0: a2b6 bb3e 18bf 603e f65d a2be d958 e43e
000000d0: a0f1 b63e d339 3cbe caff b8bd e56a 33bf
000000e0: 44cb b0bd f7bb 533f b79c 05bf 7110 73bd
000000f0: 2cb2 89be 32a8 65bf f168 11b8 1166 3e3e
00000100: 2cca 083f 999a 9f3d 1752 03bf 1ac8 893e
00000110: 1fef d2be 83c4 d1bd 389f 783d eecd 5ebd
00000120: 143d 153d fde9 3cbd 40da 303b a05e 4c3d
00000130: 1c55 7c3d 6c33 5b3d e453 59bd b650 18bd
00000140: 7c74 7e3d b6c0 953d c350 94bd 54c3 db3e
00000150: 37e9 13be 07a3 bfbe 5b7d cdbd 0f4a 043e
00000160: 34b3 193d ae64 11bb 1009 813d 2a5a 903d
00000170: 24c5 8a3d 5b6f 48bd 847f 423d a0dd a43c
00000180: f490 253d b20c 75bd 2a0a 213d 27c8 46bd
00000190: ad3a 2c3f c9b9 9a3e bedf 80be 005b 38be
000001a0: b4ea 4f3e 4eda ecbe a689 dbbe 190f 813d
000001b0: 6087 073b e062 663d 06a6 1b3d e3ca 0dbd
000001c0: c2a5 d0bc e0f4 843b 2073 873b 8014 593d
000001d0: 83ba 70bd b395 ccbc 9d73 bebe 7f81 4c3e
000001e0: 3671 a8bc 093b 763d 21cd 8c3d 81c2 9a3e
000001f0: 18a1 c23d 3949 50be 265e a83d 5dcd c53d
00000200: 786a 2a3d a76a 933c 4bd6 82bd fc65 b5bd
00000210: b986 2ebe ced8 84ba 9487 fa3c f886 253d
00000220: cc89 f0bc 6c41 ebbc 25bb a23b 7897 57bd
00000230: b9e7 9e3d ebd2 54bd 59b3 e6bd 2a10 e03e
00000240: b011 08bf 0308 74be de0a d8be f0e2 a03e
00000250: 1d21 263f bc07 1a3e 7943 d83e ec89 a43e
00000260: ccf5 9ebe 39dc 413c b060 003e e28b 8cbd
00000270: 09f6 a7bb 2c35 57be e819 71be 0fbb c3bd
00000280: 000c 02be 2c16 1ebe f0bc e5bd 944c 92bc
00000290: bf1d 2f3d 1260 143f a777 813e 496d 11be
000002a0: 2b93 133f 3f17 b23e d48d 6dbe 9d57 c9bd
000002b0: deb9 003e 444c f7bd b667 923e e4a3 b0be
000002c0: b8fb 79be 5cab 5e3f 10c7 8dbe 9b49 2cbd
000002d0: e745 87bb e8e0 60bd c180 dd3e f9f4 aebd
000002e0: 6bc2 36be ca65 b9be ff34 533e 87aa 193e
000002f0: f59c 2bbc 85aa c63d c97f 983e 15aa ab3c
00000300: 5f89 93be 1b52 bfbe e9a0 503d 0abc a9bd
00000310: d644 0e3d 4eaa 53bd df49 8ebe 2853 a53d
00000320: 7db1 803e 1e3f 58be a91e 893d 0052 49be
00000330: 9716 b53d 525c a93e 1266 2fbe 3699 afbc
00000340: 7cff 0dbd c457 2dbd b4c3 a73c c557 903d
00000350: b175 9dbc 085e 073d b2ba 74bd 4f1f eebc
00000360: 102f 32be a47a 9fbe 6f02 0a3e bcfa 74be
00000370: a70c 983e 453f 87be 0630 383e df91 f53c
00000380: 2520 883e b866 77bd b099 ffbc c6b4 f0bc
00000390: c215 133d f058 6c3d 9e65 1e3d 9a7d 8ebc
000003a0: cc1d ef3c 377f 22bd 787c 883c 523d 0f3e
000003b0: c791 e6bd 4d48 213e 3a56 ea3e 00ea 04bd
000003c0: b9b8 08bf 5c14 d7be 8c89 47be 73cc b03e
000003d0: d918 fabc 3e76 ef3e b844 d3be ea15 a2be
000003e0: 120f aa3d 6a4e 3ebd 6cd0 8bbe 8090 383e
000003f0: a327 c03e 2c88 a7bd b41f adbd 2a59 91be

bias f4 [64]
-0.14395408 0.35835475 -0.11676011 0.1897871 -0.017815068 0.57898957 0.4719328 -0.109383434
0.24474409 0.22039053 0.25923967 -0.29495138 -0.09698727 0.0018840816 -0.10346663 -0.6829231
0.2575684 0.09673466 0.14526848 0.3390862 0.43719265 -0.36813134 0.43774766 0.17343195
0.14607997 0.14409937 -0.010429282 -0.27355343 -0.12038519 0.23723663 0.52784437 -0.013364347
-0.106560335 -0.07090569 0.24105904 -0.10045228 -0.02311103 0.43186432 0.49862438 0.034041405
0.45035145 0.1008414 0.1322494 0.4111498 -0.3146652 -0.012883975 -0.35386133 -0.064879246
-0.4807129 0.038929388 -0.2897473 0.02767344 0.26913762 -0.0788455 -0.025487328 -0.34858817
0.3751272 -0.6748391 0.17110895 0.40188855 0.1609141 0.09235812 -0.15358613 -0.24721539
00000000: b368 13be 467a b73e ed1f efbd 8d57 423e
00000010: e8f0 91bc a938 143f 2da1 f13e 6c04 e0bd
00000020: 329e 7a3e 0eae 613e 10bb 843e de03 97be
00000030: 43a1 c6bd 4af3 f63a 50e6 d3bd 0cd4 2ebf
00000040: 01e0 833e d21c c63d 43c1 143e b59c ad3e
00000050: b7d7 df3e b67b bcbe 7620 e03e 2598 313e
00000060: fd95 153e c98e 133e 94df 2abc 320f 8cbe
00000070: 838c f6bd 29ee 723e cf20 073f 22f6 5abc
00000080: 4e3c dabd 0137 91bd 2ed8 763e edb9 cdbd
00000090: 5853 bdbc 521d dd3e b24b ff3e 006f 0b3d
000000a0: 7794 e63e f085 ce3d 636c 073e 3a82 d23e
000000b0: cc1b a1be 4f17 53bc 502d b5be 69df 84bd
000000c0: 0020 f6be 6c74 1f3d c259 94be 69b3 e23c
000000d0: 68cc 893e c079 a1bd cdca d0bc 267a b2be
000000e0: ac10 c03e 41c2 2cbf 2f37 2f3e 56c4 cd3e
000000f0: aac6 243e 4126 bd3d af45 1dbe 0826 7dbe

weight f4 [64]
0.53335476 0.57396775 0.50830203 0.6439612 0.583482 0.8071349 0.5493807 0.43119922
0.6689637 0.35285845 0.66539615 0.42352602 0.671963 0.8156418 0.39925086 0.43258825
0.45051843 0.91212976 0.50602555 0.61678195 0.54767644 0.8641304 0.5913454 0.6998397
0.46831325 0.5271136 0.5742811 0.44384196 0.79122096 0.45994943 0.48949873 0.5606847
0.9072271 0.53017855 0.6210926 0.5793811 0.59509367 0.74935615 0.6103061 0.5157149
0.37082323 0.59413886 0.45356515 0.52711344 0.7732012 0.6597516 0.6285493 0.58493495
0.68306285 0.66871786 0.4576913 0.43960586 0.49430424 0.4852407 0.6041957 0.65357405
0.49232677 0.36724946 0.5350553 0.5884748 0.53328466 0.5901301 0.5849567 0.5228378
00000000: f089 083f 8def 123f 1520 023f a4da 243f
00000010: 145f 153f 65a0 4e3f 37a4 0c3f 25c6 dc3e
00000020: 3441 2b3f dda9 b43e 6757 2a3f 67d8 d83e
00000030: c405 2c3f e7cd 503f 9c6a cc3e 357c dd3e
00000040: 5aaa e63e 5681 693f e48a 013f 6ce5 1d3f
00000050: 8634 0c3f a637 5d3f 6a62 173f b228 333f
00000060: c1c6 ef3e ebf0 063f 1604 133f 413f e33e
00000070: 758d 4a3f 7e7e eb3e 949f fa3e 0889 0f3f
00000080: 0940 683f c8b9 073f edff 1e3f 5252 143f
00000090: 0f58 183f ced5 3f3f 053d 1c3f e405 043f
000000a0: 8bdc bd3e 7c19 183f b139 e83e e8f0 063f
000000b0: 84f0 453f 7be5 283f 9be8 203f 4cbe 153f
000000c0: 35dd 2e3f 1831 2b3f 8456 ea3e 0514 e13e
000000d0: 7215 fd3e 7871 f83e 92ac 1a3f a150 273f
000000e0: 4112 fc3e 1f08 bc3e 62f9 083f 49a6 163f
000000f0: 5885 083f c412 173f b9bf 153f b3d8 053f

bias f4 [64]
-0.08821661 -0.5621877 -0.10552033 -0.122631684 -0.41878992 -0.7494005 -0.2673308 -0.01726361
-0.17816049 -0.058359027 -0.35659966 -0.5675821 0.023988122 -0.384225 -0.26261044 -0.30106416
0.12928644 -0.10094096 0.037574623 -0.20763032 0.08668742 -0.40466604 0.1991762 -0.2704883
0.2682177 -0.12266548 -0.24582776 -0.22747964 -0.077837765 0.18764396 -0.21009728 -0.23412473
-1.4091026 -0.011726063 0.13098517 -0.3682499 -0.16168845 -0.31522363 0.16972388 -0.55588436
0.24327761 -0.24719746 -0.043209966 -0.24851534 -0.20893764 -0.5090083 -0.22570276 -0.5082148
-0.26725388 -0.431837 0.7554667 -0.07870652 -0.37976155 -0.25199735 -0.22221343 -0.2581813
-0.14015746 -0.045360833 -0.32996663 -0.0973628 0.04998702 -0.35940668 -0.46762756 -0.40728593
00000000: e9aa b4bd 88eb 0fbf 0b1b d8bd 5226 fbbd
00000010: a26b d6be b6d8 3fbf 95df 88be 6a6c 8dbc
00000020: b46f 36be e009 6fbd 3b94 b6be 0f4d 11bf
00000030: bd82 c43c 24b9 c4be e074 86be 1525 9abe
00000040: aa63 043e 22ba cebd d9e7 193d 0b9d 54be
00000050: 2d89 b13d 6330 cfbe d9f4 4b3e 717d 8abe
00000060: d553 893e 0a38 fbbd 46ba 7bbe 6cf0 68be
00000070: 6869 9fbd bd25 403e be23 57be 65be 6fbe
00000080: 795d b4bf ac1e 40bc fa20 063e 408b bcbe
00000090: a891 25be fe64 a1be 19cc 2d3e 704e 0ebf
000000a0: c41d 793e 5521 7dbe effc 30bd ce7a 7ebe
000000b0: c0f3 55be 5e4e 02bf a01e 67be 5d1a 02bf
000000c0: 80d5 88be bd19 ddbe 4466 413f e230 a1bd
000000d0: 1b70 c2be cc05 81be eb8b 63be 5730 84be
000000e0: 7085 0fbe 48cc 39bd 63f1 a8be 2666 c7bd
000000f0: 31bf 4c3d 2704 b8be e16c efbe c887 d0be

running_mean f4 [64]
-0.16247116 0.21943791 -0.24495183 -0.07238301 -0.3577207 0.4439527 0.516625 -0.14801447
4.306007e-05 0.15868267 0.108077236 -0.3550595 -0.31357524 -0.13530779 -0.38403457 -0.80257547
-0.07395248 -0.069271706 0.026810627 0.39812842 0.28564167 -0.6061666 0.26660475 0.19793138
0.011618989 0.06459564 -0.21145375 -0.3238493 -0.2783703 -0.12488969 0.39109287 -0.21753754
-0.12639253 -0.53513247 0.07431343 -0.02148299 -0.095708795 0.33462292 0.38120902 -0.08774027
0.22386928 -0.12050643 -0.12629487 0.31949395 -0.46954393 -0.124829136 -0.41628274 -0.26459035
-0.5841882 0.06056666 -0.44797873 -0.24788803 0.02884481 -0.13713217 -0.25059307 -0.47260338
-0.103264004 -0.78634053 -0.03121451 0.25751418 -0.04949148 -0.119523734 -0.598833 -0.3803393
00000000: d75e 26be 55b4 603e a7d4 7abe 8b3d 94bd
00000010: 2b27 b7be c54d e33e 8941 043f 1b91 17be
00000020: 669b 3438 b67d 223e 9957 dd3d 5cca b5be
00000030: ef8c a0be 208e 0abe 2ea0 c4be 9675 4dbf
00000040: 6674 97bd 53de 8dbd f6a1 db3c 7dd7 cb3e
00000050: a03f 923e bc2d 1bbf 6b80 883e 86ae 4a3e
00000060: 925d 3e3c b84a 843d 5587 58be 93cf a5be
00000070: 8d86 8ebe 2ac6 ffbd 533d c83e 29c2 5ebe
00000080: 0b6d 01be 71fe 08bf a431 983d 18fd afbc
00000090: f902 c4bd b253 ab3e d42d c33e 2cb1 b3bd
000000a0: fd3d 653e 13cc f6bd 7153 01be b694 a33e
000000b0: 1068 f0be 6ba6 ffbd 0323 d5be 6378 87be
000000c0: 5c8d 15bf bf14 783d 785d e5be 5cd6 7dbe
000000d0: f34b ec3c 606c 0cbe bc4d 80be 12f9 f1be
000000e0: 147c d3bd 9d4d 49bf 92b5 ffbc e6d8 833e
000000f0: 94b7 4abd dcc8 f4bd 1f4d 19bf d5bb c2be

running_var f4 [64]
0.03950888 0.022647928 0.064075105 0.07407008 0.0478248 0.019686408 0.02398929 0.03445807
0.059503783 0.012134447 0.059949663 0.028145703 0.05039796 0.05832905 0.027097093 0.009321804
0.03801891 0.07897413 0.05762972 0.051122464 0.036166813 0.067290485 0.059239574 0.038167726
0.05214947 0.05058124 0.028395616 0.026621953 0.08927837 0.04337853 0.0335935 0.030132925
0.03151933 0.06188561 0.047654238 0.03432721 0.051820457 0.035550196 0.08025714 0.010074314
0.02565366 0.03801952 0.036482733 0.016422343 0.08283644 0.020627404 0.045993887 0.015993442
0.05876589 0.051976454 0.014340358 0.031330146 0.015017654 0.030367397 0.03979476 0.025177846
0.03813551 0.03152727 0.021255927 0.032189276 0.06571004 0.030837592 0.038253967 0.039589167
00000000: 10d4 213d 2688 b93c cf39 833d 0eb2 973d
00000010: f0e3 433d 6445 a13c 3085 c43c e823 0d3d
00000020: 3dba 733d 8fcf 463c c78d 753d d191 e63c
00000030: 176e 4e3d 71ea 6e3d b9fa dd3c 7bba 183c
00000040: b7b9 1b3d 30bd a13d 240d 6c3d ca65 513d
00000050: a723 143d 98cf 893d 32a5 723d c355 1c3d
00000060: af9a 553d 462e 4f3d ec9d e83c 4816 da3c
00000070: 94d7 b63d afad 313d 5699 093d 53d9 f63c
00000080: 6a1a 013d c47b 7d3d 1731 433d b09a 0c3d
00000090: b041 543d 159d 113d db5d a43d bc0e 253c
000000a0: a027 d23c 5bba 1b3d eb6e 153d 2688 863c
000000b0: 27a6 a93d cdfa a83c 1664 3c3d ae04 833c
000000c0: 80b4 703d 43e5 543d d2f3 6a3c 0a54 003d
000000d0: 9b0c 763c 0cc5 f83c d5ff 223d c541 ce3c
000000e0: fb33 1c3d bd22 013d e920 ae3c e7d8 033d
000000f0: fc92 863d 1e9f fc3c 31b0 1c3d 4028 223d

weight f4 [64, 64, 3, 3]
0.1818225 -0.029451182 0.26258206 -0.0816257 0.063877665 0.06743857 0.2522775 0.2634072
-0.36014712 -0.11581868 -0.057967607 -0.09108615 -0.021365438 -0.1008301 -0.057270642 0.08131899
-0.5805702 -0.55824184 -0.2445058 0.14750054 -0.3065381 -0.23401846 0.14906752 -0.45238242
-0.6046094 -0.6423214 -0.3064166 0.31513175 0.0058442284 0.3123913 -0.29459172 0.19357699
0.14022057 0.2296031 0.04493361 -0.31814688 -0.06307001 0.34052628 0.12836449 -0.0959888
0.043726206 0.08853442 -0.21503586 -0.17840928 -0.28452885 0.08265076 0.34956363 0.3289006
-0.23640089 0.0025436457 -0.17020525 0.2366618 0.0020865481 -0.048999757 0.018053252 0.0910615
0.0086637 -0.39597476 -0.124243766 -0.2521145 0.13198169 0.00036295637 0.33497232 -0.12484775
-0.21935788 -0.04791567 -0.28087035 -0.44047612 -0.328006 0.18124019 -0.31137046 -0.65067524
0.41813847 -0.40301925 -0.21955588 -0.44890672 -0.6660216 0.14413337 0.2242109 0.20829763
0.3021899 0.39426422 0.43816927 0.74841326 0.31352133 -0.009582759 0.4835114 0.22002685
0.0002724196 -0.53376997 0.07041121 -0.48598328 -0.61103576 -0.19685343 0.12168863 -0.4738132
0.1842437 0.58213586 -0.32479554 -0.22055072 -0.09159311 -0.15948242 -0.044295568 0.426582
-0.07584502 -0.23287205 -0.19128683 -0.7908173 0.3215013 -0.12147611 -0.34626126 0.01822152
0.20575239 0.07831924 0.22273622 -0.13471688 0.19728665 0.5636001 -0.3302597 -0.16219047
-0.078430586 -0.39094883 -0.40470624 -0.079554535 0.20786652 0.08720772 0.008250174 -0.33027276
-0.6052352 0.16614182 0.1452859 -0.18159044 -0.41727912 0.039392173 0.22677834 -0.11220648
-0.027128316 0.22443624 0.031678855 -0.26789743 -0.11583024 0.24522492 0.3998181 0.009064024
-0.0812693 0.109625556 -0.19131535 -0.047993105 -0.31499055 -0.327093 0.21220672 -0.029646661
0.74122393 -0.038422853 -0.15958565 0.21884675 0.098834164 0.0672919 0.1555255 -0.007261006
0.422144 -0.31023714 0.23363036 0.061624315 0.2297332 0.052410714 -0.005378434 0.18582644
0.012128948 -0.4654045 -0.06251239 -0.15206759 -0.02710281 0.3659871 -0.015793415 -0.15094876
-0.027693529 0.3326539 -0.04391377 0.008882143 0.2492087 0.15260342 0.5862362 -0.23134044
-0.0068155937 0.12795103 -0.10481286 -0.31967464 0.014852917 0.17763706 0.32034457 0.21798156
0.11731693 -0.106995575 0.13574362 0.04390377 0.039419103 -0.5399898 0.13295051 -0.044629447
0.21953124 0.09971009 -0.13671535 0.14233616 -0.13057213 -0.21743673 0.3774542 0.028068064
-0.059215017 -0.010299242 0.15518627 -0.17439331 -0.24382596 -0.19233547 -0.3200906 -0.44536686
-0.27689582 0.10305273 -0.26419726 0.14181459 0.20880307 -0.0990571 0.12699452 0.3012028
-0.11732691 0.38074675 0.1934563 0.10908957 -0.11034625 -0.057814095 -0.038727067 0.022326076
-0.31947154 -0.14421685 0.1257173 -0.034350708 -0.20998834 0.01030038 -0.24509044 -0.1892842
0.057290465 -0.61590403 -0.16931349 -0.40644205 -0.14607775 -0.14737603 0.20827053 -0.23284629
-0.037994027 0.102487445 -0.25640798 0.19538322 -0.15127815 0.37184283 -0.16014569 0.058866292
00000000: ad2f 3a3e 9b43 f1bc 2871 863e 602b a7bd
00000010: 4bd2 823d 3c1d 8a3d 842a 813e 4fdd 863e
00000020: 3465 b8be 5832 edbd 716f 6dbd 608b babd
00000030: 9206 afbc 0380 cebd 9f94 6abd 928a a63d
00000040: 40a0 14bf f0e8 0ebf ba5f 7abe 620a 173e
00000050: 90f2 9cbe 89a2 6fbe 28a5 183e ab9e e7be
00000060: aec7 1abf 2d6f 24bf a3e2 9cbe f358 a13e
00000070: f180 bf3b c1f1 9f3e bad4 96be 0c39 463e
00000080: fb95 0f3e 131d 6b3e 4e0c 383d 26e4 a2be
00000090: d92a 81bd 7659 ae3e fb71 033e c795 c4bd
000000a0: 401a 333d 8951 b53d 5c32 5cbe ecb0 36be
000000b0: c4ad 91be cd44 a93d 01fa b23e a965 a83e
000000c0: 1313 72be 4bb3 263b 494a 2ebe 7957 723e
000000d0: 78be 083b f8b3 48bd 6ae4 933c 747e ba3d
000000e0: 31f2 0d3c 34bd cabe 8473 febd 2715 81be
000000f0: 3526 073e 2e4b be39 7e81 ab3e 2db0 ffbd
00000100: 5a9f 60be 3943 44bd 3dce 8fbe 1686 e1be
00000110: 67f0 a7be 0797 393e f36b 9fbe a792 26bf
00000120: 3f16 d63e 8a58 cebe 42d3 60be 1ad7 e5be
00000130: 6480 2abf b397 133e 8b97 653e f94b 553e
00000140: a2b8 9a3e 00dd c93e b957 e03e 0398 3f3f
00000150: de85 a03e 0101 1dbc ce8e f73e b84e 613e
00000160: 8ad3 8e39 26a5 08bf c133 903d cdd2 f8be
00000170: d76c 1cbf f293 49be e337 f93d a597 f2be
00000180: 61aa 3c3e db06 153f 9a4b a6be 0cd8 61be
00000190: 2b95 bbbd 5c4f 23be 456f 35bd f568 da3e
000001a0: a254 9bbd 0376 6ebe b2e0 43be 0173 4abf
000001b0: d29b a43e 77c8 f8bd 2849 b1be 4c45 953c
000001c0: c1b0 523e d665 a03d f714 643e 39f3 09be
000001d0: 8305 4a3e 1948 103f cd17 a9be 4215 26be
000001e0: 37a0 a0bd 722a c8be a835 cfbe 7ded a2bd
000001f0: f6da 543e f699 b23d bd2b 073c 8319 a9be
00000200: b2f0 1abf 1521 2a3e d4c5 143e d8f2 39be
00000210: 9ca5 d5be b059 213d 9538 683e 83cc e5bd
00000220: 343c debc 9dd2 653e b0c1 013d da29 89be
00000230: 6838 edbd 3e1c 7b3e f5b4 cc3e 4681 143c
00000240: 8570 a6bd 5d83 e03d 2ce8 43be 6b94 44bd
00000250: 7146 a1be bc78 a7be b84c 593e 8edd f2bc
00000260: dac0 3d3f 4861 1dbd 6c6a 23be 5d19 603e
00000270: 9169 ca3d 56d0 893d 1442 1f3e bced edbb
00000280: 4223 d83e 67d7 9ebe cc3c 6f3e c769 7c3d
00000290: 2e3f 6b3e 9eac 563d 933d b0bb 4949 3e3e
000002a0: 7fb8 463c 8049 eebe 7f06 80bd 9bb7 1bbe
000002b0: b606 debc a962 bb3e 3161 81bc 5092 1abe
000002c0: 8add e2bc 9d51 aa3e edde 33bd 6886 113c
000002d0: 9130 7f3e 1244 1c3e 9313 163f 82e4 6cbe
000002e0: 5855 dfbb 9805 033e 20a8 d6bd 65ac a3be
000002f0: a659 733c 7de6 353e 3404 a43e 8f36 5f3e
00000300: dc43 f03d 7f20 dbbd 6000 0b3e 71d4 333d
00000310: ed75 213d c63c 0abf 2e24 083e 5ecd 36bd
00000320: cccc 603e ce34 cc3d 1cff 0bbe 92c0 113e
00000330: b3b4 05be bca7 5ebe ad41 c13e ffee e53c
00000340: 728b 72bd 27be 28bc 26e9 1e3e 2994 32be
00000350: 83ad 79be 97f3 44be eae2 a3be 2007 e4be
00000360: 4ac5 8dbe 4f0d d33d dd44 87be d837 113e
00000370: 79d0 553e 73de cabd da0a 023e 4137 9a3e
00000380: 1749 f0bd 3df1 c23e 6919 463e 5a6a df3d
00000390: 37fd e1bd 79ce 6cbd 46a0 1ebd 2de5 b63c
000003a0: c691 a3be 95ad 13be 09bc 003e 54b3 0cbd
000003b0: 2f07 57be edc2 283c fdf8 7abe b8d3 41be
000003c0: 68a9 6a3d e3ab 1dbf 8460 2dbe 2c19 d0be
000003d0: 6895 15be bee9 16be df44 553e 426f 6ebe
000003e0: a09f 1bbd f0e4 d13d e847 83be 8a12 483e
000003f0: a9e8 1abe 2f62 be3e 3bfd 23be c81d 713d

bias f4 [64]
0.21132442 -0.09096552 0.19298108 -0.20376949 -0.12657289 -0.018408393 0.1863164 0.0047445935
-0.0948828 0.06677919 -0.1846268 0.14133038 0.11770588 0.11408 0.21679899 0.011745403
0.16604652 0.17771313 0.07884714 0.14399786 0.10839573 -0.13736197 0.06309226 -0.13196428
0.0069135986 0.051135466 -0.092226245 0.0065918844 -0.08636122 -0.32254094 0.16982396 0.14156747
0.20245261 0.21546787 -0.10288796 -0.20053473 -0.03240056 -0.09002941 -0.0897013 0.15815184
0.0048012603 -0.00266291 -0.04675684 -0.3089092 -0.13441317 0.047363114 0.120355144 0.20727903
0.29739955 -0.2346383 -0.14112458 0.026622564 0.12803206 0.23074691 0.15243995 -0.60482764
-0.17968597 0.026411925 -0.3263843 0.29192087 0.26814678 0.065366365 -0.10454966 0.020595081
00000000: 6e65 583e 214c babd d59c 453e f3a8 50be
00000010: 539c 01be 33cd 96bc bac9 3e3e 8978 9b3b
00000020: ea51 c2bd 87c3 883d cf0e 3dbe e9b8 103e
00000030: c80f f13d c6a2 e93d 8e00 5e3e ca6f 403c
00000040: 1908 2a3e 6efa 353e 9c7a a13d 2d74 133e
00000050: 95fe dd3d 9ea8 0cbe 8436 813d a521 07be
00000060: 788b e23b 6c73 513d 1de1 bcbd bc00 d83b
00000070: 27de b0bd 1624 a5be 55e6 2d3e 10f7 103e
00000080: bd4f 4f3e 9ca3 5c3e ecb6 d2bd fa58 4dbe
00000090: 73b6 04bd 5761 b8bd 51b5 b7bd 8ef2 213e
000000a0: e453 9d3b 3784 2ebb 1a84 3fbd 5929 9ebe
000000b0: 9ba3 09be d3ff 413d c27c f63d f440 543e
000000c0: c144 983e 0645 70be f682 10be 9017 da3c
000000d0: d61a 033e eb48 6c3e 3819 1c3e fcd5 1abf
000000e0: 99ff 37be d25d d83c d81b a7be a776 953e
000000f0: 894a 893e cdde 853d 221e d6bd 04b7 a83c

weight f4 [64]
0.6895019 0.35355037 0.677971 0.47877142 0.61990654 0.5504448 0.45147884 0.6028436
0.42400628 0.51111597 0.47607487 0.64665675 0.50011164 0.4969685 0.4434657 0.8555301
0.5560421 0.7106966 1.0418491 0.3896717 0.68153054 0.5233384 0.42259517 0.8344694
0.47391355 0.8948755 0.82736677 0.4711 0.58671594 0.5580928 0.8539708 0.86534005
0.4816355 0.43813568 0.52609134 0.83809084 0.5857496 0.5088291 0.52553135 0.58222693
0.5191154 0.39790323 0.7070909 0.9763785 0.49077028 0.33698955 1.1609465 0.54294807
0.909946 0.8336779 0.98157996 0.5630663 0.40960762 0.6966031 0.33171085 0.60413545
0.355491 0.52544475 0.48293966 0.66675234 0.9664009 1.1005231 0.68019044 0.5789899
00000000: 3283 303f 8e04 b53e 828f 2d3f 8721 f53e
00000010: 32b2 1e3f f3e9 0c3f 3c28 e73e f553 1a3f
00000020: 5a17 d93e 7fd8 023f 16c0 f33e 4c8b 253f
00000030: 5107 003f a872 fe3e f00d e33e 0504 5b3f
00000040: c658 0e3f 36f0 353f 505b 853f 0d83 c73e
00000050: c978 2e3f 81f9 053f 655e d83e c99f 553f
00000060: cca4 f23e 9016 653f 4fce 533f 0534 f13e
00000070: 0433 163f 2bdf 0e3f d59d 5a3f ed86 5d3f
00000080: ee98 f63e 5253 e03e ecad 063f 1f8d 563f
00000090: b0f3 153f a042 023f 3989 063f d30c 153f
000000a0: bfe4 043f f9b9 cb3e e903 353f f1f3 793f
000000b0: 3e46 fb3e e589 ac3e e599 943f a5fe 0a3f
000000c0: 39f2 683f ea6b 553f d348 7b3f 1d25 103f
000000d0: 17b8 d13e 9554 323f 01d6 a93e 9fa8 1a3f
000000e0: eb02 b63e 8c83 063f de43 f73e 48b0 2a3f
000000f0: 0d66 773f f1dd 8c3f f620 2e3f af38 143f

bias f4 [64]
0.004486455 0.10995567 0.038949944 0.011037586 0.16382755 -0.8827312 -0.31326506 0.086133696
0.1402777 -0.064021744 -0.308407 -0.23466574 -0.043771498 0.02813015 0.16650695 -0.0053228037
-0.39959705 -0.40613136 -0.3651482 0.5603964 -0.08459474 0.15047309 -0.058049396 -0.15253015
-0.32217082 -0.09972318 -0.39405432 -0.5942326 -0.61778164 0.07264293 -0.16449551 -0.20357136
0.19440472 -0.06323661 -0.12632038 -0.31035116 -0.048672434 0.14503628 -0.20259924 0.069112115
-0.044199757 -0.15497881 -0.13185649 -0.2968311 -0.072399415 0.17625071 -0.40079314 -0.082071364
-0.15579915 -0.22755408 -0.28458494 -0.42923504 0.22008222 -0.22237693 0.7433936 -0.06228754
-0.12308416 -0.121509545 -0.123337656 -0.1278386 -0.3492718 -0.5254724 -0.47772676 0.074630186
00000000: 1d03 933b 7030 e13d fa89 1f3d fed6 343c
00000010: 69c2 273e acfa 61bf 4764 a0be dd66 b03d
00000020: f5a4 0f3e d51d 83bd 86e7 9dbe 374c 70be
00000030: be49 33bd 3371 e63c cc80 2a3e ea6a aebb
00000040: fc97 ccbe 73f0 cfbe b4f4 babe 2376 0f3f
00000050: 0240 adbd 9e15 1a3e 34c5 6dbd dd30 1cbe
00000060: 93f3 a4be ab3b ccbd 7dc1 c9be a11f 18bf
00000070: f026 1ebf d1c5 943d 8371 28be 0375 50be
00000080: 0812 473e 3282 81bd 215a 01be 59e6 9ebe
00000090: bf5c 47bd 6484 143e 2d76 4fbe a78a 8d3d
000000a0: ce0a 35bd c4b2 1ebe 6305 07be 3ffa 97be
000000b0: 2546 94bd 117b 343e c234 cdbe 0815 a8bd
000000c0: d089 1fbe f003 69be 1eb5 91be b2c4 dbbe
000000d0: 3c5d 613e c7b6 63be 0b4f 3e3f 3821 7fbd
000000e0: 8c13 fcbd ffd9 f8bd 7498 fcbd 1fe8 02be
000000f0: c1d3 b2be 5c85 06bf 9a98 f4be b6d7 983d

running_mean f4 [64]
-0.6045086 -0.37399438 -1.8412508 -1.1012721 -0.68859845 -0.0050024595 -0.64929986 -0.14169323
-0.026813736 -1.0264698 -1.3733431 -1.2419624 -1.2021928 0.9131079 -0.3250012 -1.3257569
-0.4306886 -0.3108226 -2.419074 -1.4320409 -0.94008684 -0.8685635 -0.21223873 -1.8715847
-0.08548566 -1.2123711 -1.5227968 0.15071467 -1.0322094 -0.537147 -0.19033581 -0.81883585
-0.58946174 0.046368357 -1.2904022 -1.8583205 -0.32752192 -1.0021795 -0.9064824 0.04553127
-1.0788571 -0.78913397 -1.1969908 -0.8899487 -0.5983122 0.06095129 -1.4766196 -0.43212137
-1.3239417 -2.375782 -1.0232437 -1.6485374 -0.03171428 -0.586852 0.49467856 -0.51140225
-0.4582768 -0.82125455 -0.0761476 -0.7681464 -0.5936167 -1.5719529 -0.5697573 -1.6967376
00000000: 13c1 1abf 317c bfbe 1bae ebbf 7cf6 8cbf
00000010: fd47 30bf aceb a3bb 8438 26bf 0818 11be
00000020: 7ba8 dbbc 5d63 83bf b5c9 afbf a0f8 9ebf
00000030: 74e1 99bf 70c1 693f 8f66 a6be 67b2 a9bf
00000040: 3783 dcbe 2424 9fbe 1cd2 1ac0 1e4d b7bf
00000050: 88a9 70bf 2d5a 5ebf 1c55 59be 1690 efbf
00000060: 1b13 afbd fa2e 9bbf 01eb c2bf f254 1a3e
00000070: 701f 84bf 7782 09bf 64e7 42be 3a9f 51bf
00000080: f7e6 16bf bfec 3d3d e62b a5bf 72dd edbf
00000090: f4b0 a7be 6b47 80bf 3b0f 68bf ff7e 3a3d
000000a0: fd17 8abf af04 4abf ff36 99bf aed3 63bf
000000b0: fd2a 19bf 0fa8 793d df01 bdbf 033f ddbe
000000c0: ec76 a9bf d00c 18c0 a6f9 82bf 4603 d3bf
000000d0: d5e6 01bd ef3b 16bf 8246 fd3e 42eb 02bf
000000e0: 42a3 eabe bd3d 52bf 46f3 9bbd 3ea5 44bf
000000f0: 44f7 17bf c135 c9bf 9ddb 11bf b32e d9bf

running_var f4 [64]
3.7250955 1.9952254 4.141718 2.9441648 4.644701 2.6605942 1.7976232 2.6662776
3.2367215 2.4090924 1.7677709 2.8285122 2.981104 2.47119 2.5230024 8.3733425
1.8206601 3.3255322 4.9101763 2.572506 4.3321924 3.152506 2.5589178 5.194603
1.1610365 5.0494823 3.9528494 1.924032 1.8388875 3.060232 4.529678 4.116465
3.1699657 2.0749505 2.7109566 4.1161594 2.7186196 3.3832877 2.3605838 2.8939986
2.4757314 1.5439684 2.4461236 5.065246 3.0449998 1.5999074 5.22772 3.3092368
6.42473 3.757774 4.1025558 1.8451227 2.6805887 3.2138102 2.5930686 2.6851394
1.9056144 2.4758925 2.2257745 2.7870312 4.8203363 4.184328 1.7730777 4.0636945
00000000: f767 6e40 8c63 ff3f f488 8440 326d 3c40
00000010: 64a1 9440 2d47 2a40 8418 e63f 4ba4 2a40
00000020: 7226 4f40 922e 1a40 5146 e23f 5806 3540
00000030: 68ca 3e40 fa27 1e40 df78 2140 36f9 0541
00000040: 640b e93f 85d5 5440 2a20 9d40 f0a3 2440
00000050: 52a1 8a40 a9c2 4940 4fc5 2340 303a a640
00000060: d89c 943f 5c95 a140 7cfb 7c40 ae46 f63f
00000070: aa60 eb3f d7da 4340 1ff3 9040 15ba 8340
00000080: b8e0 4a40 fdcb 0440 5080 2d40 94b7 8340
00000090: ddfd 2d40 c987 5840 ce13 1740 4637 3940
000000a0: 6272 1e40 c2a0 c53f 4a8d 1c40 7f16 a240
000000b0: 47e1 4240 c4c9 cc3f 7b49 a740 89ca 5340
000000c0: 6397 cd40 5f7f 7040 2348 8340 fb2c ec3f
000000d0: c48e 2b40 11af 4d40 d6f4 2540 53d9 2b40
000000e0: 2ceb f33f 0675 1e40 1773 0e40 b85e 3240
000000f0: 3240 9a40 04e6 8540 36f4 e23f c909 8240

weight f4 [64, 64, 3, 3]
0.110953346 0.11985269 0.36190036 0.15612642 0.23163956 -0.08574138 0.25233904 0.44221324
0.08710853 0.013685984 0.046525463 0.13391472 0.082316965 -0.53327686 -0.066007905 0.21244252
0.06714776 0.06989091 -0.20880458 0.28197154 0.26222622 -0.17445692 -0.07526887 -0.17327577
0.075836144 -0.23700058 0.034076154 -0.064169474 0.22662355 -0.12819418 0.27329028 0.002259661
0.19701645 0.0837832 -0.3587269 -0.035724703 -0.0021944647 0.23741192 -0.11989334 0.012166388
0.4614301 -0.29921836 0.15339965 -0.39563036 0.23364358 0.07985633 0.20170094 0.039261103
0.30322903 0.43143484 -0.08904534 -0.2538582 -0.055763844 -0.103881635 0.06891261 0.17388943
0.020213647 0.56125003 -0.65577805 0.2123485 0.21736485 -1.1180427 -0.20817032 -0.3946523
-0.116932236 0.055865683 -0.47676447 -0.54694647 -0.28166375 -0.038850244 -0.11917683 -0.1929725
0.14764445 -0.34576967 -0.12325429 0.21426071 0.090771325 0.089438364 -0.08190328 -0.3558598
0.06265019 0.5446449 0.42061934 -0.22583413 -0.10605009 -0.24215712 -0.18925749 0.028862225
-0.38446534 -0.114350796 -0.34573725 0.03962557 0.23812836 0.058708478 -0.03689818 -0.012070787
-0.0642873 0.364962 -0.026616309 -0.051951922 0.102867916 -0.47893447 -0.21869588 0.17777647
0.14469673 -0.37824705 -0.13615087 -0.16041264 -0.07650912 -0.05166063 -0.56409585 0.14395629
-0.15725605 -0.42065758 -0.50161904 0.008808671 -0.608671 -0.11137665 0.36533225 0.4312531
-0.8720498 -0.16095756 0.0372353 -0.3263868 -0.26840398 0.36666214 -0.13507426 -0.024973907
-0.055234898 0.6010802 0.20308708 0.10339479 -0.0076436526 0.40294918 -0.076701686 -0.02945931
0.087580554 0.42638943 0.08729846 -0.7325392 -0.5766095 -0.11241185 -0.49651286 0.078684434
-0.96387005 0.20982252 -0.038327057 -0.08042151 -1.0210662 -0.1638611 -0.22280662 -0.4742915
-0.6333634 0.27842435 -0.030765818 0.25069237 -0.29920638 -0.41595003 0.3558668 -0.32743847
0.037896503 -0.17854623 -0.06303985 0.17188777 -0.26630104 0.2515655 -0.18123743 0.02486282
0.16607393 0.20312648 -0.013047385 0.054509815 -0.14900227 0.23730162 -0.08574784 0.117237955
0.09696556 -0.28599146 0.4438282 -0.30781126 -0.066036224 -0.33001864 -0.30979353 -0.18032141
0.27821115 -0.35105073 -0.3640874 -0.076430954 -0.315872 -0.045078203 -0.322756 0.2633887
-0.04664337 0.3413921 -0.32292032 -0.10003275 -0.051225673 -0.039578427 -0.44034937 0.25602663
-0.16031723 -0.29443887 0.18675615 0.4678514 0.22945553 -0.088523306 0.06607609 -0.15276454
-0.2765267 0.2075477 -0.27658656 0.40840474 0.5242084 -0.37090385 0.16238683 -0.40324762
-0.07128261 -0.6921386 0.124828875 -0.16533889 -0.45195922 -0.4719749 -0.055045128 0.72078717
0.21000081 0.32478377 -0.34044227 -0.08806072 0.26839343 -0.102934174 -0.200075 -0.229039
0.44765437 -0.17240399 -0.27814364 -0.18931693 -0.39038938 -0.25468168 0.5496695 0.02028941
-0.121039316 0.34486458 -0.08939385 0.28060275 0.3507303 -0.2691167 -0.052433677 0.1818393
-0.16182688 0.27203262 -0.20430443 0.013477948 0.18351606 0.29487985 0.15881696 -0.14817159
00000000: 823b e33d 5475 f53d 014b b93e 9bdf 1f3e
00000010: ec32 6d3e 2d99 afbd 9532 813e c669 e23e
00000020: f565 b23d 2d3b 603c 7c91 3e3d f120 093e
00000030: cc95 a83d d584 08bf 272f 87bd 888a 593e
00000040: c484 893d f722 8f3d ded0 55be 935e 903e
00000050: 8442 863e d6a4 32be 9126 9abd 346f 31be
00000060: fb4f 9b3d 48b0 72be 7093 0b3d 496b 83bd
00000070: 0110 683e 5645 03be b4ec 8b3e d216 143b
00000080: aebe 493e 8796 ab3d 0dab b7be 1154 12bd
00000090: 02d1 0fbb 1c1c 733e a48a f5bd 8855 473c
000000a0: 9140 ec3e 2633 99be cc14 1d3e 1090 cabe
000000b0: 4340 6f3e b78b a33d b18a 4e3e 40d0 203d
000000c0: d640 9b3e 07e5 dc3e 675d b6bd b4f9 81be
000000d0: a168 64bd e5bf d4bd 0e22 8d3d 1210 323e
000000e0: 1797 a53c 15ae 0f3f 12e1 27bf e371 593e
000000f0: e494 5e3e 061c 8fbf 9a2a 55be de0f cabe
00000100: 2b7a efbd 6ad3 643d 791a f4be af04 0cbf
00000110: 3b36 90be 6f21 1fbd fb12 f4bd 959a 45be
00000120: 1b30 173e b908 b1be bf6c fcbd 2967 5b3e
00000130: 51e6 b93d 762b b73d e8bc a7bd 4133 b6be
00000140: be4e 803d d96d 0b3f 6b5b d73e 1041 67be
00000150: ca30 d9bd 09f8 77be b7cc 41be 7970 ec3c
00000160: a4d8 c4be c030 eabd 7904 b1be 6c4e 223d
00000170: ecd7 733e 4d78 703d 8c22 17bd 8dc4 45bc
00000180: 0fa9 83bd 4ddc ba3e 720a dabc 8acb 54bd
00000190: 6aac d23d e636 f5be d0f1 5fbe 090b 363e
000001a0: 612b 143e 99a9 c1be 226b 0bbe 3643 24be
000001b0: d0b0 9cbd 199a 53bd 9668 10bf 4769 133e
000001c0: bb07 21be 6e60 d7be 1b6a 00bf 3e52 103c
000001d0: ddd1 1bbf 7119 e4bd d40c bb3e 35cd dc3e
000001e0: a83e 5fbf 0fd2 24be 0b84 183d 2c1c a7be
000001f0: 3f6c 89be 24bb bb3e e850 0abe 1496 ccbc
00000200: fd3d 62bd 64e0 193f 0ff6 4f3e a6c0 d33d
00000210: 9b77 fabb 5b4f ce3e c615 9dbd a754 f1bc
00000220: 6f5d b33d b74f da3e 89c9 b23d b087 3bbf
00000230: ae9c 13bf 2f38 e6bd ef36 febe 4e25 a13d
00000240: 30c0 76bf b7db 563e d5fc 1cbd 08b4 a4bd
00000250: 4cb2 82bf 34cb 27be 6b27 64be 56d6 f2be
00000260: 1b24 22bf a38d 8e3e 9908 fcbc c05a 803e
00000270: 9431 99be 67f7 d4be 2c34 b63e 04a6 a7be
00000280: 5d39 1b3d d3d4 36be 091b 81bd 5903 303e
00000290: 9c58 88be 31cd 803e 4e96 39be 1dad cb3c
000002a0: 490f 2a3e 6300 503e b3c4 55bc af45 5f3d
000002b0: 0d94 18be 32ff 723e 909c afbd 741a f03d
000002c0: e195 c63d 796d 92be 733d e33e 7099 9dbe
000002d0: 003e 87bd 34f8 a8be 429d 9ebe 2da6 38be
000002e0: b171 8e3e ecbc b3be aa69 babe d587 9cbd
000002f0: fab9 a1be eca3 38bd 4640 a5be e2da 863e
00000300: 1e0d 3fbd f2ca ae3e d055 a5be f8dd ccbd
00000310: 03d2 51bd fd1c 22bd 7975 e1be ec15 833e
00000320: 332a 24be b1c0 96be 013d 3f3e 388a ef3e
00000330: 64f6 6a3e b54b b5bd e752 873d 4f6e 1cbe
00000340: e894 8dbe 6287 543e c19c 8dbe 6d1a d13e
00000350: 8632 063f 1ce7 bdbe bc48 263e 7976 cebe
00000360: 9efc 91bd ff2f 31bf 48a6 ff3d 994e 29be
00000370: 3367 e7be b2a6 f1be 0077 61bd 8285 383f
00000380: 740a 573e 0f4a a63e 734e aebe 2e59 b4bd
00000390: dd6a 893e 27cf d2bd 76e0 4cbe 3389 6abe
000003a0: f432 e53e ac8a 30be d868 8ebe 4cdc 41be
000003b0: 1ee1 c7be a365 82be 24b7 0c3f fa35 a63c
000003c0: 76e3 f7bd 1792 b03e 1f14 b7bd 2aab 8f3e
000003d0: ec92 b33e aac9 89be b2c4 56bd 1534 3a3e
000003e0: f2b5 25be dc47 8b3e 2e35 51be 9cd2 5c3c
000003f0: a2eb 3b3e 7efa 963e eaa0 223e 4bba 17be

bias f4 [64]
0.047044255 -0.21377137 0.15723298 -0.02696776 0.01099284 -0.0054896693 -0.09797355 0.18852593
-0.08377828 0.088046476 0.2628476 -0.10398082 0.10952839 0.047151573 0.23203641 -0.07798981
0.08709422 0.06949449 -0.068658955 0.04851967 -0.14762424 0.23272625 0.12979302 -0.017021984
-0.1002545 0.2258216 -0.12325202 -0.036492802 -0.25992632 -0.17839701 -0.38161057 0.0054181656
-0.043458045 0.052008834 -0.13077337 -0.012557256 0.11807907 0.064882055 0.10959168 -0.08353394
0.20463353 -0.01904234 -0.043059953 -0.2637419 0.008480384 0.083184764 -0.042884804 -0.103467844
-0.22336724 0.2267162 0.043229584 -0.15849197 -0.02356706 -0.26851758 0.048200376 -0.15649243
0.08360409 0.114818394 -0.002741457 -0.009709027 0.32868028 -0.03374122 -0.22732075 -0.00896334
00000000: 7ab1 403d e2e6 5abe af01 213e 7eeb dcbc
00000010: 501b 343c afe2 b3bb 5ba6 c8bd f10c 413e
00000020: f293 abbd b651 b43d f693 863e e5f3 d4bd
00000030: 6c50 e03d 0222 413d f49a 6d3e 1fb9 9fbd
00000040: 745e b23d 2153 8e3d 119d 8cbd 90bc 463d
00000050: cf2a 17be ca4f 6e3e 76e8 043e b071 8bbc
00000060: 3b52 cdbd c73d 673e 8e6b fcbd 7a79 15bd
00000070: 1015 85be b5ad 36be 7662 c3be de8a b13b
00000080: 1001 32bd 3707 553d 74e9 05be f3bc 4dbc
00000090: 70d3 f13d e2e0 843d 9a71 e03d d813 abbd
000000a0: 748b 513e aefe 9bbc a25f 30bd 2e09 87be
000000b0: 4ff1 0a3c c65c aa3d faa7 2fbd f3e6 d3bd
000000c0: 62ba 64be 4b28 683e 8111 313d b84b 22be
000000d0: b50f c1bc 237b 89be c26d 453d 8d3f 20be
000000e0: 9f38 ab3d e825 eb3d 04aa 33bb 9c12 1fbc
000000f0: c848 a83e 3c34 0abd c5c6 68be f9da 12bc

weight f4 [64]
0.7808839 0.508564 0.7265894 0.53790057 0.4192083 0.53801996 0.50610775 0.3423252
0.46302387 0.33122602 0.34201467 0.36686754 1.0091609 0.791416 0.5760873 0.36683512
0.6934639 0.42746207 0.6290278 0.58536136 0.66708905 0.50128657 0.4757982 0.6654984
0.587968 0.39173076 0.5324181 0.4510298 0.35812765 0.5610767 0.40163696 0.4255801
0.42252773 0.59327984 0.59607226 0.6812015 0.6109855 1.1110814 0.52884775 0.3313786
0.34530082 0.67926663 0.34016898 0.33333063 0.53701127 0.48967138 0.4281167 0.6574802
0.60299784 0.5986903 0.33088523 0.41353026 0.49565306 0.6701513 0.53620857 0.5473604
0.5581193 0.51840436 0.639565 0.48993003 0.4927212 0.80022967 0.78459275 0.56011486
00000000: 02e8 473f 4031 023f c301 3a3f dab3 093f
00000010: 78a2 d63e adbb 093f 4790 013f 4045 af3e
00000020: 7711 ed3e 7596 a93e 8c1c af3e 10d6 bb3e
00000030: 2f2c 813f 3d9a 4a3f 757a 133f d0d1 bb3e
00000040: da86 313f 4fdc da3e f707 213f 3eda 153f
00000050: 59c6 2a3f 5154 003f d29b f33e 1a5e 2a3f
00000060: 1285 163f ef90 c83e 8d4c 083f 61ed e63e
00000070: 825c b73e b9a2 0f3f 5ca3 cd3e a3e5 d93e
00000080: 8e55 d83e 30e1 173f 3198 183f 3963 2e3f
00000090: 8c69 1c3f ea37 8e3f 9162 073f 75aa a93e
000000a0: 45cb b03e 6be4 2d3f a12a ae3e 50aa aa3e
000000b0: 9279 093f 35b6 fa3e 1d32 db3e 9f50 283f
000000c0: 115e 1a3f c443 193f ca69 a93e 3dba d33e
000000d0: 3dc6 fd3e 098f 2b3f f744 093f d01f 0c3f
000000e0: e8e0 0e3f 26b6 043f 88ba 233f 1cd8 fa3e
000000f0: f445 fc3e dadb 4c3f 12db 483f b063 0f3f

bias f4 [64]
-0.39979792 -0.3717751 -0.8956899 -0.5937182 -0.12348788 -0.5769163 0.20465958 0.29847905
-0.35943136 0.24407095 0.67481637 0.10803242 -1.2380415 -1.123958 -0.09615527 -0.036428925
-0.59919465 0.2326074 -0.71242374 -0.31860197 -0.7516586 0.07567049 -0.24018945 -0.18377489
-0.31312853 0.07120149 0.06416091 0.20040277 0.15572616 -0.065362 0.17642888 0.18618357
-0.30836886 0.043203294 -0.2573761 -0.7737602 -0.2498498 -1.2675499 0.0809618 0.405184
0.17325597 -0.7514232 0.22122063 0.25539327 -0.115500204 0.025799429 0.17307515 -0.48964596
-0.36242083 -0.5553858 0.5625564 0.23442589 0.012534074 -0.38382983 -0.31910208 -0.3861184
-0.3093768 -0.31546637 -0.47443914 -0.44745767 0.24239245 -1.1389709 -0.67821085 -0.39685476
00000000: 50b2 ccbe 4e59 bebe ef4b 65bf eafd 17bf
00000010: 37e7 fcbd c9b0 13bf 4892 513e 3fd2 983e
00000020: 6307 b8be bced 793e c4c0 2c3f 1a40 dd3d
00000030: 2578 9ebf dbdd 8fbf 0eed c4bd 7f36 15bd
00000040: d264 19bf a230 6e3e 6761 36bf cc1f a3be
00000050: b36c 40bf 21f9 9a3d 39f4 75be 7c2f 3cbe
00000060: 6252 a0be 16d2 913d cc66 833d 6236 4d3e
00000070: ae76 1f3e 83dc 85bd c6a9 343e e8a6 3e3e
00000080: 86e2 9dbe f0f5 303d cdc6 83be 2615 46bf
00000090: a0d8 7fbe 133f a2bf 4dcf a53d 4774 cf3e
000000a0: 036a 313e 455d 40bf a987 623e e8c2 823e
000000b0: 5f8b ecbd 5359 d33c 9d3a 313e e0b2 fabe
000000c0: 398f b9be c42d 0ebf b203 103f 570d 703e
000000d0: b75b 4d3c 5885 c4be 5961 a3be 50b1 c5be
000000e0: a366 9ebe cf84 a1be b0e9 f2be 2c19 e5be
000000f0: ba35 783e ccc9 91bf 3a9f 2dbf 8c30 cbbe

running_mean f4 [64]
-2.1196802 -1.3771046 -3.7091315 -1.905596 -0.84806025 -3.1712036 -0.24889608 -0.0052831164
-1.204843 0.2240349 1.8158147 0.3913273 -2.5800002 -1.7303568 -0.86078954 -0.6852182
-2.000426 -1.5379691 -2.0291748 -1.9684223 -1.6868939 -0.4687487 -0.47694483 -1.7646068
-1.76931 -0.615727 -0.9876262 0.4565239 0.5449847 -1.1461433 -0.6925253 -1.1280123
-2.870115 -3.909538 -0.8546384 -3.991732 -1.7106891 -1.6868781 -1.0172966 0.78296643
0.6236085 -3.4934032 -0.41243416 -1.0184944 -2.4062803 -0.49773508 0.05847045 -1.3942448
-1.7605219 -0.62821 2.2815685 -1.1508094 -2.1070423 -3.139267 -1.7559309 -2.3590503
-3.2033787 -0.85180134 -4.4656262 -2.4421027 0.091844745 -2.3954525 -2.4162426 -0.5519797
00000000: d7a8 07c0 f744 b0bf 6962 6dc0 92ea f3bf
00000010: 7a1a 59bf 00f5 4ac0 9dde 7ebe fe1d adbb
00000020: 4c38 9abf 6869 653e 9e6c e83f 0d5c c83e
00000030: b91e 25c0 557c ddbf b45c 5cbf 766a 2fbf
00000040: fb06 00c0 2cdc c4bf 00de 01c0 43f5 fbbf
00000050: 24ec d7bf d4ff efbe 1d32 f4be a3de e1bf
00000060: c078 e2bf 49a0 1dbf 12d5 7cbf 80bd e93e
00000070: 1e84 0b3f d3b4 92bf 5749 31bf b562 90bf
00000080: f7af 37c0 df35 7ac0 95c9 5abf 8978 7fc0
00000090: dcf7 dabf 9feb d7bf c636 82bf 7d70 483f
000000a0: cfa4 1f3f eb93 5fc0 922a d3be 065e 82bf
000000b0: 7f00 1ac0 22d7 febe b67e 6f3d 9d76 b2bf
000000c0: c858 e1bf 5fd2 20bf 3805 1240 b94d 93bf
000000d0: c8d9 06c0 c0e9 48c0 58c2 e0bf aefa 16c0
000000e0: 2804 4dc0 a70f 5abf 69e6 8ec0 694b 1cc0
000000f0: 1919 bc3d 184f 19c0 b8a3 1ac0 8b4e 0dbf

running_var f4 [64]
5.3969917 2.4076953 3.2747152 2.9446046 4.08229 2.880065 5.948294 3.4557097
2.3565857 3.4147313 4.2157574 3.2193263 4.9406147 2.6745923 3.7428565 2.931498
3.9392862 4.484198 3.3543925 4.7578516 3.515031 4.732886 3.2082453 5.107391
3.7252789 2.9377615 6.2604146 5.463138 3.323562 5.498986 3.756399 3.9532857
3.6761487 6.333645 3.8873534 4.2566366 3.7403612 4.641581 5.689133 3.4702005
3.3951283 3.435904 3.7836106 3.1425362 4.2930536 4.3957148 3.9646132 3.0442965
3.1085417 4.2230535 3.4710238 4.696081 6.474928 5.8472686 3.7174766 3.9759927
3.1325893 4.7544127 4.7462673 3.0671244 5.366031 2.7731006 3.4970336 3.492604
00000000: 28b4 ac40 ae17 1a40 ef94 5140 6774 3c40
00000010: 1fa2 8240 fc52 3840 6d58 be40 592a 5d40
00000020: 4dd2 1640 f58a 5a40 7ce7 8640 7109 4e40
00000030: 8419 9e40 852c 2b40 f68a 6f40 aa9d 3b40
00000040: 441d 7c40 8d7e 8f40 5eae 5640 5240 9840
00000050: 45f6 6040 cd73 9740 e453 4d40 bf6f a340
00000060: f86a 6e40 4904 3c40 5155 c840 07d2 ae40
00000070: 3db5 5440 b1f7 af40 d768 7040 a202 7d40
00000080: 0546 6b40 38ad ca40 66ca 7840 5e36 8840
00000090: 1462 6f40 d587 9440 610d b640 c417 5e40
000000a0: c849 5940 dae5 5b40 ad26 7240 501f 4940
000000b0: b260 8940 b2a9 8c40 39bc 7d40 c1d5 4240
000000c0: 59f2 4640 4123 8740 4125 5e40 4c46 9640
000000d0: 9c32 cf40 d31c bb40 23eb 6d40 aa76 7e40
000000e0: 587c 4840 2624 9840 6ce1 9740 c44b 4440
000000f0: 87b6 ab40 7b7a 3140 66cf 5f40 d386 5f40
