models/vishal_lr_001_iter_300.pt_240.pt (torch_old, 473212 bytes, 27 tensors)

weight f4 [64, 1, 3, 3]
000000 25 39 b0 3a 94 7e e4 bd 36 e4 61 3d cb 15 a5 bd
       0.0013444765 -0.11156955 0.05514928 -0.08060797
000010 85 89 21 3e c4 32 d8 bd 15 5b 68 3d 79 81 d3 bd
       0.15775116 -0.10556558 0.056727488 -0.10327429
000020 9a bc a7 3b 3b a3 11 be f4 a6 25 be b0 05 7f be
       0.0051189186 -0.14222424 -0.16176969 -0.24904513
000030 5c de aa 3e 22 5c 22 3f ee 32 8e be c2 8c 02 be
       0.33372772 0.63421834 -0.2777323 -0.12749007
000040 3b 08 c8 3c 14 21 0a bf 93 0a a2 3e 1b 3d c4 3e
       0.024417987 -0.53956723 0.31648692 0.3832787
000050 6c 37 df 3d 19 af 9d be 47 1b 9a be 37 f9 84 be
       0.10899243 -0.3079765 -0.30098936 -0.25971386
000060 dc c3 c7 bd e6 60 1b 3e 54 0f 16 3c de 7d a8 3d
       -0.09754154 0.15173683 0.009158928 0.08227132
000070 4d c1 0c 3e 08 85 50 3d c3 8b 84 bd 2d 67 8a bd
       0.13745613 0.05090812 -0.0647197 -0.067579605
000080 d2 fe 44 3d 71 52 93 3d f3 24 e0 3d bb 2f a8 3d
       0.048094578 0.07193459 0.109445475 0.08212229
000090 70 b9 d6 3e f8 1f 1c bf 25 0d d2 3d a9 11 83 3e
       0.41938353 -0.6098628 0.10256413 0.2559941
0000a0 bf 68 79 3d d5 0a a2 be a8 19 56 bf c6 8c 0a 3f
       0.06089091 -0.3164889 -0.836329 0.54121053
0000b0 fb 3e 12 be 0b c0 31 3c 56 96 bb 3d 77 78 ee bd
       -0.14281838 0.010849009 0.09159534 -0.116440706
0000c0 0e a1 1e 3e 44 5e 51 be 3b 00 3d 3d 1d 8c 1e be
       0.15491125 -0.20446116 0.046142798 -0.15483136
0000d0 1a f7 b4 3d b9 a6 92 3d 07 55 22 3b 2f b8 b2 3d
       0.088361934 0.07160706 0.0024769919 0.087265365
0000e0 1f c2 a3 3c 15 ca 2a be 39 50 ba 3d d6 e7 c0 bd
       0.019990025 -0.1667865 0.090973325 -0.09419219
0000f0 b1 d0 f3 3c 6b 37 04 be 21 52 b1 c0 35 58 8c 3e
       0.029762598 -0.12911765 -5.5412755 0.27411047
000100 8e b9 04 be e9 6a 10 be 8d 6f 39 be e1 3b 9c bd
       -0.12961408 -0.14103283 -0.1810896 -0.076286085
000110 d6 39 8c 3e a1 bd b7 be 94 cd 8f 3d 97 2d 9f 3e
       0.27387875 -0.35886863 0.07021633 0.3108947
000120 f5 d4 74 3d aa 88 1c be f9 47 96 3d 00 52 07 be
       0.059773404 -0.15286508 0.073379464 -0.13214874
000130 18 fc db bf 0f 70 a1 bd 1c b9 9e 3d 5f e4 c6 bd
       -1.7186308 -0.078827016 0.077501506 -0.09711527
000140 91 33 70 3d 5c 46 4b 3d 6b 65 85 3c cc 8b 39 3c
       0.058642928 0.049627647 0.016283711 0.011324834
000150 20 7b c8 bc f0 a0 62 3d a0 38 aa 3c 60 15 4a bd
       -0.024472773 0.055329263 0.020778954 -0.04933679
000160 61 8a 1f 3c c7 74 6a 3d 70 05 2c 3d 6c 49 e3 bc
       0.009737582 0.057240274 0.041997373 -0.027744971
000170 60 ed 85 bc 64 f6 8c bd fc ac b3 bc 92 a6 85 bd
       -0.01634854 -0.06882933 -0.021933071 -0.065259114
000180 f6 3a c3 bd 09 9b 9f bd cb ef c7 bd b7 06 86 3d
       -0.0953273 -0.077932425 -0.09762534 0.065442495
000190 f9 5f b2 be 47 dc 8d 3e 68 88 1c 3d da 92 b9 3e
       -0.34838846 0.2770712 0.038216025 0.3624485
0001a0 ea 70 c8 be f9 ff c6 bd e2 9d 19 bc 11 78 de 3d
       -0.39148647 -0.09716792 -0.009376021 0.108627446
0001b0 51 7c 0e 3e 76 ad 20 3e fb f0 98 be d4 36 39 be
       0.1391461 0.1569117 -0.29871354 -0.18087322
0001c0 82 98 16 3d af 2d 3c 3e f4 dc f6 3c e6 e9 19 be
       0.036766537 0.18376802 0.030134656 -0.15030631
0001d0 6b 77 dc 3d 16 b0 d7 bd 0c a1 48 3e 00 04 ce bd
       0.10764965 -0.105316326 0.19592685 -0.10059357
0001e0 d6 51 85 3d b0 8a b2 bd b0 60 91 3c 65 f0 e7 3c
       0.065097496 -0.08717859 0.0177463 0.028312871
0001f0 cb e9 dd bd e4 8b ae 3d 78 7c 21 3d 10 fe c0 bc
       -0.10835608 0.08522776 0.039425343 -0.023558646
000200 a4 60 07 bd 78 c1 09 3d 43 b4 b3 bd fc 83 bd bd
       -0.033051148 0.03363177 -0.087746166 -0.0925369
000210 5c 10 89 3c 30 c7 7f 3d 0c ff 0f 3d 69 cc b2 bb
       0.016731434 0.06244582 0.03515534 -0.0054564965
000220 a1 3f aa 3c 38 a2 22 3d 10 76 18 3e 5c 74 29 3e
       0.020782294 0.039705485 0.14888787 0.16548294
000230 a4 b4 14 3e 68 4b ad bd c6 8e f2 3d 24 36 8a 3d
       0.14522034 -0.08461648 0.11843638 0.06748608
000240 12 26 b4 3d a8 d7 ba bd 10 f2 6a 3d 24 d0 4b 3d
       0.08796324 -0.091231644 0.057359755 0.049759045
000250 31 8a 2b bd a0 ed a5 bc 28 4d 54 3d c8 6e 89 bd
       -0.041879836 -0.02025491 0.051831394 -0.06710583
000260 c0 cf 42 bc d1 e2 5c be 8e 53 16 be 17 ac 43 be
       -0.011890352 -0.21570899 -0.14680311 -0.19108616
000270 58 e2 02 be fd fc 37 bd 1f 7c fd bc 28 e1 9e 3e
       -0.12781656 -0.044919003 -0.030942975 0.31031156
000280 be d4 cf 3e 78 9d 9d 3d 3f 7c 1e bd e2 d2 d4 3d
       0.40591997 0.076960504 -0.03869271 0.10391785
000290 51 03 01 bd 5a dd 31 3e db 05 a0 3e f7 46 da 3d
       -0.031497303 0.17369595 0.31254467 0.10658067
0002a0 5e 97 90 bd 37 f9 2d 3e 13 f1 54 bd 73 4a 9b bd
       -0.07060121 0.16989599 -0.05198772 -0.075825594
0002b0 74 8e 41 3c c9 e6 34 3d 80 d6 2a 3e bc 6b c6 bd
       0.011813749 0.044165406 0.16683388 -0.096885175
0002c0 be 09 68 bd 0d eb c9 bd c7 42 9b 3d b0 48 37 3c
       -0.056649916 -0.098592855 0.07581096 0.011186764
0002d0 e4 f4 ac 3c 70 5e 6f bc b4 ad 8d bd 6c 92 97 3d
       0.021112867 -0.014609918 -0.06917897 0.07400975
0002e0 26 2c c3 bd 28 73 b0 bd 4e 74 8d bd 72 6b 0a bd
       -0.09529905 -0.08615714 -0.06906949 -0.033793874
0002f0 4c 36 8d bc 68 af 64 3d fe ab 7f bd 1c 48 80 3d
       -0.017237805 0.055831343 -0.062419884 0.06263754
000300 4c 21 a9 bc f6 6c 9c 3d 28 94 05 3c 64 23 f3 bc
       -0.02064576 0.0763797 0.008152999 -0.029679962
000310 ba 55 92 3d c8 9c 2a bc 54 b7 c6 bd e4 55 20 3d
       0.07145257 -0.010413356 -0.09702936 0.03914441
000320 70 20 1a 3d 20 d8 8c bd 19 cd a9 bd 60 77 41 3c
       0.03762859 -0.0687716 -0.082910724 0.011808246
000330 c8 93 24 3c d3 16 a2 bd b0 ab 9b 3b c8 c2 99 bd
       0.010044999 -0.079145096 0.0047506914 -0.07507855
000340 b0 80 21 bc 90 c8 b2 3d dc 81 84 3c 52 93 30 bd
       -0.009857342 0.087296605 0.016175203 -0.043109246
000350 24 58 18 bd e8 c1 bd bd da 9f 93 bd ba 79 cd bd
       -0.037193432 -0.092655 -0.07208224 -0.10032983
000360 b1 00 99 be 5e 37 8a 3e 0b 24 cd 3c f0 04 7a 3e
       -0.2988334 0.26995367 0.0250416 0.24415946
000370 c1 6c 74 be 56 b0 37 bb 8e e2 09 3d 67 48 0f bc
       -0.23869611 -0.0028028688 0.033663325 -0.008745289
000380 65 f5 10 bd ba 03 89 3d 11 e7 86 3d e3 1c a4 be
       -0.035390276 0.06690164 0.06587041 -0.3205329
000390 7a 79 83 bd f1 63 cc 3e 29 d0 d4 bd 3f ce 70 be
       -0.06419654 0.3992 -0.10391266 -0.23516177
0003a0 a0 8d 78 3e cf 9b 8a bb 05 0d 5b bc fe 6f 2a be
       0.24272776 -0.0042299996 -0.013369803 -0.16644284
0003b0 01 ca 99 3d 7b 03 f5 bc a6 1e c1 3d 86 86 13 bc
       0.07509232 -0.029908886 0.09429674 -0.009004241
0003c0 57 89 48 3d 5e 5a f1 3d 62 e5 13 be 94 3d 59 3d
       0.048959102 0.11784814 -0.14442971 0.05303724
0003d0 61 7e c3 bd 68 f7 ca bd ac ff 9b 3d b2 e3 0f bd
       -0.09545589 -0.0991047 0.07617125 -0.035129257
0003e0 70 f3 b1 3b 5a 25 4f bd 60 8b 46 bc 20 69 29 3b
       0.0054306313 -0.05057273 -0.0121181905 0.0025850013
0003f0 2e ab 58 bd ea 75 57 3d 6d 88 0f bf f1 dd 9f 3e
       -0.052897625 0.052602686 -0.56067544 0.31224015

bias f4 [64]
000000 a3 2a ae ba 79 af 3f 3c 41 b0 a6 3d ce f3 92 3a
       -0.0013287853 0.011699551 0.081390865 0.0011211575
000010 b5 e6 e8 3c 4a a9 1f 3d e7 eb 2e 3e 2e c2 97 3c
       0.028430322 0.038979806 0.17082177 0.01852521
000020 ed 49 8f 3e 26 78 62 be a4 07 88 bd 35 78 79 3c
       0.27986088 -0.22116145 -0.06642082 0.0152264135
000030 d1 95 1c 3d cf f2 7f 3d 2b 00 39 be c2 37 e3 be
       0.038228814 0.06248742 -0.1806647 -0.44378477
000040 70 45 70 be 9c 95 0a 3d 58 52 d1 be 1e b7 cf 3d
       -0.23463988 0.033834085 -0.40883136 0.10142349
000050 a8 89 3a be c0 03 a6 be 9e ad 8f be 04 a0 a2 be
       -0.18216574 -0.32424736 -0.28062147 -0.31762707
000060 97 99 39 3d 4c 64 2a 3d 5d 41 40 3e 7b 2f 80 be
       0.04531249 0.041599557 0.18774934 -0.25036225
000070 a6 21 91 bc 4f fc 60 bc d0 f2 94 be a6 cc 73 3d
       -0.01771624 -0.01373203 -0.290915 0.05952134
000080 6a 4e a2 be 08 9c 5d bd f1 b9 7f 3c 1b d5 81 be
       -0.3170045 -0.05410388 0.015608297 -0.253579
000090 66 18 f0 bd 34 49 84 3d 24 da ba 3d 8c a8 26 3d
       -0.11723404 0.06459275 0.09123638 0.040688083
0000a0 b4 05 8a 3e 26 b7 57 be 35 ae 5b 3d c8 d2 7f be
       0.26957476 -0.2106596 0.053632934 -0.2498275
0000b0 c3 1d 89 be 91 5f 9e 3b 7e af 70 be 07 24 1a 3d
       -0.2678052 0.0048331697 -0.23504445 0.037632015
0000c0 ba c5 9e be 62 db b8 be 51 2c 80 3c 6e b9 04 3d
       -0.31010228 -0.36104876 0.015646132 0.032403402
0000d0 9e 64 2d be 80 90 dd be 68 57 08 3e 80 64 24 be
       -0.16932914 -0.43274307 0.13314593 -0.16053963
0000e0 72 6d 73 3e d0 28 41 be 43 0b a5 3c 77 73 94 be
       0.23772219 -0.18863225 0.020146972 -0.28994343
0000f0 f1 f4 49 3e d9 49 59 3d f0 87 2b 3d a6 91 6a 3d
       0.19722344 0.053048942 0.041877687 0.057267807

weight f4 [64, 64, 3, 3]
000000 b1 89 68 3c 0d bc d5 3c 24 82 90 3a 74 4a 8d 3d
       0.014192984 0.026090646 0.0011025113 0.068989664
000010 30 16 f9 bd 2a 2b cf 3c e0 3b 56 bd 2a 04 a4 bd
       -0.12162435 0.025289137 -0.052303195 -0.08008607
000020 69 ee 3a bb 0b 67 2e bf 49 71 58 be d9 3a 26 3e
       -0.0028523451 -0.6812598 -0.21136965 0.16233386
000030 be 57 c9 3d 97 f7 d9 bd ea ee fe bd 25 29 89 bd
       0.098311886 -0.10642927 -0.12447913 -0.06697301
000040 bd cc cb 3e e7 04 18 3f e2 79 9d be aa 10 38 3e
       0.3980464 0.5938248 -0.30757052 0.17975107
000050 6c 43 aa bc bb d9 ae 3e 93 5f f9 3d 04 fd 01 3c
       -0.020784102 0.3415049 0.121764325 0.007933859
000060 75 a6 b3 3e 64 3b 5c 3e 07 80 36 3e eb d0 46 3e
       0.35087934 0.2150703 0.17822276 0.19415633
000070 b1 8e 89 3e 18 48 6d 3e 06 cd 8f 3e 85 8a 8c 3e
       0.26866677 0.23172033 0.28086108 0.27449432
000080 7f 11 96 3e 6f 34 be 3d 2f 68 80 3e 00 9c 51 3e
       0.29310223 0.09287345 0.25079486 0.20469666
000090 fd 53 fc 3e b8 9b a0 be c7 23 c0 be 32 2d 91 be
       0.49282828 -0.31368804 -0.37527296 -0.28354794
0000a0 b0 e5 86 3e 2e c8 4a be 5e d0 02 be 0b 31 88 3d
       0.26347113 -0.19802925 -0.12774798 0.06649979
0000b0 e3 d0 4a be f8 37 d2 bc 2b 32 26 be d2 49 ee bd
       -0.19806246 -0.025661454 -0.16230075 -0.11635174
0000c0 b8 c8 01 3e 20 2c 1d 3e 18 aa 56 3d b2 91 89 3c
       0.12674224 0.15348864 0.052408308 0.016793106
0000d0 dd c2 2e 3d 8e cc 13 bc 9a 07 45 bf d4 dc 2e bf
       0.042666305 -0.009020938 -0.76964724 -0.68305707
0000e0 05 c2 27 bf 5e bd 94 bd d1 e7 2c bd 89 62 85 bd
       -0.65530425 -0.072626814 -0.042213265 -0.06512935
0000f0 54 6a ed be b0 f8 a2 be 1d 31 24 bf d4 36 cf bd
       -0.46370184 -0.31830359 -0.6413744 -0.101178795
000100 a6 0f 43 bd 74 3f 80 3d 54 73 2a bd a0 61 c8 bd
       -0.047622345 0.06262103 -0.04161389 -0.097842455
000110 1e bd d5 3d 16 5c c8 3c 4d a8 a1 3d ad ec 3b bd
       0.10436462 0.024457972 0.07893429 -0.04588001
000120 28 9b 94 3d 76 27 09 3e cd 20 c9 bd f1 53 e0 bc
       0.07256156 0.1339396 -0.098207094 -0.027383776
000130 4d d8 d0 bd f6 cc b8 bd 93 a4 32 be 2f 62 8f bd
       -0.10197506 -0.09023468 -0.17445593 -0.07001149
000140 42 85 ac be ba e7 3b bc 06 3b 51 3d f3 0b ea bc
       -0.33695418 -0.011468822 0.05108168 -0.028570151
000150 de ef 64 3b 72 00 ad 3c d9 1a 19 3c 05 e0 48 3d
       0.003493301 0.021118376 0.00934478 0.049041767
000160 3e ec 6f bc 9a cc 82 bd 7e 27 52 3d 36 ea 90 3d
       -0.014643727 -0.06386681 0.051307194 0.07075922
000170 bc ed 24 3d 50 4d 63 bd 60 8b f7 3c f7 40 4f bd
       0.040265784 -0.055493653 0.030217826 -0.050599065
000180 04 6d 1d bd 4e 6c 43 3d 64 df 64 3d 31 da 7d be
       -0.038434044 0.04771071 0.055877104 -0.24790265
000190 c3 66 b4 be 12 26 3d 39 59 a0 26 bd b7 19 c5 bc
       -0.3523465 0.00018038627 -0.040680263 -0.024060113
0001a0 c3 6f e6 3d 2e 7e 9d 3e 30 19 79 3e 78 62 ad bd
       0.112517856 0.3076033 0.24326015 -0.08466047
0001b0 d1 d4 3b be 4c ca e7 bd 70 31 44 3b 3e c9 c8 3d
       -0.18342902 -0.11317882 0.0029936694 0.09804009
0001c0 0d da 96 3d ea 05 85 bc 5d 51 25 3d c4 a9 19 3d
       0.07365809 -0.016238172 0.040360797 0.037515417
0001d0 18 31 8b 3d 9a 78 c1 bd 60 fe bf 3d 88 96 db b8
       0.06796473 -0.09446831 0.0937469 -0.000104707724
0001e0 93 38 cc 3d 76 74 f7 3d 9e 09 75 3d f2 98 81 bd
       0.09971728 0.1208276 0.059823625 -0.06328
0001f0 1a b2 c0 bd e0 90 e3 bd a8 33 4d bc 6a e9 3e 3d
       -0.0940897 -0.11111617 -0.012524523 0.04660932
000200 ac 38 32 bc ef 94 6a bd 2c 06 b1 bc 2e 7f 62 bd
       -0.010877769 -0.05727094 -0.021609388 -0.05529707
000210 50 2e 68 bc d4 21 74 3d 7c 04 8a 3c 17 12 83 be
       -0.014171198 0.059602574 0.016847841 -0.2559974
000220 12 1c 6c be 51 3a 19 be 03 86 90 be b3 ca 4f be
       -0.23057583 -0.14963652 -0.28227243 -0.20292167
000230 d1 e8 48 bd d0 1d 16 3e fc e1 72 bd 34 59 d1 bd
       -0.049050156 0.1465981 -0.059297547 -0.10222092
000240 14 de 35 3d ac cb 1e bc c4 10 df 3c 1a 82 c6 bc
       0.044401243 -0.009692114 0.027229674 -0.02423196
000250 e8 2c 2d 3d 04 f0 53 bc 84 37 40 bd 6a 1b 0e 3d
       0.042279154 -0.012935642 -0.046927944 0.034694113
000260 6c 91 85 3d 31 fb b5 3a 1d f8 47 3e 15 03 dc 3c
       0.06521878 0.0013884065 0.19528241 0.026856938
000270 e7 63 ac bd 8b 0a 6a 3d 9b 4a e5 3d 09 c3 5c 3d
       -0.08417492 0.05713896 0.111958705 0.053896938
000280 bc 34 63 3e c7 9b 81 3d ed a0 38 bd f5 d0 af 3d
       0.22188085 0.0632854 -0.045075346 0.08584777
000290 5f fc 90 be e5 e0 c1 bd a8 b6 b0 bc 7c ee 4b be
       -0.28317544 -0.09466723 -0.021571472 -0.19915193
0002a0 7f f1 5c 3d d3 c4 57 3e 2c d2 48 bd 3e 6f dc 3c
       0.053941246 0.21071176 -0.04902856 0.026908513
0002b0 a2 b2 04 3c 9d d0 40 3d 5b 6b 67 3e be 75 8d 3e
       0.00809923 0.04707395 0.22599547 0.27628893
0002c0 79 12 86 bd d7 51 5d be e2 2b 38 be 43 63 ac bd
       -0.06546492 -0.2161325 -0.1798549 -0.0841737
0002d0 4c 60 5f bd f0 ea 85 bb 74 c4 5e 3d 32 e7 43 3d
       -0.054535195 -0.0040868446 0.05438657 0.047827907
0002e0 2b 2e 8a bd 78 70 7e 3d fa de 88 3d b4 63 66 bd
       -0.06747087 0.062118977 0.066831544 -0.056247428
0002f0 22 8d 84 bc f8 59 72 bd 10 80 6f bd 48 95 33 bd
       -0.016180579 -0.059167832 -0.05847174 -0.043843538
000300 c8 f6 7f 3d 98 96 05 bc 48 9a 0e bc 12 61 31 3d
       0.06249121 -0.00815358 -0.008703776 0.043305464
000310 68 19 4e bc bf eb 47 bd dc c4 6b 3d 80 2d 5f bd
       -0.0125792995 -0.04880881 0.057560787 -0.05448675
000320 e8 0a 77 bc 34 8d e9 3c c1 e7 1d bd 56 57 5b bd
       -0.015078284 0.028509714 -0.038551096 -0.053550087
000330 a6 f3 88 bc 9c 35 61 3d a0 c8 ad bc 9e 83 24 bd
       -0.016717743 0.054982767 -0.02121383 -0.040164582
000340 20 0b cb bb 7c 24 8d 3c 1c ce ce 3c 8c 2f a0 3c
       -0.0061963946 0.017229311 0.025244765 0.019553922
000350 e0 9b f5 3c 80 76 5a 3c 98 2d 0c 3c 00 b2 91 bc
       0.029981554 0.013333917 0.008555792 -0.017785072
000360 49 68 96 3d 00 97 31 3d 06 d6 ba bd 1f 26 ad bd
       0.073441096 0.043356895 -0.09122853 -0.08454537
000370 6b 5a 71 3e f6 aa 1d bd 8d 5b 78 bd 15 63 77 bd
       0.23569648 -0.03849312 -0.060634185 -0.060397226
000380 b0 f5 6e bd 94 23 3b 3e 1e 8c 77 3e 70 5b 54 bd
       -0.058339775 0.1827529 0.24174544 -0.051845014
000390 91 34 86 3e c8 6f 96 3e 00 18 80 3c 2c 15 a2 3c
       0.2621198 0.29382157 0.015636444 0.019785486
0003a0 48 e1 80 3e 5e 86 19 3d 71 79 a9 3d f3 40 ec bb
       0.25171876 0.03748166 0.08275116 -0.007209891
0003b0 d3 a0 31 bd 5c 71 79 3e 4d 99 86 3e 1b fa c0 3e
       -0.043366265 0.2435965 0.26288834 0.37690815
0003c0 73 7f 79 be 50 d1 33 be ae 91 3d be 0a cf 50 3d
       -0.24365024 -0.17560315 -0.18512604 0.050978698
0003d0 2f 20 15 bd ec 26 8d 3c 0e 4e 00 3d da cf 2f bd
       -0.036407646 0.017230473 0.03132444 -0.042922832
0003e0 00 81 6a 3d 53 65 91 bd c2 34 38 3d fa 15 14 3d
       0.05725193 -0.07099404 0.04497219 0.03615377
0003f0 25 d1 73 3d 84 e1 3c 3d 4d bd 92 3d d6 53 fa 3d
       0.059525628 0.046113506 0.071650125 0.12223022

bias f4 [64]
000000 8b d4 97 bd 3f 8c 9f be d4 67 b6 3e 20 eb 76 bd
       -0.07413586 -0.31161687 0.3562609 -0.060282826
000010 4c e3 30 3e 5c d9 fe 3d d0 a6 94 be ec 83 12 be
       0.17274207 0.12443802 -0.29033518 -0.14308137
000020 51 c2 78 be b4 9e c1 bc c1 1a c5 3d 1f ac b5 3e
       -0.24292876 -0.023635246 0.096242435 0.3548288
000030 eb 02 6c 3e 0a a9 63 bd 8e db 4b 3d 17 93 56 be
       0.23047988 -0.05558113 0.04976993 -0.20954548
000040 43 ef 6e be e2 68 4f be 6d 4c 81 3e eb 64 ea 3d
       -0.23333459 -0.20254853 0.2525362 0.1144503
000050 6a d6 14 bf 56 7d 19 be 7d 43 36 3d c8 12 a0 3e
       -0.5813967 -0.14989218 0.044497956 0.3126433
000060 fb 96 98 be 2f 22 78 be fa 1e 54 3e ce 07 9e 3e
       -0.2980269 -0.2423179 0.20714942 0.3086533
000070 f9 03 71 be 92 24 98 3e b2 25 73 3c c7 85 10 bf
       -0.23536672 0.297154 0.01484053 -0.5645413
000080 8d 5f b4 be 3c 00 99 3d 66 f8 03 be 7d 3a 4d 3e
       -0.3522915 0.07470748 -0.12887725 0.20041843
000090 75 6b 4a 3d de 41 bf bd d8 82 30 bd d2 b9 96 3e
       0.049418885 -0.09338735 -0.043093532 0.29438645
0000a0 9f dd f8 3d e3 fc fe ba 4a 6c 2f bf f7 bd 0d bf
       0.12151646 -0.0019454028 -0.6852461 -0.5536799
0000b0 89 52 f3 3d 7b 46 83 be f9 54 9b 3e da 62 eb be
       0.11880977 -0.2563971 0.30338266 -0.45973855
0000c0 f9 16 d8 3d 10 a6 e7 be 5b 8c 0a bc e5 e9 d8 be
       0.10551257 -0.45243883 -0.008456315 -0.42365947
0000d0 f6 7e 27 be 26 84 c8 be 20 01 0d 3e 05 f0 19 3f
       -0.16357026 -0.3916332 0.1376996 0.60131866
0000e0 7a 7a 72 3d 17 aa 00 3f 91 81 8f be 03 c9 b3 3e
       0.059198834 0.50259537 -0.2802854 0.35114297
0000f0 75 3c cb bd e5 c2 87 3e 71 86 00 3e 16 95 27 3e
       -0.09923641 0.2651588 0.12551285 0.16365466

weight f4 [64]
000000 3b ee 33 3f a7 71 b3 3e 21 3f 21 3f 26 6e 88 3e
       0.70285386 0.35047647 0.6298695 0.26646537
000010 59 e4 a6 3e a7 b7 ad 3e c9 0e 06 3f c4 4a bb 3e
       0.3259609 0.33929178 0.5236631 0.3658048
000020 72 94 b8 3e 9f 59 ac 3e 2a 41 98 3e d6 45 c5 3e
       0.36050755 0.33662125 0.29737216 0.38529843
000030 80 52 a5 3e 7d 38 aa 3e 4d 20 25 3f 6c 71 dd 3e
       0.32289505 0.33246222 0.6450241 0.43250597
000040 38 5c c8 3e b8 14 9e 3e 3b cb 8d 3e 93 7f 8e 3e
       0.39132857 0.30875182 0.27694115 0.27831706
000050 99 c5 62 3e 5a bc 0a 3f 7e 1e e6 3e 18 9e 91 3e
       0.2214569 0.5419365 0.4494514 0.28440928
000060 6b 43 57 3e 23 38 a3 3e 52 67 b5 3e c5 c3 a3 3e
       0.21021812 0.31878766 0.3543039 0.31985298
000070 0e c8 d3 3e 17 32 aa 3e e0 c4 c4 3e cf 40 b7 3e
       0.41363567 0.3324134 0.38431454 0.35791633
000080 3b 6b 9f 3e 18 3a ac 3e 91 e4 26 3f 2a d4 15 3f
       0.31136498 0.33638072 0.65192515 0.5852686
000090 65 0a ca 3e 3c 6f cf 3e ab 40 6c 3e 1a 74 05 3f
       0.39461055 0.40514553 0.23071544 0.5213028
0000a0 97 91 a0 3e aa 72 d7 3e 93 e0 a6 3e ca ae 98 3e
       0.31361076 0.4207967 0.32593212 0.29820853
0000b0 e5 97 ab 3e 81 04 c2 3e cd 6d fb 3e aa 4f a7 3e
       0.33514324 0.3789406 0.4910721 0.32677966
0000c0 83 77 bd 3e aa a5 09 3f 5f 0e 91 3e bf 9f 2b 3f
       0.37005243 0.5376841 0.28331277 0.6704063
0000d0 21 4b c2 3e 4f 72 94 3e ae d5 ae 3e 7d 84 06 3f
       0.37947944 0.2899346 0.341474 0.5254591
0000e0 36 a7 70 3e b3 43 b3 3e fd 78 0d 3f b5 74 c5 3e
       0.23501286 0.35012588 0.5526274 0.38565603
0000f0 f4 a5 80 3e c1 ba 9d 3e ed b9 d3 3e ac b5 a4 3e
       0.25126612 0.30806544 0.41352788 0.32169855

bias f4 [64]
000000 39 b7 ea be 1e fe fa be 95 dd b5 be 8c 74 7d 3d
       -0.45842913 -0.49022 -0.35520616 0.061878726
000010 e5 32 b9 bd 98 1f 88 bd 89 9c 07 3d 57 f5 ce be
       -0.090429105 -0.06646651 0.033108268 -0.40421554
000020 6c ba e7 bd 56 2e 00 bf e5 ca 8f be b8 62 e3 be
       -0.11314854 -0.50070703 -0.28084484 -0.44411254
000030 41 4c ae be e1 a6 cb be 90 09 7a be ec c2 59 be
       -0.34042552 -0.39775756 -0.2441771 -0.21265763
000040 37 9b ce be a5 f6 29 be 5e 84 85 be a8 8c 2f bd
       -0.40352795 -0.16597994 -0.2607755 -0.04285875
000050 1e 38 8e 3e 40 6f 3f 3d d9 57 fe 3d 8a f2 dc bd
       0.2777719 0.046736956 0.12419099 -0.10788448
000060 f5 48 31 bf b9 ed 9b be 11 aa 2d 3e 58 4b 0d bd
       -0.6925195 -0.30454805 0.16959406 -0.03449568
000070 b1 b5 0c bf 63 b7 36 3d bb 66 7e bc a4 d3 41 be
       -0.5496474 0.044608485 -0.015527423 -0.1892839
000080 8b 36 3a be da 8c a8 be d8 af 8d bf 80 7c b4 be
       -0.18184869 -0.3291996 -1.1069288 -0.35251236
000090 bf bd 38 be 02 94 68 be 34 85 4e bd 81 cd 17 bf
       -0.18041132 -0.2271271 -0.05042 -0.5929795
0000a0 76 9d 71 be d3 30 93 be 7e a0 e7 bd 77 66 15 3d
       -0.23595223 -0.28748187 -0.11309908 0.03647467
0000b0 b7 57 fc 3d 03 20 0f bf 08 4d 15 bf e4 9e 41 be
       0.12321418 -0.5590822 -0.58320665 -0.18908268
0000c0 a2 fe fd be e3 cd 12 3e 28 7e 86 3d 76 1b 5e bf
       -0.49608332 0.14336352 0.06567031 -0.8676065
0000d0 74 48 ee 3c 14 b4 59 3e 9c a2 9f be 7d b7 91 bd
       0.029087283 0.212601 -0.3117875 -0.07115076
0000e0 e5 b7 23 3d ad f7 cf bd ec b7 72 be 27 cf cf be
       0.039970297 -0.10154662 -0.23702973 -0.40587732
0000f0 4b c8 18 3d 54 02 0e 3e a0 e8 29 bf 83 b4 bd be
       0.03730039 0.13868076 -0.6637058 -0.37051782

running_mean f4 [64]
000000 1c 41 03 3f c7 14 db be 76 27 2c 3c 2a 58 93 3e
       0.51271224 -0.4278929 0.010507455 0.287782
000010 43 58 02 3f f1 d7 f2 bd 50 cb 32 be 5d 8f af 3f
       0.50915927 -0.11857594 -0.1746037 1.3715626
000020 8a 98 24 bd d8 bf 3c 3d 2b 7c a9 3c 6d 99 63 3e
       -0.040184535 0.046081394 0.02068909 0.22226496
000030 6c fb cb 3d 22 a4 c1 be fd be 0d be 2b 3f 10 be
       0.09960064 -0.37820536 -0.13842387 -0.14086597
000040 a6 61 26 be 4c 5d e0 be 4d 46 36 3e 1e 28 46 3f
       -0.16248187 -0.4382118 0.17800255 0.77404964
000050 3e ed f6 be 65 b2 a5 bf 8d 58 16 3f be 4c 84 3e
       -0.48227876 -1.2945067 0.5872887 0.258398
000060 4f af d9 bd d7 90 8a bb 14 9c 95 3f 1c 8e 4f bf
       -0.106291406 -0.004228692 1.1688256 -0.81076217
000070 a9 30 88 bf cb a8 65 3e 36 d7 5e 3d 67 43 a2 bf
       -1.063985 0.2242767 0.05440446 -1.267682
000080 a1 d8 1d bf b4 ab 85 bf 49 c9 a7 be 3a 69 14 3e
       -0.61658674 -1.0443025 -0.32770756 0.14493266
000090 9e 15 3d bf bd 72 3a bf d2 98 8c 3e 3d 2b a2 3d
       -0.7386111 -0.72831327 0.27460343 0.07918403
0000a0 9d 91 35 b9 92 7e 0e 3d 1a ce 29 bf 20 57 0c 3e
       -0.0001731575 0.034788676 -0.6633011 0.1370511
0000b0 ab 9c 39 3e 75 4f 70 bf 1e 81 b9 3e 85 ad 28 bf
       0.1812617 -0.9387124 0.3623132 -0.6588977
0000c0 25 0a c5 be 19 3b 6b bf 3d ec 18 3d 99 be 14 bf
       -0.38484302 -0.9188705 0.03733467 -0.5810333
0000d0 e5 7b 3d be c8 01 84 bf d5 70 ad 3d 19 b5 a6 3f
       -0.18504293 -1.0313044 0.084687866 1.3024017
0000e0 f2 7a 19 3e 11 a9 f5 3e bf ba 68 3e 40 33 b1 be
       0.14988306 0.4798055 0.22727488 -0.34609413
0000f0 4d da bf be 45 fb ac ba 5b 96 c5 bd 96 ea ba 3d
       -0.37471238 -0.0013197443 -0.09647819 0.09126775

running_var f4 [64]
000000 8b 50 d6 3d 70 e6 36 3d 12 82 13 3e a5 69 9d 3d
       0.10464581 0.044653356 0.14405087 0.07686166
000010 af 20 5a 3d 8f 4d a5 3d 74 ec 92 3d d7 8c 4e 3d
       0.053253826 0.08071434 0.07174006 0.050427284
000020 f1 71 94 3d 75 27 48 3d a8 4f 8e 3c bd c1 dd 3c
       0.07248295 0.048865754 0.017371967 0.02706992
000030 eb 36 25 3d e3 a8 2f 3d b1 ce f9 3d a6 dd 2a 3d
       0.040335577 0.042885672 0.121976264 0.041715287
000040 13 07 22 3d 17 42 57 3d 5c af 2f 3d f2 d5 b5 3d
       0.039557528 0.052553263 0.042891845 0.088786975
000050 d2 72 60 3d 0d f3 bf 3d e2 13 bf 3d 87 64 57 3d
       0.054797 0.0937253 0.09329964 0.052586105
000060 4a d7 9d 3c e9 8e 3f 3d 08 46 94 3d 98 c7 a5 3d
       0.019267697 0.04676715 0.0723992 0.0809471
000070 94 85 99 3d 45 da 27 3d 6a c6 8e 3d f6 c8 84 3d
       0.07496181 0.040979642 0.06971438 0.06483643
000080 f1 e4 7e 3d 38 21 d9 3d 79 78 86 3d b2 4c a5 3d
       0.062230054 0.10602039 0.06565947 0.08071269
000090 53 39 f2 3d e3 c8 3e 3d f9 ee 47 3d 9f 97 59 3d
       0.1182734 0.0465783 0.048811886 0.053123113
0000a0 d7 f9 bf 3c 47 e8 58 3d af e1 9b 3d 8b c6 6f 3d
       0.023434563 0.052955892 0.07611405 0.058538955
0000b0 9d ed 9b 3d ee d5 b8 3d 41 db 72 3d 83 f6 7f 3d
       0.076136805 0.09025179 0.059291128 0.06249095
0000c0 2a 98 89 3d 30 6b b3 3c 3c 27 79 3d 58 89 82 3d
       0.06718476 0.021901697 0.060828432 0.063738525
0000d0 ed c5 34 3d f5 6b b5 3d 60 02 00 3d 1a 6e 05 3e
       0.04413407 0.08858482 0.031252265 0.13030282
0000e0 ab 3b f0 3c b4 13 1e 3d df bf 83 3d 5f 60 68 3d
       0.029325327 0.03859301 0.06433081 0.05673253
0000f0 01 fe 46 3d a0 d9 78 3d 4e 03 7a 3c 78 64 ab 3c
       0.04858208 0.06075442 0.015259577 0.02092193

weight f4 [64, 64, 3, 3]
000000 bc 7f b8 3e 10 88 9a 3d 58 c6 6c 3d 89 3e 46 be
       0.36034954 0.07545483 0.057806343 -0.19359793
000010 19 b7 57 bd b4 60 ae bd a1 29 96 be 55 4b a5 be
       -0.05266485 -0.085145384 -0.29328635 -0.32284036
000020 89 fb 49 be 67 58 40 3d 6b f1 0a be 75 43 cf bd
       -0.1972486 0.046959307 -0.13568656 -0.10120288
000030 31 72 7c 3d 7a 52 0e be b6 79 38 bd 23 ce 15 3e
       0.06163234 -0.1389865 -0.045037948 0.14629416
000040 75 6e 5f bd e7 48 37 be ea cf af 3c b6 74 2b 3e
       -0.0545487 -0.17898904 0.021461446 0.1674374
000050 31 80 f0 bd 65 39 84 bd 36 48 54 3e 68 da db bd
       -0.117432006 -0.0645626 0.20730671 -0.10735017
000060 f1 91 63 3e 3e 98 92 ba d0 a0 e0 bb 4b 5b 4a bd
       0.22223641 -0.0011184288 -0.006855108 -0.04940347
000070 7b f8 80 3e e9 7e a1 3d 0a 9e 6c bd fa 57 b1 be
       0.25189576 0.07885534 -0.057767905 -0.34637433
000080 7a f3 88 be d4 8c fa 3b 25 89 0a bd 2d 46 d9 3d
       -0.26748258 0.0076461826 -0.033822197 0.10609088
000090 d8 29 ae bc c0 3b 10 3f 05 76 72 be 9a d6 ae 3e
       -0.021260187 0.5634117 -0.23677833 0.34148103
0000a0 7e 9c 71 3e 40 9a 89 be e9 5a 99 bd 67 bf 53 bd
       0.23594853 -0.26875496 -0.07488043 -0.051696207
0000b0 e1 33 c0 bd 47 31 ae bc 07 4c ba 3c 2f ce 03 bd
       -0.09384895 -0.021263732 0.02274133 -0.032179054
0000c0 ee 91 3c 3e 01 07 95 bd 86 a7 62 3e 81 e4 21 be
       0.18415043 -0.072767265 0.22134218 -0.15809824
0000d0 a6 1b 0e 3d ba fa 9f bd f3 41 ed 3c d4 da f7 3d
       0.034694336 -0.07811494 0.028962111 0.12102285
0000e0 0c 32 ad 3d 35 a5 bb bd 93 fa c5 bd 19 17 19 be
       0.08456811 -0.0916237 -0.09666934 -0.14950217
0000f0 48 bc 08 be a6 31 2f bb ca 1e 1d bd b5 ca bc bd
       -0.13353074 -0.0026732474 -0.03835944 -0.09218351
000100 d6 4f 33 be a2 6f 15 3e 0f 94 28 3d d0 30 b3 3d
       -0.17510924 0.14593366 0.041156825 0.087495446
000110 eb d7 ec be 90 f1 d9 3c 4d 53 08 3f 2b 37 9d 3d
       -0.46258482 0.026604444 0.53252107 0.07676538
000120 77 0c 03 be b1 93 23 bd 7a 64 30 3d e7 8a fc bc
       -0.12797724 -0.03993577 0.043064572 -0.030827953
000130 49 8d f9 bd fc 6f 06 3e 4b ec 8d be fd 4a b4 bd
       -0.12185151 0.13128656 -0.2771934 -0.088033654
000140 e3 03 5a bd f2 78 79 3e aa a1 b7 3e b1 26 89 bd
       -0.053226363 0.24362543 0.35865527 -0.06696833
000150 01 55 12 3e e2 ec 96 bf ab 1a 92 3e e4 4f 75 3e
       0.14290239 -1.1791041 0.2853597 0.23956257
000160 cc 23 29 3f ac 57 ba be 8c dd cc bd f1 17 99 bc
       0.66070247 -0.36395013 -0.10003194 -0.018688174
000170 fd 4f 80 3e 50 c9 ea bd 21 88 01 be 4c ee 99 3e
       0.25061026 -0.114641786 -0.12649585 0.3006462
000180 dd 46 35 bd 64 4d 59 be 18 c4 95 3d 6b c1 0b 3d
       -0.044257034 -0.21220928 0.073127925 0.034120005
000190 dd 7c c8 3e 1a 79 3a bd 01 80 bc bd 36 0d 9a bd
       0.39157763 -0.045525648 -0.09204102 -0.07522051
0001a0 4e 9c b5 bb c0 7f 9b 3c fa 7d f5 bd 79 4a 9c 3c
       -0.0055423146 0.018981814 -0.11986919 0.01907848
0001b0 6a cc b9 3e 7b 75 99 be 4f a7 2c be 72 d3 bd 3e
       0.36288768 -0.29972443 -0.16860698 0.37075382
0001c0 3a d1 96 bd 03 fd 1d be 21 dc 5f 3e 35 ee df bd
       -0.073641255 -0.15428548 0.21861316 -0.10934106
0001d0 37 c7 26 be 37 89 dd bd 41 df ed bd b8 99 9f bd
       -0.16286932 -0.10817187 -0.11614848 -0.077929914
0001e0 6d 5f 36 3d d5 34 be 3e 8e 15 54 3c 55 29 bc bd
       0.0445246 0.37149683 0.012944592 -0.09187571
0001f0 3a 15 4f 3d 05 2a 1b be f2 19 f7 be 40 24 65 3d
       0.050557353 -0.15152748 -0.48261982 0.055942774
000200 7b 91 3e 3d ce aa bd be 12 16 95 3e 2f 9f 3c 3e
       0.04652546 -0.37044376 0.291184 0.18420099
000210 38 55 bb be b5 ed fb 3d 66 a0 8c 3d 0e f3 bf 3d
       -0.36588454 0.123011984 0.06866531 0.09372531
000220 bc 4b 72 3d 69 4f 5c bc 4a 4b 34 be b9 df cd bd
       0.059154257 -0.013446667 -0.17606845 -0.10052437
000230 2a a4 12 be 77 7d 88 3e 91 b1 7f 3e c0 9e f8 bd
       -0.14320436 0.26658222 0.2497008 -0.12139654
000240 ac 9b bc bd e0 be df 3e bf d6 2e 3e 75 24 40 3d
       -0.092093796 0.43700314 0.17074107 0.046909768
000250 03 03 65 be a6 41 df 3d f6 c6 02 be a4 7a 60 be
       -0.2236443 0.10901193 -0.1277121 -0.21921784
000260 c7 29 5b bd 05 db a6 bc d1 a5 ea bd 73 0b d3 3d
       -0.05350664 -0.020368109 -0.11457408 0.10304918
000270 ab 0e 1f be 46 5d 42 be 86 21 71 3e b9 ff 0b be
       -0.15532939 -0.18980893 0.23547944 -0.13671769
000280 2b da 0f be 2d 09 30 3e 21 2f 92 3d 4e 8c 2d 3c
       -0.14048068 0.17191 0.071378954 0.010592533
000290 c6 f3 c7 3d 2a ce 8c bd bd b3 1d be 01 aa 3e 3d
       0.09763293 -0.0687526 -0.15400596 0.046548847
0002a0 b9 b5 2e bd 7e b9 03 3e 69 a9 6a bd 1a b8 81 bd
       -0.042653773 0.12863728 -0.05729047 -0.06333943
0002b0 a6 04 fc 3b f7 6e 87 3d 6e 73 ca bd 1e c8 0a bd
       0.007690984 0.06612962 -0.09885298 -0.033882253
0002c0 43 7d d0 be 8f 6d fb bb 78 af 2c bd 86 13 65 bc
       -0.40720567 -0.0076729725 -0.042159528 -0.0139817055
0002d0 33 04 36 3e 19 b5 cc be 0f a2 1c 3d 37 73 fd bd
       0.1777504 -0.39981917 0.03824049 -0.12375491
0002e0 8f 7c 60 3e d1 40 25 be 5d e5 5c be 49 75 ee bc
       0.21922515 -0.16138007 -0.2157187 -0.02910866
0002f0 99 b1 90 bd 08 d0 17 3d 57 48 31 3e ca 7c 39 3e
       -0.07065124 0.03706363 0.17312752 0.1811401
000300 5f 77 d9 3d 35 6b e1 bc 45 b0 cb be d1 da 15 be
       0.10618471 -0.02751694 -0.3978292 -0.14634253
000310 c2 b9 a2 bc 01 41 da 3d cc 46 5c bc 2c 5e d1 be
       -0.019863967 0.1065693 -0.013444614 -0.4089216
000320 91 4d 70 3e db ba c8 3d 90 f7 8c 3e 37 a5 12 be
       0.23467089 0.09801265 0.27532625 -0.14320837
000330 4f b5 4a 3e bc 73 8c bd 16 81 a2 bc 42 8f de bc
       0.19795726 -0.06858012 -0.019836944 -0.02716792
000340 cc e1 e2 bd f1 b7 d7 bd 3e 1c 71 be 03 ab dd ba
       -0.110782236 -0.10533131 -0.2354593 -0.0016911927
000350 d8 da bd bc 86 4c 4f 3e 1b 1d f9 3d f8 d7 49 be
       -0.023175642 0.20244035 0.121637546 -0.19711292
000360 b5 d3 d3 bc 24 aa 07 3e 92 71 b8 bd d0 0e 15 be
       -0.025857786 0.13248497 -0.09006037 -0.14556432
000370 3d 04 32 3c 26 74 33 3e f4 70 b3 3d 9b a3 22 bd
       0.010865268 0.17524776 0.087617785 -0.039706808
000380 d5 15 c6 3b ae 83 e4 3d dd 51 a8 3d 33 aa 88 3e
       0.006045083 0.111579284 0.08218739 0.26692352
000390 3a 6b 3e 3d bc bc 25 be 33 b7 2d be 42 28 4f 3d
       0.046488978 -0.16185278 -0.16964416 0.050575502
0003a0 43 6a 42 be 65 85 47 3d 0a c4 c6 3d e6 0d 1c 3e
       -0.18985848 0.0487112 0.0970536 0.15239677
0003b0 f3 7a d1 3d de c7 ad 3c 01 72 67 3d fc 10 c9 3c
       0.10228529 0.021213468 0.056505207 0.024544232
0003c0 60 5c a4 bc 0c 16 07 bb 96 d5 af 3d 30 4a ab be
       -0.02006358 -0.0020612506 0.0858566 -0.33455038
0003d0 8e ce 94 bd d4 76 9b bd a1 df ad bd a3 2f b5 be
       -0.0726596 -0.07591024 -0.084899195 -0.35387906
0003e0 f8 9d 21 3e 44 cb 0a be 59 12 c6 bb 69 23 21 be
       0.15782917 -0.13554102 -0.0060446677 -0.15736164
0003f0 ae 60 47 be 33 ee 54 be c1 11 23 be 38 b7 59 be
       -0.19470474 -0.20793991 -0.15924741 -0.21261299

bias f4 [64]
000000 b7 42 d8 3e 0c 93 94 be 20 c6 39 3e 69 da 63 be
       0.422384 -0.29018438 0.18141985 -0.22251286
000010 5c 95 bf 3c 90 d9 bd be cc 20 74 bc d5 40 11 3d
       0.02338665 -0.3708005 -0.0149003975 0.03546222
000020 d6 fd 5e be 86 56 29 3e bb 17 15 bd ca 75 01 3e
       -0.21776518 0.16536912 -0.036399584 0.12642589
000030 21 8e b6 bd 60 ca 0a 3e 70 06 84 3e d7 88 aa bd
       -0.08913828 0.13553762 0.2578616 -0.083268814
000040 55 33 bc 3e 2c ba 31 be b1 6e 72 3c 73 f2 31 bd
       0.36757913 -0.17356175 0.014796899 -0.04344411
000050 3f 25 57 be 72 e3 2b 3e 18 0e 49 be 6b 75 fc 3d
       -0.21010302 0.16785982 -0.19634283 0.12327083
000060 e9 e7 ae 3e 9f 5b ff 3d f0 36 3f be 2c 8d 49 bd
       0.34161308 0.12468647 -0.186733 -0.049206898
000070 28 51 07 3c 80 02 22 3d 96 be c6 bd 99 de 95 be
       0.008259095 0.039553165 -0.0970432 -0.2927139
000080 07 10 b2 be d4 53 8d 3d ee 29 df be 0e 3f 76 be
       -0.34777853 0.069007546 -0.43586677 -0.24047491
000090 e9 5a 90 3e b4 01 0e bd 11 a4 18 3e b6 62 19 3e
       0.2819436 -0.034669593 0.14906336 0.14979061
0000a0 b3 07 b3 3d e7 75 50 be 00 55 84 be 2b bf 0c bf
       0.08741703 -0.20357476 -0.258461 -0.549792
0000b0 12 41 01 3d 7b 9c 4b 3d 35 f0 c2 bd 3a 0e 14 3e
       0.031556197 0.04970978 -0.09518472 0.14458552
0000c0 46 e3 75 3d 6c 89 03 bf 5e f4 c2 bd ee df 10 be
       0.060031198 -0.51381564 -0.095192656 -0.14147922
0000d0 70 e1 bd bd d9 ac 80 be 2f 76 b8 be 28 69 2f be
       -0.092715144 -0.25131872 -0.36027667 -0.17129958
0000e0 03 f8 f8 bd 22 1d ce be c5 23 67 3e 68 e1 db 3e
       -0.121566795 -0.40256602 0.22572239 0.4294541
0000f0 48 fa 19 3e 3b 2b f6 3d b7 94 3b be 60 51 8b 3e
       0.15036881 0.12019964 -0.18318449 0.27210522

weight f4 [64]
000000 5b e6 1a 3f 5e bf ea 3e c4 ce 06 3f 3f d2 a8 3e
       0.60507745 0.45849127 0.5265925 0.32972905
000010 5c e9 28 3f 40 45 ee 3e 25 b6 9d 3e 53 4a 3f 3f
       0.6598108 0.4653721 0.30803028 0.74722785
000020 ac 9b 1d 3f a2 0a 05 3f 97 7f 3e 3f 26 e3 b4 3e
       0.6156566 0.5196935 0.74413437 0.3532955
000030 88 0d 2b 3f 8f c5 55 3f c4 8e b6 3e 7b f5 98 3e
       0.6681752 0.83504575 0.35655797 0.29874787
000040 6e d6 d9 3e 05 da 21 3f a4 fc ac 3e dd 65 b9 3e
       0.4254641 0.63223296 0.337865 0.36210528
000050 db b6 b2 3e fa ac a9 3e 89 de 9e 3e c6 10 c7 3e
       0.34905133 0.33139783 0.31029156 0.38879985
000060 18 64 05 3f 6e ab 1b 3f 4f 4a 96 3e 89 8c 39 3f
       0.52105856 0.60808456 0.29353568 0.72480065
000070 cb 46 14 3f f4 92 f3 3e fa a9 fd 3e a0 86 db 3e
       0.5792052 0.47573054 0.49543744 0.42876148
000080 25 1b e2 3e 64 dc c4 3e 8d 23 b9 3e 28 06 e8 3e
       0.44161335 0.38449395 0.36159936 0.45317197
000090 5a 79 c2 3e 11 c9 23 3f 8a 3f 02 3f f5 54 27 3f
       0.3798321 0.6397868 0.508782 0.6536401
0000a0 42 85 8e 3e 31 45 e6 3e c8 53 c4 be 5b 35 1b 3f
       0.27836043 0.44974664 -0.3834517 0.6062829
0000b0 44 3a f4 3e 4b da 24 3f ad 1d 42 3f 7b a0 bf 3e
       0.47700703 0.6439559 0.7582653 0.37427124
0000c0 d1 53 30 3f d4 03 c0 3e fc 7b 08 3f e2 b1 a5 3e
       0.68877894 0.3750292 0.53314185 0.32362276
0000d0 2e 71 32 3f a6 a8 37 3f 82 a5 cd 3e a1 23 1e 3f
       0.6970395 0.7174171 0.40165335 0.61773115
0000e0 c3 12 be 3e 3b 59 f8 3e 80 c1 ab 3e ec aa 30 3f
       0.3712369 0.48505577 0.33546066 0.69010806
0000f0 bb 77 50 3f 97 5f a6 3e f7 55 2f 3f 7c 29 13 3f
       0.81432694 0.32494804 0.68490547 0.57485175

bias f4 [64]
000000 84 6d 82 bf d8 a7 43 3e 13 e9 7b be 65 16 96 bd
       -1.0189672 0.19106996 -0.2460063 -0.0732849
000010 cc d9 39 be 98 c5 16 bf 25 32 04 bc 78 c8 8d be
       -0.18149489 -0.58895254 -0.008068596 -0.27692008
000020 ad 55 b6 be bc a8 30 bf 12 4f b3 bd 6d 08 81 be
       -0.3561224 -0.6900747 -0.08755316 -0.2520174
000030 db 6f 20 be a3 ef 17 bf d6 51 cd bc 27 a6 07 be
       -0.1566767 -0.5935003 -0.025063436 -0.13246976
000040 61 d6 d3 be 8b ba 07 3e 17 d2 8f 3d f7 26 a4 3c
       -0.41374496 0.13254754 0.07022493 0.020038111
000050 d7 53 6e be ab 32 aa 3e ab e5 16 3f 3b 70 88 bd
       -0.2327417 0.33241782 0.58944196 -0.06662031
000060 7c 1c 40 3d ff a9 2e bd 8b 5d 3e 3e fa c4 99 be
       0.046902165 -0.04264259 0.18590371 -0.30033094
000070 45 00 f3 be a7 e7 57 be 29 57 3f bf 87 75 78 be
       -0.47461143 -0.21084462 -0.7474237 -0.24263583
000080 65 9c c4 be 5d 3e 95 bd 00 22 a8 be 7d dc 07 3d
       -0.3840057 -0.072872855 -0.3283844 0.03316926
000090 c6 af 07 3f 15 d2 8b be b8 28 1f bd 6d 82 96 bf
       0.53002584 -0.27308717 -0.03885719 -1.1758553
0000a0 9e 13 8b 3e 35 33 de be e0 f8 8d be 96 d3 ce 3d
       0.27163404 -0.43398443 -0.2772894 0.100989506
0000b0 04 23 a4 be 4e 81 80 bf 29 38 56 be 0c bb 7f 3e
       -0.32057965 -1.0039461 -0.20919861 0.24973696
0000c0 4b ab dc be ab b9 6f be cb 2b ba be fe cc a2 bd
       -0.43099436 -0.2341067 -0.36361536 -0.079492554
0000d0 2e 1e 84 bc 72 81 11 bf 0c c6 b1 be 78 d7 fc bd
       -0.016127672 -0.5683814 -0.3472141 -0.12345785
0000e0 ca ad ca be 6c ba 8e bd 6a 01 5f be da 40 02 bf
       -0.39585716 -0.06969151 -0.21777883 -0.50880206
0000f0 5c 10 fc bd 23 52 36 be 8a 77 f9 be e6 8e 1f bf
       -0.12307808 -0.1780477 -0.48724014 -0.6232742

running_mean f4 [64]
000000 c3 5c a9 3d 3e 07 d8 bf c1 f5 91 bf 25 15 6d be
       0.08269646 -1.687721 -1.1403123 -0.23152597
000010 f5 a1 04 bf c6 55 99 bf cc e9 e9 3f de 47 13 bf
       -0.51809627 -1.1979301 1.8274474 -0.57531536
000020 2c 56 86 bf ce bc ad bf e3 ba ca bf 2a 2b 7e bf
       -1.0495048 -1.3573244 -1.5838283 -0.99284613
000030 8b 08 1f bf fd b4 4b bf 36 a7 9d 3d 77 fd a3 3e
       -0.6212241 -0.7957304 0.076979086 0.32029316
000040 0a dc b3 be 45 5a 96 bf a6 71 1a be f9 3b 1e 3f
       -0.35128814 -1.1746298 -0.15082416 0.6181026
000050 5e 10 26 3f 86 5b 01 3f 42 05 6d bf 85 ab 39 3e
       0.64868724 0.5053028 -0.9258615 0.18131836
000060 9c fc 5d bc 80 62 d0 3f bb c8 08 bf b0 eb 80 bf
       -0.013548996 1.628006 -0.5343129 -1.0071926
000070 d7 7b c2 be 8d 9c 85 bf 61 8e 5d 3f 10 ac a8 bf
       -0.37985107 -1.04384 0.8654538 -1.3177509
000080 9e 9f 8b 3d 6b 84 4b bf c9 00 d8 3e 4d 52 54 be
       0.06817554 -0.7949893 0.421881 -0.2073452
000090 e2 dc 5c 3e f2 9f 49 bf 2d e2 03 40 81 df 30 bf
       0.21568635 -0.7875968 2.0606797 -0.6909104
0000a0 63 14 81 bf df 39 a5 3f ed af 95 3e 78 4b b3 3f
       -1.0084347 1.2908286 0.29235783 1.4007406
0000b0 ef a2 40 bf 50 e3 a9 3f ba 6a e7 bc 8e 83 8c bf
       -0.75248617 1.3272495 -0.028249133 -1.0977647
0000c0 bc 65 73 bf 2c e0 df bf 4e a1 74 bf f7 a0 13 bf
       -0.9507711 -1.7490287 -0.9555863 -0.5766749
0000d0 9e 96 f9 bf ec 03 05 3f 4a 63 ce be ac 25 b8 be
       -1.949909 0.5195911 -0.40310127 -0.3596624
0000e0 00 e1 1b be c0 26 b6 bf c8 0a a6 be 9f a1 21 bf
       -0.1522255 -1.4230576 -0.324301 -0.6313724
0000f0 8d 74 ba 3f e8 be de 3e 1b 95 75 3e 7f f3 fa 3e
       1.4566818 0.43505025 0.2398266 0.49013898

running_var f4 [64]
000000 27 cf 7d 3e 19 d8 6c 3f 41 d5 08 40 52 13 70 3f
       0.24786054 0.9251724 2.138016 0.9377948
000010 5a bf fa 3f 57 a5 8a 3f 53 6c 27 3f b0 a2 a7 3f
       1.9589646 1.0831708 0.65399665 1.3096523
000020 e5 90 82 3f e3 80 7f 3f bc 66 c1 3f 93 71 b9 3f
       1.0200468 0.9980604 1.5109477 1.4487785
000030 af 2e 8a 3f 17 dd ec 3f cd 54 9c 3f 66 be 51 3f
       1.0795497 1.8504971 1.2213379 0.8193115
000040 7f c5 23 3f 48 f6 d6 3f df c7 8d 3f d2 38 49 3f
       0.6397323 1.6793909 1.1076621 0.78602326
000050 5c 1f 8b 3f 5a b4 46 3f e4 a9 83 3f cc ac 67 3f
       1.0868945 0.77618945 1.0286222 0.9049804
000060 a0 55 b3 3f 9e 1e 00 40 41 79 60 3f c8 82 9b 3f
       1.4010506 2.0018687 0.8768502 1.2149286
000070 37 99 76 3f f5 40 0b 40 3a 8f 51 3f e5 40 96 3f
       0.9632754 2.1758397 0.8185917 1.1738554
000080 2c 58 29 3f 5d bf 93 3f 2c 57 57 3f 7f 29 9f 3f
       0.66150165 1.1542774 0.8411739 1.2434539
000090 0d 9a b4 3f 15 9b f6 3f 40 21 af 3f eb 25 32 3f
       1.4109513 1.9266077 1.3682022 0.6958911
0000a0 a1 55 ce 3f 7b 66 db 3f 16 38 49 3f ec dd ac 40
       1.6119882 1.714065 0.78601205 5.40209
0000b0 81 25 59 3f 57 0d 4f 3f ba 16 5a 40 b2 ee af 3f
       0.8482285 0.8087973 3.4076371 1.3744719
0000c0 ee 91 ce 3f e4 82 3f 3f f6 e2 d7 3f 95 f2 7c 3f
       1.6138284 0.748091 1.6866138 0.9880765
0000d0 ba c3 0b 40 ba e6 17 40 7c f6 04 3f 07 22 c5 3f
       2.1838212 2.3734574 0.51938605 1.5401009
0000e0 7c df f2 3e d6 ee 9e 3f cb 7d b7 3f 88 0a 08 3f
       0.4743613 1.2416637 1.4335264 0.5314107
0000f0 5f 56 99 3f 08 dd 1e 3f 5b c6 a5 3f 77 4d 5e 3f
       1.1979483 0.62056017 1.2951158 0.8683695

weight f4 [64, 64, 3, 3]
000000 7f 6f 88 3d 16 3a 4c 3c 85 31 47 3e ca 60 4c be
       0.06661891 0.012465021 0.19452484 -0.19958797
000010 4e 98 94 be a1 cf bc bf c1 3e 33 bd 45 c7 eb 3b
       -0.2902245 -1.4750863 -0.04376102 0.0071953856
000020 8f 06 86 bf 35 33 42 be 61 cf 02 3e b1 23 43 3e
       -1.0470752 -0.18964846 0.12774421 0.19056584
000030 30 95 d7 bd 70 d2 64 3d 1b 29 b3 3d 97 ef ea bd
       -0.10526502 0.05586475 0.087480746 -0.114714794
000040 5a e2 37 bc 69 17 3e be 10 2a 92 bd 93 a0 95 be
       -0.0112234 -0.18563618 -0.07136929 -0.2922407
000050 62 64 8b be 2c 27 86 be 78 6b 8b be 07 9d 28 be
       -0.27225024 -0.2620176 -0.2723043 -0.16466151
000060 0f a7 45 3e 51 c8 34 be e0 2a c3 be e4 9d a7 bd
       0.19302009 -0.1765454 -0.3811865 -0.08184412
000070 a2 4f 45 bd 00 59 47 be 41 bb e0 bd 50 65 34 be
       -0.048171647 -0.19467545 -0.10973216 -0.17616773
000080 e8 eb 7c bd af 7b a1 be cc 00 ca be 86 9a db 3d
       -0.061748415 -0.31539676 -0.39453733 0.107228324
000090 3c 21 8e bc e3 a3 c3 bd 05 75 b8 be b1 c6 e1 3c
       -0.017349832 -0.09552743 -0.3602678 0.027560564
0000a0 62 65 fa 3d 50 c1 16 3e 00 f4 06 be b6 48 a2 be
       0.122263685 0.1472218 -0.13179016 -0.316961
0000b0 76 69 a5 be d6 3b ec 3b 80 54 4b 3e 25 fc 90 be
       -0.32307023 0.0072092814 0.19856453 -0.2831737
0000c0 7b 5e e3 3c 54 3b 01 bb e1 34 53 bd 0d eb 10 3e
       0.027755013 -0.00197192 -0.0515641 0.14152165
0000d0 74 4b f4 3d d8 88 9e 3d 6c fd 8e 3d f5 c4 ee 3c
       0.11928454 0.077409446 0.0698193 0.02914665
0000e0 fd 5b 8c 3e 87 d0 82 be e3 e5 14 bf 57 c1 54 be
       0.2741393 -0.2554972 -0.5816328 -0.20776878
0000f0 2d 4c cc bd e7 80 e1 3d cf dc 7c 3a 8a f1 6b 3e
       -0.09975467 0.11010914 0.000964594 0.23041359
000100 19 5f c3 3d 78 cb 81 bc 56 9a 3b 3e 0d a2 8c 3e
       0.09539623 -0.015844092 0.18320593 0.27467385
000110 98 e7 12 be 51 d9 94 be d5 fb 1b bc 78 f2 e8 3d
       -0.14346159 -0.2907205 -0.009520491 0.11374372
000120 53 d9 a7 be d7 c0 10 be 51 83 29 be f0 5c e6 be
       -0.32782993 -0.14136063 -0.16554 -0.4499278
000130 d4 ca a0 bd 08 67 c4 bd 79 40 20 bf 7b 7c d9 be
       -0.078511864 -0.09589964 -0.6259838 -0.42477784
000140 cb 89 f2 be 6a 0c 5b be 97 f9 af 3d 9d 01 f2 3e
       -0.47370753 -0.21391454 0.08592527 0.47266856
000150 89 1a 90 be 6b 36 8b be b4 e3 1c 3e 74 51 98 be
       -0.28145245 -0.27189955 0.15321237 -0.29749644
000160 82 5e ca bd b2 1f b1 3d 44 a7 2a 3e b0 8e 94 be
       -0.09881307 0.086486235 0.1666537 -0.29015112
000170 57 89 dc 3d 1a 74 8a bd 7c 43 66 3d 7f 92 c7 bd
       0.10768383 -0.06760426 0.056216702 -0.09744739
000180 64 08 56 3e 69 4d 48 3e 5a b8 fd bd a1 d9 43 3d
       0.20901638 0.1956078 -0.12388678 0.04781497
000190 79 e0 96 be 80 68 66 3e 34 00 72 be 1b 9c d7 be
       -0.29468134 0.22500801 -0.2363289 -0.42111287
0001a0 d5 da 19 be bc 2d 06 3e 24 91 a2 3d 0a 6b 36 bd
       -0.15024884 0.13103384 0.079378396 -0.044535674
0001b0 f1 24 1f 3e 0f 9a 53 be 11 44 d5 3c 9c 89 f9 3d
       0.15541436 -0.20664237 0.026033433 0.1218445
0001c0 81 c6 a4 3d 48 24 07 be 8e 95 20 be 67 6e e8 bd
       0.08045674 -0.13197434 -0.1568205 -0.113491826
0001d0 ae 61 b4 3d 58 fc 0c be 82 9c 70 3d 7a 75 62 3e
       0.088076934 -0.13768137 0.058743007 0.22115126
0001e0 df 65 d7 3d a7 fd 5f be c7 76 3a 3e a4 69 0c 3d
       0.10517477 -0.21874104 0.18209372 0.034280434
0001f0 e7 15 dc bd 2d cb 49 3d 37 7b 95 bd 19 66 aa be
       -0.10746365 0.04926603 -0.07298892 -0.3328102
000200 87 8c 10 bf b7 ce d1 3e 7b 4f 95 bc b9 31 fa 3d
       -0.5646443 0.40978023 -0.018226376 0.12216515
000210 1e 16 9f bd e1 7f 0d bf ba f5 78 3e f9 83 62 be
       -0.077678904 -0.5527325 0.24312487 -0.22120656
000220 89 58 98 be 3d 5a d6 3e 7c 50 11 3e 74 3f e0 bd
       -0.29755047 0.4186572 0.14190859 -0.10949603
000230 ce 33 d8 be cc 7a 2e 3e 78 50 30 3f c6 c1 f4 be
       -0.42227024 0.17039031 0.68872786 -0.47804087
000240 62 01 e1 3e f1 ef 2e be 5d f4 93 be 90 8c e6 3d
       0.43946368 -0.17083718 -0.28897372 0.11257279
000250 4c 28 7b be dd 1b 72 be 60 07 c8 3e 6a ae 98 be
       -0.24527091 -0.23643441 0.39068127 -0.29820567
000260 3e 8a 60 be 04 00 25 3e ef e4 17 bd 28 83 d3 3e
       -0.21927735 0.16113287 -0.037083562 0.41311002
000270 cb a5 94 3d ae 64 f2 3a 35 73 83 3e da 5e 91 be
       0.07258185 0.001849314 0.25673833 -0.28392678
000280 08 2d 2d 3e 7a 0f d8 3d a5 aa f0 bd d9 e0 f3 be
       0.1691171 0.10549827 -0.11751298 -0.47632483
000290 d2 d1 b5 ba b7 ae 94 be 91 69 45 bf 40 32 84 bf
       -0.0013871735 -0.29039547 -0.77114207 -1.0327835
0002a0 68 04 bd 3d 95 b7 85 be e2 85 7e be c3 62 3c 3e
       0.09229356 -0.26116624 -0.2485576 0.1839705
0002b0 7e 29 c4 3d fb 82 a7 be 86 76 63 3d f7 58 24 3e
       0.095782265 -0.32717118 0.055532955 0.16049562
0002c0 fe 25 82 3d 85 ef 2c be f6 96 83 be 3c e7 09 be
       0.06354903 -0.16888244 -0.25701112 -0.13467115
0002d0 9b 1b 91 3d dd 45 6e bd f7 2e c2 3c cc 40 9d 3e
       0.070853435 -0.058172096 0.023704035 0.307135
0002e0 87 d6 e2 bd 5c f9 89 3e c1 c6 c2 3e b5 ce ea be
       -0.11076074 0.2694806 0.38042262 -0.4586083
0002f0 d9 07 11 bd ac 72 4d be c2 4b 3f 3d cc 1e 5b 3e
       -0.035407875 -0.20063275 0.046703108 0.21398467
000300 0b 00 57 3e c9 32 13 bd 0d e5 30 3e 38 dc d5 3d
       0.2099611 -0.035937104 0.17274876 0.10442394
000310 54 68 b6 3c 30 76 d0 bd 26 b0 6f be 6b f3 85 bd
       0.022266544 -0.101787925 -0.23407039 -0.06540569
000320 ca 69 57 be 04 6f b7 bd 8b 8f 12 3e 52 48 8d 3e
       -0.21036449 -0.089567214 0.1431257 0.2759424
000330 61 77 4f be 52 ca 18 3e 40 a8 2a 3e de 3b 0d 3e
       -0.20260383 0.14920929 0.16665745 0.13792369
000340 41 f4 80 3e d6 92 c4 3e e7 45 bd be 30 56 07 3e
       0.2518635 0.38393277 -0.36967394 0.13216472
000350 76 55 ba bd 19 43 b5 bd 68 0e 91 3e c0 d0 89 3e
       -0.09098332 -0.088506885 0.28331304 0.26917076
000360 78 cd e8 3d a9 d9 37 bd 33 c7 b2 3c e5 4f c1 bd
       0.11367315 -0.04488531 0.021823501 -0.09439067
000370 54 aa 22 bc 5f f8 b3 3d 77 3d 77 bd 2d c3 78 be
       -0.009928305 0.087876074 -0.06036135 -0.24293204
000380 05 50 56 be a2 5b c3 bd c1 0f 5a be 27 0c 1d bf
       -0.20928963 -0.09538962 -0.21295072 -0.6134667
000390 be b3 c8 b9 30 c3 3d 3c ce 2c 99 be c0 97 05 3d
       -0.0003828089 0.011582181 -0.29916996 0.032615423
0003a0 ab df fe bd 89 8e 0a bf ce a5 5d be 5c 1c 40 be
       -0.12445005 -0.5412374 -0.2164528 -0.18760818
0003b0 b2 4d ae 3d 67 cd 78 3e e8 0d ef bd 27 95 2f 3d
       0.08510913 0.24297105 -0.11672574 0.042866852
0003c0 68 3a 89 3e 23 c8 fd bd 96 b1 1d 3e c4 f4 45 be
       0.26802373 -0.12391689 0.15399775 -0.19331652
0003d0 f3 77 88 3d 92 71 42 3e cb e7 81 be 70 1f 13 3e
       0.066635035 0.18988636 -0.25372157 0.14367461
0003e0 1e 71 0e 3c 35 97 73 3e af 45 0a be 25 64 8e 3e
       0.008693961 0.2378815 -0.13503145 0.2781078
0003f0 2f a5 08 3f 1c c8 2d 3e d8 5a ad 3e 37 cc 27 3d
       0.5337705 0.16970867 0.3385837 0.04096624

bias f4 [64]
000000 f8 0a 6f be ee 2e 8d 3d 03 33 f4 bc ae e0 b8 3c
       -0.23344028 0.06893717 -0.02980948 0.022568073
000010 40 68 7b bd f7 58 31 be 76 63 a8 bc e2 28 ec 3c
       -0.061378717 -0.17319094 -0.02055524 0.028828088
000020 e8 13 82 be 56 41 7e 3e b7 ca af bc 31 cb d5 bd
       -0.25405812 0.24829611 -0.021458967 -0.10439146
000030 80 9f 5e 3e ba 95 2d be 02 02 6e 3e ab e7 80 3e
       0.21740532 -0.16951647 0.23242953 0.2517675
000040 67 e7 fc 3e e2 da 10 bd 5f 30 70 3d 26 01 90 be
       0.49395296 -0.035364993 0.05863988 -0.28125876
000050 64 e7 68 3b 6a ed 93 3e 3e cb c9 bd fc dc 64 3e
       0.003553831 0.2889207 -0.098532185 0.22349924
000060 57 34 1c be cc 16 36 3d 21 9b 2e bd 28 ce 11 be
       -0.15254341 0.044455335 -0.04262841 -0.14238799
000070 82 6c a8 3c 3a 5f 88 3e bc ae 18 3e 3c 2e 9f bd
       0.020559553 0.26635152 0.14910406 -0.077724904
000080 fb 2f ca 3d c4 26 0e be e6 88 6f bd 3f 28 69 be
       0.09872433 -0.13881975 -0.058480166 -0.22769259
000090 20 cb 1a be 3b 44 4e 3e bf 62 d8 3c 4c 44 c5 3c
       -0.15116549 0.20143215 0.026414273 0.024080418
0000a0 92 03 d0 bc d8 39 2e be 77 6e 9b bd 7a 5b f6 3c
       -0.025392327 -0.17014253 -0.07589429 0.030072916
0000b0 a3 eb f4 3d a9 05 45 3d 4d 77 ac bd 71 0b 15 be
       0.11959007 0.0481011 -0.08421192 -0.14555146
0000c0 f5 38 6c be e1 1c a9 be 34 4f 33 be e1 0b d5 3d
       -0.23068602 -0.33029845 -0.17510682 0.10402656
0000d0 8f 62 4c 3e d1 10 f0 3d 35 10 29 3d 8a c3 b7 bd
       0.19959472 0.117219575 0.04127522 -0.08972843
0000e0 dc 6d 33 be 95 09 8c 3b 16 a3 07 3d b3 50 26 be
       -0.17522377 0.004273603 0.033114515 -0.16241722
0000f0 e7 a4 78 be d4 45 66 be 70 ee 75 3a 5d 4f a2 be
       -0.24281655 -0.22487575 0.0009381538 -0.31701174
