models/vishal_lr_001_iter_300.pt_232.pt (torch_old, 473212 bytes, 27 tensors)

weight f4 [64, 1, 3, 3]
00000000: 1787 953c 8281 c7bd d12c 673d af0b 73bd
00000010: 0a0e 0d3e 20a6 a8bd dd08 0e3d 9a89 a2bd
00000020: f0d3 d63c 032d 0dbe 0866 22be 176c 77be
00000030: d43b ac3e e9fd 203f 931a 89be da63 fdbd
00000040: 628c 153d 525e 09bf 42df 9f3e 6615 c23e
00000050: 254e db3d 81ec 9bbe aa5b 96be 2125 82be
00000060: 2f01 c6bd 0e0b 1a3e 721f ca3b bad0 a93d
00000070: 8b33 0b3e d723 433d 07c4 84bd f588 8ebd
00000080: 4b2a 3c3d a197 953d 2847 de3d b74c a63d
00000090: 018f cc3e 1c86 15bf e8c0 a63d cf2b 823e
000000a0: 4ca0 773d 1cf8 9fbe 0040 52bf 59e1 083f
000000b0: 649b 0dbe 57ef 813c 2ccb b33d 1d48 d7bd
000000c0: 962e 1e3e 9219 53be 4171 3f3d a92f 17be
000000d0: 28b6 9f3d 85eb 893d 1ddf b53b 8ce5 ac3d
000000e0: 9558 993c 5de0 27be a045 b03d 0631 bebd
000000f0: 07f5 c73c dc4d 07be 57e4 adc0 e5f2 8a3e
00000100: 8498 01be e6b8 0ebe 5f3d 38be dca4 9cbd
00000110: cbb7 893e 9a24 b6be 387b 8d3d 0f70 993e
00000120: 6768 6a3d e754 1cbe 6d86 903d 1ef9 06be
00000130: 166f d7bf 2a94 9fbd 6750 9b3d 0d97 d2bd
00000140: 086a 543d 5c46 4b3d 6b65 853c cc8b 393c
00000150: 207b c8bc f0a0 623d a038 aa3c 6015 4abd
00000160: 618a 1f3c c774 6a3d 7005 2c3d 6c49 e3bc
00000170: 60ed 85bc 64f6 8cbd fcac b3bc 92a6 85bd
00000180: f63a c3bd 099b 9fbd cbef c7bd f827 873d
00000190: a8fa acbe ff3d 8b3e cf63 0d3d 3d79 b53e
000001a0: f4d3 c4be 8f53 c5bd 46fb c1bb 8d82 d43d
000001b0: a361 023e 59c4 1b3e 214a 97be 2954 32be
000001c0: debd f63c da4a 333e 6629 0a3d 47f5 17be
000001d0: 131f cb3d a520 d1bd 115f 4c3e 838d c9bd
000001e0: 198c 843d 0ac9 aebd 5e58 9d3c 9b97 013d
000001f0: fda0 efbd fe5d b23d 787c 213d 10fe c0bc
00000200: a460 07bd 78c1 093d 43b4 b3bd fc83 bdbd
00000210: 5c10 893c 30c7 7f3d 0cff 0f3d a47f 9dbb
00000220: e1df a53c 2e2a 223d 65aa 173e d77b 273e
00000230: 43f7 123e fa85 abbd 19ce f13d 4bce 893d
00000240: 1226 b43d a8d7 babd 10f2 6a3d 24d0 4b3d
00000250: 318a 2bbd a0ed a5bc 284d 543d c86e 89bd
00000260: c0cf 42bc af7f 5abe 9f66 13be 6d59 40be
00000270: 2472 03be 3f0d 40bd ab1d f3bc a31f 9e3e
00000280: 0f15 cd3e 4186 9a3d 9560 1cbd 1bce d03d
00000290: a736 f3bc 72c9 2e3e 8df0 9c3e e117 d73d
000002a0: 0797 8ebd 614d 2c3e 509b 4dbd 270b 95bd
000002b0: 9d12 383c 2082 373d 47a9 293e 08e7 c3bd
000002c0: f1b7 77bd 334e babd 89c3 9d3d 46b8 3d3c
000002d0: e4f4 ac3c 705e 6fbc b4ad 8dbd 6c92 973d
000002e0: 262c c3bd 2873 b0bd 4e74 8dbd 726b 0abd
000002f0: 4c36 8dbc 68af 643d feab 7fbd 1c48 803d
00000300: 4c21 a9bc f66c 9c3d 2894 053c 6423 f3bc
00000310: ba55 923d c89c 2abc 54b7 c6bd e455 203d
00000320: 7020 1a3d 20d8 8cbd 19cd a9bd 6077 413c
00000330: c893 243c d316 a2bd b0ab 9b3b c8c2 99bd
00000340: b080 21bc 90c8 b23d dc81 843c 5293 30bd
00000350: 2458 18bd e8c1 bdbd da9f 93bd ba79 cdbd
00000360: 573c 93be b1d8 843e fda3 ca3c f159 743e
00000370: 6798 68be a7d1 98ba 9f6c 043d 582f 4dbc
00000380: afd2 17bd 80d3 7e3d f191 7f3d 02e9 a1be
00000390: e9dc 7cbd 97af ca3e a7d7 cdbd 1f78 6dbe
000003a0: 086b 773e 69ca 3bbb 7262 64bc fa2d 2abe
000003b0: 1581 943d 90d0 00bd 191f bd3d 80c5 34bc
000003c0: b9c2 453d ebb4 f53d 09f0 14be 943d 593d
000003d0: 617e c3bd 68f7 cabd acff 9b3d b2e3 0fbd
000003e0: 70f3 b13b 5a25 4fbd 608b 46bc 2069 293b
000003f0: 3a57 1ebd d590 473d 72d0 febe dba5 9c3e
0.018252892 -0.097414985 0.056439225 -0.059337314 0.13774887 -0.08234811 0.03467642 -0.07936402
0.026224107 -0.13786702 -0.15859234 -0.24162327 0.33639395 0.62887436 -0.26778087 -0.12372561
0.036510833 -0.53659546 0.3122502 0.3790695 0.10708264 -0.30453876 -0.2936681 -0.25418952
-0.096681945 0.1504328 0.0061682994 0.082917646 0.13593881 0.0476416 -0.06482702 -0.06959716
0.04593877 0.073043115 0.10853416 0.08120101 0.39952853 -0.5840776 0.08142263 0.25424048
0.060455605 -0.3124398 -0.82128906 0.53468853 -0.13828808 0.015861196 0.08778986 -0.105118014
0.15447459 -0.20615223 0.046738867 -0.14764275 0.077984154 0.06734375 0.005550279 0.0844222
0.018718997 -0.16394182 0.0860703 -0.09286694 0.02440883 -0.13213295 -5.4341235 0.2713844
-0.12655836 -0.1393772 -0.17992161 -0.07648632 0.26898035 -0.355748 0.06908268 0.29968306
0.057228472 -0.15266763 0.0705689 -0.13180968 -1.6830776 -0.07791932 0.07583695 -0.10282717
0.05185893 0.049627647 0.016283711 0.011324834 -0.024472773 0.055329263 0.020778954 -0.04933679
0.009737582 0.057240274 0.041997373 -0.027744971 -0.01634854 -0.06882933 -0.021933071 -0.065259114
-0.0953273 -0.077932425 -0.09762534 0.0659942 -0.33784986 0.27195737 0.034519013 0.3544406
-0.38442957 -0.09635078 -0.0059198467 0.10376463 0.12732558 0.1521162 -0.29548743 -0.17414917
0.030119833 0.17509022 0.033730887 -0.1483966 0.09918036 -0.102113046 0.1995814 -0.09841444
0.06472034 -0.08534439 0.019207176 0.031638723 -0.11700628 0.08709334 0.039425343 -0.023558646
-0.033051148 0.03363177 -0.087746166 -0.0925369 0.016731434 0.06244582 0.03515534 -0.0048064757
0.020248355 0.039591007 0.14811094 0.16355835 0.14352135 -0.083751634 0.11806888 0.067288004
0.08796324 -0.091231644 0.057359755 0.049759045 -0.041879836 -0.02025491 0.051831394 -0.06710583
-0.011890352 -0.2133777 -0.14394616 -0.18784113 -0.1283651 -0.046887632 -0.029677233 0.30883512
0.4005513 0.07545138 -0.038178045 0.101955615 -0.029689146 0.17069033 0.30652276 0.105026014
-0.069624 0.16826393 -0.050196946 -0.07277518 0.0112349065 0.04480183 0.1656848 -0.0956555
-0.060478155 -0.090969466 0.07703311 0.011579579 0.021112867 -0.014609918 -0.06917897 0.07400975
-0.09529905 -0.08615714 -0.06906949 -0.033793874 -0.017237805 0.055831343 -0.062419884 0.06263754
-0.02064576 0.0763797 0.008152999 -0.029679962 0.07145257 -0.010413356 -0.09702936 0.03914441
0.03762859 -0.0687716 -0.082910724 0.011808246 0.010044999 -0.079145096 0.0047506914 -0.07507855
-0.009857342 0.087296605 0.016175203 -0.043109246 -0.037193432 -0.092655 -0.07208224 -0.10032983
-0.28756973 0.25946572 0.024736399 0.23862435 -0.22714387 -0.0011659161 0.03233015 -0.012523495
-0.037066158 0.06221342 0.06239504 -0.31623083 -0.061734114 0.3958709 -0.10050898 -0.23190354
0.24161923 -0.0028654581 -0.013939487 -0.16619101 0.07251183 -0.0314489 0.09234447 -0.011033416
0.048281405 0.11997398 -0.14544691 0.05303724 -0.09545589 -0.0991047 0.07617125 -0.035129257
0.0054306313 -0.05057273 -0.0121181905 0.0025850013 -0.038657404 0.048722107 -0.49768406 0.30595288

bias f4 [64]
00000000: e6f2 183c fbae 393c b91a a13d 16ac 383b
00000010: 2f7a bc3c 5f86 1c3d db11 2e3e d67d 793c
00000020: 97c6 8c3e 2678 62be a407 88bd da01 9f3c
00000030: 99fb 323d 9092 7e3d 2b00 39be ae90 e1be
00000040: 7045 70be 21d3 0f3d 1e0e cfbe 453e d23d
00000050: a889 3abe c003 a6be 9ead 8fbe 04a0 a2be
00000060: b45f 3f3d 5a8a 243d 26d9 3d3e 7b2f 80be
00000070: 1e90 8abc 32b1 54bc d0f2 94be f6be 683d
00000080: 6a4e a2be 089c 5dbd 590b 2f3c 1bd5 81be
00000090: 6618 f0bd ba2c 823d 18d9 bd3d 1ef5 303d
000000a0: 6633 883e 26b7 57be 9764 563d c8d2 7fbe
000000b0: c31d 89be 9afe c53b 7eaf 70be 1883 083d
000000c0: bac5 9ebe 9623 b7be 4837 783c ccb4 fa3c
000000d0: 9e64 2dbe 7724 dbbe c147 083e 8064 24be
000000e0: be75 6f3e d028 41be 7e71 a13c 7773 94be
000000f0: f7d6 463e d8b4 3a3d f21b 353d bb4a 793d
0.009335255 0.0113332225 0.07866425 0.0028178743 0.02300748 0.038214084 0.16998999 0.0152277555
0.27495262 -0.22116145 -0.06642082 0.019410063 0.043696973 0.06215149 -0.1806647 -0.44055694
-0.23463988 0.035113458 -0.40440458 0.10265783 -0.18216574 -0.32424736 -0.28062147 -0.31762707
0.04672213 0.040171005 0.18539867 -0.25036225 -0.016914424 -0.0129817 -0.290915 0.05682274
-0.3170045 -0.05410388 0.010683858 -0.253579 -0.11723404 0.06356187 0.09269923 0.043202512
0.26601714 -0.2106596 0.052342024 -0.2498275 -0.2678052 0.0060423138 -0.23504445 0.033328146
-0.31010228 -0.35769337 0.015149899 0.030603789 -0.16932914 -0.42801258 0.13308622 -0.16053963
0.23384759 -0.18863225 0.019707438 -0.28994343 0.1941794 0.045582622 0.044216104 0.060862284

weight f4 [64, 64, 3, 3]
00000000: 0cb9 fb3c cbda 663d 29c8 74ba 6383 a73d
00000010: f7e8 01be a27a 9e3c e31f 36bd 1931 39bd
00000020: 319b b23c ed41 1fbf 437a 46be a2cb 273e
00000030: 5c99 b33d ef62 ccbd b846 f5bd 7e8b 68bd
00000040: 79b4 d03e ddba 163f b653 9abe 3995 363e
00000050: 9e1a f2bc 23f8 b23e b8db 0a3e 3460 9d3c
00000060: e85f b23e f115 4d3e 9da8 293e a915 483e
00000070: 5059 893e 8d2e 6b3e 407e 8d3e ea69 893e
00000080: ed83 923e 0e52 b53d 36bd 7a3e 6871 4a3e
00000090: 5682 f53e 7e10 a4be a878 c1be 6288 9bbe
000000a0: 2dba 833e 3fc5 2cbe d2aa 18be 14b0 823d
000000b0: f04d 37be ac40 05bd af5c 2ebe 8e67 ddbd
000000c0: b40b d93d 52e7 223e 74e6 793d d517 4a3c
000000d0: a40e 063d 746a a7bc 2859 46bf 5459 2fbf
000000e0: c1ba 26bf f5b5 acbd 1e6f 40bd a6de 8dbd
000000f0: e52e ecbe 7352 9ebe d4e6 21bf 2c5b c8bd
00000100: 3962 5dbd ce46 713d ad1d 29bd 8975 cdbd
00000110: 3067 ce3d 6226 603c e2a2 a13d c08a 93bd
00000120: ed89 8b3d 7e25 063e 7f43 c0bd 2647 bebc
00000130: 0090 cebd 7b8b bbbd df0d 30be a14d 8cbd
00000140: 27f2 abbe bae7 3bbc 063b 513d f30b eabc
00000150: deef 643b 7200 ad3c d91a 193c 05e0 483d
00000160: 3eec 6fbc 9acc 82bd 7e27 523d 36ea 903d
00000170: bced 243d 504d 63bd 608b f73c f740 4fbd
00000180: 046d 1dbd 4e6c 433d 64df 643d 6d84 81be
00000190: f52a 98be b0b3 183b b8b1 36bd 9933 c1bc
000001a0: ec9b fd3d 3b9d 983e 10dd 583e 8f28 72bd
000001b0: ae5c 2cbe 4bc9 e9bd 6e8e 10bb 0093 973d
000001c0: ab50 883d 83a3 d2bc 3680 8f3c 79e8 063d
000001d0: 0e38 293d 1aca 9fbd 5677 b13d 2918 c33b
000001e0: 0089 c53d 6c24 fb3d 6b74 df3c 386f 89bd
000001f0: 46e1 c3bd 239b fcbd a833 4dbc 6ae9 3e3d
00000200: ac38 32bc ef94 6abd 2c06 b1bc 2e7f 62bd
00000210: 502e 68bc d421 743d 7c04 8a3c 9586 80be
00000220: 7829 6abe 2296 19be 4462 8fbe c444 51be
00000230: fdef 5bbd c8bc 133e b3ad 80bd df14 d6bd
00000240: 14de 353d accb 1ebc c410 df3c 1a82 c6bc
00000250: e82c 2d3d 04f0 53bc 8437 40bd 6a1b 0e3d
00000260: 6c91 853d 357c 963b f214 413e 3696 a53c
00000270: 39ff b0bd aa0f 3d3d 99cc d83d 238b 973d
00000280: c3c8 703e 733d 923d d08b 2bbd 271f b13d
00000290: 3c9c 8cbe edc6 b4bd d620 9bbc d020 44be
000002a0: 4cd1 6a3d b025 563e 9caa 3dbd 4386 c03c
000002b0: eec9 a23c 4c8b 303d 9e38 583e ed74 823e
000002c0: 82ac b2bd 1613 5bbe 7c54 3dbe 1b7d b5bd
000002d0: 4c60 5fbd f0ea 85bb 74c4 5e3d 32e7 433d
000002e0: 2b2e 8abd 7870 7e3d fade 883d b463 66bd
000002f0: 228d 84bc f859 72bd 1080 6fbd 4895 33bd
00000300: c8f6 7f3d 9896 05bc 489a 0ebc 1261 313d
00000310: 6819 4ebc bfeb 47bd dcc4 6b3d 802d 5fbd
00000320: e80a 77bc 348d e93c c1e7 1dbd 5657 5bbd
00000330: a6f3 88bc 9c35 613d a0c8 adbc 9e83 24bd
00000340: 200b cbbb 7c24 8d3c 1cce ce3c 8c2f a03c
00000350: e09b f53c 8076 5a3c 982d 0c3c 00b2 91bc
00000360: 3cb0 943d 3bd4 c53c 54ea b0bd 3f94 90bd
00000370: 46f8 523e bc4c 59bd d8ee 34bd d754 69bd
00000380: e16d 73bd 658c 3c3e d9d8 7d3e a340 1bbd
00000390: eb4c 7d3e 1b43 963e 8a4b ef3c 678d 943c
000003a0: 3084 7c3e 5ee4 2f3d 9428 a23d 3bf4 8e3b
000003b0: 7242 41bd 7980 673e 9061 7b3e 9c03 b83e
000003c0: c72f 72be 2f8f 2bbe 77bb 39be 0acf 503d
000003d0: 2f20 15bd ec26 8d3c 0e4e 003d dacf 2fbd
000003e0: 0081 6a3d 5365 91bd c234 383d fa15 143d
000003f0: e706 a73d df0c b43b e7a4 433d a018 073e
0.030727886 0.056361 -0.00093376875 0.08179357 -0.12686525 0.019345585 -0.044464003 -0.04521284
0.021802517 -0.6220997 -0.19382577 0.16386274 0.08769485 -0.099798076 -0.11976379 -0.056773655
0.4076269 0.5887888 -0.3014199 0.17830361 -0.029553708 0.34954938 0.13560379 0.019210912
0.34838796 0.20027901 0.16568227 0.19539513 0.26825953 0.22966976 0.27635384 0.2683862
0.28616276 0.08853541 0.2448624 0.19769824 0.47951 -0.32043833 -0.37787366 -0.3037749
0.25727978 -0.16872118 -0.14908913 0.063812405 -0.17900825 -0.03253238 -0.17027543 -0.10810767
0.10597935 0.15908554 0.061010793 0.012334784 0.032728806 -0.020436503 -0.7747979 -0.6849568
-0.65128714 -0.08433143 -0.04698097 -0.069272324 -0.46129528 -0.3092228 -0.6324284 -0.09783015
-0.05404875 0.058905415 -0.041288067 -0.10032184 0.10078275 0.013681026 0.078923956 -0.07204199
0.06813417 0.1310024 -0.09387874 -0.023227286 -0.100860596 -0.09157463 -0.17192791 -0.06850744
-0.33583185 -0.011468822 0.05108168 -0.028570151 0.003493301 0.021118376 0.00934478 0.049041767
-0.014643727 -0.06386681 0.051307194 0.07075922 0.040265784 -0.055493653 0.030217826 -0.050599065
-0.038434044 0.04771071 0.055877104 -0.25296345 -0.29720274 0.0023300461 -0.04460308 -0.023584174
0.12383255 0.29807457 0.21178079 -0.05912071 -0.1683223 -0.11415347 -0.002205755 0.07401085
0.06656011 -0.025712734 0.01751719 0.032936547 0.041313224 -0.0780222 0.0866534 0.005953808
0.09645271 0.12262806 0.027277192 -0.067106664 -0.09564452 -0.123342775 -0.012524523 0.04660932
-0.010877769 -0.05727094 -0.021609388 -0.05529707 -0.014171198 0.059602574 0.016847841 -0.25102678
-0.22867382 -0.14998677 -0.28004658 -0.20436388 -0.053695668 0.14427483 -0.062831305 -0.104531996
0.044401243 -0.009692114 0.027229674 -0.02423196 0.042279154 -0.012935642 -0.046927944 0.034694113
0.06521878 0.0045924434 0.18855646 0.020213228 -0.0864243 0.046157517 0.10585899 0.07399585
0.23514085 0.07140627 -0.041881382 0.0864852 -0.27462947 -0.088270046 -0.018936556 -0.19153142
0.057328507 0.20912814 -0.046305284 0.023501521 0.019871678 0.043101594 0.21115348 0.25479832
-0.087243095 -0.21394 -0.1848926 -0.088617526 -0.054535195 -0.0040868446 0.05438657 0.047827907
-0.06747087 0.062118977 0.066831544 -0.056247428 -0.016180579 -0.059167832 -0.05847174 -0.043843538
0.06249121 -0.00815358 -0.008703776 0.043305464 -0.0125792995 -0.04880881 0.057560787 -0.05448675
-0.015078284 0.028509714 -0.038551096 -0.053550087 -0.016717743 0.054982767 -0.02121383 -0.040164582
-0.0061963946 0.017229311 0.025244765 0.019553922 0.029981554 0.013333917 0.008555792 -0.017785072
0.072601765 0.024149051 -0.086384445 -0.07059526 0.20602521 -0.053051695 -0.04417309 -0.056965675
-0.05943096 0.18412931 0.24789752 -0.03790344 0.24736373 0.29348072 0.029210825 0.018133832
0.246598 0.042942397 0.07917896 0.0043626106 -0.047182508 0.22607602 0.24548936 0.35940254
-0.23651038 -0.16753839 -0.18137918 0.050978698 -0.036407646 0.017230473 0.03132444 -0.042922832
0.05725193 -0.07099404 0.04497219 0.03615377 0.081556134 0.0054946984 0.047764685 0.13192987

bias f4 [64]
00000000: 93fe 54bc b31c a2be 372a a43e 05ca 44bd
00000010: 5b8d 723e 29b0 0c3e f59b 8cbe fa06 16be
00000020: 573c 7bbe 4f42 1cbd 6f6e e13d 550f bb3e
00000030: af85 673e ff3a a1bd d02d e13d aebc 59be
00000040: b696 a4be 2145 3abe c708 8d3e feb9 d73d
00000050: 4bb8 29bf 1fda 85be 336d 62bd fb8b 943e
00000060: e8b9 96be da6d 6abe 87b9 383e 0706 863e
00000070: abd0 76be 9271 a43e 6ae1 db3c 243e 16bf
00000080: 1677 7dbe 053e 7b3d ab15 13be 6b03 373e
00000090: 6942 b9ba f4ff 89bd b7a1 503d ade7 8e3e
000000a0: 995c 403e 589b a8bc dfd9 33bf 7dd2 f5be
000000b0: fe83 ae3d 61ff 84be 6334 903e 3706 d6be
000000c0: d855 513e 5417 06bf 7231 16be b1bf c2be
000000d0: ca6b 77bd 41b3 c5be c45d b93d de27 133f
000000e0: 310d 943c a627 da3e b8f5 6dbe 0309 ab3e
000000f0: 318f babd ab2e 8e3e 26fa 563e db9a 363e
-0.013000148 -0.3166252 0.32063457 -0.048044223 0.23686735 0.13739075 -0.27462736 -0.14651099
-0.24534737 -0.038149174 0.11007392 0.36535135 0.2260959 -0.07872581 0.10995066 -0.21263382
-0.32146233 -0.18190433 0.2754576 0.10533522 -0.66296834 -0.26142976 -0.05527992 0.29013047
-0.2943871 -0.22893468 0.18039523 0.26176473 -0.24103038 0.32117897 0.026840884 -0.5868857
-0.24752459 0.061338443 -0.14363734 0.17872398 -0.0014134172 -0.06738272 0.050935473 0.2791113
0.18785323 -0.020581886 -0.7025432 -0.48012152 0.08521269 -0.2597609 0.28164968 -0.41801617
0.20442903 -0.52379346 -0.146673 -0.38036874 -0.06040553 -0.38613322 0.090510875 0.5748271
0.018072696 0.42608374 -0.23238266 0.33405313 -0.09109343 0.2776998 0.20993862 0.1783251

weight f4 [64]
00000000: 68ed 323f 55f3 b23e 3cd4 203f fd0b 893e
00000010: f83c a63e 38ed a93e a352 063f 5efd b73e
00000020: 722a ba3e 5943 ac3e a7e1 973e 5b3e c73e
00000030: 8245 a23e 12bd a73e 086e 263f 7c6e db3e
00000040: d1d0 c73e a7eb 9e3e 53f4 8b3e 4ae7 8e3e
00000050: d8e6 633e b180 0b3f 9adc e93e 7da3 923e
00000060: 35ed 513e 5dec a13e 159e b73e 6d61 a13e
00000070: 2473 d13e 6eb7 ae3e fb67 c63e 35c5 b43e
00000080: 7075 a23e 8cf0 a93e 24ba 253f b4f8 143f
00000090: fc13 c83e fbe3 ce3e 02cc 743e d1df 043f
000000a0: fd64 9d3e f351 d53e 0899 a43e 0f7c 973e
000000b0: 4b2b b03e 3ecd bf3e 9255 fb3e ff28 a73e
000000c0: e8ac bc3e f1a4 093f 6c70 903e 698a 2a3f
000000d0: 5f2d c03e f2f3 933e b10a ae3e c847 093f
000000e0: 0d29 703e 228d b23e e967 0d3f d428 c63e
000000f0: 3b2c 803e f641 9c3e 0236 d43e 1791 a33e
0.69893503 0.34951273 0.62823844 0.2676696 0.3246839 0.33188796 0.52469844 0.3593549
0.36360508 0.33645132 0.29664347 0.3891476 0.31693655 0.32761437 0.65011644 0.4285773
0.39026502 0.31039163 0.27334842 0.27910835 0.22256029 0.5449324 0.45676118 0.28640357
0.20500644 0.31625643 0.35862795 0.31519642 0.40908158 0.3412432 0.38751206 0.35306707
0.31730223 0.33191335 0.64737153 0.5819199 0.39077747 0.4040831 0.23905948 0.51904017
0.3074111 0.41664085 0.32148004 0.29586837 0.3440803 0.37461275 0.49088722 0.32648465
0.36850667 0.53767306 0.2821077 0.6661745 0.37534615 0.28897053 0.33992532 0.53625154
0.2345316 0.348733 0.5523668 0.38703024 0.25033745 0.30519074 0.41447455 0.31946632

bias f4 [64]
00000000: 50e4 e8be 8d56 f6be 8d60 b7be 6171 773d
00000010: d05c bdbd a344 90bd 6c30 f93c 24e9 cebe
00000020: eb66 edbd a0ad 00bf 0aee 8fbe d4bc dfbe
00000030: 07b4 afbe 7c74 cbbe a278 7abe b638 5dbe
00000040: 8594 cabe b6bd 24be d38a 88be 7444 2bbd
00000050: 07bc 8e3e 1e34 4a3d 9731 033e 9eb4 dcbd
00000060: 3041 2ebf f830 9cbe c0da 2b3e 667a 21bd
00000070: 41ae 0bbf 3623 2f3d 0e0f f2bb ea9c 43be
00000080: bc29 41be 49ac a7be ba81 8cbf 371c b7be
00000090: 4789 3ebe 33af 6bbe 8c9a 6fbd a57e 16bf
000000a0: b9d4 6ebe a47c 8ebe 66cc edbd 509f 0e3d
000000b0: f7da 013e ec5e 0ebf 749b 15bf de86 36be
000000c0: 9a45 ffbe 3e24 143e d84f 913d 31f9 5bbf
000000d0: b059 bd3c 2334 583e 0535 a0be 5b06 9cbd
000000e0: 2c39 3d3d 4fb8 c6bd 5b53 75be 31ac cebe
000000f0: 41c0 183d 02c6 0c3e 9946 2cbf 8100 bcbe
-0.4548669 -0.48112908 -0.3581585 0.06041086 -0.09246218 -0.070443414 0.030418597 -0.40412247
-0.11591896 -0.5026493 -0.28111297 -0.43698752 -0.34317037 -0.39737308 -0.2446008 -0.21603665
-0.39566436 -0.16087994 -0.26668414 -0.04181333 0.27877828 0.04936611 0.12811886 -0.107766375
-0.6806822 -0.3050611 0.16782665 -0.03942337 -0.54562765 0.04275819 -0.0073870486 -0.19102827
-0.18863577 -0.3274863 -1.097709 -0.35763714 -0.18607055 -0.23016052 -0.058496997 -0.58786994
-0.23323335 -0.27829468 -0.116112515 0.0348199 0.12681185 -0.5561359 -0.5844033 -0.17824885
-0.4985779 0.1446695 0.07095307 -0.8592711 0.023114055 0.21113639 -0.3129045 -0.076184
0.0461971 -0.09703123 -0.23957579 -0.40365747 0.037292723 0.13747409 -0.67295223 -0.36719134

running_mean f4 [64]
00000000: b2af 043f 0f3f d4be aefc 09bb 6bd1 ac3e
00000010: 0248 0f3f a2ca d8bd 819a 18be 8777 aa3f
00000020: f7ba 28bc 38c4 e03c a6e9 053d a714 763e
00000030: 98e7 4d3e 3902 c7be d97a ccbd 33f8 f4bd
00000040: faf8 69be 8d3c d3be 9130 3b3e dc65 493f
00000050: 6dde 08bf b2d4 b1bf b97f fb3e 44f0 263e
00000060: d786 b7bd e12d a8bc ee3c 8b3f 9ba8 51bf
00000070: b5d5 85bf 1987 aa3e 948f 833c 6ee8 a7bf
00000080: 9416 ecbe 6cbd 8abf 1b02 b0be e6e8 123e
00000090: 8054 4bbf bbc1 25bf 8a7a d73e d366 9f3d
000000a0: 85b1 9f3d 2c05 4a3d 064f 25bf 279c 223e
000000b0: ccee 3c3e 39bf 71bf 5753 bc3e 4fb1 20bf
000000c0: da45 9bbe c8cc 7ebf 7d13 c3bd 23d2 00bf
000000d0: 38f6 a7bc 0347 82bf 6b79 d23c dfac aa3f
000000e0: 3737 933d a078 d23e 6b1f 8c3e 1248 a8be
000000f0: 224c d3be ffd6 943d 895e 96bc 935c de3d
0.5183059 -0.4145436 -0.002105515 0.33753523 0.5596925 -0.10585524 -0.14902689 1.3317727
-0.010298482 0.027437314 0.032693528 0.24031316 0.20107877 -0.38868883 -0.09984369 -0.11961403
-0.22848883 -0.41257134 0.18280245 0.7867105 -0.53464395 -1.3893034 0.49120882 0.16302592
-0.089612655 -0.02052969 1.0877969 -0.81897897 -1.0455843 0.33306196 0.016059674 -1.3117807
-0.46110976 -1.0839057 -0.34376606 0.14346656 -0.7942581 -0.64748734 0.42085677 0.07783284
0.07797531 0.04932134 -0.64573705 0.1587988 0.18450469 -0.9443241 0.36782333 -0.6277055
-0.3032673 -0.9953122 -0.095252015 -0.50320643 -0.020503148 -1.0177921 0.025692662 1.3334006
0.07188266 0.41107655 0.2736772 -0.32867485 -0.41269022 0.0726757 -0.018355625 0.10857501

running_var f4 [64]
00000000: 51bb bd3d 5058 293d 4a0d 063e 1d34 933d
00000010: c4fd 413d 5df0 9d3d 71a9 8f3d 0f68 473d
00000020: 1484 893d af51 393d 324c 823c 2b57 cd3c
00000030: 5114 183d 5b00 263d 1c5c de3d 59d4 243d
00000040: 8d08 143d e4a2 3f3d 1dee 293d 656e af3d
00000050: d1ac 523d 77d1 bb3d 396b b93d 8a4f 503d
00000060: 9023 993c 818d 3b3d 5368 8f3d 977b 973d
00000070: 47e3 933d 4787 1d3d 6c2b 823d c678 813d
00000080: 3370 793d facd cd3d b247 7d3d e574 9b3d
00000090: 6b00 e33d f74d 2f3d 4f1c 383d ba41 433d
000000a0: 3e51 b13c 4ee2 4e3d cf00 8b3d d5c0 553d
000000b0: a5d4 983d 939d a73d 86ae 613d 423a 653d
000000c0: 0590 823d aa81 b43c 2e4b 6c3d e145 733d
000000d0: dd68 2b3d 53f5 a23d 570d f83c 2581 fc3d
000000e0: 7a2c dd3c f5d0 0f3d a2a6 803d 9cbb 5f3d
000000f0: 9c41 3a3d eef4 613d 859d 7e3c 9852 9b3c
0.092642434 0.041343987 0.13091007 0.07187674 0.04736115 0.07711861 0.0701474 0.048683222
0.06714645 0.045243915 0.015905473 0.025065979 0.03712875 0.040527683 0.10857412 0.040241573
0.036140967 0.046786204 0.04148685 0.08565978 0.05143434 0.091708116 0.09053654 0.050857104
0.018693715 0.045789246 0.0700232 0.0739662 0.07221084 0.03845909 0.06355938 0.06321864
0.060898017 0.100490525 0.061835952 0.07590655 0.11084064 0.042798962 0.044948872 0.047670104
0.021645185 0.05050879 0.067872636 0.052185852 0.07462434 0.08184352 0.05509808 0.055963762
0.06375126 0.022034485 0.057688884 0.059392814 0.041848052 0.07956948 0.030279798 0.1232932
0.026998747 0.035111386 0.06281783 0.054622278 0.045472726 0.055165224 0.015540485 0.018960282

weight f4 [64, 64, 3, 3]
00000000: 5087 b73e 5624 903d 52cc 393d 92f9 46be
00000010: a0e4 12bd 448d a9bd ae22 92be 2a59 9dbe
00000020: c024 4cbe 16d3 3b3d 6f16 0bbe de04 dbbd
00000030: bcaa 803d ede1 08be c6e9 25bd fe2d 163e
00000040: bd02 40bd f476 34be 023e a13c bd6e 293e
00000050: 2999 ecbd d4ef 76bd 5449 4f3e 3941 dbbd
00000060: 7f6c 623e df5b 06bb 4aa2 b9bb 63bc 71bd
00000070: 7252 793e 4b25 a53d 3396 85bd 9a88 a9be
00000080: 804b 8cbe 02af 6e3c 2d69 cfbc 2673 ca3d
00000090: 3f0e a7bc 8237 0b3f 1ba0 6fbe cf26 a93e
000000a0: ce70 663e 8f8d 88be 476a 8fbd ea98 4fbd
000000b0: fea5 b9bd b1cc 76bc 98c6 d13c deee f3bc
000000c0: e8ed 3a3e f736 95bd 6701 5e3e 818e 20be
000000d0: ce6c 303d 0e69 8abd 62f0 023d e7c3 e63d
000000e0: 53ba 983d 751e c2bd fab2 bebd 0897 22be
000000f0: 1a6c 05be 45c5 153a 22df 3abd b58e d1bd
00000100: ef70 41be 684b 003e e4e4 243d 686b bd3d
00000110: d6d4 e8be 040c 023c 50ca 053f 4b89 883d
00000120: f0cd fabd b8b5 f6bc 34db 183d b27d 73bc
00000130: a503 ebbd 3ae2 0b3e d50a 7dbe 8311 9ebd
00000140: dbbf 23bd 19ba 843e 3e49 b33e 7c11 92bd
00000150: d09b 093e 546a 96bf 70df 903e 19f9 8a3e
00000160: b8d8 293f ec89 adbe cb58 c2bd ad5a 2cbd
00000170: e696 7f3e 33b2 f0bd c3fb 02be 5071 8e3e
00000180: 0348 5bbd fbf8 47be ba83 a03d a35d 643c
00000190: e76a bc3e 9685 fcbc ebf9 bdbd 1c30 8ebd
000001a0: dc41 c4bb 5a89 273c f822 ecbd c99e f43c
000001b0: 83f8 b63e 01b2 8bbe 39ed 36be 1260 b73e
000001c0: 9de1 6bbd 515d 11be e6c3 613e c0a4 e5bd
000001d0: d027 35be 6a51 cfbd 789b d8bd 73b1 99bd
000001e0: fca2 563d 09c5 c63e e2f7 f2b9 2bf5 bbbd
000001f0: b002 703d ede0 1bbe 7689 f5be d593 4a3d
00000200: 8481 363d ab49 bbbe 6795 8e3e 6027 303e
00000210: 6397 bbbe d3ea f43d 4b27 873d 94f6 ae3d
00000220: 59f6 883d c811 f73a 1866 2bbe 5aab 9abd
00000230: 70f9 f9bd e569 8b3e 3714 7b3e eed7 04be
00000240: 216c b6bd 46f8 db3e 38dc 2a3e b67d 4e3d
00000250: 856b 67be ed4f df3d be12 08be 50ba 56be
00000260: 9fc3 77bd 1b13 a5bc ae85 d9bd 6951 cc3d
00000270: 6373 22be fee1 3bbe fc16 6a3e 1b72 01be
00000280: b37c 09be 6a5d 323e 2d47 5e3d b3a9 ba3c
00000290: bee5 c63d 902d 63bd 7b5f 02be 8679 503d
000002a0: 2ecf 01bd 5a3c c73d 5128 75bd 4791 27bd
000002b0: fb5c cf3c 4f92 8d3d 73b8 d2bd 6f2c 1bbd
000002c0: fdf4 cdbe 79d7 3ebc c1b0 2bbd d0e7 3eba
000002d0: 65ff 313e c727 ccbe 6e61 1f3d b448 debd
000002e0: 8b21 593e 7898 2cbe b60c 4ebe 5cf8 0bbd
000002f0: 2f44 7fbd c716 1e3d 4299 333e 8cd0 3b3e
00000300: 98f6 d93d f33b b4bc 8001 cabe c4fb 10be
00000310: 4d35 76bc 6449 d73d 13e3 9cbc f618 c8be
00000320: fa1a 6c3e 5b39 c83d 2566 8d3e a17c 02be
00000330: f67f 573e 8f42 95bd 773c b1bc 8c2e d6bc
00000340: 3ff8 d4bd fa51 d4bd a042 70be 2c14 85bc
00000350: 1173 0dbd 2586 553e f670 f63d c010 4ebe
00000360: a6ce f6bc d307 f73d 8f1c ccbd 051b 1abe
00000370: d60b 30bb b017 2a3e 4212 bd3d 6027 17bd
00000380: 1155 723b 0cf7 e03d 6be8 ba3d 1d61 883e
00000390: 75aa 6a3d cc8c 1ebe 3109 33be a1c7 823d
000003a0: cd5f 30be 300f 103d 71cd c93d 4258 173e
000003b0: c801 d33d 6575 b33c 8ca7 673d 9885 d83c
000003c0: 4a68 97bc bc50 903b 6d10 ae3d 43aa a9be
000003d0: d512 95bd 7fdc 90bd 1ea2 abbd 1d3f b2be
000003e0: 19c3 173e a836 0cbe 1ac6 febb c292 1fbe
000003f0: af70 34be f328 38be 1e13 0dbe 2731 43be
0.35845423 0.070381805 0.04536087 -0.19431141 -0.035862565 -0.082788974 -0.28542084 -0.3073209
-0.19935894 0.045855604 -0.13582776 -0.10694288 0.06282565 -0.13367434 -0.040506147 0.14665982
-0.04687761 -0.17623502 0.019682888 0.1654615 -0.115526505 -0.06028731 0.20242816 -0.107057996
0.221117 -0.0020501537 -0.0056650983 -0.05901755 0.24347857 0.08063754 -0.06522789 -0.3311203
-0.27401352 0.014568092 -0.025318706 0.09885244 -0.020392535 0.54381573 -0.23400919 0.3303742
0.22503969 -0.266705 -0.07002693 -0.05068294 -0.090648636 -0.015063451 0.025607392 -0.029776987
0.18254817 -0.07285874 0.21680222 -0.15679361 0.043072514 -0.06758319 0.03196753 0.11267834
0.074574135 -0.094784655 -0.09311481 -0.15877926 -0.13029519 0.00057132944 -0.045622952 -0.10232297
-0.18890737 0.12528765 0.04025735 0.09249002 -0.4547488 0.007937435 0.5226183 0.066668116
-0.12246311 -0.030115947 0.037318423 -0.014861511 -0.114753045 0.13660517 -0.24711163 -0.07718184
-0.03997789 0.2592323 0.35016817 -0.07132241 0.13438344 -1.1751199 0.2829547 0.2714317
0.6634631 -0.3389429 -0.09489592 -0.042078663 0.24959907 -0.11752739 -0.12791352 0.27820826
-0.053535473 -0.19528572 0.07837625 0.01393834 0.3680031 -0.030825417 -0.09276184 -0.0694277
-0.0059892964 0.010225618 -0.11530107 0.02986087 0.35736474 -0.27284244 -0.17863931 0.35815483
-0.05758821 -0.14195754 0.22047386 -0.11213064 -0.17690969 -0.101229504 -0.10576528 -0.07504549
0.052401528 0.388222 -0.00046342524 -0.091776215 0.058596313 -0.15222521 -0.47956437 0.04945739
0.04455711 -0.36579642 0.2784836 0.1720252 -0.36638936 0.11958852 0.065992914 0.08543125
0.06687612 0.0018849904 -0.16738164 -0.07552214 -0.122057796 0.2722923 0.2451943 -0.12972996
-0.08907343 0.42962855 0.1668557 0.050412856 -0.22599609 0.109039165 -0.132884 -0.2096951
-0.060489293 -0.020150712 -0.106212005 0.09976465 -0.15864329 -0.18347928 0.2286033 -0.12641184
-0.13426475 0.17418447 0.054267097 0.022785997 0.097117886 -0.055463374 -0.12731735 0.050897144
-0.031691723 0.09728308 -0.0598529 -0.04091003 0.025312891 0.06912672 -0.10289087 -0.037884172
-0.40225974 -0.011648052 -0.041916613 -0.00072824676 0.17382582 -0.39874098 0.038911276 -0.10853711
0.21204202 -0.16855037 -0.20122036 -0.0341724 -0.062320884 0.03859594 0.17538932 0.18341273
0.10642737 -0.022001242 -0.3945427 -0.14158541 -0.015027356 0.10512045 -0.019151246 -0.39081544
0.23057166 0.09776565 0.27616993 -0.12742855 0.21044907 -0.07288086 -0.021635277 -0.026145242
-0.10398912 -0.10367198 -0.23462915 -0.01624497 -0.034533564 0.20851953 0.12033264 -0.20123577
-0.030127835 0.12062039 -0.099663846 -0.1504937 -0.0026862524 0.16610599 0.09231998 -0.036902785
0.0036976973 0.109846205 0.091263615 0.26636592 0.057291467 -0.15483397 -0.17483975 0.063857324
-0.17224045 0.035170734 0.09853638 0.14779761 0.10303074 0.021906564 0.05655627 0.02643089
-0.018482346 0.0044041555 0.08499227 -0.33137712 -0.072789825 -0.07073306 -0.08380531 -0.34813777
0.14820518 -0.13692725 -0.0077750804 -0.15583327 -0.1762111 -0.17984371 -0.13776824 -0.19061719

bias f4 [64]
00000000: 179f d43e 17d7 8bbe dbaf 223e a139 3fbe
00000010: d9cf 9fbc 1807 b7be c2e9 593d 040b 24bc
00000020: 4082 8dbe 38e4 1f3e 8d91 26bd 01cb f13d
00000030: 84e4 5cbd 7f40 f13d 8d8b 913e 52ce 3fbd
00000040: 0f0e ae3e a9a1 22be e45c 413d 7519 29bd
00000050: 8b05 59be 09f1 1c3e a6ec 3bbe 102e 123e
00000060: 15ad 993e d0ff ba3d 9296 5ebe 7a94 67bd
00000070: 1692 3a3b b79f 493d b3bb 85bd 6503 89be
00000080: f5f4 98be baba 9a3d 1dc0 f4be 2b14 70be
00000090: 630b 553e 5f56 a2bd 03d5 473e d9d5 1f3e
000000a0: e2e3 1f3e 9352 3abe dae9 7abe 382d 0dbf
000000b0: 78aa 223c 4437 523d fcee febd 8ccf 423e
000000c0: 2523 9e3d de5f 07bf eaa1 cbbd f403 21be
000000d0: e329 20be 8be9 5ebe e033 c0be 6cc9 5abe
000000e0: 3557 f1bd e687 dcbe 4df2 733e cf93 d03e
000000f0: a2c9 ef3d eb05 a93d e50e 42be d5f0 803e
0.41527626 -0.27312538 0.15887396 -0.18674327 -0.01950829 -0.357476 0.053201444 -0.010012392
-0.27638435 0.15614402 -0.04066615 0.11806298 -0.053928867 0.1177988 0.2842678 -0.04682762
0.339951 -0.15881981 0.047207728 -0.041284043 -0.2119352 0.15326323 -0.18351993 0.14275384
0.30014864 0.091308236 -0.21737126 -0.056538083 0.0028468422 0.04922458 -0.065299414 -0.26760402
-0.29874387 0.075551465 -0.4780282 -0.23445193 0.20805125 -0.0792663 0.19514851 0.1560892
0.15614274 -0.18195562 -0.2450327 -0.55147123 0.009928338 0.051322237 -0.124479264 0.19024485
0.07721547 -0.52880657 -0.09942992 -0.15724164 -0.15640979 -0.21768777 -0.37539577 -0.21365899
-0.117842115 -0.43072432 0.23822899 0.4073777 0.1170838 0.08253082 -0.18950994 0.2518374

weight f4 [64]
00000000: 75a5 193f 0a87 ea3e 576a 063f d4d3 a43e
00000010: a0bf 2c3f 8b53 ee3e 48b0 9e3e 04fb 3e3f
00000020: 0ba1 1f3f 0dd7 023f 6e64 3e3f 02c6 b03e
00000030: e963 2b3f ff65 553f d1e5 b73e 2dec 983e
00000040: 9717 dc3e 413a 233f 02fd ab3e 7613 bb3e
00000050: 98d0 b23e d868 a43e 0cb3 9d3e 74e3 c73e
00000060: e991 023f 1527 1b3f 270c 983e 9a74 3a3f
00000070: b599 153f 9156 f23e 70c6 fc3e e877 db3e
00000080: 54cc e23e 929c c33e 9a21 b63e ad89 ee3e
00000090: 2aaa c23e 8fc5 243f ce8a 023f e86b 263f
000000a0: ebb0 903e 42b7 e43e 2cb8 c4be 4e2c 1c3f
000000b0: 610a f43e d10b 263f 21f0 403f abd8 bc3e
000000c0: 617e 2f3f 5ba3 bd3e a30a 083f 2c6f a93e
000000d0: 8551 2e3f ffa6 373f 9ab5 ca3e 874a 1f3f
000000e0: e81e bc3e 9b35 f83e b0b7 ab3e 4e91 303f
000000f0: e797 503f 321b a83e 21d8 2f3f 5450 133f
0.6001809 0.45806152 0.5250601 0.32192862 0.67479897 0.46548113 0.30993867 0.7460177
0.6235511 0.5110939 0.74371994 0.34526068 0.66949326 0.8335876 0.35917524 0.29867688
0.42986748 0.63760763 0.33591467 0.36538285 0.3492477 0.3211124 0.30800664 0.3904072
0.5100389 0.6060651 0.29696772 0.7283417 0.58437663 0.4733167 0.49370146 0.4286492
0.44296515 0.3820539 0.3557251 0.46589413 0.3802045 0.6436395 0.5099305 0.650084
0.28259978 0.44671065 -0.38421762 0.61005104 0.47664168 0.6486178 0.7536641 0.36884055
0.68552214 0.37038693 0.5314123 0.3309263 0.6809314 0.7173919 0.39591676 0.62223095
0.3674233 0.48478398 0.3353858 0.6897172 0.81481785 0.32833248 0.6868916 0.57544446

bias f4 [64]
00000000: 471f 81bf 6596 413e dcd2 7abe a4aa a5bd
00000010: b74a 34be eb26 18bf 25c4 1a3b a4a6 8cbe
00000020: 31fa b3be 6ca7 2cbf d589 afbd ac3e 84be
00000030: 82e4 23be 11e3 16bf 50c7 02bd f712 00be
00000040: 2d48 cebe f21d 083e 2dc7 8f3d 2af0 a33c
00000050: e476 6fbe 256b a83e e4ca 133f cf0d 93bd
00000060: 14f9 533d 5e9b 2fbd c4af 443e 80ee 96be
00000070: 8e5e f1be a1a0 55be ca8b 3abf c6bb 78be
00000080: 1900 c3be 1237 93bd acd7 a5be 5c44 3e3d
00000090: 152d 073f f164 89be 4a20 24bd 826e 95bf
000000a0: 68a1 843e 5f1e ddbe d61b 8cbe 8e1d d33d
000000b0: 2854 a2be f0b0 7ebf 8ce1 55be 8839 7d3e
000000c0: 1bb6 ddbe 91f7 75be ac4c bdbe 3b1e a7bd
000000d0: 488a e8bc 1166 11bf d636 b2be 9e07 01be
000000e0: b4a2 c8be a9ea 78bd 24f3 59be e018 01bf
000000f0: ba53 f9bd fb89 38be c9ad fabe 8f9a 1ebf
-1.008767 0.18905027 -0.24494499 -0.08089188 -0.17606626 -0.59434384 0.0023615446 -0.27470887
-0.35151818 -0.67442966 -0.08571211 -0.25829065 -0.16005138 -0.58940226 -0.03192836 -0.12507235
-0.4028944 0.13292673 0.07020412 0.02001198 -0.23385197 0.32894245 0.5773146 -0.07180368
0.05175121 -0.04287278 0.19207674 -0.29478836 -0.47142452 -0.20862056 -0.7286955 -0.2429038
-0.38086012 -0.07188238 -0.32391107 0.04645191 0.52803165 -0.26834825 -0.040069856 -1.1674349
0.25904393 -0.43187234 -0.27364987 0.103083715 -0.3170483 -0.99488735 -0.2088682 0.24728978
-0.43302998 -0.2402022 -0.36972558 -0.08160063 -0.02838625 -0.56796366 -0.34807462 -0.12600562
-0.39186633 -0.060770664 -0.21284157 -0.5042858 -0.12174173 -0.18021385 -0.48960713 -0.6195459

running_mean f4 [64]
00000000: 7f9e eb3d fbfa c8bf d52f 9abf 267a 3cbe
00000010: bec8 17bf f2c9 8dbf efba ee3f e226 1abf
00000020: 3233 89bf 96ce b1bf a908 c9bf 817b 74bf
00000030: 3f9a 11bf 7c50 52bf 7cd7 3b3e b1f2 b93e
00000040: 3624 cabe cbbc 8ebf c9fd 2dbe 95cf 293f
00000050: 1f20 1f3f 904c 043f 6fd4 6ebf a342 4c3e
00000060: c002 0fbd 6b9b cd3f bc08 0ebf 326e 87bf
00000070: fed8 a9be cca5 86bf dd4f 693f fbe9 a2bf
00000080: c343 1e3e e045 3fbf d791 c03e 48d7 9cbe
00000090: 5824 293e 6927 57bf a18f 0240 7e36 18bf
000000a0: 774d 6ebf b11c b43f 8db2 6b3e 0a44 ad3f
000000b0: 3a91 47bf c3bb a53f 8d69 ffbd 6302 87bf
000000c0: bfc6 81bf 1088 e4bf 1ee2 7fbf db7a 36bf
000000d0: 1118 fbbf ad22 113f a8cd b7be d676 a2be
000000e0: 2e6a 3fbe 130d bbbf 8c19 90be d622 21bf
000000f0: 389a b83f 7e4d b63e df57 633e c320 0b3f
0.1150484 -1.5701593 -1.2045847 -0.18405971 -0.59290683 -1.1077254 1.8650798 -0.6021558
-1.0718749 -1.389117 -1.5705768 -0.9550095 -0.56875986 -0.8215406 0.1834392 0.3631797
-0.39480752 -1.1151365 -0.16991343 0.6633237 0.6215839 0.51679325 -0.932929 0.19947295
-0.034914732 1.6063055 -0.5548208 -1.0580504 -0.33173364 -1.0519347 0.91137487 -1.2727655
0.15455537 -0.74715996 0.37611267 -0.30632997 0.1651777 -0.8404451 2.0400164 -0.5945815
-0.9308695 1.4071256 0.2301733 1.3536389 -0.77955973 1.2947925 -0.12471304 -1.0547603
-1.0138777 -1.7854023 -0.999544 -0.7128121 -1.961672 0.56693536 -0.3589909 -0.3173129
-0.18692848 -1.4613365 -0.2814449 -0.6294378 1.4422064 0.35605997 0.22201489 0.54346865

running_var f4 [64]
00000000: 4b83 7b3e 9a39 673f 64c4 0440 5f09 6a3f
00000010: 8e42 f13f 3197 7e3f 3f83 1d3f 74ff 973f
00000020: bbdc 7b3f fb91 763f 050a bb3f 1c9c bd3f
00000030: f535 8a3f 832d ef3f 9d1e 9a3f 541d 3a3f
00000040: 0575 1e3f 3ec1 d13f 397f 853f d87c 3b3f
00000050: b6dd 8b3f 16a8 403f 8c07 803f 7ac9 5f3f
00000060: 4c86 a63f 9778 f73f 7c18 543f bdd7 983f
00000070: 50d8 643f 9100 0340 a4b4 463f 87b7 973f
00000080: a8aa 243f 7a59 903f bb8d 523f ea0b 9c3f
00000090: c86f ae3f 1eaf e83f 99e9 af3f 94ca 293f
000000a0: 63f2 c03f 90e2 d03f 70d2 3d3f 80d4 ad40
000000b0: b537 553f c186 493f 3abe 5640 83b1 af3f
000000c0: 7577 ca3f ab68 393f 1419 d53f cbef 713f
000000d0: a042 0240 0acb 0840 b143 fe3e e647 b63f
000000e0: 3a65 f03e 4eb9 953f 561b b03f 3074 f93e
000000f0: 18a5 9b3f a829 1f3f 386d a83f 5fb4 4d3f
0.24561803 0.9032227 2.0744867 0.9142055 1.8848436 0.9944945 0.6152839 1.1874833
0.9838368 0.963165 1.4612433 1.4813266 1.0797716 1.8685764 1.2040592 0.72701
0.6189731 1.6387098 1.042945 0.7323737 1.0927036 0.7525648 1.0002303 0.87416804
1.3009734 1.9333676 0.8284986 1.1940838 0.89392567 2.0469096 0.77619386 1.1852883
0.643229 1.1277306 0.82247514 1.2191136 1.3627863 1.8178442 1.3743163 0.66324735
1.507397 1.6319141 0.7414923 5.43219 0.8328813 0.78721243 3.3553605 1.3726047
1.5817705 0.72425336 1.6648278 0.9450652 2.0353165 2.1373925 0.4966102 1.4240692
0.4695223 1.1697176 1.3758342 0.48721457 1.2159758 0.6217294 1.3158331 0.8035335

weight f4 [64, 64, 3, 3]
00000000: 795e 773d 30a8 0d3d d4a8 323e ea57 4dbe
00000010: d1dc 91be 3891 b7bf b8ba 5fbc 0861 333b
00000020: f96a 83bf 0680 34be 657f f23d 4a94 2d3e
00000030: c9f9 cfbd 6ed7 7d3d 8d4e ae3d 0b96 c4bd
00000040: aca3 093c c87b 3dbe a361 a5bd 6388 94be
00000050: e0ed 89be bdb1 83be 3e04 87be 4ea7 21be
00000060: f707 3b3e 05b3 38be c6db c7be fbe4 84bd
00000070: 3339 b7bc fd49 3abe 2fc0 c1bd e526 30be
00000080: b36e 83bd 687a a7be 5bdb cebe 7131 d33d
00000090: 76db 0ebc 2528 b4bd ae68 9dbe f637 8e3c
000000a0: d6f6 fa3d 38be 113e 19d0 0fbe 51ed 9dbe
000000b0: f558 a4be 448d be3c cb57 473e f067 65be
000000c0: f5ed f53c bf11 8dbb 6641 1bbd 7da1 0a3e
000000d0: 8d51 f53d 90b7 cc3d 2ea8 8d3d 0521 143d
000000e0: 1a1a 8c3e 89e3 8abe 130f 15bf fbb1 39be
000000f0: f8e5 d0bd 425c b83d 2df6 3c3c b300 6f3e
00000100: b067 b03d b741 9ebc 2a01 443e 10e1 8a3e
00000110: a626 0cbe 2fe1 84be e75e cb3b 6da8 fc3d
00000120: 9c44 a1be b824 0cbe 5583 23be 3d14 e0be
00000130: 18f7 d8bd 3621 c6bd 9954 1dbf 1e43 d9be
00000140: dba5 e8be 883b 42be b94b 6b3d ed96 e63e
00000150: a6e8 86be 1679 88be 5d77 1c3e a346 91be
00000160: 420d e1bd d13c 303d 2f6d 293e b9b8 9cbe
00000170: dd2c ca3d d701 8abd 041e eb3c 3fda f1bd
00000180: b4a7 543e b2a8 513e 9d73 0abe ce65 823d
00000190: ee14 9abe 6b69 7d3e 267f 77be f7d6 cdbe
000001a0: 0e54 03be 64b4 083e 4ff9 de3d 70a8 01bd
000001b0: 8a68 093e 2493 63be 0cb4 be3b 25ff dc3d
000001c0: a04f b63d 5756 07be 2597 21be 157e c0bd
000001d0: 0a73 ad3d aa43 26be cc0f 4b3d 56f6 523e
000001e0: 9e97 b83d cf59 68be 33c5 403e de8d eb3c
000001f0: ad78 eabd 2e9d 453d 72f9 a1bd 896a a1be
00000200: 992d 0bbf 9f1e d13e 5734 b63c 1905 083e
00000210: 3a30 6cbd f3b1 05bf cf89 5d3e 1c90 84be
00000220: afa9 97be cf8e c83e 6695 1a3e e830 e9bd
00000230: 4118 e8be 9b3b 333e 0b81 333f d04b 03bf
00000240: a87f b73e 716c 15be 37ee 85be f4bf 283e
00000250: f968 49be f4c6 7ebe 7dde cd3e ab63 8dbe
00000260: 8c7e 4ebe 4ab1 ba3d 20c7 61bd f559 d43e
00000270: 9a22 9c3d a1b6 6dbc 9710 713e 62a0 87be
00000280: 9dcf 493e a7f7 be3d 87a3 00be 59ce f0be
00000290: 4363 233b fee7 8cbe 1b96 44bf b0cc 80bf
000002a0: ceef 983d 343c 8dbe 8968 80be 415e 373e
000002b0: b773 cb3d cc03 b3be 2bb3 763d 6641 103e
000002c0: eec4 863d 7a88 4abe cc80 81be b8a3 15be
000002d0: 15aa 8f3d 9d9c 63bd 984e 863c c0d3 993e
000002e0: b987 c9bd 1bb4 793e e3bb c23e 1fb3 d9be
000002f0: 0840 08bd 8aaa 2ebe 5559 463d 3f63 573e
00000300: 1fa7 5b3e 8371 46bd 208d 313e bedc e53d
00000310: 12d2 183c d1cd dfbd 6f06 81be c6ad a6bd
00000320: c7a7 5ebe 47b6 dfbd 2a29 083e 9f61 8b3e
00000330: 0087 48be 1d6f 263e bc46 2b3e 1176 f43d
00000340: 4e1a 743e 7f46 bf3e 3d1f babe 7f1f c73d
00000350: 8157 cabd 2187 8abd d0b4 943e 2e57 843e
00000360: 3624 f43d b55d 3abd 7eea 413d 3371 b4bd
00000370: fc5d 2c3a 48b9 843d 5b14 90bd 1c98 72be
00000380: 3790 61be 34c9 d5bd ae8c 5cbe 5645 1abf
00000390: 950b 7a3c 0500 b23b 3f22 9abe 91e3 0a3d
000003a0: a41b f5bd 148c 04bf e7ba 5cbe 8716 42be
000003b0: c1c8 0f3d 3443 603e 19c0 e5bd a53d 223d
000003c0: 15de 863e d025 f6bd d1cc 033e adc3 2fbe
000003d0: c2cf 843d 44f7 2e3e cc18 6fbe cabb 0d3e
000003e0: d1a9 033c f20b 7c3e 6559 13be 7340 823e
000003f0: 4456 013f dfbc 2b3e 6e46 a73e e197 283d
0.06039283 0.034584224 0.17447215 -0.20053068 -0.28488782 -1.4341192 -0.013655357 0.0027371068
-1.026702 -0.17626962 0.11840705 0.16951099 -0.101550646 0.061973028 0.08511076 -0.09598931
0.008400839 -0.1850425 -0.08075263 -0.29010305 -0.26939297 -0.2572154 -0.26370424 -0.15786478
0.18264757 -0.1803704 -0.3903486 -0.06488987 -0.022366142 -0.18192287 -0.09460484 -0.17202337
-0.064175986 -0.32710576 -0.4040173 0.103121646 -0.008719316 -0.087967195 -0.30743927 0.017360669
0.122541115 0.14232719 -0.14044227 -0.3084512 -0.3209912 0.02326072 0.19467084 -0.2240293
0.030020693 -0.004305094 -0.037904166 0.13538165 0.11978445 0.09995949 0.06916843 0.036164302
0.27363664 -0.2712672 -0.58226126 -0.181343 -0.10200113 0.09001972 0.011533302 0.2334011
0.08613527 -0.019318445 0.19141069 0.27124834 -0.13686618 -0.2595305 0.0062063816 0.12336812
-0.31497657 -0.13685882 -0.15968068 -0.4376544 -0.105940044 -0.09674303 -0.6145721 -0.4243402
-0.45439038 -0.18968022 0.05744526 0.45037022 -0.26349372 -0.2665488 0.15279908 -0.28374204
-0.10988857 0.04302675 0.16545556 -0.30609682 0.09871838 -0.06738632 0.028700836 -0.11809205
0.20767099 0.20474508 -0.13520665 0.06367074 -0.30094093 0.24747245 -0.24169597 -0.40203068
-0.12825033 0.13350064 0.108873956 -0.031654775 0.13418785 -0.22224098 0.005819803 0.107908525
0.08901906 -0.1321653 -0.15780313 -0.09399048 0.084692076 -0.1623675 0.049575612 0.20601782
0.09013294 -0.2269051 0.18825226 0.028754171 -0.11448798 0.0482456 -0.07908906 -0.31526592
-0.5436645 0.40843675 0.022241754 0.13283195 -0.05766318 -0.52224654 0.21634601 -0.25891197
-0.29621646 0.39171454 0.15096053 -0.11386281 -0.45331004 0.17503206 0.7011878 -0.51287556
0.3583958 -0.14592148 -0.26158306 0.16479474 -0.1966895 -0.24880582 0.40208808 -0.27615103
-0.20165461 0.091158465 -0.05512154 0.41474882 0.07623787 -0.014508874 0.23541485 -0.2648955
0.19708104 0.0932458 -0.1256238 -0.4703243 0.002493099 -0.27520746 -0.7679154 -1.0062466
0.07467614 -0.27584994 -0.25079754 0.17907049 0.0993418 -0.34963834 0.06022946 0.14087448
0.0658053 -0.19778624 -0.25293577 -0.14613235 0.070148624 -0.05556928 0.016394898 0.30044365
-0.0984034 0.24385111 0.3803397 -0.4251947 -0.03326419 -0.17057243 0.048425037 0.21033953
0.2145047 -0.048448097 0.17338991 0.11223744 0.009327428 -0.10927928 -0.2520022 -0.081386134
-0.2174369 -0.109234385 0.13296953 0.27222916 -0.19582748 0.16253324 0.16726202 0.11936582
0.2383816 0.37358472 -0.36351958 0.09722804 -0.09879971 -0.06764055 0.290442 0.25847763
0.11920969 -0.045499522 0.04734277 -0.088106535 0.0006575284 0.06480652 -0.070351325 -0.23690838
-0.2202767 -0.10438767 -0.2153804 -0.6026205 0.01526155 0.0054321312 -0.30104253 0.03390843
-0.11968163 -0.5177624 -0.21555673 -0.18953906 0.035103563 0.21900636 -0.1121828 0.03960957
0.2634131 -0.12018931 0.128711 -0.17164488 0.06484939 0.17086512 -0.23349303 0.13841167
0.008036093 0.24613932 -0.1438957 0.25439796 0.50522256 0.16771267 0.3267092 0.041160468

bias f4 [64]
00000000: 78c3 70be a034 a63c 9eac 76bd 270c f63b
00000010: 72a5 b6bc f8b2 48be 7d43 fdbb 0685 3e3d
00000020: 9b9c 95be 390e 7c3e a239 80bd 2bf2 e0bd
00000030: 51fb 353e a80e 3abe 7f74 743e 1343 8f3e
00000040: 95a4 fa3e 3f12 8cbc 18ec 813d 927e 83be
00000050: baa9 a53c e8f4 9d3e d4fa b0bd 43db 853e
00000060: ed63 3dbe c680 993c 916d 82bd 6ec3 0dbe
00000070: 785c 0b3d 080b 8c3e fba0 003e a94b c9bd
00000080: b154 e03d ba7a 1abe 4b51 ffbc 5919 3fbe
00000090: 16d5 0abe 93e3 4f3e d557 cc3c a1f7 153c
000000a0: e044 b73c a098 17be 4a18 90bd 00d5 0e3d
000000b0: b7f1 d13d 1f04 9a3d 8e98 85bd c497 efbd
000000c0: 5a6e 84be 1fbb aabe 9a41 31be 7f09 d23d
000000d0: 2d90 453e e542 073e abed 813d e089 e4bd
000000e0: aea3 0ebe a71e d1bc d83a 1b3d 0b1d efbd
000000f0: 7ece 79be 8832 82be dda4 a93b 702a 99be
-0.23512065 0.020288765 -0.060223214 0.007508773 -0.022295687 -0.19599521 -0.0077289925 0.04651358
-0.29221043 0.246148 -0.062609926 -0.1098369 0.17771651 -0.18169653 0.23872565 0.2798086
0.4895369 -0.017098544 0.063438594 -0.25682503 0.020222533 0.3085091 -0.08641592 0.26143846
-0.1849515 0.018738162 -0.063685544 -0.13844082 0.034023732 0.27352166 0.12561409 -0.09828884
0.109536536 -0.15085879 -0.031166693 -0.18662013 -0.13557848 0.20301656 0.024944225 0.009153278
0.02237171 -0.14804316 -0.07035883 0.0348711 0.102511816 0.07520317 -0.06523238 -0.11698869
-0.25865442 -0.33345887 -0.17310181 0.102557175 0.1929328 0.13209112 0.0634416 -0.1115911
-0.13929626 -0.025527311 0.037897915 -0.116754614 -0.24395177 -0.25429177 0.005177124 -0.2991519

weight f4 [64]
00000000: 740a ae3e d0f5 f03e 78f5 bc3e 5442 9e3e
00000010: 6488 443e 538d e03e 4dd9 893e 2608 053f
00000020: deba a53e a910 323e 43ae 993e 5b83 b83e
00000030: 78b0 1d3e 7021 c93e 7770 2f3f 76a0 ac3e
00000040: 69e3 053f 25d9 9e3e 3112 a43e bdf9 e53e
00000050: b9d4 533e 9c5b d13e 9a0d 8c3e e50b 433e
00000060: aae2 853e 86b8 3a3f 3c37 803e fa93 be3e
00000070: 9971 f93e c40a 1f3f bb29 953e a9a1 503e
00000080: 5950 1b3f 9e30 933e 9bc1 7c3e 06d4 f23e
00000090: 840c d03e 8293 943e 67fc 213f 5570 7e3e
000000a0: 2a6a db3e e969 dc3e 339d 0f3e a7d7 693f
000000b0: 5b79 693e ecfd d03e cd79 033f 84e5 cb3e
000000c0: d63c da3e d2d0 d63e 8993 553f d857 d53e
000000d0: 8739 363e 18cb f23e bc82 bd3e 2290 ec3e
000000e0: 8fae 853e 99fa 0d3f baaa 463e da3a 333e
000000f0: 1c25 d53e 53ad d13e 6c4c 323f a47f f03e
0.3399235 0.4706254 0.36906028 0.3090998 0.19192654 0.43857822 0.269236 0.5196556
0.3236913 0.17389168 0.30015764 0.36037716 0.15399349 0.39283323 0.6853098 0.33716172
0.52300125 0.31025043 0.3204513 0.44917098 0.20686616 0.40890205 0.27354127 0.19047506
0.26149493 0.7293781 0.2504214 0.37222272 0.4871948 0.621258 0.291334 0.20374168
0.60669476 0.2874803 0.2468323 0.47427386 0.4063455 0.2901879 0.6327576 0.24847539
0.42854434 0.43049553 0.1402481 0.91344684 0.228002 0.40818727 0.5135773 0.39823544
0.4262454 0.41956192 0.83428246 0.41668582 0.17795382 0.47420573 0.37013805 0.46203715
0.2610974 0.55460507 0.19401065 0.17502919 0.41629875 0.40952548 0.6964786 0.46972382

bias f4 [64]
00000000: a00f 97be 3617 4abe 71da 9bbe 124f 8abd
00000010: c35c 98bd 186a e8bd d912 34be e235 1abf
00000020: 0cf6 143e f58d 193d 05bb f1bd 816d 0fbe
00000030: 9b12 223d 008b 2dbe d212 bfbe 895a c9bc
00000040: 1b5a 82be 0bd7 3cbe f7f9 96be afd1 d1bd
00000050: aeea a3bd 6244 39be 059f 70bd 7d4b b2bd
00000060: 5f5a 91bd b017 d2be eb0e bcbd 1217 10bf
00000070: d9a1 adbe ff45 c0bd d570 713e 56a3 c93d
00000080: 9c20 96be b0cb 1cbd cc5e 70bd 6a41 703c
00000090: f935 cabe eb96 adbe c45a 16bf 7439 b8bd
000000a0: 86fa 923d d25a b8be 324f d7bd e65f 92bf
000000b0: d782 4a3d 6e37 a0bc 37f8 a4be f32c ebbe
000000c0: c209 ddbe f929 17be fe71 b2be afd3 3ebe
000000d0: 4d57 1abd f3a0 073d f1d6 07bf a14b e9be
000000e0: ae03 88bd 3c6f 413c 15f8 44bd a82b 423c
000000f0: 036f 0cbf 146d 1ebe ee1c a8bd 2706 91bd
-0.29504108 -0.19735417 -0.30440095 -0.06753363 -0.07439568 -0.11348361 -0.17585315 -0.6023847
0.14546984 0.037488896 -0.11803249 -0.14006616 0.039568525 -0.16947556 -0.37319046 -0.024579303
-0.2545937 -0.18441407 -0.29487583 -0.10245072 -0.08003746 -0.18092492 -0.058745403 -0.087058045
-0.07097315 -0.41033697 -0.09182533 -0.562852 -0.33912542 -0.09388351 0.23578198 0.09845607
-0.29321754 -0.03828019 -0.058684155 0.014664033 -0.39494303 -0.33904204 -0.5873225 -0.08995333
0.0717669 -0.3600679 -0.10513152 -1.1435516 0.049441185 -0.019557681 -0.32220623 -0.4593273
-0.43171507 -0.14762105 -0.34852594 -0.18635438 -0.037680913 0.033112478 -0.5306235 -0.45565513
-0.06641327 0.0118063055 -0.048088152 0.011851229 -0.5485689 -0.15471298 -0.08208643 -0.070812516

running_mean f4 [64]
00000000: b22b f3bf eae9 91bf c532 98c0 5718 3abf
00000010: f392 6ebf 63cb 09c0 38d3 a8bf 84e3 2ec0
00000020: 8f1f 5b3f aef4 6740 0e23 06c0 9c8a 2dc0
00000030: 49b2 713f 4d5a a7bf ecc0 32bf 5aac 58bf
00000040: 6352 7c3e 6492 62bf cb2d b9bf f99c 53bf
00000050: dc41 dcbd 589b f43e ab14 08c0 697e 273d
00000060: e316 32bf aba5 03c0 0725 7cbe 6163 0dc0
00000070: c853 f5bf 0fed 6f3e 8e2c 803e 9ad1 72be
00000080: f84f bebf 9e33 eebe 4d7a e1bf 2fba e3be
00000090: e007 00c0 4eef 09c0 b255 a6be ef02 1dc0
000000a0: 92be c9bf 78c0 02c0 1406 a4bf d62e 98bf
000000b0: af5e 4abf 025d 8fbf 9317 d5bf 964e 83c0
000000c0: 7ae1 02c0 4b3b 0bc0 96d0 c7bf 13d5 f5bf
000000d0: 0cc4 31bf ec33 15bf 479b 14c0 a0fb 6dbf
000000e0: fe87 2dc0 0f17 c2be 0e9a db3f 78ee a8be
000000f0: 3924 39c0 e0b5 3cc0 ec20 f93f cd9c bcbe
-1.899771 -1.139951 -4.7561975 -0.7269339 -0.93192977 -2.1530387 -1.3189459 -2.7326365
0.8559503 3.624309 -2.0958896 -2.711585 0.94412667 -1.3074433 -0.69825625 -0.8463799
0.24640803 -0.88504624 -1.44671 -0.82661396 -0.10754749 0.47774768 -2.1262615 0.04089204
-0.6956617 -2.0569866 -0.246235 -2.2091906 -1.9166193 0.23430274 0.25033993 -0.23712769
-1.4868155 -0.46523756 -1.7615448 -0.44477984 -2.0004807 -2.155231 -0.32487255 -2.453304
-1.5761282 -2.0429974 -1.2814355 -1.1889293 -0.79050726 -1.1200259 -1.6647819 -4.103343
-2.045012 -2.175494 -1.561053 -1.920565 -0.6943977 -0.5828235 -2.3219774 -0.92962074
-2.7114253 -0.37908217 1.7156389 -0.32994437 -2.8928359 -2.9486008 1.9463172 -0.3683838

running_var f4 [64]
00000000: 4785 8740 54a4 2240 1d08 5d40 f367 b13f
00000010: 6cac 8a40 0521 2840 cd6c c23f be0f ec3f
00000020: 006e e040 ccc1 5440 1a68 1940 d195 6840
00000030: 5df4 5b40 c42b b840 9c08 dc40 da93 7240
00000040: bfc0 d540 c807 5140 54e6 1b40 e4a5 0641
00000050: 3179 1640 6882 cc3f d10f ff3f 69f6 dd3f
00000060: 98c8 bb40 c461 a640 93b4 1540 2a86 2340
00000070: fdbc 2440 b3d6 bb40 3927 0840 2d4b 2f41
00000080: 13a5 c840 38a5 1b40 c87d b540 ea7c d23f
00000090: 1aaf df3f 2baa d53f e65e f33f 6e4c de3f
000000a0: aa46 c040 759c 0541 a553 9d3f 0ab5 dc40
000000b0: efd7 6040 8227 cf40 5e43 a940 b577 f73f
000000c0: 7490 1040 ec0c 4940 56e3 0941 8206 7240
000000d0: 0361 ed3f 0473 c740 5eed b23f 505c f440
000000e0: 5a66 4c40 b4b1 f140 a0c3 cb3f e063 0c40
000000f0: 98be 0a40 bc22 9c40 8ae6 6241 ab93 9f40
4.235019 2.5412798 3.4536202 1.3859848 4.3335476 2.6270154 1.5189453 1.8442304
7.0134277 3.3243284 2.3969789 3.634144 3.4367898 5.7553425 6.876051 3.7902741
6.6797786 3.2661 2.435933 8.415501 2.351147 1.5977297 1.9926702 1.7340823
5.8682365 5.1994343 2.3391464 2.5550637 2.574035 5.8699584 2.127394 10.955853
6.2701507 2.4319592 5.671604 1.6444371 1.7475312 1.6692556 1.9013336 1.7367074
6.008626 8.3506975 1.2291151 6.8970995 3.5131795 6.4735727 5.2894735 1.9333407
2.2588167 3.1414137 8.618002 3.7816472 1.8545231 6.23279 1.3978689 7.6362686
3.193747 7.5529423 1.5919075 2.193596 2.167883 4.87924 14.181284 4.986776
