models/vishal_lr_001_iter_300.pt_238.pt (torch_old, 473212 bytes, 27 tensors)

weight f4 [64, 1, 3, 3]
0.006396366 -0.11547717 0.04364214 -0.079022326 0.14207901 -0.105228186 0.057052065 -0.08409855
0.022235075 -0.14100972 -0.16426541 -0.24706353 0.3314558 0.6316399 -0.2754646 -0.13127571
0.02767865 -0.53689146 0.3154487 0.38014635 0.10761086 -0.30759758 -0.3010771 -0.258996
-0.095562086 0.15226422 0.008643076 0.08244469 0.137507 0.05007812 -0.06439579 -0.0674977
0.04743205 0.073336095 0.11042226 0.08227712 0.41845897 -0.6123811 0.098590724 0.26242417
0.05840733 -0.3064265 -0.838677 0.53763807 -0.14060146 0.016891602 0.08865194 -0.11288823
0.15884455 -0.20741934 0.04889431 -0.14577569 0.086696 0.06805727 0.0041878265 0.08864446
0.021206839 -0.16546239 0.09071649 -0.091386035 0.025503993 -0.13667436 -5.5093794 0.2751079
-0.12757438 -0.14240517 -0.17862801 -0.07347095 0.27171224 -0.35753524 0.06889231 0.30916855
0.059325516 -0.15498084 0.06928365 -0.13144132 -1.7120275 -0.080066465 0.07740767 -0.10119282
0.053304825 0.049627647 0.016283711 0.011324834 -0.024472773 0.055329263 0.020778954 -0.04933679
0.009737582 0.057240274 0.041997373 -0.027744971 -0.01634854 -0.06882933 -0.021933071 -0.065259114
-0.0953273 -0.077932425 -0.09762534 0.063501626 -0.34105718 0.28196383 0.03644993 0.36189315
-0.3899579 -0.09678555 -0.01071986 0.10744007 0.13300188 0.15476406 -0.30527544 -0.17700477
0.03533875 0.17896861 0.034287862 -0.14934936 0.10448901 -0.103727296 0.19809213 -0.101539016
0.0663727 -0.08532864 0.018714469 0.032656062 -0.114498675 0.08440963 0.039425343 -0.023558646
-0.033051148 0.03363177 -0.087746166 -0.0925369 0.016731434 0.06244582 0.03515534 -0.0051926216
0.020848973 0.03991446 0.14892995 0.16534539 0.14513779 -0.08436572 0.1184595 0.067533284
0.08796324 -0.091231644 0.057359755 0.049759045 -0.041879836 -0.02025491 0.051831394 -0.06710583
-0.011890352 -0.21638745 -0.14633507 -0.19146599 -0.13010755 -0.046290074 -0.030954381 0.3100839
0.40501025 0.07765193 -0.039658926 0.10263947 -0.031363707 0.1728269 0.31104246 0.106551446
-0.07016829 0.16977361 -0.05084054 -0.07535144 0.010118321 0.045014642 0.16487545 -0.09876733
-0.059764016 -0.094327725 0.075204045 0.01327008 0.021112867 -0.014609918 -0.06917897 0.07400975
-0.09529905 -0.08615714 -0.06906949 -0.033793874 -0.017237805 0.055831343 -0.062419884 0.06263754
-0.02064576 0.0763797 0.008152999 -0.029679962 0.07145257 -0.010413356 -0.09702936 0.03914441
0.03762859 -0.0687716 -0.082910724 0.011808246 0.010044999 -0.079145096 0.0047506914 -0.07507855
-0.009857342 0.087296605 0.016175203 -0.043109246 -0.037193432 -0.092655 -0.07208224 -0.10032983
-0.2935704 0.2712096 0.028070569 0.24466747 -0.229309 -0.0026463266 0.041212272 -0.0036251927
-0.035658054 0.06590526 0.06553983 -0.3200508 -0.06300753 0.39965913 -0.10458639 -0.23211785
0.2462902 -0.0037776984 -0.01444092 -0.16634567 0.07500308 -0.032497622 0.091728605 -0.012152535
0.04848355 0.11878776 -0.14277048 0.05303724 -0.09545589 -0.0991047 0.07617125 -0.035129257
0.0054306313 -0.05057273 -0.0121181905 0.0025850013 -0.047267944 0.062930875 -0.5511226 0.3094125
00000000: 9b98 d13b 4b7f ecbd 1ac2 323d 75d6 a1bd
00000010: 297d 113e e081 d7bd 6daf 693d dc3b acbd
00000020: 5526 b63c da64 10be 3135 28be 39fe 7cbe
00000030: 93b4 a93e 27b3 213f b209 8dbe 246d 06be
00000040: 56be e23c b871 09bf 7e82 a13e 8ba2 c23e
00000050: 1563 dc3d 6e7d 9dbe c726 9abe 209b 84be
00000060: 0eb6 c3bd 27eb 1b3e b09b 0d3c c3d8 a83d
00000070: a3ce 0c3e b71e 4d3d f1e1 83bd 3c3c 8abd
00000080: 1c48 423d 3c31 963d 1125 e23d e880 a83d
00000090: 4140 d63e 02c5 1cbf efe9 c93d 765c 863e
000000a0: 863c 6f3d efe3 9cbe 89b3 56bf a6a2 093f
000000b0: d4f9 0fbe 4260 8a3c 268f b53d f231 e7bd
000000c0: 25a8 223e bc65 54be 6645 483d 3946 15be
000000d0: ac8d b13d 9c61 8b3d 093a 893b 3a8b b53d
000000e0: f7b9 ad3c f96e 29be 91c9 b93d 9a28 bbbd
000000f0: c0ed d03c 5df4 0bbe d64c b0c0 f1da 8c3e
00000100: dca2 02be a9d2 11be 43ea 36be f077 96bd
00000110: de1d 8b3e dc0e b7be 6917 8d3d 574b 9e3e
00000120: 50ff 723d 4cb3 1ebe 96e4 8d3d 8e98 06be
00000130: b823 dbbf e3f9 a3bd ea87 9e3d 2e3e cfbd
00000140: 2956 5a3d 5c46 4b3d 6b65 853c cc8b 393c
00000150: 207b c8bc f0a0 623d a038 aa3c 6015 4abd
00000160: 618a 1f3c c774 6a3d 7005 2c3d 6c49 e3bc
00000170: 60ed 85bc 64f6 8cbd fcac b3bc 92a6 85bd
00000180: f63a c3bd 099b 9fbd cbef c7bd 240d 823d
00000190: 0c9f aebe 905d 903e 864c 153d 0f4a b93e
000001a0: 90a8 c7be 8137 c6bd 5aa2 2fbc 8a09 dc3d
000001b0: a531 083e 787a 1e3e 104d 9cbe bd40 35be
000001c0: 5dbf 103d 8c43 373e 6e71 0c3d 0aef 18be
000001d0: 56fe d53d fa6e d4bd aad8 4a3e b0f3 cfbd
000001e0: 69ee 873d c8c0 aebd 164f 993c 5dc2 053d
000001f0: 487e eabd f5de ac3d 787c 213d 10fe c0bc
00000200: a460 07bd 78c1 093d 43b4 b3bd fc83 bdbd
00000210: 5c10 893c 30c7 7f3d 0cff 0f3d de26 aabb
00000220: 77cb aa3c 587d 233d 1881 183e 4d50 293e
00000230: 009f 143e efc7 acbd e59a f23d e44e 8a3d
00000240: 1226 b43d a8d7 babd 10f2 6a3d 24d0 4b3d
00000250: 318a 2bbd a0ed a5bc 284d 543d c86e 89bd
00000260: c0cf 42bc ac94 5dbe dcd8 15be a90f 44be
00000270: ea3a 05be a99a 3dbd 0b94 fdbc 51c3 9e3e
00000280: 815d cf3e fa07 9f3d 6671 22bd a434 d23d
00000290: 3b77 00bd 89f9 303e f540 9f3e a537 da3d
000002a0: 64b4 8fbd 22d9 2d3e 2c3e 50bd db51 9abd
000002b0: 50c7 253c 4661 383d 1cd5 283e 8746 cabd
000002c0: 1dcb 74bd e52e c1bd 9404 9a3d c06a 593c
000002d0: e4f4 ac3c 705e 6fbc b4ad 8dbd 6c92 973d
000002e0: 262c c3bd 2873 b0bd 4e74 8dbd 726b 0abd
000002f0: 4c36 8dbc 68af 643d feab 7fbd 1c48 803d
00000300: 4c21 a9bc f66c 9c3d 2894 053c 6423 f3bc
00000310: ba55 923d c89c 2abc 54b7 c6bd e455 203d
00000320: 7020 1a3d 20d8 8cbd 19cd a9bd 6077 413c
00000330: c893 243c d316 a2bd b0ab 9b3b c8c2 99bd
00000340: b080 21bc 90c8 b23d dc81 843c 5293 30bd
00000350: 2458 18bd e8c1 bdbd da9f 93bd ba79 cdbd
00000360: dc4e 96be fcdb 8a3e 40f4 e53c 1c8a 7a3e
00000370: facf 6abe fe6d 2dbb 33ce 283d a494 6dbb
00000380: 2e0e 12bd 56f9 863d bf39 863d b3dd a3be
00000390: 180a 81bd 1fa0 cc3e 6431 d6bd 4db0 6dbe
000003a0: 8033 7c3e 4393 77bb 9c99 6cbc 8556 2abe
000003b0: 379b 993d 3a1c 05bd 35dc bb3d 6d1b 47bc
000003c0: b096 463d ff46 f33d 6d32 12be 943d 593d
000003d0: 617e c3bd 68f7 cabd acff 9b3d b2e3 0fbd
000003e0: 70f3 b13b 5a25 4fbd 608b 46bc 2069 293b
000003f0: 089c 41bd e7e1 803d 5f16 0dbf 516b 9e3e

bias f4 [64]
0.0010389775 0.013236583 0.08023509 0.002637082 0.024396209 0.03887284 0.16988944 0.018730769
0.27709374 -0.22116145 -0.06642082 0.01710112 0.03795861 0.06149529 -0.1806647 -0.4425134
-0.23463988 0.034315526 -0.40732065 0.10159233 -0.18216574 -0.32424736 -0.28062147 -0.31762707
0.044276863 0.04213451 0.18687174 -0.25036225 -0.0154381925 -0.016064761 -0.290915 0.05730025
-0.3170045 -0.05410388 0.014336282 -0.253579 -0.11723404 0.06398813 0.09158335 0.041349664
0.26804954 -0.2106596 0.04878799 -0.2498275 -0.2678052 0.006119055 -0.23504445 0.03517504
-0.31010228 -0.35972485 0.009822594 0.031486396 -0.16932914 -0.43131152 0.13331744 -0.16053963
0.23613219 -0.18863225 0.019878026 -0.28994343 0.19573192 0.04606689 0.0424935 0.057255756
00000000: 4d2e 883a 41de 583c 4b52 a43d e5d2 2c3b
00000010: 8fda c73c 2139 1f3d 7ff7 2d3e 4571 993c
00000020: 3bdf 8d3e 2678 62be a407 88bd a617 8c3c
00000030: 7d7a 1b3d 7ce2 7b3d 2b00 39be 1e91 e2be
00000040: 7045 70be 708e 0c3d 558c d0be a40f d03d
00000050: a889 3abe c003 a6be 9ead 8fbe 04a0 a2be
00000060: a85b 353d 3c95 2c3d 4e5b 3f3e 7b2f 80be
00000070: 79f0 7cbc 3f9a 83bc d0f2 94be abb3 6a3d
00000080: 6a4e a2be 089c 5dbd bae2 6a3c 1bd5 81be
00000090: 6618 f0bd 350c 833d 0d90 bb3d 445e 293d
000000a0: ca3d 893e 26b7 57be ead5 473d c8d2 7fbe
000000b0: c31d 89be 5b82 c83b 7eaf 70be b413 103d
000000c0: bac5 9ebe db2d b8be f2ee 203c e1f7 003d
000000d0: 9e64 2dbe ddd4 dcbe 5e84 083e 8064 24be
000000e0: a3cc 713e d028 41be 3ed7 a23c 7773 94be
000000f0: f36d 483e a3b0 3c3d aa0d 2e3d 0385 6a3d

weight f4 [64, 64, 3, 3]
0.0145834 0.034881953 -0.011387596 0.074027315 -0.12694094 0.019609077 -0.062275533 -0.074888654
0.0025651434 -0.6702405 -0.19962138 0.17400254 0.09133475 -0.1052485 -0.11750694 -0.07582925
0.3951872 0.5976927 -0.31039575 0.17843118 -0.020764539 0.34142998 0.12169547 0.008545386
0.33694535 0.20083867 0.16785944 0.19233239 0.266933 0.22947177 0.27923617 0.27289644
0.2911413 0.09432439 0.25199127 0.20503542 0.49635857 -0.3211728 -0.38457876 -0.28445676
0.25340435 -0.19500071 -0.14087278 0.065114 -0.18344796 -0.031632613 -0.17761022 -0.11676819
0.110153995 0.15724841 0.041451383 0.018046835 0.029805962 -0.010815779 -0.7676864 -0.6795349
-0.6439591 -0.07309633 -0.041929778 -0.061048653 -0.46318287 -0.31670642 -0.6326514 -0.09411734
-0.04159944 0.06875467 -0.03835378 -0.0835497 0.104773335 0.021220488 0.085462615 -0.04788649
0.067988075 0.13020596 -0.10004242 -0.028023927 -0.101581655 -0.0922593 -0.17180917 -0.06738566
-0.33508563 -0.011468822 0.05108168 -0.028570151 0.003493301 0.021118376 0.00934478 0.049041767
-0.014643727 -0.06386681 0.051307194 0.07075922 0.040265784 -0.055493653 0.030217826 -0.050599065
-0.038434044 0.04771071 0.055877104 -0.2540237 -0.34259084 -0.01182658 -0.029775841 -0.035176747
0.11915689 0.30056435 0.24053974 -0.08618317 -0.19364028 -0.11412545 0.0051465915 0.088377275
0.070687324 -0.020573992 0.035161853 0.03762045 0.062336795 -0.099073626 0.10259822 0.0018998316
0.096691914 0.12667564 0.049732354 -0.061491646 -0.095466726 -0.11113593 -0.012524523 0.04660932
-0.010877769 -0.05727094 -0.021609388 -0.05529707 -0.014171198 0.059602574 0.016847841 -0.25370017
-0.22958787 -0.14953473 -0.28143618 -0.20246165 -0.049482193 0.14700644 -0.05920381 -0.10242344
0.044401243 -0.009692114 0.027229674 -0.02423196 0.042279154 -0.012935642 -0.046927944 0.034694113
0.06521878 0.016653892 0.2052503 0.037966955 -0.08404678 0.05620507 0.1146874 0.06337566
0.2273563 0.069803074 -0.04553237 0.085438564 -0.2804859 -0.09449125 -0.021981858 -0.19660549
0.055771958 0.21117789 -0.04530521 0.030653227 0.012320782 0.04527773 0.21942626 0.2784965
-0.07650776 -0.21483095 -0.18253809 -0.084395945 -0.054535195 -0.0040868446 0.05438657 0.047827907
-0.06747087 0.062118977 0.066831544 -0.056247428 -0.016180579 -0.059167832 -0.05847174 -0.043843538
0.06249121 -0.00815358 -0.008703776 0.043305464 -0.0125792995 -0.04880881 0.057560787 -0.05448675
-0.015078284 0.028509714 -0.038551096 -0.053550087 -0.016717743 0.054982767 -0.02121383 -0.040164582
-0.0061963946 0.017229311 0.025244765 0.019553922 0.029981554 0.013333917 0.008555792 -0.017785072
0.07453737 0.048815746 -0.08852741 -0.08280637 0.24384415 -0.045477197 -0.050689712 -0.059930023
-0.049605608 0.17310278 0.24298155 -0.038923148 0.25279778 0.29569954 0.029370576 0.013576375
0.2500098 0.04709245 0.08720981 -0.0028086437 -0.041691463 0.24164551 0.25953883 0.37560236
-0.24204363 -0.17269807 -0.18359461 0.050978698 -0.036407646 0.017230473 0.03132444 -0.042922832
0.05725193 -0.07099404 0.04497219 0.03615377 0.07199326 0.01322194 0.029650372 0.13580255
00000000: 37ef 6e3c 61e0 0e3d 0a93 3abc a29b 973d
00000010: cefc 01be 37a3 a03c a114 7fbd 395f 99bd
00000020: f71b 283b e294 2bbf 8c69 4cbe b92d 323e
00000030: b70d bb3d 878c d7bd 7ba7 f0bd 5e4c 9bbd
00000040: fa55 ca3e 6402 193f 31ec 9ebe aab6 363e
00000050: 651a aabc e9cf ae3e 793b f93d f201 0c3c
00000060: 1a84 ac3e a7a8 4d3e 58e3 2b3e c8f2 443e
00000070: 71ab 883e a6fa 6a3e 0bf8 8e3e 15b9 8b3e
00000080: 7910 953e 252d c13d 0005 813e cef4 513e
00000090: b622 fe3e c370 a4be 82e7 c4be 51a4 91be
000000a0: 37be 813e 44ae 47be f440 10be 7d5a 853d
000000b0: c8d9 3bbe 3391 01bd 74df 35be 2924 efbd
000000c0: 6b98 e13d ba05 213e edc8 293d f5d6 933c
000000d0: a22b f43c aa34 31bc 1987 44bf 00f6 2dbf
000000e0: 81da 24bf 87b3 95bd 8fbe 2bbd 270e 7abd
000000f0: 4e26 edbe 5827 a2be 71f5 21bf 98c0 c0bd
00000100: 2d64 2abd 40cf 8c3d da18 1dbd 1b1c abbd
00000110: 6793 d63d 97d6 ad3c 0607 af3d a024 44bd
00000120: 553d 8b3d b654 053e 0ae3 ccbd 6f92 e5bc
00000130: 0b0a d0bd 72f2 bcbd beee 2fbe 7e01 8abd
00000140: 5890 abbe bae7 3bbc 063b 513d f30b eabc
00000150: deef 643b 7200 ad3c d91a 193c 05e0 483d
00000160: 3eec 6fbc 9acc 82bd 7e27 523d 36ea 903d
00000170: bced 243d 504d 63bd 608b f73c f740 4fbd
00000180: 046d 1dbd 4e6c 433d 64df 643d 650f 82be
00000190: 1168 afbe 46c4 41bc 77ec f3bc 7e15 10bd
000001a0: 8708 f43d 92e3 993e 0d50 763e cd80 b0bd
000001b0: a349 46be 9bba e9bd bda4 a83b 25ff b43d
000001c0: 84c4 903d ca8a a8bc e005 103d e717 1a3d
000001d0: de54 7f3d 1de7 cabd 041f d23d c503 f93a
000001e0: 6906 c63d 42b7 013e 27b4 4b3d aade 7bbd
000001f0: 0f84 c3bd 3c9b e3bd a833 4dbc 6ae9 3e3d
00000200: ac38 32bc ef94 6abd 2c06 b1bc 2e7f 62bd
00000210: 502e 68bc d421 743d 7c04 8a3c fde4 81be
00000220: 1519 6bbe a21f 19be 6718 90be 1b52 4fbe
00000230: d7ad 4abd db88 163e b27f 72bd 61c3 d1bd
00000240: 14de 353d accb 1ebc c410 df3c 1a82 c6bc
00000250: e82c 2d3d 04f0 53bc 8437 40bd 6a1b 0e3d
00000260: 6c91 853d be6d 883c 222d 523e 3d83 1b3d
00000270: b820 acbd 4a37 663d 3ae1 ea3d 19cb 813d
00000280: 17d0 683e eaf4 8e3d 2780 3abd 6afa ae3d
00000290: d99b 8fbe a184 c1bd 4c13 b4bc f352 49be
000002a0: 2371 643d 043f 583e f591 39bd 7a1c fb3c
000002b0: 1bdd 493c 2475 393d 47b1 603e 1897 8e3e
000002c0: 1ab0 9cbd a5fc 5bbe 44eb 3abe c8d7 acbd
000002d0: 4c60 5fbd f0ea 85bb 74c4 5e3d 32e7 433d
000002e0: 2b2e 8abd 7870 7e3d fade 883d b463 66bd
000002f0: 228d 84bc f859 72bd 1080 6fbd 4895 33bd
00000300: c8f6 7f3d 9896 05bc 489a 0ebc 1261 313d
00000310: 6819 4ebc bfeb 47bd dcc4 6b3d 802d 5fbd
00000320: e80a 77bc 348d e93c c1e7 1dbd 5657 5bbd
00000330: a6f3 88bc 9c35 613d a0c8 adbc 9e83 24bd
00000340: 200b cbbb 7c24 8d3c 1cce ce3c 8c2f a03c
00000350: e09b f53c 8076 5a3c 982d 0c3c 00b2 91bc
00000360: 0ca7 983d 05f3 473d dc4d b5bd 6396 a9bd
00000370: 48b2 793e 4c46 3abd 04a0 4fbd 2f79 75bd
00000380: 402f 4bbd db41 313e 28d0 783e e16d 1fbd
00000390: b66e 813e ee65 973e 909a f03c 726f 5e3c
000003a0: 4901 803e 03e4 403d 0f9b b23d 3911 38bb
000003b0: abc4 2abd ec71 773e 46e2 843e f44e c03e
000003c0: 49da 77be c3d7 30be 3a00 3cbe 0acf 503d
000003d0: 2f20 15bd ec26 8d3c 0e4e 003d dacf 2fbd
000003e0: 0081 6a3d 5365 91bd c234 383d fa15 143d
000003f0: 3471 933d d6a0 583c 56e5 f23c d30f 0b3e

bias f4 [64]
-0.06674054 -0.28940737 0.363211 -0.050784536 0.18178128 0.12827766 -0.30960295 -0.19738126
-0.27735534 -0.02534982 0.071101345 0.39678222 0.24142641 -0.07053454 0.041293733 -0.21555588
-0.2649805 -0.22600088 0.25571153 0.092442505 -0.609413 -0.16722956 0.042706434 0.29583332
-0.34779307 -0.24663544 0.19481014 0.2839401 -0.2541806 0.32639313 0.02838564 -0.58653086
-0.31752715 0.07922582 -0.13292946 0.19480896 0.040557448 -0.038296238 0.0025488834 0.26809508
0.0870664 -0.024077425 -0.67515975 -0.5535363 0.093194045 -0.28507435 0.3132707 -0.43119365
0.103721626 -0.49629736 -0.025413513 -0.3727677 -0.11928947 -0.42474476 0.12962025 0.5984575
0.0764565 0.50340676 -0.26393867 0.35907108 -0.116543844 0.2365704 0.15219393 0.181971
00000000: 44af 88bd 342d 94be cbf6 b93e 7203 50bd
00000010: df24 3a3e 385b 033e 4784 9ebe 501e 4abe
00000020: 8501 8ebe 6daa cfbc 959d 913d 0a27 cb3e
00000030: 7c38 773e 6a74 90bd 9e23 293d aeba 5cbe
00000040: 86ab 87be c66c 67be 9fec 823e 7f52 bd3d
00000050: 7e02 1cbf 3a3e 2bbe f1ec 2e3d 7777 973e
00000060: ef11 b2be 008e 7cbe 4f7c 473e 9960 913e
00000070: f623 82be 001d a73e 0089 e83c e326 16bf
00000080: eb92 a2be 2641 a23d a91e 08be 007c 473e
00000090: 911f 263d 84dc 1cbd 2b0b 273b c243 893e
000000a0: de4f b23d 053e c5bc 45d7 2cbf 8eb4 0dbf
000000b0: 85dc be3d 44f5 91be 0465 a03e 6ac5 dcbe
000000c0: 016c d43d b01a febe 0030 d0bc 68db bebe
000000d0: 0a4e f4bd 2578 d9be 2cbb 043e 8334 193f
000000e0: 3a95 9c3d 44df 003f f822 87be 2ad8 b73e
000000f0: 8aae eebd 833f 723e bad8 1b3e 9b56 3a3e

weight f4 [64]
0.7031245 0.3499194 0.6295199 0.2671061 0.32766518 0.33488545 0.5265815 0.36452806
0.36067313 0.33473283 0.29417613 0.38701373 0.32307813 0.33275077 0.6484535 0.43717644
0.389889 0.30705965 0.27644482 0.2859538 0.22382857 0.5411259 0.45371428 0.28612146
0.20745935 0.314685 0.35187533 0.3201283 0.41137967 0.33082214 0.38282895 0.3541322
0.31713414 0.33023167 0.65044045 0.5802756 0.38965657 0.4066874 0.23736918 0.5210486
0.30632257 0.41728234 0.32878804 0.29646823 0.33884123 0.37849855 0.4907645 0.3258334
0.3715442 0.53720415 0.28312618 0.66791505 0.3755829 0.28968602 0.34151345 0.5279419
0.23289154 0.34941807 0.553772 0.38721573 0.2505805 0.30797642 0.41052744 0.31816763
00000000: f8ff 333f a328 b33e 3728 213f 21c2 883e
00000010: bbc3 a73e 1b76 ab3e 0cce 063f 6ca3 ba3e
00000020: 26aa b83e 1a62 ab3e 419e 963e aa26 c63e
00000030: 7f6a a53e 4f5e aa3e 0c01 263f 97d5 df3e
00000040: 889f c73e ec36 9d3e 2d8a 8d3e 8968 923e
00000050: 5133 653e 3a87 0a3f 3d4d e83e 837e 923e
00000060: 3970 543e 641e a13e 0129 b43e dbe7 a33e
00000070: 5ba0 d23e 8561 a93e 2802 c43e d150 b53e
00000080: 685f a23e 2014 a93e 4483 263f f18c 143f
00000090: 1181 c73e 5539 d03e e810 733e 7163 053f
000000a0: 50d6 9c3e 08a6 d53e e856 a83e afca 973e
000000b0: 997c ad3e 90ca c13e 7c45 fb3e a3d3 a63e
000000c0: 0b3b be3e 3686 093f eaf5 903e 7bfc 2a3f
000000d0: 674c c03e ba51 943e dada ae3e 3327 073f
000000e0: 1f7b 6e3e ede6 b23e 00c4 0d3f 2441 c63e
000000f0: 164c 803e 16af 9d3e a730 d23e dee6 a23e

bias f4 [64]
-0.45607105 -0.48416668 -0.3548666 0.0630645 -0.08525405 -0.072714016 0.033186067 -0.4035952
-0.11458293 -0.5075393 -0.2784547 -0.44378823 -0.34031945 -0.3967094 -0.24227312 -0.2047262
-0.40749043 -0.15823787 -0.2644815 -0.043307304 0.2835566 0.04871273 0.12890768 -0.105249524
-0.6929093 -0.30999476 0.17175438 -0.034367375 -0.54934204 0.047826517 -0.0089846905 -0.19054423
-0.1815901 -0.33585706 -1.1054498 -0.35997805 -0.18613578 -0.2268921 -0.059558563 -0.59132344
-0.2373313 -0.28322688 -0.112552114 0.03225892 0.12917835 -0.5574404 -0.585629 -0.18246697
-0.49818954 0.14538968 0.06504437 -0.86639476 0.027806383 0.2110771 -0.31831217 -0.0722909
0.03884676 -0.09825818 -0.2375227 -0.40528643 0.04223381 0.14001107 -0.66328835 -0.37204042
00000000: 2582 e9be b2e4 f7be 13b1 b5be f627 813d
00000010: ad99 aebd 16eb 94bd 1dee 073d 08a4 cebe
00000020: 75aa eabd 18ee 01bf 9d91 8ebe 3638 e3be
00000030: 5a3e aebe 7f1d cbbe 7216 78be bfa3 51be
00000040: 96a2 d0be 1c09 22be 1f6a 87be 0063 31bd
00000050: 552e 913e 0087 473d 6000 043e 108d d7bd
00000060: 8162 31bf a2b7 9ebe 61e0 2f3e cec4 0cbd
00000070: aea1 0cbf bde5 433d 8634 13bc 071e 43be
00000080: c1f2 39be 75f5 abbe 617f 8dbf 0b4f b8be
00000090: 619a 3ebe 6756 68be aef3 73bd f960 17bf
000000a0: fa06 73be 1d03 91be b981 e6bd ee21 043d
000000b0: 5447 043e 6ab4 0ebf c8eb 15bf 9fd8 3abe
000000c0: b312 ffbe 08e1 143e fc35 853d 0ccc 5dbf
000000d0: 36ca e33c 9824 583e d0f9 a2be 400d 94bd
000000e0: c81d 1f3d 963b c9bd 2739 73be b481 cfbe
000000f0: 5cfd 2c3d 105f 0f3e 44cd 29bf 157c bebe

running_mean f4 [64]
0.5046011 -0.41370016 0.037662625 0.35204417 0.49918827 -0.08664449 -0.21619026 1.307594
-0.098616436 0.032949716 0.0014955204 0.29670903 0.12914796 -0.39146665 -0.15652145 -0.16325246
-0.18149282 -0.47295436 0.14474681 0.75984025 -0.4739936 -1.318023 0.54019374 0.17056037
-0.17286675 -0.050230615 1.1541127 -0.8209883 -1.0526022 0.26192087 0.032975756 -1.2601755
-0.5349189 -1.0486118 -0.3027406 0.13707718 -0.74707323 -0.6780963 0.37652212 0.03399181
-0.044695117 0.02455321 -0.60571 0.10104944 0.18404761 -0.9591966 0.34203365 -0.6088656
-0.40684724 -0.96810037 0.041302744 -0.5277644 -0.120952696 -1.0728792 0.054211915 1.3207068
0.17786027 0.49108437 0.24959525 -0.31663945 -0.4274004 -0.008939391 -0.061109275 0.09123079
00000000: 8a2d 013f 82d0 d3be 2044 1a3d 223f b43e
00000010: 9b95 ff3e ab72 b1bd fb60 5dbe 3d5f a73f
00000020: 6af7 c9bd 48f6 063d 5605 c43a 3fea 973e
00000030: 5d3f 043e 516e c8be 2947 20be a72b 27be
00000040: 41d9 39be 1327 f2be 8238 143e e484 423f
00000050: 4aaf f2be fab4 a8bf 234a 0a3f 61a7 2e3e
00000060: fb03 31be 9ebe 4dbd f7b9 933f 4a2c 52bf
00000070: abbb 86bf 7e1a 863e 9611 073d 6e4d a1bf
00000080: 72f0 08bf e938 86bf d100 9bbe f65d 0c3e
00000090: 3140 3fbf b897 2dbf 82c7 c03e ff3a 0b3d
000000a0: 3a12 37bd d023 c93c d00f 1bbf 02f3 ce3d
000000b0: fa76 3c3e e98d 75bf 091f af3e 9ede 1bbf
000000c0: 484e d0be 6dd5 77bf 112d 293d 911b 07bf
000000d0: 0cb6 f7bd 1b54 89bf 500d 5e3d ec0c a93f
000000e0: 0121 363e 696f fb3e e695 7f3e 911e a2be
000000f0: 3ad4 dabe 8676 12bc b84d 7abd 35d7 ba3d

running_var f4 [64]
0.09929822 0.045323003 0.14066502 0.074029356 0.05062384 0.078829624 0.073098086 0.050257985
0.07230788 0.04548838 0.017668976 0.025704177 0.039052747 0.04210131 0.11835646 0.041807912
0.03879779 0.052618552 0.04293324 0.08774571 0.052919213 0.098479606 0.089985296 0.050038014
0.019904539 0.045610473 0.072247446 0.077287145 0.07461401 0.041781977 0.06553965 0.06610693
0.0612211 0.10419985 0.064488865 0.08116979 0.116858765 0.04588453 0.04773541 0.052765246
0.022431325 0.053044833 0.07590455 0.055999506 0.076259404 0.08876912 0.059362568 0.05937018
0.06426233 0.023794893 0.05964831 0.06260879 0.045097727 0.083882965 0.030968202 0.12880148
0.028921252 0.037494835 0.06500471 0.05607696 0.047574513 0.058760278 0.016557125 0.021005452
00000000: dd5c cb3d 9da4 393d 7e0a 103e b49c 973d
00000010: f25a 4f3d 6d71 a13d 73b4 953d 51db 4d3d
00000020: 2716 943d 0652 3a3d 87be 903c 9191 d23c
00000030: c6f5 1f3d 6c72 2c3d df64 f23d c63e 2b3d
00000040: 6eea 1e3d 8d86 573d c4da 2f3d 06b4 b33d
00000050: d1c1 583d adaf c93d 364a b83d a9f4 4c3d
00000060: d80e a33c 0cd2 3a3d 78f6 933d b948 9e3d
00000070: 3bcf 983d 9423 2b3d a739 863d 1263 873d
00000080: fac2 7a3d bb66 d53d bd12 843d 593c a63d
00000090: a653 ef3d 6bf1 3b3d 3586 433d 5f20 583d
000000a0: e6c1 b73c 8a45 593d d873 9b3d bd5f 653d
000000b0: e42d 9c3d 96cc b53d 2a26 733d 252e 733d
000000c0: f89b 833d 82ed c23c c951 743d 0a39 803d
000000d0: 65b8 383d d5ca ab3d 07b1 fd3c 89e4 033e
000000e0: 43ec ec3c 2f94 193d 3021 853d f4b0 653d
000000f0: 7edd 423d 9eae 703d cfa2 873c a013 ac3c

weight f4 [64, 64, 3, 3]
0.36290023 0.075573236 0.051696558 -0.1926359 -0.0429636 -0.08260156 -0.28881463 -0.31555787
-0.19794507 0.046245813 -0.13712141 -0.10287195 0.05926977 -0.13807243 -0.045517344 0.14563608
-0.047818765 -0.17608386 0.022072468 0.16875793 -0.11675624 -0.06158056 0.20782328 -0.10525823
0.22332373 0.0012287985 -0.004298991 -0.050966598 0.25281027 0.08087697 -0.05349455 -0.3352447
-0.26493922 0.014555207 -0.027326774 0.11278353 -0.027358476 0.5504192 -0.23373602 0.3315574
0.22752328 -0.26971057 -0.07973177 -0.050450083 -0.08877065 -0.02097943 0.02649401 -0.026316319
0.186696 -0.07133602 0.22624016 -0.15489578 0.039456237 -0.07911912 0.025978249 0.11675292
0.07823823 -0.09367291 -0.09712477 -0.15733849 -0.13257812 -0.0030045535 -0.04268943 -0.09055778
-0.17733303 0.1408324 0.04227406 0.0838807 -0.45930544 0.022472631 0.52773905 0.08254459
-0.12745607 -0.029842446 0.037872676 -0.02926311 -0.110370636 0.13202867 -0.27029052 -0.07614664
-0.044597313 0.24807723 0.36068726 -0.06795039 0.13131644 -1.1832198 0.2779587 0.24772546
0.6671845 -0.35017696 -0.081510924 -0.021848934 0.22567736 -0.118033975 -0.12490771 0.28284588
-0.055994406 -0.20304911 0.06874072 0.029238 0.38695377 -0.04144699 -0.09850533 -0.08783627
-0.0011496437 0.004192771 -0.13042243 0.050175685 0.36669236 -0.28821644 -0.17713985 0.38212538
-0.059493512 -0.14330713 0.24239577 -0.108169936 -0.16207205 -0.107446395 -0.10202033 -0.07475601
0.036300678 0.37727386 0.008321176 -0.09214406 0.069480225 -0.14382558 -0.47869912 0.058225468
0.045441117 -0.3675227 0.29111275 0.18026431 -0.3588777 0.1257078 0.07023786 0.100974225
0.05285079 -0.008198559 -0.16698858 -0.09849619 -0.12820959 0.26865694 0.2522416 -0.11547316
-0.08883812 0.43604 0.17097746 0.05014515 -0.22284779 0.11104228 -0.13270946 -0.21342874
-0.054797728 -0.022398295 -0.11820751 0.103584796 -0.15257508 -0.19085945 0.23458661 -0.1399979
-0.14023529 0.16539498 0.06436731 0.0026634336 0.09517431 -0.064850286 -0.14358307 0.043807134
-0.030626697 0.12736386 -0.059227746 -0.06511473 0.013194848 0.06958164 -0.10736551 -0.035014685
-0.40666464 -0.012709044 -0.044783928 -0.011435456 0.17412606 -0.39166406 0.040094145 -0.11804992
0.21721187 -0.16364734 -0.21353215 -0.03337756 -0.078525506 0.037525147 0.17390569 0.18251641
0.107390046 -0.025284499 -0.3974615 -0.14465323 -0.017486751 0.10607708 0.0013641965 -0.40347752
0.23068386 0.108130805 0.27242935 -0.13094702 0.19773075 -0.071815774 -0.01080954 -0.014543897
-0.100417696 -0.102040276 -0.22699815 -0.0022914016 -0.017227272 0.20391168 0.12643598 -0.18764207
-0.02530607 0.13299504 -0.089578286 -0.1509788 0.0054385685 0.17066266 0.07991863 -0.03987068
0.004040903 0.120119125 0.08837419 0.26043105 0.052339386 -0.15666291 -0.17175002 0.06826588
-0.17294954 0.058885437 0.09441568 0.15082802 0.102210246 0.020113198 0.055330954 0.02446033
-0.020958202 0.00031254324 0.08712922 -0.3354664 -0.07156167 -0.07920273 -0.08515214 -0.34857482
0.1552677 -0.13079415 -0.0029753258 -0.1556507 -0.1950402 -0.19929451 -0.15247895 -0.21615751
00000000: 0fce b93e 24c6 9a3d c5bf 533d 5842 45be
00000010: 9afa 2fbd 022b a9bd 83df 93be cd90 a1be
00000020: 1db2 4abe 406c 3d3d 8e69 0cbe 87ae d2bd
00000030: dcc4 723d dc62 0dbe 6570 3abd a021 153e
00000040: 9cdd 43bd 544f 34be 52d1 b43c e1ce 2c3e
00000050: e51d efbd e63b 7cbd a0cf 543e a091 d7bd
00000060: faae 643e a30f a13a 8dde 8cbb 5ac2 50bd
00000070: 5970 813e d3a2 a53d 1a1d 5bbd 31a5 abbe
00000080: 1da6 87be f778 6e3c 66dc dfbc 0dfb e63d
00000090: e21e e0bc 46e8 0c3f 7f58 6fbe e4c1 a93e
000000a0: ddfb 683e 8117 8abe 694a a3bd bfa4 4ebd
000000b0: 63cd b5bd 0edd abbc f709 d93c 5295 d7bc
000000c0: 3c2d 3f3e 9f18 92bd 80ab 673e 009d 1ebe
000000d0: dd9c 213d 3509 a2bd 56d0 d43c 281c ef3d
000000e0: 5d3b a03d 95d7 bfbd 5ae9 c6bd 571d 21be
000000f0: 8fc2 07be 0be8 44bb 1ddb 2ebd 5b76 b9bd
00000100: ca96 35be 5e36 103e 9127 2d3d a5c9 ab3d
00000110: 152a ebbe 8618 b83c e819 073f 230d a93d
00000120: d883 02be 2578 f4bc 6120 1b3d 31b9 efbc
00000130: 000a e2bd 8632 073e 8563 8abe c5f2 9bbd
00000140: acab 36bd f507 7e3e 00ac b83e 9329 8bbd
00000150: d177 063e bf73 97bf 9a50 8e3e beab 7d3e
00000160: 9acc 2a3f 654a b3be 33ef a6bd 89fc b2bc
00000170: f717 673e ccbb f1bd 9dcf ffbd 2dd1 903e
00000180: 645a 65bd 1bec 4fbe efc7 8c3d 8884 ef3c
00000190: ce1e c63e 52c4 29bd 2abd c9bd 81e3 b3bd
000001a0: a4af 96ba 8363 893b 758d 05be 0585 4d3d
000001b0: 1abf bb3e 1b91 93be 2664 35be f0a5 c33e
000001c0: 78af 73bd 1bbf 12be 9936 783e 3388 ddbd
000001d0: 37f6 25be db0c dcbd 09f0 d0bd ae19 99bd
000001e0: 05b0 143d 0a2a c13e 8b55 083c 06b6 bcbd
000001f0: a64b 8e3d 0347 13be 0d18 f5be d47d 6e3d
00000200: 7720 3a3d ef2b bcbe bb0c 953e 3597 383e
00000210: d1be b7be 8cb9 003e ded8 8f3d 93cb ce3d
00000220: 127a 583d 4053 06bc 0eff 2abe 5fb8 c9bd
00000230: 6049 03be 678d 893e d025 813e 317d ecbd
00000240: c3f0 b5bd a340 df3e b714 2f3e 0065 4d3d
00000250: 3632 64be 236a e33d fde4 07be 108d 5abe
00000260: 9573 60bd a17c b7bc c716 f2bd 4424 d43d
00000270: a43c 1cbe a970 43be 7937 703e 9c5b 0fbe
00000280: d799 0fbe 4d5d 293e 02d3 833d 008d 2e3b
00000290: c0ea c23d 3ad0 84bd 7107 13be 1c6f 333d
000002a0: d7e4 fabc ac6b 023e cb98 72bd df5a 85bd
000002b0: 342f 583c d280 8e3d 73e2 dbbd 8f6b 0fbd
000002c0: 5936 d0be 9839 50bc 5a6f 37bd c75b 3bbc
000002d0: 1a4e 323e 3188 c8be c239 243d 28c4 f1bd
000002e0: ca6c 5e3e 2b93 27be 2ca8 5abe e9b6 08bd
000002f0: fbd1 a0bd f8b3 193d 5514 323e 95e5 3a3e
00000300: 50ef db3d 7021 cfbc 1380 cbbe fa1f 14be
00000310: 6040 8fbc f13e d93d d7ce b23a 9b94 cebe
00000320: 6438 6c3e af73 dd3d dc7b 8b3e fa16 06be
00000330: ee79 4a3e 2614 93bd 7f1a 31bc 8649 6ebc
00000340: cba7 cdbd 7efa d0bd 3472 68be 572b 16bb
00000350: 3520 8dbc 39ce 503e 6f78 013e 3e25 40be
00000360: ad4e cfbc da2f 083e d274 b7bd 309a 1abe
00000370: 0536 b23b 31c2 2e3e 61ac a33d 704f 23bd
00000380: 8d69 843b 0401 f63d 87fd b43d 3857 853e
00000390: d361 563d 3e6c 20be 3ddf 2fbe fbce 8b3d
000003a0: af19 31be db31 713d 025d c13d a972 1a3e
000003b0: 9b53 d13d 6fc4 a43c b6a2 623d 0861 c83c
000003c0: 89b0 abbc d8dc a339 ce70 b23d 41c2 abbe
000003d0: ed8e 92bd 0a35 a2bd 3f64 aebd 6678 b2be
000003e0: 7ffe 1e3e e7ee 05be affd 42bb e662 1fbe
000003f0: 9eb8 47be dc13 4cbe 7123 1cbe 6558 5dbe

bias f4 [64]
0.44430217 -0.28758654 0.14833875 -0.19971545 0.012515165 -0.3858257 -0.009501425 0.0016132181
-0.23035379 0.16204152 -0.027788287 0.13022384 -0.086634986 0.13653602 0.2699094 -0.07831152
0.3468021 -0.1525872 0.027324015 -0.062199302 -0.21907815 0.19600612 -0.14344606 0.14117937
0.3103842 0.08681323 -0.20568445 -0.05719897 0.019143037 0.05515008 -0.089165516 -0.2878734
-0.34806585 0.06360818 -0.44510627 -0.22185248 0.24829626 -0.03752779 0.15496333 0.14680141
0.11203323 -0.19990544 -0.2662672 -0.5406417 -0.0027584922 0.057931 -0.092447095 0.14221923
0.08499989 -0.50399554 -0.06216647 -0.14718507 -0.12367477 -0.23215467 -0.36622962 -0.1856947
-0.11495012 -0.42604777 0.21975698 0.46858463 0.13598712 0.11440309 -0.18284808 0.28151187
00000000: 937b e33e 8b3e 93be 1de6 173e 3582 4cbe
00000010: 680c 4d3c f28a c5be ddab 1bbc 9e72 d33a
00000020: dde1 6bbe 36ee 253e 43a4 e3bc 6659 053e
00000030: af6d b1bd 19d0 0b3e 9131 8a3e ca61 a0bd
00000040: 0b90 b13e d23f 1cbe 9dd6 df3c b2c4 7ebd
00000050: 0656 60be d4b5 483e 86e3 12be 5391 103e
00000060: aeea 9e3e 22cb b13d f29e 52be 7849 6abd
00000070: dcd1 9c3c 0de5 613d 699c b6bd 2464 93be
00000080: b035 b2be 0145 823d f8e4 e3be 4c2d 63be
00000090: 6041 7e3e bdb6 19bd b5ae 1e3e 1c53 163e
000000a0: ae71 e53d 03b4 4cbe 2d54 88be 7f67 0abf
000000b0: d2c7 34bb 0e49 6d3d e754 bdbd eba1 113e
000000c0: 6c14 ae3d da05 01bf 45a2 7ebd afb7 16be
000000d0: 3349 fdbd f4b9 6dbe 7382 bbbe c026 3ebe
000000e0: f86a ebbd ef22 dabe f907 613e 53ea ef3e
000000f0: 3540 0b3e 2b4c ea3d 873c 3bbe 5322 903e

weight f4 [64]
0.6036769 0.46651742 0.5293875 0.32727435 0.6722099 0.46669534 0.3049817 0.74422497
0.61381227 0.5185312 0.7445553 0.35016212 0.67004615 0.8348135 0.36238274 0.30340034
0.4329181 0.6344774 0.32732323 0.36291134 0.34556958 0.32306197 0.3101074 0.38855347
0.515411 0.6057607 0.2867886 0.72283936 0.58029735 0.4732772 0.49139142 0.42536384
0.4479767 0.37891722 0.3611177 0.4545899 0.3865905 0.6403086 0.5060129 0.65550053
0.27921814 0.44859993 -0.38653937 0.6064013 0.47291437 0.64911616 0.7552507 0.37615666
0.68930227 0.37571892 0.5300162 0.32412937 0.69271684 0.71588016 0.39711523 0.62027794
0.36771408 0.47800004 0.33558103 0.6887832 0.8141742 0.32434255 0.68530023 0.5811946
00000000: 928a 1a3f 5fdb ee3e f085 073f 8190 a73e
00000010: f315 2c3f b1f2 ee3e 9026 9c3e 8785 3e3f
00000020: cd22 1d3f 76be 043f 2d9b 3e3f 7348 b33e
00000030: 2588 2b3f 56b6 553f 3b8a b93e 4a57 9b3e
00000040: 71a7 dd3e 1c6d 223f e996 a73e 84cf b93e
00000050: 7fee b03e 6168 a53e 66c6 9e3e 7bf0 c63e
00000060: faf1 033f 2213 1b3f f5d5 923e 000c 393f
00000070: 5e8e 143f 6451 f23e a897 fb3e 4ac9 d93e
00000080: 345d e53e 7001 c23e 6be4 b83e 02c0 e83e
00000090: 31ef c53e 44eb 233f 108a 013f e2ce 273f
000000a0: aef5 8e3e e4ae e53e 7de8 c5be 1e3d 1b3f
000000b0: d521 f23e 7a2c 263f 1c58 413f 9b97 c03e
000000c0: 1d76 303f 3b5e c03e 24af 073f 49f4 a53e
000000d0: e455 313f ec43 373f b052 cb3e 89ca 1e3f
000000e0: 0545 bc3e 6cbc f43e 47d1 ab3e 1954 303f
000000f0: b86d 503f 3a10 a63e d66f 2f3f 2bc9 143f

bias f4 [64]
-1.0178452 0.20007356 -0.24354048 -0.08197662 -0.17598782 -0.584809 -0.0065495204 -0.27436078
-0.36083215 -0.6872612 -0.089054205 -0.25848988 -0.15093955 -0.5916134 -0.027210645 -0.1280989
-0.410965 0.13526241 0.06831189 0.018175224 -0.2345977 0.3342731 0.5864761 -0.075886615
0.03884616 -0.04311069 0.18986018 -0.30341905 -0.46767607 -0.2130801 -0.7502954 -0.23558563
-0.37981203 -0.068770975 -0.32908657 0.042292763 0.52962375 -0.2694635 -0.039225135 -1.1714315
0.26536283 -0.43340948 -0.28105915 0.1014357 -0.32433087 -1.0035194 -0.20980518 0.24224815
-0.43214628 -0.23575573 -0.3688136 -0.08178249 -0.02404639 -0.56937164 -0.3469009 -0.118406706
-0.39505237 -0.070231624 -0.21563081 -0.50700516 -0.12234805 -0.1791967 -0.4878041 -0.61969846
00000000: c048 82bf 15e0 4c3e ad62 79be 5ce3 a7bd
00000010: 2736 34be 0bb6 15bf 5c9d d6bb 0479 8cbe
00000020: febe b8be 5af0 2fbf 0d62 b6bd c958 84be
00000030: e68f 1abe fa73 17bf dce8 debc 5c2c 03be
00000040: 016a d2be 3b82 0a3e 1be7 8b3d 35e4 943c
00000050: 613a 70be d825 ab3e 4c23 163f 716a 9bbd
00000060: 271d 1f3d d694 30bd b56a 423e be59 9bbe
00000070: 3d73 efbe ab31 5abe 5c13 40bf 5c3d 71be
00000080: b976 c2be ccd7 8cbd 097e a8be 2d3b 2d3d
00000090: 6c95 073f 1ff7 89be 89aa 20bd 78f1 95bf
000000a0: a3dd 873e d9e7 ddbe fce6 8fbe 85bd cf3d
000000b0: b20e a6be 5373 80bf 2bd7 56be e60f 783e
000000c0: 4742 ddbe f369 71be 23d5 bcbe 947d a7bd
000000d0: effc c4bc 57c2 11bf ff9c b1be 377f f2bd
000000e0: 4e44 cabe 99d5 8fbd 53ce 5cbe 17cb 01bf
000000f0: 9d91 fabd 577f 37be 76c1 f9be 8fa4 1ebf

running_mean f4 [64]
0.1319196 -1.5699999 -1.1888099 -0.13065067 -0.50151086 -1.0611336 1.8177834 -0.6547401
-1.0157291 -1.3523203 -1.5564238 -0.9445081 -0.60078627 -0.8498416 0.13743351 0.32542804
-0.34771365 -1.0765977 -0.16589192 0.5977004 0.5881687 0.6093312 -0.86355203 0.24413726
0.0079023605 1.6022236 -0.5581563 -1.0128732 -0.40481693 -1.0898263 0.88240093 -1.3316326
0.08410901 -0.9515878 0.44220743 -0.27357474 0.21884358 -0.8231102 1.9695989 -0.60629916
-1.011964 1.3276134 0.2211352 1.4011159 -0.80968136 1.4107372 0.003654269 -1.1032349
-0.92518884 -1.7977635 -0.8885721 -0.63004583 -1.9579448 0.5226382 -0.31534138 -0.36745557
-0.14919218 -1.3859215 -0.36974007 -0.5785214 1.481809 0.408978 0.257338 0.5812672
00000000: ee15 073e c2f5 c8bf ec2a 98bf 4ac9 05be
00000010: 0463 00bf 3ad3 87bf 20ad e83f 0c9d 27bf
00000020: 6903 82bf d518 adbf e538 c7bf 48cb 71bf
00000030: 21cd 19bf 388f 59bf 5fbb 0c3e 819e a63e
00000040: 8607 b2be f4cd 89bf 92df 29be e502 193f
00000050: 3992 163f 21fd 1b3f bf11 5dbf 1eff 793e
00000060: e778 013c aa15 cd3f 55e3 0ebf d4a5 81bf
00000070: 2a44 cfbe 6e7f 8bbf 07e5 613f f072 aabf
00000080: 5841 ac3d 429b 73bf 0369 e23e fd11 8cbe
00000090: 8818 603e 5ab7 52bf d11b fc3f 6c36 1bbf
000000a0: 0988 81bf 3cef a93f 4471 623e c457 b33f
000000b0: 4747 4fbf 0993 b43f 767c 6f3b cd36 8dbf
000000c0: 2dd9 6cbf 1d1d e6bf 7679 63bf af4a 21bf
000000d0: ef9d fabf 9ecb 053f 6d74 a1be 2323 bcbe
000000e0: d6c5 18be e065 b1bf 924e bdbe fa19 14bf
000000f0: ebab bd3f 9065 d13e cec1 833e edcd 143f

running_var f4 [64]
0.2446596 0.8760516 2.039981 0.92346483 1.879496 1.0541602 0.66868424 1.3316381
1.0075804 0.98870844 1.4811109 1.539699 1.068699 1.8491606 1.195802 0.73484266
0.6010902 1.6448326 1.1358225 0.8265539 1.120165 0.74447376 1.0412409 0.8960952
1.3931264 2.0504453 0.8707038 1.21586 0.9783328 2.0789325 0.8179091 1.2005744
0.66650933 1.1524491 0.85234237 1.2349117 1.3587759 1.9708507 1.3836238 0.706915
1.5268215 1.6712458 0.7574496 5.4215984 0.8528748 0.806241 3.6569219 1.4026773
1.588444 0.7370022 1.6525853 0.95055854 2.0308843 2.436341 0.5136961 1.5406814
0.46334073 1.2149549 1.4589746 0.53702193 1.2455748 0.6603272 1.282074 0.8496124
00000000: 0c88 7a3e eb44 603f 0c8f 0240 3168 6c3f
00000010: 5393 f03f b9ee 863f e42e 2b3f 1e73 aa3f
00000020: 65f8 803f ff1b 7d3f 0b95 bd3f db14 c53f
00000030: 21cb 883f 4bb1 ec3f 0a10 993f a61e 3c3f
00000040: 0ce1 193f e089 d23f a262 913f 0999 533f
00000050: 9161 8f3f d595 3e3f 6247 853f 7f66 653f
00000060: f751 b23f 7f3a 0340 72e6 5e3f 4da1 9b3f
00000070: 0574 7a3f 3b0d 0540 7e62 513f 6cac 993f
00000080: 5ba0 2a3f 7483 933f 1c33 5a3f 9611 9e3f
00000090: 5eec ad3f d644 fc3f 961a b13f 62f8 343f
000000a0: e36e c33f 62eb d53f 38e8 413f bc7d ad40
000000b0: 0156 5a3f cf65 4e3f 020b 6a40 ee8a b33f
000000c0: 2252 cb3f 2dac 3c3f ea87 d33f ce57 733f
000000d0: 02fa 0140 03ed 1b40 9681 033f 0c35 c53f
000000e0: ff3a ed3e a483 9b3f aebf ba3f 457a 093f
000000f0: ff6e 9f3f 340b 293f 001b a43f 3380 593f

weight f4 [64, 64, 3, 3]
0.051400997 0.028860703 0.1783017 -0.19581935 -0.29983917 -1.4395962 -0.041484687 0.013776268
-1.0571764 -0.18524368 0.12852938 0.19226395 -0.10234945 0.056387123 0.08749704 -0.107317686
-0.0070269722 -0.18845315 -0.078843705 -0.29139486 -0.2727417 -0.2596367 -0.26816547 -0.1634948
0.19327939 -0.1717087 -0.38076565 -0.0736599 -0.05155329 -0.19194755 -0.09741844 -0.1761502
-0.056140725 -0.2918313 -0.383695 0.10884932 0.00040929357 -0.09262078 -0.35659316 0.030407298
0.1301438 0.13918397 -0.1286614 -0.31571957 -0.33637205 0.013475073 0.19290078 -0.27104568
0.024018543 -0.005886246 -0.052504424 0.148233 0.12500449 0.07335163 0.07199772 0.024814805
0.2764434 -0.2632422 -0.58195615 -0.19979727 -0.085412584 0.1013778 -0.0012029567 0.23492552
0.09178446 -0.017655825 0.1900876 0.27637383 -0.14101785 -0.27626097 0.0022239028 0.11970293
-0.32549766 -0.14339289 -0.16746892 -0.44708908 -0.08303466 -0.1009432 -0.6244335 -0.42636824
-0.46919957 -0.20647967 0.08453453 0.48111933 -0.27285516 -0.26982358 0.15462461 -0.28004053
-0.09852848 0.08779332 0.16712128 -0.2946191 0.10882894 -0.06382437 0.042482454 -0.09724786
0.20069756 0.1875745 -0.13028918 0.04008635 -0.2736777 0.26363727 -0.24422239 -0.41410372
-0.12720679 0.13381405 0.07662895 -0.016910765 0.1421681 -0.21636343 0.022768399 0.11276565
0.0796331 -0.12944454 -0.16260736 -0.10666372 0.09762395 -0.14105158 0.053850006 0.22175829
0.11043444 -0.217028 0.1798278 0.0373354 -0.10617418 0.0519684 -0.074166365 -0.32641613
-0.5672797 0.41190496 0.002325748 0.11596237 -0.08175213 -0.5412163 0.23433968 -0.241347
-0.26602107 0.4151102 0.1385145 -0.082415506 -0.42546386 0.17066513 0.71468556 -0.473966
0.41551134 -0.18894854 -0.29742235 0.13702673 -0.2349985 -0.23633708 0.39403096 -0.27231142
-0.2077159 0.1660457 -0.048495255 0.41573086 0.079229325 -0.003909127 0.24592015 -0.27313128
0.19586784 0.106729746 -0.120861165 -0.46843925 0.011632183 -0.28258708 -0.75986457 -1.010031
0.09330614 -0.26331818 -0.24161145 0.18110761 0.094866484 -0.3473474 0.054593362 0.15237331
0.041328155 -0.18216552 -0.24666837 -0.1404618 0.059574865 -0.069088385 0.012903327 0.3040674
-0.11283172 0.25708094 0.37974685 -0.4546551 -0.04350614 -0.20432661 0.037881177 0.21636586
0.20768185 -0.04788329 0.17186438 0.10371014 0.011087108 -0.10524693 -0.2462565 -0.08179432
-0.2143788 -0.091872774 0.14953998 0.27163723 -0.19976692 0.15712811 0.16493328 0.12850967
0.2376013 0.3784018 -0.3738166 0.13482028 -0.098345965 -0.08671788 0.29482797 0.26035663
0.11125192 -0.054571867 0.020043107 -0.0954981 -0.011916457 0.07404425 -0.06588971 -0.2420958
-0.21987261 -0.10334224 -0.21318734 -0.6121716 0.004398685 0.023689415 -0.2973883 0.030203708
-0.12000444 -0.51629895 -0.21693967 -0.20505299 0.054690037 0.23546588 -0.119139284 0.02179922
0.2574712 -0.11618067 0.1258956 -0.18084468 0.056220386 0.19063649 -0.24564038 0.12890333
0.0064214673 0.2457308 -0.14258592 0.26564142 0.5067556 0.16165514 0.34939095 0.038613264
00000000: da89 523d 486d ec3c b994 363e de84 48be
00000010: 8584 99be b044 b8bf d9eb 29bd dbb5 613c
00000020: 8e51 87bf 85b0 3dbe 359d 033e d7e0 443e
00000030: 979c d1bd 2ff6 663d a631 b33d 60c9 dbbd
00000040: 8442 e6bb ddf9 40be cf78 a1bd b531 95be
00000050: cda4 8bbe 1aef 84be fc4c 89be 2e6b 27be
00000060: 08eb 453e 68d4 2fbe b7f3 c2be 00db 96bd
00000070: 8b29 53bd e68d 44be 5283 c7bd b860 34be
00000080: d1f3 65bd ea6a 95be ac73 c4be 64ec de3d
00000090: 7496 d639 f7af bdbd 6193 b6be ba18 f93c
000000a0: 6b44 053e 3e86 0e3e d0bf 03be ffa5 a1be
000000b0: f538 acbe 8dc6 5c3c c887 453e 80c6 8abe
000000c0: 89c2 c43c 69e1 c0bb e10e 57bd 64ca 173e
000000d0: 2d01 003e 6139 963d 8a73 933d 6b48 cb3c
000000e0: fd89 8d3e aec7 86be 14fb 14bf a897 4cbe
000000f0: cbec aebd 2a9f cf3d 87ac 9dba 5190 703e
00000100: 7ef9 bb3d f3a2 90bc 53a6 423e df80 8d3e
00000110: fc66 10be 1472 8dbe e6be 113b cf26 f53d
00000120: a1a7 a6be 96d5 12be f97c 2bbe dce8 e4be
00000130: 130e aabd 4fbb cebd e0da 1fbf f04c dabe
00000140: ed3a f0be 686f 53be 7120 ad3d 4655 f63e
00000150: acb3 8bbe 5126 8abe ea55 1e3e 7961 8fbe
00000160: 4dc9 c9bd fccc b33d d721 2b3e 51d8 96be
00000170: b5e1 de3d 5ab6 82bd 1502 2e3d e329 c7bd
00000180: a983 4d3e 8813 403e 876a 05be 9631 243d
00000190: 7c1f 8cbe 77fb 863e 6f15 7abe 6705 d4be
000001a0: 7f42 02be 8d06 093e a4ef 9c3d 7288 8abc
000001b0: 8494 113e 608e 5dbe cb84 ba3c adf1 e63d
000001c0: ae16 a33d 1c8d 04be 8b82 26be 8272 dabd
000001d0: 11ef c73d d36f 10be d391 5c3d 9b14 633e
000001e0: 742b e23d 973c 5ebe c724 383e 01ed 183d
000001f0: d971 d9bd d1dc 543d 89e4 97bd 0420 a7be
00000200: 3e39 11bf 35e5 d23e 946b 183b ae7d ed3d
00000210: a96d a7bd 278d 0abf bef6 6f3e ab23 77be
00000220: ea33 88be 5389 d43e bfd6 0d3e 76c9 a8bd
00000230: 66d6 d9be d7c2 2e3e a2f5 363f acab f2be
00000240: e7bd d43e ba7b 41be be47 98be bc50 0c3e
00000250: 72a3 70be 5902 72be 6dbe c93e 676c 8bbe
00000260: 7ab3 54be e207 2a3e f6a2 46bd adda d43e
00000270: fc42 a23d 2218 80bb 7ed2 7b3e ddd7 8bbe
00000280: 9491 483e 2095 da3d 0f86 f7bd 45d7 efbe
00000290: e994 3e3c 41af 90be 7c86 42bf b248 81bf
000002a0: 4a17 bf3d a4d1 86be fe68 77be 4674 393e
000002b0: 5c49 c23d 85d7 b1be 4a9d 5f3d c007 1c3e
000002c0: b647 293d 9989 3abe a296 7cbe 38d5 0fbe
000002d0: c604 743d 367e 8dbd 7a68 533c b9ae 9b3e
000002e0: 5114 e7bd 1da0 833e 2e6e c23e 8ec8 e8be
000002f0: 7f33 32bd ff3a 51be 4b29 1b3d 038f 5d3e
00000300: 8daa 543e 4521 44bd 37fd 2f3e fb65 d43d
00000310: b4a6 353c b48b d7bd aa2a 7cbe c883 a7bd
00000320: 1e86 5bbe cb27 bcbd 0221 193e 0914 8b3e
00000330: b38f 4cbe 31e6 203e 45e4 283e 0a98 033e
00000340: c14d 733e e1bd c13e e464 bfbe 540e 0a3e
00000350: 9c69 c9bd 2599 b1bd b1f3 963e 774d 853e
00000360: 0cd8 e33d c086 5fbd 7131 a43c 8294 c3bd
00000370: 3e3d 43bc 83a4 973d 2ff1 86bd f6e7 77be
00000380: 4926 61be 19a5 d3bd c84d 5abe 47b7 1cbf
00000390: d822 903b 4e10 c23c 4743 98be c46d f73c
000003a0: e3c4 f5bd 2b2c 04bf 6f25 5ebe 69f9 51be
000003b0: a902 603d f81d 713e 4cff f3bd 4794 b23c
000003c0: 44d3 833e 22f0 edbd c7ea 003e 592f 39be
000003d0: 5947 663d 3636 433e 2789 7bbe 3cff 033e
000003e0: 2c6b d23b dba0 7b3e 0b02 12be 2702 883e
000003f0: bcba 013f ed88 253e 5fe3 b23e f128 1e3d

bias f4 [64]
-0.22519426 0.05454778 -0.033276126 0.03285303 -0.05334313 -0.17065924 -0.013043656 0.0344846
-0.25595963 0.24383977 -0.048483383 -0.10919504 0.21823648 -0.18076646 0.2318001 0.24819289
0.49637094 -0.021328013 0.057217553 -0.2794 0.012927223 0.29789537 -0.10426286 0.24119076
-0.16852169 0.018082049 -0.05027689 -0.14563888 0.013739397 0.2604541 0.149234 -0.08615773
0.09651278 -0.1598484 -0.0729707 -0.19858138 -0.13503778 0.18908054 0.012273802 0.029398901
0.0006372446 -0.16598819 -0.085983716 0.026639732 0.108886614 0.07710662 -0.082496494 -0.14284632
-0.23643449 -0.34776354 -0.14214267 0.11183457 0.21582246 0.11967207 0.052337524 -0.08916476
-0.17951143 -0.0031040257 0.04163715 -0.13458927 -0.2463816 -0.27283677 0.0030755026 -0.35397553
00000000: 5399 66be 7e6d 5f3d 8c4c 08bd e690 063d
00000010: 537e 5abd 4cc1 2ebe 0fb5 55bc b93f 0d3d
00000020: 240d 83be 22b1 793e 8396 46bd a6a1 dfbd
00000030: 6279 5f3e d81a 39be 015d 6d3e 4726 7e3e
00000040: 5524 fe3e 16b8 aebc f45c 6a3d 840d 8fbe
00000050: b4cc 533c be85 983e c487 d5bd b6fa 763e
00000060: f390 2cbe ce20 943c 24ef 4dbd 5c22 15be
00000070: 351b 613c 3d5a 853e ccd0 183e 7773 b0bd
00000080: 7ea8 c53d 4daf 23be aa71 95bd eb58 4bbe
00000090: 5847 0abe 549e 413e 0f18 493c f7d5 f03c
000000a0: c30c 273a cff8 29be 3b18 b0bd 913b da3c
000000b0: f2ff de3d 13ea 9d3d ecf3 a8bd 4e46 12be
000000c0: e21b 72be 100e b2be d98d 11be 8609 e53d
000000d0: 9000 5d3e a116 f53d df5f 563d 049c b6bd
000000e0: d8d1 37be e96c 4bbb b78b 2a3d c5d1 09be
000000f0: 754b 7cbe 43b1 8bbe 5f8e 493b 483c b5be

weight f4 [64]
0.33927062 0.46860877 0.36182737 0.30854318 0.19516496 0.43654373 0.26787272 0.5191705
0.31994203 0.17204347 0.30436355 0.35386842 0.15139493 0.38905957 0.6831037 0.3352186
0.5289399 0.3092302 0.32229248 0.44891813 0.2085293 0.4110294 0.27404287 0.19008385
0.25794184 0.7223341 0.25347978 0.370941 0.4769075 0.6180961 0.28812277 0.20450279
0.6053059 0.28571382 0.24670024 0.47743514 0.40261853 0.28696188 0.62598306 0.24960254
0.42532063 0.43130574 0.13977337 0.9120882 0.22820194 0.4061552 0.51005006 0.39716884
0.4285788 0.41975448 0.83342505 0.41322258 0.17514625 0.47504577 0.36849666 0.4652617
0.26057872 0.5472916 0.19486877 0.17673737 0.42231765 0.40972826 0.69296473 0.4682416
00000000: e1b4 ad3e 7ded ef3e 7041 b93e 5ff9 9d3e
00000010: 53d9 473e a982 df3e 9d26 893e 5ce8 043f
00000020: 71cf a33e 2a2c 303e 8ad5 9b3e 3e2e b53e
00000030: 4607 1b3e d132 c73e e2df 2e3f c6a1 ab3e
00000040: 9b68 073f 6c53 9e3e 8503 a53e 99d8 e53e
00000050: b488 553e 7272 d23e 594f 8c3e 57a5 423e
00000060: f410 843e e3ea 383f 1ac8 813e fbeb bd3e
00000070: 382d f43e 8c3b 1e3f d484 933e 2e69 513e
00000080: 54f5 1a3f 1549 923e fd9e 7c3e 6172 f43e
00000090: 0424 ce3e abec 923e 6d40 203f cf97 7f3e
000000a0: a0c3 d93e 1bd4 dc3e c020 0f3e 9d7e 693f
000000b0: c5ad 693e 93f3 cf3e a492 023f b759 cb3e
000000c0: ae6e db3e 0fea d63e 585b 553f e991 d33e
000000d0: 8a59 333e 3339 f33e 98ab bc3e c836 ee3e
000000e0: 936a 853e 4d1b 0c3f ae8b 473e a4fa 343e
000000f0: 053a d83e e7c7 d13e 2366 313f 5dbd ef3e

bias f4 [64]
-0.29545584 -0.1968103 -0.30768925 -0.068536244 -0.07854642 -0.11670314 -0.17794478 -0.5990579
0.14640583 0.038228255 -0.11844425 -0.14540173 0.039563127 -0.17707272 -0.37195918 -0.022399148
-0.25533637 -0.17364185 -0.29203388 -0.103187405 -0.08019812 -0.1664007 -0.061460722 -0.088836156
-0.06997666 -0.41499177 -0.09412082 -0.5632047 -0.34085172 -0.08910198 0.24225236 0.0971543
-0.29326722 -0.03773874 -0.06218846 0.017850801 -0.38887236 -0.33958817 -0.58879215 -0.087310106
0.07094275 -0.3629504 -0.10814161 -1.1487687 0.0496926 -0.016095556 -0.3273559 -0.45280793
-0.43284625 -0.14686404 -0.35131043 -0.18425472 -0.04013781 0.038009632 -0.528542 -0.4547148
-0.06801109 0.012963935 -0.047575727 0.006856448 -0.539054 -0.15515435 -0.08319464 -0.066026635
00000000: fd45 97be a488 49be 7289 9dbe bb5c 8cbd
00000010: f2dc a0bd 0e02 efbd 2837 36be dc5b 19bf
00000020: 69eb 153e 3b95 1c3d e692 f2bd 31e4 14be
00000030: f20c 223d 8d52 35be 6f71 bebe 6b7e b7bc
00000040: 73bb 82be 2bcf 31be 7785 95be eb53 d3bd
00000050: e93e a4bd f264 2abe 3dbe 7bbd bbef b5bd
00000060: ec4f 8fbd cd79 d4be 6bc2 c0bd 2f2e 10bf
00000070: 1e84 aebe 197b b6bd 0111 783e d5f8 c63d
00000080: 1f27 96be f093 1abd 54b9 7ebd d83b 923c
00000090: 471a c7be 80de adbe 15bb 16bf a4cf b2bd
000000a0: 6f4a 913d a3d4 b9be 5979 ddbd da0a 93bf
000000b0: 788a 4b3d d4da 83bc 319b a7be 71d6 e7be
000000c0: 069e ddbe 8763 16be f6de b3be 45ad 3cbe
000000d0: 8b67 24bd fdaf 1b3d 874e 07bf 61d0 e8be
000000e0: 6649 8bbd af66 543c c4de 42bd 0eac e03b
000000f0: 71ff 09bf c8e0 1ebe f461 aabd f938 87bd

running_mean f4 [64]
-1.8800933 -1.0661892 -4.7707744 -0.5900267 -1.0239408 -2.3066068 -1.295933 -2.8103929
0.8233985 3.6271448 -1.9700612 -2.6713543 1.0120591 -1.3393592 -0.645288 -0.9254228
0.24713421 -1.0583378 -1.2516181 -0.7958105 -0.1112074 0.5536891 -2.1885169 -0.097519934
-0.75431496 -2.0185535 -0.32012197 -2.0414376 -1.9828953 0.33326754 0.22202009 -0.29018626
-1.4835783 -0.37665147 -1.9321308 -0.42644128 -2.0038939 -1.990277 -0.3451697 -2.470415
-1.5787746 -2.0792155 -1.163185 -1.1378232 -0.8336807 -0.9826726 -1.6800241 -4.174285
-2.0140412 -2.3137739 -1.5594059 -1.9728175 -0.5819475 -0.45636138 -2.4531462 -0.73992664
-2.692654 -0.46300897 1.7487818 -0.31440228 -2.9936254 -2.900145 1.9831353 -0.3394847
00000000: e6a6 f0bf e378 88bf 2faa 98c0 fd0b 17bf
00000010: 7e10 83bf 729f 13c0 22e1 a5bf 7add 33c0
00000020: 3eca 523f 2423 6840 f72a fcbf 78f7 2ac0
00000030: 278b 813f 1f70 abbf 9831 25bf 82e8 6cbf
00000040: c010 7d3e 9d77 87bf 0635 a0bf 3dba 4bbf
00000050: b5c0 e3bd 92be 0d3f a910 0cc0 88b8 c7bd
00000060: c91a 41bf fb2f 01c0 07e7 a3be eaa6 02c0
00000070: 83cf fdbf 0ba2 aa3e 3c59 633e 4b93 94be
00000080: e5e5 bdbf 76d8 c0be 1050 f7bf 8356 dabe
00000090: cc3f 00c0 66c1 febf 15ba b0be 481b 1ec0
000000a0: 4915 cabf de11 05c0 3fe3 94bf 31a4 91bf
000000b0: 196c 55bf 6e90 7bbf 080b d7bf be93 85c0
000000c0: 0de6 00c0 df14 14c0 9d9a c7bf 4985 fcbf
000000d0: 83fa 14bf 33a8 e9be 5900 1dc0 d56b 3dbf
000000e0: 7154 2cc0 830f edbe 15d8 df3f 56f9 a0be
000000f0: 8f97 3fc0 fa9b 39c0 61d7 fd3f f0d0 adbe

running_var f4 [64]
4.2370443 2.481465 3.6320143 1.4265531 4.2189865 2.6791706 1.5506594 1.8615563
7.3352475 3.2735057 2.4238172 3.4286485 3.4373238 5.819454 6.897707 3.589059
6.707462 3.2043772 2.3702517 8.6797695 2.3798378 1.6636814 2.0772314 1.8606335
5.72875 5.3281426 2.30567 2.5580654 2.5201914 5.7243676 2.2030978 11.315951
6.235968 2.2407317 5.505161 1.6717405 1.643784 1.7074825 1.9700333 1.7490076
5.9580717 8.142445 1.2077265 6.503799 3.6230295 6.344504 5.13795 2.0404398
2.2358992 3.209121 8.488536 3.5824797 1.8650674 5.9692197 1.4261241 7.35161
3.1516654 7.8054357 1.5977017 2.0960355 2.2298353 4.733364 14.025208 5.045456
00000000: de95 8740 53d0 1e40 ec72 6840 4b99 b63f
00000010: f001 8740 8877 2b40 027c c63f 7a47 ee3f
00000020: 59ba ea40 1e81 5140 d21f 1b40 fa6e 5b40
00000030: 1dfd 5b40 f838 ba40 04ba dc40 25b3 6540
00000040: 87a3 d640 8414 4d40 34b2 1740 56e0 0a41
00000050: 434f 1840 83f3 d43f 5cf1 0440 3d29 ee3f
00000060: ec51 b740 2580 aa40 1990 1340 58b7 2340
00000070: d14a 2140 052e b740 8eff 0c40 230e 3541
00000080: 0d8d c740 2668 0f40 472a b040 98fb d53f
00000090: 8467 d23f c98e da3f 0d2a fc3f 7bdf df3f
000000a0: 86a8 be40 7447 0241 c896 9a3f 1f1f d040
000000b0: b7df 6740 2d06 cb40 166a a440 9196 0240
000000c0: f918 0f40 3d62 4d40 0bd1 0741 5947 6540
000000d0: 87ba ee3f d903 bf40 3c8b b63f 6440 eb40
000000e0: e3b4 4940 21c6 f940 7d81 cc3f 7225 0640
000000f0: 9fb5 0e40 b877 9740 4167 6041 6074 a140
