models/vishal_lr_001_iter_300.pt_244_128.pt (torch_old, 776281 bytes, 39 tensors)

weight f4 [64, 1, 3, 3]
00000000: d104 55be 98b1 3ebe c57f 9f3e 57d1 ecbd
00000010: 52ad 02be e7a0 a83e 601f 89be 1659 14bd
00000020: ade0 993e 9c64 ce3d c70d ec3d 189c b03c
00000030: 46d1 7abe 90d8 983e 2bbb 73bc 6306 fbbe
00000040: 504c 9e3d a7be 0c3e 000c fa38 cc92 53bd
00000050: 38d7 cfbc 4c47 b4bc 8cc1 6bbd 1028 87bd
00000060: d615 b2bd b6fc ca3d cc98 153d 029c 0fbf
00000070: a60a 84be 0051 babe 975a 10bf 180a e53d
00000080: 7741 0abe 8563 4cbd c152 333f dcc3 c03e
00000090: dc7c 60bd 423e e5bd 52ae 283d 3339 b2bd
000000a0: 7974 b23c 5fdc 5d3d 1d0f 21bd 567b f33b
000000b0: 8fd6 7d3d 4b41 7abd b97f 6ebd d5f2 5dbd
000000c0: 57f7 9b3e d8f0 303e 4b50 f73d 34c3 8d3d
000000d0: e4ce d23c 5450 19bd 9c2e 25bd 5464 d23d
000000e0: d813 473e 4f90 9d3d 57f2 fabe f0b6 a1bf
000000f0: a28c bc3e 3618 d1bd 482c 02bf 8174 e83d
00000100: 0917 6bbe 248a 303e 28cb 5c3e e79a 93be
00000110: f1a4 08bd 7965 203e f307 0dbd ec71 b4bd
00000120: ccab bcbd 90b9 8bbd 1579 7bbd 8628 9bbd
00000130: 8726 22bd 5058 03bd 702b ab3d c654 92bd
00000140: b004 983d db29 62be 8f70 343e 92d7 883b
00000150: 45f7 033d b041 d53e 6e1a d3be 4602 54bd
00000160: 325c 42bc 6eee 503d af90 33bd e0d7 0b3d
00000170: 00fe 4639 37f9 bebd f8bd 8c3d 889e fd3c
00000180: 6670 90bd d0f6 6dbc caab 963d e33c 1f3c
00000190: 8058 013f 97c2 d9bd 62c9 c2bd adeb 57be
000001a0: 6c33 53be f8f3 a23d 512e 87be 1b59 883e
000001b0: 4061 0cbb a04f f33b c043 5fbb f154 76bd
000001c0: f067 16bc 4076 6e3c 005a 7b3d 28ad b93d
000001d0: ad91 4fbd 47a4 db3d 4b66 8b3c 7219 69bd
000001e0: 4ea1 aabe 8976 05bf d0ba 73bd 3795 823e
000001f0: a65d 2b3e 1a8a e43e 1f8e cbbe 900c b03e
00000200: 33e4 433e 600b 33bd 3435 b9be 0d40 6f3e
00000210: faf1 ed3e e5c2 77be e023 50be f7dc a1be
00000220: 5270 983e bc2c a4bd 6486 7ebe 16b0 ee3e
00000230: 42e3 b73d 90a3 9ebe 65e9 433e c59a adbd
00000240: 6067 0abf ce6d ccbf f209 0c3e 5baa 90bf
00000250: 1aee 1dc0 f144 ebbe 725e 0b3e eeee bfbe
00000260: a470 583e 47c9 31be 450c 52be 05ab 27be
00000270: f5b3 2a3d de7d ff3d fc8b dc3e 5927 74be
00000280: 0386 8f3d c182 d63d 69e8 9d3b 6b9b 433e
00000290: 6455 a3be ee36 1a3e 05f1 e73e a7ac f7be
000002a0: 84e3 5d3d ed44 9f3e 85d1 bfbe 02bd 69bf
000002b0: 2183 94be 2f64 a13e 41af 203e f228 113f
000002c0: 4d92 7b3e 6a65 3d3e 20e4 92be eb7d 32bf
000002d0: 8a03 65be 9bb7 6abe 5fd6 d03d 7d8d 283e
000002e0: 817c 353f 35ad bebe 5c0b f1bd e3ec a23d
000002f0: f6e8 f3bd af9e 8cbe eb45 873d 6684 943d
00000300: c3a9 6f3e 9454 c33e ace8 4c3e 2d8d 3f3d
00000310: 1042 dabe e778 99be 2795 ccbd 9206 24be
00000320: fb8e 413e 1dfb 88be efbe b8be 1b35 42be
00000330: 421d 953e 1c19 a03e b49b 983e 534f 03be
00000340: 4793 3ebd e84a 873d 4703 65bd 201c b4bd
00000350: eaf4 27bd 39f3 7c3d 1fae 613d 7ceb d3bc
00000360: 8477 b5bd e20b 70bf f1ac 403e e4cd 18bf
00000370: e79b f8bf da20 c8bd 22ae 233e d337 4bbe
00000380: a639 883e 603f f13b 9318 c9bd f556 abbd
00000390: 8285 c53d 0b96 77bd 602b 483d a086 0ebb
000003a0: 0028 80bb 95ef 99bd 4f5b ba3e e950 223e
000003b0: bdd3 393e 9f49 4dbe 0226 9dbf 753b a7bd
000003c0: b9b5 083e b548 febe 5ab8 823e 4acb b4bc
000003d0: 3416 ee3d 4d0d 49bd a7e9 c6be fc44 cebc
000003e0: 585c 903e 47a6 5e3e c158 233e 6943 a2be
000003f0: 4693 d43e ed14 59be 35f3 30be b9cf 2e3e
-0.20802619 -0.18622434 0.31152168 -0.11563366 -0.12761429 0.3293526 -0.2678175 -0.03621777
0.30054227 0.100777835 0.11526065 0.021558806 -0.24493894 0.29852724 -0.014876167 -0.4902831
0.07729399 0.13744603 0.00011923164 -0.05165367 -0.025371179 -0.022006653 -0.057557628 -0.06599438
-0.08695571 0.09911482 0.03652267 -0.56097424 -0.25789374 -0.36389923 -0.5638823 0.11183566
-0.13501535 -0.049899597 0.7004815 0.3764943 -0.054806575 -0.11193515 0.04118187 -0.08702316
0.021784054 0.05416524 -0.039321054 0.0074304743 0.061972197 -0.061097424 -0.058227275 -0.05418666
0.30462143 0.17279375 0.120758615 0.06921998 0.025733419 -0.037430122 -0.040327653 0.10273042
0.19441164 0.0769354 -0.49013016 -1.2633953 0.36826044 -0.10209696 -0.5084882 0.11350346
-0.22958006 0.17240196 0.21561873 -0.2882912 -0.033360425 0.15663709 -0.03443141 -0.088107914
-0.09212455 -0.068225026 -0.06139477 -0.075760886 -0.039587524 -0.032066643 0.083578944 -0.071450755
0.07422769 -0.22086279 0.17621063 0.0041760886 0.032218236 0.41651678 -0.41231102 -0.05175998
-0.011862801 0.051008634 -0.043839153 0.03414142 0.00018977374 -0.09324878 0.06872171 0.030959383
-0.07052688 -0.014524177 0.07356985 0.009719106 0.50525665 -0.10632818 -0.09511067 -0.21085997
-0.20625085 0.079566896 -0.26402524 0.26630482 -0.002142027 0.0074252635 -0.0034067482 -0.0601396
-0.009180054 0.01455456 0.061365128 0.0906623 -0.050676037 0.10724693 0.01701655 -0.056909032
-0.3332619 -0.52133995 -0.05950433 0.25504467 0.16734943 0.44636613 -0.39756867 0.34384584
0.1913002 -0.04371202 -0.36173403 0.23364277 0.46473676 -0.2419544 -0.20326185 -0.31613895
0.29773194 -0.08016345 -0.24855953 0.46618718 0.08978893 -0.30984163 0.19132002 -0.084767856
-0.5406399 -1.597101 0.13675669 -1.1301988 -2.4676576 -0.45951036 0.13610247 -0.37486976
0.21136719 -0.17361937 -0.20512493 -0.16373833 0.041675527 0.12475179 0.4307555 -0.23843135
0.070079826 0.10474158 0.004818965 0.19102256 -0.31901085 0.15060017 0.4530107 -0.4837391
0.054172054 0.31107274 -0.37464538 -0.9130403 -0.29006293 0.31521747 0.15691854 0.567031
0.24567528 0.18495718 -0.2868967 -0.69723386 -0.22364631 -0.22921602 0.10197138 0.16460223
0.708931 -0.3724152 -0.11769745 0.07955339 -0.11909668 -0.27464816 0.06605133 0.072518155
0.23404603 0.38150465 0.20010632 0.046765495 -0.42628527 -0.29975054 -0.09989386 -0.16018131
0.18902199 -0.26754084 -0.3608317 -0.1896557 0.29123884 0.31269157 0.29806292 -0.12823229
-0.046527173 0.06606084 -0.05591133 -0.08794427 -0.041005053 0.061755393 0.055097695 -0.025869124
-0.088606864 -0.9376813 0.18815972 -0.59689164 -1.9422578 -0.09771891 0.15984395 -0.19845514
0.26606482 0.007362291 -0.0981914 -0.08366195 0.09644605 -0.060445827 0.04886949 -0.0021747723
-0.0039110184 -0.075164 0.36397788 0.15851177 0.18147178 -0.20047615 -1.2277224 -0.081656374
0.13350572 -0.49664846 0.25531274 -0.022069592 0.11625329 -0.04908495 -0.38850138 -0.025179379
0.28195453 0.21743117 0.15951826 -0.31692055 0.4151861 -0.21199389 -0.17280276 0.17071427

bias f4 [64]
00000000: 7af6 293c a34d fb3c acb3 c5bd 886c ad3c
00000010: 62ae 9dbe ede0 8cbe 982c 583e 0e21 bf3d
00000020: f8dd 44be 3ef4 413d 2aca a8be be5a cd3d
00000030: 263e 5ebe 8675 223d 8505 853d 019a 8dbc
00000040: 379f 923e 9a96 dd3c 62b7 ebbc 631b 953d
00000050: 35c1 5c3d 3445 c83c 4b0b 7e3c bac7 d0bd
00000060: 14a4 993e cc53 bcbd 31a0 273e 97c5 cf3d
00000070: ad7b 643c 78aa 443d 7423 e63c ecaa f33d
00000080: 2051 9d3d 9f61 8ebe f366 0a3d c4a8 8b3d
00000090: 5dba bf3c aa1e 933d 3f7e b83d e804 57bd
000000a0: 363c 6c3e 0f06 763d 87f1 7b3d cb56 513d
000000b0: c617 3fbe 7dd2 173e e7f5 85be cb06 d23c
000000c0: ece6 28bf 934b 1dbe 2df3 c03d dd8d 8b3c
000000d0: 54ab 97be 14a2 97be 7069 b1bd f061 bfbd
000000e0: 4072 9ebe 2b2d 3d3d aac0 b4bd b8e1 35bf
000000f0: e2d6 243d 7fd1 673e e288 45bd c6e9 21be
0.010373706 0.030676669 -0.0965341 0.021169916 -0.30797106 -0.27515355 0.21110761 0.093324766
-0.192253 0.047352068 -0.3296674 0.10027073 -0.21703395 0.03966286 0.064951934 -0.017285349
0.28637096 0.027049351 -0.028773967 0.07280614 0.053895194 0.024447061 0.015505622 -0.10194345
0.30007994 -0.091956705 0.16369702 0.10145109 0.013945502 0.048014134 0.028093077 0.11897835
0.07681489 -0.27808854 0.033789586 0.06819299 0.023404295 0.07183583 0.090084545 -0.052494913
0.23069844 0.06006437 0.061509635 0.051108163 -0.18661413 0.14826389 -0.2616417 0.025638005
-0.6597736 -0.1536086 0.09421382 0.01703542 -0.296229 -0.29615843 -0.08662689 -0.09344852
-0.3094654 0.046185654 -0.0882581 -0.71047544 0.04024399 0.2263851 -0.048226245 -0.15811834

weight f4 [64, 64, 3, 3]
00000000: 600f b63b d116 a43e d9dd c4be 3bc3 b73e
00000010: f1bd 093e 7b73 f0be 6479 743e 1fc7 353e
00000020: 3039 033d 5254 5c3d 99b6 833c bf0e 743c
00000030: 2f45 b0be 5e92 dbbe 5b66 3fbd 4a32 fe3d
00000040: fc6a f0bd 41b1 163e 28cc 0cbd 4888 d33c
00000050: 005e 5f3d b608 2e3d 9246 393d f6b3 8abd
00000060: 1c2d 663d 20f1 7b3d cc03 5abc 4669 1d3d
00000070: c0d2 bd3e 3c3a d73d 2282 123d 6b6a e6bd
00000080: ff18 e6be d921 afbe 50bf 9d3e 24f6 863e
00000090: 8ef1 adbc b024 42bc 5ca5 65bd 32f1 b33d
000000a0: 6fd7 c7ba 5282 cfbc a041 483d a89c b6bd
000000b0: 84d2 923d 6c57 2e3c 1a7a cdbe 2209 b2be
000000c0: 7860 bf3e 9931 663e 13b9 a7be 7dea f53e
000000d0: f032 bd3e d8e1 55be ec02 abbd b36e 36bf
000000e0: 12be 74bd a471 5d3f d7fd 03bf c6d8 c8bb
000000f0: e711 8ebe f9f1 62bf b37d 6a3c 8c7f 4e3e
00000100: edca 123f 3652 bb3d 0616 07bf 2ff4 853e
00000110: c41d dbbe fb80 dfbd 1fb1 b73d 19ad babc
00000120: 143d 153d fde9 3cbd 40da 303b a05e 4c3d
00000130: 1c55 7c3d 6c33 5b3d e453 59bd b650 18bd
00000140: 7c74 7e3d 29d8 a53d f25a 7cbd 6f9a f53e
00000150: 148c 30be 62d2 c1be ed3c e0bd 663c 0a3e
00000160: 45d1 6a3d 2300 1bbd 1009 813d 2a5a 903d
00000170: 24c5 8a3d 5b6f 48bd 847f 423d a0dd a43c
00000180: f490 253d b20c 75bd 2a0a 213d eeab c3bc
00000190: 99f0 3c3f d31d a23e 4573 8fbe 730a 37be
000001a0: d691 3a3e 86bf fdbe fa1e d5be dfab 3b3d
000001b0: 6087 073b e062 663d 06a6 1b3d e3ca 0dbd
000001c0: c2a5 d0bc e0f4 843b 2073 873b 8014 593d
000001d0: 83ba 70bd cc48 a8bd 3f47 c6be 2e0c 4e3e
000001e0: e549 b4bb 6b0f 813d 29ac 7b3d 49e2 a33e
000001f0: a565 a93d 482d 55be 2a8c a33d 93bb a53d
00000200: dca0 1f3d bed6 af3c bfa5 52bd 9b6d a6bd
00000210: dd0a 3cbe 1706 c83c 570b ef3c 7364 003d
00000220: f19a 29bd 78a7 acbc cb6b c93a 81f1 7c3c
00000230: aada b23d b0d4 84bc ef47 bfbd 9967 df3e
00000240: 6a01 06bf bfd2 8abe 5337 b9be 9d7b b53e
00000250: d853 2b3f f589 4a3e 6481 ef3e a477 aa3e
00000260: 6ffd 83be 18bb 8dbc 956a 0b3e 78c2 9fbd
00000270: bee6 a2bc e8f4 4bbe a046 66be 54f8 97bd
00000280: fff3 14be 9f6a 1cbe 1362 03be 6359 a03b
00000290: 5319 fd3c a299 0b3f f63e 863e 5fb5 1cbe
000002a0: 56a0 0e3f fc10 b23e 9694 7cbe 4c68 b4bd
000002b0: 7cbb 093e fc4d eabd 3451 b23e 14ef acbe
000002c0: 418c 7dbe 7ae4 6a3f c94d 92be f1bb 84bc
000002d0: 64d5 8abc ac4d 72bd 2a46 ed3e 7b92 02be
000002e0: 40d8 47be 9633 cdbe 7bb7 553e d5b9 213e
000002f0: 50fc 27bd b141 c33d 6aff 953e 07fa 843c
00000300: a39e adbe efd6 c3be 43d4 c53d c75c 91bd
00000310: e2cd 8a3d 0072 0ebd f950 aebe 3dda b03d
00000320: c8ee 803e 6d08 54be df5d a43d d3fc 3dbe
00000330: f886 bb3d ded3 9e3e 31f7 46be 3699 afbc
00000340: 7cff 0dbd c457 2dbd b4c3 a73c c557 903d
00000350: b175 9dbc 085e 073d b2ba 74bd 4f1f eebc
00000360: 1c12 ebbd 6879 a7be a100 373e dba6 69be
00000370: acf0 983e b64d 86be 422e 423e fb4b 0f3d
00000380: 9e43 a53e b866 77bd b099 ffbc c6b4 f0bc
00000390: c215 133d f058 6c3d 9e65 1e3d 9a7d 8ebc
000003a0: cc1d ef3c 377f 22bd 2061 013d f1c9 133e
000003b0: d52c e9bd a741 113e 76f8 fc3e 8af6 2bbd
000003c0: fae3 0fbf 2566 eabe b5bb 64be 7b69 ac3e
000003d0: fa1a a6bc 826f 073f 9679 e8be 744a a0be
000003e0: d872 ae3d 5efb 52bd 9441 99be 04c5 3f3e
000003f0: f460 b93e 2d6e 96bd d535 92bd 44a3 98be
0.005556032 0.32048658 -0.38450506 0.35891137 0.13451363 -0.46963105 0.23874432 0.1775174
0.03203696 0.05379135 0.01607828 0.014896094 -0.34427783 -0.42885107 -0.046728473 0.124119356
-0.11739156 0.14716054 -0.034374386 0.02582182 0.054533005 0.042488776 0.045233317 -0.06772606
0.056195363 0.06150925 -0.013306569 0.038430475 0.37074852 0.10509154 0.035768636 -0.11250766
-0.44940946 -0.3420551 0.30810022 0.26359665 -0.021233346 -0.011849567 -0.056065902 0.08786239
-0.0015246699 -0.025330696 0.04889071 -0.089165986 0.07169059 0.01064096 -0.4013222 -0.34772593
0.37378287 0.22479858 -0.32758388 0.48030463 0.36952925 -0.20886934 -0.08350167 -0.71262664
-0.059751578 0.86501527 -0.51559204 -0.006129357 -0.27748033 -0.8865047 0.014312196 0.20165843
0.5734089 0.0914654 -0.5276798 0.2616286 -0.42796147 -0.10913273 0.0896933 -0.022787618
0.0364352 -0.046121586 0.0026985556 0.04989493 0.061604604 0.053515837 -0.05305852 -0.037186347
0.062122807 0.0809787 -0.06161017 0.47969386 -0.17240936 -0.37855822 -0.10949121 0.13499603
0.05732848 -0.037841927 0.06300557 0.070484474 0.06775883 -0.04893432 0.04748489 0.02012521
0.04042144 -0.05982656 0.039316334 -0.023885693 0.7380462 0.3166338 -0.2801763 -0.1787508
0.18219694 -0.49560183 -0.41625196 0.045818206 0.0020680055 0.05624664 0.03800013 -0.034617316
-0.025469664 0.0040575117 0.004133597 0.052998066 -0.05877162 -0.0821701 -0.3872623 0.20121834
-0.005501973 0.06301769 0.06144348 0.3200858 0.0827134 -0.20818055 0.079857185 0.080924176
0.038971767 0.021464702 -0.0514276 -0.08126374 -0.18363519 0.024416966 0.029180212 0.031345796
-0.04140753 -0.02107595 0.0015367208 0.015438438 0.08733113 -0.016214699 -0.09339892 0.43633726
-0.5234591 -0.27113912 -0.36175022 0.35445872 0.6692481 0.19779189 0.46778405 0.33294404
-0.25779292 -0.017301127 0.13614877 -0.07800764 -0.019885417 -0.19917643 -0.22487879 -0.07420412
-0.14546202 -0.15275048 -0.12830381 0.004893468 0.030895865 0.545313 0.2621991 -0.15303563
0.55713403 0.34778583 -0.24666056 -0.088089556 0.13450426 -0.114406556 0.34827578 -0.33776152
-0.24760534 0.9175488 -0.2857497 -0.016202899 -0.016947456 -0.059156105 0.46342593 -0.1275119
-0.19516087 -0.4007842 0.20870773 0.15793546 -0.04101211 0.09534014 0.29296428 0.016232504
-0.33910093 -0.3824992 0.09659626 -0.07097774 0.0677755 -0.034776688 -0.34046152 0.08635376
0.25182176 -0.20706339 0.08025717 -0.18553476 0.091566026 0.31021017 -0.19430234 -0.021435361
-0.034667477 -0.042320028 0.02047906 0.07047991 -0.019221159 0.03304866 -0.05974836 -0.029067663
-0.114780635 -0.32709813 0.17871334 -0.22817557 0.29871118 -0.26231164 0.18962958 0.03498457
0.3227815 -0.060400695 -0.031201214 -0.029383074 0.03590942 0.057702005 0.03867113 -0.017393876
0.029189013 -0.039672103 0.031586766 0.14432503 -0.11385504 0.141852 0.4940831 -0.041983165
-0.5620724 -0.45781055 -0.2233723 0.33674225 -0.020276535 0.5290452 -0.45405263 -0.31306803
0.085179985 -0.051509254 -0.29932845 0.18727499 0.36206782 -0.07345233 -0.07139174 -0.29812062

bias f4 [64]
00000000: da2b 7dbe 3195 d13e 5fbc 40be 97ff 403e
00000010: 3104 b0bc 2907 fb3e 9aa4 c53e 93a1 033d
00000020: 2f04 6f3e f58a 953e f38b 9e3e 2f35 abbe
00000030: 6892 64bd 5363 12bd 5714 26be d6dc 2ebf
00000040: e8b5 143e 61bd 503e 9c19 c83d 3861 5d3e
00000050: b2d3 ce3e 8425 aabe 9288 e53e b390 473e
00000060: 7b39 783e daba 203e d154 83bd 22a5 d7be
00000070: b678 c4bd c1b2 793e 909d 1c3f 137c de3d
00000080: b488 6fbd f08c 87be a375 703e e327 4abd
00000090: fdd9 bb3c 9892 b83e 1e64 183f 4af8 cd3d
000000a0: 193f eb3e 037c 573e 26ae 073e ed9a eb3e
000000b0: b707 e0be 5fb1 d4bd 74da c1be d906 89bd
000000c0: 6c1f 04bf 10b6 d43b a2b7 c8be 3f66 b2bb
000000d0: 349d 913e f516 c3bd b4a5 4a3b ea38 aabe
000000e0: 9b07 9b3e 0031 20bf bdde 4e3e 3bf1 df3e
000000f0: f93e 383e e1f5 933d 73ee 1fbe a2c9 4ebe
-0.2472376 0.40934137 -0.18821858 0.188475 -0.021486374 0.490289 0.38602144 0.03213651
0.2334144 0.29207578 0.30966148 -0.33439013 -0.055803686 -0.035739254 -0.16218697 -0.6830572
0.14522517 0.20384742 0.097705096 0.21619117 0.40395886 -0.33231747 0.44830757 0.19488792
0.24240677 0.15696278 -0.06412662 -0.42118174 -0.09593336 0.24384595 0.6117792 0.10863509
-0.05847998 -0.26474714 0.23482375 -0.049354445 0.022931093 0.36049342 0.59527767 0.10057123
0.45946577 0.210434 0.13250026 0.46016636 -0.43755886 -0.10385393 -0.3786198 -0.06690759
-0.51610446 0.00649143 -0.392026 -0.0054443176 0.2844025 -0.09525863 0.003092152 -0.33246547
0.3027924 -0.6257477 0.20202155 0.43738732 0.17992772 0.07224632 -0.15618305 -0.20194104

weight f4 [64]
00000000: 2c70 093f 246a 133f aaf7 063f abba 283f
00000010: b338 183f 4101 503f 2494 0f3f caab dd3e
00000020: 4f76 2e3f 9c5e b73e 7430 2c3f 77c7 d73e
00000030: eee2 2f3f d7f8 533f c68c cd3e bee2 d93e
00000040: 4a63 e43e 9301 693f a2cf 033f 610f 203f
00000050: 0a81 0a3f c2fd 5e3f 3aa7 143f 08c0 323f
00000060: e566 f23e 7148 063f 34d6 133f 8bc3 e83e
00000070: 729b 4f3f dbb5 f63e a310 003f d8c3 0d3f
00000080: 694a 683f 5055 083f 8032 223f 8f3a 183f
00000090: 4809 193f 6165 403f 0695 1a3f cb2c 043f
000000a0: a43d bc3e 64be 173f 15bf f53e cf50 093f
000000b0: a8fd 473f c815 2a3f d9a4 1f3f f9e8 163f
000000c0: f535 2f3f 14ee 293f beaf e93e 68a6 e73e
000000d0: a637 023f 6642 f93e 7e9f 1d3f 6b32 273f
000000e0: 3380 fe3e 942e ba3e 2d00 083f 1442 163f
000000f0: 93d9 0e3f 616c 183f 15f0 153f 57ec 0a3f
0.53686786 0.5758383 0.52721655 0.6590983 0.59461516 0.81251913 0.5608542 0.43295127
0.68149275 0.3581437 0.67261434 0.42144367 0.6870564 0.82801574 0.40146464 0.42555803
0.44607002 0.9101803 0.514887 0.62523466 0.5410315 0.87105954 0.5806767 0.69824266
0.47344127 0.52454287 0.57748723 0.45461687 0.81096566 0.4818562 0.50025386 0.5537696
0.9073854 0.53255177 0.63358307 0.59464353 0.5977979 0.7515469 0.6038364 0.5163085
0.36765778 0.5927489 0.47997347 0.5363893 0.78121424 0.66439486 0.6236091 0.5894924
0.68441707 0.66378903 0.45641893 0.45244145 0.5086616 0.4868347 0.6157149 0.65311307
0.49707183 0.3636366 0.5312527 0.5869458 0.5580074 0.59540373 0.5856946 0.54266876

bias f4 [64]
00000000: 2382 a2bd d9e0 12bf 2e69 e3bd de9e 10be
00000010: 450a ddbe 1d8c 42bf cd75 8dbe 70b9 a1bc
00000020: 8b6a 3dbe b770 5cbd 0fd4 bcbe 3a36 16bf
00000030: 487f 243c fde1 c0be 1a57 80be 4131 99be
00000040: 79f2 103e c6cc e1bd 2bf6 f63c 5bed 52be
00000050: 321c b83d feec cebe e28d 4e3e 9ec5 8bbe
00000060: 19d8 8b3e a525 f4bd 4f0d 7cbe e43c 6dbe
00000070: c8e3 a2bd 8f51 283e b6c8 4abe d4d4 7dbe
00000080: 6dbc b5bf e924 1f3b daa2 0d3e 21a9 bdbe
00000090: 2d46 1fbe cb2e 9dbe 1df0 3c3e ea48 10bf
000000a0: a974 7d3e 3f4f 82be ce9e 07bd 3296 78be
000000b0: 6e07 5cbe b57e 03bf 2284 66be cdf2 00bf
000000c0: 4904 8abe f07b e2be 952d 403f a783 97bd
000000d0: 29e3 c7be d550 81be ed9a 64be fe51 82be
000000e0: 0b7d 23be 4d40 1ebd 2b2c a8be 9ab4 cfbd
000000f0: a2f5 3d3d cfd7 b3be 3ed2 f3be 31a4 d1be
-0.07934978 -0.5737434 -0.11104046 -0.14123103 -0.43171898 -0.75995046 -0.27628937 -0.019741744
-0.18497674 -0.05381843 -0.36880538 -0.58676493 0.010040112 -0.37672415 -0.25066453 -0.2992039
0.14154996 -0.110253856 0.030146679 -0.20598356 0.08989753 -0.40415186 0.20171311 -0.27299207
0.27313307 -0.119212426 -0.24614452 -0.23167759 -0.07953602 0.16437362 -0.19803128 -0.24788219
-1.4198128 0.0024283475 0.13831654 -0.37043098 -0.15554114 -0.30699763 0.18450971 -0.5636126
0.24751534 -0.25451085 -0.033110432 -0.24276045 -0.21487209 -0.51365215 -0.22511342 -0.50370485
-0.26956394 -0.44235182 0.7506955 -0.073981576 -0.39040497 -0.25256982 -0.22324724 -0.2545318
-0.15965669 -0.03863554 -0.32846197 -0.10141869 0.04637683 -0.35125586 -0.4762134 -0.4094558

running_mean f4 [64]
00000000: f4fd 83be 673d 8b3e d4f5 90be 7333 bdbd
00000010: 138e cebe 6dbd af3e 2123 de3e 313a 263d
00000020: f8c9 50bc 26bd 653e 67c0 143e eec8 debe
00000030: ea10 94be e820 4abe 5645 eabe 0eb1 58bf
00000040: ee8e 47be 5d0c 093d 167d 1dbc 19c0 933e
00000050: 9f05 803e 7f46 16bf 3ab6 8b3e d38a 833e
00000060: 0fc2 a33d a11f 963c ea53 9abe 2b12 dbbe
00000070: 908d 76be f868 1dbe d147 fa3e 949f edbd
00000080: b6ed c0bd 58d4 37bf fe1c 3c3d f91e 6abb
00000090: e12b 0abd 39a0 953e 34cd 013f 0cff 73bd
000000a0: afd8 4b3e c0a4 0abc f174 b0bd ca46 c13e
000000b0: c99e 1dbf 1164 80be bbd6 ebbe f96f 92be
000000c0: 4e90 1bbf f9e3 fe3c e01a 17bf aef4 96be
000000d0: 8030 f6b9 d255 2fbe a60f 75be 4872 e8be
000000e0: c5cd 37be 797d 38bf 05da 48ba 72b5 943e
000000f0: 231e 30bd 1707 02be 0748 2cbf 5c9f aebe
-0.25779688 0.27195284 -0.28312552 -0.09238329 -0.4034277 0.34324208 0.43386176 0.04058284
-0.012743466 0.22435436 0.1452652 -0.43512672 -0.28919154 -0.19739115 -0.45756024 -0.84645164
-0.19488117 0.033459056 -0.009612342 0.28857496 0.2500429 -0.5870132 0.27287465 0.25691852
0.07995998 0.018325629 -0.30142146 -0.427873 -0.2407744 -0.15372074 0.48882917 -0.11602703
-0.0942034 -0.71808386 0.045926087 -0.0035724028 -0.033733252 0.29223803 0.5070374 -0.059569404
0.19906877 -0.008462131 -0.08616055 0.3774932 -0.6157041 -0.25076345 -0.46062264 -0.28601053
-0.60767066 0.031114565 -0.59025383 -0.2948355 -0.00046956912 -0.17122582 -0.2393175 -0.4539969
-0.17949589 -0.72066456 -0.0007661882 0.29044682 -0.04299749 -0.12698017 -0.67297405 -0.34105957

running_var f4 [64]
00000000: 23fa 253d bf5d bd3c 6c07 993d 282c aa3d
00000010: 613a 4f3d 1a81 b13c 63c5 d13c f456 173d
00000020: 119e 8d3d 0560 5e3c a0bd 923d 21a3 093d
00000030: e517 783d 8c8d 763d a3ab f23c f09e 2d3c
00000040: 23d1 1f3d deb2 b03d 9e1f 803d 9775 643d
00000050: c731 283d 280e ab3d 4a70 823d 238f 2c3d
00000060: b7bd 6e3d 84d1 6f3d f0e7 023d a307 013d
00000070: 0b8e cb3d 01fc 4f3d c324 1a3d 6a2f 163d
00000080: 7f50 0d3d d1c4 8e3d d415 603d 7555 273d
00000090: da1b 6c3d dcc2 0a3d 895f b93d 4692 323c
000000a0: 8227 eb3c 3443 273d ac6b 2b3d 35bb 863c
000000b0: 4cb9 b23d 58a7 b93c d901 553d e83a a93c
000000c0: 05bc 8b3d 166d 6c3d e765 873c ba3d 103d
000000d0: f0a1 8c3c ccc4 173d 95e6 333d 5796 ef3c
000000e0: 28c4 323d dc64 0a3d a7bf c43c 1187 163d
000000f0: b698 913d ecad 0f3d de18 3e3d 01d7 383d
0.040521752 0.02311599 0.07472119 0.083092034 0.050592784 0.021668006 0.025606817 0.03694816
0.069149144 0.0135726975 0.07165074 0.033602837 0.060569663 0.060193583 0.029622858 0.010596976
0.039017808 0.08627866 0.062560305 0.055776205 0.041063096 0.083523095 0.06369074 0.042128693
0.058286395 0.05854942 0.031959474 0.031501424 0.09939202 0.05077744 0.037632715 0.03666631
0.034500595 0.069711335 0.054708317 0.040852983 0.05764375 0.03387724 0.09051425 0.010899132
0.028705362 0.040835574 0.04185073 0.01644669 0.08726749 0.022662804 0.052003715 0.020657972
0.06822971 0.05772122 0.016528083 0.035215117 0.017167062 0.037052915 0.043921072 0.029246492
0.0436441 0.033787593 0.024017168 0.036749903 0.071092054 0.035077974 0.046410434 0.04512692

weight f4 [64, 64, 3, 3]
00000000: bd96 583e 6aba b0b9 8688 893e 5c17 32bd
00000010: d164 cb3d a4a9 7c3d b029 993e 4ce5 913e
00000020: a55b ccbe 6881 cebd 7b0d 86bd 61dc e2bd
00000030: 5f52 40bd 5738 51bd 5790 3bbd c0bd cd3d
00000040: 10ab 22bf cfc1 08bf 2a27 73be 553c 2a3e
00000050: 54d3 93be f66a 8ebe f92c 213e c634 fcbe
00000060: 9bd8 1fbf f99f 2ebf 7f03 aebe 49d9 b03e
00000070: 257c 34bc 0f82 a63e 453b 92be e6c4 493e
00000080: e490 123e b579 703e 6732 0c3c f5e7 b8be
00000090: ec96 d7bd a61c ae3e a87b 2c3e d8a1 f0bd
000000a0: fc48 893d 7fe2 b43d fb88 54be ba7f 39be
000000b0: a83f 9dbe 7eb6 8e3d f704 b33e 1c06 a03e
000000c0: 6451 66be 85ad 1d3c e464 2abe 0edb 853e
000000d0: e0ad 4fbc c488 56bd f038 163d 6531 013e
000000e0: eab0 e83c 530c e8be 2acb f1bd f8f2 8fbe
000000f0: 4bce f03d 64e6 2bba 63f2 b93e 7613 1cbe
00000100: 10f6 76be 17ba 67bd 967e 87be 4308 e6be
00000110: c866 9dbe 26fd 633e 2093 a0be 8bf9 2bbf
00000120: f6db c23e e182 c5be 36fa 54be b16e eabe
00000130: dda8 29bf 2640 033e 37aa 753e 4361 773e
00000140: 468c 983e de63 d73e 8a6b e73e 9ed4 473f
00000150: 868f ad3e a215 883c 9461 ff3e 06d7 873e
00000160: 0681 2c3c 437b 06bf e989 e63d 8762 0abf
00000170: 83d4 1cbf 81a3 33be 3e88 883d ed29 05bf
00000180: c89f 4d3e 2746 173f e9c6 a8be 12e9 51be
00000190: 774c 66bd b251 21be 761c d0bd dbaa e93e
000001a0: fa3f 01be 4faa 75be a170 34be c14a 43bf
000001b0: e019 b23e e274 01be ad61 b1be 5761 1d3d
000001c0: c772 4c3e cd97 a53d 9177 3b3e a68b 08be
000001d0: e2f2 703e 39fe 133f ac95 99be 43f8 3fbe
000001e0: c06a 82bd 660c d7be 39d5 b6be a7f9 a2bd
000001f0: 18a1 543e 33a4 d13d 647c 0c3c 8c52 a2be
00000200: cf2b 1fbf 9dec 333e e8c0 0c3e d47c 3ebe
00000210: 8d13 d0be fc3f cb3c 93bd 573e 65a2 11be
00000220: c6bb ebbb 24ce 5a3e 9f84 723d 06fb 86be
00000230: f25d 16be 3f29 6c3e b4a0 c93e c86a 5e3b
00000240: 34d4 ecbd de3d be3d 179c 51be f054 d1bc
00000250: caf4 91be bdad a5be daee 6a3e 65d4 27bd
00000260: 7214 483f 7761 30bd 4174 04be 4d7f 3c3e
00000270: 5dd4 c13d 225d 893d 67e1 2e3e 55bd ddbb
00000280: 9d98 e63e 736f 9cbe 3847 7c3e f093 803d
00000290: 1713 523e 061d 7f3d 7ee0 d3bc 4015 2b3e
000002a0: 5b26 003c c27e efbe c602 7abd 515a 2cbe
000002b0: 97a9 81bc af02 c13e 5958 93b9 8645 1ebe
000002c0: bda8 11bd 1149 c13e 6f3b 1ebd f912 483b
000002d0: 8602 8e3e d78f 463e 1c96 1d3f a68f 7dbe
000002e0: ebeb c8bc 773e ef3d 0072 02be e671 a3be
000002f0: 9666 713d 75fa 5f3e 1b2e 9b3e dda5 603e
00000300: 6491 203e 0ef6 f0bd df66 ee3d 1597 ee3c
00000310: e697 2b3d c681 0ebf a304 ee3d aaf2 9bbd
00000320: 2864 843e 8798 bb3d 8270 cdbd bdc5 1d3e
00000330: 3b53 13be 8f17 82be cb7a db3e 07af 413c
00000340: 4dff 9abd 7e66 5cbd 418c 3f3e c670 3bbe
00000350: 238b 7abe 06eb 66be 8b25 a7be 1654 e8be
00000360: a34c 84be d41b 0d3e 16b9 86be fa8e 233e
00000370: ddbf 653e 8543 cdbd 77b3 213e 7cb2 a63e
00000380: 5712 f4bd b443 b53e d182 663e e3ef d93d
00000390: 92d0 e5bd 287b b1bc cfcb 18bd 8ae0 6e3b
000003a0: 6ab3 b4be d7ef 19be 72dc 393e 577c 17bd
000003b0: 785a 62be b951 8e3d 7f23 72be 0c8e 62be
000003c0: 921e 563d e51f 20bf 95c3 4dbe 041a d7be
000003d0: 644f fcbd de9c 18be 7977 783e 9ac7 7ebe
000003e0: 1b98 5cbd 4223 0d3e c3dc 87be 5f28 553e
000003f0: f8a0 26be 7f63 b53e f8a2 23be 03c5 353d
0.21151252 -0.00033708225 0.26861972 -0.04347931 0.099313386 0.06168522 0.29914618 0.28495252
-0.3991367 -0.10083276 -0.0654554 -0.1107719 -0.046953555 -0.05107912 -0.04579195 0.100459576
-0.6354227 -0.5342073 -0.23745409 0.16624577 -0.28872168 -0.2781598 0.15739812 -0.49259013
-0.6243989 -0.6821285 -0.33987042 0.34540775 -0.0110159265 0.32521102 -0.28560844 0.19704017
0.14313084 0.23483928 0.008556939 -0.3611447 -0.10526833 0.34006232 0.16844046 -0.11749619
0.06703374 0.08832263 -0.20755379 -0.1811513 -0.30712628 0.06968401 0.34964725 0.3125466
-0.22491986 0.00962389 -0.16640049 0.26143688 -0.012675732 -0.052376524 0.036675394 0.12616499
0.028404672 -0.45321903 -0.118063286 -0.28115058 0.11758097 -0.0006557463 0.3631774 -0.15241799
-0.24117303 -0.056573953 -0.26463765 -0.44928178 -0.30742478 0.22264537 -0.31362247 -0.6717765
0.38058442 -0.38576415 -0.20798573 -0.45787576 -0.6627329 0.1281744 0.23990713 0.24158196
0.2979452 0.4206838 0.45199233 0.78058803 0.33898562 0.016611878 0.49879134 0.26531237
0.010528808 -0.5253183 0.11256773 -0.5405659 -0.6126177 -0.1754284 0.06666611 -0.520171
0.20080483 0.5909142 -0.32964256 -0.20499066 -0.056225266 -0.1575382 -0.101616785 0.45638165
-0.12622061 -0.23990749 -0.1762109 -0.7628594 0.34785366 -0.12642244 -0.34644833 0.03842291
0.19965659 0.08085594 0.1830733 -0.13334522 0.23530152 0.5780979 -0.29997003 -0.18747048
-0.06368017 -0.42001647 -0.3570955 -0.07957774 0.20764577 0.10236397 0.008574579 -0.31703603
-0.6217622 0.1757073 0.13745463 -0.18602306 -0.40639916 0.024810784 0.2106841 -0.14222105
-0.007194015 0.21367699 0.05920851 -0.2636339 -0.14684275 0.23062609 0.3938042 0.0033938158
-0.11563912 0.09289144 -0.204697 -0.025553197 -0.28507072 -0.32359114 0.22942677 -0.04097404
0.781562 -0.0430617 -0.12934972 0.18407936 0.09464333 0.06707217 0.17078172 -0.006766955
0.4503831 -0.3055378 0.24636543 0.06278217 0.20515095 0.06228354 -0.025863882 0.16707325
0.007821645 -0.46776396 -0.0610378 -0.16831328 -0.015827937 0.3769736 -0.0002810385 -0.15456209
-0.035561312 0.37751058 -0.0386309 0.0030528887 0.277363 0.19390808 0.61557174 -0.24761829
-0.024526557 0.11681836 -0.127388 -0.31922835 0.058935724 0.21872886 0.30308613 0.21938272
0.15680462 -0.11765681 0.11640715 0.029124776 0.04189291 -0.5566677 0.11621978 -0.07614644
0.25857663 0.09159952 -0.10031225 0.15407462 -0.14387219 -0.254086 0.4286712 0.011821515
-0.07568226 -0.05380868 0.18705846 -0.18304738 -0.24467139 -0.22550592 -0.3264583 -0.45376652
-0.2583972 0.13780147 -0.26313084 0.1597251 0.22436471 -0.10022644 0.15791117 0.32558048
-0.119175605 0.35403216 0.2251084 0.10641458 -0.11221422 -0.02166517 -0.037303742 0.0036449754
-0.35293132 -0.15032898 0.181505 -0.036983814 -0.22104824 0.06949181 -0.23646353 -0.22124499
0.052275248 -0.6254867 -0.2009414 -0.42012036 -0.1231983 -0.1490359 0.24264325 -0.2488083
-0.053855997 0.13782981 -0.26535615 0.20816182 -0.16272342 0.35427472 -0.15980136 0.04437734

bias f4 [64]
00000000: 72f0 593e b86a bbbd 0a11 623e 59b9 3abe
00000010: 3482 28be 3598 e4bc e5a6 353e a6f9 df3c
00000020: 1cae 97bd bf0e e43d 8f29 29be 7c47 fc3d
00000030: 0db1 af3d a306 183e 2d37 3d3e ac55 00bb
00000040: 1888 483e 1e0c 533e cfa1 213e 70d1 143e
00000050: d629 d33d 1ab1 28be 34c9 c43d 8737 23be
00000060: fda7 793c 060e 433d 308b 8abd fbec ab3c
00000070: 5f9e ddbd 8e61 c5be a369 4a3e bf81 df3d
00000080: 8d8f 4e3e b5f3 703e 4296 2cbd 0f18 39be
00000090: 4401 70bd 3a56 e9bd 7e63 c0bd bb67 203e
000000a0: 647e 30bd 2edf 3cbc f7ea 02bd 29e1 9bbe
000000b0: cee3 dbbd c580 343d f9c6 f93d a735 483e
000000c0: 4618 943e 36c2 6cbe d85e 14be 987e 61bb
000000d0: 73a3 ee3d ba81 803e 1387 013e 8563 24bf
000000e0: d210 1cbe 8298 403c 0aa6 a9be 6469 983e
000000f0: 8caa 923e 64bf 9f3d 8a4b efbd 37e4 873c
0.21283129 -0.09151214 0.22076812 -0.18234767 -0.16455919 -0.02790461 0.17739446 0.027340721
-0.074062556 0.11135625 -0.1651976 0.12318322 0.08578692 0.14846282 0.18478079 -0.0019582314
0.19583166 0.20610091 0.15784381 0.14533019 0.10310714 -0.16473809 0.09608689 -0.15939151
0.015237805 0.047620796 -0.06764829 0.020987025 -0.108212225 -0.3855099 0.1976686 0.10913419
0.20171948 0.23530467 -0.042135485 -0.18075584 -0.058594957 -0.113933995 -0.09393977 0.1566457
-0.043089285 -0.01152782 -0.03196236 -0.3044522 -0.1073681 0.044068117 0.12196154 0.19551717
0.2892477 -0.2312096 -0.14489305 -0.003440773 0.11652269 0.25098974 0.12649183 -0.64214355
-0.15240791 0.011755111 -0.3313449 0.29767907 0.28645742 0.07800177 -0.1168433 0.016588314

weight f4 [64]
00000000: 96f6 333f 4839 ba3e ff59 2d3f 30a3 fd3e
00000010: 0891 203f f5d7 0e3f 4101 e83e 7770 1d3f
00000020: 633f df3e 880c 013f 1d63 f43e 506f 243f
00000030: ca0b 013f 5933 003f 40ab e03e 378f 603f
00000040: 8200 103f 7ed7 373f 802b 863f 1d8f c93e
00000050: c4cc 2f3f 7d1d 053f bac4 d63e 7d90 5a3f
00000060: 2a35 f33e 0d9c 6b3f fefe 4f3f 6fdb f13e
00000070: 7850 163f bf37 103f 4456 593f 3537 5f3f
00000080: 3950 f33e d0f6 de3e e9c1 083f fe77 583f
00000090: 8487 133f 9836 033f 6f44 093f c187 173f
000000a0: 40ab 033f aad8 cf3e 47f1 353f c35c 803f
000000b0: 1a24 003f e399 a83e 5122 963f 07cd 0b3f
000000c0: 4a02 693f e5e1 533f e8b5 7e3f 6c6d 0f3f
000000d0: 312a d63e c88a 323f fff4 a63e 0d3e 1b3f
000000e0: b816 b93e 2847 093f 03d6 f63e 5806 2d3f
000000f0: f798 793f 2129 8d3f 857c 2f3f 77d7 113f
0.70298135 0.36371827 0.6771545 0.49538565 0.627213 0.55798274 0.45313457 0.6149973
0.43603048 0.50409746 0.47731867 0.6423235 0.50408614 0.5007835 0.43880653 0.8771853
0.56250775 0.7181319 1.0482025 0.39367 0.6867182 0.5199812 0.41946965 0.8537672
0.47501498 0.9203499 0.8124846 0.47237727 0.58716536 0.5633506 0.84897256 0.87193614
0.47522143 0.43547678 0.53420883 0.84558094 0.57628655 0.5125518 0.53620046 0.5919152
0.5143318 0.4059499 0.71071285 1.0028309 0.50055087 0.32929906 1.1729223 0.5460972
0.9101912 0.8276656 0.99496317 0.5602634 0.41829064 0.69743013 0.32608792 0.60641557
0.36150146 0.536242 0.48210153 0.67587805 0.9749903 1.1028177 0.68549377 0.569694

bias f4 [64]
00000000: 484e 8cb9 a9fd bf3d 5009 423d c723 993c
00000010: 3998 1e3e 2776 69bf 4f2b 9fbe 7434 9b3d
00000020: 6709 183e ff68 84bd 73d6 a4be 1682 6ebe
00000030: 50c2 08bd 9cc6 993c d02a 3c3e b26e 9abc
00000040: 9108 ccbe 0f91 d1be e889 bebe 1946 153f
00000050: d6bb a9bd 7fd1 1b3e 59cc 75bd f274 15be
00000060: d12a adbe 9ae1 dcbd 08c0 c9be 7725 1fbf
00000070: 0da3 1bbf 66e7 783d 75ea 2dbe 65ce 46be
00000080: fdac 453e a1b7 8bbd 270a f6bd f73e 9fbe
00000090: 83ed 5bbd 6250 153e c61e 4dbe 2ce2 5a3d
000000a0: 6a0b 11bd 2d64 0ebe 3f40 03be b736 a1be
000000b0: 6e35 81bd 0563 2f3e d6da d4be 02a7 a6bd
000000c0: 50bd 28be 3539 6abe 145b 93be 4437 e2be
000000d0: d498 613e 75e5 6bbe af29 3f3f 74a0 9bbd
000000e0: d943 f2bd c960 fabd 5dbe e8bd 84a8 11be
000000f0: 7314 babe fca4 08bf 5402 fbbe 92e4 8f3d
-0.00026761205 0.09374554 0.047372162 0.018693818 0.15487756 -0.9119591 -0.3108773 0.07578364
0.14847337 -0.06465339 -0.32194862 -0.23291811 -0.033388436 0.018771462 0.18375707 -0.018851612
-0.39850286 -0.40930983 -0.3721459 0.58310086 -0.0828778 0.15216635 -0.060009334 -0.14595392
-0.3382173 -0.107852176 -0.3940432 -0.6216654 -0.6079567 0.060767554 -0.1698397 -0.19414671
0.19304271 -0.06822134 -0.12013655 -0.31102726 -0.053693306 0.14581445 -0.2003127 0.05343835
-0.035411276 -0.13905402 -0.12817477 -0.31487057 -0.06309019 0.17127617 -0.4157321 -0.08137323
-0.16478467 -0.22873385 -0.28780425 -0.4418279 0.22030956 -0.2303675 0.7467298 -0.075989634
-0.11829347 -0.122254916 -0.11364434 -0.1422444 -0.36343727 -0.53376746 -0.49025214 0.07026018

running_mean f4 [64]
00000000: 3bab 0ebf 9147 d5be 7fcf f9bf 83a4 8ebf
00000010: f77c 4abf e45b ff3c 2b70 23bf ca13 a6be
00000020: 6b3b 323e 0270 9cbf 4d4b c0bf 3173 96bf
00000030: 0dde 9dbf 9122 673f 01fc ecbe 3d3a acbf
00000040: eb20 3bbe b1d8 9abe bdc7 20c0 33a6 bcbf
00000050: e67c 5fbf 88fd 61bf 8dfc 0dbe 6a44 05c0
00000060: 2b71 edbc 2d2e aebf ad71 c0bf 723b c73c
00000070: 305a 96bf 959e 39bf 5aa5 39be 51b1 65bf
00000080: 2ae9 b7be d85c 3c3c 8e16 98bf d9c8 f6bf
00000090: 0380 bcbe 9e4b 85bf 7315 66bf 0f4e 2dbc
000000a0: 1c71 94bf 79a0 55bf 9139 b2bf 2003 89bf
000000b0: 429c 13bf 0957 cc3c a457 cebf 8be0 10bf
000000c0: eb18 a1bf d40b 16c0 ab7d 86bf 6655 ecbf
000000d0: 262c 10be 38ae 02bf 2943 1c3f c96a 3abf
000000e0: 328e adbe c945 83bf fc66 2abd 5179 55bf
000000f0: 455c 02bf 6fb7 d3bf 72fd 18bf 44c0 eabf
-0.55730027 -0.41656163 -1.9516448 -1.1143955 -0.7909693 0.031171747 -0.6384303 -0.32436973
0.17405479 -1.2221682 -1.502298 -1.1753904 -1.233339 0.9028712 -0.46286014 -1.3455273
-0.18274276 -0.30243447 -2.512191 -1.473822 -0.87299955 -0.88277483 -0.13865872 -2.0823007
-0.028984627 -1.3607842 -1.5034691 0.024320338 -1.1746273 -0.725076 -0.18129483 -0.8972369
-0.35920078 0.011496745 -1.1881883 -1.9280044 -0.36816415 -1.0413702 -0.8987648 -0.010577693
-1.1597018 -0.83447987 -1.3923818 -1.0704079 -0.57660306 0.024943845 -1.6120496 -0.56592625
-1.2585729 -2.344472 -1.0507101 -1.8463562 -0.14079341 -0.51047087 0.6103998 -0.7281919
-0.3389755 -1.0255672 -0.04160212 -0.8338824 -0.5092204 -1.6540354 -0.59761727 -1.8339925

running_var f4 [64]
00000000: f841 8440 70f8 0a40 cbc4 8e40 3bcb 4d40
00000010: e2e1 a340 f254 3b40 3438 f83f 0dc5 3940
00000020: 1b2a 5b40 7d18 2940 e432 fa3f 7780 4140
00000030: ed62 4c40 5e52 2b40 0e05 3440 7c2a 1641
00000040: da8f e73f edf8 5e40 c6f1 a440 cad7 3940
00000050: 86fa 8d40 0c92 5240 a794 3040 e22e be40
00000060: 64f0 9b3f 5257 a740 6d1e 8f40 d592 0240
00000070: 3db3 0340 65e2 4b40 4a27 9640 ea89 9240
00000080: 5246 5040 ac06 0f40 0551 3a40 b9b7 9040
00000090: 5d42 3940 5408 6a40 a1d5 1a40 cdab 4d40
000000a0: 1902 2540 efe0 db3f a3a0 2c40 91a3 ad40
000000b0: cb61 5b40 ff01 dd3f 6b59 be40 ee65 6540
000000c0: eedc d240 5251 7b40 823f 9140 7fd9 0140
000000d0: 5791 3040 c7df 5540 0afd 3440 361f 3640
000000e0: 4579 0a40 3d43 2240 d070 1540 0af8 3e40
000000f0: 46b6 a340 632e 8540 3793 ef3f b666 8b40
4.133053 2.1714134 4.4615226 3.2155292 5.1213236 2.9270597 1.9392152 2.902652
3.424445 2.6421196 1.954678 3.0234659 3.193538 2.6769023 2.8128085 9.385372
1.8090775 3.4839432 5.1545134 2.9037957 4.4368315 3.290164 2.759073 5.943223
1.2182736 5.229409 4.472464 2.040212 2.0578148 3.185693 4.692296 4.579335
3.254292 2.2347822 2.911195 4.522427 2.8946755 3.6567583 2.4192889 3.213611
2.578253 1.7178019 2.6973045 5.4262166 3.4278438 1.7266234 5.9484153 3.5843463
6.589469 3.9268384 4.5390024 2.0289 2.7588708 3.3417833 2.8279443 2.845655
2.1636517 2.535354 2.3350105 2.983889 5.116 4.1619124 1.8716801 4.356288

weight f4 [64, 64, 3, 3]
00000000: 6951 dd3d 291f 133e a83b b53e f7b1 273e
00000010: 7092 663e fa68 c1bd 160a 873e b78f ef3e
00000020: 9bd0 8b3d 5ac8 6bbc dfe9 993d 12ae d63d
00000030: 6418 e63d 58fa 07bf f3ba 78bd 20d4 813e
00000040: fba0 ab3d c711 2e3d 55af 7ebe 4d3c 983e
00000050: 37b4 8d3e b158 3fbe b5db b1bd f572 45be
00000060: b324 fd3d 4c2e 3dbe 204d 823d 8bb2 b5bd
00000070: a1dc 943e dec1 05be 3650 873e 32a3 2a3d
00000080: f914 473e e934 e03d 92d9 b7be f00d 04bd
00000090: 1679 1ebd 7ab6 433e 3ca1 0cbe 47b9 643c
000000a0: dd38 f73e 6490 83be 2c00 223e 3245 c4be
000000b0: 01e0 6f3e 60b6 8e3d 6402 543e 1bf4 093d
000000c0: d5ef a13e 8195 e73e 1703 c9bd 8581 97be
000000d0: d34d 9abd 538e cbbd 8f9a 933d fec6 503e
000000e0: e5a8 fdbc e7f9 0e3f 05b8 36bf 8246 683e
000000f0: 40ef 883e 6cf3 94bf 0439 1ebe b9f4 c0be
00000100: 6bab aebd a2ba 623d ff17 f6be 5b7f 12bf
00000110: b560 9dbe ca20 00bd 2687 02be ca9b 68be
00000120: 2022 293e 53f4 b8be 4a2f 02be 3a93 643e
00000130: 0c96 aa3d f90d 743d e6f7 c9bd 44fc bbbe
00000140: 9215 4a3d 931a 093f 378b d93e 9c79 50be
00000150: 053d c1bd ae92 98be 81cc 2fbe fdaa 373d
00000160: e346 d6be f0d3 9bbd 8e21 afbe 2c11 223d
00000170: 6088 923e 7bbb 133d 11d6 28bd 2a2c 3ebc
00000180: 03df 32bd 1b1b c83e d629 223b d2c0 7ebd
00000190: 6e9f fd3d ff43 f6be 4b89 26be ea6a 3f3e
000001a0: 61e5 ed3d 6c75 cbbe bbd1 0dbe 87c1 3abe
000001b0: 717a 2bbd cedc 90bd ea8a 0bbf 727a 0d3e
000001c0: 77f0 17be 30fe cebe 6914 0dbf 2ede 783d
000001d0: 06ef 14bf 7370 16be c9f3 d03e 2c40 da3e
000001e0: 488c 6cbf b3a3 37be df90 a2bb d2b1 a9be
000001f0: 4644 8dbe dd27 ba3e 28a2 d9bd 8599 1dbd
00000200: b71b 4dbd ba32 1b3f 6e09 283e 1612 b03d
00000210: 47a5 593c 1b98 c53e 0379 ccbd af74 21bd
00000220: 02f0 ce3d 6723 e03e 0530 a63d 1d30 3dbf
00000230: 22cb 19bf 149d eabd ae8f f8be edd2 b83d
00000240: 3e3e 83bf 38b3 893e e14b 8cbc f9e4 75bd
00000250: 50f1 89bf f457 17be fd4f 33be 138b f0be
00000260: 6f06 1bbf 1ecf 7a3e 3fb6 b1bb 3017 7d3e
00000270: 9456 a7be ed1a efbe 7a0e c73e 11e6 b3be
00000280: 40c6 c43c 39a7 46be 32de 65bd 431d 403e
00000290: 23a7 8ebe c97c 7f3e 3e26 53be b4a6 353c
000002a0: de2e 3c3e c9d3 643e 4270 ac3a 199d 043d
000002b0: e855 2ebe 20c0 723e 784c f7bd fbc6 273e
000002c0: 78d8 c03d 63ee a1be 2a6a e73e 134a abbe
000002d0: 6d8b 30bd 5976 c9be 7b64 a7be 0b9c 4ebe
000002e0: 5f00 853e 8210 c8be 6cc4 afbe ad22 dbbd
000002f0: 44aa a6be 7347 03bd 06a5 a4be da2c 983e
00000300: 8b62 75bd f44d b43e 367f a3be ebb6 f2bd
00000310: a9d2 82bd dc71 1cbc 1a89 edbe 76ca 7e3e
00000320: dbec 36be 5009 92be 0ec2 493e 66e9 023f
00000330: 2f7b 753e 1f24 f0bd 1c61 a23d 486e 35be
00000340: 33cd 92be 48bf 533e acec aabe cdb7 d73e
00000350: abd7 013f 2d31 d0be 5219 523e 6c44 ccbe
00000360: 0a23 bbbd 0921 3bbf 4adf cd3d 94da 3cbe
00000370: d6b3 ecbe 00bd fbbe 09c7 aebd 193e 383f
00000380: a473 613e 9294 ad3e 6db5 abbe 6481 bebd
00000390: 15ab 973e 3c99 d2bd 1496 52be bae7 5fbe
000003a0: 01a1 e63e 48f5 35be 1def 8ebe 5657 42be
000003b0: c268 d1be 5349 81be 5252 0d3f 4364 df3a
000003c0: d2ec 0bbe e70d ca3e e65b dcbd 7d96 9b3e
000003d0: b141 ca3e 859e 8cbe d2c7 33bd 8dc0 543e
000003e0: 4ea6 1dbe 66b6 983e 6209 39be bc1e 82bc
000003f0: cc91 4e3e c6a5 783e 9363 203e 1db6 11be
0.108065434 0.14367355 0.35397077 0.16376482 0.22516799 -0.09443851 0.26374882 0.46789333
0.06826898 -0.014391029 0.075153105 0.1048242 0.11235121 -0.5311637 -0.060725164 0.2535715
0.08380314 0.042497423 -0.24871571 0.29733506 0.27676556 -0.18686177 -0.08684484 -0.19282134
0.123605154 -0.18474692 0.06362367 -0.08871945 0.29074576 -0.13062236 0.26428384 0.04165954
0.19441594 0.10947592 -0.3590818 -0.032239854 -0.038689695 0.19112578 -0.13733381 0.013960189
0.4828557 -0.256961 0.15820378 -0.38334042 0.23425294 0.06968379 0.20704037 0.033680063
0.3162829 0.4523125 -0.098150425 -0.29591003 -0.07534375 -0.099392556 0.07207214 0.2038841
-0.030964324 0.5585007 -0.7137454 0.22683147 0.26745033 -1.1636786 -0.15451437 -0.3768671
-0.08528789 0.05535377 -0.48065183 -0.5722558 -0.30737844 -0.03128127 -0.12746868 -0.22715679
0.16516924 -0.36123905 -0.12713352 0.22321787 0.083294004 0.059583638 -0.09861736 -0.367159
0.049336977 0.53556174 0.42489025 -0.2035889 -0.09435467 -0.29799408 -0.17167856 0.0448408
-0.41850957 -0.07608783 -0.34205288 0.039567158 0.2861967 0.036067467 -0.041219775 -0.011607209
-0.04366971 0.3908318 0.0024744174 -0.062195607 0.123839244 -0.48098752 -0.1626331 0.18693128
0.11616016 -0.39738023 -0.13849537 -0.18237887 -0.041864816 -0.07073365 -0.5450884 0.1381624
-0.14837824 -0.40428305 -0.5510927 0.060758762 -0.5817722 -0.14691333 0.40810993 0.42627084
-0.9240155 -0.1793354 -0.0049611176 -0.3314348 -0.2759115 0.36358538 -0.10626632 -0.038476486
-0.05007526 0.6062428 0.16409847 0.085971996 0.013284034 0.3859261 -0.09984019 -0.03941792
0.101043716 0.4377701 0.08114628 -0.7390154 -0.6007558 -0.114557415 -0.4854712 0.09024606
-1.025337 0.26894546 -0.017126026 -0.06003282 -1.0776768 -0.14779645 -0.17510982 -0.46981105
-0.6055669 0.24493071 -0.0054233368 0.24715877 -0.3268324 -0.4670023 0.38878232 -0.35136464
0.024020314 -0.19399728 -0.056120105 0.18761162 -0.2786189 0.24949946 -0.20620057 0.011087108
0.18377253 0.22346415 0.0013156014 0.032376382 -0.17024958 0.23706102 -0.12075132 0.16384499
0.09416288 -0.31627187 0.45198184 -0.33454952 -0.043101717 -0.39348105 -0.32693848 -0.20176713
0.25976846 -0.39075094 -0.34329545 -0.10699973 -0.32551777 -0.03205056 -0.32157153 0.2972172
-0.05990843 0.35215724 -0.31932992 -0.11851295 -0.063878365 -0.009548631 -0.46393663 0.2488192
-0.1786379 -0.2852273 0.19702932 0.5113739 0.23972772 -0.117256396 0.079286784 -0.1771785
-0.2867218 0.20678437 -0.3338369 0.42132416 0.5071971 -0.40662518 0.20517471 -0.39895952
-0.091375425 -0.7309728 0.10052355 -0.18442756 -0.46230954 -0.49167633 -0.08534057 0.71969754
0.2201677 0.33902413 -0.33536854 -0.09302023 0.29622713 -0.102831334 -0.20565063 -0.2186574
0.4504471 -0.17769349 -0.27916804 -0.18978629 -0.40900236 -0.25251254 0.55203736 0.001704343
-0.13664559 0.39463732 -0.10759716 0.3038825 0.39503244 -0.2746469 -0.043891735 0.20776577
-0.15395471 0.2982666 -0.18069986 -0.015883796 0.20172805 0.24281988 0.15662985 -0.14229627

bias f4 [64]
00000000: 6915 183d 147b 51be 3b8b 193e 0c45 17bc
00000010: baba 78bc afdf 7ebc 56cc 0ebe ef51 5a3e
00000020: ed7b acbd 4ec2 8b3d 0a76 8b3e 3cc5 ccbd
00000030: fe86 df3d fc8d 013d 94a4 6e3e f52a 8dbd
00000040: 7927 eb3d 01e0 5f3d 2960 8cbd 5797 883d
00000050: d7ad 31be d400 793e 0117 e63d af7d 41bd
00000060: 6e9e c3bd b23e 6f3e b9c1 3cbe c536 57bd
00000070: d591 8bbe a8af fbbd 33bd c3be b1b1 923d
00000080: c889 d6bc 79a2 223d 6ae6 febd 27d8 e2bc
00000090: c076 b73d 8fb6 993d 5a69 c13d 5047 9bbd
000000a0: 9d80 763e edfb 8f3a a356 52bd 3d0e 85be
000000b0: 8715 e3bc 3d43 fc3d 799b 1bbd f227 e1bd
000000c0: 2f93 77be 18e4 693e 0276 a83b b722 3abe
000000d0: 704a 0cbd d629 9bbe 9778 003d 8307 0ebe
000000e0: e645 913d 6399 fe3d 25da e4bb d8fb 83bc
000000f0: 6808 b73e 9707 88bd 11a7 41be fe7d 61bb
0.037129793 -0.20457107 0.14994518 -0.009232771 -0.015181238 -0.01555626 -0.13945135 0.21320318
-0.084220745 0.0682417 0.27238494 -0.09998557 0.109144196 0.031629547 0.23304969 -0.06892959
0.11482138 0.054656986 -0.068542786 0.06669491 -0.17351471 0.24316722 0.112348564 -0.047239
-0.095517024 0.2336376 -0.18433274 -0.052542467 -0.272597 -0.12289363 -0.38230285 0.07162798
-0.026188746 0.039705727 -0.12446292 -0.02769096 0.08958197 0.075055234 0.09443922 -0.07581961
0.240725 0.0010985114 -0.051352154 -0.25987425 -0.027720226 0.12317512 -0.037990067 -0.10993947
-0.2417724 0.22840917 0.0051410208 -0.18177305 -0.034250677 -0.30305356 0.031365003 -0.13870053
0.0709341 0.124316 -0.0069840127 -0.0161113 0.357486 -0.06642073 -0.18911387 -0.0034407373

weight f4 [64]
00000000: 5588 493f c17b 043f bade 3a3f 9d46 0a3f
00000010: f473 d83e 38df 073f 01bb 033f b44c b13e
00000020: 20f7 ee3e a315 ab3e 9627 b03e 7e1e b93e
00000030: ccfb 813f d62f 4f3f 2237 153f ce50 c03e
00000040: 1750 313f 62c1 d93e f9bd 223f 1baf 153f
00000050: 2800 2a3f 9170 013f 01c6 f43e 7cd1 2b3f
00000060: 1d91 183f 54ea c03e 307c 083f 9273 e43e
00000070: 8758 b93e debd 0f3f db2f cb3e 0515 d63e
00000080: eb7e da3e d39a 1b3f 699a 173f ab09 303f
00000090: ee64 1b3f 4615 903f 6e4b 0a3f 9f6f ae3e
000000a0: d9bc b23e a83b 2e3f ddb5 b03e 7d82 ae3e
000000b0: c9d7 083f e9b5 f93e 19a6 dc3e 2e51 293f
000000c0: 8743 173f 0295 1a3f fbd7 ac3e 6536 d23e
000000d0: 402a 013f a463 2d3f 830c 073f 4c50 0d3f
000000e0: c081 103f ed9d 043f 3a5b 213f d1fa fc3e
000000f0: 971c fe3e 2a29 4e3f 3cd8 4a3f 3b52 0f3f
0.7872365 0.51751333 0.72996104 0.54014 0.42275965 0.5307498 0.5145722 0.34628832
0.46672916 0.33414945 0.34405202 0.36156076 1.0154967 0.80932367 0.5828725 0.3756165
0.6926283 0.42530352 0.63571125 0.58470315 0.6640649 0.5056239 0.47807315 0.6711652
0.59596425 0.37678778 0.53314495 0.44619423 0.36200354 0.5614909 0.39684948 0.41812912
0.42674956 0.6078312 0.59219986 0.6876475 0.6070088 1.1256492 0.54021347 0.34069535
0.34909704 0.6805978 0.3451375 0.3408393 0.5345426 0.487716 0.43095472 0.66139495
0.59087414 0.6038362 0.3375853 0.41057125 0.50455093 0.67730165 0.52753466 0.5520065
0.5644798 0.51803476 0.63029826 0.49410108 0.49631187 0.8053156 0.792362 0.5598485

bias f4 [64]
00000000: 1356 c7be 1107 c6be 74b9 69bf 2911 1abf
00000010: 0e51 00be 084c 18bf b42a 583e d750 9b3e
00000020: b103 b7be 9a6e 843e df7a 323f 188e ea3d
00000030: 1422 a1bf 438c 95bf c427 b9bd b71c 04bd
00000040: f8d9 19bf 354f 6a3e 8939 37bf ee2c adbe
00000050: 3ca7 40bf 8c07 a43d ef16 82be 499a 3dbe
00000060: 5ec8 9dbe 360c 643d 2d1b 873d ee1a 4c3e
00000070: e0f3 153e bb1f 70bd 3ccb 3b3e 1a32 413e
00000080: 8396 a3be 23f1 163d 5161 75be 1b41 4dbf
00000090: b972 77be 1a82 a3bf 4df2 a83d df1e d43e
000000a0: 2a0c 2c3e 297e 3fbf 8429 603e 11eb 7b3e
000000b0: bf13 02be 86cb 033d 79b1 2f3e 9e46 00bf
000000c0: 35bb babe 89cf 0ebf ee9e 103f 1520 623e
000000d0: fa0a 6e3c 624b c9be 4b8e a2be aafb c2be
000000e0: 2ca0 a5be 62f5 a5be fb5b f1be d0c7 ebbe
000000f0: a557 6f3e 06f7 92bf b979 2cbf edd6 d0be
-0.38932857 -0.38677266 -0.91298604 -0.60182434 -0.1253092 -0.59491014 0.2111004 0.30335113
-0.35745004 0.25865632 0.69718736 0.114528835 -1.2588525 -1.168343 -0.09040788 -0.032253947
-0.6009822 0.22881778 -0.71572167 -0.3382334 -0.7525518 0.08009252 -0.25408122 -0.18515886
-0.3081693 0.055675708 0.0659698 0.19932148 0.14643812 -0.05862401 0.18339247 0.18866768
-0.3195077 0.03685106 -0.23962905 -0.8017747 -0.24164857 -1.2774079 0.0824934 0.41429803
0.16801515 -0.7480188 0.21890837 0.2460139 -0.12702845 0.032176517 0.17157544 -0.50107753
-0.36470953 -0.55785424 0.5649251 0.22082551 0.014528984 -0.39315325 -0.31749186 -0.3808263
-0.32348764 -0.32413775 -0.47140488 -0.46050882 0.23373277 -1.1481636 -0.67373234 -0.40788975

running_mean f4 [64]
00000000: 5133 12c0 41c9 a3bf c0f7 74c0 ea2a 0cc0
00000010: d9e6 4ebf 5bc1 64c0 074e 4ebe 88e3 acbd
00000020: 3f0f a1bf a3b7 203e e63b e73f f693 d03e
00000030: 0f6c 1bc0 d55b 04c0 98e2 45bf b2e9 16bf
00000040: 7389 fabf d9cf e3bf 32b2 fcbf d78d 02c0
00000050: 5b9e e4bf ca9b 1fbf ee2f fabe 016c f6bf
00000060: d5ca e3bf 83e0 11bf 6a77 94bf 334b c93e
00000070: 95d7 043f 1152 a7bf 1609 17bf b983 8cbf
00000080: e72a 2bc0 2a8a 7bc0 c901 83bf bd9f 85c0
00000090: 3e90 d5bf 20c0 d2bf 5979 87bf 72d8 2f3f
000000a0: f6ff 063f d24b 69c0 b366 93be 9f96 92bf
000000b0: 40e8 18c0 5e3f 03bf 8f51 653d 978e cabf
000000c0: d9a7 f9bf 2b27 24bf a4d8 1640 cb41 a7bf
000000d0: 3eb6 12c0 48de 65c0 8163 05c0 e3f3 18c0
000000e0: 3dc9 4ec0 baef 37bf 294d 94c0 6830 18c0
000000f0: 9969 803e 56a0 24c0 e024 27c0 d87d 3fbf
-2.284382 -1.2795793 -3.8276215 -2.1901193 -0.80820996 -3.5743015 -0.20146953 -0.08441836
-1.2582778 0.15695052 1.8065155 0.40737885 -2.4284704 -2.068105 -0.7729888 -0.5895034
-1.9573196 -1.7797805 -1.9741881 -2.0399072 -1.7860826 -0.6234709 -0.48864692 -1.925171
-1.7796274 -0.569832 -1.1598942 0.39315185 0.5189145 -1.307192 -0.5899824 -1.0977699
-2.6744936 -3.9303079 -1.023492 -4.1757493 -1.6684644 -1.6464882 -1.0583907 0.68689644
0.52734315 -3.6452527 -0.2878929 -1.1452216 -2.3891754 -0.51268566 0.055985983 -1.5824765
-1.9504348 -0.64122266 2.3569727 -1.3066953 -2.2923732 -3.591692 -2.0841982 -2.3898857
-3.2310326 -0.7185017 -4.634419 -2.3779545 0.25080565 -2.5722861 -2.6116257 -0.748014

running_var f4 [64]
00000000: 2146 af40 20b2 2640 a4d4 6140 d45d 4740
00000010: be11 8540 d4d7 4740 a858 cc40 71db 6b40
00000020: 759f 2040 56ea 6840 3947 8f40 abc2 5d40
00000030: b736 a340 85b1 3940 f05a 7c40 b18f 4440
00000040: ccfa 8d40 ab93 9440 cc28 6a40 0e38 9c40
00000050: c392 6e40 0a3d a140 e01a 5f40 de64 ad40
00000060: d533 7940 3837 4640 792c d840 3e0b bc40
00000070: da36 6b40 30eb bf40 6b86 7940 73e4 8540
00000080: 7d72 6e40 8dc4 d140 9cb3 8540 d44f 8f40
00000090: d658 8640 caba 9d40 7da9 be40 1006 7740
000000a0: a714 6740 2119 6940 681b 7940 2259 5640
000000b0: 7de3 9040 7fe6 9540 678a 8a40 6549 5340
000000c0: 6c21 5b40 8545 9340 8dfe 6d40 18ee 9c40
000000d0: 892b e440 862c ca40 6e63 7c40 3bbb 8b40
000000e0: 0498 5640 f1aa 9a40 7bc2 9d40 712d 5240
000000f0: 2649 b340 c7a6 3d40 aacc 6c40 7e40 7740
5.4773107 2.604622 3.5286036 3.1151018 4.158416 3.122548 6.3858223 3.6852686
2.5097325 3.6393027 4.477444 3.4650066 5.100429 2.90146 3.9430504 3.0712702
4.436865 4.643026 3.65874 4.8818426 3.7277076 5.038701 3.4860153 5.418563
3.8937886 3.0971203 6.755429 5.8763723 3.6752229 5.9974594 3.8988292 4.184137
3.7257378 6.555243 4.178175 4.4784946 4.198344 4.9290514 5.9581895 3.859745
3.6106355 3.6421587 3.8922977 3.3491902 4.5277696 4.6843867 4.329395 3.3013546
3.423915 4.6022363 3.7186615 4.904064 7.1303144 6.317935 3.9435687 4.3666053
3.3530283 4.833367 4.9299903 3.2840235 5.6026793 2.9633043 3.6999917 3.8633113
