models/vishal_lr_001_iter_300.pt_236_128.pt (torch_old, 776281 bytes, 39 tensors)

weight f4 [64, 1, 3, 3]
00000000: 296c 52be 06ef 3abe c430 9c3e db4b e2bd
00000010: 0629 f8bd 1157 a63e efad 88be d22c 08bd
00000020: c755 973e 4103 cf3d a7f3 ec3d 0b75 9a3c
00000030: f7ca 75be daa6 983e dd53 6fbc 45aa f7be
00000040: 394c a03d bb1a 0d3e 000c fa38 cc92 53bd
00000050: 38d7 cfbc 4c47 b4bc 8cc1 6bbd 1028 87bd
00000060: d615 b2bd b6fc ca3d cc98 153d 475f 0bbf
00000070: 124a 7ebe 0343 bdbe 93e8 0ebf 6cf9 e23d
00000080: 73ba 0ebe 402f 41bd 7f2f 323f 06bb bd3e
00000090: dc7c 60bd 423e e5bd 52ae 283d 3339 b2bd
000000a0: 7974 b23c 5fdc 5d3d 1d0f 21bd 567b f33b
000000b0: 8fd6 7d3d 4498 73bd 3eaa 58bd 9bc9 44bd
000000c0: 67ed 983e a269 2c3e 89b2 f03d eafa 883d
000000d0: 8a31 aa3c f8bd 31bd 47c8 3dbd 90cb ce3d
000000e0: 5fe4 453e 7657 863d 15ad f8be 0c98 9fbf
000000f0: 1cc3 b73e 3379 ccbd f30b 00bf 7850 f73d
00000100: d4a9 67be 5bbc 2a3e 1e3c 5d3e 35b4 8fbe
00000110: 3934 05bd fcd8 243e 2b42 0dbd e830 b5bd
00000120: ccab bcbd 90b9 8bbd 1579 7bbd 8628 9bbd
00000130: 8726 22bd 5058 03bd 702b ab3d c654 92bd
00000140: b004 983d a640 63be 872c 313e 1253 4f3b
00000150: e377 023d 3b8f d13e 159c cbbe ece2 57bd
00000160: 861f 51bc 87e1 593d af90 33bd e0d7 0b3d
00000170: 00fe 4639 37f9 bebd f8bd 8c3d 889e fd3c
00000180: 6670 90bd d0f6 6dbc caab 963d f127 083c
00000190: dbec fa3e 4d94 dfbd 0343 c1bd 9f16 50be
000001a0: 8762 4cbe d75c 9e3d b778 87be d9c7 833e
000001b0: 4061 0cbb a04f f33b c043 5fbb f154 76bd
000001c0: f067 16bc 4076 6e3c 005a 7b3d 28ad b93d
000001d0: ad91 4fbd 2a5e db3d 790a 8f3c 76db 60bd
000001e0: 8612 a7be 342b 04bf a6b5 73bd 950a 823e
000001f0: 2bf3 223e 8446 dd3e a366 c7be c00b ad3e
00000200: ba7c 413e bda4 34bd 16da b5be 0a37 6d3e
00000210: 0686 ea3e 9b77 72be 723c 51be 87d2 9ebe
00000220: 273a 963e b577 9ebd adac 78be 65a2 ea3e
00000230: 46f2 bb3d d8bc 9bbe 7a8e 413e e14c 9ebd
00000240: a97f 0bbf 8ebe c7bf 494b 033e 0512 8dbf
00000250: 54a8 19c0 5e7c e8be 656a 1f3e f353 b2be
00000260: 2379 633e 939f 28be fb98 4ebe f269 28be
00000270: 529e 4c3d 523f f83d a1a5 d83e 2f0d 6ebe
00000280: 10e3 853d e896 c23d 9d00 a23b 0418 3f3e
00000290: 0fce 9fbe d52f 173e d0da e43e 3f20 f1be
000002a0: 02a2 723d a5dd 9e3e ddc0 babe 1230 65bf
000002b0: 9377 91be 028c 9a3e 1bd3 193e 035e 0d3f
000002c0: 4b97 6d3e 7637 373e 70dd 95be a813 30bf
000002d0: a6cf 66be f5fd 64be a710 cf3d 5d85 2c3e
000002e0: 2317 333f 9bae bbbe 75ae e7bd 9124 a33d
000002f0: 8817 e4bd 1673 8bbe 2ebe 873d c88b 9b3d
00000300: 67a4 653e a898 be3e ee53 473e 992a 333d
00000310: 51bc d5be 6271 96be 23b0 cebd 932d 23be
00000320: f712 3c3e 292d 87be b110 b6be dfb0 40be
00000330: 289b 923e 1e67 9e3e a90c 953e 534f 03be
00000340: 4793 3ebd e84a 873d 4703 65bd 201c b4bd
00000350: eaf4 27bd 39f3 7c3d 1fae 613d 7ceb d3bc
00000360: 399f d3bd 38b4 6dbf 4925 343e 0e2e 17bf
00000370: 8ebf f2bf 7bbc cbbd a0c2 193e ca1d 51be
00000380: dd7e 833e 603f f13b 9318 c9bd f556 abbd
00000390: 8285 c53d 0b96 77bd 602b 483d a086 0ebb
000003a0: 0028 80bb 95ef 99bd 6bb9 b83e 5623 273e
000003b0: 0226 3a3e 236f 4fbe 01a3 9abf 50c0 9fbd
000003c0: b7c2 063e 613e fcbe 0bfd 7f3e 1904 f3bc
000003d0: 15f9 e73d 05a3 3cbd d7f3 c0be e877 bfbc
000003e0: fcb1 8a3e ccf8 563e cb73 1d3e a937 a0be
000003f0: d2aa d03e c63b 54be f1ac 28be 5a0e 293e
-0.20549072 -0.18255243 0.30505955 -0.110496245 -0.121171996 0.324883 -0.266952 -0.03324587
0.2955763 0.101080425 0.115699105 0.018854639 -0.24003206 0.29814798 -0.014607397 -0.48372093
0.07827038 0.13779728 0.00011923164 -0.05165367 -0.025371179 -0.022006653 -0.057557628 -0.06599438
-0.08695571 0.09911482 0.03652267 -0.54442257 -0.24832943 -0.36965188 -0.5582363 0.1108273
-0.13938312 -0.0471642 0.69603723 0.3705675 -0.054806575 -0.11193515 0.04118187 -0.08702316
0.021784054 0.05416524 -0.039321054 0.0074304743 0.061972197 -0.059471384 -0.05289673 -0.04804383
0.29868624 0.1683717 0.11752803 0.06688483 0.020775575 -0.04339406 -0.046333577 0.1009742
0.19325398 0.065596506 -0.4856955 -1.2468276 0.35891044 -0.099840544 -0.50018233 0.12075895
-0.22623378 0.16673414 0.21604964 -0.28067175 -0.032520507 0.16098398 -0.03448693 -0.08847219
-0.09212455 -0.068225026 -0.06139477 -0.075760886 -0.039587524 -0.032066643 0.083578944 -0.071450755
0.07422769 -0.2219263 0.17302142 0.0031635207 0.031852614 0.4092959 -0.3976752 -0.052706644
-0.012763863 0.053193595 -0.043839153 0.03414142 0.00018977374 -0.09324878 0.06872171 0.030959383
-0.07052688 -0.014524177 0.07356985 0.008310304 0.4900883 -0.10916958 -0.094366096 -0.2032113
-0.1995946 0.077325515 -0.26459286 0.2573841 -0.002142027 0.0074252635 -0.0034067482 -0.0601396
-0.009180054 0.01455456 0.061365128 0.0906623 -0.050676037 0.1071132 0.017461048 -0.054896794
-0.3263132 -0.5162842 -0.059499405 0.25398698 0.15913074 0.43217862 -0.38945493 0.33798027
0.18895236 -0.04410242 -0.3551795 0.23165527 0.45805377 -0.23678438 -0.20433214 -0.31019995
0.29341242 -0.07737676 -0.2428462 0.45827022 0.09177069 -0.30417514 0.18902007 -0.07729507
-0.5449167 -1.5605028 0.12821688 -1.1021124 -2.400899 -0.45407385 0.1556793 -0.34829673
0.22214179 -0.16467123 -0.20175545 -0.16446665 0.049955674 0.121214524 0.42313865 -0.23247217
0.06537449 0.09501439 0.0049439208 0.18661505 -0.31211898 0.1476434 0.4469819 -0.47094914
0.059236534 0.31028476 -0.36475268 -0.89526474 -0.2841154 0.30184942 0.15021937 0.55221575
0.23202245 0.1789225 -0.29270506 -0.68779993 -0.22540149 -0.22362502 0.10110598 0.16847749
0.6995718 -0.3665665 -0.11312572 0.07965959 -0.11137301 -0.2723624 0.06628071 0.075950205
0.22425996 0.37225842 0.1946561 0.043741796 -0.41745237 -0.2938338 -0.10092189 -0.15935354
0.1836661 -0.26401642 -0.3555961 -0.18817471 0.28634 0.30938047 0.2911122 -0.12823229
-0.046527173 0.06606084 -0.05591133 -0.08794427 -0.041005053 0.061755393 0.055097695 -0.025869124
-0.10333104 -0.92853117 0.17592348 -0.5905465 -1.8964708 -0.09948059 0.1501565 -0.2042152
0.25682727 0.007362291 -0.0981914 -0.08366195 0.09644605 -0.060445827 0.04886949 -0.0021747723
-0.0039110184 -0.075164 0.36078963 0.16322073 0.18178561 -0.20257239 -1.2080995 -0.078003526
0.13160215 -0.4926634 0.24998872 -0.02966504 0.113268055 -0.046053905 -0.37686035 -0.023372605
0.27088916 0.20993346 0.15376203 -0.31292465 0.40755326 -0.20725927 -0.16472222 0.16509381

bias f4 [64]
00000000: 43e2 573c 016b f73c acb3 c5bd 2ae1 9e3c
00000010: 62ae 9dbe 8ca6 87be 208f 543e ba5b c13d
00000020: f8dd 44be f8e4 413d 2aca a8be db26 c73d
00000030: 263e 5ebe 5cbd 313d 017d 883d 7289 61bc
00000040: fc38 933e 7a29 f13c 9854 c7bc 5a33 933d
00000050: a1c6 573d 21ad c43c b823 453c bac7 d0bd
00000060: 35f5 953e cc53 bcbd 3464 203e 0aee c33d
00000070: dde9 4e3c 0eba 563d 8022 d93c 0d0e f13d
00000080: b308 9c3d 9f61 8ebe 446d 0b3d d0c8 843d
00000090: f131 b83c 671a 993d 3d37 c33d e804 57bd
000000a0: da02 5c3e 0ac5 793d 2f3d 673d 4c8e 493d
000000b0: c617 3fbe d180 113e e7f5 85be 34a9 cb3c
000000c0: d061 25bf 934b 1dbe c638 c03d 0767 8f3c
000000d0: 54ab 97be 14a2 97be 7069 b1bd b73e c1bd
000000e0: 4072 9ebe ca31 423d aac0 b4bd 89e1 32bf
000000f0: bed7 1a3d 524e 5f3e 1c08 87bc c6e9 21be
0.013176504 0.03020239 -0.0965341 0.019394476 -0.30797106 -0.26494253 0.20757723 0.094413236
-0.192253 0.047337502 -0.3296674 0.09724208 -0.21703395 0.043393478 0.066644676 -0.01376568
0.28754413 0.029438723 -0.02433233 0.07187529 0.05267966 0.024008336 0.012032442 -0.10194345
0.2928864 -0.091956705 0.15663224 0.09566887 0.012629 0.05242353 0.026505709 0.11770258
0.07618847 -0.27808854 0.03403975 0.064836144 0.022484751 0.07475739 0.0953202 -0.052494913
0.21485463 0.060978927 0.056454834 0.04920797 -0.18661413 0.14209296 -0.2616417 0.024860956
-0.64602375 -0.1536086 0.09385829 0.017505182 -0.296229 -0.29615843 -0.08662689 -0.0943579
-0.3094654 0.047410764 -0.0882581 -0.6987539 0.037803404 0.2180722 -0.016483359 -0.15811834

weight f4 [64, 64, 3, 3]
00000000: 5e85 023d b83f a13e af94 c1be e967 b43e
00000010: c5f1 f33d 3a14 f2be d2e9 473e b585 343e
00000020: d606 f53c 8e2d 973d 9d0e a7ba 55c0 813c
00000030: 4e86 a7be 106e e4be 6726 0abd be9c d23d
00000040: de2c ecbd 91f5 183e 28cc 0cbd 4888 d33c
00000050: 005e 5f3d b608 2e3d 9246 393d f6b3 8abd
00000060: 1c2d 663d 20f1 7b3d cc03 5abc eedf 353d
00000070: 0153 b43e 5d70 7c3d 83ee 983c 0ace 06be
00000080: 50a4 e9be 2272 b7be dac9 993e b000 793e
00000090: 8ef1 adbc b024 42bc 5ca5 65bd 32f1 b33d
000000a0: 6fd7 c7ba 5282 cfbc a041 483d a89c b6bd
000000b0: 84d2 923d 41eb 7b3b 2b18 c9be 0a77 b3be
000000c0: 2272 bc3e 43b2 5d3e 2ed3 a3be 9693 ea3e
000000d0: b730 b83e c0b0 44be 7df0 aabd 832b 30bf
000000e0: f27a 8dbd 9a53 553f d065 04bf 54c2 1abd
000000f0: d8e7 81be be78 5ebf 0727 a43c 263f 443e
00000100: 46a9 113f cba4 d13d f0bf 05bf 4186 8c3e
00000110: 9e6d d2be fcc2 d6bd f40f 913d 33d2 35bd
00000120: 143d 153d fde9 3cbd 40da 303b a05e 4c3d
00000130: 1c55 7c3d 6c33 5b3d e453 59bd b650 18bd
00000140: 7c74 7e3d e031 8e3d 9670 91bd 3a1d e13e
00000150: 6ef9 26be 6d26 c1be ed41 fcbd 7fda d73d
00000160: 4fa3 343d f9dc bebc 1009 813d 2a5a 903d
00000170: 24c5 8a3d 5b6f 48bd 847f 423d a0dd a43c
00000180: f490 253d b20c 75bd 2a0a 213d 365f 22bd
00000190: 5f1e 343f 5819 a03e 3e2f 80be f252 2cbe
000001a0: 5840 403e 0ea5 f3be 5918 dbbe 3093 603d
000001b0: 6087 073b e062 663d 06a6 1b3d e3ca 0dbd
000001c0: c2a5 d0bc e0f4 843b 2073 873b 8014 593d
000001d0: 83ba 70bd 0ee6 35bd 10e7 c1be 556e 463e
000001e0: 3d53 89bc 52f0 6a3d 1c1b 6c3d e9ff 9d3e
000001f0: bbd2 a93d 8a76 55be 52bc af3d 50b5 b73d
00000200: 0932 453d c5dc 063d d691 8cbd 7fa6 d5bd
00000210: c614 27be 9c77 72bb 7568 7d3c ac70 543d
00000220: 54ca 37bd ec79 34bd c5be 973c a771 c7bc
00000230: 55a5 943d 084e 18bd c2f7 dcbd 8598 dd3e
00000240: 01e9 00bf 113c 77be 1342 cfbe 0247 ac3e
00000250: c2ff 293f 420e 293e 9051 ef3e 6b4b ae3e
00000260: 977a 9ebe 6809 583c a7af 023e a68e b5bd
00000270: be85 98bb dc1c 48be 66fb 5bbe 79d2 a9bd
00000280: 1404 03be 0b1a 1abe a5ef ffbd bd5f bd3b
00000290: 56e4 1a3d 8bc2 0e3f 0d3a 883e 8bd2 1bbe
000002a0: 0889 0e3f f4a5 b63e 03c7 75be 76fe ddbd
000002b0: 41ac 043e 1a63 07be dc79 ab3e 19e8 a8be
000002c0: 7165 6fbe d874 5b3f 7245 98be e27e 7cbd
000002d0: 955f 37bc 57c3 5cbd 39b7 df3e 0fcb d9bd
000002e0: f549 32be 9633 c0be 63af 4c3e 8c02 263e
000002f0: d9c0 d6bc 99a9 c13d 2405 963e 0d54 3e3c
00000300: 0b3b 94be 349a bdbe 526d 773d 1045 95bd
00000310: 951f 333d ef5a 37bd f31a 96be 5a17 9e3d
00000320: 028d 7e3e 5e4a 56be f450 8d3d c175 46be
00000330: 965d cc3d d6a8 a63e d457 32be 3699 afbc
00000340: 7cff 0dbd c457 2dbd b4c3 a73c c557 903d
00000350: b175 9dbc 085e 073d b2ba 74bd 4f1f eebc
00000360: 6924 22be ac52 a0be 38d1 173e c127 7dbe
00000370: 7bb5 953e 52fe 8dbe c96d 373e 3e42 373d
00000380: b7a6 953e b866 77bd b099 ffbc c6b4 f0bc
00000390: c215 133d f058 6c3d 9e65 1e3d 9a7d 8ebc
000003a0: cc1d ef3c 377f 22bd 5546 403d 2fce 223e
000003b0: bb21 ccbd d6bc 0a3e 89ab e93e 7a16 3cbd
000003c0: 17f6 0cbf 5d9b dfbe 13d6 4cbe 4789 bb3e
000003d0: 7e24 32bc 2448 003f edff d5be 03ef 9ebe
000003e0: 95b0 b43d 3775 5cbd 842b 8ebe 2ff8 353e
000003f0: 06ce be3e 77ce 81bd 021b 97bd 8587 8cbe
0.03186547 0.31493926 -0.3780875 0.35235527 0.11911348 -0.47281057 0.19522789 0.1762913
0.029910486 0.07381736 -0.0012745444 0.015838781 -0.32719654 -0.4461522 -0.03372803 0.102838024
-0.11531995 0.14937426 -0.034374386 0.02582182 0.054533005 0.042488776 0.045233317 -0.06772606
0.056195363 0.06150925 -0.013306569 0.04440301 0.35219577 0.061630595 0.018668419 -0.13164535
-0.45633173 -0.35829264 0.30036813 0.24316669 -0.021233346 -0.011849567 -0.056065902 0.08786239
-0.0015246699 -0.025330696 0.04889071 -0.089165986 0.07169059 0.0038439783 -0.3927625 -0.35051757
0.36805826 0.21650033 -0.31997055 0.45815724 0.35974666 -0.1920805 -0.08346651 -0.68816394
-0.069082156 0.8333069 -0.51717854 -0.037782982 -0.25372195 -0.8690299 0.020038141 0.19164714
0.56898916 0.1023651 -0.52246 0.27446178 -0.41099256 -0.10486409 0.07083121 -0.044389915
0.0364352 -0.046121586 0.0026985556 0.04989493 0.061604604 0.053515837 -0.05305852 -0.037186347
0.062122807 0.06943107 -0.07101552 0.4396761 -0.16306087 -0.3772463 -0.12317262 0.10539722
0.044101056 -0.023298727 0.06300557 0.070484474 0.06775883 -0.04893432 0.04748489 0.02012521
0.04042144 -0.05982656 0.039316334 -0.03964158 0.7035884 0.31269336 -0.25036043 -0.16828516
0.18774545 -0.47586864 -0.42792013 0.05482787 0.0020680055 0.05624664 0.03800013 -0.034617316
-0.025469664 0.0040575117 0.004133597 0.052998066 -0.05877162 -0.04440885 -0.378716 0.19378026
-0.016763324 0.057358094 0.05764304 0.30859306 0.08292147 -0.20846 0.08580841 0.089701295
0.04814342 0.032925386 -0.068637535 -0.10432147 -0.16316518 -0.0036997562 0.015466799 0.051865265
-0.04487069 -0.044061586 0.018523583 -0.024346186 0.07258097 -0.03718379 -0.107894436 0.43280426
-0.50355536 -0.24144007 -0.40480098 0.33647925 0.6640588 0.16509345 0.46741915 0.34041914
-0.30952904 0.013185836 0.12762319 -0.08865099 -0.004654615 -0.19542259 -0.2148262 -0.082920976
-0.12794524 -0.15048997 -0.124968804 0.005779235 0.037815414 0.557656 0.2660679 -0.15217035
0.55677843 0.35673487 -0.24001698 -0.1083955 0.12956335 -0.13221398 0.3349141 -0.32989576
-0.2337854 0.85725164 -0.29740483 -0.061644442 -0.011192222 -0.053897228 0.43694475 -0.106344335
-0.17411025 -0.37539357 0.1998878 0.16211909 -0.026215004 0.09456176 0.29300797 0.011616719
-0.28951296 -0.3703171 0.06040699 -0.07288563 0.04373129 -0.044764455 -0.29317436 0.07719298
0.24858478 -0.20926806 0.06900206 -0.19380857 0.099787876 0.32550687 -0.17416316 -0.021435361
-0.034667477 -0.042320028 0.02047906 0.07047991 -0.019221159 0.03304866 -0.05974836 -0.029067663
-0.15834202 -0.31313074 0.14825904 -0.24722196 0.2924002 -0.27733094 0.17912973 0.044740908
0.29228756 -0.060400695 -0.031201214 -0.029383074 0.03590942 0.057702005 0.03867113 -0.017393876
0.029189013 -0.039672103 0.046942074 0.15898965 -0.09967371 0.13548598 0.45638683 -0.045919873
-0.55063003 -0.4367322 -0.20003538 0.36628172 -0.010872958 0.5011008 -0.41796818 -0.31041726
0.08822743 -0.053822722 -0.27767575 0.17770456 0.37266558 -0.06338208 -0.07378198 -0.27447143

bias f4 [64]
00000000: 2157 2bbe 6e60 bb3e 03af 10be 1f32 1e3e
00000010: 33b3 3ebc ccc8 0b3f 042d e93e 0900 27bd
00000020: d2c6 7e3e f1f4 633e 4a5a 8e3e f929 9ebe
00000030: 2b0b d5bd ac63 c6bc 23d0 85bd 4d67 2ebf
00000040: 43f1 493e d1a1 293e 8774 2d3e 1507 af3e
00000050: dca4 d53e 7022 c9be e412 ca3e 20a2 2b3e
00000060: 5510 253e f8f4 223e 2432 3c3d 2813 aebe
00000070: 6c82 0bbe 4318 603e 0820 133f 45e0 f53c
00000080: 5798 97bd 89e5 d5bd d2aa 553e 5c92 acbd
00000090: e64b 8a3c 2171 df3e 6656 0e3f 950b e53c
000000a0: 963e e63e 9e20 153e 4de1 e43d edea e63e
000000b0: 6049 b2be 4e26 95bd 7f23 b5be ab17 05bd
000000c0: 0087 00bf 0be2 ae3b c428 a2be 0bca ac3c
000000d0: 8629 493e 7654 76bd dac1 55bd 5487 bbbe
000000e0: 6bcd ad3e d8bf 1ebf c060 633e 24fd f03e
000000f0: c306 383e 5ec4 c63d 9dcd 0dbe 6158 4cbe
-0.16732456 0.36597008 -0.14129262 0.15448807 -0.011639404 0.54603267 0.45542157 -0.040771518
0.24880531 0.22261406 0.2780326 -0.30891398 -0.10402521 -0.02421745 -0.065338396 -0.68126374
0.1972094 0.16565634 0.16938983 0.3418509 0.4172734 -0.39284086 0.39467537 0.16761065
0.16119511 0.1591376 0.045946255 -0.3399899 -0.13623971 0.21884255 0.5747075 0.030014167
-0.074021034 -0.10444171 0.20865944 -0.08426353 0.016881894 0.43640998 0.55600584 0.027959624
0.44969624 0.14563224 0.11175785 0.4510111 -0.34821606 -0.07282697 -0.35378644 -0.032493275
-0.50205994 0.005337005 -0.31671727 0.021092435 0.19644746 -0.060139142 -0.052186824 -0.36626685
0.33945784 -0.6201148 0.22204876 0.4706813 0.1797133 0.09705423 -0.13847966 -0.19955589

weight f4 [64]
00000000: f681 083f fd74 153f 046d 033f ffd3 253f
00000010: 31dc 143f 53bc 4f3f 4315 0d3f 002b db3e
00000020: e0e3 2c3f ff0e b63e 5544 2a3f c5ac db3e
00000030: 8432 293f edd3 523f 1b9d cc3e b553 d83e
00000040: 027f e63e a54d 693f ed42 023f d858 1f3f
00000050: d06d 0b3f 79a0 5d3f 48bf 173f 7b97 333f
00000060: ef2a f03e 151c 063f 8c75 123f 5925 e33e
00000070: 3dce 4a3f 80da ec3e ca5b 003f 5574 0d3f
00000080: 9f1b 663f 56bb 063f dc12 223f c621 123f
00000090: aa09 1a3f 395f 3f3f 753a 193f 471c 023f
000000a0: fa8d bd3e e1a8 173f ce1b ef3e 3453 093f
000000b0: 258a 453f 31a6 2a3f 15f8 213f 5382 153f
000000c0: 78f4 303f 1e92 2c3f 093b e73e 678f e53e
000000d0: 719d fe3e acb2 f83e df58 1f3f e047 273f
000000e0: 70d3 fd3e 6a5a ba3e eae6 083f 7a17 183f
000000f0: b4b7 0e3f c435 163f cba4 143f 50dc 053f
0.53323305 0.58381635 0.5133822 0.64776605 0.58148485 0.81146735 0.5511057 0.42806244
0.6753521 0.35558316 0.66510516 0.4290525 0.66092706 0.82354623 0.39963612 0.42251363
0.45018774 0.911341 0.5088337 0.6224494 0.54464436 0.86572987 0.5927625 0.70153016
0.46907756 0.523866 0.5721061 0.44364432 0.79220945 0.46260452 0.5014006 0.55255634
0.89885896 0.526296 0.6331003 0.57082784 0.60170996 0.74754673 0.59854823 0.508244
0.37022382 0.59242064 0.467009 0.5364258 0.77163917 0.6665984 0.6326917 0.58401984
0.6912303 0.6741046 0.45162228 0.4483597 0.49729493 0.48573816 0.6224498 0.6534405
0.49575377 0.36397105 0.53477347 0.5941082 0.5574906 0.5867579 0.58063954 0.52289295

bias f4 [64]
00000000: 4808 b1bd 0267 0ebf ff4e dcbd afbf 09be
00000010: a427 dfbe de9a 3fbf 3faf 86be d49f aebc
00000020: 2e3a 38be bf4c 4dbd 0e68 bcbe b86c 0fbf
00000030: 3cc1 743c 9b84 c1be 7efc 82be b96f 9ebe
00000040: 58c4 093e 994d d1bd e54b 2b3d 4f08 5dbe
00000050: 0fb2 bf3d cd3f d4be 72ca 3f3e b9f2 8abe
00000060: a9d9 8c3e 2e67 02be e44f 7dbe f89b 6bbe
00000070: 1aa0 9abd 0646 333e 9356 54be 6bbc 71be
00000080: 4205 b6bf 9343 383b eb9a 003e d7d2 c0be
00000090: 10d7 29be 3f19 9ebe fe12 313e ec35 11bf
000000a0: ddde 7b3e 3d8f 80be 498b 37bd cc17 83be
000000b0: 8197 53be 3d5e 01bf 3457 69be ad61 01bf
000000c0: a306 85be d4da e0be 7a8a 3c3f d394 92bd
000000d0: 1ab1 c9be b621 85be f561 66be 5c52 82be
000000e0: e3fd 10be d62d 0cbd cac5 acbe 75b3 d5bd
000000f0: c958 4a3d 761e b8be 1ab7 f5be aff9 d0be
-0.08644158 -0.5562593 -0.10757255 -0.13452028 -0.4358493 -0.74845684 -0.26305577 -0.021316446
-0.17990944 -0.05012202 -0.36798137 -0.56025267 0.014938649 -0.37796482 -0.2558326 -0.30944613
0.13453805 -0.10219879 0.041820426 -0.215852 0.09360134 -0.41454926 0.1872957 -0.27138308
0.27509812 -0.12734672 -0.24737507 -0.23008716 -0.07550068 0.1750718 -0.2073615 -0.23607032
-1.4220355 0.002811645 0.12559097 -0.37660858 -0.16585946 -0.30878636 0.17292401 -0.56722903
0.24596734 -0.25109282 -0.044810567 -0.25604093 -0.20663263 -0.5053442 -0.22787172 -0.50539666
-0.25981626 -0.43916953 0.736488 -0.07157292 -0.3939293 -0.26002282 -0.22498305 -0.2545346
-0.1415935 -0.0342234 -0.3374465 -0.10434619 0.04940108 -0.3596074 -0.47991258 -0.40815493

running_mean f4 [64]
00000000: 9360 3cbe b035 793e 3516 76be bb5e 20be
00000010: 23c3 c8be 1579 c53e 8514 003f 84e6 46bd
00000020: 230d 8bbc f911 1d3e 1f30 fe3d 60be c6be
00000030: d568 adbe 40cf 37be c146 b6be 9de1 4dbf
00000040: 7ccb aabd 2515 ecbc 9e36 5e3d bf8e be3e
00000050: 30b6 8a3e 6dff 21bf 1143 3b3e 20d2 583e
00000060: 44ce bcbc b909 9a3d d935 12be 8a5f c0be
00000070: 74f2 92be 486b 21be 4e0e f03e d9c0 39be
00000080: 7410 c3bd 595d 0ebf c1ec 093d 996f 72bd
00000090: e5bf a3bd 333a b83e 61e8 e03e 0be8 e6bd
000000a0: b58f 723e 1a22 a6bd 68af b7bd da1f c03e
000000b0: d126 08bf e129 43be e995 d5be bddc 61be
000000c0: 537e 11bf 33ec 833d 6516 e5be 16fe 7abe
000000d0: 4765 88bd 5175 e5bd 2d38 92be 3afb fcbe
000000e0: 42d6 16be 2181 3fbf 1746 083c 30dc a03e
000000f0: fc6c a53a d4b0 13be 2d3b 1bbf 9336 a4be
-0.18396215 0.24336886 -0.24031909 -0.15661137 -0.39211378 0.3856894 0.5003131 -0.04855968
-0.016974038 0.15338887 0.12411522 -0.3881712 -0.33869043 -0.17950153 -0.35600856 -0.80422384
-0.08339593 -0.028818676 0.054251306 0.37218282 0.27092123 -0.63280374 0.18287303 0.21173906
-0.023047574 0.07521386 -0.14278354 -0.3757289 -0.28700602 -0.15763581 0.46885914 -0.18139972
-0.095246226 -0.5561119 0.03367305 -0.05918846 -0.07995585 0.35981902 0.4392729 -0.112747274
0.23687632 -0.08111973 -0.08969003 0.375243 -0.5318423 -0.19058944 -0.41715935 -0.22056861
-0.5683338 0.06441536 -0.44743648 -0.24510989 -0.06659942 -0.11204017 -0.28558484 -0.4941042
-0.1473017 -0.7480641 0.008317492 0.3141799 0.0012620981 -0.14422923 -0.6063717 -0.32072887

running_var f4 [64]
00000000: 860b 2f3d 0966 ae3c 50a0 893d 688a a23d
00000010: 9dd3 453d b106 ad3c 0b70 cb3c ca7a 183d
00000020: 5dce 7e3d d6f7 4e3c 6d54 893d 588b 043d
00000030: 1fbc 683d 3ced 743d 6d2a db3c 2f17 1c3c
00000040: aab6 133d 5b5a a53d 3d97 753d 73a2 583d
00000050: 47ef 173d 49cd 993d 61c7 7d3d 1562 1f3d
00000060: 7257 5f3d 7a4b 593d 8470 f13c 8b37 de3c
00000070: 14e3 c53d 2120 403d a3df 0b3d a2ec 043d
00000080: 4389 093d bb1d 873d 3911 4c3d 6e95 213d
00000090: 97b6 5f3d 2d58 0d3d a909 b03d 3e06 293c
000000a0: 56d9 d33c 0bcd 273d 8427 1e3d a806 793c
000000b0: fa8c af3d 64ee ae3c 00cf 423d e825 9d3c
000000c0: e50f 883d 1a47 5d3d 6d98 7e3c 4a54 063d
000000d0: 936f 813c 621b 093d e0fe 273d e566 da3c
000000e0: bfc7 313d 29ba 033d 6ca1 c03c 962d 103d
000000f0: 1b9a 863d 843d 0d3d 725a 2b3d aac1 333d
0.0427356 0.021288889 0.0672003 0.07936555 0.048297513 0.021121355 0.0248337 0.037226476
0.062208522 0.012632331 0.06705556 0.03235945 0.05682003 0.059796557 0.026753629 0.009527012
0.036062874 0.080738746 0.059958685 0.0528893 0.037093427 0.07509858 0.06195772 0.038911898
0.054526754 0.053050496 0.029472597 0.027126094 0.09662452 0.04690564 0.034148823 0.032452233
0.03357817 0.065974675 0.049821112 0.039449148 0.05461749 0.03450792 0.085955925 0.01031643
0.02586047 0.04096703 0.038611904 0.015199341 0.08571811 0.021353908 0.04756069 0.019183114
0.06643657 0.054022886 0.015539271 0.032795228 0.015800273 0.03347338 0.041014552 0.026660392
0.043403383 0.032159958 0.023514472 0.035199724 0.06572362 0.034482494 0.041834302 0.043885864

weight f4 [64, 64, 3, 3]
00000000: 84e9 3f3e ab9f 0bbd 1808 903e 0f3f 3bbd
00000010: b447 6e3d fcb3 a33d 0d50 8e3e 6847 883e
00000020: 72de bdbe f3c3 ffbd 990b 64bd 2e8b bdbd
00000030: da32 0fbd fea5 a7bd 9371 f3bc 9184 993d
00000040: 1bae 1dbf 64ae 0dbf 09b5 6dbe d710 1c3e
00000050: 0904 98be e0f1 79be f2eb 173e cdf5 f7be
00000060: da34 22bf 1427 2dbf 8da6 a8be 7575 a03e
00000070: 60c5 81bc 0673 9e3e 75e4 99be 45b3 3f3e
00000080: 6477 113e b081 5a3e 71b7 a43c 429a a6be
00000090: de93 c1bd 3762 a93e 8291 0a3e abab 0abe
000000a0: a4fc 793d 0802 ba3d 3b3f 65be 3741 3abe
000000b0: 82c3 91be e252 913d c6b4 bc3e 0cc1 983e
000000c0: c790 80be 8cfb 933c 1bac 25be 7677 603e
000000d0: 881a 62bc e72d 01bd ab80 313d 21b4 e53d
000000e0: f550 313d 2515 dcbe a883 f6bd c0da 84be
000000f0: f68f 153e fa58 a0bc 49e8 aa3e 24a4 1dbe
00000100: a4f4 49be 2c29 6dbd 314a 8fbe f3a2 f1be
00000110: c9c6 b6be 9d0c 2c3e e17c a5be b134 28bf
00000120: 9d79 d43e 72ac c9be abf8 67be 609b e5be
00000130: 15c5 23bf 509f 063e 5af8 693e 9d22 833e
00000140: f201 9a3e e08e cf3e 3394 e13e 25c9 4a3f
00000150: 0131 b23e 1f93 21bc e9a8 013f ab64 723e
00000160: a2f8 193c 3484 05bf 6145 da3d 1229 f6be
00000170: 8972 1bbf 9713 46be 32cf 003e f360 fabe
00000180: ad13 1d3e 6bd8 113f f710 b5be 75e2 39be
00000190: 957c 81bd 8fb5 fcbd 8f66 7fbd 3be6 da3e
000001a0: 0c3e dabd 7c49 a3be 5516 59be 560a 4fbf
000001b0: 30ac a43e b6e4 f1bd 3437 b2be 7fbb 9f3c
000001c0: d8c6 493e bd52 763d 0b71 643e bc08 febd
000001d0: e0ac 563e 7822 113f fcad 9ebe 2ffa 39be
000001e0: 3840 b7bd 1211 dabe 4916 c4be 928b b4bd
000001f0: 8d8a 563e cd43 df3d 18f7 913a 9bc7 9cbe
00000200: 1c67 16bf 3598 193e 6280 2d3e 398c 29be
00000210: 2c77 e2be 5ce4 313d a104 653e e997 05be
00000220: 1ca0 7cbc 652d 503e e3d3 373d 5274 82be
00000230: 1940 f5bd 03a0 573e 6d10 c43e 1733 31bc
00000240: 5fa4 dbbd a35b cb3d b4d0 51be 5aac 6dbd
00000250: ac24 9dbe 4edb acbe 1c74 453e 1944 28bd
00000260: 4ec2 413f 0ad0 2cbd 394b 0dbe 71b7 503e
00000270: de70 d53d 5473 783d 0a25 173e 1e09 2e3b
00000280: 7106 e33e ee18 b2be f586 6b3e 4097 063d
00000290: ffca 523e 40d5 7e3d da34 51bc 5fcc 3b3e
000002a0: 369f c8bb e77c eebe 0de7 70bd b0c2 1fbe
000002b0: 4d4c d4bc 3433 c83e 47f7 b0bc a303 0fbe
000002c0: 8453 75bc cc89 a73e b713 3ebd 272c 5d3c
000002d0: a67b 843e 0eea 1b3e 949d 0f3f 3b4e 63be
000002e0: 5828 f13a 6ff2 d63d 9f6e ccbd f24c 9fbe
000002f0: 0519 d03c 87df 1f3e 368b a63e 3f68 613e
00000300: fe23 c83d 4ed4 edbd ff4b dd3d fbc9 dc3c
00000310: 5843 3cbc ea7b 0cbf 5886 003e cd7e 0dbd
00000320: 5d2f 4d3e 38e9 b63d 2040 fdbd ccda 063e
00000330: 69f9 0cbe 965e 70be 64cb b83e 87fd 213d
00000340: 8959 78bd 62a4 3a3b f57c 223e 07da 69be
00000350: acab 83be 8f09 29be 7c65 b0be fa4d edbe
00000360: 14db 87be 4eba 023e 0aa3 95be 8bbf 173e
00000370: 745e 683e a78a cebd c51c 073e bc2d a13e
00000380: 1077 00be 23ca c23e 3a4e 513e d8c1 093e
00000390: abfd d8bd ac81 68bd 499b 3fbd 1495 953c
000003a0: 5471 adbe c989 33be bc7e 0f3e 7a46 77bd
000003b0: 2f97 5cbe 6908 123d d25c 6ebe e03c 66be
000003c0: 5d5a 063d c6c9 20bf 6081 2dbe cb4f cabe
000003d0: 9735 fcbd 1300 16be e5d0 583e 71f6 70be
000003e0: 93f6 aabc ca03 ca3d 70ec 87be 9b7d 3e3e
000003f0: fef7 12be 0e86 bf3e c86e 1bbe e1f8 5d3d
0.18741423 -0.034087818 0.28131175 -0.045714434 0.05817385 0.07993314 0.2779545 0.2661698
-0.37083775 -0.12488546 -0.055675123 -0.09255062 -0.034960605 -0.08185957 -0.029717242 0.07495988
-0.6159379 -0.55344224 -0.2321359 0.15240799 -0.2969058 -0.24408674 0.148361 -0.4842972
-0.63361895 -0.67637753 -0.32939568 0.31339613 -0.015841186 0.3094713 -0.3005711 0.1872073
0.142057 0.21338534 0.020107003 -0.32539564 -0.094520316 0.33082744 0.1353207 -0.13542049
0.061031953 0.09082419 -0.22387402 -0.1818894 -0.28469473 0.07095887 0.3685667 0.29834783
-0.25110456 0.018064283 -0.16178934 0.2192057 -0.013800271 -0.031537917 0.043335598 0.112159975
0.043290097 -0.42984882 -0.1203683 -0.25948143 0.14605698 -0.019573677 0.33380345 -0.15394646
-0.19722229 -0.057900593 -0.2798629 -0.47194633 -0.35698536 0.16801687 -0.32321838 -0.657054
0.41499034 -0.39389378 -0.22653453 -0.44845104 -0.639726 0.1314671 0.22848645 0.25612345
0.3007961 0.40538692 0.4405838 0.7921317 0.34803012 -0.009861737 0.5064836 0.23671214
0.009397658 -0.5215485 0.10657764 -0.4807821 -0.6072164 -0.1934341 0.12579039 -0.4890209
0.15339537 0.5697085 -0.35364506 -0.18152793 -0.0632259 -0.12339317 -0.062353667 0.42753777
-0.10656366 -0.31892002 -0.21199925 -0.80875146 0.3216262 -0.11811201 -0.34807742 0.019498585
0.19704759 0.0601375 0.22308747 -0.1240401 0.20964384 0.5669322 -0.30992115 -0.18161844
-0.08947796 -0.4259115 -0.38298252 -0.088156834 0.2095129 0.10901604 0.0011136262 -0.30621037
-0.5875108 0.14999469 0.16943505 -0.16557397 -0.44231546 0.04343067 0.22365047 -0.1304623
-0.015419032 0.20329817 0.044879805 -0.2547937 -0.11975116 0.21057133 0.38293782 -0.010815403
-0.10724711 0.09929588 -0.2048977 -0.058025695 -0.3069204 -0.33761066 0.19282573 -0.041080568
0.7568711 -0.04219059 -0.13798226 0.20382477 0.10421918 0.06065686 0.14760223 0.0026555727
0.44340852 -0.34784645 0.23000701 0.032859087 0.2058525 0.06221509 -0.012768948 0.1833968
-0.006122495 -0.46579668 -0.058814097 -0.15601611 -0.02591529 0.39101565 -0.021602286 -0.13966231
-0.014973525 0.32722318 -0.04640552 0.013499296 0.25875586 0.15226004 0.5609982 -0.22197811
0.0018398864 0.10495459 -0.09982037 -0.31113392 0.025402555 0.15612613 0.32528085 0.22012423
0.0977249 -0.116127595 0.10805511 0.02695178 -0.011490665 -0.5487658 0.12551248 -0.034544755
0.20037599 0.08931202 -0.123657465 0.13169402 -0.13767017 -0.23473582 0.36092675 0.039548423
-0.060632262 0.0028479327 0.1586798 -0.22837077 -0.25716913 -0.16507553 -0.34452426 -0.46348554
-0.2653433 0.12766382 -0.2922595 0.14819162 0.22692281 -0.100850396 0.13194568 0.31480205
-0.12545419 0.38044843 0.20439997 0.13452852 -0.10595258 -0.05676429 -0.04677895 0.018259563
-0.33875525 -0.1753303 0.14013189 -0.060369946 -0.21542047 0.03565255 -0.23277596 -0.2248416
0.03280102 -0.6280788 -0.16943884 -0.39514002 -0.12314909 -0.14648466 0.21173437 -0.2353151
-0.020869529 0.09864004 -0.26547575 0.18602602 -0.14352414 0.37406963 -0.15178978 0.054192428

bias f4 [64]
00000000: 986e 3f3e 5627 b2bd 1b07 2e3e 7ef8 3dbe
00000010: ac73 fabd 4f49 b8bc 1084 403e 3da7 0b3d
00000020: f57e cbbd 8270 9f3d 3ad6 35be 9ed4 f43d
00000030: bcd9 f93d 5aee eb3d 69a2 663e 50c2 bbba
00000040: 6527 1a3e 0ea6 503e 42d7 e23d a798 243e
00000050: f526 dc3d 8ba9 20be e570 623d 71ea f4bd
00000060: d208 433b d45a 243d 5234 c8bd fdca 063b
00000070: abd5 cabd df18 b2be b990 443e 63e7 063e
00000080: 984a 4c3e 809e 663e 4997 a6bd 10bd 69be
00000090: 1cfc e5bc e413 debd 750f dcbd ebc0 273e
000000a0: d331 a5bc 4e20 89bb 5a26 76bd 8f54 aebe
000000b0: 6099 0bbe b81d 8b3c 6b1e e43d f5a6 4d3e
000000c0: a442 8d3e fcba 69be b05e 0bbe 798c d63c
000000d0: 4209 053e 5c76 6c3e 17db d43d 42ac 1dbf
000000e0: 9eb8 34be 604b 013c 3f9f a5be d19a 983e
000000f0: 8c16 8b3e aeb4 ab3d a24a cabd 82f3 3e3c
0.18694532 -0.08698909 0.16994898 -0.18551823 -0.12229094 -0.022495894 0.18800378 0.034095038
-0.099363245 0.07785131 -0.17757502 0.11954616 0.12199733 0.11520071 0.22522892 -0.0014324877
0.1505409 0.20375845 0.110762134 0.16073857 0.10749618 -0.15689676 0.055283446 -0.11958779
0.0029759896 0.040125683 -0.09775604 0.0020567768 -0.09904035 -0.347846 0.19195832 0.13174205
0.1995033 0.225214 -0.08134324 -0.22826028 -0.028074317 -0.108436376 -0.10745136 0.16382186
-0.02016536 -0.004184759 -0.06009517 -0.34048888 -0.13632727 0.016981944 0.11138614 0.2008322
0.27589905 -0.22825235 -0.13610339 0.02619003 0.12991813 0.23092026 0.103933506 -0.6159097
-0.17648551 0.007891506 -0.32348058 0.29805616 0.2716564 0.08384071 -0.09877516 0.0116547365

weight f4 [64]
00000000: 1469 313f 00ba b33e 4cbd 2f3f 66e9 f63e
00000010: a32c 1f3f b776 0e3f 7a0f e83e c2f9 193f
00000020: c4ef dd3e bf4c 033f 5a3a f33e 0ebb 233f
00000030: b799 003f 3188 003f 0770 e43e b065 5a3f
00000040: 629e 0e3f f22f 373f 3e1c 863f 3e2c ca3e
00000050: fab8 2c3f b615 033f 5151 d83e 7653 593f
00000060: 99b2 f53e 9e7d 663f 6dd1 4e3f 2aa5 f13e
00000070: 06eb 163f 3e10 0d3f 0471 593f 5478 5c3f
00000080: 7ee3 f43e 485f e13e fa69 053f 38ee 573f
00000090: c97f 143f 37b3 043f 0f17 083f 8410 183f
000000a0: 1aaa 043f 2d7a cd3e 0886 333f 3e87 7a3f
000000b0: 4157 ff3e 7b58 ac3e ec05 953f 6a09 0c3f
000000c0: 37ce 693f 04ac 543f 0394 7d3f 9131 103f
000000d0: 23fa d53e 4db6 333f d137 a83e 367f 183f
000000e0: 010a b93e 606d 053f 0fd0 f83e 808f 2c3f
000000f0: f3a9 773f 8280 8c3f 529f 2a3f d0cb 133f
0.6930096 0.35102844 0.6864822 0.48224944 0.62177485 0.55649894 0.45324308 0.60146725
0.4334699 0.5128898 0.47505456 0.639573 0.5023455 0.5020781 0.4461672 0.8531141
0.55710423 0.71557534 1.0477369 0.3948688 0.6746975 0.51205003 0.4224954 0.84892976
0.47987822 0.90035427 0.8078831 0.47196323 0.5895237 0.5510291 0.84938073 0.86121106
0.47829813 0.44018006 0.5211483 0.8434787 0.58007485 0.5183596 0.53160185 0.594002
0.51822054 0.40132275 0.7012639 0.97862613 0.49871257 0.33661255 1.1642432 0.54701865
0.91330284 0.83074975 0.9905397 0.5632563 0.41792402 0.70200044 0.32855085 0.5956911
0.36140445 0.5212002 0.48596236 0.67406464 0.96743697 1.0976717 0.66649354 0.5773287

bias f4 [64]
00000000: de31 323c 0339 d83d 0c15 233d 167a 063c
00000010: 78ba 1b3e c52c 65bf ba33 9ebe f05b ae3d
00000020: 6b4d 0b3e 8f69 7abd 1d9f a2be 455f 6cbe
00000030: c082 e7bc 40ba b73c 641f 433e fe7a 5fbc
00000040: 76a9 c9be 0121 d4be caa3 bfbe 9045 113f
00000050: 2af9 bebd f3d3 153e 5305 4fbd 9508 20be
00000060: 355d aabe df7f d7bd e7b3 c8be 2c5e 1cbf
00000070: dbbc 1ebf 8986 9b3d a039 2abe 4468 4dbe
00000080: 51aa 3d3e 96de 88bd adb8 fcbd 6ee6 9cbe
00000090: 2cee 2bbd 2725 0b3e 291a 4abe a03f 6a3d
000000a0: a52f 29bd 13ed 18be 8f57 05be 823e 9dbe
000000b0: a943 84bd 932a 313e 8107 d0be 0a88 a8bd
000000c0: 4a6e 28be 3056 69be 8eb6 93be 08bb dfbe
000000d0: 6325 693e a179 69be 87d9 3d3f 18b5 86bd
000000e0: e9be fcbd 01de efbd ed16 f9bd 020f 0ebe
000000f0: 6638 b8be 49d5 05bf 31ec f8be 41ea 863d
0.010876147 0.10557749 0.039814994 0.0082078185 0.15207851 -0.8952144 -0.3089884 0.085136294
0.13603751 -0.061135825 -0.3176202 -0.23083217 -0.028260589 0.022427678 0.19054943 -0.0136401635
-0.393871 -0.4143143 -0.3742965 0.5674677 -0.09324868 0.14631633 -0.050542187 -0.15628274
-0.33274236 -0.10522436 -0.39199755 -0.61081195 -0.6200692 0.0759402 -0.16623545 -0.20059305
0.18522002 -0.0668308 -0.123399116 -0.30644554 -0.041975185 0.13588391 -0.19736542 0.057189584
-0.041305203 -0.14934187 -0.13021682 -0.30711752 -0.06458218 0.17301397 -0.40630725 -0.082290724
-0.16448322 -0.22786784 -0.28850216 -0.4369738 0.22768168 -0.22800304 0.74160045 -0.0657751
-0.12341101 -0.11712266 -0.12162576 -0.13872913 -0.3598053 -0.5227857 -0.486177 0.06587649

running_mean f4 [64]
00000000: 544f 4fbf 4f95 c4be 7037 e2bf 11b1 92bf
00000010: 7c20 4cbf 974f e63b 674c 16bf aa16 57be
00000020: 37c9 e73d 8083 8dbf 1461 bcbf 251b a0bf
00000030: f86a a1bf c5c4 5f3f 43ee 99be f351 a9bf
00000040: fa90 abbe a496 87be daf7 15c0 d661 a9bf
00000050: 0465 85bf 0588 77bf 5e19 62be d2df ffbf
00000060: 2244 aa3d 1231 92bf ed0a d8bf 06f0 433e
00000070: 215a 93bf ee7f 4abf b71c 92be 1013 55bf
00000080: abf9 f7be f146 5bbd 1b9e 9fbf 303d 01c0
00000090: c53c 85be f486 8ebf a158 78bf 5c98 2f3d
000000a0: 3e06 7ebf 5017 62bf 4dfa a6bf 38d7 8bbf
000000b0: bc99 31bf 9717 903d 6563 c6bf 6c2f 02bf
000000c0: 6852 b0bf 99bf 0ec0 f603 85bf 22b3 d3bf
000000d0: 9e95 69bc 62ea 0cbf fcbe cc3e 07bf d2be
000000e0: aac4 c5be d857 49bf d8b4 b0bc 4a7e 52bf
000000f0: b99e e9be a8af c3bf 19c0 f9be bf1b f9bf
-0.8098042 -0.38395163 -1.7673168 -1.1460286 -0.7973707 0.007028531 -0.5871033 -0.2100474
0.113176756 -1.1055756 -1.4717126 -1.2508284 -1.2610769 0.8740962 -0.30064592 -1.3228134
-0.33509046 -0.26482117 -2.3432527 -1.3232982 -1.0421453 -0.96691924 -0.2207999 -1.999018
0.083137766 -1.1421225 -1.6878334 0.1913453 -1.151188 -0.79101455 -0.28537533 -0.8323221
-0.4843267 -0.053534452 -1.2470125 -2.0193596 -0.26022926 -1.1134934 -0.97010237 0.04286991
-0.99228275 -0.8831682 -1.3045136 -1.0925055 -0.69375205 0.070357494 -1.5499083 -0.5085361
-1.3775148 -2.2304442 -1.0391834 -1.6539042 -0.014256863 -0.5504514 0.3998946 -0.41161367
-0.38626605 -0.78649664 -0.021570608 -0.8222395 -0.45628908 -1.5287981 -0.4877937 -1.9461592

running_var f4 [64]
00000000: a715 7c40 174e f83f 5f87 8240 819e 4840
00000010: c124 9940 42b8 2640 5e35 f23f b161 3940
00000020: 2d8c 5740 33d7 1f40 c55d eb3f f74c 3440
00000030: 3a74 4240 9ecc 2540 255b 2840 9801 0a41
00000040: e7a5 ed3f ea70 5440 3eef 9b40 6cc5 2d40
00000050: 3874 8840 5b6e 4d40 1e32 1e40 17a3 aa40
00000060: 41ef 953f d7c6 9c40 8ebf 8d40 da10 f93f
00000070: 9973 f43f baba 4140 21bd 9640 1b1b 8640
00000080: de26 4840 d564 0740 dfab 3340 4c0d 8640
00000090: cea3 3640 ef77 6040 eb10 1440 8f28 4140
000000a0: eddd 1640 103b c83f 5be0 1840 7d55 a240
000000b0: 74da 5140 1934 d33f d301 b340 6833 5b40
000000c0: 11c7 c940 31f8 6240 7277 8740 49a8 f43f
000000d0: b1a1 2c40 c6c6 4740 b279 3140 3d13 2b40
000000e0: 6430 0140 0dc3 1f40 6f70 0f40 7e60 3440
000000f0: aaa0 9340 715a 8340 19ce e33f 377b 8540
3.9388216 1.9398831 4.079025 3.1346743 4.7857366 2.6049962 1.8922536 2.8965876
3.3679307 2.4975097 1.8387991 2.8171976 3.038344 2.5906138 2.630563 8.625389
1.8566254 3.3193917 4.8729544 2.7151747 4.264187 3.2098606 2.471809 5.3324084
1.171364 4.8992724 4.429633 1.9458268 1.9097778 3.027022 4.710587 4.190809
3.1273723 2.1155293 2.8073652 4.189123 2.8537478 3.5073202 2.3135326 3.0181005
2.3572953 1.5643024 2.3886936 5.0729356 3.2789583 1.6500274 5.5939727 3.4250126
6.30555 3.5463984 4.2333307 1.9113857 2.6973689 3.1215072 2.7730527 2.6730492
2.0185785 2.49628 2.2412374 2.8183894 4.6133623 4.10479 1.7797271 4.171291

weight f4 [64, 64, 3, 3]
00000000: 63a8 d73d bb5d e73d c832 bc3e e0df 153e
00000010: 6211 5a3e 5eb8 b6bd 06c8 7a3e 7d7d df3e
00000020: 3687 ad3d e364 013c 949f 583d 973a 003e
00000030: 3439 be3d b59b 0abf ad9f 4abd 2720 863e
00000040: c032 8d3d 522b 833d d6c8 66be 8498 933e
00000050: 1952 853e 8f9c 37be 3009 89bd 7da8 31be
00000060: 6d41 ac3d 402d 63be 9b95 4d3d 889c 48bd
00000070: bd1e 923e c297 28be 0dfe 903e 3c53 1b3d
00000080: e41c 473e 0532 bc3d 37f5 bbbe bc15 16bd
00000090: 2ede d9bc 596d 7c3e 880c d9bd fdd9 943c
000000a0: 8666 ee3e 26a6 8fbe a631 263e d230 c6be
000000b0: dedd 673e 2f9d a53d 7005 473e 4f78 283d
000000c0: 2be3 a53e 94af da3e e2e8 c9bd 0705 79be
000000d0: 3812 b3bd cf89 f0bd 6ce6 3b3d a61f 4c3e
000000e0: 657f 913c f668 0d3f 91e4 2abf a993 333e
000000f0: 9a95 753e d28b 90bf 371f 4ebe 5445 b7be
00000100: d69b 9dbd d86d bf3d 8960 f0be 9983 0cbf
00000110: 97ef 8fbe 53e7 9bbc b8c8 e7bd 8a2c 3cbe
00000120: c9d3 183e c245 b4be 378b 02be 2cf8 413e
00000130: 215a b03d 0fd3 953d dd82 debd 90e9 bbbe
00000140: a7bc 833d d3cb 0a3f 35a6 d33e 0e4e 4cbe
00000150: c629 e7bd 194f 85be 34b4 2bbe 6646 233d
00000160: f131 d5be f0a1 e7bd c97a a0be 9359 393d
00000170: e429 883e 4dc0 903d 2574 f0bc c914 94bc
00000180: 9363 31bd b4e6 c43e ef13 2bbc 8422 83bd
00000190: 7baa e13d 8457 e1be 115e 7bbe 946f 373e
000001a0: 0ca0 e63d 2dc6 c1be d5cb 01be dfbc 21be
000001b0: 59aa 48bd 18da 94bd 2b52 08bf 9493 0f3e
000001c0: 11ef 1fbe 472e d3be d932 06bf b7e5 b93c
000001d0: aa28 19bf 410e 0bbe dd41 c13e 25a9 df3e
000001e0: e3fa 67bf 4de7 48be 0b05 a93c b1dd a7be
000001f0: 5ff4 97be 7253 c33e 3257 eabd 2196 d9bb
00000200: 2de8 1ebd d750 1e3f a357 483e dcfb d93d
00000210: 4d37 163c a1a5 cc3e b3f5 c5bd 8894 ddbc
00000220: 4481 f23d 307d d73e cb74 a73d 68a6 39bf
00000230: ce5a 12bf c117 d6bd 40cd f7be e3f5 a53d
00000240: 9381 7bbf c9e0 603e cdfe d3bc 72c8 93bd
00000250: 4d61 85bf 4bf2 43be 1ebc 39be d51d f4be
00000260: cb3f 20bf 8ab8 893e 4e56 e8bc 3ad0 853e
00000270: 9c8b a2be 3479 d8be 0e10 b93e 9712 9ebe
00000280: eda2 343d 8659 40be e943 89bd a8f1 2d3e
00000290: 16ab 84be 2884 873e 783f 36be f9b2 4e3d
000002a0: ec6a 2b3e 1b60 7a3e c34a 12ba 39d7 083d
000002b0: 0b17 2fbe 4125 6a3e 61d7 c5bd cfa0 f53d
000002c0: 3d1a ab3d 38dc 90be d709 e33e dbd1 a0be
000002d0: 0d21 64bd e01e a7be da3a 9cbe c296 42be
000002e0: c918 803e c1ad b0be 4918 b1be 59c7 87bd
000002f0: c255 acbe e630 7abd 9d6a b0be 474a 7a3e
00000300: 4b0c cdbc 0dd0 ac3e fba7 b3be f2cf edbd
00000310: 11e1 8abd 32ed 59bd bcf0 e0be ff46 8d3e
00000320: f4e8 1ebe 4256 94be 6413 423e 6960 fa3e
00000330: 3b42 713e 937d d9bd 8f5d 993d 3e48 39be
00000340: e64b 9cbe 2991 643e acce a3be ea46 cd3e
00000350: 7a83 0b3f 5a4f d3be f08d 263e 012a cdbe
00000360: 0ed3 0ebd 8127 2fbf be90 c63d 6a3e 3dbe
00000370: 97c7 ecbe 7fce fdbe 41c2 0cbd c208 393f
00000380: 68d5 783e c46a a43e f3ec aebe c189 a5bd
00000390: d107 863e 726e debd acd7 49be 502b 58be
000003a0: dc44 e13e 101b 2dbe 4434 9abe b555 53be
000003b0: ded8 ccbe cf43 86be b6e6 083f 9ade a93c
000003c0: 235f fabd c063 a63e c50f b8bd 7623 993e
000003d0: 6c42 ba3e aa8f 92be 5577 1ebd 08f5 1f3e
000003e0: 54ca 25be 0043 8d3e a78e 50be 460b 263d
000003f0: 39b6 463e de36 923e db2d 193e 5089 18be
0.10530164 0.112971745 0.36757493 0.14636183 0.21295694 -0.08921884 0.24490365 0.43650427
0.08473055 0.007897588 0.05288656 0.1252235 0.092882544 -0.5414384 -0.049468685 0.26196405
0.068944454 0.06404747 -0.2253755 0.28827298 0.26039198 -0.17930816 -0.066912055 -0.1734943
0.084109165 -0.2218523 0.050191503 -0.048977405 0.28539076 -0.16464141 0.28318825 0.037921175
0.19444615 0.09189228 -0.36710522 -0.03664182 -0.026595201 0.24651088 -0.10598093 0.018170351
0.46562594 -0.2805645 0.16229877 -0.38709122 0.2264323 0.08086621 0.19435668 0.04113036
0.32399878 0.4271208 -0.09858872 -0.24318324 -0.08743709 -0.11745035 0.045874044 0.19933948
0.017760942 0.5523828 -0.66755015 0.17536797 0.2398285 -1.129267 -0.20129095 -0.3579508
-0.07695739 0.09347123 -0.4694865 -0.548883 -0.2811248 -0.019031202 -0.11317581 -0.18376365
0.1492454 -0.3520947 -0.12748419 0.18942326 0.08610941 0.07315647 -0.10864804 -0.36701632
0.06432467 0.5421726 0.41337743 -0.1995165 -0.112872645 -0.2603691 -0.16767961 0.03986206
-0.41639665 -0.11310184 -0.31343678 0.04525144 0.2659446 0.070679285 -0.029352257 -0.018076317
-0.043307852 0.38457263 -0.010441764 -0.06403068 0.11018845 -0.44012082 -0.24547602 0.17913657
0.11260995 -0.3784651 -0.12675412 -0.15794705 -0.04899058 -0.072681606 -0.5325038 0.1402114
-0.1561854 -0.41246244 -0.5242134 0.022692544 -0.59827673 -0.13579656 0.37745562 0.43683735
-0.906172 -0.19619484 0.020632287 -0.32786325 -0.29678628 0.381496 -0.114424124 -0.006640211
-0.03879564 0.618421 0.19564681 0.106437415 0.009168458 0.39970115 -0.09666004 -0.027048364
0.11841062 0.42087698 0.08176573 -0.7251954 -0.57169807 -0.104537494 -0.4839878 0.0810354
-0.9824459 0.21960749 -0.025878334 -0.07215966 -1.0420319 -0.19135396 -0.18138167 -0.4767901
-0.6259734 0.26898605 -0.028361466 0.26135427 -0.31747139 -0.4227997 0.3614506 -0.30873558
0.04410069 -0.1878415 -0.06702406 0.16986716 -0.25911778 0.26468015 -0.17797649 0.05046365
0.16740006 0.24450724 -0.00055805984 0.033408377 -0.17098634 0.22865774 -0.09660221 0.119935624
0.08354614 -0.28293014 0.44343445 -0.31410107 -0.055695582 -0.32640743 -0.3051365 -0.19002822
0.2501891 -0.34507564 -0.3458884 -0.066298194 -0.33659178 -0.06108179 -0.3445634 0.24442397
-0.025030276 0.3375248 -0.35089096 -0.11611928 -0.06781209 -0.053204723 -0.43933666 0.27593228
-0.15518552 -0.2897206 0.1895271 0.4890168 0.23560421 -0.106196545 0.07488548 -0.18093964
-0.30526656 0.22320999 -0.31993616 0.40093166 0.5449749 -0.41271478 0.16265082 -0.4007111
-0.034869246 -0.68419653 0.09695576 -0.1848084 -0.46246025 -0.49571607 -0.034364942 0.7227899
0.24300158 0.32112706 -0.34165153 -0.08082915 0.26177838 -0.108609095 -0.19711179 -0.21110272
0.43997848 -0.16904855 -0.30118 -0.20638163 -0.40009207 -0.2622361 0.53477037 0.020736028
-0.12225177 0.32497978 -0.08987383 0.29909867 0.363788 -0.28625232 -0.038688023 0.15620816
-0.16190463 0.2759018 -0.20366918 0.040538095 0.1940545 0.28557485 0.14958899 -0.1489613

bias f4 [64]
00000000: c173 303d ee07 56be 70c3 213e da3e 06bd
00000010: de0a c1bb 5979 6cbc 3b21 dabd de1e 463e
00000020: 910a cfbd da75 843d d826 a33e 7dea bdbd
00000030: 4c74 de3d 7c62 253d 8d5a 703e 7a98 48bd
00000040: b8fd d43d 7244 663d 29cc 8abd 3f78 533d
00000050: 50a4 1abe 5c02 653e f81a 003e 85fa 99bc
00000060: 713a dabd 365f 673e 8768 0dbe 1abf 80bd
00000070: 2bc1 80be b55e 29be 5815 cdbe 0012 d93c
00000080: fde3 0ebd c913 3d3d 12e7 f7bd fbf7 c0bc
00000090: 4248 e23d af02 8b3d 07bf ef3d 5893 a6bd
000000a0: e5cf 6a3e 19d7 14bc 1d99 e1bc 0f4d 83be
000000b0: d054 f0bb 8466 a63d 1db3 41bd c706 debd
000000c0: 244e 68be f620 6b3e 22d5 2a3d d456 28be
000000d0: 1b57 26bc 11a2 89be 000a 8b3d 3c4b 12be
000000e0: d9b9 723d b31b f13d aa79 bcbb 6453 5cbc
000000f0: 4904 b83e a9a4 63bd 8d1f 5dbe ba79 30bc
0.04307914 -0.20901462 0.1579721 -0.032774784 -0.005891188 -0.014433228 -0.106508695 0.19347712
-0.10109437 0.06467791 0.31865573 -0.09273241 0.108620256 0.040377125 0.23472042 -0.048973538
0.103999555 0.05621762 -0.06777222 0.051628347 -0.15101743 0.22364181 0.12510288 -0.018796215
-0.10655678 0.22594914 -0.13809405 -0.0628645 -0.25147375 -0.16540034 -0.40055346 0.02649784
-0.034885395 0.046161447 -0.1210462 -0.023555746 0.11048938 0.06787621 0.117063574 -0.08133572
0.22930868 -0.009084486 -0.02753883 -0.2564473 -0.007334329 0.08125022 -0.047289956 -0.108411364
-0.22686058 0.22961792 0.041707166 -0.16439372 -0.0101526035 -0.2688146 0.06789017 -0.14286512
0.05925927 0.11772861 -0.005751808 -0.013447616 0.3594077 -0.055576954 -0.21594067 -0.010771209

weight f4 [64]
00000000: a88e 483f 7f52 013f 43e9 393f 289e 0b3f
00000010: 4858 d83e caf9 083f 6a75 023f 9558 ac3e
00000020: 67fa ef3e cc5e ab3e b701 ad3e 3906 bc3e
00000030: aec5 803f 5c37 4c3f aa8a 133f ba4c c43e
00000040: d363 323f cd2e d93e 8e0c 223f 1fac 163f
00000050: b733 2a3f e6cb 013f 5e76 f83e 5162 293f
00000060: 1a07 173f 43cd c73e b838 083f dc09 e83e
00000070: d381 bb3e c104 0f3f bbe3 d03e 1822 d73e
00000080: 087f d93e d8ed 173f 1974 173f 6746 2f3f
00000090: 6f8f 1c3f 017f 8e3f be29 083f c744 ae3e
000000a0: 1e0d af3e 27e5 2c3f 657b af3e 4f0b ab3e
000000b0: 239a 073f eaeb fd3e d598 dc3e c2d5 273f
000000c0: 97a2 193f 869d 1a3f 7d74 aa3e 0b86 cf3e
000000d0: c4c0 003f b2c7 2b3f 9032 083f 6916 0c3f
000000e0: 86a6 0e3f 356d 043f 99ff 1f3f 99b7 fb3e
000000f0: ce98 fd3e 60e3 4b3f 3825 4a3f 4d68 0e3f
0.78342676 0.50516504 0.72621554 0.545382 0.42254853 0.5350615 0.5096041 0.33661333
0.4687073 0.33470762 0.3379037 0.36723498 1.0060327 0.7977197 0.5763346 0.38339788
0.6968357 0.4241852 0.63300407 0.58856386 0.6648516 0.5070175 0.48527807 0.66165644
0.5899521 0.3902379 0.53211546 0.45320022 0.36622486 0.5586663 0.40798745 0.420182
0.4247973 0.59347296 0.59161526 0.684668 0.6115636 1.1132509 0.53188694 0.34036848
0.34189695 0.6753716 0.3427383 0.33407065 0.5296957 0.4959405 0.43085352 0.65560544
0.6001372 0.6039661 0.33291999 0.40531954 0.50294137 0.67101586 0.5320215 0.54721695
0.55722845 0.51729137 0.62499386 0.4916351 0.49530643 0.7964382 0.7896304 0.556279

bias f4 [64]
00000000: 4f75 c6be d964 c2be 7e30 66bf 32b8 17bf
00000010: c50b f3bd 864e 16bf 9d86 533e 4d98 983e
00000020: a56f b8be 27c6 803e df8e 2b3f d7bc f53d
00000030: 1a7f 9fbf 8b4d 91bf 0cd3 b8bd 719e 01bd
00000040: c7ea 19bf c79a 713e 962f 35bf b9b9 a5be
00000050: bfea 42bf 092a 9e3d 6705 73be 40ac 41be
00000060: 850d 9cbe d709 7a3d 5f57 7d3d 894d 4f3e
00000070: 2177 163e f74c 7abd 429f 303e 6bbb 443e
00000080: 1a5d a1be c562 0f3d 0a85 89be f795 48bf
00000090: 7af7 76be 3aa6 a3bf 1b90 b23d 9a49 d03e
000000a0: e7ad 283e 4632 41bf 6a12 673e c0eb 7a3e
000000b0: 3957 f6bd 7a89 ce3c b859 303e 844d fabe
000000c0: ec2f bbbe b68a 0dbf 53f5 123f c761 613e
000000d0: 80cf 073c 1edf c6be 8599 a2be 4c36 c9be
000000e0: 98b0 a1be 23c1 a2be 272e f3be f50e eabe
000000f0: 239e 783e 630c 93bf 9bfb 2cbf 942f cebe
-0.38761374 -0.37967566 -0.89917743 -0.59265435 -0.11867479 -0.5871357 0.2065682 0.29803696
-0.36022678 0.25151178 0.6701488 0.11998909 -1.2460663 -1.1351789 -0.09024629 -0.031645242
-0.60123867 0.23594199 -0.70775735 -0.32368258 -0.76139444 0.07722861 -0.2373253 -0.18913364
-0.30479065 0.06104454 0.0618509 0.20244421 0.14693882 -0.061108556 0.17248252 0.1921212
-0.31516343 0.035006303 -0.26859313 -0.7835383 -0.24117842 -1.2785103 0.08718892 0.40681154
0.16472588 -0.75467336 0.22565618 0.24503994 -0.12028355 0.025212038 0.17221725 -0.48887265
-0.3656 -0.5528978 0.57405585 0.22009955 0.008289218 -0.388421 -0.3175775 -0.39299238
-0.31580043 -0.31787977 -0.4749615 -0.45714536 0.24279074 -1.1488155 -0.6757142 -0.40270674

running_mean f4 [64]
00000000: 5174 08c0 83bc a1bf 2efe 78c0 6225 03c0
00000010: 4cc3 6dbf 7e05 53c0 7895 6cbe 346c b5bd
00000020: 74eb 9bbf 263b ad3e d093 e23f 1397 df3e
00000030: c05b 26c0 f774 f2bf 1cbd 5ebf 6a04 29bf
00000040: 38dd efbf a0fc e0bf c9ca efbf a620 efbf
00000050: 38f0 d7bf 7a1e 23bf 770f 00bf bd7e d4bf
00000060: f390 ebbf 9fd1 1ebf ae72 86bf f650 ce3e
00000070: e7ce 0f3f b4a5 b0bf 8129 d6be 222e 8dbf
00000080: fc13 33c0 0c24 81c0 e391 75bf 0868 7dc0
00000090: ccd0 cfbf 8710 cdbf 7070 82bf 6c05 073f
000000a0: 2cc3 183f 6b14 56c0 73f5 dfbe 083b 96bf
000000b0: bafa 17c0 989b 36bf 12e1 12be bc9c d0bf
000000c0: ae5a e6bf a0f3 0dbf 6166 0b40 2505 b0bf
000000d0: 284d 0bc0 1cd8 48c0 4397 c6bf 798c 11c0
000000e0: b30b 4bc0 5f87 69bf cd2a 91c0 2e71 25c0
000000f0: 62f3 f93d 151d 16c0 1551 1dc0 b5be 49bf
-2.1320994 -1.2635654 -3.890514 -2.0491567 -0.92876124 -3.2972102 -0.23103893 -0.08858529
-1.218123 0.3383419 1.7701359 0.43669948 -2.59935 -1.8941945 -0.8700731 -0.6602236
-1.8739386 -1.7577095 -1.873376 -1.8681839 -1.6870184 -0.6371838 -0.500236 -1.6601177
-1.840361 -0.62038606 -1.0503747 0.40296143 0.5617508 -1.3800569 -0.4182854 -1.1029704
-2.7980947 -4.0356503 -0.9592573 -3.9594746 -1.6235595 -1.6020669 -1.0190563 0.5274265
0.5967281 -3.3449962 -0.4374195 -1.1736765 -2.3746781 -0.7133117 -0.1434367 -1.6297832
-1.7996423 -0.5544987 2.1781237 -1.375157 -2.1765842 -3.1381903 -1.5514911 -2.2741988
-3.172589 -0.91222185 -4.5364747 -2.585033 0.12204625 -2.345525 -2.4580739 -0.7880662

running_var f4 [64]
00000000: 90f2 b140 478a 2340 060f 6340 f817 4340
00000010: d85c 8240 7352 3d40 6395 c640 aea2 5b40
00000020: 76ca 2040 6a38 6240 1cad 8440 bcef 5040
00000030: a433 9f40 5b0e 2e40 07b1 7740 0419 3940
00000040: b39e 8340 aa85 9740 1e9a 5f40 d71b 9a40
00000050: e412 6c40 3339 9640 096a 5440 10a2 a540
00000060: 6ebe 7540 e72c 3640 de00 d540 9430 b540
00000070: 8f71 5540 3d7b bf40 84fc 6f40 eb30 7f40
00000080: cca2 6940 7e46 d240 2640 8240 9509 8840
00000090: 776c 7e40 c3a5 9840 9d7c be40 54be 6740
000000a0: 6091 5f40 7326 5c40 0b8b 7340 c1e1 4c40
000000b0: 77e8 8c40 4907 9440 1c45 8640 ea1b 4640
000000c0: 59d1 5340 637f 8b40 ae17 6340 70d0 9540
000000d0: 7a19 df40 2404 c440 e73e 7640 16fd 8540
000000e0: aa53 4840 2a4f 9440 1ee4 9c40 860b 4e40
000000f0: 784c af40 2ea7 3540 8fc6 5d40 645c 6f40
5.5608597 2.5553148 3.547792 3.048338 4.0738335 2.9581573 6.2057357 3.4318042
2.5123572 3.5346932 4.1461315 3.2646322 4.975054 2.7196262 3.87018 2.8921518
4.1131225 4.7350664 3.4937816 4.8158984 3.688653 4.6944823 3.3189719 5.176033
3.839748 2.8464906 6.656356 5.66218 3.335056 5.9837937 3.7497873 3.9873607
3.6505613 6.571105 4.0703306 4.2511697 3.9753702 4.7702346 5.9527116 3.6209917
3.493248 3.4398468 3.8053615 3.201279 4.403377 4.6258893 4.195936 3.0954537
3.3096526 4.3593 3.5483203 4.681694 6.97186 6.1255054 3.8475893 4.1871443
3.1301064 4.6346636 4.9028463 3.2194533 5.4780846 2.8383288 3.465244 3.740014
