models/vishal_lr_001_iter_300.pt_234_128.pt (torch_old, 776281 bytes, 39 tensors)

weight f4 [64, 1, 3, 3]
000000 eb 87 53 be b0 f6 3d be 1f a3 99 3e 39 fe de bd
       -0.20657317 -0.18551135 0.30007264 -0.10888333
000010 91 42 f9 bd f6 d1 a4 3e 32 95 86 be f8 c9 ff bc
       -0.121709 0.32191437 -0.26285702 -0.031224236
000020 4f 87 97 3e fb ef cb 3d f6 57 e6 3d be a5 8f 3c
       0.2959542 0.09957882 0.11247246 0.017535087
000030 c1 9a 72 be 1b b3 98 3e f6 74 54 bc 0c c2 f5 be
       -0.23691846 0.29824147 -0.012967339 -0.4799961
000040 89 e5 a1 3d 00 ed 0d 3e 00 0c fa 38 cc 92 53 bd
       0.079051085 0.1385994 0.00011923164 -0.05165367
000050 38 d7 cf bc 4c 47 b4 bc 8c c1 6b bd 10 28 87 bd
       -0.025371179 -0.022006653 -0.057557628 -0.06599438
000060 d6 15 b2 bd b6 fc ca 3d cc 98 15 3d cc c9 09 bf
       -0.08695571 0.09911482 0.03652267 -0.5382354
000070 ac 50 7e be 05 90 bc be d0 0c 0e bf e5 35 e5 3d
       -0.24835461 -0.36828628 -0.554883 0.1119192
000080 f0 c4 0b be d6 49 41 bd 8e b4 31 3f c1 05 bd 3e
       -0.13649344 -0.047189556 0.6941613 0.36918452
000090 dc 7c 60 bd 42 3e e5 bd 52 ae 28 3d 33 39 b2 bd
       -0.054806575 -0.11193515 0.04118187 -0.08702316
0000a0 79 74 b2 3c 5f dc 5d 3d 1d 0f 21 bd 56 7b f3 3b
       0.021784054 0.05416524 -0.039321054 0.0074304743
0000b0 8f d6 7d 3d 69 a6 82 bd 4d 33 5f bd 2f 5f 40 bd
       0.061972197 -0.063793965 -0.054492284 -0.046965774
0000c0 1d c8 97 3e 18 11 2c 3e 8d 07 f5 3d fe 59 89 3d
       0.29644862 0.16803396 0.11964331 0.06706618
0000d0 3d 94 ae 3c ba fb 29 bd 3e cc 2a bd 1c 76 d1 3d
       0.02131092 -0.04149983 -0.041698687 0.10227606
0000e0 3f 9b 41 3e d6 f9 8f 3d 63 ab f6 be 4a 79 9e bf
       0.18906878 0.07030074 -0.48177633 -1.2380764
0000f0 d1 5b ba 3e 05 6a c5 bd 68 f5 fb be cc c2 f0 3d
       0.36398175 -0.09639362 -0.49210668 0.117559046
000100 fa af 69 be 1d db 25 3e dc 42 5a 3e 37 52 8f be
       -0.22821036 0.16196866 0.21314567 -0.27992412
000110 3c 51 0a bd b1 8b 22 3e 6d 4c 0e bd eb 05 b1 bd
       -0.033768877 0.158736 -0.034740854 -0.08643707
000120 cc ab bc bd 90 b9 8b bd 15 79 7b bd 86 28 9b bd
       -0.09212455 -0.068225026 -0.06139477 -0.075760886
000130 87 26 22 bd 50 58 03 bd 70 2b ab 3d c6 54 92 bd
       -0.039587524 -0.032066643 0.083578944 -0.071450755
000140 b0 04 98 3d 84 a4 63 be 06 26 2e 3e fb 98 f6 3b
       0.07422769 -0.22230726 0.17006692 0.007525561
000150 ca c5 eb 3c 50 47 cf 3e ea 7e c7 be 4a dc 69 bd
       0.028780837 0.40484095 -0.38964015 -0.05709485
000160 a5 42 5f bc 3b 0f 71 3d af 90 33 bd e0 d7 0b 3d
       -0.013626729 0.058852416 -0.043839153 0.03414142
000170 00 fe 46 39 37 f9 be bd f8 bd 8c 3d 88 9e fd 3c
       0.00018977374 -0.09324878 0.06872171 0.030959383
000180 66 70 90 bd d0 f6 6d bc ca ab 96 3d c4 f5 2f 3c
       -0.07052688 -0.014524177 0.07356985 0.010739747
000190 e8 ae f9 3e 20 0a e1 bd 15 05 bd bd 3f 38 4c be
       0.48766255 -0.10988259 -0.09229485 -0.19943331
0001a0 27 67 4b be d5 d5 99 3d 42 31 87 be 52 b6 82 3e
       -0.19863568 0.07511488 -0.26404768 0.25529724
0001b0 40 61 0c bb a0 4f f3 3b c0 43 5f bb f1 54 76 bd
       -0.002142027 0.0074252635 -0.0034067482 -0.0601396
0001c0 f0 67 16 bc 40 76 6e 3c 00 5a 7b 3d 28 ad b9 3d
       -0.009180054 0.01455456 0.061365128 0.0906623
0001d0 ad 91 4f bd c4 1e db 3d f2 78 84 3c d9 ec 61 bd
       -0.050676037 0.106992275 0.016170952 -0.055157516
0001e0 e3 99 a6 be 54 b8 03 bf 2d 11 70 bd 1d e3 81 3e
       -0.3253928 -0.5145314 -0.05861013 0.25368586
0001f0 c1 44 24 3e 19 b3 dd 3e ba 7f c6 be a5 7b ac 3e
       0.16041853 0.43300703 -0.38769323 0.33688083
000200 f7 7d 42 3e 5f 9a 3f bd a5 91 b7 be 9b ca 67 3e
       0.18993364 -0.04677808 -0.35853305 0.22635882
000210 9e 0f e7 3e 76 74 7a be ca 2f 59 be 11 76 9d be
       0.45129102 -0.24458489 -0.21209636 -0.3075414
000220 6f 70 95 3e fb 03 9b bd 2e 6b 75 be 93 66 e9 3e
       0.29187343 -0.075691186 -0.23966667 0.4558607
000230 db 2d bc 3d 61 b4 99 be f4 ac 3f 3e 04 63 a0 bd
       0.09188434 -0.3002043 0.1871832 -0.07831386
000240 7a e9 09 bf bd 99 c6 bf 1a b1 fd 3d 38 05 8d bf
       -0.5387188 -1.5515667 0.12387295 -1.1017218
000250 95 3a 19 c0 2c 23 e9 be 75 b1 12 3e ac ad b6 be
       -2.3942006 -0.45534647 0.14325507 -0.35679376
000260 ca 23 5c 3e 56 35 29 be 20 fe 4d be 12 c6 28 be
       0.21498027 -0.16524252 -0.20116472 -0.16481808
000270 b5 48 53 3d 4a 48 fb 3d 88 5c d8 3e 37 cd 69 be
       0.05158301 0.122696474 0.42258096 -0.2283219
000280 65 69 8e 3d 74 ea c4 3d 6d 05 7c 3b 52 fb 3e 3e
       0.06953696 0.09615031 0.0038455382 0.18650559
000290 c0 4c 9e be f9 ee 14 3e 1e b1 e3 3e c1 b4 ef be
       -0.3091793 0.14544286 0.44471067 -0.46817592
0002a0 78 8c 6b 3d b2 7c 9d 3e 21 06 ba be 3b 80 63 bf
       0.05750701 0.30759197 -0.363328 -0.8886754
0002b0 17 3d 8e be 70 46 96 3e 0f 72 17 3e 3e f8 0c 3f
       -0.27780983 0.29350615 0.14789604 0.5506629
0002c0 13 25 66 3e 56 82 3b 3e ee 11 93 be 72 c3 2f bf
       0.2247508 0.18311438 -0.28724617 -0.686576
0002d0 e8 32 66 be e5 e1 66 be e6 2c c8 3d a9 46 2d 3e
       -0.22480357 -0.2254711 0.09774189 0.16921486
0002e0 c6 9f 31 3f 18 72 bc be 30 4e e2 bd 30 35 a1 3d
       0.6938442 -0.36805797 -0.11050069 0.07871473
0002f0 71 52 e4 bd 38 2b 8a be f9 8b 85 3d c2 c2 97 3d
       -0.11148537 -0.26986098 0.06520838 0.07410194
000300 c1 30 6b 3e f8 a0 bf 3e ed fa 48 3e 65 ce 4d 3d
       0.22967817 0.37427497 0.1962697 0.05024566
000310 dd cb d2 be 85 de 94 be 9c 40 cb bd 3f 1f 21 be
       -0.4117116 -0.2907602 -0.09924433 -0.15734576
000320 52 b4 3c 3e d4 90 86 be d9 f1 b4 be ed e2 3e be
       0.18428162 -0.2628237 -0.35340765 -0.18641253
000330 82 7b 92 3e a9 b5 9e 3e 29 11 95 3e 53 4f 03 be
       0.28609854 0.3099797 0.29114655 -0.12823229
000340 47 93 3e bd e8 4a 87 3d 47 03 65 bd 20 1c b4 bd
       -0.046527173 0.06606084 -0.05591133 -0.08794427
000350 ea f4 27 bd 39 f3 7c 3d 1f ae 61 3d 7c eb d3 bc
       -0.041005053 0.061755393 0.055097695 -0.025869124
000360 4e 5b be bd 1b b8 69 bf b1 e1 31 3e 5e 89 14 bf
       -0.09294759 -0.9129655 0.1737125 -0.58022106
000370 33 2e f0 bf 05 05 cc bd f0 d5 18 3e 17 1d 51 be
       -1.8764099 -0.09961895 0.1492536 -0.20421253
000380 ab 5e 84 3e 60 3f f1 3b 93 18 c9 bd f5 56 ab bd
       0.25853476 0.007362291 -0.0981914 -0.08366195
000390 82 85 c5 3d 0b 96 77 bd 60 2b 48 3d a0 86 0e bb
       0.09644605 -0.060445827 0.04886949 -0.0021747723
0003a0 00 28 80 bb 95 ef 99 bd 99 fd b6 3e 83 54 25 3e
       -0.0039110184 -0.075164 0.35740355 0.1614552
0003b0 9c 2b 34 3e a6 83 54 be 0a cb 99 bf 0b 45 9d bd
       0.1759476 -0.20753345 -1.2015088 -0.076791845
0003c0 4f aa 01 3e 33 3d f9 be 69 f0 83 3e 51 e7 fb bc
       0.12662624 -0.48679504 0.25769356 -0.030749949
0003d0 e6 27 de 3d 55 9a 35 bd 8c 3e bd be 5e f4 d2 bc
       0.10847454 -0.044336636 -0.36961782 -0.025751289
0003e0 1b 21 89 3e a7 45 5f 3e 2e 58 1f 3e ed 02 9d be
       0.2678307 0.21803914 0.15560982 -0.30666295
0003f0 2f 4d cf 3e b5 e8 54 be 96 6b 27 be 3e c4 26 3e
       0.40488574 -0.20791896 -0.16349635 0.16285798

bias f4 [64]
000000 d7 a9 4f 3c be f6 0d 3d ac b3 c5 bd f2 42 8d 3c
       0.01267477 0.03465914 -0.0965341 0.017243836
000010 62 ae 9d be 8f 15 87 be 6c 32 56 3e cd e1 c2 3d
       -0.30797106 -0.26383635 0.20917672 0.09515724
000020 f8 dd 44 be 53 33 45 3d 2a ca a8 be 2c e2 bb 3d
       -0.192253 0.04814465 -0.3296674 0.09173998
000030 26 3e 5e be 67 b3 20 3d f0 bc 82 3d 81 b4 95 bc
       -0.21703395 0.03923359 0.06383693 -0.018274548
000040 71 da 91 3e ee 15 c7 3c da 3f db bc 01 78 94 3d
       0.2848697 0.02430245 -0.026763845 0.072494514
000050 a5 01 42 3d b0 d9 e4 3c 7b 0a 75 3c ba c7 d0 bd
       0.04736485 0.027935833 0.014956112 -0.10194345
000060 19 f7 96 3e cc 53 bc bd 79 07 25 3e fa a0 c5 3d
       0.29485396 -0.091956705 0.16116132 0.096498445
000070 5d 9a 6f 3c e8 ff 3b 3d 1c 5b d2 3c 00 9e f0 3d
       0.014624205 0.045898348 0.02567821 0.11748886
000080 5d a4 98 3d 9f 61 8e be 8c 3a f9 3c 75 70 76 3d
       0.07453225 -0.27808854 0.030423425 0.06016584
000090 d3 84 b4 3c 29 47 93 3d 82 e7 bd 3d e8 04 57 bd
       0.022035992 0.07191307 0.09272672 -0.052494913
0000a0 01 9b 5d 3e c0 df 81 3d 69 c6 77 3d 04 4d 4e 3d
       0.2164116 0.06341505 0.060491953 0.050366417
0000b0 c6 17 3f be f1 6d 14 3e e7 f5 85 be 7f 3d be 3c
       -0.18661413 0.14495064 -0.2616417 0.023222683
0000c0 25 c7 24 bf 93 4b 1d be 10 b8 c0 3d 30 f5 8f 3c
       -0.6436637 -0.1536086 0.09410107 0.01757297
0000d0 54 ab 97 be 14 a2 97 be 70 69 b1 bd 3d 62 c2 bd
       -0.296229 -0.29615843 -0.08662689 -0.09491394
0000e0 40 72 9e be 38 93 34 3d aa c0 b4 bd d0 3c 32 bf
       -0.3094654 0.04408571 -0.0882581 -0.6962404
0000f0 28 2a 1a 3d 96 75 5c 3e 1c 08 87 bc c6 e9 21 be
       0.03763786 0.2152923 -0.016483359 -0.15811834

weight f4 [64, 64, 3, 3]
000000 b8 d7 ba 3c df 3d a3 3e 49 35 bb be 85 c9 b2 3e
       0.02280794 0.3188314 -0.3656409 0.34919372
000010 1d 56 fc 3d e7 40 ec be cb bf 46 3e e9 e2 47 3e
       0.12321112 -0.46143267 0.194091 0.19520153
000020 5a 5f 47 3d 3d 05 75 3d 42 eb 8c bb 70 36 77 3c
       0.04867492 0.05981945 -0.004300506 0.0150886625
000030 cd 6a a5 be 2b 17 e2 be e6 6a c7 bc c1 c2 cd 3d
       -0.32308045 -0.441583 -0.024342965 0.10046912
000040 91 70 ce bd c1 89 19 3e 28 cc 0c bd 48 88 d3 3c
       -0.10080064 0.14993955 -0.034374386 0.02582182
000050 00 5e 5f 3d b6 08 2e 3d 92 46 39 3d f6 b3 8a bd
       0.054533005 0.042488776 0.045233317 -0.06772606
000060 1c 2d 66 3d 20 f1 7b 3d cc 03 5a bc 7b 0c aa 3c
       0.056195363 0.06150925 -0.013306569 0.020757904
000070 84 28 ba 3e c3 df a0 3d a0 b5 e4 3c 45 bc f8 bd
       0.36359036 0.07855179 0.027918637 -0.121452846
000080 fd 6d e7 be fd e8 b3 be 16 82 a3 3e 49 3c 7e 3e
       -0.45201102 -0.35138693 0.31935185 0.24827684
000090 8e f1 ad bc b0 24 42 bc 5c a5 65 bd 32 f1 b3 3d
       -0.021233346 -0.011849567 -0.056065902 0.08786239
0000a0 6f d7 c7 ba 52 82 cf bc a0 41 48 3d a8 9c b6 bd
       -0.0015246699 -0.025330696 0.04889071 -0.089165986
0000b0 84 d2 92 3d 78 37 a2 3b 6e e2 c8 be 98 35 b3 be
       0.07169059 0.00495046 -0.39235252 -0.35001826
0000c0 ad 67 bc 3e 40 a4 61 3e 9f 24 a3 be 8b 9f e3 3e
       0.36797848 0.22035313 -0.31863877 0.4445766
0000d0 65 23 b5 3e f1 b3 43 be 93 fa a2 bd e1 09 33 bf
       0.35378566 -0.19111611 -0.079579495 -0.6993695
0000e0 34 39 90 bd 0a 8b 57 3f 42 84 03 bf 86 b5 20 bd
       -0.07042161 0.8419653 -0.51373684 -0.039235614
0000f0 f6 92 85 be 8f e1 62 bf 87 87 7c 3c 78 0b 44 3e
       -0.26088685 -0.88625425 0.015413172 0.19145
000100 49 49 0b 3f 68 a6 b4 3d e3 a1 07 bf 8e 7e 84 3e
       0.544087 0.08820802 -0.52981395 0.25877804
000110 0c 0e d7 be b4 e0 da bd 00 2e 47 3d a4 93 47 bd
       -0.42002904 -0.1068739 0.048627853 -0.048724785
000120 14 3d 15 3d fd e9 3c bd 40 da 30 3b a0 5e 4c 3d
       0.0364352 -0.046121586 0.0026985556 0.04989493
000130 1c 55 7c 3d 6c 33 5b 3d e4 53 59 bd b6 50 18 bd
       0.061604604 0.053515837 -0.05305852 -0.037186347
000140 7c 74 7e 3d cd 86 a0 3d 7a a9 8f bd a0 cf e4 3e
       0.062122807 0.07838211 -0.07014747 0.44689655
000150 cf 68 1d be 0f a2 b8 be 63 84 c7 bd 5c 02 e6 3d
       -0.15372013 -0.3606114 -0.09742048 0.11230919
000160 33 63 63 3d 60 64 5a bb 10 09 81 3d 2a 5a 90 3d
       0.055514526 -0.0033323988 0.06300557 0.070484474
000170 24 c5 8a 3d 5b 6f 48 bd 84 7f 42 3d a0 dd a4 3c
       0.06775883 -0.04893432 0.04748489 0.02012521
000180 f4 90 25 3d b2 0c 75 bd 2a 0a 21 3d 69 c3 2d bd
       0.04042144 -0.05982656 0.039316334 -0.042422686
000190 f1 0c 2c 3f ef 7a 9d 3e 14 a3 7c be 40 1e 43 be
       0.67207247 0.30757853 -0.24671584 -0.19054508
0001a0 e1 01 49 3e da cc e9 be dc bc d9 be 1d 6b 87 3d
       0.19629623 -0.45664102 -0.425269 0.06612227
0001b0 60 87 07 3b e0 62 66 3d 06 a6 1b 3d e3 ca 0d bd
       0.0020680055 0.05624664 0.03800013 -0.034617316
0001c0 c2 a5 d0 bc e0 f4 84 3b 20 73 87 3b 80 14 59 3d
       -0.025469664 0.0040575117 0.004133597 0.052998066
0001d0 83 ba 70 bd 7f 26 3b bd 8d 14 bb be 61 9a 52 3e
       -0.05877162 -0.04569101 -0.36539117 0.20566703
0001e0 5a 3b db bc 75 7f 41 3d fa 53 6c 3d 93 e7 9f 3e
       -0.0267617 0.047240693 0.057697274 0.31231365
0001f0 4c ed c3 3d e7 54 4c be ef a9 43 3d 68 ed af 3d
       0.09566745 -0.19954263 0.047769483 0.085902035
000200 d8 0f d4 3c 74 e1 be bb c7 e1 ae bd 58 e6 c0 bd
       0.025886461 -0.005825216 -0.08539157 -0.094189346
000210 9b f7 30 be a9 46 e6 bc 83 0d ee 3c 00 e1 0a 3d
       -0.17281954 -0.028109865 0.029059177 0.033905983
000220 ee 0d da bc e3 12 3f bd 73 b8 c9 3b 71 82 93 bc
       -0.02661797 -0.04664887 0.0061560213 -0.018006535
000230 b8 4d af 3d b4 3b 35 bd 75 1e b6 bd a5 94 e0 3e
       0.085597456 -0.04424639 -0.08892528 0.43863407
000240 47 5a 09 bf 4e 88 87 be 36 c6 da be a8 83 a5 3e
       -0.5365338 -0.2647118 -0.42729348 0.32327008
000250 bc fb 25 3f 97 0a 18 3e 87 d7 e6 3e 6c f1 a2 3e
       0.6483724 0.1484779 0.4508631 0.31824815
000260 ba 62 ac be 04 67 5e bb 37 ae 00 3e 63 39 ac bd
       -0.33669072 -0.0033935914 0.12566458 -0.08409383
000270 ed 6e 42 bc e2 f0 4e be 75 74 63 be 86 79 b9 bd
       -0.011867267 -0.20209077 -0.22212394 -0.09056382
000280 60 dd fc bd 90 98 15 be 24 da cd bd 54 fc 42 bc
       -0.123469114 -0.14608979 -0.10051373 -0.01190098
000290 26 a9 45 3d e5 fe 10 3f af 6f 84 3e 67 fe 13 be
       0.048257016 0.5663894 0.25866458 -0.14452516
0002a0 3b 96 0f 3f fa f8 b4 3e 5b 35 72 be 44 b5 b8 bd
       0.5608861 0.35346204 -0.23653166 -0.09018949
0002b0 7c d5 05 3e bc 7d 0b be 49 a0 a2 3e ab 5d ac be
       0.13069719 -0.13622183 0.31762913 -0.33665213
0002c0 c7 a8 6f be 3f 17 5e 3f 58 40 94 be 4d f0 63 bd
       -0.23404227 0.8675422 -0.2895534 -0.05564909
0002d0 e9 72 60 bb 3e 2a 59 bd 9c c6 e2 3e 24 11 cb bd
       -0.003424818 -0.0530188 0.44292152 -0.09915379
0002e0 89 50 23 be 98 c2 b5 be 8c cc 41 3e 86 79 27 3e
       -0.1594869 -0.35500026 0.18925685 0.16354951
0002f0 2e 9d 47 bc 92 e4 ba 3d a9 19 95 3e 0d 51 57 3c
       -0.012183471 0.091256276 0.2912114 0.013141883
000300 22 fd 91 be 71 e6 bb be 67 4f 90 3d d3 a6 a0 bd
       -0.28513438 -0.3669925 0.07046395 -0.07844319
000310 c3 b4 29 3d c9 be 2d bd 34 e2 9a be 02 83 ae 3d
       0.041432153 -0.042418275 -0.30250704 0.085210815
000320 f9 af 80 3e 64 d0 60 be 16 0a 7c 3d 03 15 4f be
       0.25134256 -0.21954495 0.061533056 -0.20222859
000330 a8 90 ce 3d 85 9a ae 3e 0d e6 23 be 36 99 af bc
       0.10086185 0.34102264 -0.16005726 -0.021435361
000340 7c ff 0d bd c4 57 2d bd b4 c3 a7 3c c5 57 90 3d
       -0.034667477 -0.042320028 0.02047906 0.07047991
000350 b1 75 9d bc 08 5e 07 3d b2 ba 74 bd 4f 1f ee bc
       -0.019221159 0.03304866 -0.05974836 -0.029067663
000360 72 af 29 be 47 05 a4 be 98 ec 00 3e 50 ef 6f be
       -0.16570833 -0.32035276 0.12590253 -0.23431134
000370 cd 45 95 3e 08 4d 8b be eb 00 3e 3e c6 4b d8 3c
       0.29154816 -0.27207208 0.18555038 0.02640332
000380 23 11 85 3e b8 66 77 bd b0 99 ff bc c6 b4 f0 bc
       0.25989637 -0.060400695 -0.031201214 -0.029383074
000390 c2 15 13 3d f0 58 6c 3d 9e 65 1e 3d 9a 7d 8e bc
       0.03590942 0.057702005 0.03867113 -0.017393876
0003a0 cc 1d ef 3c 37 7f 22 bd 05 0e 5a 3d cf 38 1e 3e
       0.029189013 -0.039672103 0.053236026 0.15451358
0003b0 d7 19 d9 bd 83 f0 21 3e 84 44 e9 3e 95 66 43 bd
       -0.10600632 0.15814404 0.45560086 -0.04770525
0003c0 63 d3 09 bf 1a 4f e1 be b0 ce 57 be 35 32 a5 3e
       -0.53838176 -0.44005662 -0.21074939 0.32264867
0003d0 e5 72 a3 bc 20 76 f4 3e 78 89 dd be c3 83 a2 be
       -0.019952247 0.47746372 -0.43268943 -0.3174115
0003e0 cc 68 a7 3d 1f c5 80 bd 87 8d 8c be ac 56 38 3e
       0.08174285 -0.06287598 -0.27451727 0.18001813
0003f0 c7 01 ca 3e 1b 2f 9b bd 06 a1 99 bd 9d 6a 8e be
       0.3945448 -0.07577344 -0.07501416 -0.27815714

bias f4 [64]
000000 1a b1 08 be 64 04 c2 3e 91 85 1c be 32 16 11 3e
       -0.13348809 0.37893975 -0.15285327 0.14168623
000010 0e c6 ca bb f5 b1 0d 3f 33 e5 ec 3e 96 15 d7 bd
       -0.0061881607 0.55349666 0.46268615 -0.10502164
000020 47 49 7e 3e 50 a1 57 3e 77 e5 88 3e 85 d4 91 be
       0.2483264 0.2105763 0.26737568 -0.28482452
000030 43 db 8e bd 34 19 3f bc 3d 24 91 bd d3 86 2e bf
       -0.069754146 -0.011663724 -0.0708699 -0.68174475
000040 d4 19 62 3e 74 00 07 3e a5 64 13 3e 80 9f b2 3e
       0.22080165 0.13183767 0.14393862 0.34887314
000050 88 64 d3 3e 35 36 d5 be cc e6 c8 3e 62 17 4a 3e
       0.41287637 -0.4164292 0.39238584 0.19735482
000060 57 3c 29 3e b7 59 01 3e 9f f3 82 bc ea 4a 9e be
       0.16526924 0.1263188 -0.015985308 -0.3091653
000070 21 31 d5 bd 6e ed 6b 3e 22 62 0b 3f 3a c4 8d 3c
       -0.10409761 0.23039791 0.54446614 0.017305482
000080 f5 cd ab bd a6 d8 c5 bd 38 62 4f 3e d7 49 bb bd
       -0.083888926 -0.09660463 0.20252311 -0.09144943
000090 19 64 ae bb 4f 84 e1 3e 9b 38 02 3f 20 5f 12 3d
       -0.005321991 0.44046256 0.50867623 0.03573525
0000a0 8f 57 e9 3e 95 46 ce 3d a4 a0 f3 3d a5 35 ce 3e
       0.45574614 0.10072056 0.11895874 0.40275303
0000b0 8e 31 b4 be bf 96 29 bd 01 5d bd be ab 45 9f bd
       -0.35194057 -0.04140353 -0.3698502 -0.0777696
0000c0 fb b7 ef be 88 dc af 3c 11 d1 b2 be ee 7a 2e 3d
       -0.46820053 0.021467462 -0.3492513 0.042597704
0000d0 83 4e 68 3e d5 91 be bd 3e 87 bd bc 77 94 b7 be
       0.226862 -0.09305159 -0.023135778 -0.35855457
0000e0 c8 bc b5 3e 34 bf 23 bf 7b 66 3a 3e 12 bb e0 3e
       0.3549559 -0.6396363 0.18203156 0.43892723
0000f0 91 bb 26 3e 5d 55 be 3d bd d4 1d be 3f 96 65 be
       0.16282488 0.092936255 -0.15413184 -0.22420596

weight f4 [64]
000000 e3 59 08 3f 18 6b 16 3f 31 a3 04 3f b0 c4 24 3f
       0.53262156 0.5875716 0.5181151 0.6436262
000010 ca 5e 13 3f 57 40 4d 3f c8 ab 0d 3f 2c b0 db 3e
       0.5756651 0.801763 0.5534024 0.42907846
000020 be d0 2b 3f a5 ca b1 3e ff da 29 3f 69 3c d7 3e
       0.6711539 0.34724918 0.66349787 0.42038277
000030 1c f6 2c 3f 34 6c 51 3f 7c de ca 3e 0a b2 db 3e
       0.67563033 0.8180573 0.39622867 0.4290927
000040 ae 18 e9 3e bd 95 69 3f 90 2d 02 3f c6 df 1e 3f
       0.45526642 0.9124411 0.5085077 0.620602
000050 a9 9d 0b 3f d3 d7 5e 3f 62 cc 16 3f 65 cd 31 3f
       0.54537445 0.8704807 0.58905613 0.6945403
000060 06 95 ec 3e ec b3 05 3f 4a 83 12 3f 93 7d e3 3e
       0.46207446 0.52227664 0.5723158 0.44431743
000070 21 d8 49 3f f0 fb ec 3e 0e c4 fc 3e a4 ef 0d 3f
       0.7884541 0.46285963 0.49368328 0.5544379
000080 7b 96 65 3f 13 7e 06 3f df 75 22 3f e5 c0 14 3f
       0.8968274 0.52536124 0.63461107 0.58106834
000090 92 8e 19 3f f4 9c 41 3f 84 79 1a 3f de b6 02 3f
       0.5998317 0.75630116 0.6034167 0.51060283
0000a0 a1 05 b7 3e 62 26 18 3f 3f ac ee 3e 46 d3 07 3f
       0.35746482 0.5943357 0.46615788 0.5305675
0000b0 8d 4a 46 3f b1 9a 28 3f 49 84 20 3f 65 d0 16 3f
       0.77457505 0.6586104 0.6270185 0.58911735
0000c0 2d d9 2e 3f 3d 60 2b 3f 88 15 e6 3e e5 71 e0 3e
       0.68300134 0.6694372 0.44938302 0.43836895
0000d0 cc 26 01 3f 00 00 f8 3e 6a 8f 1c 3f 69 e4 28 3f
       0.50449824 0.484375 0.6115633 0.65973526
0000e0 c7 a3 f9 3e e4 b8 bb 3e 9c 73 08 3f a8 c7 16 3f
       0.48757765 0.36664498 0.53301406 0.588984
0000f0 60 e2 0d 3f 51 72 16 3f b1 01 14 3f 05 ac 07 3f
       0.55423546 0.58768183 0.5781508 0.52996856

bias f4 [64]
000000 ba fe 95 bd 2a 86 0e bf 1f d5 d4 bd f7 a0 02 be
       -0.07323976 -0.5567347 -0.10392212 -0.12756716
000010 a2 54 dd be 4d 79 40 bf 61 70 86 be e0 fd 4e bc
       -0.43228632 -0.7518509 -0.26257613 -0.012633771
000020 61 3f 38 be 0a 60 6a bd 75 e8 b7 be 3d cd 10 bf
       -0.17992927 -0.057220496 -0.35919538 -0.5656317
000030 dc ee d1 3c 80 f9 c4 be 30 6e 85 be c0 29 9e be
       0.025626592 -0.38471603 -0.2606063 -0.30891228
000040 f0 da f8 3d 18 ed c7 bd 53 97 0a 3d 58 f7 4e be
       0.12151134 -0.09762019 0.03383572 -0.20211542
000050 b3 fa af 3d 96 34 cc be 93 7d 44 3e 69 fd 8b be
       0.08592739 -0.3988387 0.19188528 -0.27341774
000060 9c 5d 8e 3e e5 d5 05 be fe c6 7d be ba fa 6b be
       0.27805793 -0.13069876 -0.24782941 -0.23044863
000070 8e cc 9d bd ba f4 39 3e 4f f6 5b be 16 68 72 be
       -0.07705031 0.18159762 -0.21480678 -0.23672518
000080 62 10 b7 bf 2a 91 d2 b9 39 3d 14 3e 4f e8 bd be
       -1.4301875 -0.00040162477 0.1447648 -0.370913
000090 f7 e8 31 be c8 d7 9c be c8 3d 30 3e 1c ac 10 bf
       -0.17374025 -0.30633378 0.17211068 -0.5651262
0000a0 78 45 75 3e ae 6e 80 be df da 29 bd 29 60 81 be
       0.23952281 -0.25084442 -0.041468497 -0.25268677
0000b0 9e 49 58 be 57 71 00 bf 5e 03 61 be 6c 62 00 bf
       -0.21121833 -0.5017294 -0.2197394 -0.5015018
0000c0 2f cf 8a be 0a c3 e3 be 5f a2 41 3f 6c 78 a2 bd
       -0.27111194 -0.4448474 0.75638384 -0.07933125
0000d0 7f c0 bf be d6 62 85 be 64 2d 69 be 53 ea 7e be
       -0.3745155 -0.26051968 -0.22771221 -0.24894075
0000e0 32 8c 13 be 66 28 32 bd e2 5d ab be b4 9a da bd
       -0.14408949 -0.04349556 -0.33470064 -0.106740385
0000f0 0c 65 4b 3d df 85 ba be 85 ed f6 be 1c dc d2 be
       0.049656913 -0.3643026 -0.48228088 -0.41183555

running_mean f4 [64]
000000 d4 44 1d be ed c1 6f 3e 3b d5 7d be 33 25 f5 bd
       -0.15358287 0.2341382 -0.24788372 -0.11969986
000010 ef 44 b8 be fd b0 d7 3e ca da 00 3f b3 d3 25 be
       -0.35990092 0.4212722 0.50333846 -0.16194038
000020 93 48 0a 3c 09 e5 21 3e 1a f3 11 3e 8c b7 bc be
       0.008440155 0.15810026 0.14252892 -0.36858785
000030 fe 1e 8e be b4 09 0b be 1d e3 b8 be 76 c9 47 bf
       -0.2775802 -0.1357792 -0.36110774 -0.7804178
000040 40 58 c2 bd d1 7f 5c bd ed 9d bf 3c 85 50 dc 3e
       -0.094894886 -0.053832833 0.023390735 0.43030182
000050 5f 59 97 3e bc 1f 21 bf f1 71 4a 3e d1 60 82 3e
       0.29560372 -0.6293905 0.19770028 0.2546449
000060 e8 df 4f 3c cb 27 fd 3c 18 f1 48 be 8d 20 b2 be
       0.012687661 0.030902764 -0.1962322 -0.3479046
000070 9e d0 8f be 3f 1a 13 be c6 57 d6 3e 80 3c 61 be
       -0.2808885 -0.14365481 0.4186384 -0.21995735
000080 f5 e1 bf bd 5e e8 1e bf 81 74 00 3d 2b 32 2f bd
       -0.0936927 -0.62073314 0.031361107 -0.042772453
000090 45 4f c5 bd cf 91 b7 3e d3 14 d1 3e 2e 92 a6 bd
       -0.0963426 0.3585343 0.408362 -0.0813335
0000a0 56 b6 83 3e 7b c8 93 bd d2 3b 01 be 99 77 9c 3e
       0.2572505 -0.07215973 -0.12620476 0.30559996
0000b0 e3 d9 00 bf e5 1b 39 be 99 a6 db be 8f bb 93 be
       -0.5033247 -0.18077047 -0.4290054 -0.28854033
0000c0 9a 4e 0a bf f5 ef 6e 3d 01 34 fb be 42 cf 65 be
       -0.54026186 0.05833431 -0.49063113 -0.22442344
0000d0 cd ba 0c bd 43 f2 38 be cc 94 95 be d0 63 fa be
       -0.034357835 -0.18061166 -0.29215086 -0.48904276
0000e0 6e cf 12 be 64 5e 3b bf fa 28 94 bc ce 93 85 3e
       -0.1433694 -0.73190904 -0.018085945 0.2608933
0000f0 f0 a8 83 bc 77 ec 06 be 8a 27 23 bf 95 e5 c7 be
       -0.016071767 -0.13176142 -0.63732207 -0.39042345

running_var f4 [64]
000000 5a f1 26 3d 4e 7b bd 3c c4 a5 84 3d e2 fa 98 3d
       0.040757515 0.023130085 0.0647693 0.07469727
000010 b3 01 45 3d d5 90 9f 3c 88 b7 c0 3c f9 ff 07 3d
       0.048097324 0.019478241 0.023525015 0.0332031
000020 42 ed 83 3d 57 88 50 3c 2f a6 87 3d e4 92 f5 3c
       0.06441738 0.012727818 0.06623494 0.02997727
000030 bc 32 59 3d f3 5d 76 3d cf 34 d7 3c 07 5e 1d 3c
       0.0530269 0.06014819 0.026270298 0.009604937
000040 c6 1b 28 3d e7 77 a8 3d cc 02 6f 3d b0 3b 5a 3d
       0.04104211 0.082259946 0.058352277 0.05327958
000050 e9 4f 16 3d 34 1f 95 3d 99 d5 69 3d 7a d0 21 3d
       0.036697302 0.07281342 0.05708847 0.03950546
000060 b8 ed 61 3d 92 26 57 3d ca 09 e8 3c e0 05 ec 3c
       0.055158347 0.052527018 0.02832498 0.028811395
000070 67 80 bf 3d ff e3 34 3d 68 09 00 3d 35 78 00 3d
       0.09350663 0.044162747 0.03125897 0.03136464
000080 69 1e 06 3d 3a 10 8b 3d 98 60 41 3d b7 d7 15 3d
       0.032743845 0.06790204 0.04721126 0.036582675
000090 ff b6 55 3d 2e 8a 00 3d 18 c1 a7 3d 9b 43 1d 3c
       0.05217647 0.03138178 0.081911266 0.009598638
0000a0 82 35 cc 3c ed d6 1b 3d 6e 6d 19 3d c9 72 83 3c
       0.024927858 0.038046766 0.037457876 0.016045945
0000b0 dd 1e b0 3d 13 9c b2 3c 26 56 45 3d 6b c2 9d 3c
       0.08599637 0.021802938 0.04817786 0.019257745
0000c0 9c 07 7e 3d 36 9e 6c 3d 66 ad 7c 3c ed 8f 07 3d
       0.062018976 0.05776807 0.015422201 0.033096243
0000d0 46 ba 7c 3c 80 cc 02 3d 69 30 2b 3d 7a 5e d7 3c
       0.01542527 0.031933308 0.041794214 0.026290167
0000e0 cd 6c 33 3d 7e a0 02 3d f6 b1 b0 3c 1d 6d 08 3d
       0.043804932 0.03189134 0.021569233 0.033307184
0000f0 7b 9b 87 3d 85 23 06 3d b0 b6 29 3d 1b d3 26 3d
       0.066214524 0.032748718 0.04143399 0.04072867

weight f4 [64, 64, 3, 3]
000000 2b 7e 41 3e bb ab 79 bc 94 fd 8d 3e 43 cb 92 bd
       0.18895786 -0.015238698 0.27732527 -0.07167675
000010 4b 16 aa 3d aa d9 90 3d 13 97 83 3e d8 af 8e 3e
       0.08305033 0.07072766 0.25701198 0.27868533
000020 4a c4 b9 be ef 47 0d be 52 9c 84 bd 56 03 a1 bd
       -0.3628257 -0.13796972 -0.06475128 -0.078619644
000030 10 10 16 bd f5 f8 ac bd 82 53 2c bd 12 ca b3 3d
       -0.036636412 -0.08445922 -0.042071827 0.08778776
000040 e2 09 18 bf e5 3c 0d bf 9f 93 59 be 46 96 3d 3e
       -0.5939008 -0.5517104 -0.21247719 0.18514356
000050 7b bc 96 be 84 af 71 be 15 e4 0e 3e 0d f7 f1 be
       -0.29440674 -0.2360211 0.13954194 -0.47258797
000060 f2 29 1f bf b6 86 26 bf 5e 1f 9c be 9f 2f 9e 3e
       -0.6217338 -0.650493 -0.3049268 0.30895707
000070 d2 70 ad bc 14 f0 a2 3e a3 35 95 be 55 32 40 3e
       -0.021171961 0.3182379 -0.29142484 0.187692
000080 31 e3 19 3e 1a 52 6b 3e 73 54 de 3c 9d 02 a4 be
       0.15028073 0.22980538 0.027139878 -0.32033244
000090 ce d9 6b bd 19 b1 a5 3e 4d 9c 02 3e 61 f4 da bd
       -0.05758076 0.32361677 0.12754937 -0.10691143
0000a0 30 58 01 3d 65 85 b7 3d 1a 06 5c be a3 4d 35 be
       0.031578243 0.0896099 -0.21486703 -0.17705397
0000b0 8d 0a 92 be 32 bd 96 3d 5a 24 b7 3e 4e f8 a5 3e
       -0.28523675 0.07360305 0.35769922 0.32416004
0000c0 07 34 76 be 5f cf 43 bb 87 54 26 be 2d be 7a 3e
       -0.24043284 -0.0029878241 -0.16243182 0.24486609
0000d0 b4 1f 9a bc b2 14 18 bd ae de 22 3d 29 56 d1 3d
       -0.018813945 -0.03712911 0.039763145 0.10221512
0000e0 2c 4e aa 3c 6d 3b cf be b5 ff d5 bd ea e0 81 be
       0.020789228 -0.40475026 -0.10449163 -0.25366908
0000f0 1d 0c 01 3e 9c d3 a5 ba 96 4a b2 3e b6 fa 10 be
       0.12602277 -0.0012651565 0.3482253 -0.14158139
000100 c1 54 4b be e4 ae 62 bd bb 35 89 be da 6a dd be
       -0.1985655 -0.05534257 -0.26798806 -0.43245584
000110 cd 38 ab be fc e8 34 3e a0 cf a6 be b0 fc 2a bf
       -0.33441773 0.17667001 -0.3258028 -0.6679182
000120 25 de d5 3e f7 48 cf be fa 50 63 be 3e d9 e4 be
       0.41771045 -0.40485355 -0.22198859 -0.44696993
000130 9d 64 29 bf f1 49 0b 3e 83 a0 74 3e 23 75 65 3e
       -0.6616915 0.13602425 0.23889355 0.22407965
000140 24 5e 9a 3e d2 31 cd 3e 76 3c da 3e 91 32 44 3f
       0.3014995 0.40077072 0.42624253 0.7663966
000150 ff 47 ae 3e 9e a1 bc b9 ea 09 f9 3e d2 cf 83 3e
       0.34039304 -0.00035978568 0.48640376 0.25744492
000160 d3 44 da 3b a6 de 04 bf 53 6f ba 3d 55 82 f5 be
       0.0066610365 -0.51902235 0.09103265 -0.47950998
000170 ea 65 1c bf 08 88 3c be 64 b8 0f 3e e1 70 ed be
       -0.6109301 -0.18411267 0.14035183 -0.46375182
000180 45 3c 3b 3e 76 6e 13 3f d6 22 ae be d4 a9 5c be
       0.1828471 0.57590425 -0.34010953 -0.2154916
000190 ce 48 8b bd ee ac 1c be 11 83 5a bd 94 6f d9 3e
       -0.06800996 -0.15300342 -0.05334765 0.4246794
0001a0 04 64 c2 bd c6 48 94 be b6 75 4d be 75 26 49 bf
       -0.09491733 -0.28961772 -0.20064434 -0.78574306
0001b0 25 c2 a2 3e 2b 06 ee bd a9 9b ad be 18 92 c8 3c
       0.31788746 -0.1162227 -0.33907822 0.024483725
0001c0 fc cd 56 3e e8 75 84 3d 06 07 59 3e 1f 32 dc bd
       0.20977014 0.06467801 0.21194085 -0.10751747
0001d0 56 65 64 3e a2 b2 14 3f 95 ee aa be f9 ee 30 be
       0.22304282 0.5808507 -0.3338515 -0.17278661
0001e0 ee 1a b5 bd 02 2c ce be 08 47 c2 be e8 15 7a bd
       -0.08843027 -0.4026795 -0.37944818 -0.061056048
0001f0 2c 32 60 3e 8c af e0 3d 89 7d 8a 3c 39 bc a8 be
       0.21894139 0.10970983 0.016905563 -0.32956102
000200 bd 00 1c bf e8 b2 32 3e c6 35 28 3e 7c 30 3a be
       -0.60938627 0.1745106 0.16426763 -0.18182558
000210 22 85 cf be 1c 62 08 3d 2d 60 61 3e 9f c2 f1 bd
       -0.4053126 0.03329669 0.22009344 -0.11804699
000220 3b 9d ca bc 24 d2 65 3e 36 01 8a 3c 3a 16 89 be
       -0.024733176 0.22443444 0.01684628 -0.2677477
000230 8c ac e9 bd cc bb 5f 3e eb bc c6 3e c6 74 d1 ba
       -0.11409864 0.21848983 0.38816008 -0.0015980236
000240 41 d6 b3 bd 5c 62 ef 3d 9f 94 4f be 30 e0 4b bd
       -0.087811 0.116886824 -0.20271538 -0.04977435
000250 43 d7 96 be 94 07 a6 be 93 72 47 3e f3 f4 2c bd
       -0.29461107 -0.32427657 0.194773 -0.04222579
000260 00 b6 3d 3f cc 19 39 bd 75 f5 0e be 37 bd 4d 3e
       0.74105835 -0.045190617 -0.13960822 0.20091711
000270 02 d7 b6 3d 33 c6 65 3d a9 3d 15 3e 60 25 c2 ba
       0.08927728 0.05609722 0.14574303 -0.0014812164
000280 31 68 dd 3e 28 5a a9 be 21 95 74 3e 97 d0 5b 3d
       0.43243554 -0.33076596 0.23885013 0.053665724
000290 fe 46 70 3e c0 09 61 3d b7 42 22 bc 19 83 3c 3e
       0.23464581 0.05494094 -0.009903601 0.18409385
0002a0 41 87 c7 bb 4b 64 ec be 57 51 54 bd 29 66 22 be
       -0.0060891216 -0.46170267 -0.051835384 -0.15859284
0002b0 b9 51 bd bc 39 5c bd 3e af 0e c9 bc ce 8a 18 be
       -0.023110257 0.36984423 -0.024543134 -0.148967
0002c0 15 88 ce bc 11 11 a4 3e 32 66 1c bd f6 e9 c5 3c
       -0.025211373 0.3204427 -0.0381834 0.024159413
0002d0 3d 7a 76 3e c7 b4 1c 3e ce 4f 17 3f a7 61 67 be
       0.24070068 0.15303336 0.5910615 -0.22595845
0002e0 cb 5d 81 bb ac ab 01 3e ac d6 d3 bd b0 3a a8 be
       -0.0039479486 0.12663144 -0.1034368 -0.32857275
0002f0 2f 65 b7 3c ea e8 2b 3e eb c6 9f 3e 9e 5e 5f 3e
       0.022387115 0.16788068 0.3120645 0.21813437
000300 3a 85 fd 3d dc 44 c3 bd 2c bd c4 3d 74 a8 69 3d
       0.123789266 -0.09534618 0.09606394 0.057045415
000310 bd 93 95 3b 00 7d 0e bf 21 63 01 3e 2f 2d 46 bd
       0.004564731 -0.55659485 0.12635471 -0.048382934
000320 3f fc 60 3e 32 72 b3 3d 95 5e 10 be cf bd 0d 3e
       0.21971224 0.087620154 -0.1409858 0.13841937
000330 9c eb 03 be f2 0f 62 be fb 5a be 3e cd 36 06 3d
       -0.12882847 -0.22076395 0.37178788 0.032767106
000340 b4 72 58 bd fb 4e 21 bc 1b e5 23 3e 37 f8 3e be
       -0.052843764 -0.009845491 0.16005366 -0.18649374
000350 ab 75 80 be 56 49 3c be 01 c2 a2 be be 09 e4 be
       -0.25089774 -0.1838735 -0.31788638 -0.44538683
000360 ed dd 8a be 23 5b dc 3d 21 d0 88 be 1f 58 03 3e
       -0.2712244 0.107595704 -0.2672129 0.12826584
000370 ed aa 55 3e 99 a0 d9 bd 60 f6 06 3e 27 25 9a 3e
       0.20865984 -0.10626335 0.13179922 0.3010647
000380 7d 72 00 be af 27 c3 3e b9 a0 42 3e 7d 67 dc 3d
       -0.12543674 0.38116214 0.19006623 0.10761926
000390 77 52 ba bd a3 fa 87 bd cc 9d 1a bd 27 6a 01 3d
       -0.0909776 -0.06639602 -0.037748143 0.031595375
0003a0 78 ef a5 be ac a0 10 be 4b 95 15 3e 5b 5d 61 bd
       -0.32409263 -0.14123791 0.14607732 -0.05502067
0003b0 f1 87 3d be 0d 29 df 3c 92 07 69 be f9 4c 48 be
       -0.18508889 0.027241254 -0.22756794 -0.19560613
0003c0 b3 7b 2d 3d 1b 22 26 bf e0 cc 3d be 7d f8 c4 be
       0.042354297 -0.6489579 -0.18535185 -0.38470832
0003d0 12 bc ff bd fc fd 0f be 27 97 62 3e 7c d8 77 be
       -0.124870434 -0.14061731 0.22127973 -0.24203676
0003e0 a9 fa 11 bd 3a da b5 3d c6 94 84 be b5 66 41 3e
       -0.03563944 0.08879514 -0.25894755 0.18886836
0003f0 07 1f 06 be cc bc bf 3e 0a fc 16 be 84 60 8f 3d
       -0.13097773 0.37448728 -0.14744583 0.07000831

bias f4 [64]
000000 0c a6 44 3e 89 89 c6 bd d3 8b 38 3e d7 56 46 be
       0.19203967 -0.096942015 0.18022089 -0.19369064
000010 77 42 f0 bd 82 20 b1 bc 57 e9 41 3e 4b 74 ff 3c
       -0.11731427 -0.021621946 0.18936668 0.031183382
000020 09 9f da bd 9b 19 8b 3d 0d 1d 3d be 93 e5 f1 3d
       -0.10674865 0.06791993 -0.18468113 0.11811366
000030 88 ac ef 3d ec 7f d2 3d a6 6d 5e 3e cf a5 01 bb
       0.117028296 0.102783054 0.21721515 -0.0019782668
000040 01 ea 1b 3e c1 ca 47 3e d4 26 e4 3d 79 b1 2d 3e
       0.15225984 0.19510938 0.111402184 0.16962232
000050 bb c6 d5 3d 16 df 09 be 9f 26 84 3d 47 19 01 be
       0.104382955 -0.13464007 0.06452679 -0.12607299
000060 6b 25 46 3a ce 6d 49 3d ff bb c8 bd 76 7a 78 3b
       0.00075586763 0.049176984 -0.098014824 0.003791479
000070 ee 45 ab bd 43 47 aa be 60 08 3a 3e c1 29 1b 3e
       -0.083629474 -0.33257493 0.18167257 0.15152647
000080 dd 77 50 3e 4c ae 6f 3e 65 87 cb bd c3 d5 52 be
       0.20358224 0.23406333 -0.09937934 -0.20589356
000090 0e 60 13 bd b4 cf d9 bd 82 0a ba bd bb fe 2e 3e
       -0.035980277 -0.10635319 -0.090840355 0.1708936
0000a0 84 d1 a3 bc 83 85 57 bc 65 67 4c bd cf 6b a6 be
       -0.019997366 -0.01315439 -0.049903292 -0.32504126
0000b0 92 8a 05 be 4c f7 10 3d ce 91 f1 3d c3 06 4d 3e
       -0.13041142 0.03539209 0.11795388 0.2002211
0000c0 7f ad 98 3e 57 29 69 be 04 d5 07 be 38 88 df 3c
       0.29819867 -0.22769676 -0.13264853 0.027286634
0000d0 34 28 07 3e 25 ac 65 3e 6d 34 f4 3d f0 e9 19 bf
       0.1319893 0.22428949 0.11924062 -0.60122585
0000e0 58 d5 3f be 57 c4 0e 3b 53 b7 a5 be b9 94 96 3e
       -0.18733728 0.0021784508 -0.32366428 0.2941034
0000f0 e8 14 8b 3e 3a af 8b 3d 9b 91 cb bd 3d a8 c3 3c
       0.27164388 0.06820531 -0.099398814 0.023883933

weight f4 [64]
000000 fe b1 31 3f 1c e0 b4 3e 3b 01 2c 3f e6 3f fa 3e
       0.6941222 0.35327232 0.6718938 0.48876876
000010 c4 bc 1d 3f d7 d5 0d 3f 5f e4 e7 3e f5 8c 19 3f
       0.6161616 0.5540442 0.4529142 0.5998071
000020 66 64 dd 3e 2b e5 00 3f 9e c5 f4 3e f2 df 25 3f
       0.4324066 0.5034968 0.4780702 0.6479484
000030 43 ef fc 3e f8 09 fc 3e 1c da e0 3e 42 84 5d 3f
       0.49401292 0.49226356 0.43916404 0.86529934
000040 d8 fa 0d 3f ac bd 35 3f 6c b6 85 3f 3e 0a d2 3e
       0.5546088 0.7099254 1.0446296 0.4102344
000050 44 b6 2f 3f de 09 04 3f 25 41 d9 3e c4 4f 58 3f
       0.6863749 0.51577556 0.42432514 0.8449671
000060 b5 77 f2 3e a1 27 67 3f c0 24 53 3f 1f cb ee 3e
       0.47356954 0.90294844 0.8247795 0.46639344
000070 33 70 14 3f 15 28 0e 3f 90 2c 59 3f 18 07 5e 3f
       0.579837 0.5552991 0.8483362 0.86729574
000080 89 9f fa 3e 4e 7d e2 3e ff 59 08 3f d3 b5 57 3f
       0.4894984 0.44236225 0.53262323 0.84261817
000090 42 da 15 3f 2d a9 03 3f 3a b2 07 3f 27 a8 17 3f
       0.5853616 0.51430017 0.5300633 0.59240955
0000a0 a0 a7 02 3f b6 a6 ce 3e 25 55 35 3f 0f 00 7c 3f
       0.51037025 0.40361565 0.70833045 0.9843759
0000b0 90 3b ff 3e b0 32 a8 3e b4 06 95 3f 8c 71 0b 3f
       0.4985013 0.32851171 1.1642671 0.54470134
0000c0 63 04 68 3f b8 8e 53 3f 39 ed 7c 3f 44 79 0e 3f
       0.90631694 0.82639647 0.98799473 0.55653787
0000d0 18 82 d2 3e 1d 2a 31 3f 87 20 aa 3e dd 2c 18 3f
       0.4111488 0.69204885 0.3322794 0.59443456
0000e0 3d 51 b7 3e 03 ca 05 3f 12 ac fa 3e f9 56 2c 3f
       0.35804167 0.5226137 0.48959404 0.6732021
0000f0 b4 ef 73 3f cd 15 8c 3f 37 00 2c 3f 0b a9 12 3f
       0.9528763 1.0944153 0.6718783 0.5728919

bias f4 [64]
000000 f1 b5 fe 3b 4b 12 c4 3d 6f cd 15 3d 7c 36 82 3c
       0.007773154 0.095738016 0.03657287 0.01589512
000010 70 30 19 3e f7 fb 62 bf 89 8c a1 be f8 6b a8 3d
       0.14959884 -0.8866572 -0.31552532 0.082237184
000020 c6 d7 0f 3e 11 89 74 bd 8b a5 a1 be 37 ca 6f be
       0.14047155 -0.05970103 -0.31571612 -0.23416983
000030 a9 20 25 bd b5 66 a6 3c c5 a5 3f 3e bf 13 0e bc
       -0.04031435 0.020312646 0.1871558 -0.0086717
000040 a8 dc d0 be 79 22 cf be 72 ab bc be 32 e4 11 3f
       -0.40793347 -0.40455988 -0.36849552 0.56988823
000050 02 42 a0 bd 81 99 1a 3e e2 c7 6b bd 2f 99 1f be
       -0.0782509 0.1509762 -0.05756367 -0.15585779
000060 77 5c ac be c6 38 c5 bd 96 04 c4 be b8 cb 1b bf
       -0.33664295 -0.09629969 -0.3828475 -0.60857725
000070 b2 11 20 bf 42 bb 84 3d 14 dc 2b be 94 1f 45 be
       -0.62527 0.06481029 -0.16783172 -0.19250327
000080 33 30 42 3e 69 65 84 bd 08 01 ed bd cc 3a 9c be
       0.18963699 -0.06464655 -0.11572462 -0.30513608
000090 e6 43 49 bd 28 cc 0d 3e 91 88 4e be cf d1 98 3d
       -0.04913702 0.1384741 -0.20169283 0.07461893
0000a0 39 df 25 bd 50 53 1d be 7a 4c 08 be 44 98 98 be
       -0.040496085 -0.15363812 -0.13310423 -0.2980367
0000b0 16 fd 9a bd 03 60 39 3e ba 2e ce be 7f bc ac bd
       -0.075678036 0.18103032 -0.40270025 -0.0843439
0000c0 f9 ab 28 be fe 2f 63 be 64 4c 93 be 07 0a db be
       -0.16471852 -0.22186276 -0.2876922 -0.42781088
0000d0 b4 73 63 3e 26 48 65 be 91 3d 3c 3f e5 45 70 bd
       0.22212106 -0.22390804 0.7353144 -0.058660407
0000e0 e6 f3 04 be fc cb f9 bd d2 99 00 be 05 cc 02 be
       -0.12983665 -0.1219711 -0.12558678 -0.1277314
0000f0 f9 0e b9 be 0b 15 06 bf c4 26 fc be 90 0a 80 3d
       -0.36144236 -0.5237586 -0.49248326 0.06252015

running_mean f4 [64]
000000 34 2d 20 bf e5 07 d7 be aa 0c e8 bf bd 02 89 bf
       -0.62568974 -0.4199821 -1.8128865 -1.0703961
000010 d3 da 48 bf a9 12 de 3b 36 61 13 bf 78 3a 10 be
       -0.784589 0.006777127 -0.5757021 -0.14084804
000020 21 77 1b 3e 8c 33 98 bf c3 78 bc bf f9 71 9a bf
       0.15182163 -1.1890731 -1.4724354 -1.2066032
000030 fc e9 a4 bf 34 b5 57 3f ec cc ae be 74 51 a3 bf
       -1.2883906 0.8426087 -0.34140718 -1.2759233
000040 68 19 bc be 90 17 87 be 45 e3 1c c0 6e 74 a3 bf
       -0.36738133 -0.26385164 -2.4513714 -1.2769907
000050 98 a8 55 bf 83 fa 52 bf 67 0f 7a be 2b 17 f6 bf
       -0.8346038 -0.824135 -0.24419938 -1.922582
000060 82 2b 80 bc f2 bf 9a bf 52 50 c4 bf 8c 38 f6 3d
       -0.015645746 -1.2089827 -1.5337012 0.12022504
000070 6e ba 90 bf 4f e1 3d bf c8 0f 01 be 9c 43 4b bf
       -1.1306894 -0.7417192 -0.12603676 -0.7940004
000080 94 4f d0 be 59 c9 59 3c 6b 54 98 bf e0 69 ea bf
       -0.40685713 0.013292634 -1.1900762 -1.831356
000090 36 88 d9 be eb 93 8b bf 2c f3 4d bf 10 f6 f7 3d
       -0.42486733 -1.0904516 -0.80449176 0.121074796
0000a0 55 66 8d bf bd ab 5e bf bb 8a a5 bf 53 10 7f bf
       -1.1046854 -0.869808 -1.2932962 -0.99634284
0000b0 71 c1 42 bf 17 1d f1 3b dc d2 c3 bf a2 ce e6 be
       -0.7607642 0.007358204 -1.5298724 -0.45079523
0000c0 7a 76 92 bf 4e ab 10 c0 f3 0d 88 bf a6 f0 d2 bf
       -1.1442406 -2.2604556 -1.0629257 -1.647969
0000d0 7a 65 35 bd 29 b4 14 bf c1 39 0c 3f c0 45 f1 be
       -0.04428623 -0.580874 0.54775625 -0.47123528
0000e0 18 a5 dd be 82 b4 59 bf e1 71 99 bd 4b 1f 52 bf
       -0.4329002 -0.8504106 -0.07492424 -0.82079
0000f0 9f 28 1c bf f2 53 bf bf 3d b3 23 bf 0a 13 eb bf
       -0.6099948 -1.4947493 -0.6394537 -1.8365185

running_var f4 [64]
000000 4c f7 76 40 c8 80 ff 3f f2 ac 86 40 4b 3f 3e 40
       3.8588438 1.9961176 4.2086115 2.972613
000010 9c d7 95 40 f3 e2 2d 40 93 f3 ea 3f 07 86 31 40
       4.6825695 2.716977 1.8355583 2.7738054
000020 be 9f 50 40 df d0 1e 40 5f 73 de 3f 10 83 31 40
       3.25975 2.4814985 1.7378958 2.7736244
000030 c5 ef 3c 40 45 c1 1d 40 63 59 22 40 57 18 07 41
       2.9521344 2.4649212 2.5367057 8.443442
000040 d2 99 dd 3f 4c c5 5a 40 b5 11 a1 40 fb 0f 2a 40
       1.7312567 3.418292 5.0334115 2.6572254
000050 05 c9 8b 40 03 7b 49 40 75 29 1d 40 a5 d2 ad 40
       4.3682885 3.148133 2.4556553 5.4319634
000060 e6 3b 92 3f 37 eb 9b 40 9e a7 87 40 3e 41 f9 3f
       1.142453 4.8724627 4.239211 1.9473035
000070 73 7a f8 3f e8 5b 3f 40 37 ba 8f 40 68 45 85 40
       1.9412369 2.9899845 4.4914813 4.1647224
000080 d1 75 4a 40 79 c6 07 40 2b 6c 2d 40 ee 81 88 40
       3.163441 2.1214888 2.709727 4.2658606
000090 ca 86 2f 40 9b 6b 59 40 12 40 12 40 94 b5 44 40
       2.7426019 3.3971927 2.2851605 3.0735826
0000a0 63 55 18 40 9a 34 c1 3f 0e e8 22 40 18 ef 9d 40
       2.3802116 1.5094178 2.5454135 4.9354362
0000b0 1a a5 4a 40 ea 2e cc 3f 7c db b0 40 dc 07 52 40
       3.166327 1.5951817 5.5267925 3.2817297
0000c0 3f 1f cc 40 ff 09 64 40 a1 a5 85 40 29 ca ed 3f
       6.378814 3.56311 4.1764684 1.8577319
0000d0 74 0d 2b 40 1b a9 4c 40 68 8a 28 40 6d 74 28 40
       2.672696 3.1978214 2.6334476 2.632106
0000e0 3d 4b 00 40 bf df 1a 40 0d 5b 0f 40 3e f4 35 40
       2.0045922 2.4199064 2.2399323 2.8430324
0000f0 1a da 94 40 0a ac 7d 40 0a e5 e8 3f c3 17 88 40
       4.6516237 3.9636254 1.8194897 4.2529006

weight f4 [64, 64, 3, 3]
000000 4b 7a a2 3d e1 9f f4 3d 1c b3 b7 3e 80 ab 0d 3e
       0.07933482 0.11944557 0.35878837 0.13834953
000010 b6 bc 6c 3e 94 3c bd bd cb 51 80 3e 23 25 e7 3e
       0.23118863 -0.0924007 0.25062403 0.4514552
000020 b7 d9 a4 3d 02 3f 1e 3d d2 7a 78 3d 2e 37 11 3e
       0.08049338 0.038634308 0.060664006 0.14181206
000030 6c f6 c9 3d b3 e5 09 bf 29 ce 15 bd 4c 1c 71 3e
       0.09861454 -0.5386612 -0.036573563 0.2354595
000040 5b 4d 70 3d a7 e9 8f 3d 33 89 5f be ca 5c 99 3e
       0.058667522 0.070269875 -0.21829681 0.29953605
000050 86 89 8b 3e a1 53 29 be 1b 6a 87 bd 01 15 37 be
       0.2725336 -0.16535808 -0.06612035 -0.17879106
000060 9b 43 b1 3d 3e 44 63 be f3 b8 0f 3d 4d 7b 5c bd
       0.08655473 -0.22194001 0.03508849 -0.053828526
000070 d9 0d 82 3e 03 2e 06 be 91 b7 8f 3e 8d b3 92 3c
       0.2540119 -0.1310349 0.28069738 0.017907882
000080 66 39 34 3e 01 b9 ec 3d cc 3b b7 be 7d 66 38 bd
       0.17600021 0.11558724 -0.3578781 -0.045019615
000090 d4 a3 48 bc d9 4b 77 3e e7 ba d2 bd 54 6d 68 3c
       -0.012246091 0.24150027 -0.10289555 0.014186222
0000a0 2f 1b ed 3e 01 67 91 be 13 37 26 3e b8 00 ca be
       0.46309802 -0.28398898 0.16231947 -0.39453673
0000b0 1e cc 76 3e 47 cc ba 3d 39 ab 4f 3e 31 f9 08 3d
       0.24101302 0.09120994 0.2028016 0.033440772
0000c0 b3 54 9d 3e 52 b3 d8 3e 60 1e cc bd e0 04 84 be
       0.30728683 0.4232431 -0.09966731 -0.2578497
0000d0 1c 65 96 bd 01 65 db bd 3d b0 5d 3d 31 56 28 3e
       -0.07343504 -0.10712624 0.054123152 0.1643913
0000e0 cb 21 bd 3c c1 7a 12 3f dd 10 28 bf 37 fb 52 3e
       0.023087403 0.5721856 -0.6565073 0.20603643
0000f0 06 4f 7a 3e 22 da 8f bf e4 70 4f be 13 17 bc be
       0.24444208 -1.1238444 -0.20257908 -0.36736354
000100 eb 27 c1 bd 36 24 86 3d 61 76 ed be d3 25 0f bf
       -0.09431442 0.065498754 -0.46379378 -0.5591709
000110 e9 13 9d be ad 1c 49 bc 24 67 d5 bd 6b a7 3a be
       -0.30679253 -0.012274903 -0.10420063 -0.18227927
000120 f5 ac 29 3e ba 74 b2 be 9a aa 01 be f1 03 57 3e
       0.16569884 -0.3485468 -0.12662736 0.20997597
000130 db 78 c0 3d d3 f2 b4 3d 63 f0 b7 bd b1 61 b2 be
       0.09398051 0.088353775 -0.08981397 -0.34840158
000140 1a 56 8a 3d 79 06 0a 3f f5 96 cc 3e 11 1a 5f be
       0.06754704 0.53916126 0.3995892 -0.21787287
000150 1c 9d d3 bd 4c 20 87 be 00 31 31 be 41 36 89 3c
       -0.103327006 -0.26391828 -0.17303848 0.016749503
000160 81 f4 d5 be 4e bb f3 bd 3c e1 a7 be 9a a6 14 3d
       -0.41788104 -0.1190096 -0.32789028 0.036291696
000170 e7 8b 80 3e 10 c0 7d 3d 56 10 0b bd 0c 44 2f bc
       0.25106737 0.061950743 -0.033951126 -0.010697376
000180 99 a6 49 bd b6 2f c3 3e ac 88 93 bb 55 1e 85 bd
       -0.049231146 0.38122338 -0.0045023765 -0.06499926
000190 d2 5c cb 3d 26 66 e4 be e1 bc 69 be a7 29 2d 3e
       0.099298134 -0.44609183 -0.22825958 0.1691042
0001a0 5e eb 1d 3e 95 d9 c8 be e1 3a 1e be 39 97 0f be
       0.15421817 -0.39228502 -0.15452148 -0.1402253
0001b0 32 d5 f1 bc 5e 0c 91 bd 4b 29 11 bf 37 4b 0e 3e
       -0.029520605 -0.07082437 -0.56703633 0.1389588
0001c0 f0 96 0d be 82 cc d8 be 1b dc 06 bf e2 85 9d 3c
       -0.1382711 -0.42343527 -0.52679604 0.01922888
0001d0 fb cb 14 bf df 03 0d be 6a 96 bb 3e 14 ec da 3e
       -0.5812375 -0.13771008 0.36638194 0.42758238
0001e0 50 6c 62 bf ea 7a 36 be 03 9d 7c 3c 10 31 a5 be
       -0.8844652 -0.17820325 0.015418294 -0.32263994
0001f0 ee 45 91 be 97 a3 bd 3e 6e d1 07 be 2f 8b 03 bd
       -0.28373665 0.37038872 -0.13263485 -0.032115158
000200 55 df 37 bd 54 07 1d 3f f1 8b 49 3e 4a f3 cf 3d
       -0.04489072 0.61339307 0.1968229 0.101538256
000210 6e 03 3b bb 27 98 ca 3e d1 3e 93 bd dd 3e d1 bc
       -0.002853598 0.39569208 -0.07189716 -0.02554267
000220 11 0f cd 3d d3 24 c9 3e d6 76 b7 3d 4a 9b 39 bf
       0.10012639 0.39285907 0.08958213 -0.7250258
000230 53 bb 12 bf 8d 7d ca bd f5 aa fa be ba fa bd 3d
       -0.57317084 -0.09887228 -0.48958555 0.09276338
000240 c3 a3 79 bf 74 bd 58 3e 7a 90 9b bc f6 83 46 bd
       -0.97515506 0.2116602 -0.01898979 -0.04846569
000250 3d d8 83 bf 69 70 28 be 31 f3 3d be f5 f9 f4 be
       -1.0300366 -0.16449131 -0.18549801 -0.47846952
000260 64 e9 22 bf 9d cb 91 3e b8 ef 2b bd 2d 28 75 3e
       -0.63637376 0.28475657 -0.04197666 0.23941107
000270 db 2d 90 be 83 03 d4 be e4 02 be 3e b2 e4 98 be
       -0.28159985 -0.4140893 0.3711158 -0.2986198
000280 c7 38 33 3d fb 41 2e be de ab a2 bd a8 a4 29 3e
       0.04375532 -0.17017357 -0.07942937 0.16566718
000290 27 4f 88 be 3b d8 81 3e cd 4f 3c be bb 03 1f 3d
       -0.26622888 0.25360283 -0.18389817 0.038821917
0002a0 d2 f8 2e 3e 68 91 5c 3e b1 6c 14 bc 5f b6 16 3d
       0.17087105 0.21539843 -0.009059117 0.036795016
0002b0 40 48 1f be 51 af 71 3e d5 36 b9 bd b5 35 f6 3d
       -0.15554905 0.23602034 -0.090436615 0.120219626
0002c0 9e 82 b9 3d 25 70 91 be 20 0f e7 3e 9d 0b 9e be
       0.090581164 -0.28405872 0.45128727 -0.30868235
0002d0 07 b4 47 bd 5c fe a0 be 80 c5 9c be ad 9a 47 be
       -0.04875567 -0.3144406 -0.3061943 -0.19492598
0002e0 7a 0d 8b 3e 40 1d b5 be 61 90 b9 be 08 eb 95 bd
       0.2715872 -0.35373878 -0.36242965 -0.07320219
0002f0 7d 13 af be ac 95 45 bd 3e 7c 9f be 6b 0e 71 3e
       -0.34194556 -0.04823844 -0.31149477 0.23540656
000300 6e 12 0c bd 80 db b4 3e fa 81 ac be cc 3d d1 bd
       -0.034197263 0.35323715 -0.33692914 -0.10216865
000310 02 2d 6e bd a9 3d 1f bd a8 de e4 be 16 5a 84 3e
       -0.05814839 -0.038877163 -0.44701123 0.2584998
000320 11 05 23 be 1c 6d 96 be 7e 62 42 3e 9d b8 f8 3e
       -0.15919901 -0.2938012 0.18982884 0.4857835
000330 5a 22 6e 3e 18 c3 cb bd d3 a1 8b 3d 2e 17 16 be
       0.23255292 -0.099493206 0.06817975 -0.1465728
000340 29 fd 96 be 5c d5 58 3e db 44 96 be 4f 55 cf 3e
       -0.2949002 0.2117514 -0.29349408 0.40494773
000350 3d 0e 07 3f 44 67 c4 be 15 91 27 3e cc 04 c5 be
       0.527561 -0.38360035 0.16363938 -0.38480222
000360 b9 02 1f bd 94 90 2e bf 93 f1 03 3e 85 14 24 be
       -0.038820956 -0.6818936 0.12885122 -0.16023453
000370 0a 79 ed be b5 c1 f9 be 4c 11 38 bd 75 ac 39 3f
       -0.46381408 -0.487806 -0.04493837 0.72528774
000380 4b 98 82 3e f1 70 a4 3e 94 e7 ab be 75 96 bb bd
       0.25506815 0.32117417 -0.33575118 -0.09159557
000390 7f a1 89 3e 52 b6 b8 bd 3c c9 48 be e1 7f 66 be
       0.26881024 -0.0901915 -0.19608015 -0.2250972
0003a0 1f df ed 3e 4d ed 29 be 83 71 94 be 83 35 4b be
       0.4645929 -0.1659443 -0.28992853 -0.19844632
0003b0 c6 93 cc be 64 c9 80 be ad 59 0f 3f 0d 5a b7 3c
       -0.39956492 -0.2515365 0.5599621 0.022381807
0003c0 20 9c e4 bd 30 3b aa 3e 7c a1 cb bd 13 26 8e 3e
       -0.11162591 0.3324828 -0.0994291 0.27763423
0003d0 48 1f c9 3e 22 37 8f be 96 c8 75 bd ce 26 3c 3e
       0.39281678 -0.2797175 -0.060005747 0.18374178
0003e0 b9 db 28 be 58 97 8e 3e db e4 40 be ed 02 ab 3c
       -0.16490068 0.2784984 -0.18837301 0.020875419
0003f0 c2 a4 51 3e e9 4d 8e 3e 2e ff 18 3e 03 e4 00 be
       0.20473006 0.27793816 0.14941093 -0.1258698

bias f4 [64]
000000 64 7c 5d 3d 00 7b 4a be 08 7a 26 3e b0 ec ca bc
       0.054073706 -0.19773483 0.16257489 -0.024771065
000010 cf 9e 8a ba 14 78 91 bc fd f9 a2 bd 11 02 45 3e
       -0.0010575893 -0.017757453 -0.07957838 0.1923907
000020 a7 69 bc bd c8 60 97 3d e2 22 94 3e c1 db c5 bd
       -0.09199839 0.073915064 0.28932863 -0.09661055
000030 b8 49 df 3d 1b 6a 1e 3d 07 c9 5d 3e 79 6e 8b bd
       0.109027326 0.03867541 0.21658717 -0.0680818
000040 70 9a ab 3d a4 5a 86 3d 4e 54 a2 bd a4 86 32 3d
       0.08379066 0.06560257 -0.07926236 0.043585435
000050 61 fd 19 be e0 ee 5f 3e e2 44 fe 3d ae 02 26 bc
       -0.15038063 0.21868467 0.12415482 -0.010132475
000060 31 12 d3 bd 56 93 6b 3e 03 58 11 be a2 d5 36 bd
       -0.10306204 0.23005423 -0.1419373 -0.04463733
000070 19 75 73 be 4f 58 36 be f0 66 c8 be a9 77 b8 ba
       -0.23775138 -0.17807125 -0.39141035 -0.0014073747
000080 0e e9 50 bd 03 31 40 3d a3 3b 05 be df 56 6f bc
       -0.05100351 0.04692174 -0.13011031 -0.014608114
000090 f9 fa d4 3d c2 b0 73 3d 36 f1 ed 3d d8 e7 ac bd
       0.10399432 0.05949474 0.11618273 -0.08442658
0000a0 53 25 5c 3e 55 47 63 bc 40 a3 2c bd 0e e6 85 be
       0.21498613 -0.013871987 -0.042147875 -0.2615208
0000b0 e6 ba bb 3b cb 6a a4 3d 46 e4 1f bd cd 2f ee bd
       0.005729067 0.08028182 -0.039036058 -0.11630211
0000c0 49 24 6b be 5f 1d 63 3e 7c 2a 14 3d a8 97 2a be
       -0.2296306 0.22179173 0.03617333 -0.16659415
0000d0 09 b9 9a bc 39 3f 85 be 7c 8c 68 3d 4e 03 0e be
       -0.01888706 -0.26024798 0.0567746 -0.13868448
0000e0 a3 39 a7 3d 65 19 e4 3d 36 f9 88 bb 95 ad 28 bc
       0.0816529 0.11137656 -0.004180099 -0.010295291
0000f0 79 fe af 3e 7d cf 50 bd e5 75 69 be 4d 8e d7 bb
       0.34373835 -0.050979126 -0.2279888 -0.006578243

weight f4 [64]
000000 96 5d 49 3f 59 10 01 3f 11 95 39 3f 62 0e 0a 3f
       0.78658426 0.5041557 0.7249308 0.53928196
000010 c7 aa d9 3e f6 ca 08 3f aa ae 00 3f 72 1e b3 3e
       0.42513105 0.53434694 0.50266516 0.34984165
000020 62 17 f0 3e ca 37 ac 3e 60 b7 ad 3e 37 1c ba 3e
       0.4689284 0.33636314 0.33928967 0.3634965
000030 6e e5 80 3f 9f 03 4c 3f 95 86 12 3f e1 ee bf 3e
       1.0070016 0.79693025 0.57236606 0.37486938
000040 d9 2c 31 3f d9 a0 d8 3e 96 89 21 3f 5f ae 15 3f
       0.6920906 0.42310217 0.63100564 0.58469194
000050 fa fa 29 3f cb 8c 00 3f cf bb f4 3e 67 cc 27 3f
       0.66398585 0.50214833 0.47799537 0.6554627
000060 5a bf 16 3f 58 fc c5 3e c2 c2 07 3f e7 ce e6 3e
       0.5888573 0.38669086 0.5303155 0.4507973
000070 51 47 ba 3e f0 e4 0e 3f c3 6d cf 3e c5 b9 da 3e
       0.36382535 0.5581808 0.4051343 0.42719856
000080 fd 93 d9 3e 0e 6c 18 3f 20 29 19 3f cb 6f 2e 3f
       0.4249572 0.5953988 0.59828377 0.6813933
000090 c4 b6 1b 3f 51 81 8e 3f 8c 1c 08 3f ab 66 a8 3e
       0.60825753 1.1133214 0.5316856 0.3289083
0000a0 7c be af 3e 91 ec 2d 3f 04 b0 b2 3e b8 16 ac 3e
       0.34325016 0.67939097 0.34899914 0.33611083
0000b0 a6 bf 06 3f ed 57 fb 3e 1e 0d dd 3e 43 07 27 3f
       0.5263618 0.4909052 0.4317407 0.65245456
0000c0 2b 12 19 3f 00 03 1a 3f 40 0d a9 3e d8 60 d1 3e
       0.5979335 0.6016083 0.3301792 0.40894198
0000d0 d1 b2 01 3f c2 e6 2b 3f 70 f7 06 3f 48 9f 0c 3f
       0.5066348 0.67148983 0.5272131 0.54930544
0000e0 50 51 0e 3f e9 7c 04 3f 59 a9 22 3f ae 99 fb 3e
       0.55592823 0.517531 0.63539654 0.49140686
0000f0 53 6f fe 3e e7 29 4b 3f c1 b4 4a 3f d8 a8 0f 3f
       0.4969431 0.7936081 0.7918206 0.5611701
