models/vishal_lr_001_iter_300.pt_246.pt (torch_old, 473212 bytes, 27 tensors)

weight f4 [64, 1, 3, 3]
000000 b6 b6 d3 3b 47 89 01 be be 64 9c 3d e9 38 c8 bd
       0.00646099 -0.12650023 0.076364025 -0.0977648
000010 37 2c 4e 3e f5 c7 e5 bd 31 9c c1 3d eb e7 f7 bd
       0.20134054 -0.112197794 0.09453619 -0.12104782
000020 00 b1 a4 3b 44 cd 12 be 75 57 24 be 0e a7 7c be
       0.005025983 -0.14336115 -0.16048987 -0.24673101
000030 46 80 ab 3e 90 35 24 3f 36 d8 8f be 09 d3 07 be
       0.33496302 0.6414423 -0.28094643 -0.13264097
000040 28 b9 d8 3c f6 44 0b bf 36 b1 a2 3e f0 4f c6 3e
       0.026455477 -0.544021 0.31775826 0.38732862
000050 73 d9 ed 3d 38 81 9e be a3 42 9e be 4e c0 85 be
       0.11613741 -0.3095796 -0.30910215 -0.2612328
000060 a7 eb c1 bd 8d b1 1b 3e c6 26 0b 3c f6 e7 a6 3d
       -0.09468775 0.15204449 0.008493131 0.08149712
000070 ab 88 0c 3e 50 f5 49 3d 8b da 83 bd 87 1a 89 bd
       0.1372401 0.049306214 -0.06438168 -0.06694513
000080 36 d1 41 3d fe 1f 94 3d 49 89 e2 3d 6d 00 a9 3d
       0.04731866 0.072326645 0.11061341 0.08252034
000090 1f 4e d8 3e 6f 87 1e bf ac 1b bf 3d 32 4f 84 3e
       0.42247102 -0.61925405 0.0933145 0.2584167
0000a0 9f 85 7b 3d 38 76 a7 be 10 8b 5f bf 98 40 0c 3f
       0.061406728 -0.3270738 -0.8732157 0.5478606
0000b0 e1 32 19 be 65 ce 9d 3c 90 32 c9 3d ae 58 eb bd
       -0.14960815 0.019263456 0.09824097 -0.11491524
0000c0 a1 c0 26 3e 2f 93 52 be b6 16 58 3d 93 a4 14 be
       0.1628442 -0.20563959 0.052756034 -0.14515905
0000d0 92 6f a6 3d dc 9c 9b 3d 2a 53 31 3b cf cd b6 3d
       0.08126749 0.07598278 0.0027057626 0.089259736
0000e0 7f 45 cc 3c c0 8d 2f be f8 b8 b9 3d ab ba ca bd
       0.024935482 -0.17143917 0.09068483 -0.09898885
0000f0 7c b5 d9 3c 58 a0 01 be 79 f5 b3 c0 41 80 8c 3e
       0.026575796 -0.12658823 -5.623715 0.274416
000100 00 92 04 be 11 13 10 be 7f f7 3c be ed 49 9b bd
       -0.1294632 -0.14069773 -0.18453787 -0.075824596
000110 bb a3 8b 3e 01 05 bc be da 69 8a 3d 8e b9 9f 3e
       0.27273354 -0.36722568 0.06758471 0.31196254
000120 cb 32 7c 3d d8 8e 21 be a9 06 92 3d 0c cc 09 be
       0.061571877 -0.15777147 0.071301766 -0.13456744
000130 67 87 df bf a9 c6 9f bd 97 e3 a2 3d b3 1c d0 bd
       -1.7463197 -0.07801563 0.079535656 -0.10161724
000140 97 7c 55 3d 5c 46 4b 3d 6b 65 85 3c cc 8b 39 3c
       0.05212077 0.049627647 0.016283711 0.011324834
000150 20 7b c8 bc f0 a0 62 3d a0 38 aa 3c 60 15 4a bd
       -0.024472773 0.055329263 0.020778954 -0.04933679
000160 61 8a 1f 3c c7 74 6a 3d 70 05 2c 3d 6c 49 e3 bc
       0.009737582 0.057240274 0.041997373 -0.027744971
000170 60 ed 85 bc 64 f6 8c bd fc ac b3 bc 92 a6 85 bd
       -0.01634854 -0.06882933 -0.021933071 -0.065259114
000180 f6 3a c3 bd 09 9b 9f bd cb ef c7 bd a2 73 89 3d
       -0.0953273 -0.077932425 -0.09762534 0.06711508
000190 8b d4 b2 be 65 b7 91 3e 29 85 10 3d 67 89 bc 3e
       -0.34927782 0.2846023 0.03528324 0.3682358
0001a0 b9 6c cb be 06 b7 d0 bd 68 9d f7 bb 08 13 da 3d
       -0.39731386 -0.10191159 -0.007556606 0.10648161
0001b0 44 c8 15 3e a5 e8 1e 3e 07 ea 9b be cc 33 3d be
       0.14627177 0.15518434 -0.30451986 -0.1847679
0001c0 71 53 0f 3d 14 af 3c 3e 9c 8e 1c 3d b4 d9 1b be
       0.034991685 0.18426162 0.03822194 -0.15219766
0001d0 b8 b6 ea 3d 8d 97 d4 bd 11 ba 4a 3e 5f d0 cb bd
       0.11460632 -0.103804685 0.19797541 -0.09951853
0001e0 2d 0c 88 3d 42 97 ad bd 19 00 ae 3c b7 09 f0 3c
       0.06642947 -0.08476116 0.021240281 0.029301507
0001f0 8a 71 ea bd e7 d3 ae 3d 78 7c 21 3d 10 fe c0 bc
       -0.11447437 0.08536511 0.039425343 -0.023558646
000200 a4 60 07 bd 78 c1 09 3d 43 b4 b3 bd fc 83 bd bd
       -0.033051148 0.03363177 -0.087746166 -0.0925369
000210 5c 10 89 3c 30 c7 7f 3d 0c ff 0f 3d d5 69 ca bb
       0.016731434 0.06244582 0.03515534 -0.006177167
000220 58 fd aa 3c 54 bc 21 3d e7 01 19 3e ff a4 2a 3e
       0.020872757 0.039486244 0.14942132 0.16664504
000230 1a b7 15 3e c5 d0 ae bd da 9f f2 3d 8e d0 89 3d
       0.14620629 -0.085359134 0.118468955 0.06729232
000240 12 26 b4 3d a8 d7 ba bd 10 f2 6a 3d 24 d0 4b 3d
       0.08796324 -0.091231644 0.057359755 0.049759045
000250 31 8a 2b bd a0 ed a5 bc 28 4d 54 3d c8 6e 89 bd
       -0.041879836 -0.02025491 0.051831394 -0.06710583
000260 c0 cf 42 bc 27 c9 60 be 86 be 1b be ec 96 48 be
       -0.011890352 -0.21951734 -0.15209398 -0.19588822
000270 1e f0 02 be 7e d0 3c bd 81 8d 07 bd 6e 8b 9f 3e
       -0.1278691 -0.04609727 -0.033093933 0.31161064
000280 96 38 d2 3e 13 a0 9d 3d 93 4c 25 bd 29 49 d5 3d
       0.41058797 0.07696547 -0.04035623 0.10414345
000290 7d 9f 01 bd 4b 0e 34 3e 7c bd a1 3e 6c d0 dd 3d
       -0.03164624 0.17583577 0.31589878 0.10830769
0002a0 e1 0c 92 bd cb 21 2f 3e bd ac 56 bd 98 2e 94 bd
       -0.07131363 0.17102735 -0.05241083 -0.072354496
0002b0 c9 76 8c 3c 4a f0 33 3d 3d c1 2b 3e c0 91 c0 bd
       0.017146485 0.04393033 0.16772933 -0.094027996
0002c0 7f b6 6f bd 5d 02 ca bd 92 fb a3 3d 63 5d 26 3c
       -0.05852365 -0.09863732 0.080069676 0.010154101
0002d0 e4 f4 ac 3c 70 5e 6f bc b4 ad 8d bd 6c 92 97 3d
       0.021112867 -0.014609918 -0.06917897 0.07400975
0002e0 26 2c c3 bd 28 73 b0 bd 4e 74 8d bd 72 6b 0a bd
       -0.09529905 -0.08615714 -0.06906949 -0.033793874
0002f0 4c 36 8d bc 68 af 64 3d fe ab 7f bd 1c 48 80 3d
       -0.017237805 0.055831343 -0.062419884 0.06263754
000300 4c 21 a9 bc f6 6c 9c 3d 28 94 05 3c 64 23 f3 bc
       -0.02064576 0.0763797 0.008152999 -0.029679962
000310 ba 55 92 3d c8 9c 2a bc 54 b7 c6 bd e4 55 20 3d
       0.07145257 -0.010413356 -0.09702936 0.03914441
000320 70 20 1a 3d 20 d8 8c bd 19 cd a9 bd 60 77 41 3c
       0.03762859 -0.0687716 -0.082910724 0.011808246
000330 c8 93 24 3c d3 16 a2 bd b0 ab 9b 3b c8 c2 99 bd
       0.010044999 -0.079145096 0.0047506914 -0.07507855
000340 b0 80 21 bc 90 c8 b2 3d dc 81 84 3c 52 93 30 bd
       -0.009857342 0.087296605 0.016175203 -0.043109246
000350 24 58 18 bd e8 c1 bd bd da 9f 93 bd ba 79 cd bd
       -0.037193432 -0.092655 -0.07208224 -0.10032983
000360 de f9 99 be 59 37 8c 3e f8 f9 e4 3c 3b 47 81 3e
       -0.30073446 0.27385977 0.027951226 0.25249657
000370 fa a7 70 be cb 33 ae ba d9 b4 15 3d 32 b1 45 bc
       -0.23501578 -0.0013290582 0.036549423 -0.012066172
000380 c0 9e 00 bd 07 a0 84 3d a9 2a 8b 3d c1 96 a5 be
       -0.031401396 0.06475835 0.06795246 -0.3234158
000390 0d 02 86 bd b2 b9 ce 3e b9 25 db bd 33 53 74 be
       -0.0654336 0.4037605 -0.107005544 -0.23859863
0003a0 22 08 7c 3e fe a5 82 bb 7e 1b 55 bc f7 da 27 be
       0.24612477 -0.003987073 -0.013007043 -0.16392122
0003b0 0f 3d 9e 3d 33 c6 09 bd 6d a5 c6 3d 4b 18 d7 bb
       0.0772649 -0.033636283 0.09699521 -0.0065641752
0003c0 62 c3 38 3d e9 0b f9 3d 74 9e 13 be 94 3d 59 3d
       0.045108207 0.12160475 -0.14415914 0.05303724
0003d0 61 7e c3 bd 68 f7 ca bd ac ff 9b 3d b2 e3 0f bd
       -0.09545589 -0.0991047 0.07617125 -0.035129257
0003e0 70 f3 b1 3b 5a 25 4f bd 60 8b 46 bc 20 69 29 3b
       0.0054306313 -0.05057273 -0.0121181905 0.0025850013
0003f0 f1 7c 73 bd ac 9c 1a 3d 91 2b 04 bf 41 11 a2 3e
       -0.059445325 0.03774707 -0.5162898 0.3165379

bias f4 [64]
000000 5c c5 e1 b5 b7 a0 55 3c d5 db a4 3d fb 67 42 3b
       -1.6821245e-06 0.013038806 0.08049742 0.0029664028
000010 ea b5 9d 3c 0e cb 2c 3d 0c 61 30 3e a9 02 9e 3c
       0.019251782 0.042185836 0.1722452 0.019288378
000020 b3 3a 90 3e 26 78 62 be a4 07 88 bd a2 f9 8b 3c
       0.28169784 -0.22116145 -0.06642082 0.017086808
000030 be 06 37 3d 22 87 74 3d 2b 00 39 be be 9a e4 be
       0.044684164 0.059699185 -0.1806647 -0.4464931
000040 70 45 70 be 02 47 0f 3d 46 30 d4 be b6 59 cc 3d
       -0.23463988 0.034979828 -0.4144308 0.099780485
000050 a8 89 3a be c0 03 a6 be 9e ad 8f be 04 a0 a2 be
       -0.18216574 -0.32424736 -0.28062147 -0.31762707
000060 fe 43 3f 3d e4 fe 2a 3d bf fc 41 3e 7b 2f 80 be
       0.0466957 0.04174699 0.18944071 -0.25036225
000070 10 2e a0 bc 3a 60 78 bc d0 f2 94 be 84 de 74 3d
       -0.019553214 -0.015159661 -0.290915 0.05978252
000080 6a 4e a2 be 08 9c 5d bd b2 63 62 3c 1b d5 81 be
       -0.3170045 -0.05410388 0.0138177145 -0.253579
000090 66 18 f0 bd de 6b 81 3d da 1d b8 3d a2 89 25 3d
       -0.11723404 0.06319402 0.08990069 0.04041446
0000a0 64 49 8b 3e 26 b7 57 be f2 e6 60 3d c8 d2 7f be
       0.2720443 -0.2106596 0.054907747 -0.2498275
0000b0 c3 1d 89 be 24 08 a6 3b 7e af 70 be 3a 71 1c 3d
       -0.2678052 0.0050668884 -0.23504445 0.03819392
0000c0 ba c5 9e be 21 2c ba be 88 b3 74 3c 38 12 01 3d
       -0.31010228 -0.36361793 0.014935382 0.031511515
0000d0 9e 64 2d be 3e 5e df be 5e 57 08 3e 80 64 24 be
       -0.16932914 -0.4362659 0.13314578 -0.16053963
0000e0 b4 da 75 3e d0 28 41 be 84 3d a3 3c 77 73 94 be
       0.2400921 -0.18863225 0.019926794 -0.28994343
0000f0 a9 ca 4b 3e 55 79 4e 3d 95 16 34 3d 58 1e 5b 3d
       0.19901527 0.05040868 0.04396685 0.053495735

weight f4 [64, 64, 3, 3]
000000 e2 92 60 ba f5 3e d1 3c d0 ad 7e bc 66 01 7a 3d
       -0.0008566809 0.025542716 -0.01554437 0.06103649
000010 ec 8c 20 be 06 82 40 3d 08 c9 50 bd b7 0b a8 bd
       -0.15678757 0.046999 -0.05097297 -0.082053594
000020 e6 1c a5 bc f9 50 31 bf 48 33 4b be 1c 82 29 3e
       -0.020155381 -0.6926418 -0.19843781 0.16553539
000030 a1 25 e3 3d d7 87 c6 bd 3f 84 fc bd 07 e7 76 bd
       0.110911615 -0.09693878 -0.123299114 -0.06027892
000040 4c 21 d3 3e 5f 41 1b 3f de 00 9c be a7 dd 37 3e
       0.4123634 0.60646623 -0.30469412 0.17955647
000050 d8 4c 12 bd 79 1e af 3e d0 56 04 3e a1 ec 8a 3c
       -0.035717815 0.34202936 0.12923741 0.016958537
000060 69 95 b6 3e 43 fd 6f 3e 0a 61 3f 3e c5 bf 48 3e
       0.35660866 0.23436455 0.18689361 0.19604404
000070 3a d4 8a 3e 2e e4 6e 3e 2f 87 91 3e 62 58 8f 3e
       0.2711504 0.23329231 0.2842345 0.27997118
000080 4a 51 98 3e 2c 27 c7 3d 8f c9 82 3e 36 eb 53 3e
       0.2974952 0.09724268 0.25544402 0.20695195
000090 15 a6 01 3f 1e 94 95 be 3f d6 b5 be f7 1d 97 be
       0.50644046 -0.29214567 -0.3551502 -0.2951505
0000a0 e5 b1 8b 3e 63 a4 57 be 7f cd fe bd 92 7f 30 3d
       0.2728416 -0.21058802 -0.12441539 0.04309041
0000b0 0b 9d 60 be 12 f3 3c bd 6b 40 30 be 99 43 f8 bd
       -0.21934907 -0.046130247 -0.17212074 -0.12122268
0000c0 13 09 d3 3d 51 44 22 3e a5 54 50 3d 7b 91 59 3c
       0.10304465 0.15846373 0.050861973 0.013279314
0000d0 b9 a5 dd 3c 7c 7d cb bc f5 8b 44 bf c9 86 2d bf
       0.027056562 -0.024840109 -0.7677606 -0.6778379
0000e0 60 0d 29 bf 0b 5f 91 bd 13 ec 24 bd 22 32 88 bd
       -0.66036034 -0.07098206 -0.0402642 -0.06650187
0000f0 c3 41 f0 be 01 38 a4 be 98 b0 25 bf 83 47 c2 bd
       -0.46925172 -0.32073978 -0.64722586 -0.09486296
000100 77 a6 24 bd 94 52 96 3d c5 60 62 bd ed d9 c4 bd
       -0.040197816 0.07339969 -0.055268068 -0.096118785
000110 9d d9 db 3d 93 61 cf 3c 22 30 93 3d 1a 98 4a bd
       0.10734866 0.025315082 0.07186915 -0.04946146
000120 be 4b 9e 3d 7c 59 0c 3e de a8 c6 bd 4b 0c e4 bc
       0.077292904 0.1370601 -0.097001776 -0.027837893
000130 61 b8 ca bd 88 ff b0 bd 36 a6 38 be b6 39 93 bd
       -0.09898449 -0.08642489 -0.18032154 -0.07188742
000140 26 62 ae be ba e7 3b bc 06 3b 51 3d f3 0b ea bc
       -0.34059256 -0.011468822 0.05108168 -0.028570151
000150 de ef 64 3b 72 00 ad 3c d9 1a 19 3c 05 e0 48 3d
       0.003493301 0.021118376 0.00934478 0.049041767
000160 3e ec 6f bc 9a cc 82 bd 7e 27 52 3d 36 ea 90 3d
       -0.014643727 -0.06386681 0.051307194 0.07075922
000170 bc ed 24 3d 50 4d 63 bd 60 8b f7 3c f7 40 4f bd
       0.040265784 -0.055493653 0.030217826 -0.050599065
000180 04 6d 1d bd 4e 6c 43 3d 64 df 64 3d da 61 83 be
       -0.038434044 0.04771071 0.055877104 -0.25660592
000190 a7 fb b2 be a4 63 e6 3c e1 a0 52 bd 01 2a 28 bd
       -0.3495762 0.028123684 -0.051422957 -0.041055683
0001a0 b9 a4 d5 3d 3d ed a3 3e 79 56 6d 3e 77 7b b1 bd
       0.10431809 0.32016936 0.23177518 -0.08666127
0001b0 e4 c4 32 be 40 a9 d8 bd 7a 11 6a bc e4 94 b9 3d
       -0.1745792 -0.10579157 -0.014286393 0.09061602
0001c0 13 ba 7d 3d 10 90 be bc 3b a7 16 3d 7b 69 1d 3d
       0.061945032 -0.023262054 0.036780577 0.038430672
0001d0 04 91 99 3d 08 d1 c6 bd a4 83 b2 3d 9a d9 c9 ba
       0.07498363 -0.09707838 0.08716515 -0.0015399933
0001e0 c4 1c d9 3d 16 1d 04 3e 31 3f 5f 3d 58 0d 82 bd
       0.1060119 0.1290172 0.054503623 -0.06350201
0001f0 88 00 cc bd 3c e2 e0 bd a8 33 4d bc 6a e9 3e 3d
       -0.09961039 -0.10980651 -0.012524523 0.04660932
000200 ac 38 32 bc ef 94 6a bd 2c 06 b1 bc 2e 7f 62 bd
       -0.010877769 -0.05727094 -0.021609388 -0.05529707
000210 50 2e 68 bc d4 21 74 3d 7c 04 8a 3c ea 05 83 be
       -0.014171198 0.059602574 0.016847841 -0.2559045
000220 fd 03 6b be 2b 67 15 be 90 f4 90 be d3 af 4d be
       -0.2295074 -0.14590137 -0.28311586 -0.20086603
000230 bd 4e 3a bd 1c 47 18 3e 7c 42 6f bd ce d8 d3 bd
       -0.045485247 0.14870876 -0.058413014 -0.103440866
000240 14 de 35 3d ac cb 1e bc c4 10 df 3c 1a 82 c6 bc
       0.044401243 -0.009692114 0.027229674 -0.02423196
000250 e8 2c 2d 3d 04 f0 53 bc 84 37 40 bd 6a 1b 0e 3d
       0.042279154 -0.012935642 -0.046927944 0.034694113
000260 6c 91 85 3d 0d fe b5 3b 13 6b 4c 3e 4d 26 0a 3d
       0.06521878 0.005553967 0.1996272 0.033727933
000270 31 49 c7 bd 72 6d 4a 3d c3 de d3 3d c3 59 5b 3d
       -0.09730757 0.04942078 0.10345223 0.0535524
000280 1c 5d 6c 3e 76 5b 6a 3d 22 79 35 bd 2b 19 b6 3d
       0.23082393 0.05721613 -0.044304974 0.08891519
000290 db 23 92 be 3a 72 c5 bd c1 94 a2 bc 66 fd 4e be
       -0.2854298 -0.096409276 -0.019846322 -0.20213851
0002a0 03 2c 52 3d 63 cd 58 3e c6 11 56 bd e9 98 89 3c
       0.051311504 0.21172099 -0.052263044 0.016796546
0002b0 d7 ee 90 3b 91 f6 59 3d 53 38 6d 3e 32 da 99 3e
       0.004423003 0.05321366 0.23166017 0.30049282
0002c0 3f da 94 bd 26 82 5e be 11 a6 3b be e0 37 b6 bd
       -0.0726819 -0.21729335 -0.18325068 -0.08897376
0002d0 4c 60 5f bd f0 ea 85 bb 74 c4 5e 3d 32 e7 43 3d
       -0.054535195 -0.0040868446 0.05438657 0.047827907
0002e0 2b 2e 8a bd 78 70 7e 3d fa de 88 3d b4 63 66 bd
       -0.06747087 0.062118977 0.066831544 -0.056247428
0002f0 22 8d 84 bc f8 59 72 bd 10 80 6f bd 48 95 33 bd
       -0.016180579 -0.059167832 -0.05847174 -0.043843538
000300 c8 f6 7f 3d 98 96 05 bc 48 9a 0e bc 12 61 31 3d
       0.06249121 -0.00815358 -0.008703776 0.043305464
000310 68 19 4e bc bf eb 47 bd dc c4 6b 3d 80 2d 5f bd
       -0.0125792995 -0.04880881 0.057560787 -0.05448675
000320 e8 0a 77 bc 34 8d e9 3c c1 e7 1d bd 56 57 5b bd
       -0.015078284 0.028509714 -0.038551096 -0.053550087
000330 a6 f3 88 bc 9c 35 61 3d a0 c8 ad bc 9e 83 24 bd
       -0.016717743 0.054982767 -0.02121383 -0.040164582
000340 20 0b cb bb 7c 24 8d 3c 1c ce ce 3c 8c 2f a0 3c
       -0.0061963946 0.017229311 0.025244765 0.019553922
000350 e0 9b f5 3c 80 76 5a 3c 98 2d 0c 3c 00 b2 91 bc
       0.029981554 0.013333917 0.008555792 -0.017785072
000360 08 85 9b 3d f3 bd dc 3c 9f fd 9a bd 10 20 8a bd
       0.07593733 0.026946044 -0.07567906 -0.06744397
000370 65 19 81 3e 7f 4d 11 bd 8d d5 6c bd d7 9a 80 bd
       0.25214687 -0.035474297 -0.057820845 -0.06279533
000380 b0 d7 85 bd 50 62 4b 3e 13 f2 80 3e 7d 2d 2c bd
       -0.0653528 0.19861722 0.25184688 -0.04203557
000390 54 c6 86 3e f2 a1 9b 3e ea cd b5 3c d8 d3 5a 3c
       0.26323187 0.30396992 0.022192914 0.013356172
0003a0 75 01 84 3e 67 54 23 3d 11 f2 ad 3d ab a6 ce 3a
       0.25782362 0.039875414 0.08493436 0.0015766224
0003b0 97 66 2c bd 60 8c 7b 3e 26 8a 88 3e 5b c0 c1 3e
       -0.042090025 0.24565268 0.266679 0.37842068
0003c0 6b 1a 7f be a7 33 34 be 79 a5 43 be 0a cf 50 3d
       -0.24912421 -0.17597829 -0.19106092 0.050978698
0003d0 2f 20 15 bd ec 26 8d 3c 0e 4e 00 3d da cf 2f bd
       -0.036407646 0.017230473 0.03132444 -0.042922832
0003e0 00 81 6a 3d 53 65 91 bd c2 34 38 3d fa 15 14 3d
       0.05725193 -0.07099404 0.04497219 0.03615377
0003f0 7f 5d 66 3d ca b8 3c 3d 7c bb e0 3d 66 1a 9b 3d
       0.05624151 0.046074666 0.1097326 0.075733945

bias f4 [64]
000000 85 e7 18 bd 52 0d 97 be 21 7a 9e 3e 2b 8d 36 bb
       -0.03733017 -0.2950235 0.30952552 -0.0027855139
000010 e3 9b 2d 3e f8 4d c3 3d f6 66 99 be ee 02 32 be
       0.16953997 0.09536356 -0.29961365 -0.1738393
000020 f8 3e a2 be 4d 19 1a bd b8 7e 9b 3d 3b 22 c5 3e
       -0.31688666 -0.037621785 0.07592529 0.38502678
000030 3a a8 47 3e a2 3b 35 bd b3 de c1 3d 50 35 86 be
       0.19497767 -0.044246323 0.09466305 -0.2621255
000040 16 e6 33 be 9f 02 52 be 3c 1b 6c 3e 55 7b fd 3d
       -0.1756824 -0.20508812 0.23057264 0.12377039
000050 bc 1d 19 bf 23 d6 db bd 55 fb ba 3d 6f d4 97 3e
       -0.59810996 -0.10734203 0.09129969 0.2965426
000060 0b 87 92 be 47 b1 90 be 52 b8 38 3e 2e d7 ae 3e
       -0.28618655 -0.28260252 0.18039063 0.34148544
000070 ad 01 9a be 3f 22 ba 3e f1 5d 09 3d 20 86 01 bf
       -0.30079404 0.36354253 0.033536855 -0.50595284
000080 df 93 bb be 33 5e 91 3d e3 36 ab bd 1b 0e 0a 3e
       -0.36636254 0.07098045 -0.08360078 0.13481943
000090 a9 74 98 3a 21 8e 0a be 25 a6 41 3d fb 31 8f 3e
       0.0011631447 -0.1353078 0.04727759 0.2796782
0000a0 10 58 06 3e 93 6b 21 3c e4 6f 28 bf 82 3b 06 bf
       0.1311953 0.009852308 -0.6579573 -0.5243455
0000b0 43 82 92 3d eb 06 50 be c0 b1 8d 3e 01 d5 e2 be
       0.07153752 -0.20315139 0.27674675 -0.44303134
0000c0 4e c5 67 3d 52 9f ce be 93 90 eb 3b 86 00 c0 be
       0.05658465 -0.40355927 0.0071888654 -0.375004
0000d0 23 09 26 be 2e 8f c8 be e1 27 86 3d d0 29 04 3f
       -0.16214423 -0.39171737 0.06550575 0.516263
0000e0 6a 41 a2 3d 7f 1e f9 3e c1 1c ab be 2b ae bf 3e
       0.07922633 0.4865608 -0.33420375 0.37437567
0000f0 9d f7 2f be 3a 79 81 3e 1c 87 4d 3e 7e f0 29 3e
       -0.171843 0.252878 0.20071071 0.16595647

weight f4 [64]
000000 2a ab 34 3f 95 ab b4 3e 26 ca 20 3f 84 b1 86 3e
       0.70573676 0.35287157 0.62808454 0.2630731
000010 0c 0c a7 3e 30 3e ab 3e 9b bb 04 3f 99 04 bd 3e
       0.3262638 0.33445883 0.51848763 0.3691757
000020 e3 83 ba 3e 6d 6b ae 3e c4 4e 96 3e 61 ae c6 3e
       0.36428747 0.34066334 0.29356968 0.38804916
000030 f5 9b a3 3e 0c 1c ab 3e 7f a2 25 3f 7d ef de 3e
       0.31954923 0.33419836 0.64701074 0.4354209
000040 e3 93 cb 3e 00 44 9e 3e d8 a6 8d 3e f3 46 8e 3e
       0.39761266 0.30911255 0.27666354 0.27788505
000050 65 ba 60 3e 29 46 0a 3f 7f ac e4 3e 11 13 92 3e
       0.21946104 0.54013306 0.44662854 0.28530172
000060 a1 be 58 3e 03 42 a4 3e d3 2e b3 3e b2 85 a5 3e
       0.21166469 0.32081613 0.34996662 0.32328564
000070 01 78 d4 3e 88 42 a8 3e e7 7f c8 3e 44 64 b8 3e
       0.41497806 0.3286326 0.39160082 0.36013997
000080 42 bf a4 3e 93 ac ac 3e aa 6c 28 3f 96 d8 15 3f
       0.32177168 0.33725414 0.6579081 0.5853361
000090 0f fe c8 3e 85 4f d0 3e ff 12 75 3e 1d 9e 05 3f
       0.3925633 0.4068567 0.23933028 0.52194387
0000a0 5d 60 9d 3e 22 18 d8 3e a0 6b a8 3e 5c 50 97 3e
       0.30737582 0.42205912 0.3289461 0.29553497
0000b0 30 f2 aa 3e 68 6f c2 3e ca 86 fb 3e f6 7d a4 3e
       0.333879 0.3797562 0.49126273 0.3212735
0000c0 f1 ee bd 3e 4f 25 09 3f 30 7f 8f 3e 38 12 2d 3f
       0.3709636 0.53572553 0.28026724 0.67605925
0000d0 83 af be 3e ac 33 96 3e 85 93 aa 3e 2a 37 05 3f
       0.3724328 0.29336298 0.33315673 0.520373
0000e0 bb f0 6b 3e c0 85 b2 3e ac 34 0d 3f 83 59 c6 3e
       0.2304105 0.34867668 0.55158496 0.38740167
0000f0 bb 3b 7e 3e 19 90 a1 3e 9d 7a d2 3e 00 a9 a7 3e
       0.24827473 0.3155525 0.41109172 0.32746124

bias f4 [64]
000000 e5 5f ea be ba e1 fa be 51 bc b5 be 3c c4 87 3d
       -0.45776287 -0.4900034 -0.35495237 0.066292256
000010 8f a4 ae bd a5 2b 9b bd ee a0 10 3d aa 2d d0 be
       -0.08527481 -0.07576684 0.035309725 -0.4065984
000020 ba 86 e7 bd 4c c0 00 bf cc 75 8c be 99 8f e1 be
       -0.11304994 -0.5029342 -0.27433622 -0.4405487
000030 e8 ca af be 12 e2 cb be 4d dc 78 be b2 74 59 be
       -0.34334493 -0.39820915 -0.24302788 -0.21235922
000040 01 0b cf be a4 af 27 be 97 18 85 be 08 60 1f bd
       -0.40438083 -0.16375595 -0.25995323 -0.038909942
000050 13 98 8f 3e 26 83 47 3d 0d b5 f6 3d c2 a4 da bd
       0.2804571 0.048709057 0.120462514 -0.10675956
000060 52 51 34 bf ba 32 9d be fe 49 32 3e b7 56 02 bd
       -0.70436585 -0.30702764 0.17411038 -0.03182098
000070 6f 3f 0d bf b4 fc 2f 3d 5e 87 c3 bb f9 f0 46 be
       -0.55174917 0.042965606 -0.0059670648 -0.19427861
000080 b8 a1 38 be 25 3f ab be 03 80 8e bf 56 5d b7 be
       -0.18030441 -0.33446613 -1.1132816 -0.35813397
000090 19 d1 3c be 83 67 67 be 86 18 60 bd 6a fd 18 bf
       -0.1843914 -0.2259808 -0.054710887 -0.5976168
0000a0 ec f2 77 be 6b 3e 97 be 01 ea e5 bd 41 36 0c 3d
       -0.24213761 -0.2953981 -0.11226273 0.034231428
0000b0 d9 04 06 3e f2 5d 11 bf c0 85 16 bf a4 27 3b be
       0.13087787 -0.56783974 -0.58797836 -0.1827684
0000c0 1c 43 00 bf ea 9a 12 3e a9 29 6c 3d a0 33 5f bf
       -0.501024 0.14316908 0.057656918 -0.8718815
0000d0 fa 4c 02 3d f3 47 58 3e 9c aa a2 be 0a 6b 8c bd
       0.03181169 0.21121196 -0.3177079 -0.068563536
0000e0 87 b0 15 3d 58 68 c7 bd cf 64 72 be c2 ea ce be
       0.036545303 -0.09736699 -0.23671268 -0.4041348
0000f0 05 f9 2d 3d 1e 8a 0c 3e 2c ed 26 bf 0c 51 b7 be
       0.04247381 0.13724563 -0.65205646 -0.3580402

running_mean f4 [64]
000000 bb 09 0d 3f 0f 1d d5 be 5f de 08 bd 48 b2 ba 3e
       0.5509297 -0.41623732 -0.033415195 0.36464143
000010 d8 fb 00 3f fc 9e 0c be 78 c6 11 be 91 f5 ae 3f
       0.50384283 -0.13732523 -0.14235866 1.3668691
000020 20 3c 09 be ad 81 9f 3d 2e 3a 00 3d f5 6d 80 3e
       -0.13401842 0.077884056 0.031305484 0.2508389
000030 c5 73 04 3e 09 94 b6 be e2 46 00 be 37 b5 4c be
       0.12934788 -0.35659817 -0.1252704 -0.19991003
000040 7d e8 92 bd 53 92 ef be 5d 15 0d 3e 67 70 57 3f
       -0.0717325 -0.46791324 0.1377768 0.8415589
000050 2c 63 ec be ef c8 a4 bf 51 3a 1a 3f 5b fd e2 3d
       -0.46169412 -1.287382 0.60245234 0.1108348
000060 38 68 bc bd b6 be 1b bd 1a 31 93 3f ea 9f 3f bf
       -0.09199566 -0.038023673 1.149936 -0.74853384
000070 a9 89 8d bf f4 61 9d 3e 6a fa 2f 3d d1 1b 9b bf
       -1.1057636 0.30738795 0.042963423 -1.2117864
000080 8c 8f 21 bf 3a e3 87 bf 80 e4 9f be 52 5f c4 3c
       -0.6310966 -1.0616219 -0.3122902 0.023971234
000090 2d ed 44 bf 9b 2d 43 bf 84 38 e2 3e e2 fc 48 3d
       -0.769244 -0.76241463 0.44183743 0.049069293
0000a0 21 f9 1b bc 9e bf 97 3d 57 3a 1f bf f9 80 fd 3d
       -0.009519846 0.07409595 -0.62198395 0.12378115
0000b0 15 ab 0f 3e c4 bd 64 bf d6 7d b1 3e 71 b6 1e bf
       0.14030106 -0.8935206 0.34666318 -0.61997133
0000c0 28 c8 f5 be 4f fb 5f bf 67 68 24 bd cf 58 06 bf
       -0.4800427 -0.8749284 -0.04013863 -0.5247926
0000d0 d5 c4 21 be 6a 46 85 bf bb c9 6d bc b3 08 a8 3f
       -0.15797742 -1.0412114 -0.014513428 1.3127655
0000e0 21 81 2a 3e 15 58 d2 3e 40 ec 26 3e fd 3d 9f be
       0.16650821 0.41082826 0.1630106 -0.3110198
0000f0 fe 16 f2 be 41 75 09 bd 3d a8 21 bd a2 2b bc 3d
       -0.47283167 -0.033559088 -0.039467085 0.0918801

running_var f4 [64]
000000 66 fe d6 3d 3d 64 3b 3d ba 4f 14 3e 30 f3 9e 3d
       0.104977414 0.04574989 0.14483538 0.07761228
000010 2b 82 60 3d b6 51 ab 3d 0c 0c 9a 3d 0a 12 52 3d
       0.054811638 0.083651945 0.07521829 0.051286735
000020 bf dd 97 3d 5c 5b 4b 3d c4 b3 8f 3c c1 a1 ef 3c
       0.074153416 0.049647674 0.017541774 0.029251935
000030 20 fa 26 3d b1 90 33 3d f9 32 03 3e e6 34 2f 3d
       0.04076588 0.04383916 0.12812413 0.042775057
000040 06 66 26 3d 77 2e 53 3d 5a 76 3e 3d 59 38 b6 3d
       0.04062464 0.051557984 0.046499588 0.08897466
000050 81 13 68 3d 27 ea ba 3d ab 31 c0 3d c7 c9 64 3d
       0.056659225 0.09126692 0.093844734 0.055856492
000060 c2 fe a2 3c ea 54 46 3d 38 d4 96 3d cf e6 9b 3d
       0.019896869 0.048420824 0.07364696 0.076123826
000070 ed 1b 9a 3d b6 97 28 3d 68 c6 8b 3d 12 39 87 3d
       0.07524858 0.041160308 0.06824952 0.06602682
000080 17 9d 7f 3d 60 44 d5 3d 2b 88 8c 3d 21 3d a5 3d
       0.062405672 0.10413432 0.068619095 0.080683
000090 88 34 ee 3d 53 8d 41 3d 0f 90 47 3d c6 e7 5e 3d
       0.11631113 0.047253918 0.04872137 0.054420255
0000a0 fa 1a c1 3c 53 fb 5a 3d 6e 3b 9b 3d 9b 61 6a 3d
       0.023572434 0.053462338 0.07579695 0.05722199
0000b0 46 01 99 3d 88 15 b9 3d 82 d2 77 3d 82 f9 7f 3d
       0.07470946 0.0903731 0.06050349 0.06249381
0000c0 3a 4b 8a 3d 03 71 b7 3c c6 cc 78 3d 76 93 86 3d
       0.067526296 0.022392755 0.060742162 0.06571095
0000d0 40 3c 3e 3d 91 35 b4 3d 06 d2 00 3d 8f 7c 0b 3e
       0.046444178 0.087992795 0.031450294 0.13621734
0000e0 9e 44 fe 3c 99 43 17 3d e5 0c 89 3d 96 2d 66 3d
       0.031038579 0.0369297 0.066919126 0.056195818
0000f0 4f 00 50 3d 0a 9f 72 3d fa fa 91 3c 66 1e af 3c
       0.050781544 0.059233703 0.01781987 0.0213768

weight f4 [64, 64, 3, 3]
000000 40 d8 b6 3e f2 56 a0 3d 32 ed 80 3d 09 b1 4a be
       0.3571186 0.078290835 0.062952414 -0.19794096
000010 d7 63 67 bd ea 45 b2 bd 33 92 9a be 06 40 a8 be
       -0.0564917 -0.08704741 -0.30189666 -0.32861346
000020 33 67 50 be 19 7e 56 3d 5b 4e 06 be 2d 48 d0 bd
       -0.20351867 0.05236635 -0.13115828 -0.101700164
000030 00 0b 7f 3d 80 1c 0c be 7c a8 5a bd 06 38 1e 3e
       0.06226635 -0.13682747 -0.053383335 0.15451059
000040 21 7a 59 bd 1b a9 3a be 03 d8 b0 3c 9a d6 2c 3e
       -0.053094987 -0.18228571 0.021587377 0.16878739
000050 8c 7b f6 bd 8b 05 83 bd 2b 34 59 3e 9d db df bd
       -0.120352834 -0.063975416 0.21211307 -0.1093056
000060 b1 2c 65 3e 19 51 4b bb 20 8c 44 bc 69 f2 46 bd
       0.2238033 -0.003102368 -0.011996299 -0.048571024
000070 c2 01 83 3e 98 c5 9f 3d 3e 36 7b bd 6c 75 ad be
       0.2558728 0.0780136 -0.061331026 -0.33878648
000080 40 a1 86 be ed f9 09 3c 78 af a9 bc 08 b1 d7 3d
       -0.262949 0.008421403 -0.020713553 0.10531813
000090 8d f6 a8 bc a3 32 12 3f c3 f1 64 be f4 b1 b5 3e
       -0.020625377 0.57108516 -0.2235785 0.3548733
0000a0 c7 3c 79 3e 96 cc 8b be ea f1 9a bd 93 d3 4a bd
       0.24339591 -0.27304524 -0.07565673 -0.04951818
0000b0 59 a9 bb bd b8 8f c7 bb 07 5c 04 3d b9 32 d3 bc
       -0.0916316 -0.0060901307 0.032314327 -0.025781022
0000c0 3a 39 48 3e 14 6a 87 bd 0b c6 6d 3e fa ed 1a be
       0.1955308 -0.0661203 0.23220079 -0.15129843
0000d0 f0 f6 4c 3d 24 32 7b bd 7f a3 04 3d 77 4c 04 3e
       0.050040185 -0.061327115 0.032382485 0.12919794
0000e0 2e 51 af 3d 38 2c bb bd 4f 5d c2 bd 26 14 17 be
       0.08560406 -0.091392934 -0.094904535 -0.1475378
0000f0 55 52 12 be 00 8d 83 bb 62 29 f5 bc 9c ae cd bd
       -0.1428922 -0.0040146112 -0.02992696 -0.1004307
000100 eb 81 35 be ad c7 15 3e 75 b3 1b 3d 00 b0 a0 3d
       -0.17725341 0.14626952 0.03801294 0.07846069
000110 83 7a f0 be e6 28 c4 3c 28 87 07 3f 29 c5 7d 3d
       -0.4696847 0.023945283 0.5294061 0.061955605
000120 e9 b8 01 be 3f 3d 1d bd 4d 53 42 3d b9 62 ce bc
       -0.12668194 -0.038388487 0.047442723 -0.025193559
000130 fe 27 dc bd 22 66 08 3e 77 89 92 be 67 8b 9e bd
       -0.107498154 0.1332021 -0.28620502 -0.07741433
000140 94 89 3a bd 72 e7 71 3e 7e bc b5 3e 64 65 a2 bd
       -0.04554136 0.23623446 0.3549537 -0.07929495
000150 55 c4 18 3e d9 c4 97 bf fc b0 95 3e 08 ce 7e 3e
       0.14918645 -1.1856948 0.2923659 0.24883282
000160 c9 96 33 3f 55 58 b9 be d3 9e bb bd 41 9c 7a bc
       0.70151955 -0.36200204 -0.09161153 -0.015296043
000170 ca 48 73 3e 80 12 cb bd fe ba 17 be 88 98 9d 3e
       0.23758236 -0.09915638 -0.14817426 0.30780435
000180 88 f2 8b bd c2 57 4f be 10 32 98 3d 82 38 53 3d
       -0.068333685 -0.2024832 0.07431424 0.051567562
000190 2e a7 ce 3e 6d 27 aa bd 92 13 b8 bd b2 e6 ce bd
       0.40361923 -0.08308301 -0.08988108 -0.101025954
0001a0 a2 78 9e bb 5b 5a 83 3c d7 0e f9 bd e5 36 1f 3d
       -0.004836158 0.016034296 -0.121610336 0.03887071
0001b0 76 9a b6 3e 2c f4 95 be 6c eb 28 be 99 bb bd 3e
       0.3566472 -0.2928785 -0.16496056 0.37057188
0001c0 90 9b 88 bd 6a 40 13 be 36 5a 6b 3e 85 b1 cf bd
       -0.06670296 -0.14380041 0.22983631 -0.10141281
0001d0 2f 9d 2c be 27 eb c4 bd c7 97 e1 bd 95 1a a9 bd
       -0.16856836 -0.09615164 -0.11015277 -0.08257023
0001e0 a4 79 35 3d 7c 71 c0 3e c3 82 10 3c 7e f3 b7 bd
       0.04430546 0.37586582 0.0088202385 -0.08981989
0001f0 6a dd 8e 3d 81 cc 19 be 2a 39 fc be 51 21 5f 3d
       0.06975825 -0.15019418 -0.49262363 0.054475132
000200 8e df 42 3d 71 c0 c2 be 0f b0 95 3e 3f eb 41 3e
       0.04757648 -0.38037446 0.29235885 0.18937396
000210 45 62 bc be 0a 4f 04 3e d9 44 93 3d 54 e5 e5 3d
       -0.36793724 0.12920776 0.07190866 0.112253815
000220 76 c9 80 3d f2 5b 38 bc f5 41 33 be 76 8a d7 bd
       0.062884256 -0.01125239 -0.1750563 -0.10524456
000230 7d 9e 0f be 7f db 8c 3e 99 32 81 3e 16 1b ca bd
       -0.14025302 0.27511212 0.25233915 -0.098684475
000240 95 40 b7 bd 5f d2 e5 3e 10 48 33 3e 76 11 3c 3d
       -0.08947865 0.44887063 0.17507958 0.04591509
000250 21 57 5c be 2f 3b e6 3d 74 de 06 be 15 a4 66 be
       -0.21517612 0.11241757 -0.13170797 -0.2252353
000260 3e d2 54 bd 13 d6 14 bc 82 af fa bd b3 fb cf 3d
       -0.051958315 -0.009084242 -0.12240507 0.1015543
000270 fa 58 1d be 0d 9f 42 be 14 e3 6b 3e a9 79 04 be
       -0.15365973 -0.19005986 0.23035842 -0.12937035
000280 9b b7 10 be 6f ed 35 3e 21 d1 78 3d 9b 35 4e 3c
       -0.1413254 0.17766355 0.060746316 0.012586023
000290 0f f1 a6 3d 4d 6e a4 bd c8 91 2a be 2b 8b 5c 3d
       0.08151447 -0.08028851 -0.16657174 0.05384366
0002a0 bf 4d 1a bd 81 6d d6 3d ae bc 72 bd e6 fd 88 bd
       -0.0376718 0.10470105 -0.05926197 -0.06689052
0002b0 0d 79 95 3c 55 b1 9b 3d b6 06 e1 bd d5 5d f0 bc
       0.018246198 0.07602183 -0.10987608 -0.029341618
0002c0 50 ff d3 be c6 d7 82 3a 67 97 cc bc d9 3c 5a bc
       -0.41405725 0.0009982518 -0.024974538 -0.013320171
0002d0 6f 42 32 3e a6 4a cc be 24 41 41 3d 97 1b 0f be
       0.17408155 -0.39900702 0.047181264 -0.13975368
0002e0 14 66 66 3e f4 8b 21 be eb 1f 62 be ca c1 ba bc
       0.22499877 -0.15776044 -0.22082488 -0.022797484
0002f0 4a 33 80 bd a0 3f 24 3d d4 6c 31 3e ff c7 3c 3e
       -0.062597826 0.04009974 0.17326671 0.18435667
000300 e7 48 e1 3d 53 29 e3 bc 8c 34 ca be 03 70 13 be
       0.11000233 -0.027729666 -0.39493215 -0.14398198
000310 56 b2 9f bc 9b de e1 3d 4d 6d 9a bb 8b 61 d0 be
       -0.019494217 0.11028787 -0.0047127367 -0.4069942
000320 0b e6 63 3e ec 25 c9 3d 9a dc 8b 3e 90 23 1b be
       0.22255723 0.09821686 0.27316743 -0.15150285
000330 0c 62 4e 3e e1 99 6b bd 12 5e 64 bc 55 a4 dc bc
       0.2015459 -0.057519797 -0.013938444 -0.026933828
000340 09 27 d9 bd fd eb d6 bd c5 08 69 be 39 c1 6a bb
       -0.106031485 -0.1049423 -0.22757252 -0.0035820736
000350 9b 04 f2 bc 2d a5 58 3e 48 c6 fd 3d 0a 3b 51 be
       -0.029543212 0.2115676 0.12391335 -0.20432678
000360 cd 3b dc bc 39 97 0f 3e 1c c4 a5 bd 05 24 23 be
       -0.026883984 0.1402253 -0.080940455 -0.15931709
000370 b3 12 f4 3b 62 7e 2f 3e 5a 9f a9 3d 83 04 27 bd
       0.007448518 0.17138055 0.08282347 -0.040775787
000380 4f 39 f9 3b b8 4e f6 3d 47 54 b6 3d 77 a5 8d 3e
       0.0076057087 0.12026733 0.089027934 0.27665302
000390 4b ea 33 3d 42 23 22 be 8f 59 34 be 80 c1 3f 3d
       0.04392461 -0.15833762 -0.17612289 0.046815395
0003a0 96 a7 38 be 90 52 0c 3d cc f1 c5 3d 6a 12 23 3e
       -0.18032679 0.034258425 0.0966526 0.15924993
0003b0 87 33 d1 3d 16 db 9d 3c f7 c5 6b 3d f5 cf c1 3c
       0.10214906 0.019269507 0.05756184 0.023658732
0003c0 fc 0a 9d bc 24 02 52 bb 2d c5 ab 3d 09 b1 a4 be
       -0.019170277 -0.0032044733 0.08387218 -0.32166317
0003d0 d2 fa 84 bd 6c e6 af bd 38 1e b5 bd 62 f9 b2 be
       -0.06493153 -0.08588871 -0.088436544 -0.3495589
0003e0 db 4e 1c 3e 3a 63 05 be 6e b7 e3 bb 1d f3 22 be
       0.15264456 -0.13026133 -0.0069493568 -0.15913053
0003f0 b6 e2 3e be f1 37 4b be af 9f 1d be 71 f5 54 be
       -0.18641171 -0.19845559 -0.15392946 -0.20796753

bias f4 [64]
000000 c4 e8 f4 3e 27 f0 93 be 31 a8 57 3e 10 67 5b be
       0.47833836 -0.2889416 0.21060254 -0.21426034
000010 df 61 cb bc be 08 ba be 82 77 f9 bc 9f ee ca 3c
       -0.024826942 -0.36334795 -0.030452494 0.024771987
000020 d3 51 4a be 16 19 35 3e 95 95 68 bd ac 48 c0 3d
       -0.19757776 0.17685351 -0.056783278 0.09388861
000030 46 10 b2 bd 13 0b f0 3d 7d 84 40 3e a9 30 98 bd
       -0.0869451 0.11720862 0.1880054 -0.07431156
000040 1f 80 bd 3e c1 88 28 be 4b b4 4e 3d 79 ae 03 bd
       0.3701181 -0.16458417 0.05046491 -0.032148812
000050 c0 e9 4d be ab 69 37 3e 84 8d 28 be 6f b3 25 3e
       -0.201087 0.17911403 -0.16460234 0.1618173
000060 0c 6e 98 3e 14 48 d9 3d 33 cc 4b be 60 c9 45 bd
       0.2977146 0.10609451 -0.19902115 -0.04828775
000070 b1 42 41 3c ea cc 29 3d e3 d8 a0 bd 52 8e 87 be
       0.011795686 0.041455187 -0.07853868 -0.2647577
000080 58 8b 9d be 63 9c f0 3d 82 ef d1 be 10 eb 89 be
       -0.30770373 0.117485784 -0.41003042 -0.2693715
000090 b3 c3 69 3e 0a 1b a4 bc 20 26 45 3e a1 67 0d 3e
       0.2282856 -0.020032424 0.19252825 0.13809063
0000a0 86 bd c1 3d 31 d9 46 be 86 fe 93 be 4b c4 02 bf
       0.09459977 -0.1941879 -0.28905123 -0.5108077
0000b0 7b c2 55 3c 50 1a 3d 3d a5 2d 05 be b4 c1 0c 3e
       0.013046856 0.04616767 -0.13005693 0.13745767
0000c0 bd c4 c1 3b c2 8c e9 be 69 ae dc bd 5c c0 f7 bd
       0.0059133456 -0.45615202 -0.107754536 -0.120972365
0000d0 15 58 86 bd 68 44 8c be b1 3b b9 be ee 57 28 be
       -0.06559769 -0.2739594 -0.36178353 -0.16439793
0000e0 d8 9d 15 be 5a b2 e1 be 88 81 6c 3e f3 23 d6 3e
       -0.14610994 -0.44081384 0.23096287 0.41824302
0000f0 03 55 1e 3e ca 95 04 3e b5 fb fc bd c7 4d 90 3e
       0.15462117 0.12947765 -0.12352697 0.2818434

weight f4 [64]
000000 95 2d 1c 3f 35 22 eb 3e 05 84 07 3f 11 a1 a6 3e
       0.6100705 0.45924535 0.5293582 0.3254476
000010 4e be 29 3f 33 d8 ef 3e 59 73 9d 3e 94 4b 3c 3f
       0.66306007 0.46844634 0.30752066 0.73552823
000020 7c 05 1f 3f 47 6b 06 3f 85 3d 3f 3f c2 68 b4 3e
       0.62117743 0.5250744 0.74703246 0.35236174
000030 18 51 2a 3f c6 f1 56 3f 8d 86 b6 3e e4 1a 9b 3e
       0.6652999 0.83962667 0.3564953 0.30293953
000040 82 01 dd 3e 8b ae 20 3f de 8e ab 3e c1 fc b8 3e
       0.43165213 0.6276633 0.33507437 0.36130336
000050 88 06 b0 3e ed e2 a5 3e 69 02 9e 3e 87 0e c7 3e
       0.34379983 0.32399693 0.30861214 0.3887827
000060 e9 b4 04 3f 9c 39 1c 3f 27 6f 95 3e b8 1b 37 3f
       0.51838547 0.61025405 0.29186365 0.7152667
000070 81 24 15 3f bf ab f2 3e 3a c7 fd 3e e1 b3 da 3e
       0.58258826 0.47396657 0.4956606 0.42715362
000080 c9 dd e4 3e 23 6b c1 3e bb db b7 3e 0d c5 e8 3e
       0.4470046 0.3777705 0.3590983 0.45462838
000090 44 85 c1 3e 82 ea 24 3f 39 5d 01 3f 73 87 27 3f
       0.37796986 0.6442033 0.5053287 0.65441054
0000a0 27 c9 8f 3e ba 0c e8 3e b0 5d c5 be 2e ef 1a 3f
       0.28083155 0.4532221 -0.3854804 0.6052121
0000b0 29 a9 f0 3e fe bd 26 3f fd 65 42 3f e1 21 c0 3e
       0.4700406 0.65133655 0.7593687 0.37525848
0000c0 3c 7c 30 3f 33 bf be 3e a7 ad 08 3f 45 9d a2 3e
       0.68939567 0.37255248 0.5338997 0.31760612
0000d0 f2 61 32 3f 1e ec 36 3f 23 e3 ca 3e dd a0 1e 3f
       0.696807 0.71454036 0.39626417 0.6196421
0000e0 a3 f1 bf 3e 66 5d f5 3e c2 cd ab 3e 0f e1 30 3f
       0.37489042 0.4792282 0.33555418 0.6909341
0000f0 fa 31 50 3f c4 5f a7 3e 8b ef 2e 3f 6e b2 13 3f
       0.8132626 0.3269025 0.68334264 0.5769414

bias f4 [64]
000000 67 4c 83 bf fd e4 44 3e be 0d 80 be 2f 2a 9a bd
       -1.0257691 0.19227977 -0.25010484 -0.07527577
000010 d3 29 30 be 5c 29 17 bf 18 c7 a3 bb 1b 12 8e be
       -0.17203455 -0.59047484 -0.004998099 -0.27748188
000020 28 9e bb be cc e6 33 bf 7f 75 b1 bd 75 40 84 be
       -0.366441 -0.70274043 -0.08664989 -0.25830427
000030 01 12 23 be 79 bb 17 bf a8 f2 a8 bc eb 60 05 be
       -0.15924837 -0.59270436 -0.02062352 -0.13025253
000040 19 62 d5 be ba 1b 0c 3e 23 f5 9c 3d cb 1a ce 3c
       -0.41676405 0.13682452 0.076639436 0.02515926
000050 2d 17 74 be 20 84 ae 3e 31 f4 15 3f bb 31 80 bd
       -0.23836966 0.34085178 0.5857573 -0.06259485
000060 b7 34 45 3d a7 fd 2c bd da e9 41 3e 31 aa 98 be
       0.048145976 -0.04223409 0.18936864 -0.29817346
000070 28 4e f0 be 33 19 50 be 41 5e 41 bf fa 8c 80 be
       -0.46934628 -0.20322113 -0.75534445 -0.25107557
000080 86 d9 c4 be 23 57 9b bd a2 09 a9 be 8b 90 38 3d
       -0.38447207 -0.075849794 -0.33015162 0.045059722
000090 a3 e0 05 3f 65 b9 89 be e0 99 23 bd 59 46 97 bf
       0.52295893 -0.26899257 -0.03994167 -1.1818343
0000a0 d0 6e 8a 3e 02 8f df be 3c 9c 8f be 9b 4f d9 3d
       0.27037668 -0.43663794 -0.28048885 0.10610887
0000b0 32 fd a5 be ed 83 7f bf b0 7f 58 be 90 ba 81 3e
       -0.32419735 -0.9981068 -0.21142459 0.25337648
0000c0 12 ca dc be 89 2e 77 be 62 31 bb be 97 69 ab bd
       -0.43122917 -0.24138846 -0.36561114 -0.08369749
0000d0 97 e5 6b bc e1 bf 13 bf 9c 0a b5 be 40 e2 fb bd
       -0.014398 -0.5771466 -0.35359657 -0.12299013
0000e0 f2 9e c6 be d7 38 8f bd d0 9b 5e be 84 b9 03 bf
       -0.3879314 -0.06993263 -0.21739125 -0.5145495
0000f0 f9 c8 f5 bd cd 86 39 be 3b 2d fa be 18 af 20 bf
       -0.12001223 -0.18117829 -0.48862633 -0.6276717

running_mean f4 [64]
000000 ad dc 3c 3e 72 56 c8 bf 50 b7 91 bf 04 e4 29 be
       0.18443556 -1.5651381 -1.1384068 -0.16590887
000010 b6 1b 0a bf 7c 83 8c bf 68 ee ec 3f c1 6e 1c bf
       -0.53948534 -1.0977626 1.8510256 -0.611065
000020 ae 9b 6c bf 1f a1 a3 bf 04 b7 cb bf ec 53 78 bf
       -0.9242505 -1.2783545 -1.5915227 -0.97003055
000030 a0 8e 21 bf b0 8a 60 bf c6 a6 a6 bd 94 67 e6 3e
       -0.63108253 -0.8771162 -0.08137278 0.450009
000040 a5 1f c0 be ac ea 88 bf 0d e1 85 3c 64 44 26 3f
       -0.37524143 -1.0696616 0.016342664 0.64948106
000050 f5 04 3b 3f ff a2 06 3f 39 70 68 bf 56 e4 72 3e
       0.7305444 0.5259246 -0.9079624 0.23719916
000060 d3 c3 3f bd 5d 68 d1 3f e7 64 fe be 3c 4f 82 bf
       -0.046817612 1.6359974 -0.49686357 -1.018043
000070 e2 d0 b3 be 16 30 89 bf 71 9e 6c 3f f7 7a 9c bf
       -0.35120302 -1.07178 0.9242926 -1.2225026
000080 15 5a d0 3d 4d 61 46 bf 19 e5 03 3f 46 0b a5 be
       0.10173432 -0.7749222 0.5152145 -0.32235163
000090 9f db 20 3e f8 c3 40 bf 01 59 07 40 df 9a 29 bf
       0.15708779 -0.75299025 2.1148074 -0.6625194
0000a0 ac f6 86 bf 86 21 a8 3f 7a 84 32 3e 4d ad be 3f
       -1.0544028 1.313523 0.17433348 1.4896637
0000b0 15 4a 35 bf 27 10 b2 3f 88 43 92 bd 87 ea 8d bf
       -0.70816165 1.3911179 -0.07141787 -1.1087197
0000c0 56 13 85 bf d2 c2 de bf da b8 72 bf 91 82 20 bf
       -1.0396526 -1.7403204 -0.9481331 -0.6269923
0000d0 af 15 fc bf 52 65 f3 3e 0e 3b cf be 9b f2 a2 be
       -1.9694117 0.4753824 -0.40474743 -0.31825718
0000e0 24 ef 6b bd ff 78 b4 bf a9 3f a2 be a5 eb 25 bf
       -0.05760111 -1.4099425 -0.31689194 -0.6481269
0000f0 c2 df c3 3f 9c 10 c4 3e d1 eb 69 3e fe 47 17 3f
       1.530266 0.38293922 0.22843863 0.59094226

running_var f4 [64]
000000 dc a4 83 3e b6 4e 72 3f a8 e5 09 40 9e 15 78 3f
       0.25711715 0.94651353 2.154642 0.96907985
000010 f3 d7 f8 3f a4 e4 8a 3f 59 1f 2b 3f 07 7e a9 3f
       1.9440902 1.0851026 0.6684471 1.3241585
000020 47 de 85 3f 67 c5 74 3f 4e 6a c6 3f 38 83 c5 3f
       1.0458459 0.9561371 1.5501192 1.543067
000030 13 2b 90 3f 04 d6 f5 3f 10 0b 9d 3f 98 52 4f 3f
       1.1263145 1.9205937 1.2269001 0.80985403
000040 bc 4e 30 3f 0e ca d8 3f 53 6d 8d 3f 5b ad 51 3f
       0.6887014 1.6936662 1.1048988 0.81905144
000050 71 6b 8c 3f f2 84 4d 3f a6 62 8e 3f e4 59 73 3f
       1.0970289 0.80280983 1.1123855 0.9505904
000060 9e 6e b9 3f e7 c8 f1 3f 23 31 68 3f 9a 5d 9a 3f
       1.4486883 1.8889436 0.90699977 1.2059815
000070 54 89 6f 3f 1a f5 0d 40 f2 73 58 3f 2b 81 9a 3f
       0.9356892 2.2180848 0.8455192 1.2070669
000080 a7 10 2c 3f b3 bd 95 3f 97 21 53 3f e0 c5 a9 3f
       0.6721291 1.1698517 0.8247313 1.3263512
000090 92 c7 b5 3f 08 f2 00 40 d1 a8 b7 3f 0e 6f 40 3f
       1.4201529 2.0147724 1.4348394 0.75169456
0000a0 14 5d d4 3f a5 e5 de 3f 72 ef 49 3f b4 ba b1 40
       1.6590905 1.7413832 0.7888099 5.554041
0000b0 9d 67 6b 3f 10 37 50 3f 85 e7 65 40 bd 3a b6 3f
       0.91954976 0.8133402 3.5922558 1.4236676
0000c0 61 5a e2 3f f8 67 45 3f b6 e4 dd 3f 79 43 7f 3f
       1.7683831 0.7711177 1.7335422 0.9971233
0000d0 fa a1 06 40 08 1c 18 40 c1 36 0a 3f 91 e1 c2 3f
       2.1036363 2.376711 0.539898 1.5225087
0000e0 a0 e5 05 3f f7 7a 9c 3f 74 47 be 3f 40 5a 0d 3f
       0.52303505 1.2225026 1.4865556 0.55215836
0000f0 1c 9e 96 3f cd 46 26 3f c9 47 b3 3f 44 d5 63 3f
       1.1767001 0.64951783 1.4006282 0.8899729

weight f4 [64, 64, 3, 3]
000000 e2 62 49 3d 86 d1 5d 3c 25 36 43 3e b5 1c 6d be
       0.049166568 0.013538724 0.19063623 -0.23155482
000010 d8 ab 83 be 44 bb c2 bf 9f bc 50 bd ab 39 07 bd
       -0.25717044 -1.5213399 -0.050961133 -0.03301398
000020 1b b1 83 bf cd d7 49 be 3c d9 f9 3d 15 3e 3e 3e
       -1.0288423 -0.19711228 0.12199637 0.1857837
000030 3e 48 f0 bd a5 3a 4d 3d be bc b1 3d fb 61 c3 bd
       -0.11732529 0.050104756 0.08678578 -0.09540173
000040 29 d0 67 bb 3b 5b 40 be 83 db 9d bd d2 51 94 be
       -0.0035371876 -0.18784802 -0.07707884 -0.28968674
000050 65 ce 8a be a4 f0 8a be 9f 84 8e be 79 72 2d be
       -0.27110592 -0.2713672 -0.27835557 -0.16938199
000060 8d 55 60 3e c7 a1 24 be 7a ff bd be ff a6 a6 bd
       0.21907635 -0.16077338 -0.37108976 -0.08137321
000070 03 79 1a bd 6c bd 39 be 34 8a c4 bd db 51 20 be
       -0.037713062 -0.18138665 -0.09596673 -0.15656225
000080 27 53 74 bd 44 45 a0 be 12 b9 bb be 10 76 ed 3d
       -0.059649613 -0.31302845 -0.36664635 0.11594784
000090 e2 36 3b bc 51 3a a5 bd f8 de b7 be fd 12 3d 3d
       -0.011426659 -0.080677636 -0.359123 0.046160687
0000a0 0b 27 02 3e 97 c8 2e 3e 24 0b fe bd c5 bc a8 be
       0.12710206 0.17068706 -0.12404469 -0.3295652
0000b0 fc 4e aa be d7 53 86 3c ac 27 48 3e 75 2c 89 be
       -0.33263385 0.0163974 0.19546384 -0.2679173
0000c0 81 0b ab 3c 43 47 c6 3b 8b 80 59 bd 78 b4 1c 3e
       0.020879509 0.0060509755 -0.053101104 0.15303218
0000d0 2a 0c ec 3d 72 dc aa 3d c9 02 6d 3d e6 93 b8 3c
       0.115257576 0.08342828 0.057863984 0.022531461
0000e0 a2 0c 92 3e 55 fd 79 be af 8d 13 bf 25 9e 45 be
       0.28525263 -0.24413045 -0.57638067 -0.19298609
0000f0 b7 df e5 bd f2 fd c9 3d 52 b5 5f bc c5 ba 63 3e
       -0.11224311 0.09862889 -0.01365407 0.22239216
000100 ca 0a be 3d ed 29 29 bc 80 e0 36 3e 7f 71 8a 3e
       0.092794016 -0.010324937 0.17859077 0.27039716
000110 37 26 0f be ce 1e 99 be dd 9a 22 bc d8 07 ec 3d
       -0.13979422 -0.29906315 -0.009924618 0.115249336
000120 26 ce ae be 64 35 14 be 67 c4 27 be d9 e6 e6 be
       -0.34141654 -0.14473492 -0.16383515 -0.45097998
000130 03 bc 75 bd ae 0f 9d bd 44 c2 21 bf f2 4e d8 be
       -0.059993755 -0.07669006 -0.6318705 -0.4224773
000140 14 ed f8 be ee 34 66 be dd cf d2 3d 4f f5 f9 3e
       -0.48618376 -0.22481129 0.10293553 0.48819968
000150 3d 56 95 be 76 15 8f be c6 3b 18 3e 85 df 95 be
       -0.29167357 -0.2794606 0.14866552 -0.29272094
000160 34 c5 cb bd ed 99 c9 3d 27 61 34 3e 1e a9 a0 be
       -0.09949723 0.09843812 0.17615186 -0.31379026
000170 f1 bd af 3d c2 5e d3 bd 60 74 8d 3c dd 19 ee bd
       0.0858115 -0.10320808 0.017267406 -0.11626027
000180 54 40 52 3e d3 07 3e 3e 81 e7 f9 bd 0c 74 57 3d
       0.20532352 0.18557672 -0.12202359 0.052600905
000190 2c 33 95 be 9d 3d 67 3e 9f 84 64 be cc 23 d6 be
       -0.29140604 0.22582097 -0.22316216 -0.41824186
0001a0 8a 0c 34 be 00 60 0f 3e bc 84 c4 3d 56 81 96 bd
       -0.17582908 0.14001465 0.095956296 -0.073488876
0001b0 29 3a 08 3e 22 3e 5b be 22 b4 00 3d 8d c5 e4 3d
       0.13303436 -0.2141042 0.031421788 0.11170492
0001c0 c6 bb c2 3d dd 49 02 be 73 75 0c be 34 08 f3 bd
       0.09508471 -0.12723489 -0.13716678 -0.11866799
0001d0 13 05 d9 3d ad 6a fa bd 36 a3 84 3d 60 fe 77 3e
       0.10596671 -0.12227378 0.064764425 0.2421813
0001e0 1e 20 c7 3d 0d 8a 68 be 00 d9 3a 3e 34 c0 1c 3d
       0.09722923 -0.22708912 0.18246841 0.038269237
0001f0 6a 37 cd bd f5 c5 82 3d a2 91 96 bd f9 a4 a4 be
       -0.10020335 0.063854136 -0.07351996 -0.32157114
000200 de 13 13 bf d4 a1 dd 3e 82 06 4c bc ed aa f6 3d
       -0.5745219 0.43287528 -0.012452723 0.1204432
000210 59 9f 7b bd 63 1b 09 bf d7 89 82 3e 67 c8 69 be
       -0.061431263 -0.53557414 0.25495788 -0.22830354
000220 3a af 9a be 93 b9 e2 3e ad 1c 1b 3e 50 6f d0 bd
       -0.30211812 0.44282207 0.15147658 -0.10177481
000230 db c9 df be 80 07 46 3e fc e6 33 3f 97 63 01 bf
       -0.4370869 0.19338799 0.7027433 -0.5054259
000240 6c 0b e4 3e 24 36 22 be c4 ec 99 be 26 1f 0e 3e
       0.44539964 -0.15840966 -0.3006345 0.1387907
000250 3d a9 6c be c0 19 71 be f5 79 d3 3e e2 2c 8d be
       -0.23111434 -0.23544979 0.41303983 -0.27573305
000260 ea 63 66 be c8 e2 22 3e ad 09 bb bc 64 47 dd 3e
       -0.22499052 0.15906823 -0.022831762 0.4321853
000270 dc 3a 34 3d d4 02 70 3b c8 1c 8d 3e cc c3 82 be
       0.044001445 0.003662278 0.2756102 -0.25540006
000280 b2 99 3c 3e 2f 26 ca 3d 65 c8 ce bd 3e fc fb be
       0.18418005 0.09870564 -0.10096816 -0.49215883
000290 ff 91 84 3c ef a7 9d be b1 44 48 bf c7 9f 83 bf
       0.016182898 -0.30792186 -0.78229815 -1.0283135
0002a0 cf 04 b1 3d 36 95 80 be 71 09 70 be 41 14 2f 3e
       0.08643495 -0.2511384 -0.23441102 0.1709757
0002b0 4f d1 b1 3d c1 bd a9 be f1 bc 7b 3d 3d 9e 1a 3e
       0.086825006 -0.33152583 0.061459485 0.15099426
0002c0 dc a5 7f 3d aa 31 2f be 90 21 8d be 72 76 e1 bd
       0.062414035 -0.17108789 -0.2756467 -0.1100892
0002d0 81 a7 6a 3d c4 1b 85 bd bd 89 4c 3c 74 03 a0 3e
       0.05728865 -0.064994365 0.012484011 0.31252635
0002e0 d8 22 c3 bd 89 77 92 3e e5 98 c3 3e 29 77 e2 be
       -0.0952813 0.28606823 0.38202587 -0.44231537
0002f0 4c 85 43 bd de 52 56 be 38 6f 31 3d 8b d0 53 3e
       -0.047734544 -0.20930049 0.043318957 0.20685022
000300 ad 04 59 3e 67 5c 17 bd e9 31 35 3e 7f cf d6 3d
       0.2119319 -0.036953356 0.1769482 0.104887955
000310 fb 8e ad 3c d8 d5 d5 bd c4 c4 95 be ed fe 95 bd
       0.021186342 -0.10441178 -0.29251683 -0.07324014
000320 82 3e 4e be 5a 49 df bd 2d 4f 22 3e e8 b9 99 3e
       -0.20141032 -0.109026626 0.15850516 0.30024648
000330 db ab 4a be 3e a9 20 3e 62 b9 46 3e 0e c7 03 3e
       -0.1979212 0.15689561 0.19406655 0.12868902
000340 61 6b 73 3e 42 24 c1 3e 6f 4c cc be 33 2e e3 3d
       0.2377143 0.37722975 -0.39902064 0.11092796
000350 3b bd aa bd 75 b8 d7 bd 19 a6 91 3e 40 b3 91 3e
       -0.08336874 -0.10533229 0.28447035 0.2845707
000360 d5 5a f9 3d f0 86 2a bd 53 80 a1 3c 01 8e c8 bd
       0.12175528 -0.041632593 0.01971451 -0.0979271
000370 4e e5 c2 bc 0b 57 cc 3d fb 07 98 bd 16 be 84 be
       -0.023790982 0.0997754 -0.07423397 -0.25926274
000380 b7 00 54 be 60 3d ba bd 26 8a 59 be 2b 71 1e bf
       -0.20703398 -0.090937376 -0.21244106 -0.6189143
000390 e2 bc 3c 3c e2 34 36 3c 3b 36 91 be f8 be 23 3d
       0.011519643 0.011121007 -0.28361687 0.039977044
0003a0 fa bf 03 be 06 27 03 bf 0b 12 64 be 71 5a 4f be
       -0.12866202 -0.5123142 -0.22272508 -0.20249344
0003b0 a0 4b f9 3c 97 9a 6e 3e a5 c3 f6 bd 67 3a 78 3b
       0.030431569 0.23301159 -0.12049035 0.0037876607
0003c0 ff 5b 88 3e 2e bb 0c be 70 23 03 3e ab 40 2d be
       0.26632687 -0.13743278 0.12806487 -0.169192
0003d0 5a eb 9c 3d ed 20 3c 3e 83 c1 80 be c2 85 f8 3d
       0.07662077 0.18371935 -0.25147638 0.12134887
0003e0 1b b7 93 bc e3 9e 6e 3e c7 e0 04 be 3f 9f 9a 3e
       -0.018031647 0.23302798 -0.12976371 0.3019962
0003f0 ee 4f 07 3f 6f 9b 3e 3e 91 8c b7 3e e3 35 e0 3c
       0.5285634 0.1861398 0.3584943 0.027369445

bias f4 [64]
000000 65 8c 73 be 47 fa f8 3d 4a 25 3d bd b8 6e 6d 3d
       -0.23784025 0.121571116 -0.04617814 0.057966918
000010 8f 06 80 bd c3 b6 47 be 60 aa 97 bd 76 30 c4 3c
       -0.06251251 -0.19503312 -0.07405543 0.02394889
000020 74 92 8d be e8 95 89 3e 91 82 12 bd 0c 20 d5 bd
       -0.27650797 0.26872182 -0.03576905 -0.10406503
000030 ad 83 59 3e a6 65 4b be 2e c6 38 3e 1a f0 64 3e
       0.21241637 -0.19862995 0.1804435 0.22357216
000040 35 15 05 3f cf 6f 63 bd 5d 2b 48 3d 1d 63 8e be
       0.51985484 -0.05552655 0.04886948 -0.27809992
000050 c1 1a 40 3b e7 f5 8d 3e 36 73 7f bd e7 78 74 3e
       0.0029312822 0.2772667 -0.062365733 0.23874246
000060 35 7b 3e be 08 73 41 3d a2 88 98 bd ce 0b 0c be
       -0.18601687 0.047228843 -0.07447936 -0.13676378
000070 ec 56 02 3d cc 3c 9c 3e d2 18 eb 3d 6a d1 c5 bd
       0.031821176 0.30515134 0.114793435 -0.09659083
000080 b7 24 9b 3d e1 16 17 be aa d6 42 bc 90 b1 50 be
       0.07575362 -0.14754821 -0.011892 -0.20380235
000090 f0 f5 1b be fe 7c 48 3e fa 40 25 3b c0 4e 06 3d
       -0.15230536 0.1957893 0.002521573 0.032789946
0000a0 aa da 8b 3c 90 0a 1d be 00 a9 58 bd 25 b4 90 3c
       0.01707204 -0.1533606 -0.052895546 0.017664025
0000b0 b0 16 dc 3d de fd 0a 3d 17 8b 5a bd c1 79 13 be
       0.10746515 0.033933513 -0.053355303 -0.14401914
0000c0 d4 9c 73 be df f5 ab be 1b fe 14 be eb 61 04 3e
       -0.23790294 -0.33586022 -0.14550059 0.12927978
0000d0 40 7f 45 3e 51 8a ef 3d 32 cc 42 3d 94 e6 af bd
       0.19286823 0.11696304 0.047558017 -0.08588901
0000e0 cb 04 30 be c9 ff d1 bc 2a 92 83 3d 87 a2 1d be
       -0.17189328 -0.025634663 0.06424363 -0.1539403
0000f0 ac 74 68 be 25 ba 9a be 28 bf 1e 3d 2f 44 a9 be
       -0.22700757 -0.30220142 0.03875652 -0.33059832
