models/vishal_lr_001_iter_300.pt_242.pt (torch_old, 473212 bytes, 27 tensors)

weight f4 [64, 1, 3, 3]
00000000: e7da 1fbc 2b70 e5bd 7e4b 8c3d 4880 c9bd
00000010: b334 293e 69d3 debd f183 803d 1273 d8bd
00000020: 9ec4 043c 162e 0fbe 790e 26be c2db 79be
00000030: 00ba ab3e 1134 233f ddb3 8cbe 802c 05be
00000040: c798 c23c 0d2c 0abf 2add a23e e4a9 c53e
00000050: 9758 e43d b60d 9ebe 1131 9bbe 02d2 84be
00000060: 8cf9 c4bd 4fb9 1b3e 73b1 f43b b449 a83d
00000070: f55b 0c3e 824c 4b3d 4f06 83bd 60b3 89bd
00000080: b386 443d efaf 943d 7ae1 e13d 0ab3 aa3d
00000090: c900 d93e 13cb 1dbf 4430 d03d 7261 853e
000000a0: bb3e 8a3d 1371 a6be f775 58bf 25a5 083f
000000b0: 8eba 13be 6b1c a03c e94c bd3d 7e19 edbd
000000c0: b0bb 233e 2cf7 55be 6aaf 3b3d 848b 19be
000000d0: 8931 a53d 3bad 973d 76d0 953b 4553 b53d
000000e0: e82c bc3c 865c 2cbe af39 b93d 4e38 c3bd
000000f0: 3897 c33c 4a50 07be 6178 b2c0 8cf6 8b3e
00000100: 2807 01be 9b1c 0ebe 3967 3abe 49e0 9bbd
00000110: 7ab1 8b3e cd08 b9be 0d60 8d3d 8c96 9f3e
00000120: 62c2 803d 2b24 1fbe 4bd0 8e3d d8bf 02be
00000130: 8374 ddbf 999a a0bd dda0 a43d 93b9 ccbd
00000140: b044 663d 5c46 4b3d 6b65 853c cc8b 393c
00000150: 207b c8bc f0a0 623d a038 aa3c 6015 4abd
00000160: 618a 1f3c c774 6a3d 7005 2c3d 6c49 e3bc
00000170: 60ed 85bc 64f6 8cbd fcac b3bc 92a6 85bd
00000180: f63a c3bd 099b 9fbd cbef c7bd 4ec4 8c3d
00000190: 08cc b2be 52c5 8d3e 82ee 1d3d de46 ba3e
000001a0: 7739 cabe ce1f c2bd 768f eabb d311 de3d
000001b0: 2367 0f3e 3e3e 1f3e 7ea4 99be 4af9 3cbe
000001c0: 86f5 1d3d 7f03 3b3e 223a eb3c 2ebf 1cbe
000001d0: 60f9 d73d e1b2 d7bd ff3e 493e a786 d0bd
000001e0: d321 853d 4c1f aebd a2cd 783c d63d e93c
000001f0: 6cdc e1bd 642f b03d 787c 213d 10fe c0bc
00000200: a460 07bd 78c1 093d 43b4 b3bd fc83 bdbd
00000210: 5c10 893c 30c7 7f3d 0cff 0f3d 1c68 bfbb
00000220: 39bd a93c 6905 223d e061 183e 23a7 293e
00000230: 94d5 143e a892 aebd ddf4 f13d f66c 893d
00000240: 1226 b43d a8d7 babd 10f2 6a3d 24d0 4b3d
00000250: 318a 2bbd a0ed a5bc 284d 543d c86e 89bd
00000260: c0cf 42bc f8bd 5dbe 84b9 17be 9e3d 44be
00000270: 5568 02be f3c9 3cbd 9162 01bd 42df 9f3e
00000280: 1498 d03e 0ee0 9f3d 12fe 1ebd d7ae d43d
00000290: 1259 03bd 5b87 333e 93a0 a03e c8b2 db3d
000002a0: 1a7a 90bd c624 2e3e 706e 56bd 745e 91bd
000002b0: 0993 803c 3eac 2c3d 828c 2c3e 4b9e c6bd
000002c0: 5ece 76bd afbd c7bd 27c1 9d3d 3de0 5a3c
000002d0: e4f4 ac3c 705e 6fbc b4ad 8dbd 6c92 973d
000002e0: 262c c3bd 2873 b0bd 4e74 8dbd 726b 0abd
000002f0: 4c36 8dbc 68af 643d feab 7fbd 1c48 803d
00000300: 4c21 a9bc f66c 9c3d 2894 053c 6423 f3bc
00000310: ba55 923d c89c 2abc 54b7 c6bd e455 203d
00000320: 7020 1a3d 20d8 8cbd 19cd a9bd 6077 413c
00000330: c893 243c d316 a2bd b0ab 9b3b c8c2 99bd
00000340: b080 21bc 90c8 b23d dc81 843c 5293 30bd
00000350: 2458 18bd e8c1 bdbd da9f 93bd ba79 cdbd
00000360: 574a 97be 59b0 8b3e 7def e93c 195d 773e
00000370: ae71 71be 6750 67b6 29f3 2f3d 3dea 68bb
00000380: 6631 dbbc 995d 893d db77 843d 1f46 a4be
00000390: 2409 81bd d0af cc3e 33e2 d5bd 2ac0 72be
000003a0: eec6 783e 33cc 7bbb 5eba 23bc 061f 27be
000003b0: 0d89 9c3d f4de 01bd c081 bf3d 71c5 1abc
000003c0: 31a7 3e3d 2531 f53d d36a 14be 943d 593d
000003d0: 617e c3bd 68f7 cabd acff 9b3d b2e3 0fbd
000003e0: 70f3 b13b 5a25 4fbd 608b 46bc 2069 293b
000003f0: 059e 5fbd e55c 483d 9314 03bf 656c a03e
-0.00975678 -0.11203035 0.068503365 -0.09838921 0.1652401 -0.10880167 0.06275166 -0.10568823
0.008103518 -0.13982424 -0.16216458 -0.24400237 0.33540344 0.6375132 -0.27480975 -0.13005257
0.02375449 -0.53973466 0.3180936 0.3860618 0.1114971 -0.30869836 -0.30310872 -0.25941473
-0.0961791 0.15207408 0.0074674427 0.08217183 0.13706954 0.04963351 -0.06397688 -0.06723666
0.04798002 0.07260119 0.11029334 0.0833493 0.42383412 -0.6163799 0.10165456 0.26050907
0.06750246 -0.32508144 -0.84555 0.5337699 -0.14426634 0.0195448 0.09243185 -0.11577128
0.15989566 -0.2089507 0.045821585 -0.14994627 0.08066089 0.07406088 0.0045719696 0.08853773
0.022970632 -0.1683217 0.090442054 -0.09532224 0.023875818 -0.13214222 -5.5771947 0.27336538
-0.12600386 -0.138781 -0.18203439 -0.076111384 0.2728384 -0.36139527 0.06903086 0.31169546
0.062870756 -0.1554114 0.069733225 -0.12768495 -1.7301182 -0.07841987 0.08038495 -0.09996333
0.05621785 0.049627647 0.016283711 0.011324834 -0.024472773 0.055329263 0.020778954 -0.04933679
0.009737582 0.057240274 0.041997373 -0.027744971 -0.01634854 -0.06882933 -0.021933071 -0.065259114
-0.0953273 -0.077932425 -0.09762534 0.0687338 -0.34921288 0.27689606 0.038557537 0.36382192
-0.39496967 -0.094787225 -0.007158215 0.108432434 0.14004187 0.15551087 -0.3000831 -0.18454471
0.038564228 0.18263052 0.028714243 -0.15307304 0.105456114 -0.10532165 0.19652937 -0.10181933
0.06500592 -0.08502063 0.015185745 0.028471868 -0.1102837 0.08602789 0.039425343 -0.023558646
-0.033051148 0.03363177 -0.087746166 -0.0925369 0.016731434 0.06244582 0.03515534 -0.005841268
0.020720111 0.03955594 0.14881086 0.16567664 0.14534599 -0.08524066 0.11814282 0.06710236
0.08796324 -0.091231644 0.057359755 0.049759045 -0.041879836 -0.02025491 0.051831394 -0.06710583
-0.011890352 -0.21654499 -0.14816862 -0.1916413 -0.12735112 -0.04609103 -0.03158814 0.3122502
0.40741026 0.07806407 -0.03881652 0.103849106 -0.032067366 0.17532103 0.31372508 0.10727459
-0.07054539 0.17006215 -0.052351415 -0.07098094 0.015695112 0.04215645 0.16850474 -0.09698161
-0.0602554 -0.09752976 0.077028565 0.013359127 0.021112867 -0.014609918 -0.06917897 0.07400975
-0.09529905 -0.08615714 -0.06906949 -0.033793874 -0.017237805 0.055831343 -0.062419884 0.06263754
-0.02064576 0.0763797 0.008152999 -0.029679962 0.07145257 -0.010413356 -0.09702936 0.03914441
0.03762859 -0.0687716 -0.082910724 0.011808246 0.010044999 -0.079145096 0.0047506914 -0.07507855
-0.009857342 0.087296605 0.016175203 -0.043109246 -0.037193432 -0.092655 -0.07208224 -0.10032983
-0.29548904 0.2728298 0.02855658 0.24156608 -0.23578522 -3.4468483e-06 0.042956505 -0.0035540008
-0.026756953 0.067073055 0.06468173 -0.32084748 -0.063005716 0.39977884 -0.10443535 -0.23706117
0.24294636 -0.0038421273 -0.009993164 -0.16320428 0.07643328 -0.031706765 0.0935092 -0.009446488
0.046546165 0.11972264 -0.14493875 0.05303724 -0.09545589 -0.0991047 0.07617125 -0.035129257
0.0054306313 -0.05057273 -0.0121181905 0.0025850013 -0.05459406 0.048916716 -0.5120327 0.31332698

bias f4 [64]
00000000: 0f08 cb3b e87a 313c 955d ab3d 7245 653a
00000010: c80b d43c 1be2 283d 29d1 2f3e 803d 513c
00000020: 2fed 8e3e 2678 62be a407 88bd f6ea 903c
00000030: 2ffd 2a3d f74b 793d 2b00 39be b5d3 e3be
00000040: 7045 70be 8435 0e3d 705d d2be 3711 ce3d
00000050: a889 3abe c003 a6be 9ead 8fbe 04a0 a2be
00000060: 12cd 4e3d 88d8 273d 3386 403e 7b2f 80be
00000070: 6060 b9bc faf6 64bc d0f2 94be 431b 713d
00000080: 6a4e a2be 089c 5dbd 1043 873c 1bd5 81be
00000090: 6618 f0bd 222b 7c3d 0a51 b93d d4e6 2a3d
000000a0: b647 8a3e 26b7 57be cf69 503d c8d2 7fbe
000000b0: c31d 89be cfda 853b 7eaf 70be 99dd 1c3d
000000c0: bac5 9ebe 7c59 b9be 77d1 283c 4dd1 f53c
000000d0: 9e64 2dbe 892e debe f40d 083e 8064 24be
000000e0: 6ab4 733e d028 41be 73e1 a33c 7773 94be
000000f0: e6de 493e cb21 513d 279c 223d 31f3 613d
0.006196029 0.010832526 0.08367459 0.0008746005 0.025884524 0.041231256 0.17169632 0.01277101
0.27915332 -0.22116145 -0.06642082 0.017690163 0.04174536 0.06086346 -0.1806647 -0.44497457
-0.23463988 0.034719005 -0.41086912 0.10061877 -0.18216574 -0.32424736 -0.28062147 -0.31762707
0.05048854 0.040977985 0.18801193 -0.25036225 -0.022628963 -0.013974899 -0.290915 0.05886389
-0.3170045 -0.05410388 0.01651147 -0.253579 -0.11723404 0.061564572 0.0904866 0.04172404
0.27007836 -0.2106596 0.050882157 -0.2498275 -0.2678052 0.004084922 -0.23504445 0.03829727
-0.31010228 -0.36201084 0.010303847 0.030007029 -0.16932914 -0.43394879 0.13286573 -0.16053963
0.23799291 -0.18863225 0.020004964 -0.28994343 0.19713935 0.051057618 0.0396997 0.055163566

weight f4 [64, 64, 3, 3]
00000000: 0267 e4b9 6b71 943c 95b4 e3bb 7bef 833d
00000010: 9945 1abe 0da1 a73c 1399 65bd c28f b2bd
00000020: be87 afbc c1d7 34bf d262 58be dfc3 283e
00000030: d936 d13d 8cc4 d3bd 3780 fdbd 309f 77bd
00000040: 4386 ce3e 6139 193f 7dce a2be eafa 323e
00000050: 92ff d9bc 3155 ad3e d31f fe3d 91ba 173c
00000060: 8f0e af3e 718c 5a3e 3a60 323e c7db 423e
00000070: 7fa6 873e 9229 6a3e a5f8 8d3e 0e18 8b3e
00000080: ddee 943e 3606 b73d de26 7e3e f21a 4f3e
00000090: d7b2 033f 40ff a0be 34e7 bfbe ea00 8fbe
000000a0: 86cf 883e 966b 53be 9609 09be 7c0d 933d
000000b0: 4897 58be 4475 1ebd f827 3ebe 37bc e4bd
000000c0: 193a d23d aa24 213e b43c 7d3d 1c94 db3b
000000d0: 98d5 103d dbaf 7bbc 8f07 46bf 22b9 2fbf
000000e0: 16cf 28bf 5114 97bd 0b9c 31bd bc51 87bd
000000f0: ab6f efbe 0651 a5be e1bd 24bf 03dd cfbd
00000100: 381f 54bd 914e 693d 741d 72bd d593 bebd
00000110: 77fc ed3d d10d 0d3c 9d7b b53d ffd9 0bbd
00000120: 5eb3 8d3d e1be 043e 1597 cebd 5016 fbbc
00000130: 4f68 d4bd 8942 b9bd d473 36be ba95 93bd
00000140: 3548 adbe bae7 3bbc 063b 513d f30b eabc
00000150: deef 643b 7200 ad3c d91a 193c 05e0 483d
00000160: 3eec 6fbc 9acc 82bd 7e27 523d 36ea 903d
00000170: bced 243d 504d 63bd 608b f73c f740 4fbd
00000180: 046d 1dbd 4e6c 433d 64df 643d 1951 77be
00000190: 9d94 abbe 6d7a 1f3c 05ea 33bd 9016 07bd
000001a0: b95b de3d ae19 9f3e afcd 713e ed6e a4bd
000001b0: 88de 36be 24af ffbd 6833 1fbb 22f8 bf3d
000001c0: 6732 a93d 5d8b 8cbc 2468 f93c e161 453d
000001d0: c5ff 8a3d d02d d4bd 3099 ad3d 74dd 4c3c
000001e0: 315c cf3d 0452 0d3e 2b2e 593d 1204 81bd
000001f0: 8ef9 bcbd c5b2 f2bd a833 4dbc 6ae9 3e3d
00000200: ac38 32bc ef94 6abd 2c06 b1bc 2e7f 62bd
00000210: 502e 68bc d421 743d 7c04 8a3c 3614 83be
00000220: 4cb5 6bbe 945d 17be f582 91be 78b0 50be
00000230: 2b87 45bd a06e 143e 1569 7abd 56c2 d4bd
00000240: 14de 353d accb 1ebc c410 df3c 1a82 c6bc
00000250: e82c 2d3d 04f0 53bc 8437 40bd 6a1b 0e3d
00000260: 6c91 853d 8c5c 51bb 0bf3 433e 5c1d 9d3c
00000270: 3481 bdbd 8d53 4f3d af23 dd3d 1c9d 633d
00000280: b67e 673e 377c 8e3d 397f 42bd 0e1a ad3d
00000290: 7ca9 92be 744b cabd 3f07 c8bc 790b 50be
000002a0: f581 4c3d 98c9 543e ae71 55bd b27a ac3c
000002b0: 860d 1d3c 3e2a 5f3d 09dd 613e 9837 913e
000002c0: 46ac 82bd 924c 5ebe d8c9 3bbe 6b72 b0bd
000002d0: 4c60 5fbd f0ea 85bb 74c4 5e3d 32e7 433d
000002e0: 2b2e 8abd 7870 7e3d fade 883d b463 66bd
000002f0: 228d 84bc f859 72bd 1080 6fbd 4895 33bd
00000300: c8f6 7f3d 9896 05bc 489a 0ebc 1261 313d
00000310: 6819 4ebc bfeb 47bd dcc4 6b3d 802d 5fbd
00000320: e80a 77bc 348d e93c c1e7 1dbd 5657 5bbd
00000330: a6f3 88bc 9c35 613d a0c8 adbc 9e83 24bd
00000340: 200b cbbb 7c24 8d3c 1cce ce3c 8c2f a03c
00000350: e09b f53c 8076 5a3c 982d 0c3c 00b2 91bc
00000360: 1faa 773d c2e9 163d e1f3 91bd ded9 9dbd
00000370: daca 733e fa25 4abd b7cf 52bd 81c9 7fbd
00000380: 66b4 90bd d8b8 3a3e c9b7 7a3e 94f3 65bd
00000390: 9d66 7f3e 07c9 983e 886c 7a3c b050 d33b
000003a0: 48f4 803e 21b3 253d 3880 b03d 7315 6d3a
000003b0: 67a4 34bd 59b6 7b3e 0a5c 843e 6596 c13e
000003c0: 4ca1 7bbe 1b17 38be 8c95 3ebe 0acf 503d
000003d0: 2f20 15bd ec26 8d3c 0e4e 003d dacf 2fbd
000003e0: 0081 6a3d 5365 91bd c234 383d fa15 143d
000003f0: 1862 663d 39c7 e63b 96ee 8e3d 2dbe d83d
-0.00043564296 0.018120488 -0.0069490173 0.06442162 -0.15065612 0.020462537 -0.056054186 -0.08718826
-0.021427032 -0.70641714 -0.21131447 0.16480969 0.102155395 -0.10340223 -0.12377971 -0.060454547
0.4033681 0.5985318 -0.31798163 0.17478529 -0.026611123 0.33854058 0.12408414 0.0092607895
0.34190795 0.21342637 0.1741952 0.19029151 0.26494214 0.2286742 0.27728763 0.2716679
0.29088488 0.089367315 0.24819514 0.20225123 0.5144476 -0.3144474 -0.3748108 -0.27930385
0.26720828 -0.2064651 -0.13382563 0.07180306 -0.21151459 -0.038686052 -0.18569934 -0.11168712
0.102649875 0.15736642 0.06182547 0.0067010056 0.03535995 -0.015361751 -0.77355283 -0.68641865
-0.6594099 -0.07376922 -0.043361705 -0.066073865 -0.46764883 -0.32288378 -0.6435223 -0.101495765
-0.051787585 0.056959692 -0.05911012 -0.093055405 0.116204195 0.008609251 0.08861468 -0.034143444
0.06918977 0.1296344 -0.1008741 -0.030650288 -0.10371458 -0.09045894 -0.17817622 -0.072062925
-0.33844152 -0.011468822 0.05108168 -0.028570151 0.003493301 0.021118376 0.00934478 0.049041767
-0.014643727 -0.06386681 0.051307194 0.07075922 0.040265784 -0.055493653 0.030217826 -0.050599065
-0.038434044 0.04771071 0.055877104 -0.2415203 -0.3351182 0.009733778 -0.04392435 -0.0329805
0.108573385 0.3107428 0.23613618 -0.0802897 -0.17858326 -0.12484577 -0.0024292115 0.093734995
0.082615666 -0.017156297 0.030445166 0.048189048 0.067870654 -0.103603005 0.08476484 0.01250397
0.10125006 0.13800818 0.053022545 -0.062996045 -0.09227286 -0.11850504 -0.012524523 0.04660932
-0.010877769 -0.05727094 -0.021609388 -0.05529707 -0.014171198 0.059602574 0.016847841 -0.25601357
-0.23018378 -0.14781791 -0.28420225 -0.20379817 -0.04822461 0.14495325 -0.06113537 -0.10388629
0.044401243 -0.009692114 0.027229674 -0.02423196 0.042279154 -0.012935642 -0.046927944 0.034694113
0.06521878 -0.0031946031 0.19135682 0.019179039 -0.09253159 0.05061679 0.10797822 0.055569753
0.2260693 0.06957286 -0.04748461 0.08452235 -0.2864493 -0.09877673 -0.024417518 -0.20316876
0.049928624 0.20780027 -0.052110367 0.0210546 0.009585744 0.054483645 0.22056974 0.28362727
-0.06380515 -0.21708897 -0.18338716 -0.086155735 -0.054535195 -0.0040868446 0.05438657 0.047827907
-0.06747087 0.062118977 0.066831544 -0.056247428 -0.016180579 -0.059167832 -0.05847174 -0.043843538
0.06249121 -0.00815358 -0.008703776 0.043305464 -0.0125792995 -0.04880881 0.057560787 -0.05448675
-0.015078284 0.028509714 -0.038551096 -0.053550087 -0.016717743 0.054982767 -0.02121383 -0.040164582
-0.0061963946 0.017229311 0.025244765 0.019553922 0.029981554 0.013333917 0.008555792 -0.017785072
0.060464974 0.036844023 -0.07126594 -0.077075705 0.2380785 -0.049352624 -0.051467624 -0.06244803
-0.07065658 0.18234575 0.24484171 -0.056140497 0.24941488 0.29840872 0.015284665 0.0064488277
0.25186372 0.040454034 0.08618206 0.00090440287 -0.0441021 0.24581279 0.2585147 0.37810054
-0.24573249 -0.17977564 -0.18611735 0.050978698 -0.036407646 0.017230473 0.03132444 -0.042922832
0.05725193 -0.07099404 0.04497219 0.03615377 0.056245893 0.007042792 0.069791004 0.10583148

bias f4 [64]
00000000: 118f a4bd 19c1 9ebe d450 ae3e ba62 19bd
00000010: d379 313e 638e e13d c96b a2be 7ca4 20be
00000020: 5787 79be c2ff 09bd d971 b63d e180 a43e
00000030: 773e 713e e5ef 17bd 843c 3c3d 6f15 5abe
00000040: 0a1b 70be 3ac5 4abe 1ce7 763e 4a92 073e
00000050: 48c4 1ebf e08e 01be b835 6e3d fb74 943e
00000060: 43aa 90be 72e1 82be 0374 493e fe31 a83e
00000070: 7d5e 73be d7a6 b33e 6c58 6c3c d9ff 0ebf
00000080: 672f a8be 039e 963d 3de1 09be 379e 413e
00000090: bc71 293d 84db b5bd b419 d43c 6bf5 a33e
000000a0: dcdc fc3d 6a86 a13a d439 27bf 17b4 08bf
000000b0: 3db6 fe3d 10fa 85be 7b12 8f3e 2187 dfbe
000000c0: 4dc0 bd3d 7103 efbe a396 0c39 326a c4be
000000d0: 648a 44be 4c4a c3be 09b7 a43d 09bc 0e3f
000000e0: 9717 243d 4e24 fe3e d497 9cbe aebb b53e
000000f0: 588b fcbd 6b61 843e 827b 163e d27f 473e
-0.080351 -0.31006697 0.34046042 -0.03744767 0.17331629 0.11013486 -0.3172286 -0.15687746
-0.24368034 -0.033691175 0.089084335 0.32129577 0.23558985 -0.037094016 0.04595615 -0.21297239
-0.23447815 -0.19801798 0.24111599 0.13239399 -0.6201825 -0.12652159 0.0581567 0.289955
-0.282549 -0.25562626 0.19673161 0.3285064 -0.23766513 0.35088226 0.014425378 -0.5585914
-0.32848665 0.07354357 -0.13464828 0.1890801 0.04136823 -0.0887976 0.025891162 0.32023177
0.12346813 0.0012323384 -0.65322614 -0.53399795 0.12437103 -0.26167345 0.27943787 -0.43657783
0.09265194 -0.46682313 0.00013407557 -0.3836227 -0.19193417 -0.38142622 0.08042724 0.5575567
0.04006156 0.49637073 -0.30584586 0.3549475 -0.12331265 0.25855574 0.14695552 0.19482353

weight f4 [64]
00000000: b645 343f 8fbf b23e d21e 213f 24b0 853e
00000010: aa59 a83e eb57 aa3e 19b9 053f 25a1 bc3e
00000020: d98d b93e c49d ad3e b749 993e e72b c83e
00000030: c4dd a43e a759 a83e bc20 253f 6bc3 de3e
00000040: 2d11 c93e 2d8c 9f3e 0b4b 8c3e 4fd9 8d3e
00000050: 8f5b 613e fc6a 0a3f e693 e73e 38a4 913e
00000060: ca8c 583e 51e7 a23e fff5 b33e 9c73 9f3e
00000070: be2a d33e 60c8 a63e 6079 c53e 07a2 b73e
00000080: 81aa a13e 6c1f ac3e ee20 273f 966d 153f
00000090: 319f c93e 8891 cc3e de55 743e 8cde 053f
000000a0: 4c95 9b3e 6608 da3e 35dd a73e fa15 993e
000000b0: d47a ae3e 232e c33e 81d4 fb3e eaaa a63e
000000c0: 88be bd3e ca43 093f f820 933e b9b6 2b3f
000000d0: 3e5c c13e cc18 963e d6a6 ab3e 9432 063f
000000e0: 5601 6a3e 2aa4 b33e 50f1 0d3f a244 c73e
000000f0: 7271 7f3e 8ed6 9c3e e82b d33e 88f7 a53e
0.7041887 0.34911773 0.62937653 0.26110947 0.32880908 0.332702 0.5223556 0.36841694
0.36241034 0.33909428 0.29939052 0.39095995 0.32200444 0.328809 0.64503074 0.43508467
0.39270917 0.31161633 0.27401003 0.27704856 0.22007583 0.54069495 0.45230025 0.284456
0.21147457 0.31817105 0.35148618 0.3114289 0.41243547 0.3257475 0.38569164 0.35865805
0.31575397 0.33617723 0.6528462 0.5837034 0.39379266 0.39954782 0.2386088 0.52292705
0.30387342 0.42584532 0.32785955 0.2989958 0.34078085 0.38121137 0.49185565 0.32552272
0.37059426 0.5361906 0.2873609 0.6707569 0.37765688 0.29315794 0.33525723 0.52420926
0.22852072 0.35086185 0.5544634 0.3891955 0.2494562 0.30632442 0.41244435 0.32415414

bias f4 [64]
00000000: 0483 eabe e0f1 fcbe ad24 b6be 0716 793d
00000010: 6c2e b4bd 3543 98bd e025 0c3d 2ca0 cebe
00000020: 75eb e4bd cf39 01bf 52c7 8ebe 53ac e2be
00000030: a0e3 afbe 801e cdbe 6ad6 7abe 50d6 52be
00000040: abe7 d1be 4ea0 25be 874d 84be dcfc 37bd
00000050: 15c1 8f3e a7ea 453d 20ff 003e 2bb5 d9bd
00000060: ae3a 32bf f0c9 9abe 1a58 313e 4af4 18bd
00000070: a07f 0dbf ea92 393d 4b6e d3bb 97fb 3ebe
00000080: e648 42be a770 a9be f445 8ebf afcb b5be
00000090: b7a2 38be 0fb5 6abe 3528 69bd c8a1 17bf
000000a0: 1346 73be 82ed 94be e86c f2bd 78d9 de3c
000000b0: 0775 013e 7441 0fbf 8929 16bf 79b9 3dbe
000000c0: f925 febe 3ce4 123e b2ef 7f3d 15ea 5ebf
000000d0: c954 b03c d2bf 563e 344a a0be 8422 94bd
000000e0: 4ede 1f3d 7b6f ccbd f875 70be b730 cebe
000000f0: 2dab 333d 2f0e 0f3e 8347 28bf 9cda bcbe
-0.45803082 -0.49403286 -0.35574856 0.060812023 -0.08797917 -0.07434694 0.034215808 -0.40356576
-0.11177722 -0.50478834 -0.27886444 -0.44272098 -0.34353352 -0.40062332 -0.24495855 -0.20589566
-0.4099706 -0.16174433 -0.258404 -0.04491888 0.28076997 0.048319485 0.12597322 -0.10630258
-0.6962079 -0.3023219 0.17318764 -0.037342347 -0.55272865 0.045306124 -0.006452357 -0.18650661
-0.18973121 -0.3309376 -1.1115098 -0.3550696 -0.18030821 -0.22920631 -0.05692311 -0.59231234
-0.237572 -0.29087454 -0.118371785 0.027203307 0.12642299 -0.5595925 -0.5865713 -0.18527783
-0.49638346 0.14344877 0.06248445 -0.8707593 0.021524804 0.20971611 -0.31306612 -0.07233146
0.039030366 -0.09982201 -0.23482502 -0.4027154 0.043864418 0.13970254 -0.6573412 -0.36885536

running_mean f4 [64]
00000000: 8f97 fd3e c9ed dabe e522 8dbc 1d54 d23e
00000010: 195e 083f 50a5 1dbe 449c 54be dc83 b23f
00000020: 1182 20bd 996c 003d d068 a13d 7629 4b3e
00000030: ebb3 103e 1b9c b9be 8696 61be 92c8 15be
00000040: 41fd 33be 6296 c5be 87aa 0b3e e937 533f
00000050: 149c 0bbf eee3 a5bf f45e 173f d782 4a3e
00000060: 2b83 9abd c7b1 dfbb 4cd0 963f 0877 47bf
00000070: 47aa 8abf d161 a13e 9ff4 403c 611e a3bf
00000080: 05f2 22bf 7979 8bbf 1542 a8be 532d c43d
00000090: 3b80 4abf 9109 35bf ed13 d73e 512d d33d
000000a0: f446 ddbc 977c b43d 0af9 1fbf 0d0c 063e
000000b0: 6ffd 463e 5195 72bf 5a9f 8f3e 0af1 1abf
000000c0: 5737 ccbe c6d3 6fbf 4ddd 193d 1f23 0abf
000000d0: 38fa 66be 4fa1 82bf f08f e83c 95f1 a73f
000000e0: fbac 3f3e 6e7c fe3e cccf 3e3e 88ca b1be
000000f0: 5783 d4be 31b8 f63c fda3 e5bd 6f9f 113e
0.49529693 -0.4275954 -0.017228553 0.41079798 0.5326858 -0.15395093 -0.20762736 1.394649
-0.03918654 0.031353567 0.078813195 0.19840035 0.14131133 -0.36251912 -0.22030076 -0.14627293
-0.17577077 -0.38591295 0.1363927 0.8250719 -0.5453503 -1.2960184 0.5912926 0.19776474
-0.075445496 -0.0068266126 1.1782317 -0.77916 -1.0833215 0.3151994 0.011777072 -1.2743646
-0.6365054 -1.0896446 -0.32862917 0.095789574 -0.79101914 -0.7071772 0.4200739 0.10311378
-0.027011372 0.08812826 -0.6248938 0.13090535 0.19432615 -0.9475909 0.28051263 -0.60524046
-0.3988597 -0.93682516 0.037564564 -0.5395984 -0.22556388 -1.0205477 0.028388947 1.31206
0.1871833 0.49704307 0.18633956 -0.34724832 -0.41506454 0.030117126 -0.11212919 0.14220975

running_var f4 [64]
00000000: d685 cf3d 2311 323d d84e 133e 86e0 a03d
00000010: d266 533d 18fb a43d d22e 983d 34c8 503d
00000020: 509b 943d e0fb 413d 5474 8a3c 1aea d13c
00000030: 3b35 1c3d 341b 2f3d 56ad f23d a9a7 303d
00000040: 17dd 203d a175 4c3d d27c 343d 64fb b43d
00000050: cfc8 603d fe75 c73d 80a6 bf3d 2b80 563d
00000060: 5a6e a73c 3a1c 403d bc69 953d 8009 9f3d
00000070: 3bf3 9d3d 24d7 253d b745 883d 8e90 863d
00000080: e7b6 7d3d 08b6 d83d cca3 883d 58fc 9e3d
00000090: e4e1 f13d dc21 3a3d f637 433d 9e24 543d
000000a0: 9711 b53c 3c0d 5a3d 0c0a 963d fc9c 6c3d
000000b0: df70 9c3d 06f0 b83d 7ba0 713d c849 793d
000000c0: 265e 863d 9dee b63c 698f 743d bf57 843d
000000d0: 2210 373d 20dd ad3d 5a9b 013d 8138 063e
000000e0: 2656 fc3c 3859 1a3d 90e4 853d de61 6c3d
000000f0: d7c3 483d 1bb7 683d 03ad 863c 9548 9e3c
0.10132949 0.043473374 0.14385545 0.078553244 0.05161173 0.08055705 0.07430805 0.05097218
0.07256186 0.047359347 0.016901173 0.025624324 0.038136702 0.042750552 0.118494675 0.043128643
0.039273348 0.049916867 0.04406435 0.088370115 0.054879006 0.09739302 0.09357929 0.052368324
0.020438362 0.04690192 0.07295558 0.07765484 0.07712408 0.040488377 0.06653922 0.0657054
0.061942007 0.10581595 0.06671867 0.077629745 0.11810663 0.045442447 0.04766079 0.051792733
0.022103114 0.053235278 0.07326135 0.0577669 0.07638716 0.09030156 0.058990937 0.06086138
0.06560926 0.022330577 0.05970708 0.06462049 0.04469312 0.08489442 0.031642295 0.13107492
0.030802798 0.037682742 0.065377355 0.05771052 0.049014892 0.056815248 0.01643992 0.01932172

weight f4 [64, 64, 3, 3]
00000000: cd79 b73e 0a43 963d b73a 623d 955f 4abe
00000010: ab6e 5ebd eef4 b1bd 32ef 97be f873 a5be
00000020: efff 48be dffb 383d 13a7 07be 9e45 d4bd
00000030: 93ca 743d 32b0 0cbe 02ba 47bd 07c4 1a3e
00000040: 045c 4fbd 07e1 36be 54d2 c43c 9407 2d3e
00000050: 071f f1bd b6bb 83bd b5ab 553e 6dd7 dfbd
00000060: 833e 653e d3e8 a2ba c28c 06bc 8932 4bbd
00000070: 094b 823e 015f 9f3d 1ff2 69bd ae34 adbe
00000080: 883d 88be 25f3 2e3c 791e bdbc 1c16 e13d
00000090: f34b bfbc f0bd 113f f3b2 6bbe 0984 b13e
000000a0: e324 783e f19b 8bbe 4d32 9ebd e4f3 24bd
000000b0: 4548 bdbd f2f0 b1bc 741a bd3c 1532 e2bc
000000c0: f7e8 3f3e 566a 95bd 18b4 623e 8162 16be
000000d0: bade 2c3d 635c 8abd 5d55 0b3d 163a fe3d
000000e0: d4cc b73d 2024 bcbd 84ad c9bd b45a 16be
000000f0: 179b 08be ecd7 c0ba b179 04bd c14e cdbd
00000100: 9a77 36be 7203 0f3e e152 1b3d 067e a73d
00000110: 0b74 eebe 1a1e d93c a2b9 083f 2c5f 963d
00000120: 6794 02be 0b17 1fbd 7012 253d 7a30 d2bc
00000130: 2a82 e4bd f0cb 0a3e 19de 8ebe 7a10 a1bd
00000140: 8c12 29bd 1a96 803e 7a96 bb3e 9692 83bd
00000150: c4b5 0f3e dcae 97bf 4cc9 8f3e 3bee 753e
00000160: c7d3 2d3f be3a bfbe 25ec cebd e671 44bd
00000170: f506 6e3e 1cb0 01be 7350 11be 3dd9 9c3e
00000180: 89b3 6bbd 4efe 50be 7f48 653d 2fa2 fc3c
00000190: 57d2 d03e a8ee 0cbd 5eee b2bd 864b d7bd
000001a0: 6cba c63a 5c8c e13c f720 dcbd f9d4 1d3d
000001b0: c789 be3e 31a8 99be 121f 33be 6031 c53e
000001c0: c01d 8abd 302e 1ebe eaaf 7d3e ad31 d4bd
000001d0: 6792 32be ab88 ccbd 36ac dcbd 44bd 99bd
000001e0: a3aa 553d c078 bf3e fa8e 2c3c 0e1a adbd
000001f0: 30a0 7d3d d8cb 17be 8194 f7be 4d28 693d
00000200: 5846 443d 70c0 bfbe 6609 943e ad33 3b3e
00000210: 257d bbbe 83d6 013e f099 8e3d 3933 d53d
00000220: 18b7 823d b2f1 0fbc ed05 32be 0076 ccbd
00000230: 9fd0 0abe 3bf2 873e e49f 823e 3759 d5bd
00000240: 0fab b3bd f9d8 e23e 6f3c 313e a6c1 463d
00000250: 5e55 60be 8403 e73d 9b23 02be 833e 61be
00000260: ac06 5abd dc0e dbbc 4244 debd e550 ca3d
00000270: b998 26be 15c1 3dbe c72a 703e 31ce 0fbe
00000280: 013c 0fbe 0896 303e 4531 883d ea9c a83b
00000290: 3e0e da3d 9114 96bd 82ff 24be 7020 503d
000002a0: cae0 08bd 7f28 fc3d 47be 80bd db99 74bd
000002b0: 360e c03c 68b4 9f3d 1493 d7bd 5e77 07bd
000002c0: 33a2 cebe a400 8dbb c6b8 00bd 0930 13bb
000002d0: 6dba 363e 0bf0 c8be c530 333d 3f55 f7bd
000002e0: 9c5c 663e 1330 28be ea63 5ebe da96 f7bc
000002f0: cf09 92bd c1bf 2a3d c398 323e 7179 3b3e
00000300: 4220 e83d e741 cebc 2faf cabe 5687 13be
00000310: a12f 99bc 9c6f e13d 645e 54bc 2d24 cfbe
00000320: a51d 6f3e 59bf cc3d 9b5e 8d3e 5682 15be
00000330: 7c56 4c3e 1cba 98bd 0bf7 63bc e64c cdbc
00000340: 7569 eabd ef55 e2bd a276 6cbe c5e0 e239
00000350: 6037 e3bc eb8c 543e 2b66 033e 03e0 44be
00000360: 3a5e e0bc 5cfa 093e 0da3 b2bd 81bc 1abe
00000370: 2be3 123c deb5 2f3e 7756 b23d b1d6 15bd
00000380: 0731 a63b b646 ec3d 620f b43d cd32 873e
00000390: f38f 3d3d c377 22be 2052 34be f660 573d
000003a0: 1910 37be 738f 313d d575 c33d 38e0 213e
000003b0: 68a3 d53d 686c b33c ea9b 743d ed0b d73c
000003c0: 76b2 a8bc 5059 b1ba 005d af3d 75fa a8be
000003d0: 8c64 96bd 415d abbd 3bfc a2bd b3ac b2be
000003e0: e631 273e fb45 03be 1718 66ba 767c 1ebe
000003f0: b846 44be 9991 4dbe d6b4 27be dfcd 60be
0.35835114 0.073370054 0.055231776 -0.19763024 -0.05430476 -0.08689295 -0.2967468 -0.3231504
-0.19628881 0.045162078 -0.13247328 -0.10364841 0.059763502 -0.13739088 -0.048761375 0.15113841
-0.050624862 -0.17859279 0.024026074 0.16897422 -0.11773496 -0.064322874 0.20866282 -0.10929761
0.22387128 -0.0012429006 -0.00821227 -0.04960874 0.25447872 0.077817924 -0.05711567 -0.33829254
-0.26609445 0.010678087 -0.02308582 0.10990545 -0.023351645 0.56930447 -0.23017482 0.34671047
0.24232821 -0.2726741 -0.07724438 -0.040271655 -0.092423 -0.021721337 0.023083903 -0.027611772
0.18741213 -0.072956726 0.22139013 -0.14686014 0.042204596 -0.067559026 0.034016956 0.12413423
0.08974615 -0.09186578 -0.098475486 -0.14683038 -0.13340412 -0.0014712787 -0.032342616 -0.10024787
-0.17819062 0.13966158 0.037920836 0.08178334 -0.4657291 0.026503611 0.53408253 0.07342371
-0.12751924 -0.038840335 0.040300786 -0.025657881 -0.11157639 0.13554358 -0.27903822 -0.07864471
-0.041277453 0.25114518 0.36638242 -0.064244434 0.14034182 -1.1850238 0.28083265 0.24016659
0.6790127 -0.37349504 -0.10103635 -0.047960185 0.23244841 -0.12664837 -0.14190845 0.3063449
-0.057544265 -0.2040951 0.05597734 0.030839054 0.40785477 -0.034407288 -0.08736871 -0.10512452
0.0015161759 0.027532749 -0.10748475 0.038533185 0.3721449 -0.30011132 -0.17492321 0.38514233
-0.067439556 -0.15447307 0.24774137 -0.103610374 -0.1743866 -0.09987005 -0.10775034 -0.07506803
0.052164685 0.37396812 0.010532135 -0.08452235 0.061920345 -0.14823854 -0.48355487 0.0569232
0.047918648 -0.37451506 0.2891342 0.18281431 -0.36618915 0.12679486 0.06962955 0.104101606
0.063825786 -0.008785652 -0.17385073 -0.09983444 -0.13556145 0.26551995 0.25512612 -0.10417407
-0.08772861 0.44306162 0.1730821 0.04852452 -0.21907565 0.112799674 -0.12708895 -0.21996503
-0.05322902 -0.026740484 -0.10852863 0.09878711 -0.16269197 -0.18530686 0.23453818 -0.140435
-0.13987733 0.17244732 0.066500224 0.0051456587 0.10647248 -0.073281415 -0.16113093 0.050812185
-0.0334175 0.123124115 -0.062862925 -0.05971704 0.023444276 0.07798082 -0.105261 -0.03307282
-0.40358123 -0.004303055 -0.031426214 -0.002245905 0.17844553 -0.39245638 0.043747682 -0.12076806
0.22496265 -0.16424589 -0.21717802 -0.030223299 -0.07130777 0.041686777 0.17441086 0.18308045
0.11334278 -0.025177909 -0.3958678 -0.14407095 -0.018699469 0.11007616 -0.012961958 -0.40457287
0.23351152 0.09997434 0.2761124 -0.146005 0.19954866 -0.074573725 -0.01391388 -0.025061082
-0.114458956 -0.11051547 -0.2309213 0.00043273545 -0.027736366 0.20756881 0.12831943 -0.19226079
-0.02738868 0.13474411 -0.08722506 -0.15110971 0.008965294 0.1715922 0.08707898 -0.0365817
0.0050717625 0.115369245 0.087919965 0.26405945 0.04627986 -0.15865998 -0.17609453 0.052582704
-0.17877235 0.043349694 0.09543959 0.15808189 0.10431558 0.021902278 0.059719004 0.026250804
-0.02059291 -0.0013530646 0.0856266 -0.33003584 -0.073433965 -0.08367396 -0.079582654 -0.34897384
0.16327628 -0.12819664 -0.00087773934 -0.15477166 -0.19167602 -0.20075072 -0.16377577 -0.21953534

bias f4 [64]
00000000: 75f4 e43e 66c0 8bbe e7ae 423e 0523 4dbe
00000010: a90e a7bc 1479 c1be af48 803a b1c8 0c3d
00000020: 6974 43be 5a4f 2a3e 100f 5bbd 9337 b43d
00000030: bbef a6bd 6db8 ea3d ab75 633e 2036 84bd
00000040: f434 b43e a994 4bbe 531d b33c 1229 43bd
00000050: 4290 5ebe eaec 143e 1667 42be 2cbb 203e
00000060: 8623 af3e 7d76 f63d fe09 3cbe 343f 0cbd
00000070: 0b26 773b ecf8 1c3d 2cd0 c6bd d196 9bbe
00000080: 9e44 a8be fde0 013e af13 d8be 035a 83be
00000090: f7bd 803e dc30 05bc e55a 373e 5524 273e
000000a0: 96a9 013e 4e81 40be 066b 8abe 9589 03bf
000000b0: 8c98 273d 899b 793d 2815 e1bd b7a9 123e
000000c0: 41b8 9a3c 3555 f4be a400 a6bd fc0e 14be
000000d0: 8f76 87bd ee48 92be b075 bbbe fb06 22be
000000e0: 86d9 eebd 52c6 d3be 8296 6e3e 432f dc3e
000000f0: 2604 303e 721f 043e 85ab 27be 56cf 8d3e
0.44717756 -0.27295226 0.19012032 -0.2003289 -0.020392733 -0.37787688 0.0009787286 0.03437108
-0.19087376 0.16631833 -0.05348116 0.087996624 -0.08151194 0.11460958 0.22212856 -0.06455636
0.3519665 -0.19880928 0.021864569 -0.04764659 -0.21734717 0.145435 -0.18984637 0.156964
0.3420679 0.120343186 -0.18363187 -0.034239963 0.0037711884 0.038323328 -0.097076744 -0.303885
-0.3286485 0.12683482 -0.42202517 -0.2565461 0.25144932 -0.008129325 0.17905767 0.16322453
0.12662348 -0.18799326 -0.27034777 -0.5138181 0.040916964 0.060939346 -0.10990363 0.14322554
0.018886687 -0.47721258 -0.08105591 -0.14458841 -0.0661441 -0.28571266 -0.36613226 -0.15822975
-0.11662583 -0.41362244 0.23299602 0.43004808 0.17189083 0.1290262 -0.16374023 0.27697247

weight f4 [64]
00000000: 2abe 1a3f 2bdc ea3e 5ad4 063f b3f6 a63e
00000010: 64db 2b3f 4c41 ed3e bcf8 9e3e 65b5 3c3f
00000020: 25c9 1d3f 1a64 053f 27d5 3d3f 6b8c b23e
00000030: 1d4f 2a3f af55 563f 7061 b53e faf5 993e
00000040: 853e dd3e c0dc 213f d54e ac3e d776 b93e
00000050: 7aa9 b33e 8259 aa3e 51ac 9f3e 9e07 c53e
00000060: 7fef 043f 611e 1c3f 28a7 943e 521b 383f
00000070: 1832 143f 9712 f23e 9060 fd3e 13a5 da3e
00000080: 53e9 e53e 5eb7 c13e 75cd b83e eebb e83e
00000090: 53c0 c13e ac3f 243f ebbe 003f 1495 273f
000000a0: 56fe 8d3e 07f7 e63e 8617 c3be f974 1b3f
000000b0: 94e6 f23e 32d8 253f 03df 413f e32a be3e
000000c0: d83b 303f 4d4c bf3e 4abd 073f 7c9c a73e
000000d0: b708 323f b5e7 373f 3336 c93e 63c0 1e3f
000000e0: af41 be3e 4c0e f73e 9b95 ad3e 380d 313f
000000f0: 0474 503f 4c30 a93e 3885 2f3f 4974 143f
0.6044642 0.458711 0.5266777 0.32610092 0.6713164 0.4633888 0.31049144 0.73714286
0.6163505 0.5210587 0.7415337 0.34872755 0.6652697 0.8372449 0.354259 0.30070478
0.4321176 0.6322746 0.33653894 0.3622348 0.35090238 0.33271414 0.31186154 0.38482374
0.5192794 0.60983855 0.2903378 0.7191669 0.57888937 0.47279808 0.49487734 0.42704067
0.44904575 0.3783521 0.3609425 0.4545588 0.37842044 0.64159656 0.5029132 0.6546185
0.27733105 0.45110342 -0.38103884 0.6072536 0.47441542 0.6478301 0.75730914 0.37142095
0.68841314 0.373629 0.5302321 0.32736576 0.6954455 0.7183793 0.39299163 0.6201231
0.37159488 0.48253095 0.33903202 0.69160795 0.81427026 0.3304466 0.6856265 0.5798994

bias f4 [64]
00000000: c214 83bf aa55 433e 57b6 7dbe c419 adbd
00000010: 3c48 2cbe 09b2 18bf 4dde 61bb a849 8ebe
00000020: 5e49 bdbe 9614 31bf 0cdc babd de1c 82be
00000030: d98b 22be 3566 17bf a04b bfbc 2af1 07be
00000040: d0a3 d1be 06ac 0c3e f86d 923d c285 a93c
00000050: 5156 6bbe 8b89 ac3e 888b 163f f0a4 91bd
00000060: e606 403d 0990 2ebd 1606 463e c24d 9abe
00000070: e764 f7be d9f6 53be 5387 3fbf c412 7bbe
00000080: 3601 c2be 93a7 9ebd 35f8 a7be fd64 183d
00000090: 87bd 073f 4eb7 8abe f07c 2abd 016d 96bf
000000a0: d80b 883e afb0 debe 4140 8dbe cafd cf3d
000000b0: 958d a6be 0269 80bf 9957 56be 6e55 7c3e
000000c0: eac5 dcbe 7161 70be fa29 bebe a5cb a3bd
000000d0: e6a5 7bbc 06ee 11bf 584f b2be 0f25 f7bd
000000e0: 73f4 cbbe 6953 93bd e4f6 5fbe e7e8 01bf
000000f0: 2692 f8bd 2281 38be cdba f8be 2594 20bf
-1.024071 0.19075647 -0.24776588 -0.0845218 -0.1682443 -0.5964666 -0.0034464777 -0.2779057
-0.36970037 -0.69172037 -0.09124002 -0.2541265 -0.1587366 -0.5914033 -0.02335149 -0.1327559
-0.40945292 0.13737497 0.07149881 0.020693664 -0.22982146 0.33698687 0.5880666 -0.071115375
0.04688158 -0.04261783 0.19338259 -0.3013745 -0.4831917 -0.20699634 -0.74815863 -0.24518877
-0.3789155 -0.07746806 -0.32806554 0.037205685 0.5302357 -0.27092975 -0.041623056 -1.1752015
0.26571536 -0.43494174 -0.27588084 0.10155828 -0.32529894 -1.0032046 -0.20931853 0.24641964
-0.43119746 -0.23474671 -0.371414 -0.079978265 -0.0153593775 -0.5700382 -0.3482616 -0.12067615
-0.39834937 -0.071936436 -0.21871525 -0.50746006 -0.121372506 -0.1801801 -0.48580018 -0.6272605

running_mean f4 [64]
00000000: 0604 223e 6ce5 cebf 8044 8fbf 8cd8 0dbe
00000010: 49cf 0fbf 4991 93bf dbf7 eb3f a8af 1fbf
00000020: 7fad 7dbf 29cf a8bf 0c6c cabf 9af9 68bf
00000030: 90a0 1abf d381 60bf 55ef b03d 8576 a73e
00000040: 4cf2 c0be 7bcc 92bf 1ce9 e1bd 5d08 233f
00000050: f175 2d3f 196d 0d3f 5f8b 76bf b7e7 723e
00000060: 8949 923d e87f d73f f525 f9be 61e6 7bbf
00000070: 053a b0be 85f5 8bbf 2357 573f cd0b a2bf
00000080: 304e a43d 5735 2cbf 8862 c43e 635b 91be
00000090: c7b9 463e cff2 48bf d16a 0140 2079 1dbf
000000a0: e8de 6dbf a649 aa3f e3fb 883e 6a65 ba3f
000000b0: b48a 42bf 87f1 ac3f aa86 c3bd ede4 8bbf
000000c0: c0b2 83bf ff76 d4bf 7cb7 6dbf 216d 23bf
000000d0: 1409 f8bf 7db9 063f 4b0b b5be e559 95be
000000e0: 6988 0cbe e9f3 b3bf 635e a4be 09da 1abf
000000f0: a406 c43f b18e eb3e 34f3 973e 24fd 023f
0.15821847 -1.6163764 -1.119278 -0.13852137 -0.5617567 -1.1528713 1.8435014 -0.62377405
-0.9909286 -1.318822 -1.5814223 -0.9100586 -0.6040125 -0.87698096 0.08639399 0.3270761
-0.37684858 -1.1468652 -0.1103079 0.63684636 0.6775809 0.55244595 -0.96306413 0.23721205
0.07142932 1.6835909 -0.4866177 -0.98398405 -0.34419265 -1.0934302 0.84117335 -1.2659851
0.080227256 -0.6726889 0.38356423 -0.28390035 0.19406806 -0.78495497 2.0221446 -0.6151295
-0.9291825 1.3303726 0.26754674 1.4562199 -0.75992894 1.3511208 -0.095471695 -1.0929238
-1.0288925 -1.6598815 -0.928581 -0.6383839 -1.937777 0.5262678 -0.35360178 -0.29170147
-0.13723911 -1.405881 -0.3210326 -0.60488945 1.5314527 0.46007302 0.29677737 0.5116751

running_var f4 [64]
00000000: 8a77 7c3e 29e7 6d3f e858 0a40 3625 6f3f
00000010: 1c16 f43f f528 883f 43c8 273f 71fb ae3f
00000020: d331 813f f671 7a3f acea c03f e392 c03f
00000030: ddc5 8e3f ed8b f43f d1ae a53f c750 413f
00000040: 0add 2f3f 8b7d ce3f b09a 8c3f 7101 4d3f
00000050: 1b3b 8e3f 2dcd 4b3f 0019 863f bf08 723f
00000060: d3cf b33f d6f3 f83f 3b62 573f 177d 953f
00000070: 5799 683f 5541 0a40 907c 5b3f fb93 9f3f
00000080: f522 343f 2200 973f b057 523f 3b1a 9e3f
00000090: dc8b b43f 1fa7 fe3f 6754 b43f bc4e 363f
000000a0: f27a cb3f b360 d33f 0b81 4e3f b141 ad40
000000b0: f731 613f 8189 4b3f b04b 6640 c542 b93f
000000c0: bb67 d83f 4d97 463f 7346 d83f 13b2 733f
000000d0: 1ef9 0240 2c21 0e40 6b89 063f 34e2 c23f
000000e0: 20ec ff3e fc72 963f 825f bb3f 94ac 063f
000000f0: 762e 993f e545 253f 78d1 ab3f 4816 5a3f
0.24654976 0.9293085 2.1616764 0.93416154 1.9069247 1.0637499 0.6553995 1.3670484
1.009333 0.9783014 1.5071616 1.5044826 1.1154133 1.9105202 1.2943975 0.7551388
0.68696654 1.6132063 1.0984707 0.80080324 1.1111788 0.7960995 1.0476379 0.94544595
1.4047798 1.9449413 0.8413426 1.1678799 0.9085898 2.1602376 0.8573694 1.2467035
0.7036584 1.1796916 0.8216505 1.2351755 1.4105182 1.9894751 1.4088258 0.7121389
1.5896895 1.6513885 0.80665654 5.414269 0.87966865 0.7950669 3.5983696 1.4473501
1.6906656 0.77574617 1.6896499 0.95193595 2.046455 2.2207747 0.52553433 1.5225282
0.49984837 1.175384 1.4638522 0.52607083 1.1967304 0.64559776 1.34233 0.8519025

weight f4 [64, 64, 3, 3]
00000000: 21e7 523d 24b4 493c f550 4c3e cd9b 62be
00000010: 1733 86be c46e bfbf 3110 17bd 7025 c43a
00000020: fe68 86bf 5dcb 3fbe a352 fc3d 2d6c 3d3e
00000030: 6edc c8bd 6d85 5c3d 53fb b53d b9bc c4bd
00000040: 935a 12bc df38 3ebe c405 90bd feb4 93be
00000050: 3be0 89be 4e18 87be c16f 8bbe 432a 29be
00000060: 3e3e 4a3e 39dc 34be 432e c5be 31a1 a7bd
00000070: 07e2 4dbd c267 45be 95d9 e1bd 49c5 37be
00000080: a371 83bd b2f2 a6be 187b cabe c50c e83d
00000090: 3760 a4b9 96c2 b1bd b285 b9be 9711 0a3d
000000a0: dd29 eb3d 6ff4 193e 0d4c f8bd 3c0b a1be
000000b0: a2fe a2be 81d0 303c a0f2 4d3e dd93 8ebe
000000c0: 6658 dd3c 2095 64bb f41c 58bd 3b1c 133e
000000d0: cdf0 f73d 6522 9a3d 08d0 803d 497e f93c
000000e0: b2ab 8d3e 6980 88be 143a 17bf a5e0 55be
000000f0: 9287 f8bd d53d b43d 9f04 39bc 762b 6c3e
00000100: 81b5 ce3d c6c1 e4bb 24aa 413e 44b7 8d3e
00000110: 3d43 0cbe c9c2 8cbe 868d b4bb 6384 ef3d
00000120: 263b a9be bd2f 0fbe 6b9b 27be 5a5c e7be
00000130: 3030 95bd 6c5f bfbd 8fc5 20bf 8749 d6be
00000140: 81e8 f5be bbdb 4abe 4563 c53d 45a2 f73e
00000150: 8796 8ebe 95d9 8bbe 2ebd 1c3e a3bd 93be
00000160: a6a5 dabd 4c85 953d 3124 253e 7a19 9abe
00000170: 277b da3d fa8e b6bd bca6 0c3d ae6d c4bd
00000180: f142 593e af45 423e e133 e5bd 8070 343d
00000190: 201c 99be 4060 713e 5f63 62be 1c7f d6be
000001a0: 7744 17be 0529 173e 74c4 a33d db6e 6ebd
000001b0: 4c8f 1a3e 4c10 56be 26d1 d43c b8c8 f33d
000001c0: c116 9f3d af6b 07be fd2c 11be 88a5 ecbd
000001d0: 670d cb3d ab62 10be 0bfd 803d 3af0 613e
000001e0: c09f c63d b1e8 5ebe 0b8f 363e fa6c cd3c
000001f0: d895 d8bd 23c4 3f3d ef66 a2bd 9e6a a5be
00000200: 8f4d 13bf d05f d93e 7080 debb 9463 e43d
00000210: 991b 86bd fced 0bbf ef7a 7a3e 09d1 57be
00000220: 3149 92be cef1 de3e 7474 293e 212a acbd
00000230: a26a dbbe 104d 483e 8c81 323f faf4 fcbe
00000240: 2955 e93e 02d5 0fbe 2ce8 99be 6b46 2e3e
00000250: 5919 4bbe 96b5 69be 0c70 d13e 4270 83be
00000260: efb1 60be 605e 163e 04ee dabc bb54 db3e
00000270: 5e06 6c3d 5ba5 9a3b 4afc 863e 5328 8fbe
00000280: b392 383e 1980 ce3d 3f3d f4bd 8fba f5be
00000290: 928f fb3b d1ea a2be 61b6 46bf 51a7 84bf
000002a0: c7ea ab3d 5bfe 84be 987d 80be 450b 2f3e
000002b0: 0a58 9b3d 7fa7 a9be 0d89 8c3d 46e9 0e3e
000002c0: 240f 883d 5cfb 1abe 4ff9 8ebe e182 fabd
000002d0: 3d07 993d 28c7 57bd 0509 f43c 272d a23e
000002e0: e588 c9bd c17d 923e b20b c63e 2359 e8be
000002f0: e378 08bd a40d 47be 0e46 3b3d 68de 573e
00000300: 2584 5c3e 06c4 0ebd fe66 323e f090 d43d
00000310: 0d1d e63c 420c d2bd 8030 81be 380a 8fbd
00000320: d5b6 5bbe 45c2 bdbd 445e 133e a59c 903e
00000330: 53a9 4dbe eb40 1d3e c279 333e 98aa 093e
00000340: ab8a 7d3e f974 c23e 4e3f bbbe 3677 013e
00000350: 02ca abbd 9473 a0bd a818 8e3e 49cc 8c3e
00000360: 3b67 fc3d de63 24bd 8eb7 ba3c 6b53 c1bd
00000370: c04f 51bc 1c2a b23d 0937 86bd da6f 7bbe
00000380: e829 56be 3bb8 c4bd 5ed6 56be 3c46 1ebf
00000390: dd98 b8bb d11a 273c a772 99be 7498 cf3c
000003a0: 86aa 04be 6514 0cbf de4d 5ebe 0f81 34be
000003b0: f754 933d d4bf 7c3e c7e3 f1bd 7f3d 113d
000003c0: bd6d 8a3e e4db 05be b0e3 133e 3c9f 35be
000003d0: c282 873d 5ba1 313e b355 72be 5c46 0d3e
000003e0: 2fbf 08bc 54d7 733e 15ce 00be b212 8f3e
000003f0: c254 093f 81b7 3a3e 41c0 a93e 83db 0e3d
0.051489953 0.012311015 0.19952758 -0.22129746 -0.26210853 -1.4955678 -0.036880676 0.001496477
-1.0500791 -0.1872992 0.12320449 0.18498297 -0.098076686 0.053838182 0.08885827 -0.096063085
-0.008932727 -0.18576382 -0.0703235 -0.28849024 -0.26928887 -0.2638573 -0.272337 -0.16520028
0.19750306 -0.17662133 -0.38511857 -0.08185042 -0.050264385 -0.19277862 -0.110278286 -0.17946352
-0.06418159 -0.32607037 -0.39547038 0.113305606 -0.00031352203 -0.086796924 -0.36234814 0.03370818
0.11482594 0.1503465 -0.121238805 -0.31453884 -0.31834894 0.010791899 0.20112085 -0.27847186
0.02701969 -0.0034878924 -0.052761987 0.14366238 0.12106476 0.075260915 0.06289679 0.030455725
0.27670056 -0.2666047 -0.59072995 -0.20886476 -0.12135233 0.08800856 -0.011292606 0.23063454
0.10093213 -0.0069811074 0.1891256 0.27678883 -0.13697524 -0.2749236 -0.005510035 0.11695173
-0.3305294 -0.13983054 -0.16367881 -0.45187646 -0.07284582 -0.09344372 -0.6280145 -0.41852972
-0.4802895 -0.19810383 0.09638075 0.4836599 -0.27849218 -0.2731444 0.15306541 -0.2885562
-0.10676126 0.07300815 0.16127087 -0.30097562 0.10668021 -0.08913989 0.034338698 -0.09591232
0.21216942 0.18971895 -0.11191536 0.0440526 -0.2990427 0.23571873 -0.2210822 -0.41893852
-0.14772211 0.14761741 0.07996455 -0.05821119 0.15093726 -0.20904654 0.025978636 0.119035184
0.07768012 -0.13224672 -0.14177318 -0.1155501 0.09914666 -0.14100139 0.06298264 0.22064295
0.09698439 -0.21768452 0.17828004 0.025076378 -0.105754554 0.04681791 -0.07929789 -0.32307905
-0.5754022 0.42455912 -0.0067902133 0.111518055 -0.065482326 -0.5466001 0.24460958 -0.21075834
-0.28571466 0.43543857 0.1654833 -0.08406473 -0.42854792 0.19560647 0.6972892 -0.49405652
0.45572785 -0.140461 -0.30059946 0.1701905 -0.19833888 -0.22823176 0.40905797 -0.25671583
-0.21942876 0.14684439 -0.026724823 0.42838082 0.05762326 0.004719419 0.26364356 -0.27960452
0.18024711 0.100830264 -0.11925744 -0.47993895 0.007677027 -0.31819776 -0.7762204 -1.0363561
0.083943896 -0.25975308 -0.2509582 0.17094143 0.075851515 -0.33135602 0.06862078 0.13956174
0.06643513 -0.15134948 -0.27924582 -0.122319944 0.07472084 -0.052680165 0.029789457 0.31675074
-0.09840564 0.28611568 0.38680798 -0.45380506 -0.03331841 -0.19438797 0.045721106 0.21080935
0.21534784 -0.03485491 0.17422101 0.10379207 0.028090024 -0.10256244 -0.25232315 -0.06984371
-0.21456464 -0.092655696 0.14391428 0.2824451 -0.20084123 0.15356795 0.17526916 0.13443983
0.24759929 0.37979868 -0.36571735 0.12643132 -0.08388139 -0.07834545 0.27753186 0.27499607
0.12324377 -0.040134303 0.022792604 -0.09439739 -0.012775362 0.08699438 -0.06553466 -0.24554387
-0.20914423 -0.09605452 -0.20980212 -0.6182592 -0.005633457 0.010199265 -0.29970285 0.02534125
-0.12955675 -0.5471862 -0.21709391 -0.17627357 0.0719394 0.24682552 -0.11811023 0.035459038
0.2703685 -0.13072163 0.14442325 -0.17736524 0.06616737 0.17346708 -0.23665504 0.13796371
-0.008346363 0.2381261 -0.12578614 0.2794395 0.53644955 0.18234064 0.3315449 0.03487731

bias f4 [64]
00000000: fd03 73be 2a80 b13d 700f 34bd 6f04 f53c
00000010: e8e0 6bbd 587b 41be e061 f8bc 5958 a03c
00000020: 97dc 83be 2df9 803e fa58 f3bc a0cb dfbd
00000030: 1ec3 573e 650d 11be 147f 603e f4c3 5f3e
00000040: c8a5 f33e 2e86 48bd b239 7a3d bb5f 89be
00000050: 5b08 d43b 6c00 963e 7d2a babd 29ad 6d3e
00000060: 7fc7 36be ff98 893d 9c58 48bd da33 08be
00000070: c10d 313c 9411 923e 69d0 093e d891 b6bd
00000080: 842d ad3d 8b17 0bbe 6c59 bfbc 83ae 65be
00000090: 7536 15be 0cf5 3d3e 4e1a bd3c 0b73 063d
000000a0: 457a 94bb deb1 2abe b95d 91bd 70a7 cc3c
000000b0: 5327 fe3d 685e 833d 5786 80bd 1243 10be
000000c0: 1a95 7fbe 0b97 a4be 2a12 2abe 5f2c 113e
000000d0: 7504 563e e1ac 043e a15d 4a3d 5e30 c7bd
000000e0: ea57 2fbe 840d b7bb f9c8 143d 0086 1fbe
000000f0: 21e9 67be e4e6 7bbe a6f1 393b 431c a3be
-0.2373199 0.086670235 -0.043960035 0.02990934 -0.057587534 -0.18894708 -0.030320108 0.019573377
-0.25754234 0.25190106 -0.029705513 -0.1092751 0.21070525 -0.14165266 0.21923476 0.21852094
0.4758742 -0.04895609 0.06109018 -0.2683085 0.0064707226 0.29297197 -0.09090135 0.23210587
-0.17849539 0.06718635 -0.04891263 -0.1330103 0.010806502 0.28529036 0.13458408 -0.08914536
0.08455947 -0.135832 -0.02335807 -0.22429852 -0.14571555 0.18550509 0.023083832 0.032824557
-0.004531177 -0.16669413 -0.07097954 0.024982184 0.12409844 0.06414491 -0.06275623 -0.14088085
-0.24959221 -0.32146487 -0.16608492 0.14177082 0.20900138 0.12956573 0.049405698 -0.09726022
-0.1712338 -0.005586328 0.036324475 -0.1557846 -0.22647525 -0.24599797 0.0028372793 -0.318575

weight f4 [64]
00000000: fa54 ae3e 1a43 f03e c55c b73e 2ef2 9d3e
00000010: c9db 463e 4659 de3e 917b 893e a43c 053f
00000020: 7d00 a33e f44b 303e f794 983e d678 b53e
00000030: df0f 1e3e d431 c83e 9e8f 2e3f 8d5c a93e
00000040: b3b0 073f 206a 9c3e 0f43 a23e 7196 e53e
00000050: 7b69 543e 3fb0 d03e 7d22 8c3e 6683 443e
00000060: ccd9 823e fb1e 383f a354 823e 80dc bc3e
00000070: 2e99 f13e e847 1e3f 657b 943e 16f8 513e
00000080: 6179 1b3f 5a81 903e 7a4b 793e 0552 f53e
00000090: a67c cf3e 68af 923e 21c0 1e3f 7b09 803e
000000a0: 2c4d d93e 7c36 de3e 5efe 0d3e ee2a 693f
000000b0: 129f 6b3e 1d8c cd3e 5344 023f aba4 c93e
000000c0: 2d4f db3e 4a40 d83e 8554 553f a8ca d23e
000000d0: b539 333e 4fa3 f13e 3010 bc3e c2a3 ee3e
000000e0: d54f 843e 9fe8 0a3f 761f 463e 6f50 323e
000000f0: 3b95 d43e f0ba d13e 95d3 303f 6187 ef3e
0.34049207 0.46926194 0.35812965 0.3084883 0.19419779 0.43427485 0.26852086 0.52045655
0.3183631 0.17216474 0.2980115 0.35443753 0.15435742 0.39100516 0.6818789 0.33078423
0.53003997 0.30549717 0.31691787 0.4484134 0.20743363 0.40759465 0.27370062 0.1919075
0.2555679 0.7192227 0.25455198 0.36886978 0.4718718 0.6182847 0.29000393 0.20504794
0.60732085 0.28223687 0.24345198 0.47914138 0.40524787 0.2864945 0.62011915 0.25007233
0.4244169 0.43400943 0.13866565 0.9108113 0.230099 0.4014596 0.50885504 0.39383444
0.42833844 0.4223655 0.8333209 0.4117024 0.17502482 0.47194907 0.367311 0.46609312
0.25842157 0.542612 0.19347939 0.17413495 0.41520104 0.40962934 0.6907285 0.46782973

bias f4 [64]
00000000: dde2 96be f47b 45be 5883 a0be e663 87bd
00000010: cf3e 97bd 9cfb eebd 9ce3 35be 61ba 18bf
00000020: ec4e 163e 646b 1b3d d8b7 ebbd a58c 10be
00000030: 3f8c 223d 75d9 34be 5c53 bdbe 0d60 cdbc
00000040: 82d3 83be 81fd 38be 95fa 96be 0d2d d4bd
00000050: 5c4d a8bd ebdc 2abe 1b05 82bd b06a b5bd
00000060: 62dc 8abd 893d d2be 229d b6bd 3271 0fbf
00000070: b12c afbe de28 b1bd ae4b 743e c88c c83d
00000080: 3380 96be 8644 19bd b143 73bd 979c a33c
00000090: 02c2 c4be 8d61 adbe 184f 18bf a92c bcbd
000000a0: 228b 933d 5115 b9be c519 dabd b988 93bf
000000b0: 9d56 4c3d e91b 86bc 5de0 a8be aa49 edbe
000000c0: 2dac debe 2cc1 16be 2470 b4be 2108 3ebe
000000d0: a474 21bd 6d21 0a3d 7f21 08bf 4bfb eabe
000000e0: 3a30 8fbd 8295 4b3c 1953 4ebd b22e 613c
000000f0: bdf8 0bbf 4df0 1abe bf06 acbd 5c3e 86bd
-0.29469958 -0.19285566 -0.31350207 -0.06610851 -0.07385027 -0.116690844 -0.17762607 -0.5965939
0.14678544 0.037944213 -0.11509675 -0.14116152 0.03968453 -0.17661078 -0.3697766 -0.025070215
-0.25747305 -0.18065454 -0.29488054 -0.10360155 -0.0821788 -0.16685836 -0.0634863 -0.0885824
-0.06780316 -0.41062573 -0.089166895 -0.560321 -0.34213784 -0.08650373 0.23856995 0.09792477
-0.29394683 -0.037418865 -0.059390727 0.019972129 -0.38429266 -0.33863488 -0.5949569 -0.09188206
0.07204272 -0.36149076 -0.106494464 -1.15261 0.04988729 -0.01637073 -0.32983676 -0.46345264
-0.43490735 -0.14722127 -0.35241807 -0.18557788 -0.039417878 0.033723284 -0.5317611 -0.45894846
-0.0699162 0.012425782 -0.050372217 0.013744043 -0.5467642 -0.1513073 -0.08399724 -0.06554863

running_mean f4 [64]
00000000: 0cc0 efbf 2423 8abf 4663 98c0 11dc 36bf
00000010: 6ada 6dbf fce8 16c0 d6c4 b0bf d971 39c0
00000020: 4f87 543f 97f3 6c40 c818 0ac0 9445 2ec0
00000030: 48f9 843f 51eb a9bf 57bb 39bf 0e7c 60bf
00000040: a4ca 8d3e b1fa 4dbf e1ec aebf 450b 4fbf
00000050: 6eac 23be 83e7 db3e c0bf 0bc0 f8ec 60bd
00000060: c98f 4cbf 8e9f 03c0 31bd a3be b20a 0ec0
00000070: dea5 05c0 d361 ab3e e0b5 953e a774 3bbe
00000080: aed3 c8bf b476 ecbe 8490 eabf f5e2 e8be
00000090: df32 febf 484e 18c0 5f4b c2be e4ac 1fc0
000000a0: 5219 ccbf 2799 06c0 fbe5 a0bf 8043 98bf
000000b0: eabc 4fbf de89 7fbf 4ea8 d9bf 5eb8 89c0
000000c0: 17d0 02c0 82fb 12c0 3172 c7bf 71cf fcbf
000000d0: 9b8f 32bf d564 06bf 05d8 18c0 f128 52bf
000000e0: adf8 33c0 ed08 d9be 92c6 ee3f a3c3 c6be
000000f0: e1e5 3bc0 3385 3ac0 1841 f73f e167 b0be
-1.8730483 -1.0791974 -4.7621183 -0.71429545 -0.929114 -2.3579702 -1.381007 -2.8975737
0.83018965 3.7023675 -2.1577625 -2.7229967 1.0388575 -1.3274938 -0.7255148 -0.8768929
0.27693665 -0.8046065 -1.366604 -0.8087657 -0.15983745 0.42950067 -2.1835785 -0.05491349
-0.799069 -2.0566134 -0.3198028 -2.2194028 -2.0882487 0.3347307 0.29240322 -0.18306218
-1.56896 -0.46184313 -1.8325353 -0.45485654 -1.9859275 -2.379778 -0.3794813 -2.4949274
-1.5945227 -2.1030977 -1.2570184 -1.1895599 -0.81147635 -0.99819744 -1.7004488 -4.3037558
-2.0439508 -2.2966008 -1.5581723 -1.9750806 -0.69750375 -0.5249761 -2.3881848 -0.8209372
-2.812053 -0.42389622 1.8654349 -0.38821134 -2.9359057 -2.9143798 1.931674 -0.34454253

running_var f4 [64]
00000000: 35dc 9440 b73d 2640 1ed9 6140 d920 b23f
00000010: 764a 8a40 d2a2 3840 dfb8 bd3f c62d f33f
00000020: 162e e240 144a 5540 6f11 1b40 daf5 5a40
00000030: 184c 6540 b2dc bc40 d23b e740 96d5 5c40
00000040: 2491 dd40 e8ed 5340 7adb 1840 4de2 0541
00000050: a646 1940 d309 d33f 974a 0140 10fa d63f
00000060: ba4d c340 22e4 b840 a439 1e40 dbd7 1d40
00000070: 8d41 2b40 3d39 c040 3dd0 0f40 7aa6 3541
00000080: c991 d540 ba5b 1840 e166 ba40 4d48 d63f
00000090: a072 d93f ed78 d83f 2874 fb3f 2a33 de3f
000000a0: 7ca3 c640 dbf4 0841 f144 983f f581 e440
000000b0: 7659 7640 e563 d940 3746 ab40 213e 0840
000000c0: 7e93 1440 d7d6 4e40 2793 0c41 97d7 7740
000000d0: 852b fb3f 8621 cb40 01cb b63f 4f3b f540
000000e0: f784 4f40 d49f f940 4c9f c83f 7167 0640
000000f0: c2fe 1040 b00c a040 eae8 6941 77d9 9f40
4.6518807 2.5975168 3.5288768 1.3916274 4.3215895 2.8849378 1.4822043 1.8998344
7.0681257 3.3326464 2.422939 3.4212556 3.5827694 5.9019403 7.2260523 3.4505363
6.9239674 3.3113956 2.3883958 8.367749 2.394937 1.6487373 2.0201776 1.6795063
6.103238 5.7778482 2.472268 2.4662998 2.675876 6.006987 2.2470849 11.353144
6.674046 2.3805985 5.8250585 1.6740814 1.6988106 1.6911904 1.9644823 1.7359364
6.2074566 8.559779 1.1896039 7.140864 3.8492103 6.793444 5.352321 2.128792
2.3215022 3.2318628 8.785926 3.8725336 1.9622656 6.347842 1.4280702 7.66349
3.2424905 7.8007603 1.5673614 2.1000636 2.2655492 5.001549 14.619364 4.995296
