models/vishal_lr_001_iter_300.pt_242_128.pt (torch_old, 776281 bytes, 39 tensors)

weight f4 [64, 1, 3, 3]
-0.20537353 -0.18291958 0.31150055 -0.113881096 -0.12476407 0.32869872 -0.26892102 -0.035736676
0.29834318 0.10124568 0.11722477 0.023387345 -0.24517035 0.299284 -0.01341778 -0.4903534
0.07842451 0.13860564 0.00011923164 -0.05165367 -0.025371179 -0.022006653 -0.057557628 -0.06599438
-0.08695571 0.09911482 0.03652267 -0.5576403 -0.25453258 -0.3610103 -0.56235045 0.11312134
-0.13391894 -0.054329544 0.69867456 0.37728724 -0.054806575 -0.11193515 0.04118187 -0.08702316
0.021784054 0.05416524 -0.039321054 0.0074304743 0.061972197 -0.06311236 -0.058334377 -0.05442229
0.30169278 0.17047237 0.1173977 0.069282 0.02528867 -0.040008858 -0.04427533 0.09833574
0.18151481 0.07498903 -0.48687807 -1.2628893 0.36719194 -0.097291656 -0.5049153 0.11386886
-0.22879867 0.16678028 0.21261984 -0.28807044 -0.038411282 0.15664965 -0.0329074 -0.08897486
-0.09212455 -0.068225026 -0.06139477 -0.075760886 -0.039587524 -0.032066643 0.083578944 -0.071450755
0.07422769 -0.22152613 0.17556284 0.0061933175 0.02760165 0.41236505 -0.40637904 -0.056186557
-0.014441556 0.054164194 -0.043839153 0.03414142 0.00018977374 -0.09324878 0.06872171 0.030959383
-0.07052688 -0.014524177 0.07356985 0.008154423 0.49924505 -0.1049649 -0.095796496 -0.21012653
-0.20255332 0.0749585 -0.26937652 0.2613965 -0.002142027 0.0074252635 -0.0034067482 -0.0601396
-0.009180054 0.01455456 0.061365128 0.0906623 -0.050676037 0.10433444 0.013471159 -0.059610505
-0.33386442 -0.52307993 -0.062155027 0.25053892 0.1607006 0.43837905 -0.39281452 0.3450059
0.19393538 -0.040698852 -0.35839453 0.23257539 0.4653185 -0.24057446 -0.20519294 -0.31173757
0.29917267 -0.07772647 -0.2465357 0.4649957 0.090647645 -0.30839816 0.19117382 -0.083187506
-0.5319578 -1.5870446 0.13123052 -1.1181138 -2.454859 -0.46312335 0.13646668 -0.37433136
0.20785779 -0.1705369 -0.20322344 -0.16327219 0.044942513 0.12466397 0.42866948 -0.23506588
0.06935644 0.10147683 0.0017066475 0.19108349 -0.3132733 0.14946754 0.45316 -0.47697255
0.05662938 0.31307405 -0.36898857 -0.9134059 -0.28383353 0.30864903 0.15009837 0.5634005
0.2369917 0.18256398 -0.28736597 -0.69717383 -0.2256171 -0.22898036 0.099202566 0.16559947
0.70582896 -0.3735059 -0.1107901 0.08234915 -0.11831199 -0.27625102 0.06511901 0.07094265
0.23215821 0.38113987 0.19966364 0.049204186 -0.42068577 -0.29712763 -0.10200394 -0.1614111
0.18711178 -0.2670884 -0.35873896 -0.1870976 0.28902736 0.31227165 0.29843718 -0.12823229
-0.046527173 0.06606084 -0.05591133 -0.08794427 -0.041005053 0.061755393 0.055097695 -0.025869124
-0.086798824 -0.9231396 0.1856365 -0.5984272 -1.9231577 -0.09857959 0.1527801 -0.19783223
0.263735 0.007362291 -0.0981914 -0.08366195 0.09644605 -0.060445827 0.04886949 -0.0021747723
-0.0039110184 -0.075164 0.3655983 0.16180548 0.18660451 -0.19998333 -1.2237784 -0.07969175
0.13994434 -0.49363443 0.25121644 -0.020255273 0.11786837 -0.046053674 -0.38629362 -0.028714376
0.2783256 0.21406034 0.15256338 -0.3164526 0.41396376 -0.20958738 -0.16906127 0.16986439
00000000: 704d 52be 454f 3bbe 007d 9f3e 7e3a e9bd
00000010: 4e84 ffbd 334b a83e 04b0 89be 9f60 12bd
00000020: 70c0 983e e559 cf3d 8a13 f03d d196 bf3c
00000030: f00d 7bbe c13b 993e 40d6 5bbc 9a0f fbbe
00000040: 089d a03d a3ee 0d3e 000c fa38 cc92 53bd
00000050: 38d7 cfbc 4c47 b4bc 8cc1 6bbd 1028 87bd
00000060: d615 b2bd b6fc ca3d cc98 153d 84c1 0ebf
00000070: 1852 82be 58d6 b8be 33f6 0fbf 29ac e73d
00000080: 0c22 09be a888 5ebd 56dc 323f cb2b c13e
00000090: dc7c 60bd 423e e5bd 52ae 283d 3339 b2bd
000000a0: 7974 b23c 5fdc 5d3d 1d0f 21bd 567b f33b
000000b0: 8fd6 7d3d 0e41 81bd 07f0 6ebd e8e9 5ebd
000000c0: 7a77 9a3e 4f90 2e3e 356e f03d b9e3 8d3d
000000d0: 2f2a cf3c 54e0 23bd 0c5a 35bd 4064 c93d
000000e0: 05df 393e d993 993d 1548 f9be 5ba6 a1bf
000000f0: 9500 bc3e d940 c7bd 2142 01bf 1434 e93d
00000100: 334a 6abe 73c8 2a3e 04b9 593e f87d 93be
00000110: 2655 1dbd c468 203e e9c9 06bd 7438 b6bd
00000120: ccab bcbd 90b9 8bbd 1579 7bbd 8628 9bbd
00000130: 8726 22bd 5058 03bd 702b ab3d c654 92bd
00000140: b004 983d bfd7 62be bfc6 333e 50f1 ca3b
00000150: db1c e23c 8321 d33e ea10 d0be e023 66bd
00000160: 479c 6cbc 46db 5d3d af90 33bd e0d7 0b3d
00000170: 00fe 4639 37f9 bebd f8bd 8c3d 889e fd3c
00000180: 6670 90bd d0f6 6dbc caab 963d 219a 053c
00000190: 0c9d ff3e d6f7 d6bd f430 c4bd 692b 57be
000001a0: 236a 4fbe d883 993d b8eb 89be c3d5 853e
000001b0: 4061 0cbb a04f f33b c043 5fbb f154 76bd
000001c0: f067 16bc 4076 6e3c 005a 7b3d 28ad b93d
000001d0: ad91 4fbd 4bad d53d 23b6 5c3c 252a 74bd
000001e0: 47f0 aabe 91e8 05bf 4596 7ebd a346 803e
000001f0: b38e 243e 3873 e03e fc1e c9be 9da4 b03e
00000200: ff96 463e d7b3 26bd 7d7f b7be 3e28 6e3e
00000210: 3a3e ee3e 2759 76be 191e 52be 119c 9fbe
00000220: 292d 993e 0e2f 9fbd db73 7cbe eb13 ee3e
00000230: 79a5 b93d 5de6 9dbe 12c3 433e 365e aabd
00000240: 632e 08bf 4724 cbbf 4b61 063e 5a1e 8fbf
00000250: 691c 1dc0 811e edbe ecbd 0b3e 5ca8 bfbe
00000260: acd8 543e 3aa1 2ebe ce19 50be d330 27be
00000270: a415 383d d34f ff3d 917a db3e 1cb5 70be
00000280: c00a 8e3d 16d3 cf3d 96b1 df3a 64ab 433e
00000290: 5c65 a0be 050e 193e 9604 e83e bf35 f4be
000002a0: 35f4 673d 3e4b a03e 12ec bcbe f8d4 69bf
000002b0: a152 91be 3f07 9e3e 63b3 193e 043b 103f
000002c0: f4ad 723e 0df2 3a3e a221 93be fc79 32bf
000002d0: 2b08 67be d479 6abe b72a cb3d e892 293e
000002e0: 35b1 343f 2a3c bfbe ece5 e2bd aca6 a83d
000002f0: 8e4d f2bd c670 8dbe 1e5d 853d 614a 913d
00000300: e2ba 6d3e c424 c33e a074 4c3e 548a 493d
00000310: 2064 d7be 1d21 98be 71e7 d0bd f448 25be
00000320: 3b9a 3f3e d0bf 88be a2ac b7be 8396 3fbe
00000330: 65fb 933e 12e2 9f3e c2cc 983e 534f 03be
00000340: 4793 3ebd e84a 873d 4703 65bd 201c b4bd
00000350: eaf4 27bd 39f3 7c3d 1fae 613d 7ceb d3bc
00000360: 95c3 b1bd e052 6cbf 7f17 3e3e 8632 19bf
00000370: 082a f6bf 19e4 c9bd 6372 1c3e 8894 4abe
00000380: 4608 873e 603f f13b 9318 c9bd f556 abbd
00000390: 8285 c53d 0b96 77bd 602b 483d a086 0ebb
000003a0: 0028 80bb 95ef 99bd b32f bb3e 56b0 253e
000003b0: 4115 3f3e 6ec8 4cbe c5a4 9cbf 6e35 a3bd
000003c0: 924d 0f3e a7bd fcbe 719f 803e 63ee a5bc
000003d0: f964 f13d c7a2 3cbd 47c8 c5be 693a ebbc
000003e0: b180 8e3e a232 5b3e 9339 1c3e 1306 a2be
000003f0: 0ff3 d33e 139e 56be 661e 2dbe eef0 2d3e

bias f4 [64]
0.009341355 0.03673982 -0.0965341 0.017179336 -0.30797106 -0.2711729 0.20544203 0.095609434
-0.192253 0.04866283 -0.3296674 0.10068347 -0.21703395 0.04030035 0.06715338 -0.016003566
0.29282218 0.027379837 -0.032202527 0.071172625 0.0515354 0.018881274 0.015001033 -0.10194345
0.30676886 -0.091956705 0.16366084 0.10796404 0.009232169 0.044694193 0.023106059 0.11957118
0.07588529 -0.27808854 0.03370435 0.06842382 0.016112842 0.0769341 0.09278619 -0.052494913
0.22713482 0.06636353 0.06537 0.049252532 -0.18661413 0.14845012 -0.2616417 0.024253469
-0.6569118 -0.1536086 0.0912681 0.017886989 -0.296229 -0.29615843 -0.08662689 -0.09405727
-0.3094654 0.04235326 -0.0882581 -0.70783323 0.037224714 0.22298755 -0.048226245 -0.15811834
00000000: 7c0c 193c 7e7c 163d acb3 c5bd aebb 8c3c
00000010: 62ae 9dbe 2dd7 8abe 655f 523e e1ce c33d
00000020: f8dd 44be ad52 473d 2aca a8be 2333 ce3d
00000030: 263e 5ebe fb11 253d b687 893d e919 83bc
00000040: caec 953e ae4b e03c cce6 03bd f4c2 913d
00000050: c916 533d e7ac 9a3c e5c6 753c bac7 d0bd
00000060: cf10 9d3e cc53 bcbd b596 273e 401c dd3d
00000070: 8642 173c 4211 373d eb48 bd3c bce1 f43d
00000080: bf69 9b3d 9f61 8ebe 930d 0a3d ca21 8c3d
00000090: 14ff 833c a08f 9d3d b006 be3d e804 57bd
000000a0: 0896 683e 9ae9 873d b5e0 853d 06bd 493d
000000b0: c617 3fbe 4f03 183e e7f5 85be 36af c63c
000000c0: 5f2b 28bf 934b 1dbe c5ea ba3d bc87 923c
000000d0: 54ab 97be 14a2 97be 7069 b1bd 19a1 c0bd
000000e0: 4072 9ebe 9d7a 2d3d aac0 b4bd 8f34 35bf
000000f0: f178 183d d956 643e e288 45bd c6e9 21be

weight f4 [64, 64, 3, 3]
0.010145958 0.32042333 -0.3797924 0.3589094 0.12796313 -0.47456256 0.2302054 0.17909499
0.025375737 0.052386813 0.008000185 0.000662165 -0.3463264 -0.42542574 -0.05075657 0.12824368
-0.11674847 0.13376844 -0.034374386 0.02582182 0.054533005 0.042488776 0.045233317 -0.06772606
0.056195363 0.06150925 -0.013306569 0.03699045 0.3630299 0.085882455 0.044920746 -0.123251535
-0.4536256 -0.34635362 0.31014773 0.25595227 -0.021233346 -0.011849567 -0.056065902 0.08786239
-0.0015246699 -0.025330696 0.04889071 -0.089165986 0.07169059 0.005049469 -0.40103063 -0.35622245
0.37036568 0.22429651 -0.3305046 0.47351962 0.3665355 -0.21125747 -0.087881714 -0.72056377
-0.07298051 0.8565744 -0.52726537 -0.018043313 -0.2720952 -0.8895499 0.016765596 0.20767815
0.5451315 0.09819257 -0.5228818 0.24885702 -0.41382363 -0.10856877 0.07522071 -0.024952559
0.0364352 -0.046121586 0.0026985556 0.04989493 0.061604604 0.053515837 -0.05305852 -0.037186347
0.062122807 0.084358044 -0.05226275 0.47224778 -0.15447 -0.36355034 -0.09916639 0.13841759
0.05977887 -0.02332415 0.06300557 0.070484474 0.06775883 -0.04893432 0.04748489 0.02012521
0.04042144 -0.05982656 0.039316334 -0.029466711 0.72884834 0.32239977 -0.27206147 -0.17122015
0.19241309 -0.46561894 -0.41530678 0.060364727 0.0020680055 0.05624664 0.03800013 -0.034617316
-0.025469664 0.0040575117 0.004133597 0.052998066 -0.05877162 -0.08092819 -0.39709717 0.19956511
-0.007976474 0.05483953 0.06328587 0.31595868 0.0863626 -0.20308276 0.067377925 0.08257377
0.045108978 0.019427733 -0.049929526 -0.08352747 -0.18986991 0.016812589 0.02323067 0.031366307
-0.03094675 -0.025524238 0.007953444 0.013796731 0.07338327 -0.017709022 -0.08967875 0.42160213
-0.54054403 -0.28412867 -0.3824818 0.33107075 0.6445781 0.16858359 0.4704193 0.32752433
-0.277723 -0.0076126056 0.13442352 -0.08356355 -0.007390425 -0.19265449 -0.21752417 -0.083270095
-0.14050163 -0.14901128 -0.11167081 0.0072117997 0.02641225 0.57135004 0.2665092 -0.14941917
0.57755846 0.35327247 -0.23800534 -0.08740401 0.14443347 -0.108006835 0.35142738 -0.3325306
-0.21886373 0.8967246 -0.27333984 -0.013828045 -0.0009997999 -0.05485882 0.45132515 -0.11061828
-0.18271907 -0.38741565 0.20216183 0.15078165 -0.043104712 0.07960109 0.27450556 0.00605767
-0.31095123 -0.36892802 0.101183176 -0.06570513 0.06278136 -0.03139509 -0.3222801 0.078885056
0.2457429 -0.19698665 0.078104146 -0.18553287 0.089382224 0.31549713 -0.18569289 -0.021435361
-0.034667477 -0.042320028 0.02047906 0.07047991 -0.019221159 0.03304866 -0.05974836 -0.029067663
-0.14173034 -0.33553872 0.15350106 -0.23699732 0.28428426 -0.2863423 0.21270749 0.047127023
0.31257057 -0.060400695 -0.031201214 -0.029383074 0.03590942 0.057702005 0.03867113 -0.017393876
0.029189013 -0.039672103 0.03620451 0.14209615 -0.1252586 0.14063157 0.48411202 -0.04189754
-0.54091185 -0.4541818 -0.21517439 0.32469186 -0.030134926 0.5111287 -0.44821787 -0.32492638
0.07374488 -0.0780408 -0.30419728 0.1765704 0.3745295 -0.08094152 -0.057990357 -0.2786322
00000000: 3b3b 263c 870e a43e 2674 c2be f9c2 b73e
00000010: c408 033e ddf9 f2be f7ba 6b3e ad64 373e
00000020: c7e0 cf3c 8e93 563d 3513 033c 2495 2d3a
00000030: b251 b1be 67d1 d9be 1fe6 4fbd 5052 033e
00000040: d219 efbd 98fa 083e 28cc 0cbd 4888 d33c
00000050: 005e 5f3d b608 2e3d 9246 393d f6b3 8abd
00000060: 1c2d 663d 20f1 7b3d cc03 5abc 4c83 173d
00000070: 0edf b93e 24e3 af3d d1fe 373d 4d6b fcbd
00000080: 9d41 e8be 4355 b1be afcb 9e3e 2d0c 833e
00000090: 8ef1 adbc b024 42bc 5ca5 65bd 32f1 b33d
000000a0: 6fd7 c7ba 5282 cfbc a041 483d a89c b6bd
000000b0: 84d2 923d 0476 a53b e353 cdbe ca62 b6be
000000c0: 92a0 bd3e fcad 653e e637 a9be 2a71 f23e
000000d0: 8baa bb3e e153 58be 54fb b3bd de76 38bf
000000e0: ce76 95bd 7648 5b3f ddfa 06bf 92cf 93bc
000000f0: 1050 8bbe 8bb9 63bf 0158 893c 95a9 543e
00000100: bd8d 0b3f 3019 c93d 95db 05bf 60d4 7e3e
00000110: b1e0 d3be 4e59 debd 510d 9a3d 4f69 ccbc
00000120: 143d 153d fde9 3cbd 40da 303b a05e 4c3d
00000130: 1c55 7c3d 6c33 5b3d e453 59bd b650 18bd
00000140: 7c74 7e3d e9c3 ac3d 7711 56bd 76ca f13e
00000150: 622d 1ebe 4523 babe c017 cbbd 57bd 0d3e
00000160: b0da 743d 4a12 bfbc 1009 813d 2a5a 903d
00000170: 24c5 8a3d 5b6f 48bd 847f 423d a0dd a43c
00000180: f490 253d b20c 75bd 2a0a 213d 2c64 f1bc
00000190: ce95 3a3f 9511 a53e a44b 8bbe 5654 2fbe
000001a0: f007 453e 9b65 eebe 17a3 d4be 0141 773d
000001b0: 6087 073b e062 663d 06a6 1b3d e3ca 0dbd
000001c0: c2a5 d0bc e0f4 843b 2073 873b 8014 593d
000001d0: 83ba 70bd aebd a5bd 5250 cbbe cc5a 4c3e
000001e0: c2af 02bc 6a9f 603d 069c 813d 56c5 a13e
000001f0: e0de b03d edf4 4fbe 70fd 893d 701c a93d
00000200: 31c4 383d e926 9f3c e782 4cbd 7310 abbd
00000210: 426d 42be 8eba 893c 3f4e be3c f579 003d
00000220: 0a84 fdbc 3518 d1bc 294f 023c af0b 623c
00000230: f849 963d 8312 91bc 7ea9 b7bd 3cdc d73e
00000240: 1861 0abf 5079 91be a8d4 c3be 1b82 a93e
00000250: 1203 253f 2da1 2c3e ccda f03e 45b1 a73e
00000260: b631 8ebe 2a73 f9bb 52a6 093e 5e23 abbd
00000270: 612b f2bb 3847 45be a8be 5ebe 8389 aabd
00000280: a9df 0fbe 6a96 18be aab3 e4bd f650 ec3b
00000290: 815e d83c ff43 123f e573 883e 5701 19be
000002a0: dfda 133f 21e0 b43e acb7 73be e000 b3bd
000002b0: 5ee6 133e b032 ddbd 4aee b33e 7341 aabe
000002c0: d01d 60be be8f 653f 33f3 8bbe 068f 62bc
000002d0: b80b 83ba a4b3 60bd 1714 e73e d68b e2bd
000002e0: b51a 3bbe 585b c6be 8303 4f3e 8166 1a3e
000002f0: 918e 30bd e505 a33d fe8b 8c3e 6b7f c63b
00000300: 0035 9fbe 22e4 bcbe 2039 cf3d 6990 86bd
00000310: 8393 803d 2398 00bd e601 a5be 7d8e a13d
00000320: 07a4 7b3e deb6 49be 11f5 9f3d 54fc 3dbe
00000330: 070e b73d d788 a13e 4726 3ebe 3699 afbc
00000340: 7cff 0dbd c457 2dbd b4c3 a73c c557 903d
00000350: b175 9dbc 085e 073d b2ba 74bd 4f1f eebc
00000360: c221 11be bbcb abbe 622f 1d3e 6daf 72be
00000370: b58d 913e 759b 92be fecf 593e 4408 413d
00000380: 4009 a03e b866 77bd b099 ffbc c6b4 f0bc
00000390: c215 133d f058 6c3d 9e65 1e3d 9a7d 8ebc
000003a0: cc1d ef3c 377f 22bd 2e4b 143d a781 113e
000003b0: ca43 00be b901 103e 88dd f73e c19c 2bbd
000003c0: 3379 0abf 848a e8be ad56 5cbe 033e a63e
000003d0: 85dd f6bc 55d9 023f d07c e5be c05c a6be
000003e0: 8e07 973d dbd3 9fbd bfbf 9bbe dfce 343e
000003f0: 55c2 bf3e abc4 a5bd 4c87 6dbd e1a8 8ebe

bias f4 [64]
-0.2046108 0.41423413 -0.19754602 0.14786957 0.006418119 0.50777066 0.38202128 -0.024254104
0.2673177 0.25292528 0.29450554 -0.34867322 -0.084712304 -0.047116958 -0.16781461 -0.676342
0.18315244 0.2027262 0.12509552 0.23477821 0.4032454 -0.32833228 0.44841114 0.20622139
0.22671402 0.15677182 -0.038326193 -0.3814572 -0.102295734 0.27423754 0.5917808 0.08914595
-0.03495893 -0.23639978 0.22527681 -0.1114104 0.011018639 0.37939885 0.56860846 0.10197923
0.41241062 0.19801687 0.10763913 0.44252402 -0.4411131 -0.11985368 -0.37552795 -0.034453258
-0.53866154 -0.023050012 -0.3511951 0.016409118 0.28255594 -0.07908788 -0.020812187 -0.35370973
0.30743667 -0.61228937 0.22197677 0.42888802 0.15502225 0.09278807 -0.19459939 -0.21584153
00000000: 7e85 51be 7f16 d43e 8149 4abe 1f6b 173e
00000010: 164f d23b 42fd 013f 4b98 c33e 8bb0 c6bc
00000020: dedd 883e 6c7f 813e 6ec9 963e 4c85 b2be
00000030: a57d adbd b6fd 40bd 98d7 2bbe c024 2dbf
00000040: 508c 3b3e 7597 4f3e 0a19 003e b369 703e
00000050: 2e76 ce3e 2b1b a8be 2596 e53e b32b 533e
00000060: b827 683e cb88 203e edfb 1cbd 5c4e c3be
00000070: 6d80 d1bd dd68 8c3e f27e 173f 2792 b63d
00000080: 1831 0fbd c912 72be f7ae 663e 232b e4bd
00000090: 8687 343c 9140 c23e 5390 113f 7dda d03d
000000a0: 7c27 d33e efc4 4a3e e771 dc3d 8292 e23e
000000b0: 94d9 e1be d975 f5bd 3345 c0be dc1e 0dbd
000000c0: b9e5 09bf 61d3 bcbc d8cf b3be 6a6c 863c
000000d0: 2cab 903e d4f8 a1bd 527e aabc 7119 b5be
000000e0: 5768 9d3e ffbe 1cbf e14d 633e 3697 db3e
000000f0: 27be 1e3e ac07 be3d 1045 47be 9005 5dbe

weight f4 [64]
0.5463502 0.5789765 0.53176683 0.66137516 0.5882207 0.8080716 0.55636656 0.42605135
0.6817516 0.355712 0.6720552 0.4276642 0.6776372 0.81648105 0.39795303 0.433052
0.44720477 0.91959274 0.50389427 0.62741256 0.5418332 0.8603081 0.5806994 0.7005984
0.4825868 0.52660036 0.5777274 0.44582623 0.79937184 0.47138572 0.49037504 0.55385065
0.8997387 0.530623 0.63051724 0.59205526 0.59994847 0.7447306 0.6061663 0.5157831
0.36850145 0.59130466 0.46675387 0.5398973 0.7716215 0.66861904 0.6222262 0.59241337
0.6902128 0.6715338 0.45657757 0.45296243 0.5059169 0.4869007 0.6096149 0.6484043
0.4936195 0.36957794 0.53660905 0.58600134 0.5551316 0.58756286 0.58846664 0.5413397
00000000: 9bdd 0b3f ce37 143f df21 083f e24f 293f
00000010: a295 163f c8dd 4e3f 0a6e 0e3f 6723 da3e
00000020: 4687 2e3f e21f b63e cf0b 2c3f cdf6 da3e
00000030: a279 2d3f e704 513f 80c0 cb3e feb8 dd3e
00000040: 06f8 e43e 6e6a 6b3f 37ff 003f 1c9e 203f
00000050: 95b5 0a3f 273d 5c3f b7a8 143f 6b5a 333f
00000060: 9e15 f73e 48cf 063f f1e5 133f 5643 e43e
00000070: a2a3 4c3f 7859 f13e 7012 fb3e 28c9 0d3f
00000080: 4755 663f e9d6 073f 9469 213f ef90 173f
00000090: 3996 193f aaa6 3e3f b72d 1b3f 5c0a 043f
000000a0: 39ac bc3e be5f 173f 5dfa ee3e b636 0a3f
000000b0: fd88 453f 9e2a 2b3f 374a 1f3f 67a8 173f
000000c0: c9b1 303f a4e9 2b3f 89c4 e93e b1ea e73e
000000d0: c583 013f 0c4b f93e b90f 1c3f d3fd 253f
000000e0: b2bb fc3e 5239 bd3e 365f 093f 2f04 163f
000000f0: 1b1d 0e3f 856a 163f c0a5 163f 3d95 0a3f

bias f4 [64]
-0.08330529 -0.5728682 -0.11030522 -0.1400276 -0.4339035 -0.7601445 -0.2707341 -0.020841083
-0.1783339 -0.049422186 -0.37017664 -0.5782023 0.012396358 -0.38067842 -0.26381898 -0.30422795
0.15047573 -0.11376611 0.044955134 -0.21083194 0.07602896 -0.41484734 0.20460594 -0.270259
0.28444135 -0.12000463 -0.23729697 -0.23358046 -0.07745433 0.17343806 -0.21040031 -0.23441695
-1.4199142 0.003093486 0.14308548 -0.36922267 -0.16485666 -0.31084248 0.17910452 -0.55976546
0.24603407 -0.24851894 -0.03474853 -0.24502032 -0.21340126 -0.5162232 -0.24067947 -0.5130713
-0.26767993 -0.43275347 0.7533419 -0.06961188 -0.3873538 -0.2501632 -0.22368544 -0.24746259
-0.14782517 -0.03879094 -0.3363543 -0.095680736 0.043595094 -0.35460377 -0.4689675 -0.41742733
00000000: f79b aabd 7ea7 12bf b4e7 e1bd 6563 0fbe
00000010: 9928 debe d498 42bf a99d 8abe ebba aabc
00000020: 299d 36be eb6e 4abd cb87 bdbe 1105 14bf
00000030: 181a 4b3c 48e8 c2be 4813 87be c4c3 9bbe
00000040: 4f16 1a3e 35fe e8bd e022 383d 54e4 57be
00000050: 12b5 9b3d df66 d4be 3884 513e 635f 8abe
00000060: 4ca2 913e fdc4 f5bd fafd 72be b72f 6fbe
00000070: 60a0 9ebd bf99 313e 2e73 57be ff0a 70be
00000080: c0bf b5bf 15bc 4a3b 0085 123e c10a bdbe
00000090: 2fd0 28be bf26 9fbe 2d67 373e ca4c 0fbf
000000a0: 5bf0 7b3e c07b 7ebe 7954 0ebd 9be6 7abe
000000b0: dc85 5abe 3427 04bf ae74 76be a458 03bf
000000c0: 580d 89be dd91 ddbe 04db 403f ac90 8ebd
000000d0: 3d53 c6be 6415 80be cc0d 65be d566 7dbe
000000e0: 7b5f 17be 40e3 1ebd a136 acbe 43f4 c3bd
000000f0: c590 323d a08e b5be 821c f0be 09b9 d5be

running_mean f4 [64]
-0.20291643 0.29318324 -0.30104655 -0.16450584 -0.3592612 0.37042466 0.4138532 -0.065857634
0.0061155823 0.17973916 0.12221633 -0.42673042 -0.31151628 -0.2081104 -0.46340266 -0.7969237
-0.11534848 0.03790361 -0.033033997 0.26442045 0.24682105 -0.5725979 0.255094 0.23436086
0.054662403 0.03408149 -0.2551757 -0.40624514 -0.27058935 -0.09894607 0.47587526 -0.11591535
-0.047230266 -0.66407245 0.030542152 -0.10214025 -0.077170886 0.27937976 0.45279598 -0.034823757
0.19395727 -0.009543166 -0.10662902 0.33764195 -0.62682754 -0.26080802 -0.458594 -0.22877987
-0.62411714 -0.008286179 -0.49811885 -0.24379934 0.011908144 -0.14889225 -0.26109013 -0.46317586
-0.1918902 -0.72251123 0.022901682 0.25846577 -0.053995647 -0.13832518 -0.70262927 -0.35739806
00000000: 53c9 4fbe 1d1c 963e c622 9abe 3874 28be
00000010: 16f1 b7be 4da8 bd3e 91e4 d33e 5ee0 86bd
00000020: 3965 c83b 8b0d 383e 8e4c fa3d 697c dabe
00000030: 107f 9fbe e51a 55be 1d43 edbe 3103 4cbf
00000040: d33b ecbd d140 1b3d a84e 07bd 1e62 873e
00000050: a8be 7c3e c795 12bf ae9b 823e 4bfc 6f3e
00000060: afe5 5f3d 0899 0b3d 64a6 82be 5dff cfbe
00000070: b08a 8abe 3da4 cabd eca5 f33e 0765 edbd
00000080: 8674 41bd a700 2abf 8933 fa3c e82e d1bd
00000090: c50b 9ebd dd0a 8f3e e0d4 e73e 5ba3 0ebd
000000a0: bc9c 463e f05a 1cbc 5160 dabd 68df ac3e
000000b0: c577 20bf a188 85be d5cc eabe 4545 6abe
000000c0: 24c6 1fbf c1c2 07bc 6f09 ffbe 89a6 79be
000000d0: 601a 433c 3677 18be 9bad 85be 6325 edbe
000000e0: dd7e 44be 7ff6 38bf 4f9c bb3c a055 843e
000000f0: 8a2a 5dbd 1ea5 0dbe 83df 33bf e1fc b6be

running_var f4 [64]
0.042264126 0.02153391 0.0693171 0.07580296 0.050761703 0.020862464 0.025805736 0.034507386
0.066349454 0.012843885 0.06459642 0.031272855 0.05435682 0.060322948 0.0281899 0.009414422
0.039863143 0.08140457 0.06067028 0.053885292 0.039362185 0.08035941 0.06130726 0.0415001
0.056719504 0.055098884 0.029563127 0.028855477 0.09971996 0.04598409 0.035347123 0.03374804
0.035284106 0.06726571 0.05106208 0.040004294 0.055180255 0.039307065 0.08967591 0.010419835
0.027511343 0.042943317 0.0400824 0.016040022 0.08741958 0.020986028 0.050835017 0.01962397
0.063394636 0.056018725 0.015755394 0.034196503 0.016184885 0.036018252 0.043563336 0.02618157
0.0441637 0.032625195 0.023197122 0.03445518 0.06756582 0.03438317 0.04481211 0.04311218
00000000: 261d 2d3d e267 b03c 20f6 8d3d 953e 9b3d
00000010: 81eb 4f3d c2e7 aa3c 8d66 d33c 9e57 0d3d
00000020: 39e2 873d 296f 523c 214b 843d f717 003d
00000030: 42a5 5e3d 3215 773d 81ee e63c f33e 1a3c
00000040: 8947 233d 70b7 a63d 6681 783d d3b6 5c3d
00000050: 3e3a 213d 7993 a43d 521d 7b3d 02fc 293d
00000060: b652 683d 5eaf 613d 5f2e f23c 5262 ec3c
00000070: fa39 cc3d d059 3c3d 25c8 103d 633b 0a3d
00000080: 1186 103d 9bc2 893d 7926 513d 8bdb 233d
00000090: b104 623d 7200 213d 01a8 b73d f5b7 2a3c
000000a0: 785f e13c 55e5 2f3d 712d 243d 5d66 833c
000000b0: 0909 b33d e4ea ab3c 6138 503d 73c2 a03c
000000c0: 0cd5 813d e473 653d 7511 813c a211 0c3d
000000d0: 2a96 843c e087 133d 786f 323d bb7a d63c
000000e0: ffe4 343d ffa1 053d e407 be3c e020 0d3d
000000f0: f35f 8a3d 5ed5 0c3d e78c 373d 6696 303d

weight f4 [64, 64, 3, 3]
0.20081422 -0.013818696 0.28092903 -0.03688496 0.089048795 0.065070406 0.30318776 0.2799511
-0.3848877 -0.11044529 -0.027070248 -0.09605409 -0.053683363 -0.052956816 -0.04185633 0.11552204
-0.6223603 -0.531209 -0.23460227 0.18303323 -0.28846356 -0.2784942 0.15095232 -0.48837787
-0.6475014 -0.6960559 -0.32584885 0.33373368 -0.019261729 0.32815215 -0.29565993 0.18387218
0.14474383 0.22812481 -0.0079361135 -0.35333008 -0.09535873 0.35676342 0.13818963 -0.124559954
0.06725013 0.06737366 -0.21462889 -0.18248029 -0.31375 0.0794766 0.36653596 0.29919887
-0.22846812 0.017591633 -0.17276911 0.22636424 -0.026147233 -0.06182605 0.053015903 0.12669146
0.027145507 -0.43064454 -0.12772869 -0.3004877 0.12999758 -0.00531786 0.3417382 -0.16250476
-0.2301901 -0.053704567 -0.27293852 -0.44990364 -0.31926265 0.17777346 -0.31746867 -0.68784994
0.37632108 -0.36530012 -0.20339327 -0.4659877 -0.644255 0.12391204 0.23836976 0.2609862
0.2953181 0.42154667 0.44891548 0.78028494 0.34811887 0.0031064092 0.5116564 0.25489244
0.0070015616 -0.5414174 0.11633775 -0.51276875 -0.6125893 -0.19077225 0.07565561 -0.51865077
0.19659688 0.57677656 -0.34140483 -0.19570209 -0.059316266 -0.16284232 -0.09043828 0.43682167
-0.1204703 -0.2645667 -0.1957194 -0.7925288 0.3333828 -0.13549635 -0.3647878 0.029508544
0.1787271 0.06912054 0.20289561 -0.1391977 0.20866458 0.5743871 -0.30678016 -0.17418642
-0.08119306 -0.4224894 -0.35314137 -0.07786669 0.22149065 0.099242814 0.011566856 -0.3214979
-0.60463923 0.1929471 0.12258948 -0.18805774 -0.41626355 0.035530876 0.21337394 -0.15218891
-0.00040826798 0.21051885 0.059574734 -0.2534822 -0.12530595 0.22497812 0.39625436 0.0048261355
-0.12249384 0.079999596 -0.208248 -0.016215216 -0.28964296 -0.3264673 0.20646442 -0.041141648
0.7845016 -0.06135084 -0.15423952 0.18378592 0.08384747 0.05048147 0.16677068 -0.0079417145
0.4530404 -0.32517806 0.252319 0.062842615 0.21016715 0.06689293 -0.017754195 0.17042248
0.008841422 -0.47610214 -0.050896905 -0.1603314 -0.027249826 0.39446723 -0.010149849 -0.16111617
-0.013702622 0.3647918 -0.05582625 0.010617545 0.29346228 0.17290147 0.5851922 -0.24538705
-0.019600295 0.102629445 -0.13473731 -0.3184957 0.052021462 0.19477516 0.30812797 0.24540222
0.1281144 -0.12237475 0.12070631 0.02940784 0.037802797 -0.56653875 0.12575632 -0.056499425
0.24899828 0.06571231 -0.104877524 0.13735236 -0.15486407 -0.27224702 0.38513577 0.040452156
-0.06364909 -0.036860775 0.22954573 -0.18002108 -0.2419795 -0.18950555 -0.29071283 -0.4507486
-0.27069053 0.14079818 -0.25870577 0.14137757 0.23142333 -0.10581177 0.13208923 0.32781348
-0.12839195 0.37620607 0.21975446 0.12659135 -0.1232914 -0.026745416 -0.04482171 0.017473176
-0.3455762 -0.16819017 0.15707321 -0.05111688 -0.23547299 0.05454199 -0.2413984 -0.22446668
0.05787547 -0.64989686 -0.18501882 -0.40595978 -0.11896842 -0.14034082 0.2383741 -0.24586292
-0.047149062 0.13483106 -0.27598637 0.2030794 -0.1650583 0.36771297 -0.15928154 0.04137345
00000000: 3ea2 4d3e d067 62bc eed5 8f3e af14 17bd
00000010: 375f b63d a243 853d 6d3b 9b3e c055 8f3e
00000020: 0010 c5be 2431 e2bd 6dc2 ddbc 02b8 c4bd
00000030: 16e3 5bbd 3fe9 58bd 8b71 2bbd d296 ec3d
00000040: 0153 1fbf 50fd 07bf 943b 70be 106d 3b3e
00000050: 7fb1 93be cb96 8ebe 3f93 1a3e aa0c fabe
00000060: a7c2 25bf b830 32bf a9d5 a6be 24df aa3e
00000070: c6ca 9dbc 8f03 a83e bd60 97be fd48 3c3e
00000080: ba37 143e 8d99 693e 7906 02bc aee7 b4be
00000090: 704b c3bd b2a9 b63e 9581 0d3e 4a19 ffbd
000000a0: 70ba 893d 34fb 893d adc7 5bbe 1ddc 3abe
000000b0: d7a3 a0be a1c4 a23d 9aaa bb3e 9830 993e
000000c0: 8cf3 69be 541c 903c 63ea 30be 07cc 673e
000000d0: b932 d6bc 503d 7dbd 3427 593d 68bb 013e
000000e0: 4160 de3c 717d dcbe 4fcb 02be 86d9 99be
000000f0: 161e 053e 7141 aebb 4ff8 ae3e a667 26be
00000100: f4b6 6bbe 52f9 5bbd 99be 8bbe c559 e6be
00000110: 6576 a3be 3f0a 363e 418b a2be ef16 30bf
00000120: 28ad c03e 9e08 bbbe 5346 50be f195 eebe
00000130: e5ed 24bf 98c5 fd3d 3417 743e fc9f 853e
00000140: ef33 973e f7d4 d73e 40d8 e53e c1c0 473f
00000150: a33c b23e e694 4b3b eafb 023f 4381 823e
00000160: 5b6d e53b 559a 0abf 7c42 ee3d d044 03bf
00000170: a7d2 1cbf cd59 43be 54f1 9a3d 4cc6 04bf
00000180: b150 493e a1a7 133f 9dcc aebe 2166 48be
00000190: 9df5 72bd 23c0 26be b437 b9bd 17a7 df3e
000001a0: 22b9 f6bd 4975 87be ab6a 48be 2be3 4abf
000001b0: 26b1 aa3e 8ebf 0abe 77c5 babe e7bb f13c
000001c0: 3d04 373e 128f 8d3d dec3 4f3e d889 0ebe
000001d0: 2bac 553e 080b 133f 4a12 9dbe ed5d 32be
000001e0: 8c48 a6bd 8850 d8be f2ce b4be 9278 9fbd
000001f0: 72ce 623e d13f cb3d e982 3d3c 5f9b a4be
00000200: a3c9 1abf ed93 453e 3110 fb3d 3592 40be
00000210: 7f20 d5be d388 113d b37e 5a3e 69d7 1bbe
00000220: cd0c d6b9 4192 573e a304 743d 6bc8 81be
00000230: 3450 00be aa60 663e dae1 ca3e 8f24 9e3b
00000240: 0dde fabd d4d6 a33d f73e 55be c6d5 84bc
00000250: 154c 94be b926 a7be 696b 533e 2584 28bd
00000260: 19d5 483f 054b 7bbd f7f0 1dbe 6032 3c3e
00000270: 39b8 ab3d a8c5 4e3d efc5 2a3e f71d 02bc
00000280: e9f4 e73e bd7d a6be f52f 813e a1b3 803d
00000290: 0f36 573e 29ff 883d 3f71 91bc 3b83 2e3e
000002a0: 9ddb 103c a9c3 f3be 4679 50bd ea2d 24be
000002b0: 073b dfbc 9cf7 c93e 8d4b 26bc a3fb 24be
000002c0: f680 60bc fec5 ba3e 11aa 64bd 36f5 2d3c
000002d0: b040 963e 150d 313e 28cf 153f be46 7bbe
000002e0: cc90 a0bc 632f d23d 94f8 09be de11 a3be
000002f0: 7514 553d 2473 473e f3c2 9d3e b84a 7b3e
00000300: 6c30 033e 9d9f fabd df34 f73d b6e8 f03c
00000310: 1bd7 1a3d af08 11bf 44c6 003e f16b 67bd
00000320: 68f9 7e3e 2d94 863d 07ca d6bd 19a6 0c3e
00000330: b094 1ebe f663 8bbe 8430 c53e 29b1 253d
00000340: 745a 82bd 53fb 16bd 090e 6b3e 7257 38be
00000350: 79c9 77be be0d 42be 50d8 94be 85c8 e6be
00000360: f397 8abe 662d 103e 1575 84be 48c5 103e
00000370: 3dfa 6c3e d7b3 d8bd 6642 073e 2bd7 a73e
00000380: 2e79 03be 159e c03e 5007 613e 2aa1 013e
00000390: 3480 fcbd 3419 dbbc f896 37bd e823 8f3c
000003a0: 5def b0be 0b3a 2cbe cdd7 203e ef5f 51bd
000003b0: d51f 71be 6c67 5f3d 2431 77be 98da 65be
000003c0: d40e 6d3d a45f 26bf 9375 3dbe f6d9 cfbe
000003d0: b7a5 f3bd 81b5 0fbe 5718 743e 7dc3 7bbe
000003e0: 601f 41bd 2711 0a3e 164e 8dbe 0cf4 4f3e
000003f0: 0b05 29be e044 bc3e b31a 23be 3577 293d

bias f4 [64]
0.20111142 -0.09636262 0.21504161 -0.19011217 -0.15161842 -0.02900502 0.16602571 0.004908174
-0.10474587 0.09724259 -0.17190377 0.12787801 0.1101408 0.1200739 0.19611774 -0.008112011
0.17708793 0.21591935 0.1579558 0.1343458 0.113207795 -0.14673728 0.0768908 -0.16144058
-0.0016599505 0.022479795 -0.07271988 0.013346528 -0.100813895 -0.37152153 0.16461948 0.10968557
0.19917393 0.2323124 -0.046416026 -0.19483332 -0.037845977 -0.114123024 -0.09553781 0.15407866
-0.041651256 -0.012179647 -0.025216388 -0.30082646 -0.11651401 0.045713723 0.11864872 0.20491137
0.28508335 -0.24443863 -0.14517307 -5.457483e-05 0.12933846 0.25064364 0.10992031 -0.64397377
-0.15701915 0.015425226 -0.33788764 0.28792888 0.2739107 0.06751906 -0.11820077 -0.00056855765
00000000: 27f0 4d3e c459 c5bd de33 5c3e c4ac 42be
00000010: dc41 1bbe f09b edbc a502 2a3e bfd4 a03b
00000020: 0185 d6bd 1f27 c73d 8b07 30be 74f2 023e
00000030: 8091 e13d 4ee9 f53d 17d3 483e 3de8 04bc
00000040: 8a56 353e f619 5d3e 2abf 213e f291 093e
00000050: 7dd9 e73d 4c42 16be ec78 9d3d ae50 25be
00000060: b292 d9ba 8c27 b83c 29ee 94bd 65ab 5a3c
00000070: 8477 cebd 1238 bebe 0292 283e d4a2 e03d
00000080: 40f4 4b3e 4de3 6d3e bb1e 3ebd 6382 47be
00000090: 6204 1bbd 55b9 e9bd 54a9 c3bd ccc6 1d3e
000000a0: 829a 2abd 248d 47bc 9992 cebc ed05 9abe
000000b0: e69e eebd 503e 3b3d 1afe f23d 49d4 513e
000000c0: 72f6 913e 1f4e 7abe 40a8 14be 47e7 64b8
000000d0: 4d71 043e 5d54 803e e61d e13d 77db 24bf
000000e0: a1c9 20be 16ba 7c3c 9cff acbe 6a6b 933e
000000f0: 063e 8c3e 6f47 8a3d 3f13 f2bd 420b 15ba

weight f4 [64]
0.6993089 0.35256124 0.67867684 0.476173 0.6199059 0.5575418 0.45056123 0.6079215
0.43622223 0.5076393 0.48809743 0.6521169 0.5026443 0.49418193 0.4475559 0.87393016
0.5571913 0.70975834 1.049081 0.40188286 0.67952055 0.5167698 0.4245339 0.83725
0.47413328 0.923513 0.8191235 0.4691797 0.588665 0.55745804 0.85671544 0.8712325
0.4681989 0.43681002 0.5370749 0.8513344 0.57562995 0.52437127 0.53839856 0.5867635
0.52401024 0.40267307 0.6975648 0.9977984 0.5069648 0.32913598 1.1706382 0.54195136
0.90861404 0.8369826 0.9980646 0.55446655 0.41954288 0.7024889 0.34322515 0.60305303
0.35459596 0.53978384 0.488624 0.67687154 0.97623354 1.1048675 0.6767223 0.57385826
00000000: e805 333f e882 b43e c4bd 2d3f f3cc f33e
00000010: 27b2 1e3f 0fbb 0e3f f6af e63e bea0 1b3f
00000020: 8558 df3e a6f4 013f e8e7 f93e 22f1 263f
00000030: 4cad 003f 6a05 fd3e 0c26 e53e e3b9 5f3f
00000040: 17a4 0e3f b9b2 353f 4948 863f 97c3 cd3e
00000050: 0ff5 2d3f 074b 043f 825c d93e 0456 563f
00000060: 99c1 f23e 596b 6c3f 14b2 513f 5238 f03e
00000070: c0b2 163f 92b5 0e3f b451 5b3f 1809 5f3f
00000080: c4b7 ef3e 90a5 df3e be7d 093f 0df1 593f
00000090: 7c5c 133f 323d 063f 7dd4 093f 2236 163f
000000a0: 8925 063f 2a2b ce3e 9b93 323f b76f 7f3f
000000b0: 72c8 013f 8384 a83e 79d7 953f 53bd 0a3f
000000c0: ee9a 683f 7e44 563f 2981 7f3f 85f1 0d3f
000000d0: 53ce d63e 50d6 333f 35bb af3e af61 1a3f
000000e0: 9a8d b53e 462f 0a3f ed2c fa3e 7447 2d3f
000000f0: 71ea 793f 4c6c 8d3f ac3d 2d3f 60e8 123f

bias f4 [64]
0.010620442 0.1026784 0.04142097 0.013592376 0.15730922 -0.9049672 -0.31397155 0.07431271
0.14346695 -0.06376995 -0.3193912 -0.22271074 -0.041759655 0.029558707 0.18144983 -0.014523428
-0.39972383 -0.4088694 -0.36649734 0.5938647 -0.084550984 0.14544809 -0.047335077 -0.15172224
-0.34086183 -0.10348265 -0.39618963 -0.6121326 -0.60724604 0.06334887 -0.16436301 -0.19697742
0.19783416 -0.072081864 -0.120907344 -0.31020167 -0.038268402 0.14912544 -0.20812248 0.05628605
-0.037586946 -0.1331415 -0.12753642 -0.31424662 -0.05801347 0.17333254 -0.41022927 -0.093438536
-0.16425043 -0.22606033 -0.28402388 -0.4391986 0.2249644 -0.21741109 0.73614395 -0.06060064
-0.11726148 -0.11779383 -0.11820616 -0.14066316 -0.36988458 -0.52673733 -0.48392424 0.073785715
00000000: 5d01 2e3c 0e49 d23d 09a9 293d 8fb2 5e3c
00000010: ab15 213e eeab 67bf e1c0 a0be 4331 983d
00000020: 00e9 123e d299 82bd 3e87 a3be 490e 64be
00000030: 2c0c 2bbd 1a25 f23c fccd 393e acf3 6dbc
00000040: 9aa8 ccbe 5457 d1be 8aa5 bbbe 8407 183f
00000050: 1129 adbd 58f0 143e 6de2 41bd 135d 1bbe
00000060: 7185 aebe b6ee d3bd 5ed9 cabe b9b4 1cbf
00000070: 7a74 1bbf 0dbd 813d c74e 28be 73b4 49be
00000080: 0a95 4a3e a89f 93bd 459e f7bd c1d2 9ebe
00000090: 54bf 1cbd 57b4 183e 0f1e 55be 338c 663d
000000a0: c5f4 19bd 3f56 08be e898 02be efe4 a0be
000000b0: 889f 6dbd 167e 313e 9209 d2be b45c bfbd
000000c0: 4431 28be 5c7c 67be 946b 91be a4de e0be
000000d0: 115d 663e 03a1 5ebe ee73 3c3f 6038 78bd
000000e0: c926 f0bd e43d f1bd 1216 f2bd 010a 10be
000000f0: 8361 bdbe 42d8 06bf ebc4 f7be f71c 973d

running_mean f4 [64]
-0.5911864 -0.45043758 -1.9161618 -0.992652 -0.9997984 -0.013466585 -0.6566259 -0.26754376
0.13870278 -1.2594254 -1.4881679 -1.2981191 -1.1456504 0.87569225 -0.4625951 -1.3121238
-0.23701255 -0.1722198 -2.4522073 -1.4820101 -1.0047153 -0.94539267 -0.19190599 -2.0555162
0.039493598 -1.352232 -1.4829707 0.0792037 -1.0797391 -0.6821686 -0.31852013 -0.8455635
-0.4370483 0.05315622 -1.0987153 -2.037802 -0.19208367 -1.0710504 -0.88880104 -0.03468289
-1.1690068 -0.6539192 -1.3608516 -1.010693 -0.5496794 -0.06671539 -1.6903454 -0.5059788
-1.3620995 -2.291785 -1.1570978 -1.859584 -0.12508957 -0.54514873 0.5776662 -0.5833604
-0.30863 -0.9582759 -0.08063176 -0.8592388 -0.4588212 -1.6681954 -0.5114845 -1.917099
00000000: fe57 17bf c19f e6be ca44 f5bf 711e 7ebf
00000010: caf2 7fbf f4a2 5cbc a318 28bf 7ffb 88be
00000020: 1a08 0e3e da34 a1bf 497c bebf c428 a6bf
00000030: aca4 92bf 5e2d 603f 44d9 ecbe acf3 a7bf
00000040: 6bb3 72be 635a 30be f7f0 1cc0 82b2 bdbf
00000050: 839a 80bf 4105 72bf 0183 44be 948d 03c0
00000060: 0ac4 213d f015 adbf fcd1 bdbf 8d35 a23d
00000070: e434 8abf 9aa2 2ebf 1215 a3be d976 58bf
00000080: cbc4 dfbe 56ba 593d b4a2 8cbf 596b 02c0
00000090: 95b1 44be 2e18 89bf 7788 63bf a50f 0ebd
000000a0: 04a2 95bf 4067 27bf 6330 aebf 635e 81bf
000000b0: cab7 0cbf 14a2 88bd 3d5d d8bf d487 01bf
000000c0: 4759 aebf 9bac 12c0 c81b 94bf d906 eebf
000000d0: 7b17 00be de8e 0bbf efe1 133f 1b57 15bf
000000e0: c004 9ebe 9251 75bf 4422 a5bd 13f7 5bbf
000000f0: 9dea eabe 6d87 d5bf a6f0 02bf 8063 f5bf

running_var f4 [64]
4.034842 2.0968487 4.5025406 3.2393856 5.1736727 2.867965 1.925158 2.9287863
3.4307964 2.6514075 1.8339844 3.0520885 3.1115048 2.7081537 2.809508 9.135214
1.972912 3.578172 4.9560175 2.809352 4.473349 3.3291578 2.8238347 5.708188
1.2460164 5.511637 4.3571734 2.0351222 1.9160101 3.3118312 4.774116 4.474536
3.3157313 2.2434082 2.8413572 4.5368276 2.9545507 3.6854014 2.4369192 3.2184083
2.5667624 1.6915816 2.5693862 5.088807 3.157241 1.7433379 6.110836 3.5606778
6.806212 3.8588538 4.556311 2.0826612 2.854977 3.33927 2.7879043 2.8000293
2.1334915 2.486263 2.2702675 3.0344813 4.8841853 4.5301604 1.8042198 4.479083
00000000: 6d1d 8140 c532 0640 d014 9040 1852 4f40
00000010: ba8e a540 bd8c 3740 946b f63f 3c71 3b40
00000020: 2b92 5b40 a9b0 2940 00c0 ea3f 6b55 4340
00000030: e522 4740 6452 2d40 fbce 3340 d629 1241
00000040: 6188 fc3f c500 6540 b297 9e40 6ccc 3340
00000050: ad25 8f40 ec10 5540 b5b9 3440 7aa9 b640
00000060: 777d 9f3f 555f b040 f76d 8b40 713f 0240
00000070: d23f f53f 0bf5 5340 8fc5 9840 662f 8f40
00000080: f134 5440 0094 0f40 ccd8 3540 b12d 9140
00000090: 5c17 3d40 9edd 6b40 7cf6 1b40 67fa 4d40
000000a0: d645 2440 bf85 d83f d370 2440 82d7 a240
000000b0: 3d10 4a40 b225 df3f f88b c340 25e2 6340
000000c0: 7dcc d940 76f7 7640 4dcd 9140 524a 0540
000000d0: f1b7 3640 9ab6 5540 066d 3240 ae33 3340
000000e0: 208b 0840 ef1e 1f40 104c 1140 f134 4240
000000f0: 3f4b 9c40 13f7 9040 adf0 e63f a654 8f40

weight f4 [64, 64, 3, 3]
0.094052054 0.11919107 0.35434356 0.16323528 0.21665812 -0.095653504 0.26996946 0.46715453
0.05500531 0.0053765867 0.070402175 0.115320854 0.12131118 -0.53047174 -0.055736147 0.24717848
0.079134434 0.037474826 -0.25209123 0.29669973 0.27148122 -0.17790456 -0.09289142 -0.19174042
0.11837655 -0.20701054 0.076836094 -0.0688461 0.28698826 -0.15667272 0.27625436 0.053688984
0.20083307 0.0998672 -0.3713881 -0.033940434 -0.020822927 0.21472695 -0.1297304 0.02778642
0.49652365 -0.26312175 0.14281335 -0.34682134 0.2358081 0.0819109 0.20268686 0.041167922
0.31305814 0.449606 -0.09933375 -0.29189456 -0.0783562 -0.11111421 0.07136381 0.19211867
-0.022166809 0.5565795 -0.6731742 0.21470648 0.27936244 -1.1643493 -0.15745932 -0.36651176
-0.08098358 0.067622 -0.4717169 -0.57887256 -0.30428118 -0.010484785 -0.13318183 -0.21173401
0.15719692 -0.3502946 -0.1278484 0.20884828 0.074986316 0.069972865 -0.09211624 -0.3709142
0.05090813 0.5605261 0.4394985 -0.20655711 -0.07868858 -0.27559757 -0.17261218 0.05091896
-0.41966254 -0.07968572 -0.31025434 0.049277548 0.2667732 0.05064848 -0.043318097 -0.01609921
-0.06424673 0.36790338 -0.019447321 -0.06791736 0.12252747 -0.46291727 -0.16908705 0.17806554
0.1288413 -0.39155418 -0.16201976 -0.16929798 -0.045912433 -0.10879208 -0.53355056 0.12437513
-0.15628314 -0.42536297 -0.5512257 0.04888974 -0.59221846 -0.15005141 0.39561358 0.4332456
-0.9157022 -0.17513312 0.031637687 -0.33577633 -0.27274114 0.38344413 -0.11192837 -0.030700065
-0.050914913 0.5929669 0.19240293 0.079809636 -0.016897067 0.40387756 -0.10041466 -0.032883164
0.10001372 0.44160056 0.061188556 -0.7500987 -0.5897883 -0.11573189 -0.48703313 0.08909712
-1.0222504 0.28382665 0.011784747 -0.07352903 -1.0688648 -0.17259829 -0.19214128 -0.47756168
-0.6182039 0.2265892 -0.01701763 0.24845564 -0.34000456 -0.4711384 0.3851562 -0.3350843
0.01859914 -0.1873108 -0.058511585 0.20116654 -0.2656615 0.2452271 -0.17220825 0.016783245
0.17883453 0.24695376 0.010620221 0.040642466 -0.17605552 0.23109843 -0.10125125 0.15105118
0.09042068 -0.32079026 0.4648513 -0.33388162 -0.047275804 -0.37222362 -0.32331488 -0.19529693
0.25867498 -0.3879549 -0.3252277 -0.08998859 -0.32092422 -0.048088048 -0.29972404 0.27827734
-0.034379948 0.3464842 -0.33748892 -0.11840794 -0.0667932 -0.011804057 -0.46317345 0.24677746
-0.15823203 -0.29442978 0.18618536 0.52913886 0.23697655 -0.10672295 0.091062434 -0.16822259
-0.30263305 0.20264499 -0.34050733 0.39965212 0.5089705 -0.42410108 0.17460373 -0.4051404
-0.08998381 -0.7330377 0.11119923 -0.17021157 -0.46438178 -0.48557338 -0.07915726 0.68220246
0.19256057 0.32271892 -0.3359937 -0.092411205 0.29043 -0.09678216 -0.20179406 -0.22777669
0.4590557 -0.16473208 -0.2663239 -0.1876601 -0.3985118 -0.23982319 0.5360045 0.024180999
-0.12952389 0.36880314 -0.09742859 0.29281077 0.38771665 -0.28719926 -0.050196163 0.19383003
-0.18926156 0.30778635 -0.17609851 -0.00959347 0.18842766 0.25666642 0.14528231 -0.14883463
00000000: 5d9e c03d 731a f43d 856c b53e 2627 273e
00000010: a0db 5d3e fce5 c3bd 7039 8a3e e12e ef3e
00000020: 3f4d 613d 142e b03b 042f 903d 572d ec3d
00000030: ff71 f83d ffcc 07bf 964b 64bd 5b1c 7d3e
00000040: 3c11 a23d 347f 193d 1a12 81be 07e9 973e
00000050: 96ff 8a3e 9d2c 36be db3d bebd 9a57 44be
00000060: 686f f23d 92fa 53be 3e5c 9d3d 2fff 8cbd
00000070: 20f0 923e d06e 20be 3671 8d3e fbe8 5b3d
00000080: 2fa7 4d3e 2d87 cc3d 9526 bebe 2005 0bbd
00000090: d894 aabc 62e1 5b3e 0cd8 04be 59a0 e33c
000000a0: 5938 fe3e e5b7 86be aa3d 123e 9192 b1be
000000b0: ae77 713e e7c0 a73d 258d 4f3e b29f 283d
000000c0: 2849 a03e c232 e63e 7e6f cbbd 3473 95be
000000d0: 3779 a0bd d98f e3bd 3027 923d c2ba 443e
000000e0: 2b97 b5bc fe7b 0e3f 2555 2cbf 04dc 5b3e
000000f0: 9808 8f3e 6609 95bf 043d 21be 6ea7 bbbe
00000100: b8da a5bd 677d 8a3d e184 f1be fe30 14bf
00000110: beca 9bbe 60c8 2bbc d160 08be cdd0 58be
00000120: 3bf8 203e d059 b3be b1ea 02be 53dc 553e
00000130: 6d92 993d ef4d 8f3d 70a7 bcbd 77e8 bdbe
00000140: 0b85 503d a37e 0f3f f305 e13e b583 53be
00000150: 7a27 a1bd 201b 8dbe 3fc1 30be 6690 503d
00000160: 02de d6be 4432 a3bd a8d9 9ebe 41d7 493d
00000170: 7f96 883e c874 4f3d 516e 31bd 7ee2 83bc
00000180: ca93 83bd d55d bc3e fd4f 9fbc 4218 8bbd
00000190: afef fa3d 7e03 edbe 2825 2dbe d056 363e
000001a0: f9ee 033e ca79 c8be 82e8 25be 735c 2dbe
000001b0: ad0e 3cbd 62ce debd c596 08bf 63b8 fe3d
000001c0: b008 20be 2dc9 d9be 211d 0dbf 9c40 483d
000001d0: a19b 17bf 14a7 19be dd8d ca3e 5ed2 dd3e
000001e0: 766b 6abf 1956 33be 8596 013d e0ea abbe
000001f0: baa4 8bbe ca52 c43e b43a e5bd b47e fbbc
00000200: 288c 50bd aecc 173f 4605 453e 3c73 a33d
00000210: b86b 8abc 0ac9 ce3e 34a6 cdbd 7fb0 06bd
00000220: fed3 cc3d 7819 e23e daa0 7a3d 7806 40bf
00000230: 5efc 16bf d704 edbd 685c f9be 8d78 b63d
00000240: 1ad9 82bf ba51 913e d014 413c 6396 96bd
00000250: 90d0 88bf 9bbd 30be afc0 44be f782 f4be
00000260: 9c42 1ebf 0007 683e 8f68 8bbc 286b 7e3e
00000270: 1415 aebe 0d39 f1be 3233 c53e 2b90 abbe
00000280: 395d 983c 67ce 3fbe d8a9 6fbd 9afe 4d3e
00000290: c904 88be d01c 7b3e 5c57 30be 047d 893c
000002a0: 6620 373e 72e1 7c3e 6f00 2e3c b778 263d
000002b0: e647 34be 11a5 6c3e d15c cfbd 29ad 1a3e
000002c0: 7a2e b93d 9f3e a4be fd00 ee3e 88f2 aabe
000002d0: 46a4 41bd 1894 bebe 8789 a5be ebfb 47be
000002e0: 0c71 843e 06a2 c6be 3f84 a6be f04b b8bd
000002f0: 2e50 a4be f9f7 44bd 6e75 99be 5e7a 8e3e
00000300: fdd1 0cbd 6166 b13e 59cb acbe dd7f f2bd
00000310: e0ca 88bd ce65 41bc 1225 edbe 3bb3 7c3e
00000320: 9407 22be 80bf 96be 60a7 3e3e a575 073f
00000330: fba9 723e 9091 dabd f17e ba3d 8b42 2cbe
00000340: b8f2 9abe 2b82 4f3e fa56 aebe 349f cc3e
00000350: e44b 023f c723 d9be 52cb 323e 906e cfbe
00000360: 6f49 b8bd 5ca8 3bbf 6cbc e33d f14b 2ebe
00000370: 73c3 edbe 139d f8be 341d a2bd d2a4 2e3f
00000380: 992e 453e 6a3b a53e 5e07 acbe 1642 bdbd
00000390: 3eb3 943e ba35 c6bd 1aa3 4ebe 4b3e 69be
000003a0: 5909 eb3e 87af 28be 9b5b 88be f829 40be
000003b0: bd09 ccbe 3694 75be 9737 093f 3b17 c63c
000003c0: e9a1 04be c4d3 bc3e a488 c7bd 4beb 953e
000003d0: cc82 c63e c80b 93be 7e9a 4dbd 617b 463e
000003e0: c8cd 41be 2c96 9d3e 2b53 34be ee2d 1dbc
000003f0: 2ef3 403e c869 833e e3c4 143e 1b68 18be

bias f4 [64]
0.03280533 -0.2090864 0.14867775 0.0022723274 -0.010098779 -0.02022968 -0.14032196 0.20627445
-0.08908982 0.041293908 0.2937852 -0.104973204 0.113641806 0.043298796 0.22494285 -0.06882082
0.10867423 0.050919715 -0.06758119 0.060691904 -0.17102891 0.24083318 0.12370745 -0.041211266
-0.11116762 0.23341744 -0.1760463 -0.048298214 -0.2763734 -0.13693796 -0.40334404 0.060914684
-0.025813894 0.043245014 -0.13076384 -0.031627655 0.101595946 0.06630355 0.082012735 -0.06936234
0.24509507 0.0006403396 -0.036044706 -0.22856387 -0.015365527 0.12054019 -0.05232694 -0.11736651
-0.23786567 0.21951745 0.0061489204 -0.17197435 -0.013452879 -0.3017252 0.03906168 -0.15997891
0.06851506 0.1282044 -0.013393902 -0.00977641 0.33006224 -0.06203638 -0.19142655 0.0006660626
00000000: e25e 063d bf1a 56be fb3e 183e 54eb 143b
00000010: 5975 25bc b7b8 a5bc 8fb0 0fbe 9c39 533e
00000020: b974 b6bd cd23 293d 046b 963e 31fc d6bd
00000030: 09bd e83d 145a 313d 6b57 663e eef1 8cbd
00000040: 9890 de3d 3191 503d 0268 8abd 1398 783d
00000050: 3422 2fbe f99c 763e 555a fd3d 25cd 28bd
00000060: d9ab e3bd fb04 6f3e 7b45 34be 59d4 45bd
00000070: d080 8dbe 7739 0cbe 1c83 cebe ad81 793d
00000080: a977 d3bc af21 313d f5e6 05be 008c 01bd
00000090: 8911 d03d 28ca 873d 4bf6 a73d d80d 8ebd
000000a0: 34fa 7a3e 77dc 273a 9da3 13bd a60c 6abe
000000b0: b1bf 7bbc c6dd f63d c654 56bd da5d f0bd
000000c0: 0f93 73be 2fc9 603e e27c c93b 0b1a 30be
000000d0: 7769 5cbc ba7b 9abe 24ff 1f3d 83d1 23be
000000e0: a051 8c3d 0448 033e 1972 5bbc 3c2d 20bc
000000f0: ebfd a83e dc19 7ebd 5205 44be b49a 2e3a

weight f4 [64]
0.78718126 0.5113247 0.73180795 0.5402412 0.42469773 0.53507626 0.5062093 0.34891468
0.46886396 0.33844844 0.34475893 0.3585258 1.0145894 0.8026345 0.5809534 0.37392318
0.6911424 0.42995104 0.637922 0.5827598 0.663557 0.5064674 0.48244768 0.66490954
0.5883664 0.3861741 0.5322446 0.43926117 0.35572684 0.56122506 0.41157904 0.4200367
0.42642424 0.6069399 0.5880589 0.6883456 0.61372244 1.1207396 0.53635055 0.33417574
0.34110406 0.68219274 0.33944908 0.3477525 0.5312396 0.48999742 0.42837206 0.65571404
0.6023627 0.6082038 0.34206495 0.41259584 0.5090633 0.6748539 0.52754116 0.54646343
0.5536794 0.51519394 0.6312779 0.49488965 0.4998914 0.79998153 0.7874306 0.56021017
00000000: b684 493f 2de6 023f c457 3b3f 3f4d 0a3f
00000010: fb71 d93e c2fa 083f ef96 013f f2a4 b23e
00000020: f00e f03e 1d49 ad3e 3e84 b03e b290 b73e
00000030: 11de 813f 7479 4d3f 5db9 143f dc72 bf3e
00000040: b5ee 303f 8b22 dc3e db4e 233f bf2f 153f
00000050: dfde 293f d9a7 013f 6203 f73e 8337 2a3f
00000060: 2e9f 163f 9db8 c53e 2f41 083f d7e6 e03e
00000070: d421 b63e 72ac 0f3f 7dba d23e 0d0f d73e
00000080: 4754 da3e 6a60 1b3f 078b 163f 6b37 303f
00000090: ea1c 1d3f 6574 8f3f 454e 093f 1519 ab3e
000000a0: 31a5 ae3e 2fa4 2e3f 45cc ad3e 9e0c b23e
000000b0: 52ff 073f f1e0 fa3e 9553 db3e e0dc 273f
000000c0: 7134 1a3f 3fb3 1b3f 2323 af3e c33f d33e
000000d0: f951 023f 3ac3 2c3f f00c 073f 07e5 0b3f
000000e0: efbd 0d3f c0e3 033f 6e9b 213f 2d62 fd3e
000000f0: c4f1 ff3e 97cb 4c3f 0d95 493f ef69 0f3f

bias f4 [64]
-0.39210477 -0.37749502 -0.90427524 -0.5968388 -0.11927115 -0.60187745 0.19948208 0.30096924
-0.3577542 0.25506938 0.68871784 0.116530925 -1.2551571 -1.1708922 -0.09144644 -0.036887262
-0.60144156 0.23438361 -0.7124199 -0.33732277 -0.75343484 0.07463775 -0.2501789 -0.1938888
-0.32250452 0.06014876 0.061405376 0.20870425 0.14885336 -0.060795218 0.17592907 0.1855922
-0.31919408 0.037686132 -0.24413344 -0.79832333 -0.23925026 -1.2709793 0.086151674 0.41908824
0.17304055 -0.7452268 0.22584836 0.25270504 -0.11594044 0.029434212 0.17782523 -0.4951035
-0.36179593 -0.55049604 0.57001495 0.2312835 0.0052224076 -0.38894445 -0.31495345 -0.39033127
-0.32731813 -0.3235119 -0.47632074 -0.4631781 0.2397005 -1.1454544 -0.6762445 -0.4145731
00000000: f5c1 c8be 0747 c1be 957e 67bf 6dca 18bf
00000010: 6f44 f4bd a414 1abf 0845 4c3e a418 9a3e
00000020: 8f2b b7be 7498 823e d04f 303f c4a7 ee3d
00000030: fda8 a0bf ccdf 95bf 4548 bbbd 1917 17bd
00000040: 13f8 19bf 4202 703e 2761 36bf 92b5 acbe
00000050: 1be1 40bf addb 983d 7317 80be c98a 46be
00000060: 501f a5be 8c5e 763d 3484 7b3d 91b6 553e
00000070: 046d 183e 6804 79bd c026 343e e20b 3e3e
00000080: 686d a3be c65c 1a3d 1efe 79be eb5e 4cbf
00000090: 05fe 74be 73af a2bf 4a70 b03d bc92 d63e
000000a0: 8b31 313e 2fc7 3ebf cb44 673e 8e62 813e
000000b0: 2e72 edbd 0420 f13c d117 363e 357e fdbe
000000c0: 513d b9be 4fed 0cbf 80ec 113f 95d5 6c3e
000000d0: bb20 ab3b ba23 c7be 9441 a1be 80d9 c7be
000000e0: 3e96 a7be 5aa3 a5be 50e0 f3be ae25 edbe
000000f0: 0c74 753e 409e 92bf 5c1e 2dbf ed42 d4be

running_mean f4 [64]
-2.1281302 -1.342417 -3.9783063 -2.1789827 -0.9515169 -3.362158 0.03235386 -0.011342159
-1.1833878 0.09900819 1.9711802 0.36202368 -2.6785045 -1.8997427 -0.82489616 -0.6502541
-1.9662524 -1.8042868 -2.069658 -2.1734707 -1.9444844 -0.6083722 -0.45874906 -1.8067316
-1.6791611 -0.7180174 -1.1455868 0.46832955 0.44853497 -1.4242022 -0.48894554 -1.1036742
-2.9201837 -3.829313 -1.0431398 -4.218101 -1.6707338 -1.726338 -1.1808698 0.7876748
0.48518205 -3.4817464 -0.32786676 -1.1628841 -2.3056178 -0.42095903 -0.025455547 -1.6025842
-1.828342 -0.5196308 2.1322622 -1.45282 -2.3931007 -3.525631 -1.9024706 -2.4438713
-3.2223713 -0.6897773 -4.6852093 -2.4464529 -0.09234451 -2.6299667 -2.5302694 -0.4737657
00000000: 4933 08c0 52d4 abbf 929c 7ec0 7474 0bc0
00000010: 9d96 73bf 992d 57c0 7b85 043d 76d4 39bc
00000020: 4079 97bf cec4 ca3d a24f fc3f 2b5b b93e
00000030: 9e6c 2bc0 c52a f3bf 652c 53bf 0d77 26bf
00000040: 29ae fbbf dff2 e6bf 4775 04c0 251a 0bc0
00000050: dde4 f8bf 48be 1bbf 28e1 eabe fb42 e7bf
00000060: c0ee d6bf fdcf 37bf 97a2 92bf e4c8 ef3e
00000070: 60a6 e53e 424c b6bf 1257 fabe 3245 8dbf
00000080: 4ae4 3ac0 7713 75c0 9b85 85bf affa 86c0
00000090: 9bda d5bf a5f8 dcbf be26 97bf 0ea5 493f
000000a0: c869 f83e efd4 5ec0 27de a7be 63d9 94bf
000000b0: 3e8f 13c0 f187 d7be 2788 d0bc 7b21 cdbf
000000c0: 1c07 eabf 8606 05bf fc76 0840 01f6 b9bf
000000d0: 9028 19c0 f0a3 61c0 2884 f3bf 6368 1cc0
000000e0: 553b 4ec0 3f95 30bf 3ced 95c0 af92 1cc0
000000f0: 1e1f bdbd 6051 28c0 efef 21c0 6b91 f2be

running_var f4 [64]
5.683239 2.577912 3.6195862 3.1769166 4.105963 3.063326 6.367425 3.7501354
2.506348 3.5892525 4.5107117 3.3672783 5.209992 2.9279757 3.9282718 3.003039
4.249026 4.912164 3.7316072 4.953277 3.6939898 5.043358 3.3700876 5.237219
3.9920552 3.0550094 6.6034474 5.799753 3.7327135 5.9380727 3.7944872 4.122983
3.7531433 6.4210434 4.1757326 4.41379 4.1695747 4.934317 6.176073 3.6973858
3.5489 3.6401024 3.9678645 3.3084817 4.5092506 4.655687 4.230612 3.2962208
3.305966 4.477313 3.744249 4.9848313 6.835483 6.451333 3.9106243 4.4019594
3.2357237 5.152466 4.9037476 3.2814658 5.6621594 2.994432 3.7492533 3.7204785
00000000: 18dd b540 83fc 2440 4da7 6740 9a52 4b40
00000010: 0d64 8340 880d 4440 f2c1 cb40 3802 7040
00000020: 0168 2040 50b6 6540 c057 9040 7d81 5740
00000030: 41b8 a640 f463 3b40 ce68 7b40 ca31 4040
00000040: 05f8 8740 7330 9d40 a7d2 6e40 3f81 9e40
00000050: 546a 6c40 3063 a140 84af 5740 4c97 a740
00000060: d57d 7f40 4685 4340 714f d340 9497 b940
00000070: c7e4 6e40 b104 be40 e1d8 7240 7aef 8340
00000080: 8033 7040 3079 cd40 9a9f 8540 c53d 8d40
00000090: 286d 8540 ede5 9d40 64a2 c540 f8a1 6c40
000000a0: 2d21 6340 70f7 6840 7ef1 7d40 2abe 5340
000000b0: c84b 9040 63fb 9440 2c61 8740 48f5 5240
000000c0: f294 5340 2646 8f40 c7a1 6f40 bd83 9f40
000000d0: 47bc da40 5271 ce40 ab47 7a40 dadc 8c40
000000e0: 1916 4f40 00e1 a440 80eb 9c40 8903 5240
000000f0: 6930 b540 c6a4 3f40 c4f3 6f40 521c 6e40
