models/vishal_lr_001_iter_300.pt_236.pt (torch_old, 473212 bytes, 27 tensors)

weight f4 [64, 1, 3, 3]
000000 51 8f 3d 3c 27 d9 cd bd 37 39 47 3d 82 5a 90 bd
       0.011569814 -0.10051184 0.04863855 -0.07048513
000010 1a 58 17 3e 01 2b b3 bd a6 f3 05 3d 9d ca a2 bd
       0.14779702 -0.08748437 0.032703064 -0.07948802
000020 88 c5 bd 3b 47 21 0e be ab 29 27 be 75 0c 7a be
       0.00579137 -0.13879882 -0.16324489 -0.24418814
000030 90 b6 aa 3e e1 16 21 3f 72 dd 8c be f7 a7 05 be
       0.3334241 0.62925535 -0.275127 -0.13052355
000040 f9 bf ed 3c 9c a2 0a bf a8 3f a0 3e fa 29 c3 3e
       0.029022204 -0.5415437 0.31298566 0.38117963
000050 af fd d8 3d 14 3a 9e be 9f f4 98 be 35 1a 84 be
       0.10595261 -0.30903685 -0.2987413 -0.25801244
000060 a6 bd c0 bd 58 d1 1e 3e b0 af 30 3c 81 1d a7 3d
       -0.094111726 0.15509546 0.010784075 0.08159924
000070 8f 79 0a 3e 3f d6 43 3d c0 f5 86 bd 8f 6a 90 bd
       0.13522933 0.047811743 -0.06589842 -0.070515744
000080 0a 0f 38 3d 07 b9 92 3d 42 1d dd 3d 85 e8 a4 3d
       0.044936217 0.071641974 0.10796596 0.08052162
000090 32 20 d1 3e 61 5d 1a bf 75 bf c7 3d 0f ec 80 3e
       0.40844876 -0.60298735 0.097533144 0.25180098
0000a0 da 1c 52 3d 61 61 9f be fc 04 56 bf 65 53 07 3f
       0.051297046 -0.31128982 -0.83601356 0.52861625
0000b0 68 ea 1c be fc 66 6a 3c 53 99 b2 3d 6c 15 e8 bd
       -0.15323794 0.01430678 0.087206505 -0.11332211
0000c0 a6 a6 26 3e 7e ab 50 be 4c 53 55 3d ad 34 15 be
       0.16274509 -0.20377919 0.05208139 -0.14570875
0000d0 54 a3 b8 3d c1 2a 8c 3d f1 45 81 3b 3d b4 b0 3d
       0.09015527 0.06844092 0.0039451052 0.08628128
0000e0 6f fc 8c 3c 21 c1 28 be a8 07 b4 3d e4 97 c0 bd
       0.017210213 -0.16479923 0.08790523 -0.09403971
0000f0 2a 67 ef 3c 02 bb 0a be f3 79 af c0 60 24 8b 3e
       0.029223997 -0.135479 -5.4836364 0.2717619
000100 27 5e 04 be 22 33 0f be 8b 0b 39 be 42 ad 98 bd
       -0.12926541 -0.1398435 -0.1807081 -0.07454921
000110 7a 26 8a 3e bf cb b7 be 49 88 87 3d 72 8a 9a 3e
       0.2698248 -0.35897633 0.06617791 0.3018375
000120 93 b4 71 3d 65 02 1c be 34 29 92 3d 43 57 07 be
       0.0590101 -0.15235288 0.07136765 -0.13216881
000130 91 7c d9 bf af 62 9e bd fc fd 9e 3d 30 15 d0 bd
       -1.699114 -0.07733666 0.077632874 -0.10160291
000140 97 e0 55 3d 5c 46 4b 3d 6b 65 85 3c cc 8b 39 3c
       0.05221614 0.049627647 0.016283711 0.011324834
000150 20 7b c8 bc f0 a0 62 3d a0 38 aa 3c 60 15 4a bd
       -0.024472773 0.055329263 0.020778954 -0.04933679
000160 61 8a 1f 3c c7 74 6a 3d 70 05 2c 3d 6c 49 e3 bc
       0.009737582 0.057240274 0.041997373 -0.027744971
000170 60 ed 85 bc 64 f6 8c bd fc ac b3 bc 92 a6 85 bd
       -0.01634854 -0.06882933 -0.021933071 -0.065259114
000180 f6 3a c3 bd 09 9b 9f bd cb ef c7 bd 56 cc 7b 3d
       -0.0953273 -0.077932425 -0.09762534 0.061474167
000190 6b 88 ac be b0 91 8e 3e f7 51 21 3d b3 e4 b8 3e
       -0.3369783 0.27845526 0.03938481 0.36111984
0001a0 73 e6 c6 be 89 d9 bf bd 19 47 dc bb 16 7e d6 3d
       -0.38847694 -0.093676634 -0.0067223427 0.10473268
0001b0 a5 e8 09 3e e1 47 1f 3e ba b9 98 be 61 23 39 be
       0.13467653 0.15554763 -0.29829198 -0.18079902
0001c0 c8 f1 fa 3c c2 a3 31 3e d1 98 ed 3c fd de 18 be
       0.030632868 0.17347625 0.029003533 -0.14928813
0001d0 d1 3a d4 3d 8b ea d2 bd 11 7c 45 3e f3 fb cc bd
       0.10362781 -0.10298642 0.19285609 -0.10008993
0001e0 a9 1d 84 3d 2b 05 b1 bd 1d c8 96 3c cd 16 de 3c
       0.0645097 -0.08643564 0.018405968 0.027110482
0001f0 bd bb e6 bd c7 2d b3 3d 78 7c 21 3d 10 fe c0 bc
       -0.11266277 0.08748966 0.039425343 -0.023558646
000200 a4 60 07 bd 78 c1 09 3d 43 b4 b3 bd fc 83 bd bd
       -0.033051148 0.03363177 -0.087746166 -0.0925369
000210 5c 10 89 3c 30 c7 7f 3d 0c ff 0f 3d 75 ce b8 bb
       0.016731434 0.06244582 0.03515534 -0.005639846
000220 7e a3 a4 3c 8d d8 20 3d 43 93 17 3e 4f 19 28 3e
       0.02009749 0.03926902 0.1480227 0.16415904
000230 2a 7d 13 3e be 88 ad bd 20 35 f1 3d 50 10 89 3d
       0.14403215 -0.08473347 0.11777711 0.066925645
000240 12 26 b4 3d a8 d7 ba bd 10 f2 6a 3d 24 d0 4b 3d
       0.08796324 -0.091231644 0.057359755 0.049759045
000250 31 8a 2b bd a0 ed a5 bc 28 4d 54 3d c8 6e 89 bd
       -0.041879836 -0.02025491 0.051831394 -0.06710583
000260 c0 cf 42 bc 22 2f 5d be 79 90 15 be 80 f0 43 be
       -0.011890352 -0.21600011 -0.14605893 -0.19134712
000270 85 0d 05 be 56 a7 42 bd c0 87 03 bd e7 d2 9d 3e
       -0.12993439 -0.047522865 -0.032111883 0.30824968
000280 27 f4 cd 3e 4c 19 9a 3d 6b 76 1f bd 1d 76 d1 3d
       0.40225336 0.07524356 -0.03893129 0.102276064
000290 bb 1b 01 bd 1a 4f 30 3e f7 53 9e 3e 2d 74 d7 3d
       -0.031520586 0.17217675 0.30923435 0.10520206
0002a0 87 64 8e bd 9c 34 2d 3e c6 ae 51 bd 58 bb 96 bd
       -0.06952768 0.169146 -0.051192068 -0.07359952
0002b0 ca b4 27 3c b0 ad 34 3d a9 0d 29 3e 7a 7a c7 bd
       0.010235975 0.044110954 0.16509117 -0.097401574
0002c0 56 bc 73 bd c6 cb c6 bd 44 42 9d 3d 48 e9 21 3c
       -0.059505783 -0.097068354 0.07678655 0.009882279
0002d0 e4 f4 ac 3c 70 5e 6f bc b4 ad 8d bd 6c 92 97 3d
       0.021112867 -0.014609918 -0.06917897 0.07400975
0002e0 26 2c c3 bd 28 73 b0 bd 4e 74 8d bd 72 6b 0a bd
       -0.09529905 -0.08615714 -0.06906949 -0.033793874
0002f0 4c 36 8d bc 68 af 64 3d fe ab 7f bd 1c 48 80 3d
       -0.017237805 0.055831343 -0.062419884 0.06263754
000300 4c 21 a9 bc f6 6c 9c 3d 28 94 05 3c 64 23 f3 bc
       -0.02064576 0.0763797 0.008152999 -0.029679962
000310 ba 55 92 3d c8 9c 2a bc 54 b7 c6 bd e4 55 20 3d
       0.07145257 -0.010413356 -0.09702936 0.03914441
000320 70 20 1a 3d 20 d8 8c bd 19 cd a9 bd 60 77 41 3c
       0.03762859 -0.0687716 -0.082910724 0.011808246
000330 c8 93 24 3c d3 16 a2 bd b0 ab 9b 3b c8 c2 99 bd
       0.010044999 -0.079145096 0.0047506914 -0.07507855
000340 b0 80 21 bc 90 c8 b2 3d dc 81 84 3c 52 93 30 bd
       -0.009857342 0.087296605 0.016175203 -0.043109246
000350 24 58 18 bd e8 c1 bd bd da 9f 93 bd ba 79 cd bd
       -0.037193432 -0.092655 -0.07208224 -0.10032983
000360 1a 94 91 be df 07 86 3e 00 70 bd 3c ba fe 7a 3e
       -0.28433305 0.2617788 0.023124695 0.24511233
000370 e6 b8 6e be bd 7c d3 bb f7 7f 23 3d 0b 15 82 bb
       -0.2331272 -0.006454079 0.03991696 -0.0039697937
000380 f1 5c ec bc 89 76 85 3d 71 7d 86 3d bb ea a1 be
       -0.028852912 0.065167494 0.06566895 -0.31624398
000390 2f 45 84 bd 86 f5 ca 3e 18 3d d3 bd 0d 48 6f be
       -0.06458508 0.39640445 -0.10314387 -0.23367329
0003a0 62 54 79 3e e0 3d 0c bb 39 ff 6b bc d6 dd 28 be
       0.24348596 -0.0021399185 -0.014404112 -0.16490874
0003b0 0e 0b 9a 3d ae 98 06 bd 9a dc bf 3d cb 99 26 bc
       0.0752164 -0.03286045 0.09368248 -0.010168503
0003c0 69 9e 38 3d 68 e7 f5 3d f5 18 14 be 94 3d 59 3d
       0.045072947 0.12007028 -0.14462645 0.05303724
0003d0 61 7e c3 bd 68 f7 ca bd ac ff 9b 3d b2 e3 0f bd
       -0.09545589 -0.0991047 0.07617125 -0.035129257
0003e0 70 f3 b1 3b 5a 25 4f bd 60 8b 46 bc 20 69 29 3b
       0.0054306313 -0.05057273 -0.0121181905 0.0025850013
0003f0 09 9b 45 bd f5 58 41 3d 78 b1 0b bf 88 81 9e 3e
       -0.048243556 0.047203977 -0.5456767 0.309582

bias f4 [64]
000000 e6 a8 4b 3c ad d6 74 3c dd 96 a9 3d 39 c7 17 3b
       0.012430405 0.014943761 0.08280728 0.0023159517
000010 1f 01 ae 3c 21 28 2d 3d f1 93 2b 3e 93 4f 8e 3c
       0.021240769 0.042274598 0.16755654 0.017371928
000020 14 2c 8e 3e 26 78 62 be a4 07 88 bd b5 95 91 3c
       0.27768004 -0.22116145 -0.06642082 0.017771581
000030 8c a4 2e 3d c3 32 7d 3d 2b 00 39 be df 81 e2 be
       0.042637393 0.06181599 -0.1806647 -0.4423971
000040 70 45 70 be 99 54 0f 3d 7f fa cf be 99 a5 d0 3d
       -0.23463988 0.034992788 -0.406208 0.10187835
000050 a8 89 3a be c0 03 a6 be 9e ad 8f be 04 a0 a2 be
       -0.18216574 -0.32424736 -0.28062147 -0.31762707
000060 ab 40 4c 3d 0c 08 27 3d c3 eb 3e 3e 7b 2f 80 be
       0.04986636 0.04077916 0.18644623 -0.25036225
000070 1e 1a a1 bc 86 11 3b bc d0 f2 94 be 0d f6 66 3d
       -0.019665774 -0.011417752 -0.290915 0.056386996
000080 6a 4e a2 be 08 9c 5d bd ae de 44 3c 1b d5 81 be
       -0.3170045 -0.05410388 0.012015982 -0.253579
000090 66 18 f0 bd 01 3b 81 3d 2b e4 bb 3d 06 39 35 3d
       -0.11723404 0.06310082 0.09174379 0.044243835
0000a0 39 06 89 3e 26 b7 57 be 89 6e 56 3d c8 d2 7f be
       0.2676256 -0.2106596 0.05235151 -0.2498275
0000b0 c3 1d 89 be 2d 76 d8 3b 7e af 70 be d4 2b 1a 3d
       -0.2678052 0.0066058845 -0.23504445 0.037639454
0000c0 ba c5 9e be 14 b6 b7 be 21 20 4d 3c 17 00 f1 3c
       -0.31010228 -0.35881102 0.012519867 0.029418988
0000d0 9e 64 2d be 9c 54 dc be 44 39 08 3e 80 64 24 be
       -0.16932914 -0.43033302 0.13303095 -0.16053963
0000e0 99 3c 71 3e d0 28 41 be cc 2c a5 3c 77 73 94 be
       0.23558272 -0.18863225 0.020162962 -0.28994343
0000f0 e6 09 48 3e dc ea 60 3d 6b 8c 2e 3d 7a 93 71 3d
       0.19535026 0.05491148 0.04261438 0.058978535

weight f4 [64, 64, 3, 3]
000000 e6 68 3c 3c d7 ea d6 3c 17 89 60 bc 3c 20 81 3d
       0.011499619 0.026235027 -0.01370456 0.06304976
000010 83 70 0f be 5c 06 2c 3c e5 b5 84 bd 08 eb 94 bd
       -0.14007764 0.010499563 -0.06480006 -0.07271391
000020 90 ab 18 3a 67 a0 25 bf 4b c2 4a be 98 ce 2e 3e
       0.00058239046 -0.6469788 -0.1980068 0.17070997
000030 03 a6 bd 3d 03 60 d0 bd 55 a0 ee bd ab 48 77 bd
       0.0926018 -0.10174563 -0.11651675 -0.060372036
000040 98 e4 ce 3e 27 c6 19 3f ec 86 a3 be 98 bb 26 3e
       0.40408778 0.6006798 -0.31938875 0.16282499
000050 05 b5 f5 bc 00 e2 b1 3e 2b 60 02 3e 58 c2 4d 3c
       -0.029993543 0.34742737 0.12731998 0.012558542
000060 f5 1b b0 3e 4a 34 4e 3e d8 0f 31 3e 1c a0 45 3e
       0.3439633 0.20137134 0.172912 0.19299358
000070 be 20 89 3e c3 31 6d 3e fb 82 8e 3e e6 7d 8b 3e
       0.26782793 0.23163514 0.27834305 0.2724449
000080 60 5e 95 3e 1a 22 ba 3d ac c4 7e 3e 96 d3 4f 3e
       0.29173565 0.090885356 0.24879712 0.20295557
000090 31 6b f5 3e 50 d2 a6 be 73 64 c4 be 56 cd 94 be
       0.47933343 -0.3258233 -0.38357887 -0.2906291
0000a0 c6 ce 89 3e 8e 5b 2d be 11 ef 0f be 8f a9 80 3d
       0.26915568 -0.16929457 -0.1405604 0.06282341
0000b0 84 83 34 be b9 27 15 bd 4c 44 2f be 38 fb da bd
       -0.17628294 -0.036414836 -0.17115897 -0.106924474
0000c0 63 cb ea 3d d9 4e 22 3e 18 50 7b 3d 69 16 62 3c
       0.11464574 0.1585039 0.06135568 0.013799288
0000d0 f0 aa 0d 3d 30 ae 1f bc f9 58 44 bf 4d 98 2e bf
       0.034586847 -0.009746119 -0.7669826 -0.6820114
0000e0 29 a8 24 bf 16 c4 9c bd 7e 0e 35 bd e5 48 81 bd
       -0.6431909 -0.07654588 -0.044203274 -0.06312732
0000f0 80 08 ec be 24 97 a0 be c4 2e 21 bf 9d 21 c6 bd
       -0.46100235 -0.3136531 -0.62961984 -0.0967438
000100 f1 82 29 bd df df 8d 3d ae 30 36 bd 2b ba ac bd
       -0.04138464 0.06927466 -0.04448002 -0.08433946
000110 fe ec eb 3d 46 dd 61 3c 24 c3 ac 3d 6c 66 48 bd
       0.11519812 0.013785666 0.084356576 -0.048925802
000120 70 59 86 3d 6f 53 03 3e eb 36 ce bd 8c e1 f1 bc
       0.065600276 0.12824796 -0.100690685 -0.029526494
000130 9d 51 d7 bd 97 bb c4 bd 45 84 30 be ca 39 8e bd
       -0.105136134 -0.096060924 -0.17237957 -0.06944616
000140 82 24 ac be ba e7 3b bc 06 3b 51 3d f3 0b ea bc
       -0.33621603 -0.011468822 0.05108168 -0.028570151
000150 de ef 64 3b 72 00 ad 3c d9 1a 19 3c 05 e0 48 3d
       0.003493301 0.021118376 0.00934478 0.049041767
000160 3e ec 6f bc 9a cc 82 bd 7e 27 52 3d 36 ea 90 3d
       -0.014643727 -0.06386681 0.051307194 0.07075922
000170 bc ed 24 3d 50 4d 63 bd 60 8b f7 3c f7 40 4f bd
       0.040265784 -0.055493653 0.030217826 -0.050599065
000180 04 6d 1d bd 4e 6c 43 3d 64 df 64 3d 49 e0 85 be
       -0.038434044 0.04771071 0.055877104 -0.26147678
000190 ae 97 a5 be 4b d3 12 bc d7 fe 4e bd 4d e6 23 bd
       -0.32342285 -0.008961509 -0.050536003 -0.040014554
0001a0 f9 09 00 3e 35 ee 9d 3e b9 92 6f 3e a1 e6 b0 bd
       0.12503804 0.308458 0.23395814 -0.08637739
0001b0 d4 e5 2d be 06 46 f8 bd d8 f6 33 3a 6a 08 ac 3d
       -0.16982204 -0.12122731 0.00068650907 0.08400042
0001c0 b7 17 a2 3d df a8 91 bc 8d fc f6 3c b4 a6 07 3d
       0.079146795 -0.01778072 0.030149722 0.033117965
0001d0 98 b8 6b 3d e2 f9 c3 bd b0 51 be 3d 4d 34 55 3c
       0.05754909 -0.09569146 0.092929244 0.013012958
0001e0 52 ef cb 3d 86 10 06 3e c1 fa 68 3d 9c b0 84 bd
       0.09957756 0.1309224 0.056879763 -0.06478998
0001f0 42 ec be bd 82 50 e7 bd a8 33 4d bc 6a e9 3e 3d
       -0.09322406 -0.112946525 -0.012524523 0.04660932
000200 ac 38 32 bc ef 94 6a bd 2c 06 b1 bc 2e 7f 62 bd
       -0.010877769 -0.05727094 -0.021609388 -0.05529707
000210 50 2e 68 bc d4 21 74 3d 7c 04 8a 3c da 9c 81 be
       -0.014171198 0.059602574 0.016847841 -0.2531498
000220 18 4b 6b be e5 8a 18 be 56 a6 8f be ff ae 4f be
       -0.22977865 -0.14896734 -0.28056592 -0.202816
000230 fb 85 49 bd 59 c2 15 3e 23 f6 76 bd 02 1f d2 bd
       -0.04920004 0.14624919 -0.060293328 -0.102598205
000240 14 de 35 3d ac cb 1e bc c4 10 df 3c 1a 82 c6 bc
       0.044401243 -0.009692114 0.027229674 -0.02423196
000250 e8 2c 2d 3d 04 f0 53 bc 84 37 40 bd 6a 1b 0e 3d
       0.042279154 -0.012935642 -0.046927944 0.034694113
000260 6c 91 85 3d ee 65 33 3b ad 89 42 3e 2f 90 a8 3c
       0.06521878 0.0027373987 0.18997832 0.020576565
000270 8c 04 b9 bd 55 24 40 3d 19 98 d8 3d 46 a3 81 3d
       -0.090340704 0.04690965 0.10575885 0.0632997
000280 0a e4 65 3e 35 49 83 3d b0 2b 39 bd 87 f7 ae 3d
       0.22450271 0.064104475 -0.04520768 0.08543306
000290 1f 4a 8e be b9 8e bd bd 6d 09 ae bc 88 d0 46 be
       -0.27790925 -0.09255738 -0.021244729 -0.19415486
0002a0 d5 58 64 3d 7c 61 57 3e 8d 76 3a bd 91 12 b6 3c
       0.05574878 0.21033281 -0.045523215 0.02222565
0002b0 86 0a af 3c 98 ed 60 3d 2b 99 62 3e 07 2d 88 3e
       0.021367323 0.054914087 0.22128741 0.26596853
0002c0 7c 84 8c bd 72 85 5b be f9 e5 39 be ef 0d aa bd
       -0.06861207 -0.21437624 -0.18154134 -0.08303439
0002d0 4c 60 5f bd f0 ea 85 bb 74 c4 5e 3d 32 e7 43 3d
       -0.054535195 -0.0040868446 0.05438657 0.047827907
0002e0 2b 2e 8a bd 78 70 7e 3d fa de 88 3d b4 63 66 bd
       -0.06747087 0.062118977 0.066831544 -0.056247428
0002f0 22 8d 84 bc f8 59 72 bd 10 80 6f bd 48 95 33 bd
       -0.016180579 -0.059167832 -0.05847174 -0.043843538
000300 c8 f6 7f 3d 98 96 05 bc 48 9a 0e bc 12 61 31 3d
       0.06249121 -0.00815358 -0.008703776 0.043305464
000310 68 19 4e bc bf eb 47 bd dc c4 6b 3d 80 2d 5f bd
       -0.0125792995 -0.04880881 0.057560787 -0.05448675
000320 e8 0a 77 bc 34 8d e9 3c c1 e7 1d bd 56 57 5b bd
       -0.015078284 0.028509714 -0.038551096 -0.053550087
000330 a6 f3 88 bc 9c 35 61 3d a0 c8 ad bc 9e 83 24 bd
       -0.016717743 0.054982767 -0.02121383 -0.040164582
000340 20 0b cb bb 7c 24 8d 3c 1c ce ce 3c 8c 2f a0 3c
       -0.0061963946 0.017229311 0.025244765 0.019553922
000350 e0 9b f5 3c 80 76 5a 3c 98 2d 0c 3c 00 b2 91 bc
       0.029981554 0.013333917 0.008555792 -0.017785072
000360 f2 47 71 3d ab 73 25 3d a6 62 97 bd d6 24 91 bd
       0.058906503 0.040393513 -0.073918626 -0.07087104
000370 33 37 65 3e e4 92 3f bd 57 3b 53 bd 1e 98 56 bd
       0.22384338 -0.046770945 -0.051570263 -0.052391164
000380 d3 b2 42 bd 0a 10 39 3e 78 ab 76 3e a0 78 3c bd
       -0.04753382 0.18072525 0.24088848 -0.046013474
000390 a7 b7 80 3e 0a 10 95 3e 4c e8 c7 3c a8 fd 82 3c
       0.25140116 0.291138 0.02440276 0.015990093
0003a0 12 81 7a 3e 2d 8c 23 3d 71 56 a9 3d bd ff 9a ba
       0.24463299 0.039928604 0.082684405 -0.0011825484
0003b0 e7 3b 26 bd c5 ab 71 3e da e5 81 3e 9f 98 be 3e
       -0.04058447 0.23600681 0.25370675 0.37225816
0003c0 59 0d 75 be 72 2c 2f be cd f5 38 be 0a cf 50 3d
       -0.23930873 -0.17106798 -0.18062516 0.050978698
0003d0 2f 20 15 bd ec 26 8d 3c 0e 4e 00 3d da cf 2f bd
       -0.036407646 0.017230473 0.03132444 -0.042922832
0003e0 00 81 6a 3d 53 65 91 bd c2 34 38 3d fa 15 14 3d
       0.05725193 -0.07099404 0.04497219 0.03615377
0003f0 08 57 91 3d fa 9a 35 bc dc fa da 3c e4 ce 1a 3e
       0.07096678 -0.011084313 0.026730947 0.15117985

bias f4 [64]
000000 2f 0c 06 bd e1 cc 9f be e2 16 b4 3e d5 5b 9d bd
       -0.032726463 -0.31210998 0.35173708 -0.07683531
000010 83 ea 51 3e 6e 65 f8 3d 28 4c 99 be b9 ed 12 be
       0.20499615 0.12128721 -0.29940915 -0.14348496
000020 57 a5 75 be 29 8c aa bd 79 ba 01 3e b5 e3 c4 3e
       -0.23988853 -0.08327515 0.1266879 0.38454977
000030 50 57 6a 3e bf 97 7f bd 82 8a be 3d 37 42 5a be
       0.2288487 -0.062400576 0.09303762 -0.21314321
000040 bd d7 91 be 9d 1f 5e be fa 9b 94 3e be d5 a2 3d
       -0.28484908 -0.21691747 0.2902525 0.07950924
000050 17 55 1d bf 94 f7 50 be 60 85 9b 3c 21 5a 94 3e
       -0.6145796 -0.20406944 0.018984497 0.28975013
000060 60 60 af be 1f 26 8f be c8 69 37 3e c4 c4 87 3e
       -0.34253216 -0.27958772 0.17911446 0.26517308
000070 1e 93 71 be 72 42 aa 3e ce e4 13 3d 48 74 12 bf
       -0.23591277 0.3325382 0.036106877 -0.5720868
000080 dc 36 a3 be f0 f9 e5 3d f0 2f 02 be 29 30 68 3e
       -0.31877792 0.112293124 -0.12713599 0.22674622
000090 8c c5 32 3c 2f 8d 70 bd d3 45 80 ba c2 26 85 3e
       0.010911357 -0.058728393 -0.0009786434 0.26006132
0000a0 68 f5 da 3d c4 61 b9 bc b7 c4 2d bf 84 36 0c bf
       0.10691339 -0.022629626 -0.6787829 -0.54770684
0000b0 d2 78 c9 3d 9e 71 89 be b1 43 8f 3e af 4f d7 be
       0.09837498 -0.26844496 0.27981332 -0.4205298
0000c0 ef 5e 0d 3e e4 d3 fc be 4a ac 37 bd b1 92 bc be
       0.13805746 -0.4938041 -0.044842042 -0.36830667
0000d0 af 19 df bd db b0 e9 be 70 4d ee 3d 78 c8 14 3f
       -0.10893571 -0.45642743 0.11635864 0.5811839
0000e0 fb 57 1f 3d 31 06 ff 3e e1 16 83 be 77 12 b8 3e
       0.038902264 0.4980941 -0.25603393 0.35951588
0000f0 9a 43 96 bd 7c 18 75 3e ea 26 1a 3e 1b 67 5f 3e
       -0.07337113 0.23935121 0.15053907 0.21816675

weight f4 [64]
000000 f7 2a 33 3f 65 aa b1 3e 19 f9 20 3f cf 94 87 3e
       0.69987434 0.34700313 0.6288009 0.2648072
000010 51 e7 a6 3e 39 07 a9 3e 20 7b 06 3f 0f ec b9 3e
       0.32598355 0.33013323 0.52531624 0.3631291
000020 44 4e b9 3e 12 12 ae 3e 02 d9 98 3e ac 9e c6 3e
       0.36192524 0.33998162 0.29853064 0.38792932
000030 98 49 a5 3e 8c 56 ab 3e f9 1c 25 3f f9 53 dd 3e
       0.3228271 0.33464468 0.64497334 0.4322813
000040 fe d0 c7 3e 4f 0f 9d 3e 75 45 8d 3e f8 52 8d 3e
       0.39026636 0.30675742 0.27592054 0.27602363
000050 e6 81 61 3e 58 23 0b 3f c8 8f e8 3e b4 0a 92 3e
       0.22022209 0.54350805 0.45422196 0.2852379
000060 f8 d9 51 3e a2 30 a2 3e 4e b1 b5 3e 82 49 a1 3e
       0.20493305 0.3167773 0.35486835 0.31501395
000070 66 83 d3 3e e0 dd aa 3e 1c 75 c4 3e b1 d8 b6 3e
       0.41311187 0.33372402 0.38370597 0.35712197
000080 f0 66 a3 3e b0 b1 aa 3e b7 94 26 3f 3a ab 14 3f
       0.31914473 0.3333869 0.6507067 0.5807377
000090 91 62 c9 3e 13 6c d0 3e 08 ed 6a 3e 3b 23 05 3f
       0.39333013 0.40707454 0.22941983 0.5200688
0000a0 1a ef 9c 3e b8 f4 d5 3e c0 9e a8 3e 81 0e 9b 3e
       0.3065117 0.41788268 0.32933617 0.30284503
0000b0 41 20 aa 3e 5e c2 c0 3e c5 32 fb 3e 5f d8 a7 3e
       0.33227733 0.3764829 0.49062172 0.32782266
0000c0 02 52 bd 3e bb 1b 0a 3f 3c bc 93 3e 16 2d 2b 3f
       0.3697663 0.53948563 0.2885455 0.6686567
0000d0 91 97 c0 3e da 2f 94 3e 8d 49 af 3e 7b ee 07 3f
       0.37615636 0.28942758 0.34235802 0.5309827
0000e0 92 1b 6e 3e 77 0c b4 3e b3 00 0e 3f c3 a3 c4 3e
       0.23252705 0.3516576 0.55469817 0.3840619
0000f0 04 60 7d 3e 0b 36 9a 3e 5c 2c d5 3e 32 2c a5 3e
       0.24743658 0.30119357 0.41635406 0.3226028

bias f4 [64]
000000 1d 02 ea be 24 95 f9 be b2 65 b6 be f3 e6 7d 3d
       -0.45704737 -0.48746598 -0.35624462 0.06198783
000010 0c f5 ae bd 0f 78 9a bd f0 3f 02 3d ed c8 ce be
       -0.08542833 -0.075424306 0.031799257 -0.4038767
000020 d6 8e e1 bd 7e e2 ff be eb 90 8e be 1b b4 df be
       -0.11013572 -0.49977487 -0.2784494 -0.43692097
000030 0f 46 ae be 42 14 ca be 31 65 7d be 70 97 57 be
       -0.34037825 -0.3946858 -0.24745633 -0.21053863
000040 8a fe ce be e9 3a 29 be fb c8 85 be 8b c6 2d bd
       -0.40428573 -0.16526379 -0.26129898 -0.042425673
000050 9d 14 8c 3e 38 22 4a 3d 62 92 fe 3d ab 9f d9 bd
       0.27359477 0.04934904 0.12430264 -0.106261574
000060 a9 f1 30 bf c2 ad 9d be 98 cb 30 3e e7 ba 0f bd
       -0.69118744 -0.3079663 0.17265165 -0.035090353
000070 f7 d4 0b bf 56 db 36 3d 18 0b 38 bc 3f fe 40 be
       -0.54621834 0.04464277 -0.011233114 -0.18846987
000080 ff 1e 3f be 2d 0d ab be c0 d6 8c bf cb 12 b6 be
       -0.18664168 -0.3340849 -1.1003036 -0.35561213
000090 58 71 3c be cb 9e 6b be e9 5e 82 bd 59 37 17 bf
       -0.18402612 -0.23009793 -0.06365759 -0.5906883
0000a0 a6 44 75 be 45 9b 8f be 8c 1b f0 bd ea c1 0b 3d
       -0.23951969 -0.2804815 -0.11724004 0.034120478
0000b0 73 35 05 3e 5b f3 0e bf 6c 98 15 bf 60 3a 3e be
       0.1300867 -0.5584008 -0.584357 -0.18576956
0000c0 60 24 fe be 6c 23 13 3e 6d ee 86 3d 3a b4 5c bf
       -0.49637127 0.14368981 0.06588445 -0.86212504
0000d0 f7 d9 c8 3c d2 9b 56 3e 4b 6e 9e be 75 82 9b bd
       0.024517996 0.20957878 -0.30943522 -0.07593242
0000e0 2d a9 29 3d b8 a1 bb bd 0e 51 71 be b1 cc ce be
       0.041421104 -0.09161705 -0.23566076 -0.40390542
0000f0 44 98 2c 3d 2a 5b 09 3e 2d 98 29 bf fc a9 bc be
       0.0421374 0.13413683 -0.66247827 -0.36848438

running_mean f4 [64]
000000 6a 4c 0d 3f 54 4c f5 be fb 6b 82 3b 2c 29 5a 3e
       0.55194724 -0.47909796 0.0039801574 0.21304768
000010 a9 c8 05 3f ca c2 54 be ea 96 29 be 6a 39 a9 3f
       0.5225931 -0.20777431 -0.16561475 1.3220646
000020 2b 20 3b bd 5c 25 03 bd 19 ab 9c 3d c8 4d 80 3e
       -0.045684975 -0.03201805 0.07649822 0.25059342
000030 a0 01 10 3e 62 e4 b1 be 63 d8 e8 bd 29 6c 0d be
       0.1406312 -0.34744555 -0.113693975 -0.13810791
000040 85 3e 54 be 1b 8b d8 be 34 76 48 3e ab 49 4d 3f
       -0.20726974 -0.4229363 0.19576341 0.80190533
000050 5c e4 ef be fc 9d a9 bf 27 20 fb 3e 2d 47 1d 3e
       -0.46853912 -1.3251338 0.49047968 0.15359183
000060 2e d0 10 be 65 d8 a5 bd 30 c1 92 3f 77 09 56 bf
       -0.14141914 -0.080979146 1.1465206 -0.8360819
000070 ef 7a 7e bf 4a 93 99 3e 0c 3b 37 3d 8a 67 a5 bf
       -0.9940633 0.29995185 0.044734046 -1.2922223
000080 ac 31 1d bf 24 fb 83 bf 0a a8 9b be 35 57 13 3e
       -0.6140392 -1.0311017 -0.3040164 0.14388736
000090 ac db 45 bf db fa 2b bf 6c ab b0 3e 53 e5 3d 3d
       -0.7728832 -0.6717965 0.34505785 0.04636128
0000a0 d5 14 3f bd 75 fc 9c 3c a7 2c 17 bf 27 a1 a8 3d
       -0.046650726 0.01916335 -0.5905251 0.08233862
0000b0 84 24 6f 3e 58 e5 78 bf e1 5b 95 3e 7d e7 26 bf
       0.23353773 -0.9722495 0.2917166 -0.65196973
0000c0 49 80 c7 be 2a 1f 77 bf 23 8c c9 bc e3 b4 04 bf
       -0.3896506 -0.9653193 -0.024602955 -0.5183851
0000d0 0b 14 c2 bd b6 bb 8a bf 6a 9b e6 3c fd 41 a9 3f
       -0.09476479 -1.0838535 0.02815028 1.3223263
0000e0 a1 23 15 3e 21 a5 df 3e 10 2e 87 3e 5d b2 8d be
       0.14564373 0.4368067 0.2640233 -0.27675143
0000f0 c5 1b bb be eb dd 07 bd 69 f3 cf bd b7 17 16 3e
       -0.36544624 -0.03317062 -0.10153849 0.14657484

running_var f4 [64]
000000 a0 66 c5 3d ec 59 32 3d c1 51 0b 3e 9b c1 97 3d
       0.09638715 0.043542787 0.13605405 0.07409974
000010 e5 90 49 3d 86 47 9f 3d 96 33 90 3d d6 e4 44 3d
       0.049210448 0.07777314 0.07041089 0.048069797
000020 f1 0c 8e 3d 53 80 36 3d 3c 9e 87 3c 39 4f d5 3c
       0.06936062 0.044555973 0.016554944 0.026038753
000030 c6 2b 1c 3d c0 54 2b 3d 5e 74 ee 3d ee c9 2a 3d
       0.038127683 0.04182887 0.11643289 0.04169648
000040 bf 87 16 3d 82 ec 4a 3d e5 09 2f 3d 66 d7 b0 3d
       0.03675055 0.049541958 0.042734046 0.08634834
000050 28 9c 5b 3d fe 09 b4 3d 9c c4 b4 3d 2f 02 4d 3d
       0.05361572 0.08790968 0.08826563 0.05005091
000060 82 34 9c 3c 7b 8c 39 3d d2 f1 92 3d 95 cf 98 3d
       0.019068006 0.04529999 0.0717503 0.07461468
000070 f9 67 90 3d ef ed 21 3d 89 97 86 3d f6 f5 7b 3d
       0.07051081 0.03953355 0.06571872 0.061513864
000080 8a 86 77 3d e8 5d c9 3d 36 32 83 3d 76 86 a0 3d
       0.06043104 0.09832364 0.06406061 0.078381464
000090 8e 99 e2 3d 43 bc 31 3d 97 3b 3e 3d 3b 29 48 3d
       0.110644445 0.04339243 0.046443548 0.048867445
0000a0 f8 86 b7 3c 5d 65 55 3d ec 66 90 3d ef 2a 5d 3d
       0.022403225 0.05209862 0.07050881 0.053996023
0000b0 49 3c 9b 3d a5 35 af 3d 4e ef 67 3d da 8b 73 3d
       0.07579858 0.08555154 0.056624703 0.059459545
0000c0 33 cf 80 3d 18 ef ab 3c a2 b0 67 3d 68 f5 7c 3d
       0.0628952 0.020988032 0.056564935 0.061757475
0000d0 e5 ac 31 3d 1b 67 ac 3d 36 25 f6 3c ac 6f 01 3e
       0.043377776 0.08418103 0.03004704 0.12640256
0000e0 f8 fa e9 3c cf 5c 13 3d c6 f0 80 3d 8b ae 56 3d
       0.028562054 0.03597718 0.06295924 0.05241255
0000f0 ca 4e 3f 3d d8 8b 68 3d b9 88 82 3c ef 04 a5 3c
       0.046706 0.05677399 0.015934335 0.020143954

weight f4 [64, 64, 3, 3]
000000 4c 39 b8 3e de 55 8e 3d d7 10 43 3d dc b4 49 be
       0.35981214 0.069499716 0.04762348 -0.19697899
000010 f6 60 32 bd f9 28 ac bd 0f 85 93 be 60 95 a0 be
       -0.0435495 -0.084062524 -0.28812453 -0.31363964
000020 35 af 4a be bd a1 28 3d 7b cf 0d be 22 98 d7 bd
       -0.19793399 0.04116987 -0.13848679 -0.10527064
000030 d6 82 6d 3d 80 2f 0d be 5e 75 35 bd ca 3d 15 3e
       0.057986103 -0.13787651 -0.044301383 0.14574352
000040 10 91 3f bd b5 ff 36 be b6 b5 ab 3c 8b de 2b 3e
       -0.0467692 -0.17870982 0.02096067 0.16784112
000050 36 4a ed bd 5e c0 7c bd 9d df 51 3e ad a3 d9 bd
       -0.1158642 -0.061706893 0.20495458 -0.10626922
000060 43 31 63 3e b7 dc 27 b9 7a 9a d2 bb 91 06 63 bd
       0.2218676 -0.00016008584 -0.0064271064 -0.055426184
000070 ad 40 7c 3e ee ba 9f 3d aa e5 47 bd a4 b8 a9 be
       0.24634047 0.07799326 -0.04880301 -0.33148682
000080 1c 92 87 be 21 b9 02 3c e7 d8 0a bd 79 67 d2 3d
       -0.2647866 0.0079787085 -0.03389826 0.10273642
000090 81 ed d0 bc a0 8c 0d 3f 11 2b 6c be ad 7b aa 3e
       -0.025503876 0.552927 -0.23063304 0.33297482
0000a0 f3 c6 67 3e 73 b8 8a be 03 b4 99 bd 16 8a 54 bd
       0.22634487 -0.2709385 -0.07505038 -0.0518895
0000b0 ed 9c b0 bd 0c 76 be bc 95 e0 c4 3c 02 b3 dd bc
       -0.08623681 -0.023249649 0.02403287 -0.027062897
0000c0 2e 9e 3e 3e e7 91 94 bd 95 13 62 3e bb e7 20 be
       0.18615028 -0.07254391 0.22077782 -0.15713398
0000d0 ea 43 25 3d e5 2f 8f bd 10 8e ec 3c 88 98 f3 3d
       0.04034797 -0.06991557 0.028876334 0.118943274
0000e0 10 10 a3 3d 46 0e c0 bd b2 96 bd bd 35 9d 20 be
       0.07962048 -0.093777224 -0.092572585 -0.1568497
0000f0 81 a4 08 be 5b 59 b4 ba 36 30 36 bd a8 59 cf bd
       -0.13344003 -0.001375954 -0.04447957 -0.101245224
000100 e1 ab 42 be 3e 6a 05 3e 92 2b 07 3d e2 aa a4 3d
       -0.19010879 0.1302881 0.033000536 0.08040406
000110 bd 99 ec be 86 2e df 3b ca e6 04 3f ed 71 8b 3d
       -0.46211043 0.006810966 0.51914656 0.06808839
000120 fa af fc bd 91 d5 0a bd 4a 87 02 3d 15 df 8c bc
       -0.12338252 -0.03389508 0.031867303 -0.017196218
000130 64 fc e9 bd ca 2a 07 3e fc fb 82 be db f6 a6 bd
       -0.11425093 0.13199916 -0.25582874 -0.08152553
000140 c0 3f 2d bd c8 cd 80 3e 68 d8 b6 3e 5f f1 8a bd
       -0.042297125 0.25157 0.3571198 -0.06784319
000150 68 16 0e 3e 1b 68 96 bf af c9 90 3e b9 6c 88 3e
       0.13875735 -1.175052 0.28278872 0.2664545
000160 93 34 2c 3f f1 bd ad be e5 24 d7 bd c9 b2 34 bd
       0.6726772 -0.33933976 -0.10505084 -0.044115815
000170 8e b5 73 3e 87 4c 06 be aa 5f 0e be aa d8 94 3e
       0.23799726 -0.1311513 -0.1390368 0.29071552
000180 b5 ad 19 bd dc 2e 57 be 62 16 91 3d 0d 09 89 3c
       -0.037519176 -0.21013969 0.07084347 0.016727949
000190 1e a5 ce 3e fe 7d 0e bd dd d3 be bd 42 66 a8 bd
       0.4036035 -0.034788124 -0.093177535 -0.08222629
0001a0 89 e7 1b bc 81 25 7f 3c 88 ab f4 bd b1 71 7e 3d
       -0.0095156515 0.0155729065 -0.119467795 0.062120143
0001b0 31 14 ba 3e 3f e0 91 be 2f 9d 35 be 71 21 bf 3e
       0.3634353 -0.284914 -0.17735742 0.373302
0001c0 7f a6 76 bd 9e 90 0f be fe e1 61 3e c6 39 eb bd
       -0.060217377 -0.14020011 0.22058865 -0.11485629
0001d0 d2 83 37 be 71 2b db bd 0b 39 bb bd 8d 2e 9d bd
       -0.17921379 -0.10701645 -0.091417395 -0.076748945
0001e0 7f 8c 1f 3d 35 38 c4 3e f5 3e b1 3b 4e 00 c0 bd
       0.038952347 0.38324133 0.0054091164 -0.09375058
0001f0 f4 cf af 3d dc a9 0e be ae 3a f6 be 0d ca 5b 3d
       0.08584586 -0.13931984 -0.48091644 0.053659488
000200 95 91 44 3d 87 20 ba be 58 fb 94 3e 4f 38 3c 3e
       0.0479904 -0.3635294 0.2909801 0.18380855
000210 b1 1d b9 be f9 b7 fd 3d 12 e2 92 3d da 9f c4 3d
       -0.36155465 0.123886056 0.07172026 0.09600802
000220 53 fe 74 3d e7 82 05 bc 1d 84 36 be 4f 3c b6 bd
       0.059812855 -0.008148885 -0.17823835 -0.08898222
000230 92 73 08 be a4 49 88 3e e4 28 79 3e 1d a1 f7 bd
       -0.13325337 0.26618683 0.24332005 -0.12091277
000240 65 80 b5 bd 4f e2 de 3e cc 3d 2d 3e 81 45 54 3d
       -0.0886238 0.43532035 0.16918105 0.051824097
000250 3f 53 5f be 0a 61 ea 3d e8 eb 0d be 89 7e 58 be
       -0.218091 0.1144429 -0.13859522 -0.2114202
000260 39 1e 69 bd 82 eb a9 bc a3 f3 ee bd 3b e0 d7 3d
       -0.05691359 -0.020742182 -0.11667564 0.105408154
000270 c3 5f 22 be cc 0a 46 be 2d 9f 6d 3e 47 5b 18 be
       -0.15856843 -0.19340056 0.23205252 -0.1487857
000280 92 13 18 be 08 e0 30 3e 82 47 3c 3d e5 f7 63 3c
       -0.14851215 0.17272961 0.045966633 0.013914083
000290 64 94 c3 3d 24 e6 84 bd 21 3b 11 be 9a e0 36 3d
       0.09549788 -0.06489208 -0.14182712 0.04464779
0002a0 e5 b3 da bc b8 22 02 3e 83 a9 50 bd 76 c4 7b bd
       -0.026697109 0.12708557 -0.05094291 -0.061466657
0002b0 87 4e 96 3c 92 a7 8a 3d e1 a4 e0 bd 83 74 ec bc
       0.018347992 0.06770243 -0.10968948 -0.02886415
0002c0 e8 1d d0 be d3 8e 57 bc 4f fb 2c bd 76 31 d6 bb
       -0.40647817 -0.013156611 -0.042231854 -0.006536658
0002d0 f7 b0 29 3e 73 57 ca be 18 eb 14 3d 7d aa ef bd
       0.16571413 -0.39519843 0.036357015 -0.1170244
0002e0 f9 f5 5b 3e ce 62 2b be b2 5d 53 be 9e e7 e8 bc
       0.2148055 -0.1673691 -0.2064121 -0.028430756
0002f0 81 4f 83 bd 1b 7f 1a 3d b0 e3 32 3e 53 cf 3a 3e
       -0.064116485 0.037718873 0.17469668 0.1824315
000300 cf e7 d8 3d d0 03 cb bc f8 2e cc be 6f 73 13 be
       0.10591089 -0.024782091 -0.39879584 -0.14399503
000310 22 ac 78 bc a9 73 d4 3d 09 c9 0e bc 7f 7e cb be
       -0.015177758 0.10373623 -0.008714923 -0.39744946
000320 65 1d 75 3e c3 a3 ce 3d 9b fa 8a 3e 3d 0e 02 be
       0.23936994 0.10089829 0.27144322 -0.12700744
000330 2d d5 52 3e 67 34 9a bd da d3 89 bc 91 b4 aa bc
       0.20589133 -0.07529526 -0.016824652 -0.020838054
000340 c5 d2 d8 bd 5a 92 c9 bd 7f f4 68 be 22 cd 1d bc
       -0.10587076 -0.098423675 -0.22749518 -0.009631427
000350 a4 74 ed bc 1d 6b 51 3e dc 62 01 3e 44 9e 47 be
       -0.028986283 0.20451017 0.12635368 -0.19493967
000360 9c 17 e3 bc 89 32 04 3e 78 87 be bd d9 db 14 be
       -0.027721219 0.12909903 -0.09303182 -0.1453699
000370 06 91 fa 3b 9d 03 33 3e 98 e6 a2 3d 7b f2 23 bd
       0.0076466827 0.17481847 0.079541385 -0.04002617
000380 17 34 fe 3b 1d 22 f0 3d a7 2e b0 3d 24 a9 88 3e
       0.0077576744 0.117252566 0.08602648 0.26691544
000390 90 e2 5d 3d c1 a6 1f be b5 8a 2c be a1 4a 7b 3d
       0.054171145 -0.15590955 -0.16849788 0.06135047
0003a0 db e6 35 be 7f 8e 66 3d 9a 81 c1 3d fc aa 17 3e
       -0.17763846 0.05628824 0.09448548 0.14811319
0003b0 8f 68 d3 3d 25 14 a5 3c bc 4c 67 3d 65 30 dd 3c
       0.10322677 0.020151207 0.056469664 0.027000615
0003c0 75 66 a9 bc 79 32 e9 3a 70 af b4 3d d7 f0 aa be
       -0.020678738 0.0017791531 0.088225245 -0.3338687
0003d0 4a 44 8a bd 64 6e 88 bd 8e 42 ab bd 2e 88 b3 be
       -0.06751306 -0.0666168 -0.08362304 -0.35064834
0003e0 4e 67 1e 3e 88 b9 0b be ea 2e d7 bb 07 bc 22 be
       0.15469095 -0.13644993 -0.006566872 -0.15892039
0003f0 55 84 47 be c4 93 4e be 49 4f 1c be b9 f0 58 be
       -0.19484074 -0.20173556 -0.1526462 -0.21185578

bias f4 [64]
000000 94 e4 de 3e 60 20 98 be a6 f5 15 3e 4e 2f 4a be
       0.43533766 -0.297122 0.14644489 -0.19744608
000010 c9 7e 3a bc 54 63 c0 be bb ad c5 3c 80 7d 05 3d
       -0.011382767 -0.3757578 0.024130693 0.03259039
000020 a7 3e 86 be 02 8e 28 3e 41 82 c9 bc 84 b2 e2 3d
       -0.26219675 0.16460422 -0.024598243 0.110692054
000030 03 bc 86 bd 6e 94 0f 3e ed cb 92 3e ca 0b 79 bd
       -0.06578829 0.14021465 0.28671208 -0.06080226
000040 b8 56 b1 3e eb 51 30 be a1 54 77 3d f7 de 26 bd
       0.34636474 -0.17218749 0.060383443 -0.04073998
000050 6c 61 5e be cc f6 2d 3e bb 5e 28 be 4a 54 12 3e
       -0.21716851 0.16988677 -0.16442387 0.14289966
000060 f3 2b 95 3e 9d fb 88 3d 39 5a 5c be 85 6a 70 bd
       0.29135093 0.066886164 -0.21518792 -0.058695335
000070 8d 66 d1 3c c8 fa 44 3d 9d b6 95 bd fc 91 93 be
       0.025561595 0.048090726 -0.07310221 -0.28822315
000080 c2 2e ac be 75 0a ac 3d 08 20 f2 be b8 09 8b be
       -0.33629423 0.08400432 -0.47290063 -0.27155852
000090 0f ae 71 3e d6 71 79 bd 19 47 1b 3e d1 2a 0f 3e
       0.23601554 -0.060899578 0.1516384 0.13981177
0000a0 df a4 e5 3d cf b4 47 be df fa 83 be 8e 96 09 bf
       0.11213087 -0.19502567 -0.25777337 -0.53745353
0000b0 9f 27 7b 3c c5 a1 87 3d 83 95 03 be 1a 37 29 3e
       0.015329271 0.06622652 -0.12850003 0.16524926
0000c0 08 f8 ac 3d 9e c8 02 bf 63 a9 ae bd 02 2f 34 be
       0.08445746 -0.5108737 -0.08528402 -0.17596057
0000d0 8f 90 27 be b1 ff 67 be 3f fe c1 be e0 d3 3e be
       -0.16363738 -0.22656132 -0.37889287 -0.18635511
0000e0 74 87 fa bd 89 31 de be 7c 92 59 3e 46 81 f3 3e
       -0.12232867 -0.43397167 0.21247286 0.47559565
0000f0 5e 91 15 3e c2 05 c6 3d 4a cb 44 be 7d 24 84 3e
       0.14606234 0.09669067 -0.19218174 0.25809088

weight f4 [64]
000000 08 29 1a 3f 24 62 ec 3e 52 6a 07 3f 55 19 aa 3e
       0.6021886 0.46168625 0.52896607 0.33222452
000010 26 74 2c 3f 56 32 f1 3e c1 9b 99 3e 76 13 3d 3f
       0.6736473 0.47108716 0.30001643 0.7385782
000020 c3 11 1e 3f 25 62 04 3f e7 6c 3e 3f 10 c2 b3 3e
       0.6174585 0.51712257 0.7438492 0.35108995
000030 92 ff 29 3f a3 24 55 3f 75 ee b7 3e 3d 1c 9b 3e
       0.66405594 0.8325903 0.35924116 0.30294982
000040 bd 3d dd 3e df d2 22 3f 2f 63 a9 3e 8d d3 b8 3e
       0.43211165 0.63603014 0.33083484 0.360989
000050 2f 3a b3 3e f2 33 a4 3e b2 b0 9b 3e ef 7a c9 3e
       0.35005328 0.3207088 0.30408245 0.39351603
000060 47 38 05 3f 9f 73 1c 3f f4 50 96 3e e1 5e 3a 3f
       0.52039 0.61113924 0.29358637 0.72801024
000070 70 15 16 3f a4 fb f2 3e 6f 55 f9 3e 5d 48 d6 3e
       0.5862646 0.47457612 0.48697993 0.41852084
000080 a5 b1 e3 3e 53 b9 c2 3e 9e cd b6 3e 23 08 e9 3e
       0.4447147 0.38032016 0.35703748 0.4551402
000090 cd 0b c2 3e 6e 47 24 3f 25 7b 00 3f 88 43 26 3f
       0.37899628 0.64171493 0.50187904 0.64946795
0000a0 4d 71 91 3e 1d a9 e5 3e 51 81 c5 be 6f 24 1b 3f
       0.28406754 0.44855586 -0.38575223 0.6060247
0000b0 ec d1 f1 3e c5 b9 25 3f 50 6a 41 3f d7 42 be 3e
       0.4723047 0.64736587 0.75552845 0.3716037
0000c0 e6 4e 2f 3f 82 ba c0 3e 3f 43 07 3f 3a 27 a6 3e
       0.68479764 0.37642294 0.52836984 0.32451802
0000d0 83 1e 30 3f 92 66 37 3f ec c7 cc 3e 9d 20 1f 3f
       0.6879656 0.71640885 0.39996278 0.6215914
0000e0 db 3b bc 3e c0 7f fa 3e 75 51 ab 3e 0d ed 2f 3f
       0.36764416 0.4892559 0.33460584 0.68721086
0000f0 83 62 51 3f 15 13 a6 3e 22 ae 2f 3f 6b 0b 14 3f
       0.8179094 0.32436433 0.6862508 0.5782992

bias f4 [64]
000000 71 c6 81 bf 10 18 49 3e 0e d8 76 be c8 7c 9f bd
       -1.0138685 0.19638085 -0.24105856 -0.07787472
000010 6c 1a 39 be d2 ee 14 bf 30 2f ba bb e8 3b 8f be
       -0.18076485 -0.5817691 -0.0056818947 -0.27975392
000020 15 81 b6 be 36 16 2f bf 52 71 b9 bd b6 a6 84 be
       -0.35645357 -0.68393266 -0.09054817 -0.2590844
000030 c5 1c 24 be b3 bf 17 bf 36 d9 e1 bc cd 0a 01 be
       -0.160266 -0.59276885 -0.027569395 -0.12601776
000040 70 cd d0 be 9d cb 04 3e 12 ba 8f 3d c2 d2 99 3c
       -0.40781736 0.12968297 0.07017912 0.018777255
000050 99 7f 6c be 83 19 aa 3e 9e b8 15 3f 93 8c 94 bd
       -0.2309555 0.3322259 0.5848483 -0.07253375
000060 8b 3f 39 3d 02 73 30 bd 18 c9 4d 3e cf 9e 99 be
       0.045226615 -0.04307843 0.20096242 -0.30003974
000070 21 26 ef be e0 81 5b be b3 7f 3e bf 68 6c 75 be
       -0.46708778 -0.21436262 -0.74413604 -0.23967135
000080 33 f4 c3 be 61 92 95 bd 35 d6 a6 be c2 ea 2d 3d
       -0.38272247 -0.0730331 -0.32585302 0.04246021
000090 80 53 06 3f 2d 3b 8b be af 17 19 bd 59 32 96 bf
       0.5247116 -0.27193585 -0.037376102 -1.1734115
0000a0 8e c3 86 3e d4 ef da be 72 54 8c be 11 13 ce 3d
       0.2632107 -0.427611 -0.27408177 0.100622304
0000b0 c2 48 a5 be 3b 91 80 bf f1 dd 52 be 1f 27 7c 3e
       -0.32282072 -1.0044321 -0.20592476 0.24624299
0000c0 65 ae de be c0 21 70 be dc bc bc be 58 53 a8 bd
       -0.43492427 -0.23450375 -0.36862838 -0.082190216
0000d0 20 2e c6 bc ba db 11 bf d0 12 b2 be eb 0f ff bd
       -0.024191916 -0.569759 -0.34779978 -0.12454208
0000e0 45 f6 c7 be d9 04 89 bd 31 28 5f be 18 98 01 bf
       -0.39055076 -0.06690378 -0.21792676 -0.506227
0000f0 dc 76 f5 bd b3 2e 32 be 28 68 f8 be dc fb 1e bf
       -0.11985561 -0.17400627 -0.48516965 -0.62103057

running_mean f4 [64]
000000 fa 5a 0b 3e 17 36 c8 bf 97 fc 98 bf 5c 2d 99 bd
       0.13608924 -1.5641507 -1.1952084 -0.07479355
000010 61 87 df be 72 3c 91 bf 7d 2e ed 3f e6 f5 22 bf
       -0.43657973 -1.1346571 1.8529812 -0.6365646
000020 35 59 87 bf ac 9a ab bf cc ba c5 bf 44 fe 6f bf
       -1.0574099 -1.3406577 -1.5447631 -0.93747354
000030 18 24 17 bf e9 9c 53 bf 52 83 00 3e bd b3 af 3e
       -0.5903945 -0.826613 0.12550095 0.34316817
000040 5c 55 9a be 7a 2e 91 bf c3 c4 5b bd 80 f7 31 3f
       -0.3014325 -1.1342309 -0.053654443 0.6951828
000050 fb 77 22 3f 64 f8 14 3f b6 52 6d bf 2e a9 88 3e
       0.63464326 0.58191514 -0.9270433 0.26691574
000060 82 19 1a bc f7 6a cb 3f c6 13 07 bf 05 31 7c bf
       -0.009405496 1.5892018 -0.52764547 -0.985123
000070 6c f3 c1 be 85 38 92 bf af 69 6b 3f 20 91 a4 bf
       -0.3788103 -1.1423498 0.91958135 -1.2856789
000080 e4 f1 eb 3d d3 c4 45 bf 54 8c c4 3e 64 a8 97 be
       0.11520746 -0.77253455 0.38388312 -0.2962066
000090 6f a4 4b 3e 01 3c 50 bf 47 2d fd 3f 05 c7 0e bf
       0.19886945 -0.8134156 1.9779443 -0.5577243
0000a0 9b 47 7c bf 70 27 aa 3f f1 3e 5e 3e 3b 73 b6 3f
       -0.9854676 1.3293285 0.21703698 1.4253916
0000b0 fb 48 40 bf c2 5b b4 3f 5a b3 02 be 23 9f 8a bf
       -0.7511136 1.4090502 -0.1276373 -1.0829815
0000c0 62 5b 70 bf 45 83 e7 bf f1 21 78 bf b6 7c 1f bf
       -0.9388944 -1.8086935 -0.9692679 -0.6229967
0000d0 7e e9 fd bf 61 91 0c 3f c6 f0 93 be 3b 40 d4 be
       -1.9836881 0.5490933 -0.28894633 -0.41455254
0000e0 20 40 0e be 07 f3 b2 bf eb 13 b1 be a7 bb 11 bf
       -0.13891649 -1.3980416 -0.3458551 -0.5692696
0000f0 6a 79 bf 3f b8 d0 ca 3e fc 8f 31 3e 73 c1 02 3f
       1.4958928 0.39612365 0.17340082 0.5107643

running_var f4 [64]
000000 56 4f 79 3e 8a 8d 67 3f a4 ee 06 40 f8 e1 68 3f
       0.2434667 0.90450346 2.1083155 0.909698
000010 ed 83 f6 3f 93 e9 87 3f f7 43 23 3f fd 4d a1 3f
       1.925901 1.0618156 0.6377558 1.2601925
000020 c4 17 83 3f 1f 75 78 3f 43 76 be 3f d4 f4 bc 3f
       1.0241628 0.9705371 1.4879841 1.4762216
000030 f1 17 8a 3f 51 f8 f0 3f 7c e3 99 3f bc 88 38 3f
       1.0788556 1.882578 1.2022548 0.7208364
000040 20 9e 22 3f 59 4c d7 3f cb fd 8c 3f 4e ab 40 3f
       0.6352253 1.6820174 1.1014951 0.7526139
000050 48 37 89 3f 5e 91 3a 3f f6 a2 83 3f 78 3a 67 3f
       1.0719995 0.7287806 1.0284107 0.9032359
000060 9c 80 ac 3f b4 19 ed 3f 5a f3 57 3f 6a 2d 94 3f
       1.3476748 1.8523469 0.843557 1.1576359
000070 af 8b 69 3f 73 ed 0b 40 4b 26 4e 3f a5 84 a1 3f
       0.91228765 2.1863678 0.8052718 1.2618605
000080 15 f3 24 3f 46 e3 8b 3f ce a4 55 3f d2 28 9d 3f
       0.64433414 1.0928733 0.83454597 1.2278082
000090 b1 82 ad 3f e6 57 e9 3f ca b5 b2 3f 1b 9d 33 3f
       1.3555509 1.822995 1.3961728 0.701616
0000a0 b7 55 c7 3f f2 19 d8 3f 07 69 43 3f 56 aa aa 40
       1.5573033 1.6882918 0.76332134 5.333293
0000b0 bc 77 68 3f 82 39 4a 3f bc 30 5e 40 8c e9 b1 3f
       0.908077 0.78994 3.4717245 1.3899398
0000c0 e0 e2 c8 3f b9 e0 39 3f 47 fa d4 3f 25 aa 71 3f
       1.5694237 0.72608525 1.6638879 0.94400245
0000d0 91 d1 01 40 d9 16 12 40 e3 b9 fc 3e 3c ba bc 3f
       2.028416 2.2826445 0.4936057 1.4744334
0000e0 05 31 ec 3e 97 3c 92 3f 00 4d b5 3f 0d cd 05 3f
       0.4613115 1.142474 1.4164124 0.5226601
0000f0 f2 85 93 3f 75 28 26 3f 7a 4a a8 3f d6 4f 54 3f
       1.1525252 0.6490548 1.3147728 0.8293432

weight f4 [64, 64, 3, 3]
000000 87 38 3a 3d 0f b2 0a 3d ab c6 30 3e 2e 34 57 be
       0.045464065 0.033861216 0.17263286 -0.21015999
000010 5c 82 8f be f2 34 b4 bf 34 40 34 bd 0f 0c 46 3b
       -0.28029144 -1.4078658 -0.04400654 0.003021959
000020 4a 7c 84 bf f5 59 36 be b9 d6 02 3e 49 19 3e 3e
       -1.035043 -0.17807753 0.12777223 0.18564333
000030 fe ab cd bd f3 ee 6b 3d d1 10 ae 3d 45 f7 c3 bd
       -0.100425705 0.057600927 0.08499301 -0.09568647
000040 a9 e5 85 bb 3a af 41 be 71 c0 9a bd 0a 8f 92 be
       -0.0040862155 -0.189145 -0.075562365 -0.28624755
000050 79 a3 8a be f9 1f 85 be 46 1d 88 be a4 67 26 be
       -0.27077845 -0.26000956 -0.26584834 -0.16250473
000060 76 37 41 3e d5 ac 30 be 23 af c7 be 6b 5b 9e bd
       0.18868813 -0.1725343 -0.39000806 -0.0773228
000070 4d 74 37 bd de a6 42 be e6 88 d6 bd dd c8 38 be
       -0.044788647 -0.19008967 -0.1047533 -0.18045373
000080 51 7c 80 bd 03 9f 9d be c6 47 c5 be cd aa de 3d
       -0.062737115 -0.3078538 -0.3853132 0.108724214
000090 b2 59 d5 ba 5c f2 a6 bd 14 45 b0 be 59 90 f2 3c
       -0.0016277342 -0.08151695 -0.34427702 0.029609846
0000a0 34 02 06 3e 50 b5 0b 3e 45 e2 f5 bd c8 43 99 be
       0.13086778 0.13643384 -0.12006048 -0.29934525
0000b0 94 dd ac be 3b 0c b9 3c 71 da 46 3e cf cf 7e be
       -0.337628 0.02258884 0.19419266 -0.2488396
0000c0 f4 58 dc 3c 90 d1 83 bb 34 ab 46 bd ad 2c 10 3e
       0.026897885 -0.0040227845 -0.048503116 0.14079542
0000d0 54 e5 fd 3d 30 a3 95 3d 4c 01 96 3d 99 c1 0c 3d
       0.123972565 0.07306516 0.07324466 0.034364317
0000e0 45 51 90 3e cc 5d 8d be 49 1f 12 bf d6 62 42 be
       0.28187004 -0.27610624 -0.5707899 -0.18983015
0000f0 e4 75 c3 bd 78 f7 de 3d 92 6b d9 3b f4 26 6e 3e
       -0.0954397 0.10887045 0.006635138 0.23257047
000100 9c 7c b9 3d 4d fa 5f bc 2a 8f 41 3e b4 62 8e 3e
       0.090569705 -0.013670516 0.18902269 0.2780968
000110 e2 18 0b be 34 a8 8a be f1 9d c2 3b 0c 3b ff 3d
       -0.13583711 -0.27081454 0.0059392382 0.12462434
000120 13 ba a2 be f5 75 0a be 05 d0 24 be 83 83 e2 be
       -0.31782588 -0.1352156 -0.16094978 -0.4424096
000130 b8 d5 bb bd 90 a3 ce bd 34 b0 1e bf 60 ae d9 be
       -0.09171623 -0.10089791 -0.61987615 -0.4251585
000140 d8 cd ef be 61 59 4e be 5e 6a 9b 3d 93 ce eb 3e
       -0.46836734 -0.20151283 0.07588647 0.4605604
000150 b2 34 8d be 71 b4 8b be 77 04 17 3e f9 20 92 be
       -0.27579266 -0.27286103 0.14747797 -0.2854078
000160 0f 29 c9 bd c0 51 73 3d a9 ec 25 3e 25 b0 9d be
       -0.098222844 0.059404135 0.1620356 -0.3079845
000170 8e 2e bc 3d 46 59 7b bd f0 16 eb 3c b9 11 ea bd
       0.09188567 -0.061364435 0.02869746 -0.114291616
000180 e6 26 58 3e 9f bb 40 3e d4 e1 12 be 10 99 40 3d
       0.21108589 0.18821572 -0.14343959 0.04702097
000190 f9 c8 90 be d8 80 82 3e 92 7b 81 be 6a e3 d4 be
       -0.2827833 0.25488925 -0.2528959 -0.41579753
0001a0 ba 28 0f be 62 58 00 3e a0 21 c4 3d 92 ed ff bc
       -0.1398038 0.12533715 0.09576726 -0.031241212
0001b0 fb b2 07 3e 2a 9f 62 be a3 6e 64 3c 6c 2a e4 3d
       0.1325187 -0.22131029 0.0139423935 0.11140904
0001c0 30 24 ab 3d 86 e4 fc bd 1c 1c 27 be 28 c2 cd bd
       0.083565116 -0.12348275 -0.16319317 -0.10046798
0001d0 d7 b0 b7 3d 95 c4 12 be 78 c5 80 3d 5b 94 64 3e
       0.089692764 -0.14332803 0.06287664 0.22322218
0001e0 3f 4f cb 3d 3d 89 5e be 54 6c 39 3e c0 49 07 3d
       0.09927224 -0.2173204 0.1810773 0.033029318
0001f0 5f 1b da bd f6 d4 5a 3d fd 2f b0 bd 86 73 a5 be
       -0.10649752 0.05342575 -0.08602903 -0.323147
000200 8c cb 0f bf 34 d0 c7 3e a8 c6 3b 3b 31 fc e1 3d
       -0.5616996 0.39026034 0.0028652344 0.1103443
000210 76 25 cd bd 08 b7 0d bf f7 e2 5c 3e da 6a 78 be
       -0.10016911 -0.5535741 0.21570955 -0.2425951
000220 91 5a 8a be 20 77 d1 3e ee d5 13 3e 1c 93 b1 bd
       -0.27022222 0.40911198 0.14437076 -0.08670637
000230 6a 55 d7 be 4d 7c 26 3e 51 b9 3d 3f 9c e9 f5 be
       -0.42057353 0.16258354 0.74110895 -0.48029792
000240 c7 ce bf 3e d7 75 3b be e1 7a 9c be 34 9b 0d 3e
       0.37462446 -0.18306671 -0.305625 0.13828737
000250 63 9d 71 be 0b 65 81 be ad bb ce 3e 3f 15 92 be
       -0.23595195 -0.25272402 0.4037756 -0.28531834
000260 15 cc 49 be 6e 0b 0f 3e f9 3a 3d bd b9 7d d8 3e
       -0.19706757 0.13969204 -0.04619882 0.4228342
000270 2b c5 84 3d 70 c8 96 bb 72 69 7b 3e a2 4c 87 be
       0.06482919 -0.0046015307 0.24551943 -0.26425654
000280 2d cc 54 3e 52 55 be 3d a9 f0 ff bd 88 cb ef be
       0.20781012 0.09293617 -0.12497074 -0.4683497
000290 c2 a3 39 3c 20 d4 96 be 2d a0 46 bf 82 3f 82 bf
       0.011330547 -0.29458714 -0.7758816 -1.0175631
0002a0 6b 31 9d 3d af 2b 8b be 44 20 80 be 5c b5 39 3e
       0.07675441 -0.27181765 -0.25024617 0.1813559
0002b0 39 af b1 3d ff ff af be 01 9d 46 3d 34 ad 0c 3e
       0.08675999 -0.34374997 0.048489574 0.13737947
0002c0 9a b3 6a 3d 7d 75 3f be ec 1e 82 be e8 42 06 be
       0.057300188 -0.18697162 -0.25414217 -0.1311146
0002d0 c7 5e 8d 3d 36 91 7a bd a6 c5 a2 3c cf 20 98 3e
       0.06902843 -0.06117364 0.019869637 0.2971253
0002e0 90 f4 f0 bd ee 81 79 3e 8a 88 bf 3e ff f9 e6 be
       -0.117653966 0.2436597 0.3740886 -0.45112607
0002f0 36 f6 42 bd c2 27 43 be e0 1c 37 3d 7e e4 57 3e
       -0.047598086 -0.19058135 0.04470527 0.21083257
000300 4a 4c 50 3e 0a c0 46 bd 93 25 2f 3e 8d 6f d0 3d
       0.20341602 -0.048522986 0.17104177 0.101775266
000310 3b a0 d8 3b e4 62 de bd 2e 57 80 be 79 88 a1 bd
       0.006610898 -0.10858706 -0.25066513 -0.07887358
000320 6f 15 61 be 2a 6c c9 bd b8 25 25 3e c5 0d 94 3e
       -0.21980833 -0.09835084 0.1612767 0.28916755
000330 de 05 4a be 3d d9 21 3e aa 4e 36 3e 48 f0 0d 3e
       -0.197288 0.15805526 0.17803445 0.13861191
000340 d2 aa 7b 3e 76 2a c2 3e 25 60 ba be f6 28 e9 3d
       0.24576882 0.3792302 -0.36401477 0.11384766
000350 a1 03 cc bd 5b c9 87 bd 9a db 93 3e 9f 0d 85 3e
       -0.0996163 -0.066302024 0.2887848 0.25986955
000360 e5 f3 00 3e 63 63 5b bd e7 1b bb 3c cf 80 a9 bd
       0.12593038 -0.05356158 0.022840453 -0.082765214
000370 ae 0e 69 bc ca 51 8a 3d 7b aa 7e bd f2 fd 7b be
       -0.014224691 0.06753881 -0.0621743 -0.24608591
000380 1c 04 66 be 18 2b dd bd d6 f5 5c be b6 28 1e bf
       -0.22462505 -0.10799235 -0.21578154 -0.6178087
000390 4d 13 4f bb 1d 9d 35 ba ec 60 a6 be e3 6f d0 3c
       -0.0031597198 -0.0006928014 -0.3249582 0.025443977
0003a0 b5 09 11 be b5 27 09 bf 50 2a 56 be 79 2d 40 be
       -0.14163859 -0.53576213 -0.20914578 -0.18767346
0003b0 8a 4a 26 3d f8 72 6c 3e 4c 97 d6 bd df b3 36 3c
       0.04059843 0.23090732 -0.10478076 0.011151283
0003c0 8e a8 85 3e 4d 9b ed bd f0 66 e8 3d 07 e4 2c be
       0.2610516 -0.11601887 0.11347759 -0.1688386
0003d0 f7 38 86 3d 25 a3 41 3e 49 5c 7d be cf 35 04 3e
       0.06553834 0.18909891 -0.24742235 0.12911151
0003e0 bd 92 c3 3b 16 fe 70 3e 73 13 11 be 91 f5 80 3e
       0.0059684203 0.23534426 -0.14167576 0.25187352
0003f0 b8 67 01 3f c2 64 25 3e 20 0f af 3e b1 41 1e 3d
       0.5054889 0.16151717 0.34191227 0.038636867

bias f4 [64]
000000 0b 44 66 be 14 4d 54 3d 10 4b 53 bd 43 b9 8c 3c
       -0.22486894 0.05183132 -0.051585257 0.017178183
000010 3d 37 5e bd e6 b8 47 be a9 30 67 bb 08 09 a4 3c
       -0.054251898 -0.19504127 -0.0035276806 0.020023838
000020 2f 0f 97 be 33 8c 77 3e 93 b0 31 bd 15 11 fb bd
       -0.29503772 0.24174576 -0.043381285 -0.122591175
000030 a7 45 58 3e 64 7e 2d be 46 6e 6d 3e a5 6a 74 3e
       0.2112032 -0.16942745 0.23186597 0.23868807
000040 fb 11 04 3f d8 0f ff bc b6 fd 7b 3d 7c 4a 7d be
       0.51589936 -0.031135485 0.061521254 -0.24735445
000050 c1 90 c0 3b 27 a9 98 3e db f1 d8 bd 00 17 88 3e
       0.005876631 0.29816553 -0.10593005 0.26580048
000060 3a 24 1f be 56 d2 6a 3b 21 71 2f bd 0d 7f 24 be
       -0.15541163 0.0035830936 -0.042832498 -0.16064091
000070 ff 5e a9 3c 92 53 83 3e d8 cf 00 3e 02 fa b5 bd
       0.02067518 0.25649697 0.12579286 -0.08885576
000080 29 95 cf 3d 98 ca 0f be e3 71 73 bd 89 23 47 be
       0.10135872 -0.14042127 -0.059434783 -0.1944715
000090 12 23 14 be b6 2b 49 3e a7 ff ab 3c 5c b0 3a 3d
       -0.14466503 0.1964558 0.020995928 0.045578346
0000a0 86 1c 49 3c ac 69 27 be f1 d6 b5 bd 20 46 1c 3d
       0.012274867 -0.16348904 -0.088788874 0.038152814
0000b0 cb d7 c3 3d 36 c3 fb 3d e8 c4 94 bd 3f eb 0d be
       0.095626436 0.12293093 -0.072641194 -0.1385927
0000c0 76 87 84 be d0 77 a8 be 31 60 1a be b7 a1 ff 3d
       -0.25884598 -0.3290391 -0.15075757 0.124820165
0000d0 3d c3 52 3e 8b 8a 14 3e 4e 95 39 3d 44 02 d7 bd
       0.2058229 0.14505975 0.045308404 -0.10498479
0000e0 ac 1f 3d be 56 ab fa bc 87 f4 04 3d 7f 6c fe bd
       -0.18469113 -0.030599277 0.032459762 -0.12423038
0000f0 04 51 80 be 15 8d 86 be b2 08 d7 3a 2b 30 b1 be
       -0.2506181 -0.26279512 0.001640579 -0.34607062
